def @main(%input0: Tensor[(32, 256), int64] /* ty=Tensor[(32, 256), int64] span=/embeddings/word_embeddings/Gather.input0:0:0 */, %input1: Tensor[(32, 256), int64] /* ty=Tensor[(32, 256), int64] span=/Unsqueeze.input1:0:0 */, %input2: Tensor[(32, 256), int64] /* ty=Tensor[(32, 256), int64] span=/embeddings/token_type_embeddings/Gather.input2:0:0 */) -> (Tensor[(32, 256, 1024), float32], Tensor[(32, 1024), float16]) {
  %1001 = fn (%p0533: Tensor[(32, 256), int64] /* ty=Tensor[(32, 256), int64] */, %p1364: Tensor[(30000, 128), float16] /* ty=Tensor[(30000, 128), float16] */, %p2145: Tensor[(32, 256), int64] /* ty=Tensor[(32, 256), int64] */, %p349: Tensor[(2, 128), float16] /* ty=Tensor[(2, 128), float16] */, %p4: Tensor[(1, 256, 128), float16] /* ty=Tensor[(1, 256, 128), float16] */, Primitive=1) -> Tensor[(32, 256, 128), float32] {
    %991 = less(%p0533, 0i64 /* ty=int64 span=/embeddings/word_embeddings/Gather:0:0 */) /* ty=Tensor[(32, 256), bool] */;
    %992 = add(%p0533, 30000i64 /* ty=int64 span=/embeddings/word_embeddings/Gather:0:0 */) /* ty=Tensor[(32, 256), int64] */;
    %993 = where(%991, %992, %p0533) /* ty=Tensor[(32, 256), int64] */;
    %994 = less(%p2145, 0i64 /* ty=int64 span=/embeddings/token_type_embeddings/Gather:0:0 */) /* ty=Tensor[(32, 256), bool] */;
    %995 = add(%p2145, 2i64 /* ty=int64 span=/embeddings/token_type_embeddings/Gather:0:0 */) /* ty=Tensor[(32, 256), int64] */;
    %996 = where(%994, %995, %p2145) /* ty=Tensor[(32, 256), int64] */;
    %997 = take(%p1364, %993, axis=0) /* ty=Tensor[(32, 256, 128), float16] */;
    %998 = take(%p349, %996, axis=0) /* ty=Tensor[(32, 256, 128), float16] */;
    %999 = add(%997, %998) /* ty=Tensor[(32, 256, 128), float16] */;
    %1000 = add(%999, %p4) /* ty=Tensor[(32, 256, 128), float16] */;
    cast(%1000, dtype="float32") /* ty=Tensor[(32, 256, 128), float32] */
  } /* ty=fn (Tensor[(32, 256), int64], Tensor[(30000, 128), float16], Tensor[(32, 256), int64], Tensor[(2, 128), float16], Tensor[(1, 256, 128), float16]) -> Tensor[(32, 256, 128), float32] */;
  %1002 = %1001(%input0, meta[relay.Constant][0] /* ty=Tensor[(30000, 128), float16] span=/embeddings/word_embeddings/Gather.embeddings.word_embeddings.weight:0:0 */, %input2, meta[relay.Constant][1] /* ty=Tensor[(2, 128), float16] span=/embeddings/token_type_embeddings/Gather.embeddings.token_type_embeddings.weight:0:0 */, meta[relay.Constant][2] /* ty=Tensor[(1, 256, 128), float16] span=/embeddings/position_embeddings/Gather:0:0 */) /* ty=Tensor[(32, 256, 128), float32] */;
  %1003 = fn (%p0534: Tensor[(32, 256, 128), float32] /* ty=Tensor[(32, 256, 128), float32] */, Primitive=1) -> Tensor[(32, 256, 1), float32] {
    mean(%p0534, axis=[-1], keepdims=True) /* ty=Tensor[(32, 256, 1), float32] */
  } /* ty=fn (Tensor[(32, 256, 128), float32]) -> Tensor[(32, 256, 1), float32] */;
  %1004 = %1003(%1002) /* ty=Tensor[(32, 256, 1), float32] */;
  %1005 = fn (%p0532: Tensor[(32, 256, 128), float32] /* ty=Tensor[(32, 256, 128), float32] */, %p1363: Tensor[(32, 256, 1), float32] /* ty=Tensor[(32, 256, 1), float32] */, Primitive=1) -> Tensor[(32, 256, 128), float32] {
    subtract(%p0532, %p1363) /* ty=Tensor[(32, 256, 128), float32] */
  } /* ty=fn (Tensor[(32, 256, 128), float32], Tensor[(32, 256, 1), float32]) -> Tensor[(32, 256, 128), float32] */;
  %1006 = %1005(%1002, %1004) /* ty=Tensor[(32, 256, 128), float32] */;
  %1007 = fn (%p0531: Tensor[(32, 256, 128), float32] /* ty=Tensor[(32, 256, 128), float32] */, Primitive=1) -> Tensor[(32, 256, 1), float32] {
    %990 = power(%p0531, 2f /* ty=float32 */) /* ty=Tensor[(32, 256, 128), float32] */;
    mean(%990, axis=[-1], keepdims=True) /* ty=Tensor[(32, 256, 1), float32] */
  } /* ty=fn (Tensor[(32, 256, 128), float32]) -> Tensor[(32, 256, 1), float32] */;
  %1008 = %1007(%1006) /* ty=Tensor[(32, 256, 1), float32] */;
  %1009 = fn (%p0530: Tensor[(32, 256, 1), float32] /* ty=Tensor[(32, 256, 1), float32] */, %p1362: Tensor[(32, 256, 128), float32] /* ty=Tensor[(32, 256, 128), float32] */, %p2144: Tensor[(128), float32] /* ty=Tensor[(128), float32] */, %p348: Tensor[(128), float32] /* ty=Tensor[(128), float32] */, Primitive=1) -> Tensor[(8192, 128), float16] {
    %984 = add(%p0530, 1.19209e-07f /* ty=float32 */) /* ty=Tensor[(32, 256, 1), float32] */;
    %985 = rsqrt(%984) /* ty=Tensor[(32, 256, 1), float32] */;
    %986 = multiply(%p1362, %985) /* ty=Tensor[(32, 256, 128), float32] */;
    %987 = multiply(%986, %p2144) /* ty=Tensor[(32, 256, 128), float32] */;
    %988 = add(%987, %p348) /* ty=Tensor[(32, 256, 128), float32] */;
    %989 = reshape(%988, newshape=[-1, 128]) /* ty=Tensor[(8192, 128), float32] */;
    cast(%989, dtype="float16") /* ty=Tensor[(8192, 128), float16] */
  } /* ty=fn (Tensor[(32, 256, 1), float32], Tensor[(32, 256, 128), float32], Tensor[(128), float32], Tensor[(128), float32]) -> Tensor[(8192, 128), float16] */;
  %1010 = %1009(%1008, %1006, meta[relay.Constant][3] /* ty=Tensor[(128), float32] */, meta[relay.Constant][4] /* ty=Tensor[(128), float32] */) /* ty=Tensor[(8192, 128), float16] */;
  %1011 = fn (%p0529: Tensor[(8192, 128), float16] /* ty=Tensor[(8192, 128), float16] */, %p1361: Tensor[(1024, 128), float16] /* ty=Tensor[(1024, 128), float16] */, Primitive=1) -> Tensor[(8192, 1024), float16] {
    nn.dense(%p0529, %p1361, units=None, out_dtype="float16") /* ty=Tensor[(8192, 1024), float16] */
  } /* ty=fn (Tensor[(8192, 128), float16], Tensor[(1024, 128), float16]) -> Tensor[(8192, 1024), float16] */;
  %1012 = %1011(%1010, meta[relay.Constant][5] /* ty=Tensor[(1024, 128), float16] span=/encoder/embedding_hidden_mapping_in/MatMul:0:0 */) /* ty=Tensor[(8192, 1024), float16] */;
  %1013 = fn (%p0528: Tensor[(8192, 1024), float16] /* ty=Tensor[(8192, 1024), float16] */, %p1360: Tensor[(1024), float16] /* ty=Tensor[(1024), float16] */, Primitive=1) -> Tensor[(32, 256, 1024), float16] {
    %983 = reshape(%p0528, newshape=[32, 256, 1024]) /* ty=Tensor[(32, 256, 1024), float16] */;
    add(%p1360, %983) /* ty=Tensor[(32, 256, 1024), float16] */
  } /* ty=fn (Tensor[(8192, 1024), float16], Tensor[(1024), float16]) -> Tensor[(32, 256, 1024), float16] */;
  %1014 = %1013(%1012, meta[relay.Constant][6] /* ty=Tensor[(1024), float16] span=Identity_0.encoder.embedding_hidden_mapping_in.bias:0:0 */) /* ty=Tensor[(32, 256, 1024), float16] */;
  %1015 = fn (%p0527: Tensor[(32, 256, 1024), float16] /* ty=Tensor[(32, 256, 1024), float16] */, Primitive=1, relay.reshape_only=1) -> Tensor[(8192, 1024), float16] {
    reshape(%p0527, newshape=[-1, 1024]) /* ty=Tensor[(8192, 1024), float16] */
  } /* ty=fn (Tensor[(32, 256, 1024), float16]) -> Tensor[(8192, 1024), float16] */;
  %1016 = %1015(%1014) /* ty=Tensor[(8192, 1024), float16] */;
  %1017 = fn (%p0526: Tensor[(8192, 1024), float16] /* ty=Tensor[(8192, 1024), float16] */, %p1359: Tensor[(1024, 1024), float16] /* ty=Tensor[(1024, 1024), float16] */, Primitive=1) -> Tensor[(8192, 1024), float16] {
    nn.dense(%p0526, %p1359, units=None, out_dtype="float16") /* ty=Tensor[(8192, 1024), float16] */
  } /* ty=fn (Tensor[(8192, 1024), float16], Tensor[(1024, 1024), float16]) -> Tensor[(8192, 1024), float16] */;
  %1018 = %1017(%1016, meta[relay.Constant][7] /* ty=Tensor[(1024, 1024), float16] span=/encoder/albert_layer_groups.0/albert_layers.0/attention/query/MatMul:0:0 */) /* ty=Tensor[(8192, 1024), float16] */;
  %1019 = fn (%p0525: Tensor[(8192, 1024), float16] /* ty=Tensor[(8192, 1024), float16] */, %p1358: Tensor[(1024), float16] /* ty=Tensor[(1024), float16] */, Primitive=1) -> Tensor[(512, 256, 64), float16] {
    %979 = reshape(%p0525, newshape=[32, 256, 1024]) /* ty=Tensor[(32, 256, 1024), float16] */;
    %980 = add(%p1358, %979) /* ty=Tensor[(32, 256, 1024), float16] */;
    %981 = reshape(%980, newshape=[32, 256, 16, 64]) /* ty=Tensor[(32, 256, 16, 64), float16] */;
    %982 = transpose(%981, axes=[0, 2, 1, 3]) /* ty=Tensor[(32, 16, 256, 64), float16] */;
    reshape(%982, newshape=[-1, 256, 64]) /* ty=Tensor[(512, 256, 64), float16] */
  } /* ty=fn (Tensor[(8192, 1024), float16], Tensor[(1024), float16]) -> Tensor[(512, 256, 64), float16] */;
  %1025 = fn (%p0537: Tensor[(32, 256, 1024), float16] /* ty=Tensor[(32, 256, 1024), float16] */, Primitive=1, relay.reshape_only=1) -> Tensor[(8192, 1024), float16] {
    reshape(%p0537, newshape=[-1, 1024]) /* ty=Tensor[(8192, 1024), float16] */
  } /* ty=fn (Tensor[(32, 256, 1024), float16]) -> Tensor[(8192, 1024), float16] */;
  %1026 = %1025(%1014) /* ty=Tensor[(8192, 1024), float16] */;
  %1027 = fn (%p0536: Tensor[(8192, 1024), float16] /* ty=Tensor[(8192, 1024), float16] */, %p1366: Tensor[(1024, 1024), float16] /* ty=Tensor[(1024, 1024), float16] */, Primitive=1) -> Tensor[(8192, 1024), float16] {
    nn.dense(%p0536, %p1366, units=None, out_dtype="float16") /* ty=Tensor[(8192, 1024), float16] */
  } /* ty=fn (Tensor[(8192, 1024), float16], Tensor[(1024, 1024), float16]) -> Tensor[(8192, 1024), float16] */;
  %1028 = %1027(%1026, meta[relay.Constant][9] /* ty=Tensor[(1024, 1024), float16] span=/encoder/albert_layer_groups.0/albert_layers.0/attention/key/MatMul:0:0 */) /* ty=Tensor[(8192, 1024), float16] */;
  %1029 = fn (%p0535: Tensor[(8192, 1024), float16] /* ty=Tensor[(8192, 1024), float16] */, %p1365: Tensor[(1024), float16] /* ty=Tensor[(1024), float16] */, Primitive=1) -> Tensor[(512, 256, 64), float16] {
    %1020 = reshape(%p0535, newshape=[32, 256, 1024]) /* ty=Tensor[(32, 256, 1024), float16] */;
    %1021 = add(%p1365, %1020) /* ty=Tensor[(32, 256, 1024), float16] */;
    %1022 = reshape(%1021, newshape=[32, 256, 16, 64]) /* ty=Tensor[(32, 256, 16, 64), float16] */;
    %1023 = transpose(%1022, axes=[0, 2, 3, 1]) /* ty=Tensor[(32, 16, 64, 256), float16] */;
    %1024 = reshape(%1023, newshape=[-1, 64, 256]) /* ty=Tensor[(512, 64, 256), float16] */;
    transpose(%1024, axes=[0, 2, 1]) /* ty=Tensor[(512, 256, 64), float16] */
  } /* ty=fn (Tensor[(8192, 1024), float16], Tensor[(1024), float16]) -> Tensor[(512, 256, 64), float16] */;
  %1030 = %1019(%1018, meta[relay.Constant][8] /* ty=Tensor[(1024), float16] span=Identity_7:0:0 */) /* ty=Tensor[(512, 256, 64), float16] */;
  %1031 = %1029(%1028, meta[relay.Constant][10] /* ty=Tensor[(1024), float16] span=Identity_6:0:0 */) /* ty=Tensor[(512, 256, 64), float16] */;
  %1032 = fn (%p0524: Tensor[(512, 256, 64), float16] /* ty=Tensor[(512, 256, 64), float16] */, %p1357: Tensor[(512, 256, 64), float16] /* ty=Tensor[(512, 256, 64), float16] */, Primitive=1) -> Tensor[(512, 256, 256), float16] {
    nn.batch_matmul(%p0524, %p1357, out_dtype="float16", transpose_b=True) /* ty=Tensor[(512, 256, 256), float16] */
  } /* ty=fn (Tensor[(512, 256, 64), float16], Tensor[(512, 256, 64), float16]) -> Tensor[(512, 256, 256), float16] */;
  %1037 = fn (%p0538: Tensor[(32, 256), int64] /* ty=Tensor[(32, 256), int64] */, %p1367: float16 /* ty=float16 */, %p2146: float16 /* ty=float16 */, Primitive=1) -> Tensor[(32, 1, 1, 256), float16] {
    %1033 = expand_dims(%p0538, axis=1) /* ty=Tensor[(32, 1, 256), int64] */;
    %1034 = expand_dims(%1033, axis=2) /* ty=Tensor[(32, 1, 1, 256), int64] */;
    %1035 = cast(%1034, dtype="float16") /* ty=Tensor[(32, 1, 1, 256), float16] */;
    %1036 = subtract(%p1367, %1035) /* ty=Tensor[(32, 1, 1, 256), float16] */;
    multiply(%1036, %p2146) /* ty=Tensor[(32, 1, 1, 256), float16] */
  } /* ty=fn (Tensor[(32, 256), int64], float16, float16) -> Tensor[(32, 1, 1, 256), float16] */;
  %1038 = %1032(%1030, %1031) /* ty=Tensor[(512, 256, 256), float16] */;
  %1039 = %1037(%input1, 1f16 /* ty=float16 span=/Constant:0:0 */, -10000f16 /* ty=float16 span=/Constant_1:0:0 */) /* ty=Tensor[(32, 1, 1, 256), float16] */;
  %1040 = fn (%p0523: Tensor[(512, 256, 256), float16] /* ty=Tensor[(512, 256, 256), float16] */, %p1356: float16 /* ty=float16 */, %p2143: Tensor[(32, 1, 1, 256), float16] /* ty=Tensor[(32, 1, 1, 256), float16] */, Primitive=1) -> Tensor[(32, 16, 256, 256), float32] {
    %976 = reshape(%p0523, newshape=[32, 16, 256, 256]) /* ty=Tensor[(32, 16, 256, 256), float16] */;
    %977 = divide(%976, %p1356) /* ty=Tensor[(32, 16, 256, 256), float16] */;
    %978 = add(%977, %p2143) /* ty=Tensor[(32, 16, 256, 256), float16] */;
    cast(%978, dtype="float32") /* ty=Tensor[(32, 16, 256, 256), float32] */
  } /* ty=fn (Tensor[(512, 256, 256), float16], float16, Tensor[(32, 1, 1, 256), float16]) -> Tensor[(32, 16, 256, 256), float32] */;
  %1041 = %1040(%1038, 8f16 /* ty=float16 span=/encoder/albert_layer_groups.0/albert_layers.0/attention/Constant_8:0:0 */, %1039) /* ty=Tensor[(32, 16, 256, 256), float32] */;
  %1042 = fn (%p0522: Tensor[(32, 16, 256, 256), float32] /* ty=Tensor[(32, 16, 256, 256), float32] */, Primitive=1) -> Tensor[(32, 16, 256, 256), float32] {
    nn.softmax(%p0522, axis=3) /* ty=Tensor[(32, 16, 256, 256), float32] */
  } /* ty=fn (Tensor[(32, 16, 256, 256), float32]) -> Tensor[(32, 16, 256, 256), float32] */;
  %1043 = %1042(%1041) /* ty=Tensor[(32, 16, 256, 256), float32] */;
  %1044 = fn (%p0521: Tensor[(32, 16, 256, 256), float32] /* ty=Tensor[(32, 16, 256, 256), float32] */, Primitive=1) -> Tensor[(512, 256, 256), float16] {
    %975 = reshape(%p0521, newshape=[-1, 256, 256]) /* ty=Tensor[(512, 256, 256), float32] */;
    cast(%975, dtype="float16") /* ty=Tensor[(512, 256, 256), float16] */
  } /* ty=fn (Tensor[(32, 16, 256, 256), float32]) -> Tensor[(512, 256, 256), float16] */;
  %1050 = fn (%p0541: Tensor[(32, 256, 1024), float16] /* ty=Tensor[(32, 256, 1024), float16] */, Primitive=1, relay.reshape_only=1) -> Tensor[(8192, 1024), float16] {
    reshape(%p0541, newshape=[-1, 1024]) /* ty=Tensor[(8192, 1024), float16] */
  } /* ty=fn (Tensor[(32, 256, 1024), float16]) -> Tensor[(8192, 1024), float16] */;
  %1051 = %1050(%1014) /* ty=Tensor[(8192, 1024), float16] */;
  %1052 = fn (%p0540: Tensor[(8192, 1024), float16] /* ty=Tensor[(8192, 1024), float16] */, %p1369: Tensor[(1024, 1024), float16] /* ty=Tensor[(1024, 1024), float16] */, Primitive=1) -> Tensor[(8192, 1024), float16] {
    nn.dense(%p0540, %p1369, units=None, out_dtype="float16") /* ty=Tensor[(8192, 1024), float16] */
  } /* ty=fn (Tensor[(8192, 1024), float16], Tensor[(1024, 1024), float16]) -> Tensor[(8192, 1024), float16] */;
  %1053 = %1052(%1051, meta[relay.Constant][11] /* ty=Tensor[(1024, 1024), float16] span=/encoder/albert_layer_groups.0/albert_layers.0/attention/value/MatMul:0:0 */) /* ty=Tensor[(8192, 1024), float16] */;
  %1054 = fn (%p0539: Tensor[(8192, 1024), float16] /* ty=Tensor[(8192, 1024), float16] */, %p1368: Tensor[(1024), float16] /* ty=Tensor[(1024), float16] */, Primitive=1) -> Tensor[(512, 64, 256), float16] {
    %1045 = reshape(%p0539, newshape=[32, 256, 1024]) /* ty=Tensor[(32, 256, 1024), float16] */;
    %1046 = add(%p1368, %1045) /* ty=Tensor[(32, 256, 1024), float16] */;
    %1047 = reshape(%1046, newshape=[32, 256, 16, 64]) /* ty=Tensor[(32, 256, 16, 64), float16] */;
    %1048 = transpose(%1047, axes=[0, 2, 1, 3]) /* ty=Tensor[(32, 16, 256, 64), float16] */;
    %1049 = reshape(%1048, newshape=[-1, 256, 64]) /* ty=Tensor[(512, 256, 64), float16] */;
    transpose(%1049, axes=[0, 2, 1]) /* ty=Tensor[(512, 64, 256), float16] */
  } /* ty=fn (Tensor[(8192, 1024), float16], Tensor[(1024), float16]) -> Tensor[(512, 64, 256), float16] */;
  %1055 = %1044(%1043) /* ty=Tensor[(512, 256, 256), float16] */;
  %1056 = %1054(%1053, meta[relay.Constant][12] /* ty=Tensor[(1024), float16] span=Identity_5:0:0 */) /* ty=Tensor[(512, 64, 256), float16] */;
  %1057 = fn (%p0520: Tensor[(512, 256, 256), float16] /* ty=Tensor[(512, 256, 256), float16] */, %p1355: Tensor[(512, 64, 256), float16] /* ty=Tensor[(512, 64, 256), float16] */, Primitive=1) -> Tensor[(512, 256, 64), float16] {
    nn.batch_matmul(%p0520, %p1355, out_dtype="float16", transpose_b=True) /* ty=Tensor[(512, 256, 64), float16] */
  } /* ty=fn (Tensor[(512, 256, 256), float16], Tensor[(512, 64, 256), float16]) -> Tensor[(512, 256, 64), float16] */;
  %1058 = %1057(%1055, %1056) /* ty=Tensor[(512, 256, 64), float16] */;
  %1059 = fn (%p0519: Tensor[(512, 256, 64), float16] /* ty=Tensor[(512, 256, 64), float16] */, Primitive=1) -> Tensor[(8192, 1024), float16] {
    %973 = reshape(%p0519, newshape=[32, 16, 256, 64]) /* ty=Tensor[(32, 16, 256, 64), float16] */;
    %974 = transpose(%973, axes=[0, 2, 1, 3]) /* ty=Tensor[(32, 256, 16, 64), float16] */;
    reshape(%974, newshape=[8192, 1024]) /* ty=Tensor[(8192, 1024), float16] */
  } /* ty=fn (Tensor[(512, 256, 64), float16]) -> Tensor[(8192, 1024), float16] */;
  %1060 = %1059(%1058) /* ty=Tensor[(8192, 1024), float16] */;
  %1061 = fn (%p0518: Tensor[(8192, 1024), float16] /* ty=Tensor[(8192, 1024), float16] */, %p1354: Tensor[(1024, 1024), float16] /* ty=Tensor[(1024, 1024), float16] */, Primitive=1) -> Tensor[(8192, 1024), float16] {
    nn.dense(%p0518, %p1354, units=None, out_dtype="float16") /* ty=Tensor[(8192, 1024), float16] */
  } /* ty=fn (Tensor[(8192, 1024), float16], Tensor[(1024, 1024), float16]) -> Tensor[(8192, 1024), float16] */;
  %1062 = %1061(%1060, meta[relay.Constant][13] /* ty=Tensor[(1024, 1024), float16] span=/encoder/albert_layer_groups.0/albert_layers.0/attention/dense/MatMul:0:0 */) /* ty=Tensor[(8192, 1024), float16] */;
  %1063 = fn (%p0517: Tensor[(8192, 1024), float16] /* ty=Tensor[(8192, 1024), float16] */, %p1353: Tensor[(1024), float16] /* ty=Tensor[(1024), float16] */, %p2142: Tensor[(32, 256, 1024), float16] /* ty=Tensor[(32, 256, 1024), float16] */, Primitive=1) -> Tensor[(32, 256, 1024), float32] {
    %970 = reshape(%p0517, newshape=[32, 256, 1024]) /* ty=Tensor[(32, 256, 1024), float16] */;
    %971 = add(%p1353, %970) /* ty=Tensor[(32, 256, 1024), float16] */;
    %972 = add(%p2142, %971) /* ty=Tensor[(32, 256, 1024), float16] */;
    cast(%972, dtype="float32") /* ty=Tensor[(32, 256, 1024), float32] */
  } /* ty=fn (Tensor[(8192, 1024), float16], Tensor[(1024), float16], Tensor[(32, 256, 1024), float16]) -> Tensor[(32, 256, 1024), float32] */;
  %1064 = %1063(%1062, meta[relay.Constant][14] /* ty=Tensor[(1024), float16] span=Identity_4:0:0 */, %1014) /* ty=Tensor[(32, 256, 1024), float32] */;
  %1065 = fn (%p0542: Tensor[(32, 256, 1024), float32] /* ty=Tensor[(32, 256, 1024), float32] */, Primitive=1) -> Tensor[(32, 256, 1), float32] {
    mean(%p0542, axis=[-1], keepdims=True) /* ty=Tensor[(32, 256, 1), float32] */
  } /* ty=fn (Tensor[(32, 256, 1024), float32]) -> Tensor[(32, 256, 1), float32] */;
  %1066 = %1065(%1064) /* ty=Tensor[(32, 256, 1), float32] */;
  %1067 = fn (%p0516: Tensor[(32, 256, 1024), float32] /* ty=Tensor[(32, 256, 1024), float32] */, %p1352: Tensor[(32, 256, 1), float32] /* ty=Tensor[(32, 256, 1), float32] */, Primitive=1) -> Tensor[(32, 256, 1024), float32] {
    subtract(%p0516, %p1352) /* ty=Tensor[(32, 256, 1024), float32] */
  } /* ty=fn (Tensor[(32, 256, 1024), float32], Tensor[(32, 256, 1), float32]) -> Tensor[(32, 256, 1024), float32] */;
  %1068 = %1067(%1064, %1066) /* ty=Tensor[(32, 256, 1024), float32] */;
  %1069 = fn (%p0515: Tensor[(32, 256, 1024), float32] /* ty=Tensor[(32, 256, 1024), float32] */, Primitive=1) -> Tensor[(32, 256, 1), float32] {
    %969 = power(%p0515, 2f /* ty=float32 */) /* ty=Tensor[(32, 256, 1024), float32] */;
    mean(%969, axis=[-1], keepdims=True) /* ty=Tensor[(32, 256, 1), float32] */
  } /* ty=fn (Tensor[(32, 256, 1024), float32]) -> Tensor[(32, 256, 1), float32] */;
  %1070 = %1069(%1068) /* ty=Tensor[(32, 256, 1), float32] */;
  %1071 = fn (%p0514: Tensor[(32, 256, 1), float32] /* ty=Tensor[(32, 256, 1), float32] */, %p1351: Tensor[(32, 256, 1024), float32] /* ty=Tensor[(32, 256, 1024), float32] */, %p2141: Tensor[(1024), float32] /* ty=Tensor[(1024), float32] */, %p347: Tensor[(1024), float32] /* ty=Tensor[(1024), float32] */, Primitive=1) -> Tensor[(32, 256, 1024), float32] {
    %965 = add(%p0514, 1.19209e-07f /* ty=float32 */) /* ty=Tensor[(32, 256, 1), float32] */;
    %966 = rsqrt(%965) /* ty=Tensor[(32, 256, 1), float32] */;
    %967 = multiply(%p1351, %966) /* ty=Tensor[(32, 256, 1024), float32] */;
    %968 = multiply(%967, %p2141) /* ty=Tensor[(32, 256, 1024), float32] */;
    add(%968, %p347) /* ty=Tensor[(32, 256, 1024), float32] */
  } /* ty=fn (Tensor[(32, 256, 1), float32], Tensor[(32, 256, 1024), float32], Tensor[(1024), float32], Tensor[(1024), float32]) -> Tensor[(32, 256, 1024), float32] */;
  %1072 = %1071(%1070, %1068, meta[relay.Constant][15] /* ty=Tensor[(1024), float32] */, meta[relay.Constant][16] /* ty=Tensor[(1024), float32] */) /* ty=Tensor[(32, 256, 1024), float32] */;
  %1073 = fn (%p0513: Tensor[(32, 256, 1024), float32] /* ty=Tensor[(32, 256, 1024), float32] */, Primitive=1) -> Tensor[(8192, 1024), float16] {
    %964 = reshape(%p0513, newshape=[-1, 1024]) /* ty=Tensor[(8192, 1024), float32] */;
    cast(%964, dtype="float16") /* ty=Tensor[(8192, 1024), float16] */
  } /* ty=fn (Tensor[(32, 256, 1024), float32]) -> Tensor[(8192, 1024), float16] */;
  %1074 = %1073(%1072) /* ty=Tensor[(8192, 1024), float16] */;
  %1075 = fn (%p0512: Tensor[(8192, 1024), float16] /* ty=Tensor[(8192, 1024), float16] */, %p1350: Tensor[(4096, 1024), float16] /* ty=Tensor[(4096, 1024), float16] */, Primitive=1) -> Tensor[(8192, 4096), float16] {
    nn.dense(%p0512, %p1350, units=None, out_dtype="float16") /* ty=Tensor[(8192, 4096), float16] */
  } /* ty=fn (Tensor[(8192, 1024), float16], Tensor[(4096, 1024), float16]) -> Tensor[(8192, 4096), float16] */;
  %1076 = %1075(%1074, meta[relay.Constant][17] /* ty=Tensor[(4096, 1024), float16] span=/encoder/albert_layer_groups.0/albert_layers.0/ffn/MatMul:0:0 */) /* ty=Tensor[(8192, 4096), float16] */;
  %1077 = fn (%p0511: Tensor[(8192, 4096), float16] /* ty=Tensor[(8192, 4096), float16] */, %p1349: Tensor[(4096), float16] /* ty=Tensor[(4096), float16] */, %p2140: float16 /* ty=float16 */, Primitive=1) -> Tensor[(8192, 4096), float16] {
    %951 = reshape(%p0511, newshape=[32, 256, 4096]) /* ty=Tensor[(32, 256, 4096), float16] */;
    %952 = add(%p1349, %951) /* ty=Tensor[(32, 256, 4096), float16] */;
    %953 = multiply(%952, %p2140) /* ty=Tensor[(32, 256, 4096), float16] */;
    %954 = cast(%952, dtype="float32") /* ty=Tensor[(32, 256, 4096), float32] */;
    %955 = power(%954, 3f /* ty=float32 */) /* ty=Tensor[(32, 256, 4096), float32] */;
    %956 = multiply(%955, 0.0447083f /* ty=float32 */) /* ty=Tensor[(32, 256, 4096), float32] */;
    %957 = add(%954, %956) /* ty=Tensor[(32, 256, 4096), float32] */;
    %958 = multiply(%957, 0.797852f /* ty=float32 */) /* ty=Tensor[(32, 256, 4096), float32] */;
    %959 = tanh(%958) /* ty=Tensor[(32, 256, 4096), float32] */;
    %960 = cast(%953, dtype="float32") /* ty=Tensor[(32, 256, 4096), float32] */;
    %961 = add(%959, 1f /* ty=float32 */) /* ty=Tensor[(32, 256, 4096), float32] */;
    %962 = multiply(%960, %961) /* ty=Tensor[(32, 256, 4096), float32] */;
    %963 = reshape(%962, newshape=[-1, 4096]) /* ty=Tensor[(8192, 4096), float32] */;
    cast(%963, dtype="float16") /* ty=Tensor[(8192, 4096), float16] */
  } /* ty=fn (Tensor[(8192, 4096), float16], Tensor[(4096), float16], float16) -> Tensor[(8192, 4096), float16] */;
  %1078 = %1077(%1076, meta[relay.Constant][18] /* ty=Tensor[(4096), float16] span=/encoder/albert_layer_groups.0/albert_layers.0/ffn/Add.encoder.albert_layer_groups.0.albert_layers.0.ffn.bias:0:0 */, 0.5f16 /* ty=float16 span=/encoder/albert_layer_groups.0/albert_layers.0/activation/Constant:0:0 */) /* ty=Tensor[(8192, 4096), float16] */;
  %1079 = fn (%p0510: Tensor[(8192, 4096), float16] /* ty=Tensor[(8192, 4096), float16] */, %p1348: Tensor[(1024, 4096), float16] /* ty=Tensor[(1024, 4096), float16] */, Primitive=1) -> Tensor[(8192, 1024), float16] {
    nn.dense(%p0510, %p1348, units=None, out_dtype="float16") /* ty=Tensor[(8192, 1024), float16] */
  } /* ty=fn (Tensor[(8192, 4096), float16], Tensor[(1024, 4096), float16]) -> Tensor[(8192, 1024), float16] */;
  %1080 = %1079(%1078, meta[relay.Constant][19] /* ty=Tensor[(1024, 4096), float16] span=/encoder/albert_layer_groups.0/albert_layers.0/ffn_output/MatMul:0:0 */) /* ty=Tensor[(8192, 1024), float16] */;
  %1081 = fn (%p0509: Tensor[(8192, 1024), float16] /* ty=Tensor[(8192, 1024), float16] */, %p1347: Tensor[(1024), float16] /* ty=Tensor[(1024), float16] */, %p2139: Tensor[(32, 256, 1024), float32] /* ty=Tensor[(32, 256, 1024), float32] */, Primitive=1) -> Tensor[(32, 256, 1024), float32] {
    %948 = reshape(%p0509, newshape=[32, 256, 1024]) /* ty=Tensor[(32, 256, 1024), float16] */;
    %949 = add(%p1347, %948) /* ty=Tensor[(32, 256, 1024), float16] */;
    %950 = cast(%949, dtype="float32") /* ty=Tensor[(32, 256, 1024), float32] */;
    add(%950, %p2139) /* ty=Tensor[(32, 256, 1024), float32] */
  } /* ty=fn (Tensor[(8192, 1024), float16], Tensor[(1024), float16], Tensor[(32, 256, 1024), float32]) -> Tensor[(32, 256, 1024), float32] */;
  %1082 = %1081(%1080, meta[relay.Constant][20] /* ty=Tensor[(1024), float16] span=Identity_1:0:0 */, %1072) /* ty=Tensor[(32, 256, 1024), float32] */;
  %1083 = fn (%p0543: Tensor[(32, 256, 1024), float32] /* ty=Tensor[(32, 256, 1024), float32] */, Primitive=1) -> Tensor[(32, 256, 1), float32] {
    mean(%p0543, axis=[-1], keepdims=True) /* ty=Tensor[(32, 256, 1), float32] */
  } /* ty=fn (Tensor[(32, 256, 1024), float32]) -> Tensor[(32, 256, 1), float32] */;
  %1084 = %1083(%1082) /* ty=Tensor[(32, 256, 1), float32] */;
  %1085 = fn (%p0508: Tensor[(32, 256, 1024), float32] /* ty=Tensor[(32, 256, 1024), float32] */, %p1346: Tensor[(32, 256, 1), float32] /* ty=Tensor[(32, 256, 1), float32] */, Primitive=1) -> Tensor[(32, 256, 1024), float32] {
    subtract(%p0508, %p1346) /* ty=Tensor[(32, 256, 1024), float32] */
  } /* ty=fn (Tensor[(32, 256, 1024), float32], Tensor[(32, 256, 1), float32]) -> Tensor[(32, 256, 1024), float32] */;
  %1086 = %1085(%1082, %1084) /* ty=Tensor[(32, 256, 1024), float32] */;
  %1087 = fn (%p0507: Tensor[(32, 256, 1024), float32] /* ty=Tensor[(32, 256, 1024), float32] */, Primitive=1) -> Tensor[(32, 256, 1), float32] {
    %947 = power(%p0507, 2f /* ty=float32 */) /* ty=Tensor[(32, 256, 1024), float32] */;
    mean(%947, axis=[-1], keepdims=True) /* ty=Tensor[(32, 256, 1), float32] */
  } /* ty=fn (Tensor[(32, 256, 1024), float32]) -> Tensor[(32, 256, 1), float32] */;
  %1088 = %1087(%1086) /* ty=Tensor[(32, 256, 1), float32] */;
  %1089 = fn (%p0506: Tensor[(32, 256, 1), float32] /* ty=Tensor[(32, 256, 1), float32] */, %p1345: Tensor[(32, 256, 1024), float32] /* ty=Tensor[(32, 256, 1024), float32] */, %p2138: Tensor[(1024), float32] /* ty=Tensor[(1024), float32] */, %p346: Tensor[(1024), float32] /* ty=Tensor[(1024), float32] */, Primitive=1) -> Tensor[(32, 256, 1024), float32] {
    %943 = add(%p0506, 1.19209e-07f /* ty=float32 */) /* ty=Tensor[(32, 256, 1), float32] */;
    %944 = rsqrt(%943) /* ty=Tensor[(32, 256, 1), float32] */;
    %945 = multiply(%p1345, %944) /* ty=Tensor[(32, 256, 1024), float32] */;
    %946 = multiply(%945, %p2138) /* ty=Tensor[(32, 256, 1024), float32] */;
    add(%946, %p346) /* ty=Tensor[(32, 256, 1024), float32] */
  } /* ty=fn (Tensor[(32, 256, 1), float32], Tensor[(32, 256, 1024), float32], Tensor[(1024), float32], Tensor[(1024), float32]) -> Tensor[(32, 256, 1024), float32] */;
  %1090 = %1089(%1088, %1086, meta[relay.Constant][21] /* ty=Tensor[(1024), float32] */, meta[relay.Constant][22] /* ty=Tensor[(1024), float32] */) /* ty=Tensor[(32, 256, 1024), float32] */;
  %1091 = fn (%p0505: Tensor[(32, 256, 1024), float32] /* ty=Tensor[(32, 256, 1024), float32] */, Primitive=1) -> Tensor[(8192, 1024), float16] {
    %942 = reshape(%p0505, newshape=[-1, 1024]) /* ty=Tensor[(8192, 1024), float32] */;
    cast(%942, dtype="float16") /* ty=Tensor[(8192, 1024), float16] */
  } /* ty=fn (Tensor[(32, 256, 1024), float32]) -> Tensor[(8192, 1024), float16] */;
  %1092 = %1091(%1090) /* ty=Tensor[(8192, 1024), float16] */;
  %1093 = fn (%p0504: Tensor[(8192, 1024), float16] /* ty=Tensor[(8192, 1024), float16] */, %p1344: Tensor[(1024, 1024), float16] /* ty=Tensor[(1024, 1024), float16] */, Primitive=1) -> Tensor[(8192, 1024), float16] {
    nn.dense(%p0504, %p1344, units=None, out_dtype="float16") /* ty=Tensor[(8192, 1024), float16] */
  } /* ty=fn (Tensor[(8192, 1024), float16], Tensor[(1024, 1024), float16]) -> Tensor[(8192, 1024), float16] */;
  %1094 = %1093(%1092, meta[relay.Constant][23] /* ty=Tensor[(1024, 1024), float16] span=/encoder/albert_layer_groups.0/albert_layers.0/attention/query_1/MatMul:0:0 */) /* ty=Tensor[(8192, 1024), float16] */;
  %1095 = fn (%p0503: Tensor[(8192, 1024), float16] /* ty=Tensor[(8192, 1024), float16] */, %p1343: Tensor[(1024), float16] /* ty=Tensor[(1024), float16] */, Primitive=1) -> Tensor[(512, 256, 64), float16] {
    %938 = reshape(%p0503, newshape=[32, 256, 1024]) /* ty=Tensor[(32, 256, 1024), float16] */;
    %939 = add(%p1343, %938) /* ty=Tensor[(32, 256, 1024), float16] */;
    %940 = reshape(%939, newshape=[32, 256, 16, 64]) /* ty=Tensor[(32, 256, 16, 64), float16] */;
    %941 = transpose(%940, axes=[0, 2, 1, 3]) /* ty=Tensor[(32, 16, 256, 64), float16] */;
    reshape(%941, newshape=[-1, 256, 64]) /* ty=Tensor[(512, 256, 64), float16] */
  } /* ty=fn (Tensor[(8192, 1024), float16], Tensor[(1024), float16]) -> Tensor[(512, 256, 64), float16] */;
  %1102 = fn (%p0546: Tensor[(32, 256, 1024), float32] /* ty=Tensor[(32, 256, 1024), float32] */, Primitive=1) -> Tensor[(8192, 1024), float16] {
    %1101 = reshape(%p0546, newshape=[-1, 1024]) /* ty=Tensor[(8192, 1024), float32] */;
    cast(%1101, dtype="float16") /* ty=Tensor[(8192, 1024), float16] */
  } /* ty=fn (Tensor[(32, 256, 1024), float32]) -> Tensor[(8192, 1024), float16] */;
  %1103 = %1102(%1090) /* ty=Tensor[(8192, 1024), float16] */;
  %1104 = fn (%p0545: Tensor[(8192, 1024), float16] /* ty=Tensor[(8192, 1024), float16] */, %p1371: Tensor[(1024, 1024), float16] /* ty=Tensor[(1024, 1024), float16] */, Primitive=1) -> Tensor[(8192, 1024), float16] {
    nn.dense(%p0545, %p1371, units=None, out_dtype="float16") /* ty=Tensor[(8192, 1024), float16] */
  } /* ty=fn (Tensor[(8192, 1024), float16], Tensor[(1024, 1024), float16]) -> Tensor[(8192, 1024), float16] */;
  %1105 = %1104(%1103, meta[relay.Constant][24] /* ty=Tensor[(1024, 1024), float16] span=/encoder/albert_layer_groups.0/albert_layers.0/attention/key_1/MatMul:0:0 */) /* ty=Tensor[(8192, 1024), float16] */;
  %1106 = fn (%p0544: Tensor[(8192, 1024), float16] /* ty=Tensor[(8192, 1024), float16] */, %p1370: Tensor[(1024), float16] /* ty=Tensor[(1024), float16] */, Primitive=1) -> Tensor[(512, 256, 64), float16] {
    %1096 = reshape(%p0544, newshape=[32, 256, 1024]) /* ty=Tensor[(32, 256, 1024), float16] */;
    %1097 = add(%p1370, %1096) /* ty=Tensor[(32, 256, 1024), float16] */;
    %1098 = reshape(%1097, newshape=[32, 256, 16, 64]) /* ty=Tensor[(32, 256, 16, 64), float16] */;
    %1099 = transpose(%1098, axes=[0, 2, 3, 1]) /* ty=Tensor[(32, 16, 64, 256), float16] */;
    %1100 = reshape(%1099, newshape=[-1, 64, 256]) /* ty=Tensor[(512, 64, 256), float16] */;
    transpose(%1100, axes=[0, 2, 1]) /* ty=Tensor[(512, 256, 64), float16] */
  } /* ty=fn (Tensor[(8192, 1024), float16], Tensor[(1024), float16]) -> Tensor[(512, 256, 64), float16] */;
  %1107 = %1095(%1094, meta[relay.Constant][8] /* ty=Tensor[(1024), float16] span=Identity_7:0:0 */) /* ty=Tensor[(512, 256, 64), float16] */;
  %1108 = %1106(%1105, meta[relay.Constant][10] /* ty=Tensor[(1024), float16] span=Identity_6:0:0 */) /* ty=Tensor[(512, 256, 64), float16] */;
  %1109 = fn (%p0502: Tensor[(512, 256, 64), float16] /* ty=Tensor[(512, 256, 64), float16] */, %p1342: Tensor[(512, 256, 64), float16] /* ty=Tensor[(512, 256, 64), float16] */, Primitive=1) -> Tensor[(512, 256, 256), float16] {
    nn.batch_matmul(%p0502, %p1342, out_dtype="float16", transpose_b=True) /* ty=Tensor[(512, 256, 256), float16] */
  } /* ty=fn (Tensor[(512, 256, 64), float16], Tensor[(512, 256, 64), float16]) -> Tensor[(512, 256, 256), float16] */;
  %1110 = %1109(%1107, %1108) /* ty=Tensor[(512, 256, 256), float16] */;
  %1111 = fn (%p0501: Tensor[(512, 256, 256), float16] /* ty=Tensor[(512, 256, 256), float16] */, %p1341: float16 /* ty=float16 */, %p2137: Tensor[(32, 1, 1, 256), float16] /* ty=Tensor[(32, 1, 1, 256), float16] */, Primitive=1) -> Tensor[(32, 16, 256, 256), float32] {
    %935 = reshape(%p0501, newshape=[32, 16, 256, 256]) /* ty=Tensor[(32, 16, 256, 256), float16] */;
    %936 = divide(%935, %p1341) /* ty=Tensor[(32, 16, 256, 256), float16] */;
    %937 = add(%936, %p2137) /* ty=Tensor[(32, 16, 256, 256), float16] */;
    cast(%937, dtype="float32") /* ty=Tensor[(32, 16, 256, 256), float32] */
  } /* ty=fn (Tensor[(512, 256, 256), float16], float16, Tensor[(32, 1, 1, 256), float16]) -> Tensor[(32, 16, 256, 256), float32] */;
  %1112 = %1111(%1110, 8f16 /* ty=float16 span=/encoder/albert_layer_groups.0/albert_layers.0/attention_1/Constant_6:0:0 */, %1039) /* ty=Tensor[(32, 16, 256, 256), float32] */;
  %1113 = fn (%p0500: Tensor[(32, 16, 256, 256), float32] /* ty=Tensor[(32, 16, 256, 256), float32] */, Primitive=1) -> Tensor[(32, 16, 256, 256), float32] {
    nn.softmax(%p0500, axis=3) /* ty=Tensor[(32, 16, 256, 256), float32] */
  } /* ty=fn (Tensor[(32, 16, 256, 256), float32]) -> Tensor[(32, 16, 256, 256), float32] */;
  %1114 = %1113(%1112) /* ty=Tensor[(32, 16, 256, 256), float32] */;
  %1115 = fn (%p0499: Tensor[(32, 16, 256, 256), float32] /* ty=Tensor[(32, 16, 256, 256), float32] */, Primitive=1) -> Tensor[(512, 256, 256), float16] {
    %934 = reshape(%p0499, newshape=[-1, 256, 256]) /* ty=Tensor[(512, 256, 256), float32] */;
    cast(%934, dtype="float16") /* ty=Tensor[(512, 256, 256), float16] */
  } /* ty=fn (Tensor[(32, 16, 256, 256), float32]) -> Tensor[(512, 256, 256), float16] */;
  %1122 = fn (%p0549: Tensor[(32, 256, 1024), float32] /* ty=Tensor[(32, 256, 1024), float32] */, Primitive=1) -> Tensor[(8192, 1024), float16] {
    %1121 = reshape(%p0549, newshape=[-1, 1024]) /* ty=Tensor[(8192, 1024), float32] */;
    cast(%1121, dtype="float16") /* ty=Tensor[(8192, 1024), float16] */
  } /* ty=fn (Tensor[(32, 256, 1024), float32]) -> Tensor[(8192, 1024), float16] */;
  %1123 = %1122(%1090) /* ty=Tensor[(8192, 1024), float16] */;
  %1124 = fn (%p0548: Tensor[(8192, 1024), float16] /* ty=Tensor[(8192, 1024), float16] */, %p1373: Tensor[(1024, 1024), float16] /* ty=Tensor[(1024, 1024), float16] */, Primitive=1) -> Tensor[(8192, 1024), float16] {
    nn.dense(%p0548, %p1373, units=None, out_dtype="float16") /* ty=Tensor[(8192, 1024), float16] */
  } /* ty=fn (Tensor[(8192, 1024), float16], Tensor[(1024, 1024), float16]) -> Tensor[(8192, 1024), float16] */;
  %1125 = %1124(%1123, meta[relay.Constant][25] /* ty=Tensor[(1024, 1024), float16] span=/encoder/albert_layer_groups.0/albert_layers.0/attention/value_1/MatMul:0:0 */) /* ty=Tensor[(8192, 1024), float16] */;
  %1126 = fn (%p0547: Tensor[(8192, 1024), float16] /* ty=Tensor[(8192, 1024), float16] */, %p1372: Tensor[(1024), float16] /* ty=Tensor[(1024), float16] */, Primitive=1) -> Tensor[(512, 64, 256), float16] {
    %1116 = reshape(%p0547, newshape=[32, 256, 1024]) /* ty=Tensor[(32, 256, 1024), float16] */;
    %1117 = add(%p1372, %1116) /* ty=Tensor[(32, 256, 1024), float16] */;
    %1118 = reshape(%1117, newshape=[32, 256, 16, 64]) /* ty=Tensor[(32, 256, 16, 64), float16] */;
    %1119 = transpose(%1118, axes=[0, 2, 1, 3]) /* ty=Tensor[(32, 16, 256, 64), float16] */;
    %1120 = reshape(%1119, newshape=[-1, 256, 64]) /* ty=Tensor[(512, 256, 64), float16] */;
    transpose(%1120, axes=[0, 2, 1]) /* ty=Tensor[(512, 64, 256), float16] */
  } /* ty=fn (Tensor[(8192, 1024), float16], Tensor[(1024), float16]) -> Tensor[(512, 64, 256), float16] */;
  %1127 = %1115(%1114) /* ty=Tensor[(512, 256, 256), float16] */;
  %1128 = %1126(%1125, meta[relay.Constant][12] /* ty=Tensor[(1024), float16] span=Identity_5:0:0 */) /* ty=Tensor[(512, 64, 256), float16] */;
  %1129 = fn (%p0498: Tensor[(512, 256, 256), float16] /* ty=Tensor[(512, 256, 256), float16] */, %p1340: Tensor[(512, 64, 256), float16] /* ty=Tensor[(512, 64, 256), float16] */, Primitive=1) -> Tensor[(512, 256, 64), float16] {
    nn.batch_matmul(%p0498, %p1340, out_dtype="float16", transpose_b=True) /* ty=Tensor[(512, 256, 64), float16] */
  } /* ty=fn (Tensor[(512, 256, 256), float16], Tensor[(512, 64, 256), float16]) -> Tensor[(512, 256, 64), float16] */;
  %1130 = %1129(%1127, %1128) /* ty=Tensor[(512, 256, 64), float16] */;
  %1131 = fn (%p0497: Tensor[(512, 256, 64), float16] /* ty=Tensor[(512, 256, 64), float16] */, Primitive=1) -> Tensor[(8192, 1024), float16] {
    %932 = reshape(%p0497, newshape=[32, 16, 256, 64]) /* ty=Tensor[(32, 16, 256, 64), float16] */;
    %933 = transpose(%932, axes=[0, 2, 1, 3]) /* ty=Tensor[(32, 256, 16, 64), float16] */;
    reshape(%933, newshape=[8192, 1024]) /* ty=Tensor[(8192, 1024), float16] */
  } /* ty=fn (Tensor[(512, 256, 64), float16]) -> Tensor[(8192, 1024), float16] */;
  %1132 = %1131(%1130) /* ty=Tensor[(8192, 1024), float16] */;
  %1133 = fn (%p0496: Tensor[(8192, 1024), float16] /* ty=Tensor[(8192, 1024), float16] */, %p1339: Tensor[(1024, 1024), float16] /* ty=Tensor[(1024, 1024), float16] */, Primitive=1) -> Tensor[(8192, 1024), float16] {
    nn.dense(%p0496, %p1339, units=None, out_dtype="float16") /* ty=Tensor[(8192, 1024), float16] */
  } /* ty=fn (Tensor[(8192, 1024), float16], Tensor[(1024, 1024), float16]) -> Tensor[(8192, 1024), float16] */;
  %1134 = %1133(%1132, meta[relay.Constant][26] /* ty=Tensor[(1024, 1024), float16] span=/encoder/albert_layer_groups.0/albert_layers.0/attention/dense_1/MatMul:0:0 */) /* ty=Tensor[(8192, 1024), float16] */;
  %1135 = fn (%p0495: Tensor[(8192, 1024), float16] /* ty=Tensor[(8192, 1024), float16] */, %p1338: Tensor[(1024), float16] /* ty=Tensor[(1024), float16] */, %p2136: Tensor[(32, 256, 1024), float32] /* ty=Tensor[(32, 256, 1024), float32] */, Primitive=1) -> Tensor[(32, 256, 1024), float32] {
    %929 = reshape(%p0495, newshape=[32, 256, 1024]) /* ty=Tensor[(32, 256, 1024), float16] */;
    %930 = add(%p1338, %929) /* ty=Tensor[(32, 256, 1024), float16] */;
    %931 = cast(%930, dtype="float32") /* ty=Tensor[(32, 256, 1024), float32] */;
    add(%p2136, %931) /* ty=Tensor[(32, 256, 1024), float32] */
  } /* ty=fn (Tensor[(8192, 1024), float16], Tensor[(1024), float16], Tensor[(32, 256, 1024), float32]) -> Tensor[(32, 256, 1024), float32] */;
  %1136 = %1135(%1134, meta[relay.Constant][14] /* ty=Tensor[(1024), float16] span=Identity_4:0:0 */, %1090) /* ty=Tensor[(32, 256, 1024), float32] */;
  %1137 = fn (%p0550: Tensor[(32, 256, 1024), float32] /* ty=Tensor[(32, 256, 1024), float32] */, Primitive=1) -> Tensor[(32, 256, 1), float32] {
    mean(%p0550, axis=[-1], keepdims=True) /* ty=Tensor[(32, 256, 1), float32] */
  } /* ty=fn (Tensor[(32, 256, 1024), float32]) -> Tensor[(32, 256, 1), float32] */;
  %1138 = %1137(%1136) /* ty=Tensor[(32, 256, 1), float32] */;
  %1139 = fn (%p0494: Tensor[(32, 256, 1024), float32] /* ty=Tensor[(32, 256, 1024), float32] */, %p1337: Tensor[(32, 256, 1), float32] /* ty=Tensor[(32, 256, 1), float32] */, Primitive=1) -> Tensor[(32, 256, 1024), float32] {
    subtract(%p0494, %p1337) /* ty=Tensor[(32, 256, 1024), float32] */
  } /* ty=fn (Tensor[(32, 256, 1024), float32], Tensor[(32, 256, 1), float32]) -> Tensor[(32, 256, 1024), float32] */;
  %1140 = %1139(%1136, %1138) /* ty=Tensor[(32, 256, 1024), float32] */;
  %1141 = fn (%p0493: Tensor[(32, 256, 1024), float32] /* ty=Tensor[(32, 256, 1024), float32] */, Primitive=1) -> Tensor[(32, 256, 1), float32] {
    %928 = power(%p0493, 2f /* ty=float32 */) /* ty=Tensor[(32, 256, 1024), float32] */;
    mean(%928, axis=[-1], keepdims=True) /* ty=Tensor[(32, 256, 1), float32] */
  } /* ty=fn (Tensor[(32, 256, 1024), float32]) -> Tensor[(32, 256, 1), float32] */;
  %1142 = %1141(%1140) /* ty=Tensor[(32, 256, 1), float32] */;
  %1143 = fn (%p0492: Tensor[(32, 256, 1), float32] /* ty=Tensor[(32, 256, 1), float32] */, %p1336: Tensor[(32, 256, 1024), float32] /* ty=Tensor[(32, 256, 1024), float32] */, %p2135: Tensor[(1024), float32] /* ty=Tensor[(1024), float32] */, %p345: Tensor[(1024), float32] /* ty=Tensor[(1024), float32] */, Primitive=1) -> Tensor[(32, 256, 1024), float32] {
    %924 = add(%p0492, 1.19209e-07f /* ty=float32 */) /* ty=Tensor[(32, 256, 1), float32] */;
    %925 = rsqrt(%924) /* ty=Tensor[(32, 256, 1), float32] */;
    %926 = multiply(%p1336, %925) /* ty=Tensor[(32, 256, 1024), float32] */;
    %927 = multiply(%926, %p2135) /* ty=Tensor[(32, 256, 1024), float32] */;
    add(%927, %p345) /* ty=Tensor[(32, 256, 1024), float32] */
  } /* ty=fn (Tensor[(32, 256, 1), float32], Tensor[(32, 256, 1024), float32], Tensor[(1024), float32], Tensor[(1024), float32]) -> Tensor[(32, 256, 1024), float32] */;
  %1144 = %1143(%1142, %1140, meta[relay.Constant][15] /* ty=Tensor[(1024), float32] */, meta[relay.Constant][16] /* ty=Tensor[(1024), float32] */) /* ty=Tensor[(32, 256, 1024), float32] */;
  %1145 = fn (%p0491: Tensor[(32, 256, 1024), float32] /* ty=Tensor[(32, 256, 1024), float32] */, Primitive=1) -> Tensor[(8192, 1024), float16] {
    %923 = reshape(%p0491, newshape=[-1, 1024]) /* ty=Tensor[(8192, 1024), float32] */;
    cast(%923, dtype="float16") /* ty=Tensor[(8192, 1024), float16] */
  } /* ty=fn (Tensor[(32, 256, 1024), float32]) -> Tensor[(8192, 1024), float16] */;
  %1146 = %1145(%1144) /* ty=Tensor[(8192, 1024), float16] */;
  %1147 = fn (%p0490: Tensor[(8192, 1024), float16] /* ty=Tensor[(8192, 1024), float16] */, %p1335: Tensor[(4096, 1024), float16] /* ty=Tensor[(4096, 1024), float16] */, Primitive=1) -> Tensor[(8192, 4096), float16] {
    nn.dense(%p0490, %p1335, units=None, out_dtype="float16") /* ty=Tensor[(8192, 4096), float16] */
  } /* ty=fn (Tensor[(8192, 1024), float16], Tensor[(4096, 1024), float16]) -> Tensor[(8192, 4096), float16] */;
  %1148 = %1147(%1146, meta[relay.Constant][27] /* ty=Tensor[(4096, 1024), float16] span=/encoder/albert_layer_groups.0/albert_layers.0/ffn_1/MatMul:0:0 */) /* ty=Tensor[(8192, 4096), float16] */;
  %1149 = fn (%p0489: Tensor[(8192, 4096), float16] /* ty=Tensor[(8192, 4096), float16] */, %p1334: Tensor[(4096), float16] /* ty=Tensor[(4096), float16] */, %p2134: float16 /* ty=float16 */, Primitive=1) -> Tensor[(8192, 4096), float16] {
    %910 = reshape(%p0489, newshape=[32, 256, 4096]) /* ty=Tensor[(32, 256, 4096), float16] */;
    %911 = add(%p1334, %910) /* ty=Tensor[(32, 256, 4096), float16] */;
    %912 = multiply(%911, %p2134) /* ty=Tensor[(32, 256, 4096), float16] */;
    %913 = cast(%911, dtype="float32") /* ty=Tensor[(32, 256, 4096), float32] */;
    %914 = power(%913, 3f /* ty=float32 */) /* ty=Tensor[(32, 256, 4096), float32] */;
    %915 = multiply(%914, 0.0447083f /* ty=float32 */) /* ty=Tensor[(32, 256, 4096), float32] */;
    %916 = add(%913, %915) /* ty=Tensor[(32, 256, 4096), float32] */;
    %917 = multiply(%916, 0.797852f /* ty=float32 */) /* ty=Tensor[(32, 256, 4096), float32] */;
    %918 = tanh(%917) /* ty=Tensor[(32, 256, 4096), float32] */;
    %919 = cast(%912, dtype="float32") /* ty=Tensor[(32, 256, 4096), float32] */;
    %920 = add(%918, 1f /* ty=float32 */) /* ty=Tensor[(32, 256, 4096), float32] */;
    %921 = multiply(%919, %920) /* ty=Tensor[(32, 256, 4096), float32] */;
    %922 = reshape(%921, newshape=[-1, 4096]) /* ty=Tensor[(8192, 4096), float32] */;
    cast(%922, dtype="float16") /* ty=Tensor[(8192, 4096), float16] */
  } /* ty=fn (Tensor[(8192, 4096), float16], Tensor[(4096), float16], float16) -> Tensor[(8192, 4096), float16] */;
  %1150 = %1149(%1148, meta[relay.Constant][18] /* ty=Tensor[(4096), float16] span=/encoder/albert_layer_groups.0/albert_layers.0/ffn/Add.encoder.albert_layer_groups.0.albert_layers.0.ffn.bias:0:0 */, 0.5f16 /* ty=float16 span=/encoder/albert_layer_groups.0/albert_layers.0/activation_1/Constant:0:0 */) /* ty=Tensor[(8192, 4096), float16] */;
  %1151 = fn (%p0488: Tensor[(8192, 4096), float16] /* ty=Tensor[(8192, 4096), float16] */, %p1333: Tensor[(1024, 4096), float16] /* ty=Tensor[(1024, 4096), float16] */, Primitive=1) -> Tensor[(8192, 1024), float16] {
    nn.dense(%p0488, %p1333, units=None, out_dtype="float16") /* ty=Tensor[(8192, 1024), float16] */
  } /* ty=fn (Tensor[(8192, 4096), float16], Tensor[(1024, 4096), float16]) -> Tensor[(8192, 1024), float16] */;
  %1152 = %1151(%1150, meta[relay.Constant][28] /* ty=Tensor[(1024, 4096), float16] span=/encoder/albert_layer_groups.0/albert_layers.0/ffn_output_1/MatMul:0:0 */) /* ty=Tensor[(8192, 1024), float16] */;
  %1153 = fn (%p0487: Tensor[(8192, 1024), float16] /* ty=Tensor[(8192, 1024), float16] */, %p1332: Tensor[(1024), float16] /* ty=Tensor[(1024), float16] */, %p2133: Tensor[(32, 256, 1024), float32] /* ty=Tensor[(32, 256, 1024), float32] */, Primitive=1) -> Tensor[(32, 256, 1024), float32] {
    %907 = reshape(%p0487, newshape=[32, 256, 1024]) /* ty=Tensor[(32, 256, 1024), float16] */;
    %908 = add(%p1332, %907) /* ty=Tensor[(32, 256, 1024), float16] */;
    %909 = cast(%908, dtype="float32") /* ty=Tensor[(32, 256, 1024), float32] */;
    add(%909, %p2133) /* ty=Tensor[(32, 256, 1024), float32] */
  } /* ty=fn (Tensor[(8192, 1024), float16], Tensor[(1024), float16], Tensor[(32, 256, 1024), float32]) -> Tensor[(32, 256, 1024), float32] */;
  %1154 = %1153(%1152, meta[relay.Constant][20] /* ty=Tensor[(1024), float16] span=Identity_1:0:0 */, %1144) /* ty=Tensor[(32, 256, 1024), float32] */;
  %1155 = fn (%p0551: Tensor[(32, 256, 1024), float32] /* ty=Tensor[(32, 256, 1024), float32] */, Primitive=1) -> Tensor[(32, 256, 1), float32] {
    mean(%p0551, axis=[-1], keepdims=True) /* ty=Tensor[(32, 256, 1), float32] */
  } /* ty=fn (Tensor[(32, 256, 1024), float32]) -> Tensor[(32, 256, 1), float32] */;
  %1156 = %1155(%1154) /* ty=Tensor[(32, 256, 1), float32] */;
  %1157 = fn (%p0486: Tensor[(32, 256, 1024), float32] /* ty=Tensor[(32, 256, 1024), float32] */, %p1331: Tensor[(32, 256, 1), float32] /* ty=Tensor[(32, 256, 1), float32] */, Primitive=1) -> Tensor[(32, 256, 1024), float32] {
    subtract(%p0486, %p1331) /* ty=Tensor[(32, 256, 1024), float32] */
  } /* ty=fn (Tensor[(32, 256, 1024), float32], Tensor[(32, 256, 1), float32]) -> Tensor[(32, 256, 1024), float32] */;
  %1158 = %1157(%1154, %1156) /* ty=Tensor[(32, 256, 1024), float32] */;
  %1159 = fn (%p0485: Tensor[(32, 256, 1024), float32] /* ty=Tensor[(32, 256, 1024), float32] */, Primitive=1) -> Tensor[(32, 256, 1), float32] {
    %906 = power(%p0485, 2f /* ty=float32 */) /* ty=Tensor[(32, 256, 1024), float32] */;
    mean(%906, axis=[-1], keepdims=True) /* ty=Tensor[(32, 256, 1), float32] */
  } /* ty=fn (Tensor[(32, 256, 1024), float32]) -> Tensor[(32, 256, 1), float32] */;
  %1160 = %1159(%1158) /* ty=Tensor[(32, 256, 1), float32] */;
  %1161 = fn (%p0484: Tensor[(32, 256, 1), float32] /* ty=Tensor[(32, 256, 1), float32] */, %p1330: Tensor[(32, 256, 1024), float32] /* ty=Tensor[(32, 256, 1024), float32] */, %p2132: Tensor[(1024), float32] /* ty=Tensor[(1024), float32] */, %p344: Tensor[(1024), float32] /* ty=Tensor[(1024), float32] */, Primitive=1) -> Tensor[(32, 256, 1024), float32] {
    %902 = add(%p0484, 1.19209e-07f /* ty=float32 */) /* ty=Tensor[(32, 256, 1), float32] */;
    %903 = rsqrt(%902) /* ty=Tensor[(32, 256, 1), float32] */;
    %904 = multiply(%p1330, %903) /* ty=Tensor[(32, 256, 1024), float32] */;
    %905 = multiply(%904, %p2132) /* ty=Tensor[(32, 256, 1024), float32] */;
    add(%905, %p344) /* ty=Tensor[(32, 256, 1024), float32] */
  } /* ty=fn (Tensor[(32, 256, 1), float32], Tensor[(32, 256, 1024), float32], Tensor[(1024), float32], Tensor[(1024), float32]) -> Tensor[(32, 256, 1024), float32] */;
  %1162 = %1161(%1160, %1158, meta[relay.Constant][21] /* ty=Tensor[(1024), float32] */, meta[relay.Constant][22] /* ty=Tensor[(1024), float32] */) /* ty=Tensor[(32, 256, 1024), float32] */;
  %1163 = fn (%p0483: Tensor[(32, 256, 1024), float32] /* ty=Tensor[(32, 256, 1024), float32] */, Primitive=1) -> Tensor[(8192, 1024), float16] {
    %901 = reshape(%p0483, newshape=[-1, 1024]) /* ty=Tensor[(8192, 1024), float32] */;
    cast(%901, dtype="float16") /* ty=Tensor[(8192, 1024), float16] */
  } /* ty=fn (Tensor[(32, 256, 1024), float32]) -> Tensor[(8192, 1024), float16] */;
  %1164 = %1163(%1162) /* ty=Tensor[(8192, 1024), float16] */;
  %1165 = fn (%p0482: Tensor[(8192, 1024), float16] /* ty=Tensor[(8192, 1024), float16] */, %p1329: Tensor[(1024, 1024), float16] /* ty=Tensor[(1024, 1024), float16] */, Primitive=1) -> Tensor[(8192, 1024), float16] {
    nn.dense(%p0482, %p1329, units=None, out_dtype="float16") /* ty=Tensor[(8192, 1024), float16] */
  } /* ty=fn (Tensor[(8192, 1024), float16], Tensor[(1024, 1024), float16]) -> Tensor[(8192, 1024), float16] */;
  %1166 = %1165(%1164, meta[relay.Constant][29] /* ty=Tensor[(1024, 1024), float16] span=/encoder/albert_layer_groups.0/albert_layers.0/attention/query_2/MatMul:0:0 */) /* ty=Tensor[(8192, 1024), float16] */;
  %1167 = fn (%p0481: Tensor[(8192, 1024), float16] /* ty=Tensor[(8192, 1024), float16] */, %p1328: Tensor[(1024), float16] /* ty=Tensor[(1024), float16] */, Primitive=1) -> Tensor[(512, 256, 64), float16] {
    %897 = reshape(%p0481, newshape=[32, 256, 1024]) /* ty=Tensor[(32, 256, 1024), float16] */;
    %898 = add(%p1328, %897) /* ty=Tensor[(32, 256, 1024), float16] */;
    %899 = reshape(%898, newshape=[32, 256, 16, 64]) /* ty=Tensor[(32, 256, 16, 64), float16] */;
    %900 = transpose(%899, axes=[0, 2, 1, 3]) /* ty=Tensor[(32, 16, 256, 64), float16] */;
    reshape(%900, newshape=[-1, 256, 64]) /* ty=Tensor[(512, 256, 64), float16] */
  } /* ty=fn (Tensor[(8192, 1024), float16], Tensor[(1024), float16]) -> Tensor[(512, 256, 64), float16] */;
  %1174 = fn (%p0554: Tensor[(32, 256, 1024), float32] /* ty=Tensor[(32, 256, 1024), float32] */, Primitive=1) -> Tensor[(8192, 1024), float16] {
    %1173 = reshape(%p0554, newshape=[-1, 1024]) /* ty=Tensor[(8192, 1024), float32] */;
    cast(%1173, dtype="float16") /* ty=Tensor[(8192, 1024), float16] */
  } /* ty=fn (Tensor[(32, 256, 1024), float32]) -> Tensor[(8192, 1024), float16] */;
  %1175 = %1174(%1162) /* ty=Tensor[(8192, 1024), float16] */;
  %1176 = fn (%p0553: Tensor[(8192, 1024), float16] /* ty=Tensor[(8192, 1024), float16] */, %p1375: Tensor[(1024, 1024), float16] /* ty=Tensor[(1024, 1024), float16] */, Primitive=1) -> Tensor[(8192, 1024), float16] {
    nn.dense(%p0553, %p1375, units=None, out_dtype="float16") /* ty=Tensor[(8192, 1024), float16] */
  } /* ty=fn (Tensor[(8192, 1024), float16], Tensor[(1024, 1024), float16]) -> Tensor[(8192, 1024), float16] */;
  %1177 = %1176(%1175, meta[relay.Constant][30] /* ty=Tensor[(1024, 1024), float16] span=/encoder/albert_layer_groups.0/albert_layers.0/attention/key_2/MatMul:0:0 */) /* ty=Tensor[(8192, 1024), float16] */;
  %1178 = fn (%p0552: Tensor[(8192, 1024), float16] /* ty=Tensor[(8192, 1024), float16] */, %p1374: Tensor[(1024), float16] /* ty=Tensor[(1024), float16] */, Primitive=1) -> Tensor[(512, 256, 64), float16] {
    %1168 = reshape(%p0552, newshape=[32, 256, 1024]) /* ty=Tensor[(32, 256, 1024), float16] */;
    %1169 = add(%p1374, %1168) /* ty=Tensor[(32, 256, 1024), float16] */;
    %1170 = reshape(%1169, newshape=[32, 256, 16, 64]) /* ty=Tensor[(32, 256, 16, 64), float16] */;
    %1171 = transpose(%1170, axes=[0, 2, 3, 1]) /* ty=Tensor[(32, 16, 64, 256), float16] */;
    %1172 = reshape(%1171, newshape=[-1, 64, 256]) /* ty=Tensor[(512, 64, 256), float16] */;
    transpose(%1172, axes=[0, 2, 1]) /* ty=Tensor[(512, 256, 64), float16] */
  } /* ty=fn (Tensor[(8192, 1024), float16], Tensor[(1024), float16]) -> Tensor[(512, 256, 64), float16] */;
  %1179 = %1167(%1166, meta[relay.Constant][8] /* ty=Tensor[(1024), float16] span=Identity_7:0:0 */) /* ty=Tensor[(512, 256, 64), float16] */;
  %1180 = %1178(%1177, meta[relay.Constant][10] /* ty=Tensor[(1024), float16] span=Identity_6:0:0 */) /* ty=Tensor[(512, 256, 64), float16] */;
  %1181 = fn (%p0480: Tensor[(512, 256, 64), float16] /* ty=Tensor[(512, 256, 64), float16] */, %p1327: Tensor[(512, 256, 64), float16] /* ty=Tensor[(512, 256, 64), float16] */, Primitive=1) -> Tensor[(512, 256, 256), float16] {
    nn.batch_matmul(%p0480, %p1327, out_dtype="float16", transpose_b=True) /* ty=Tensor[(512, 256, 256), float16] */
  } /* ty=fn (Tensor[(512, 256, 64), float16], Tensor[(512, 256, 64), float16]) -> Tensor[(512, 256, 256), float16] */;
  %1182 = %1181(%1179, %1180) /* ty=Tensor[(512, 256, 256), float16] */;
  %1183 = fn (%p0479: Tensor[(512, 256, 256), float16] /* ty=Tensor[(512, 256, 256), float16] */, %p1326: float16 /* ty=float16 */, %p2131: Tensor[(32, 1, 1, 256), float16] /* ty=Tensor[(32, 1, 1, 256), float16] */, Primitive=1) -> Tensor[(32, 16, 256, 256), float32] {
    %894 = reshape(%p0479, newshape=[32, 16, 256, 256]) /* ty=Tensor[(32, 16, 256, 256), float16] */;
    %895 = divide(%894, %p1326) /* ty=Tensor[(32, 16, 256, 256), float16] */;
    %896 = add(%895, %p2131) /* ty=Tensor[(32, 16, 256, 256), float16] */;
    cast(%896, dtype="float32") /* ty=Tensor[(32, 16, 256, 256), float32] */
  } /* ty=fn (Tensor[(512, 256, 256), float16], float16, Tensor[(32, 1, 1, 256), float16]) -> Tensor[(32, 16, 256, 256), float32] */;
  %1184 = %1183(%1182, 8f16 /* ty=float16 span=/encoder/albert_layer_groups.0/albert_layers.0/attention_2/Constant_6:0:0 */, %1039) /* ty=Tensor[(32, 16, 256, 256), float32] */;
  %1185 = fn (%p0478: Tensor[(32, 16, 256, 256), float32] /* ty=Tensor[(32, 16, 256, 256), float32] */, Primitive=1) -> Tensor[(32, 16, 256, 256), float32] {
    nn.softmax(%p0478, axis=3) /* ty=Tensor[(32, 16, 256, 256), float32] */
  } /* ty=fn (Tensor[(32, 16, 256, 256), float32]) -> Tensor[(32, 16, 256, 256), float32] */;
  %1186 = %1185(%1184) /* ty=Tensor[(32, 16, 256, 256), float32] */;
  %1187 = fn (%p0477: Tensor[(32, 16, 256, 256), float32] /* ty=Tensor[(32, 16, 256, 256), float32] */, Primitive=1) -> Tensor[(512, 256, 256), float16] {
    %893 = reshape(%p0477, newshape=[-1, 256, 256]) /* ty=Tensor[(512, 256, 256), float32] */;
    cast(%893, dtype="float16") /* ty=Tensor[(512, 256, 256), float16] */
  } /* ty=fn (Tensor[(32, 16, 256, 256), float32]) -> Tensor[(512, 256, 256), float16] */;
  %1194 = fn (%p0557: Tensor[(32, 256, 1024), float32] /* ty=Tensor[(32, 256, 1024), float32] */, Primitive=1) -> Tensor[(8192, 1024), float16] {
    %1193 = reshape(%p0557, newshape=[-1, 1024]) /* ty=Tensor[(8192, 1024), float32] */;
    cast(%1193, dtype="float16") /* ty=Tensor[(8192, 1024), float16] */
  } /* ty=fn (Tensor[(32, 256, 1024), float32]) -> Tensor[(8192, 1024), float16] */;
  %1195 = %1194(%1162) /* ty=Tensor[(8192, 1024), float16] */;
  %1196 = fn (%p0556: Tensor[(8192, 1024), float16] /* ty=Tensor[(8192, 1024), float16] */, %p1377: Tensor[(1024, 1024), float16] /* ty=Tensor[(1024, 1024), float16] */, Primitive=1) -> Tensor[(8192, 1024), float16] {
    nn.dense(%p0556, %p1377, units=None, out_dtype="float16") /* ty=Tensor[(8192, 1024), float16] */
  } /* ty=fn (Tensor[(8192, 1024), float16], Tensor[(1024, 1024), float16]) -> Tensor[(8192, 1024), float16] */;
  %1197 = %1196(%1195, meta[relay.Constant][31] /* ty=Tensor[(1024, 1024), float16] span=/encoder/albert_layer_groups.0/albert_layers.0/attention/value_2/MatMul:0:0 */) /* ty=Tensor[(8192, 1024), float16] */;
  %1198 = fn (%p0555: Tensor[(8192, 1024), float16] /* ty=Tensor[(8192, 1024), float16] */, %p1376: Tensor[(1024), float16] /* ty=Tensor[(1024), float16] */, Primitive=1) -> Tensor[(512, 64, 256), float16] {
    %1188 = reshape(%p0555, newshape=[32, 256, 1024]) /* ty=Tensor[(32, 256, 1024), float16] */;
    %1189 = add(%p1376, %1188) /* ty=Tensor[(32, 256, 1024), float16] */;
    %1190 = reshape(%1189, newshape=[32, 256, 16, 64]) /* ty=Tensor[(32, 256, 16, 64), float16] */;
    %1191 = transpose(%1190, axes=[0, 2, 1, 3]) /* ty=Tensor[(32, 16, 256, 64), float16] */;
    %1192 = reshape(%1191, newshape=[-1, 256, 64]) /* ty=Tensor[(512, 256, 64), float16] */;
    transpose(%1192, axes=[0, 2, 1]) /* ty=Tensor[(512, 64, 256), float16] */
  } /* ty=fn (Tensor[(8192, 1024), float16], Tensor[(1024), float16]) -> Tensor[(512, 64, 256), float16] */;
  %1199 = %1187(%1186) /* ty=Tensor[(512, 256, 256), float16] */;
  %1200 = %1198(%1197, meta[relay.Constant][12] /* ty=Tensor[(1024), float16] span=Identity_5:0:0 */) /* ty=Tensor[(512, 64, 256), float16] */;
  %1201 = fn (%p0476: Tensor[(512, 256, 256), float16] /* ty=Tensor[(512, 256, 256), float16] */, %p1325: Tensor[(512, 64, 256), float16] /* ty=Tensor[(512, 64, 256), float16] */, Primitive=1) -> Tensor[(512, 256, 64), float16] {
    nn.batch_matmul(%p0476, %p1325, out_dtype="float16", transpose_b=True) /* ty=Tensor[(512, 256, 64), float16] */
  } /* ty=fn (Tensor[(512, 256, 256), float16], Tensor[(512, 64, 256), float16]) -> Tensor[(512, 256, 64), float16] */;
  %1202 = %1201(%1199, %1200) /* ty=Tensor[(512, 256, 64), float16] */;
  %1203 = fn (%p0475: Tensor[(512, 256, 64), float16] /* ty=Tensor[(512, 256, 64), float16] */, Primitive=1) -> Tensor[(8192, 1024), float16] {
    %891 = reshape(%p0475, newshape=[32, 16, 256, 64]) /* ty=Tensor[(32, 16, 256, 64), float16] */;
    %892 = transpose(%891, axes=[0, 2, 1, 3]) /* ty=Tensor[(32, 256, 16, 64), float16] */;
    reshape(%892, newshape=[8192, 1024]) /* ty=Tensor[(8192, 1024), float16] */
  } /* ty=fn (Tensor[(512, 256, 64), float16]) -> Tensor[(8192, 1024), float16] */;
  %1204 = %1203(%1202) /* ty=Tensor[(8192, 1024), float16] */;
  %1205 = fn (%p0474: Tensor[(8192, 1024), float16] /* ty=Tensor[(8192, 1024), float16] */, %p1324: Tensor[(1024, 1024), float16] /* ty=Tensor[(1024, 1024), float16] */, Primitive=1) -> Tensor[(8192, 1024), float16] {
    nn.dense(%p0474, %p1324, units=None, out_dtype="float16") /* ty=Tensor[(8192, 1024), float16] */
  } /* ty=fn (Tensor[(8192, 1024), float16], Tensor[(1024, 1024), float16]) -> Tensor[(8192, 1024), float16] */;
  %1206 = %1205(%1204, meta[relay.Constant][32] /* ty=Tensor[(1024, 1024), float16] span=/encoder/albert_layer_groups.0/albert_layers.0/attention/dense_2/MatMul:0:0 */) /* ty=Tensor[(8192, 1024), float16] */;
  %1207 = fn (%p0473: Tensor[(8192, 1024), float16] /* ty=Tensor[(8192, 1024), float16] */, %p1323: Tensor[(1024), float16] /* ty=Tensor[(1024), float16] */, %p2130: Tensor[(32, 256, 1024), float32] /* ty=Tensor[(32, 256, 1024), float32] */, Primitive=1) -> Tensor[(32, 256, 1024), float32] {
    %888 = reshape(%p0473, newshape=[32, 256, 1024]) /* ty=Tensor[(32, 256, 1024), float16] */;
    %889 = add(%p1323, %888) /* ty=Tensor[(32, 256, 1024), float16] */;
    %890 = cast(%889, dtype="float32") /* ty=Tensor[(32, 256, 1024), float32] */;
    add(%p2130, %890) /* ty=Tensor[(32, 256, 1024), float32] */
  } /* ty=fn (Tensor[(8192, 1024), float16], Tensor[(1024), float16], Tensor[(32, 256, 1024), float32]) -> Tensor[(32, 256, 1024), float32] */;
  %1208 = %1207(%1206, meta[relay.Constant][14] /* ty=Tensor[(1024), float16] span=Identity_4:0:0 */, %1162) /* ty=Tensor[(32, 256, 1024), float32] */;
  %1209 = fn (%p0558: Tensor[(32, 256, 1024), float32] /* ty=Tensor[(32, 256, 1024), float32] */, Primitive=1) -> Tensor[(32, 256, 1), float32] {
    mean(%p0558, axis=[-1], keepdims=True) /* ty=Tensor[(32, 256, 1), float32] */
  } /* ty=fn (Tensor[(32, 256, 1024), float32]) -> Tensor[(32, 256, 1), float32] */;
  %1210 = %1209(%1208) /* ty=Tensor[(32, 256, 1), float32] */;
  %1211 = fn (%p0472: Tensor[(32, 256, 1024), float32] /* ty=Tensor[(32, 256, 1024), float32] */, %p1322: Tensor[(32, 256, 1), float32] /* ty=Tensor[(32, 256, 1), float32] */, Primitive=1) -> Tensor[(32, 256, 1024), float32] {
    subtract(%p0472, %p1322) /* ty=Tensor[(32, 256, 1024), float32] */
  } /* ty=fn (Tensor[(32, 256, 1024), float32], Tensor[(32, 256, 1), float32]) -> Tensor[(32, 256, 1024), float32] */;
  %1212 = %1211(%1208, %1210) /* ty=Tensor[(32, 256, 1024), float32] */;
  %1213 = fn (%p0471: Tensor[(32, 256, 1024), float32] /* ty=Tensor[(32, 256, 1024), float32] */, Primitive=1) -> Tensor[(32, 256, 1), float32] {
    %887 = power(%p0471, 2f /* ty=float32 */) /* ty=Tensor[(32, 256, 1024), float32] */;
    mean(%887, axis=[-1], keepdims=True) /* ty=Tensor[(32, 256, 1), float32] */
  } /* ty=fn (Tensor[(32, 256, 1024), float32]) -> Tensor[(32, 256, 1), float32] */;
  %1214 = %1213(%1212) /* ty=Tensor[(32, 256, 1), float32] */;
  %1215 = fn (%p0470: Tensor[(32, 256, 1), float32] /* ty=Tensor[(32, 256, 1), float32] */, %p1321: Tensor[(32, 256, 1024), float32] /* ty=Tensor[(32, 256, 1024), float32] */, %p2129: Tensor[(1024), float32] /* ty=Tensor[(1024), float32] */, %p343: Tensor[(1024), float32] /* ty=Tensor[(1024), float32] */, Primitive=1) -> Tensor[(32, 256, 1024), float32] {
    %883 = add(%p0470, 1.19209e-07f /* ty=float32 */) /* ty=Tensor[(32, 256, 1), float32] */;
    %884 = rsqrt(%883) /* ty=Tensor[(32, 256, 1), float32] */;
    %885 = multiply(%p1321, %884) /* ty=Tensor[(32, 256, 1024), float32] */;
    %886 = multiply(%885, %p2129) /* ty=Tensor[(32, 256, 1024), float32] */;
    add(%886, %p343) /* ty=Tensor[(32, 256, 1024), float32] */
  } /* ty=fn (Tensor[(32, 256, 1), float32], Tensor[(32, 256, 1024), float32], Tensor[(1024), float32], Tensor[(1024), float32]) -> Tensor[(32, 256, 1024), float32] */;
  %1216 = %1215(%1214, %1212, meta[relay.Constant][15] /* ty=Tensor[(1024), float32] */, meta[relay.Constant][16] /* ty=Tensor[(1024), float32] */) /* ty=Tensor[(32, 256, 1024), float32] */;
  %1217 = fn (%p0469: Tensor[(32, 256, 1024), float32] /* ty=Tensor[(32, 256, 1024), float32] */, Primitive=1) -> Tensor[(8192, 1024), float16] {
    %882 = reshape(%p0469, newshape=[-1, 1024]) /* ty=Tensor[(8192, 1024), float32] */;
    cast(%882, dtype="float16") /* ty=Tensor[(8192, 1024), float16] */
  } /* ty=fn (Tensor[(32, 256, 1024), float32]) -> Tensor[(8192, 1024), float16] */;
  %1218 = %1217(%1216) /* ty=Tensor[(8192, 1024), float16] */;
  %1219 = fn (%p0468: Tensor[(8192, 1024), float16] /* ty=Tensor[(8192, 1024), float16] */, %p1320: Tensor[(4096, 1024), float16] /* ty=Tensor[(4096, 1024), float16] */, Primitive=1) -> Tensor[(8192, 4096), float16] {
    nn.dense(%p0468, %p1320, units=None, out_dtype="float16") /* ty=Tensor[(8192, 4096), float16] */
  } /* ty=fn (Tensor[(8192, 1024), float16], Tensor[(4096, 1024), float16]) -> Tensor[(8192, 4096), float16] */;
  %1220 = %1219(%1218, meta[relay.Constant][33] /* ty=Tensor[(4096, 1024), float16] span=/encoder/albert_layer_groups.0/albert_layers.0/ffn_2/MatMul:0:0 */) /* ty=Tensor[(8192, 4096), float16] */;
  %1221 = fn (%p0467: Tensor[(8192, 4096), float16] /* ty=Tensor[(8192, 4096), float16] */, %p1319: Tensor[(4096), float16] /* ty=Tensor[(4096), float16] */, %p2128: float16 /* ty=float16 */, Primitive=1) -> Tensor[(8192, 4096), float16] {
    %869 = reshape(%p0467, newshape=[32, 256, 4096]) /* ty=Tensor[(32, 256, 4096), float16] */;
    %870 = add(%p1319, %869) /* ty=Tensor[(32, 256, 4096), float16] */;
    %871 = multiply(%870, %p2128) /* ty=Tensor[(32, 256, 4096), float16] */;
    %872 = cast(%870, dtype="float32") /* ty=Tensor[(32, 256, 4096), float32] */;
    %873 = power(%872, 3f /* ty=float32 */) /* ty=Tensor[(32, 256, 4096), float32] */;
    %874 = multiply(%873, 0.0447083f /* ty=float32 */) /* ty=Tensor[(32, 256, 4096), float32] */;
    %875 = add(%872, %874) /* ty=Tensor[(32, 256, 4096), float32] */;
    %876 = multiply(%875, 0.797852f /* ty=float32 */) /* ty=Tensor[(32, 256, 4096), float32] */;
    %877 = tanh(%876) /* ty=Tensor[(32, 256, 4096), float32] */;
    %878 = cast(%871, dtype="float32") /* ty=Tensor[(32, 256, 4096), float32] */;
    %879 = add(%877, 1f /* ty=float32 */) /* ty=Tensor[(32, 256, 4096), float32] */;
    %880 = multiply(%878, %879) /* ty=Tensor[(32, 256, 4096), float32] */;
    %881 = reshape(%880, newshape=[-1, 4096]) /* ty=Tensor[(8192, 4096), float32] */;
    cast(%881, dtype="float16") /* ty=Tensor[(8192, 4096), float16] */
  } /* ty=fn (Tensor[(8192, 4096), float16], Tensor[(4096), float16], float16) -> Tensor[(8192, 4096), float16] */;
  %1222 = %1221(%1220, meta[relay.Constant][18] /* ty=Tensor[(4096), float16] span=/encoder/albert_layer_groups.0/albert_layers.0/ffn/Add.encoder.albert_layer_groups.0.albert_layers.0.ffn.bias:0:0 */, 0.5f16 /* ty=float16 span=/encoder/albert_layer_groups.0/albert_layers.0/activation_2/Constant:0:0 */) /* ty=Tensor[(8192, 4096), float16] */;
  %1223 = fn (%p0466: Tensor[(8192, 4096), float16] /* ty=Tensor[(8192, 4096), float16] */, %p1318: Tensor[(1024, 4096), float16] /* ty=Tensor[(1024, 4096), float16] */, Primitive=1) -> Tensor[(8192, 1024), float16] {
    nn.dense(%p0466, %p1318, units=None, out_dtype="float16") /* ty=Tensor[(8192, 1024), float16] */
  } /* ty=fn (Tensor[(8192, 4096), float16], Tensor[(1024, 4096), float16]) -> Tensor[(8192, 1024), float16] */;
  %1224 = %1223(%1222, meta[relay.Constant][34] /* ty=Tensor[(1024, 4096), float16] span=/encoder/albert_layer_groups.0/albert_layers.0/ffn_output_2/MatMul:0:0 */) /* ty=Tensor[(8192, 1024), float16] */;
  %1225 = fn (%p0465: Tensor[(8192, 1024), float16] /* ty=Tensor[(8192, 1024), float16] */, %p1317: Tensor[(1024), float16] /* ty=Tensor[(1024), float16] */, %p2127: Tensor[(32, 256, 1024), float32] /* ty=Tensor[(32, 256, 1024), float32] */, Primitive=1) -> Tensor[(32, 256, 1024), float32] {
    %866 = reshape(%p0465, newshape=[32, 256, 1024]) /* ty=Tensor[(32, 256, 1024), float16] */;
    %867 = add(%p1317, %866) /* ty=Tensor[(32, 256, 1024), float16] */;
    %868 = cast(%867, dtype="float32") /* ty=Tensor[(32, 256, 1024), float32] */;
    add(%868, %p2127) /* ty=Tensor[(32, 256, 1024), float32] */
  } /* ty=fn (Tensor[(8192, 1024), float16], Tensor[(1024), float16], Tensor[(32, 256, 1024), float32]) -> Tensor[(32, 256, 1024), float32] */;
  %1226 = %1225(%1224, meta[relay.Constant][20] /* ty=Tensor[(1024), float16] span=Identity_1:0:0 */, %1216) /* ty=Tensor[(32, 256, 1024), float32] */;
  %1227 = fn (%p0559: Tensor[(32, 256, 1024), float32] /* ty=Tensor[(32, 256, 1024), float32] */, Primitive=1) -> Tensor[(32, 256, 1), float32] {
    mean(%p0559, axis=[-1], keepdims=True) /* ty=Tensor[(32, 256, 1), float32] */
  } /* ty=fn (Tensor[(32, 256, 1024), float32]) -> Tensor[(32, 256, 1), float32] */;
  %1228 = %1227(%1226) /* ty=Tensor[(32, 256, 1), float32] */;
  %1229 = fn (%p0464: Tensor[(32, 256, 1024), float32] /* ty=Tensor[(32, 256, 1024), float32] */, %p1316: Tensor[(32, 256, 1), float32] /* ty=Tensor[(32, 256, 1), float32] */, Primitive=1) -> Tensor[(32, 256, 1024), float32] {
    subtract(%p0464, %p1316) /* ty=Tensor[(32, 256, 1024), float32] */
  } /* ty=fn (Tensor[(32, 256, 1024), float32], Tensor[(32, 256, 1), float32]) -> Tensor[(32, 256, 1024), float32] */;
  %1230 = %1229(%1226, %1228) /* ty=Tensor[(32, 256, 1024), float32] */;
  %1231 = fn (%p0463: Tensor[(32, 256, 1024), float32] /* ty=Tensor[(32, 256, 1024), float32] */, Primitive=1) -> Tensor[(32, 256, 1), float32] {
    %865 = power(%p0463, 2f /* ty=float32 */) /* ty=Tensor[(32, 256, 1024), float32] */;
    mean(%865, axis=[-1], keepdims=True) /* ty=Tensor[(32, 256, 1), float32] */
  } /* ty=fn (Tensor[(32, 256, 1024), float32]) -> Tensor[(32, 256, 1), float32] */;
  %1232 = %1231(%1230) /* ty=Tensor[(32, 256, 1), float32] */;
  %1233 = fn (%p0462: Tensor[(32, 256, 1), float32] /* ty=Tensor[(32, 256, 1), float32] */, %p1315: Tensor[(32, 256, 1024), float32] /* ty=Tensor[(32, 256, 1024), float32] */, %p2126: Tensor[(1024), float32] /* ty=Tensor[(1024), float32] */, %p342: Tensor[(1024), float32] /* ty=Tensor[(1024), float32] */, Primitive=1) -> Tensor[(32, 256, 1024), float32] {
    %861 = add(%p0462, 1.19209e-07f /* ty=float32 */) /* ty=Tensor[(32, 256, 1), float32] */;
    %862 = rsqrt(%861) /* ty=Tensor[(32, 256, 1), float32] */;
    %863 = multiply(%p1315, %862) /* ty=Tensor[(32, 256, 1024), float32] */;
    %864 = multiply(%863, %p2126) /* ty=Tensor[(32, 256, 1024), float32] */;
    add(%864, %p342) /* ty=Tensor[(32, 256, 1024), float32] */
  } /* ty=fn (Tensor[(32, 256, 1), float32], Tensor[(32, 256, 1024), float32], Tensor[(1024), float32], Tensor[(1024), float32]) -> Tensor[(32, 256, 1024), float32] */;
  %1234 = %1233(%1232, %1230, meta[relay.Constant][21] /* ty=Tensor[(1024), float32] */, meta[relay.Constant][22] /* ty=Tensor[(1024), float32] */) /* ty=Tensor[(32, 256, 1024), float32] */;
  %1235 = fn (%p0461: Tensor[(32, 256, 1024), float32] /* ty=Tensor[(32, 256, 1024), float32] */, Primitive=1) -> Tensor[(8192, 1024), float16] {
    %860 = reshape(%p0461, newshape=[-1, 1024]) /* ty=Tensor[(8192, 1024), float32] */;
    cast(%860, dtype="float16") /* ty=Tensor[(8192, 1024), float16] */
  } /* ty=fn (Tensor[(32, 256, 1024), float32]) -> Tensor[(8192, 1024), float16] */;
  %1236 = %1235(%1234) /* ty=Tensor[(8192, 1024), float16] */;
  %1237 = fn (%p0460: Tensor[(8192, 1024), float16] /* ty=Tensor[(8192, 1024), float16] */, %p1314: Tensor[(1024, 1024), float16] /* ty=Tensor[(1024, 1024), float16] */, Primitive=1) -> Tensor[(8192, 1024), float16] {
    nn.dense(%p0460, %p1314, units=None, out_dtype="float16") /* ty=Tensor[(8192, 1024), float16] */
  } /* ty=fn (Tensor[(8192, 1024), float16], Tensor[(1024, 1024), float16]) -> Tensor[(8192, 1024), float16] */;
  %1238 = %1237(%1236, meta[relay.Constant][35] /* ty=Tensor[(1024, 1024), float16] span=/encoder/albert_layer_groups.0/albert_layers.0/attention/query_3/MatMul:0:0 */) /* ty=Tensor[(8192, 1024), float16] */;
  %1239 = fn (%p0459: Tensor[(8192, 1024), float16] /* ty=Tensor[(8192, 1024), float16] */, %p1313: Tensor[(1024), float16] /* ty=Tensor[(1024), float16] */, Primitive=1) -> Tensor[(512, 256, 64), float16] {
    %856 = reshape(%p0459, newshape=[32, 256, 1024]) /* ty=Tensor[(32, 256, 1024), float16] */;
    %857 = add(%p1313, %856) /* ty=Tensor[(32, 256, 1024), float16] */;
    %858 = reshape(%857, newshape=[32, 256, 16, 64]) /* ty=Tensor[(32, 256, 16, 64), float16] */;
    %859 = transpose(%858, axes=[0, 2, 1, 3]) /* ty=Tensor[(32, 16, 256, 64), float16] */;
    reshape(%859, newshape=[-1, 256, 64]) /* ty=Tensor[(512, 256, 64), float16] */
  } /* ty=fn (Tensor[(8192, 1024), float16], Tensor[(1024), float16]) -> Tensor[(512, 256, 64), float16] */;
  %1246 = fn (%p0562: Tensor[(32, 256, 1024), float32] /* ty=Tensor[(32, 256, 1024), float32] */, Primitive=1) -> Tensor[(8192, 1024), float16] {
    %1245 = reshape(%p0562, newshape=[-1, 1024]) /* ty=Tensor[(8192, 1024), float32] */;
    cast(%1245, dtype="float16") /* ty=Tensor[(8192, 1024), float16] */
  } /* ty=fn (Tensor[(32, 256, 1024), float32]) -> Tensor[(8192, 1024), float16] */;
  %1247 = %1246(%1234) /* ty=Tensor[(8192, 1024), float16] */;
  %1248 = fn (%p0561: Tensor[(8192, 1024), float16] /* ty=Tensor[(8192, 1024), float16] */, %p1379: Tensor[(1024, 1024), float16] /* ty=Tensor[(1024, 1024), float16] */, Primitive=1) -> Tensor[(8192, 1024), float16] {
    nn.dense(%p0561, %p1379, units=None, out_dtype="float16") /* ty=Tensor[(8192, 1024), float16] */
  } /* ty=fn (Tensor[(8192, 1024), float16], Tensor[(1024, 1024), float16]) -> Tensor[(8192, 1024), float16] */;
  %1249 = %1248(%1247, meta[relay.Constant][36] /* ty=Tensor[(1024, 1024), float16] span=/encoder/albert_layer_groups.0/albert_layers.0/attention/key_3/MatMul:0:0 */) /* ty=Tensor[(8192, 1024), float16] */;
  %1250 = fn (%p0560: Tensor[(8192, 1024), float16] /* ty=Tensor[(8192, 1024), float16] */, %p1378: Tensor[(1024), float16] /* ty=Tensor[(1024), float16] */, Primitive=1) -> Tensor[(512, 256, 64), float16] {
    %1240 = reshape(%p0560, newshape=[32, 256, 1024]) /* ty=Tensor[(32, 256, 1024), float16] */;
    %1241 = add(%p1378, %1240) /* ty=Tensor[(32, 256, 1024), float16] */;
    %1242 = reshape(%1241, newshape=[32, 256, 16, 64]) /* ty=Tensor[(32, 256, 16, 64), float16] */;
    %1243 = transpose(%1242, axes=[0, 2, 3, 1]) /* ty=Tensor[(32, 16, 64, 256), float16] */;
    %1244 = reshape(%1243, newshape=[-1, 64, 256]) /* ty=Tensor[(512, 64, 256), float16] */;
    transpose(%1244, axes=[0, 2, 1]) /* ty=Tensor[(512, 256, 64), float16] */
  } /* ty=fn (Tensor[(8192, 1024), float16], Tensor[(1024), float16]) -> Tensor[(512, 256, 64), float16] */;
  %1251 = %1239(%1238, meta[relay.Constant][8] /* ty=Tensor[(1024), float16] span=Identity_7:0:0 */) /* ty=Tensor[(512, 256, 64), float16] */;
  %1252 = %1250(%1249, meta[relay.Constant][10] /* ty=Tensor[(1024), float16] span=Identity_6:0:0 */) /* ty=Tensor[(512, 256, 64), float16] */;
  %1253 = fn (%p0458: Tensor[(512, 256, 64), float16] /* ty=Tensor[(512, 256, 64), float16] */, %p1312: Tensor[(512, 256, 64), float16] /* ty=Tensor[(512, 256, 64), float16] */, Primitive=1) -> Tensor[(512, 256, 256), float16] {
    nn.batch_matmul(%p0458, %p1312, out_dtype="float16", transpose_b=True) /* ty=Tensor[(512, 256, 256), float16] */
  } /* ty=fn (Tensor[(512, 256, 64), float16], Tensor[(512, 256, 64), float16]) -> Tensor[(512, 256, 256), float16] */;
  %1254 = %1253(%1251, %1252) /* ty=Tensor[(512, 256, 256), float16] */;
  %1255 = fn (%p0457: Tensor[(512, 256, 256), float16] /* ty=Tensor[(512, 256, 256), float16] */, %p1311: float16 /* ty=float16 */, %p2125: Tensor[(32, 1, 1, 256), float16] /* ty=Tensor[(32, 1, 1, 256), float16] */, Primitive=1) -> Tensor[(32, 16, 256, 256), float32] {
    %853 = reshape(%p0457, newshape=[32, 16, 256, 256]) /* ty=Tensor[(32, 16, 256, 256), float16] */;
    %854 = divide(%853, %p1311) /* ty=Tensor[(32, 16, 256, 256), float16] */;
    %855 = add(%854, %p2125) /* ty=Tensor[(32, 16, 256, 256), float16] */;
    cast(%855, dtype="float32") /* ty=Tensor[(32, 16, 256, 256), float32] */
  } /* ty=fn (Tensor[(512, 256, 256), float16], float16, Tensor[(32, 1, 1, 256), float16]) -> Tensor[(32, 16, 256, 256), float32] */;
  %1256 = %1255(%1254, 8f16 /* ty=float16 span=/encoder/albert_layer_groups.0/albert_layers.0/attention_3/Constant_6:0:0 */, %1039) /* ty=Tensor[(32, 16, 256, 256), float32] */;
  %1257 = fn (%p0456: Tensor[(32, 16, 256, 256), float32] /* ty=Tensor[(32, 16, 256, 256), float32] */, Primitive=1) -> Tensor[(32, 16, 256, 256), float32] {
    nn.softmax(%p0456, axis=3) /* ty=Tensor[(32, 16, 256, 256), float32] */
  } /* ty=fn (Tensor[(32, 16, 256, 256), float32]) -> Tensor[(32, 16, 256, 256), float32] */;
  %1258 = %1257(%1256) /* ty=Tensor[(32, 16, 256, 256), float32] */;
  %1259 = fn (%p0455: Tensor[(32, 16, 256, 256), float32] /* ty=Tensor[(32, 16, 256, 256), float32] */, Primitive=1) -> Tensor[(512, 256, 256), float16] {
    %852 = reshape(%p0455, newshape=[-1, 256, 256]) /* ty=Tensor[(512, 256, 256), float32] */;
    cast(%852, dtype="float16") /* ty=Tensor[(512, 256, 256), float16] */
  } /* ty=fn (Tensor[(32, 16, 256, 256), float32]) -> Tensor[(512, 256, 256), float16] */;
  %1266 = fn (%p0565: Tensor[(32, 256, 1024), float32] /* ty=Tensor[(32, 256, 1024), float32] */, Primitive=1) -> Tensor[(8192, 1024), float16] {
    %1265 = reshape(%p0565, newshape=[-1, 1024]) /* ty=Tensor[(8192, 1024), float32] */;
    cast(%1265, dtype="float16") /* ty=Tensor[(8192, 1024), float16] */
  } /* ty=fn (Tensor[(32, 256, 1024), float32]) -> Tensor[(8192, 1024), float16] */;
  %1267 = %1266(%1234) /* ty=Tensor[(8192, 1024), float16] */;
  %1268 = fn (%p0564: Tensor[(8192, 1024), float16] /* ty=Tensor[(8192, 1024), float16] */, %p1381: Tensor[(1024, 1024), float16] /* ty=Tensor[(1024, 1024), float16] */, Primitive=1) -> Tensor[(8192, 1024), float16] {
    nn.dense(%p0564, %p1381, units=None, out_dtype="float16") /* ty=Tensor[(8192, 1024), float16] */
  } /* ty=fn (Tensor[(8192, 1024), float16], Tensor[(1024, 1024), float16]) -> Tensor[(8192, 1024), float16] */;
  %1269 = %1268(%1267, meta[relay.Constant][37] /* ty=Tensor[(1024, 1024), float16] span=/encoder/albert_layer_groups.0/albert_layers.0/attention/value_3/MatMul:0:0 */) /* ty=Tensor[(8192, 1024), float16] */;
  %1270 = fn (%p0563: Tensor[(8192, 1024), float16] /* ty=Tensor[(8192, 1024), float16] */, %p1380: Tensor[(1024), float16] /* ty=Tensor[(1024), float16] */, Primitive=1) -> Tensor[(512, 64, 256), float16] {
    %1260 = reshape(%p0563, newshape=[32, 256, 1024]) /* ty=Tensor[(32, 256, 1024), float16] */;
    %1261 = add(%p1380, %1260) /* ty=Tensor[(32, 256, 1024), float16] */;
    %1262 = reshape(%1261, newshape=[32, 256, 16, 64]) /* ty=Tensor[(32, 256, 16, 64), float16] */;
    %1263 = transpose(%1262, axes=[0, 2, 1, 3]) /* ty=Tensor[(32, 16, 256, 64), float16] */;
    %1264 = reshape(%1263, newshape=[-1, 256, 64]) /* ty=Tensor[(512, 256, 64), float16] */;
    transpose(%1264, axes=[0, 2, 1]) /* ty=Tensor[(512, 64, 256), float16] */
  } /* ty=fn (Tensor[(8192, 1024), float16], Tensor[(1024), float16]) -> Tensor[(512, 64, 256), float16] */;
  %1271 = %1259(%1258) /* ty=Tensor[(512, 256, 256), float16] */;
  %1272 = %1270(%1269, meta[relay.Constant][12] /* ty=Tensor[(1024), float16] span=Identity_5:0:0 */) /* ty=Tensor[(512, 64, 256), float16] */;
  %1273 = fn (%p0454: Tensor[(512, 256, 256), float16] /* ty=Tensor[(512, 256, 256), float16] */, %p1310: Tensor[(512, 64, 256), float16] /* ty=Tensor[(512, 64, 256), float16] */, Primitive=1) -> Tensor[(512, 256, 64), float16] {
    nn.batch_matmul(%p0454, %p1310, out_dtype="float16", transpose_b=True) /* ty=Tensor[(512, 256, 64), float16] */
  } /* ty=fn (Tensor[(512, 256, 256), float16], Tensor[(512, 64, 256), float16]) -> Tensor[(512, 256, 64), float16] */;
  %1274 = %1273(%1271, %1272) /* ty=Tensor[(512, 256, 64), float16] */;
  %1275 = fn (%p0453: Tensor[(512, 256, 64), float16] /* ty=Tensor[(512, 256, 64), float16] */, Primitive=1) -> Tensor[(8192, 1024), float16] {
    %850 = reshape(%p0453, newshape=[32, 16, 256, 64]) /* ty=Tensor[(32, 16, 256, 64), float16] */;
    %851 = transpose(%850, axes=[0, 2, 1, 3]) /* ty=Tensor[(32, 256, 16, 64), float16] */;
    reshape(%851, newshape=[8192, 1024]) /* ty=Tensor[(8192, 1024), float16] */
  } /* ty=fn (Tensor[(512, 256, 64), float16]) -> Tensor[(8192, 1024), float16] */;
  %1276 = %1275(%1274) /* ty=Tensor[(8192, 1024), float16] */;
  %1277 = fn (%p0452: Tensor[(8192, 1024), float16] /* ty=Tensor[(8192, 1024), float16] */, %p1309: Tensor[(1024, 1024), float16] /* ty=Tensor[(1024, 1024), float16] */, Primitive=1) -> Tensor[(8192, 1024), float16] {
    nn.dense(%p0452, %p1309, units=None, out_dtype="float16") /* ty=Tensor[(8192, 1024), float16] */
  } /* ty=fn (Tensor[(8192, 1024), float16], Tensor[(1024, 1024), float16]) -> Tensor[(8192, 1024), float16] */;
  %1278 = %1277(%1276, meta[relay.Constant][38] /* ty=Tensor[(1024, 1024), float16] span=/encoder/albert_layer_groups.0/albert_layers.0/attention/dense_3/MatMul:0:0 */) /* ty=Tensor[(8192, 1024), float16] */;
  %1279 = fn (%p0451: Tensor[(8192, 1024), float16] /* ty=Tensor[(8192, 1024), float16] */, %p1308: Tensor[(1024), float16] /* ty=Tensor[(1024), float16] */, %p2124: Tensor[(32, 256, 1024), float32] /* ty=Tensor[(32, 256, 1024), float32] */, Primitive=1) -> Tensor[(32, 256, 1024), float32] {
    %847 = reshape(%p0451, newshape=[32, 256, 1024]) /* ty=Tensor[(32, 256, 1024), float16] */;
    %848 = add(%p1308, %847) /* ty=Tensor[(32, 256, 1024), float16] */;
    %849 = cast(%848, dtype="float32") /* ty=Tensor[(32, 256, 1024), float32] */;
    add(%p2124, %849) /* ty=Tensor[(32, 256, 1024), float32] */
  } /* ty=fn (Tensor[(8192, 1024), float16], Tensor[(1024), float16], Tensor[(32, 256, 1024), float32]) -> Tensor[(32, 256, 1024), float32] */;
  %1280 = %1279(%1278, meta[relay.Constant][14] /* ty=Tensor[(1024), float16] span=Identity_4:0:0 */, %1234) /* ty=Tensor[(32, 256, 1024), float32] */;
  %1281 = fn (%p0566: Tensor[(32, 256, 1024), float32] /* ty=Tensor[(32, 256, 1024), float32] */, Primitive=1) -> Tensor[(32, 256, 1), float32] {
    mean(%p0566, axis=[-1], keepdims=True) /* ty=Tensor[(32, 256, 1), float32] */
  } /* ty=fn (Tensor[(32, 256, 1024), float32]) -> Tensor[(32, 256, 1), float32] */;
  %1282 = %1281(%1280) /* ty=Tensor[(32, 256, 1), float32] */;
  %1283 = fn (%p0450: Tensor[(32, 256, 1024), float32] /* ty=Tensor[(32, 256, 1024), float32] */, %p1307: Tensor[(32, 256, 1), float32] /* ty=Tensor[(32, 256, 1), float32] */, Primitive=1) -> Tensor[(32, 256, 1024), float32] {
    subtract(%p0450, %p1307) /* ty=Tensor[(32, 256, 1024), float32] */
  } /* ty=fn (Tensor[(32, 256, 1024), float32], Tensor[(32, 256, 1), float32]) -> Tensor[(32, 256, 1024), float32] */;
  %1284 = %1283(%1280, %1282) /* ty=Tensor[(32, 256, 1024), float32] */;
  %1285 = fn (%p0449: Tensor[(32, 256, 1024), float32] /* ty=Tensor[(32, 256, 1024), float32] */, Primitive=1) -> Tensor[(32, 256, 1), float32] {
    %846 = power(%p0449, 2f /* ty=float32 */) /* ty=Tensor[(32, 256, 1024), float32] */;
    mean(%846, axis=[-1], keepdims=True) /* ty=Tensor[(32, 256, 1), float32] */
  } /* ty=fn (Tensor[(32, 256, 1024), float32]) -> Tensor[(32, 256, 1), float32] */;
  %1286 = %1285(%1284) /* ty=Tensor[(32, 256, 1), float32] */;
  %1287 = fn (%p0448: Tensor[(32, 256, 1), float32] /* ty=Tensor[(32, 256, 1), float32] */, %p1306: Tensor[(32, 256, 1024), float32] /* ty=Tensor[(32, 256, 1024), float32] */, %p2123: Tensor[(1024), float32] /* ty=Tensor[(1024), float32] */, %p341: Tensor[(1024), float32] /* ty=Tensor[(1024), float32] */, Primitive=1) -> Tensor[(32, 256, 1024), float32] {
    %842 = add(%p0448, 1.19209e-07f /* ty=float32 */) /* ty=Tensor[(32, 256, 1), float32] */;
    %843 = rsqrt(%842) /* ty=Tensor[(32, 256, 1), float32] */;
    %844 = multiply(%p1306, %843) /* ty=Tensor[(32, 256, 1024), float32] */;
    %845 = multiply(%844, %p2123) /* ty=Tensor[(32, 256, 1024), float32] */;
    add(%845, %p341) /* ty=Tensor[(32, 256, 1024), float32] */
  } /* ty=fn (Tensor[(32, 256, 1), float32], Tensor[(32, 256, 1024), float32], Tensor[(1024), float32], Tensor[(1024), float32]) -> Tensor[(32, 256, 1024), float32] */;
  %1288 = %1287(%1286, %1284, meta[relay.Constant][15] /* ty=Tensor[(1024), float32] */, meta[relay.Constant][16] /* ty=Tensor[(1024), float32] */) /* ty=Tensor[(32, 256, 1024), float32] */;
  %1289 = fn (%p0447: Tensor[(32, 256, 1024), float32] /* ty=Tensor[(32, 256, 1024), float32] */, Primitive=1) -> Tensor[(8192, 1024), float16] {
    %841 = reshape(%p0447, newshape=[-1, 1024]) /* ty=Tensor[(8192, 1024), float32] */;
    cast(%841, dtype="float16") /* ty=Tensor[(8192, 1024), float16] */
  } /* ty=fn (Tensor[(32, 256, 1024), float32]) -> Tensor[(8192, 1024), float16] */;
  %1290 = %1289(%1288) /* ty=Tensor[(8192, 1024), float16] */;
  %1291 = fn (%p0446: Tensor[(8192, 1024), float16] /* ty=Tensor[(8192, 1024), float16] */, %p1305: Tensor[(4096, 1024), float16] /* ty=Tensor[(4096, 1024), float16] */, Primitive=1) -> Tensor[(8192, 4096), float16] {
    nn.dense(%p0446, %p1305, units=None, out_dtype="float16") /* ty=Tensor[(8192, 4096), float16] */
  } /* ty=fn (Tensor[(8192, 1024), float16], Tensor[(4096, 1024), float16]) -> Tensor[(8192, 4096), float16] */;
  %1292 = %1291(%1290, meta[relay.Constant][39] /* ty=Tensor[(4096, 1024), float16] span=/encoder/albert_layer_groups.0/albert_layers.0/ffn_3/MatMul:0:0 */) /* ty=Tensor[(8192, 4096), float16] */;
  %1293 = fn (%p0445: Tensor[(8192, 4096), float16] /* ty=Tensor[(8192, 4096), float16] */, %p1304: Tensor[(4096), float16] /* ty=Tensor[(4096), float16] */, %p2122: float16 /* ty=float16 */, Primitive=1) -> Tensor[(8192, 4096), float16] {
    %828 = reshape(%p0445, newshape=[32, 256, 4096]) /* ty=Tensor[(32, 256, 4096), float16] */;
    %829 = add(%p1304, %828) /* ty=Tensor[(32, 256, 4096), float16] */;
    %830 = multiply(%829, %p2122) /* ty=Tensor[(32, 256, 4096), float16] */;
    %831 = cast(%829, dtype="float32") /* ty=Tensor[(32, 256, 4096), float32] */;
    %832 = power(%831, 3f /* ty=float32 */) /* ty=Tensor[(32, 256, 4096), float32] */;
    %833 = multiply(%832, 0.0447083f /* ty=float32 */) /* ty=Tensor[(32, 256, 4096), float32] */;
    %834 = add(%831, %833) /* ty=Tensor[(32, 256, 4096), float32] */;
    %835 = multiply(%834, 0.797852f /* ty=float32 */) /* ty=Tensor[(32, 256, 4096), float32] */;
    %836 = tanh(%835) /* ty=Tensor[(32, 256, 4096), float32] */;
    %837 = cast(%830, dtype="float32") /* ty=Tensor[(32, 256, 4096), float32] */;
    %838 = add(%836, 1f /* ty=float32 */) /* ty=Tensor[(32, 256, 4096), float32] */;
    %839 = multiply(%837, %838) /* ty=Tensor[(32, 256, 4096), float32] */;
    %840 = reshape(%839, newshape=[-1, 4096]) /* ty=Tensor[(8192, 4096), float32] */;
    cast(%840, dtype="float16") /* ty=Tensor[(8192, 4096), float16] */
  } /* ty=fn (Tensor[(8192, 4096), float16], Tensor[(4096), float16], float16) -> Tensor[(8192, 4096), float16] */;
  %1294 = %1293(%1292, meta[relay.Constant][18] /* ty=Tensor[(4096), float16] span=/encoder/albert_layer_groups.0/albert_layers.0/ffn/Add.encoder.albert_layer_groups.0.albert_layers.0.ffn.bias:0:0 */, 0.5f16 /* ty=float16 span=/encoder/albert_layer_groups.0/albert_layers.0/activation_3/Constant:0:0 */) /* ty=Tensor[(8192, 4096), float16] */;
  %1295 = fn (%p0444: Tensor[(8192, 4096), float16] /* ty=Tensor[(8192, 4096), float16] */, %p1303: Tensor[(1024, 4096), float16] /* ty=Tensor[(1024, 4096), float16] */, Primitive=1) -> Tensor[(8192, 1024), float16] {
    nn.dense(%p0444, %p1303, units=None, out_dtype="float16") /* ty=Tensor[(8192, 1024), float16] */
  } /* ty=fn (Tensor[(8192, 4096), float16], Tensor[(1024, 4096), float16]) -> Tensor[(8192, 1024), float16] */;
  %1296 = %1295(%1294, meta[relay.Constant][40] /* ty=Tensor[(1024, 4096), float16] span=/encoder/albert_layer_groups.0/albert_layers.0/ffn_output_3/MatMul:0:0 */) /* ty=Tensor[(8192, 1024), float16] */;
  %1297 = fn (%p0443: Tensor[(8192, 1024), float16] /* ty=Tensor[(8192, 1024), float16] */, %p1302: Tensor[(1024), float16] /* ty=Tensor[(1024), float16] */, %p2121: Tensor[(32, 256, 1024), float32] /* ty=Tensor[(32, 256, 1024), float32] */, Primitive=1) -> Tensor[(32, 256, 1024), float32] {
    %825 = reshape(%p0443, newshape=[32, 256, 1024]) /* ty=Tensor[(32, 256, 1024), float16] */;
    %826 = add(%p1302, %825) /* ty=Tensor[(32, 256, 1024), float16] */;
    %827 = cast(%826, dtype="float32") /* ty=Tensor[(32, 256, 1024), float32] */;
    add(%827, %p2121) /* ty=Tensor[(32, 256, 1024), float32] */
  } /* ty=fn (Tensor[(8192, 1024), float16], Tensor[(1024), float16], Tensor[(32, 256, 1024), float32]) -> Tensor[(32, 256, 1024), float32] */;
  %1298 = %1297(%1296, meta[relay.Constant][20] /* ty=Tensor[(1024), float16] span=Identity_1:0:0 */, %1288) /* ty=Tensor[(32, 256, 1024), float32] */;
  %1299 = fn (%p0567: Tensor[(32, 256, 1024), float32] /* ty=Tensor[(32, 256, 1024), float32] */, Primitive=1) -> Tensor[(32, 256, 1), float32] {
    mean(%p0567, axis=[-1], keepdims=True) /* ty=Tensor[(32, 256, 1), float32] */
  } /* ty=fn (Tensor[(32, 256, 1024), float32]) -> Tensor[(32, 256, 1), float32] */;
  %1300 = %1299(%1298) /* ty=Tensor[(32, 256, 1), float32] */;
  %1301 = fn (%p0442: Tensor[(32, 256, 1024), float32] /* ty=Tensor[(32, 256, 1024), float32] */, %p1301: Tensor[(32, 256, 1), float32] /* ty=Tensor[(32, 256, 1), float32] */, Primitive=1) -> Tensor[(32, 256, 1024), float32] {
    subtract(%p0442, %p1301) /* ty=Tensor[(32, 256, 1024), float32] */
  } /* ty=fn (Tensor[(32, 256, 1024), float32], Tensor[(32, 256, 1), float32]) -> Tensor[(32, 256, 1024), float32] */;
  %1302 = %1301(%1298, %1300) /* ty=Tensor[(32, 256, 1024), float32] */;
  %1303 = fn (%p0441: Tensor[(32, 256, 1024), float32] /* ty=Tensor[(32, 256, 1024), float32] */, Primitive=1) -> Tensor[(32, 256, 1), float32] {
    %824 = power(%p0441, 2f /* ty=float32 */) /* ty=Tensor[(32, 256, 1024), float32] */;
    mean(%824, axis=[-1], keepdims=True) /* ty=Tensor[(32, 256, 1), float32] */
  } /* ty=fn (Tensor[(32, 256, 1024), float32]) -> Tensor[(32, 256, 1), float32] */;
  %1304 = %1303(%1302) /* ty=Tensor[(32, 256, 1), float32] */;
  %1305 = fn (%p0440: Tensor[(32, 256, 1), float32] /* ty=Tensor[(32, 256, 1), float32] */, %p1300: Tensor[(32, 256, 1024), float32] /* ty=Tensor[(32, 256, 1024), float32] */, %p2120: Tensor[(1024), float32] /* ty=Tensor[(1024), float32] */, %p340: Tensor[(1024), float32] /* ty=Tensor[(1024), float32] */, Primitive=1) -> Tensor[(32, 256, 1024), float32] {
    %820 = add(%p0440, 1.19209e-07f /* ty=float32 */) /* ty=Tensor[(32, 256, 1), float32] */;
    %821 = rsqrt(%820) /* ty=Tensor[(32, 256, 1), float32] */;
    %822 = multiply(%p1300, %821) /* ty=Tensor[(32, 256, 1024), float32] */;
    %823 = multiply(%822, %p2120) /* ty=Tensor[(32, 256, 1024), float32] */;
    add(%823, %p340) /* ty=Tensor[(32, 256, 1024), float32] */
  } /* ty=fn (Tensor[(32, 256, 1), float32], Tensor[(32, 256, 1024), float32], Tensor[(1024), float32], Tensor[(1024), float32]) -> Tensor[(32, 256, 1024), float32] */;
  %1306 = %1305(%1304, %1302, meta[relay.Constant][21] /* ty=Tensor[(1024), float32] */, meta[relay.Constant][22] /* ty=Tensor[(1024), float32] */) /* ty=Tensor[(32, 256, 1024), float32] */;
  %1307 = fn (%p0439: Tensor[(32, 256, 1024), float32] /* ty=Tensor[(32, 256, 1024), float32] */, Primitive=1) -> Tensor[(8192, 1024), float16] {
    %819 = reshape(%p0439, newshape=[-1, 1024]) /* ty=Tensor[(8192, 1024), float32] */;
    cast(%819, dtype="float16") /* ty=Tensor[(8192, 1024), float16] */
  } /* ty=fn (Tensor[(32, 256, 1024), float32]) -> Tensor[(8192, 1024), float16] */;
  %1308 = %1307(%1306) /* ty=Tensor[(8192, 1024), float16] */;
  %1309 = fn (%p0438: Tensor[(8192, 1024), float16] /* ty=Tensor[(8192, 1024), float16] */, %p1299: Tensor[(1024, 1024), float16] /* ty=Tensor[(1024, 1024), float16] */, Primitive=1) -> Tensor[(8192, 1024), float16] {
    nn.dense(%p0438, %p1299, units=None, out_dtype="float16") /* ty=Tensor[(8192, 1024), float16] */
  } /* ty=fn (Tensor[(8192, 1024), float16], Tensor[(1024, 1024), float16]) -> Tensor[(8192, 1024), float16] */;
  %1310 = %1309(%1308, meta[relay.Constant][41] /* ty=Tensor[(1024, 1024), float16] span=/encoder/albert_layer_groups.0/albert_layers.0/attention/query_4/MatMul:0:0 */) /* ty=Tensor[(8192, 1024), float16] */;
  %1311 = fn (%p0437: Tensor[(8192, 1024), float16] /* ty=Tensor[(8192, 1024), float16] */, %p1298: Tensor[(1024), float16] /* ty=Tensor[(1024), float16] */, Primitive=1) -> Tensor[(512, 256, 64), float16] {
    %815 = reshape(%p0437, newshape=[32, 256, 1024]) /* ty=Tensor[(32, 256, 1024), float16] */;
    %816 = add(%p1298, %815) /* ty=Tensor[(32, 256, 1024), float16] */;
    %817 = reshape(%816, newshape=[32, 256, 16, 64]) /* ty=Tensor[(32, 256, 16, 64), float16] */;
    %818 = transpose(%817, axes=[0, 2, 1, 3]) /* ty=Tensor[(32, 16, 256, 64), float16] */;
    reshape(%818, newshape=[-1, 256, 64]) /* ty=Tensor[(512, 256, 64), float16] */
  } /* ty=fn (Tensor[(8192, 1024), float16], Tensor[(1024), float16]) -> Tensor[(512, 256, 64), float16] */;
  %1318 = fn (%p0570: Tensor[(32, 256, 1024), float32] /* ty=Tensor[(32, 256, 1024), float32] */, Primitive=1) -> Tensor[(8192, 1024), float16] {
    %1317 = reshape(%p0570, newshape=[-1, 1024]) /* ty=Tensor[(8192, 1024), float32] */;
    cast(%1317, dtype="float16") /* ty=Tensor[(8192, 1024), float16] */
  } /* ty=fn (Tensor[(32, 256, 1024), float32]) -> Tensor[(8192, 1024), float16] */;
  %1319 = %1318(%1306) /* ty=Tensor[(8192, 1024), float16] */;
  %1320 = fn (%p0569: Tensor[(8192, 1024), float16] /* ty=Tensor[(8192, 1024), float16] */, %p1383: Tensor[(1024, 1024), float16] /* ty=Tensor[(1024, 1024), float16] */, Primitive=1) -> Tensor[(8192, 1024), float16] {
    nn.dense(%p0569, %p1383, units=None, out_dtype="float16") /* ty=Tensor[(8192, 1024), float16] */
  } /* ty=fn (Tensor[(8192, 1024), float16], Tensor[(1024, 1024), float16]) -> Tensor[(8192, 1024), float16] */;
  %1321 = %1320(%1319, meta[relay.Constant][42] /* ty=Tensor[(1024, 1024), float16] span=/encoder/albert_layer_groups.0/albert_layers.0/attention/key_4/MatMul:0:0 */) /* ty=Tensor[(8192, 1024), float16] */;
  %1322 = fn (%p0568: Tensor[(8192, 1024), float16] /* ty=Tensor[(8192, 1024), float16] */, %p1382: Tensor[(1024), float16] /* ty=Tensor[(1024), float16] */, Primitive=1) -> Tensor[(512, 256, 64), float16] {
    %1312 = reshape(%p0568, newshape=[32, 256, 1024]) /* ty=Tensor[(32, 256, 1024), float16] */;
    %1313 = add(%p1382, %1312) /* ty=Tensor[(32, 256, 1024), float16] */;
    %1314 = reshape(%1313, newshape=[32, 256, 16, 64]) /* ty=Tensor[(32, 256, 16, 64), float16] */;
    %1315 = transpose(%1314, axes=[0, 2, 3, 1]) /* ty=Tensor[(32, 16, 64, 256), float16] */;
    %1316 = reshape(%1315, newshape=[-1, 64, 256]) /* ty=Tensor[(512, 64, 256), float16] */;
    transpose(%1316, axes=[0, 2, 1]) /* ty=Tensor[(512, 256, 64), float16] */
  } /* ty=fn (Tensor[(8192, 1024), float16], Tensor[(1024), float16]) -> Tensor[(512, 256, 64), float16] */;
  %1323 = %1311(%1310, meta[relay.Constant][8] /* ty=Tensor[(1024), float16] span=Identity_7:0:0 */) /* ty=Tensor[(512, 256, 64), float16] */;
  %1324 = %1322(%1321, meta[relay.Constant][10] /* ty=Tensor[(1024), float16] span=Identity_6:0:0 */) /* ty=Tensor[(512, 256, 64), float16] */;
  %1325 = fn (%p0436: Tensor[(512, 256, 64), float16] /* ty=Tensor[(512, 256, 64), float16] */, %p1297: Tensor[(512, 256, 64), float16] /* ty=Tensor[(512, 256, 64), float16] */, Primitive=1) -> Tensor[(512, 256, 256), float16] {
    nn.batch_matmul(%p0436, %p1297, out_dtype="float16", transpose_b=True) /* ty=Tensor[(512, 256, 256), float16] */
  } /* ty=fn (Tensor[(512, 256, 64), float16], Tensor[(512, 256, 64), float16]) -> Tensor[(512, 256, 256), float16] */;
  %1326 = %1325(%1323, %1324) /* ty=Tensor[(512, 256, 256), float16] */;
  %1327 = fn (%p0435: Tensor[(512, 256, 256), float16] /* ty=Tensor[(512, 256, 256), float16] */, %p1296: float16 /* ty=float16 */, %p2119: Tensor[(32, 1, 1, 256), float16] /* ty=Tensor[(32, 1, 1, 256), float16] */, Primitive=1) -> Tensor[(32, 16, 256, 256), float32] {
    %812 = reshape(%p0435, newshape=[32, 16, 256, 256]) /* ty=Tensor[(32, 16, 256, 256), float16] */;
    %813 = divide(%812, %p1296) /* ty=Tensor[(32, 16, 256, 256), float16] */;
    %814 = add(%813, %p2119) /* ty=Tensor[(32, 16, 256, 256), float16] */;
    cast(%814, dtype="float32") /* ty=Tensor[(32, 16, 256, 256), float32] */
  } /* ty=fn (Tensor[(512, 256, 256), float16], float16, Tensor[(32, 1, 1, 256), float16]) -> Tensor[(32, 16, 256, 256), float32] */;
  %1328 = %1327(%1326, 8f16 /* ty=float16 span=/encoder/albert_layer_groups.0/albert_layers.0/attention_4/Constant_6:0:0 */, %1039) /* ty=Tensor[(32, 16, 256, 256), float32] */;
  %1329 = fn (%p0434: Tensor[(32, 16, 256, 256), float32] /* ty=Tensor[(32, 16, 256, 256), float32] */, Primitive=1) -> Tensor[(32, 16, 256, 256), float32] {
    nn.softmax(%p0434, axis=3) /* ty=Tensor[(32, 16, 256, 256), float32] */
  } /* ty=fn (Tensor[(32, 16, 256, 256), float32]) -> Tensor[(32, 16, 256, 256), float32] */;
  %1330 = %1329(%1328) /* ty=Tensor[(32, 16, 256, 256), float32] */;
  %1331 = fn (%p0433: Tensor[(32, 16, 256, 256), float32] /* ty=Tensor[(32, 16, 256, 256), float32] */, Primitive=1) -> Tensor[(512, 256, 256), float16] {
    %811 = reshape(%p0433, newshape=[-1, 256, 256]) /* ty=Tensor[(512, 256, 256), float32] */;
    cast(%811, dtype="float16") /* ty=Tensor[(512, 256, 256), float16] */
  } /* ty=fn (Tensor[(32, 16, 256, 256), float32]) -> Tensor[(512, 256, 256), float16] */;
  %1338 = fn (%p0573: Tensor[(32, 256, 1024), float32] /* ty=Tensor[(32, 256, 1024), float32] */, Primitive=1) -> Tensor[(8192, 1024), float16] {
    %1337 = reshape(%p0573, newshape=[-1, 1024]) /* ty=Tensor[(8192, 1024), float32] */;
    cast(%1337, dtype="float16") /* ty=Tensor[(8192, 1024), float16] */
  } /* ty=fn (Tensor[(32, 256, 1024), float32]) -> Tensor[(8192, 1024), float16] */;
  %1339 = %1338(%1306) /* ty=Tensor[(8192, 1024), float16] */;
  %1340 = fn (%p0572: Tensor[(8192, 1024), float16] /* ty=Tensor[(8192, 1024), float16] */, %p1385: Tensor[(1024, 1024), float16] /* ty=Tensor[(1024, 1024), float16] */, Primitive=1) -> Tensor[(8192, 1024), float16] {
    nn.dense(%p0572, %p1385, units=None, out_dtype="float16") /* ty=Tensor[(8192, 1024), float16] */
  } /* ty=fn (Tensor[(8192, 1024), float16], Tensor[(1024, 1024), float16]) -> Tensor[(8192, 1024), float16] */;
  %1341 = %1340(%1339, meta[relay.Constant][43] /* ty=Tensor[(1024, 1024), float16] span=/encoder/albert_layer_groups.0/albert_layers.0/attention/value_4/MatMul:0:0 */) /* ty=Tensor[(8192, 1024), float16] */;
  %1342 = fn (%p0571: Tensor[(8192, 1024), float16] /* ty=Tensor[(8192, 1024), float16] */, %p1384: Tensor[(1024), float16] /* ty=Tensor[(1024), float16] */, Primitive=1) -> Tensor[(512, 64, 256), float16] {
    %1332 = reshape(%p0571, newshape=[32, 256, 1024]) /* ty=Tensor[(32, 256, 1024), float16] */;
    %1333 = add(%p1384, %1332) /* ty=Tensor[(32, 256, 1024), float16] */;
    %1334 = reshape(%1333, newshape=[32, 256, 16, 64]) /* ty=Tensor[(32, 256, 16, 64), float16] */;
    %1335 = transpose(%1334, axes=[0, 2, 1, 3]) /* ty=Tensor[(32, 16, 256, 64), float16] */;
    %1336 = reshape(%1335, newshape=[-1, 256, 64]) /* ty=Tensor[(512, 256, 64), float16] */;
    transpose(%1336, axes=[0, 2, 1]) /* ty=Tensor[(512, 64, 256), float16] */
  } /* ty=fn (Tensor[(8192, 1024), float16], Tensor[(1024), float16]) -> Tensor[(512, 64, 256), float16] */;
  %1343 = %1331(%1330) /* ty=Tensor[(512, 256, 256), float16] */;
  %1344 = %1342(%1341, meta[relay.Constant][12] /* ty=Tensor[(1024), float16] span=Identity_5:0:0 */) /* ty=Tensor[(512, 64, 256), float16] */;
  %1345 = fn (%p0432: Tensor[(512, 256, 256), float16] /* ty=Tensor[(512, 256, 256), float16] */, %p1295: Tensor[(512, 64, 256), float16] /* ty=Tensor[(512, 64, 256), float16] */, Primitive=1) -> Tensor[(512, 256, 64), float16] {
    nn.batch_matmul(%p0432, %p1295, out_dtype="float16", transpose_b=True) /* ty=Tensor[(512, 256, 64), float16] */
  } /* ty=fn (Tensor[(512, 256, 256), float16], Tensor[(512, 64, 256), float16]) -> Tensor[(512, 256, 64), float16] */;
  %1346 = %1345(%1343, %1344) /* ty=Tensor[(512, 256, 64), float16] */;
  %1347 = fn (%p0431: Tensor[(512, 256, 64), float16] /* ty=Tensor[(512, 256, 64), float16] */, Primitive=1) -> Tensor[(8192, 1024), float16] {
    %809 = reshape(%p0431, newshape=[32, 16, 256, 64]) /* ty=Tensor[(32, 16, 256, 64), float16] */;
    %810 = transpose(%809, axes=[0, 2, 1, 3]) /* ty=Tensor[(32, 256, 16, 64), float16] */;
    reshape(%810, newshape=[8192, 1024]) /* ty=Tensor[(8192, 1024), float16] */
  } /* ty=fn (Tensor[(512, 256, 64), float16]) -> Tensor[(8192, 1024), float16] */;
  %1348 = %1347(%1346) /* ty=Tensor[(8192, 1024), float16] */;
  %1349 = fn (%p0430: Tensor[(8192, 1024), float16] /* ty=Tensor[(8192, 1024), float16] */, %p1294: Tensor[(1024, 1024), float16] /* ty=Tensor[(1024, 1024), float16] */, Primitive=1) -> Tensor[(8192, 1024), float16] {
    nn.dense(%p0430, %p1294, units=None, out_dtype="float16") /* ty=Tensor[(8192, 1024), float16] */
  } /* ty=fn (Tensor[(8192, 1024), float16], Tensor[(1024, 1024), float16]) -> Tensor[(8192, 1024), float16] */;
  %1350 = %1349(%1348, meta[relay.Constant][44] /* ty=Tensor[(1024, 1024), float16] span=/encoder/albert_layer_groups.0/albert_layers.0/attention/dense_4/MatMul:0:0 */) /* ty=Tensor[(8192, 1024), float16] */;
  %1351 = fn (%p0429: Tensor[(8192, 1024), float16] /* ty=Tensor[(8192, 1024), float16] */, %p1293: Tensor[(1024), float16] /* ty=Tensor[(1024), float16] */, %p2118: Tensor[(32, 256, 1024), float32] /* ty=Tensor[(32, 256, 1024), float32] */, Primitive=1) -> Tensor[(32, 256, 1024), float32] {
    %806 = reshape(%p0429, newshape=[32, 256, 1024]) /* ty=Tensor[(32, 256, 1024), float16] */;
    %807 = add(%p1293, %806) /* ty=Tensor[(32, 256, 1024), float16] */;
    %808 = cast(%807, dtype="float32") /* ty=Tensor[(32, 256, 1024), float32] */;
    add(%p2118, %808) /* ty=Tensor[(32, 256, 1024), float32] */
  } /* ty=fn (Tensor[(8192, 1024), float16], Tensor[(1024), float16], Tensor[(32, 256, 1024), float32]) -> Tensor[(32, 256, 1024), float32] */;
  %1352 = %1351(%1350, meta[relay.Constant][14] /* ty=Tensor[(1024), float16] span=Identity_4:0:0 */, %1306) /* ty=Tensor[(32, 256, 1024), float32] */;
  %1353 = fn (%p0574: Tensor[(32, 256, 1024), float32] /* ty=Tensor[(32, 256, 1024), float32] */, Primitive=1) -> Tensor[(32, 256, 1), float32] {
    mean(%p0574, axis=[-1], keepdims=True) /* ty=Tensor[(32, 256, 1), float32] */
  } /* ty=fn (Tensor[(32, 256, 1024), float32]) -> Tensor[(32, 256, 1), float32] */;
  %1354 = %1353(%1352) /* ty=Tensor[(32, 256, 1), float32] */;
  %1355 = fn (%p0428: Tensor[(32, 256, 1024), float32] /* ty=Tensor[(32, 256, 1024), float32] */, %p1292: Tensor[(32, 256, 1), float32] /* ty=Tensor[(32, 256, 1), float32] */, Primitive=1) -> Tensor[(32, 256, 1024), float32] {
    subtract(%p0428, %p1292) /* ty=Tensor[(32, 256, 1024), float32] */
  } /* ty=fn (Tensor[(32, 256, 1024), float32], Tensor[(32, 256, 1), float32]) -> Tensor[(32, 256, 1024), float32] */;
  %1356 = %1355(%1352, %1354) /* ty=Tensor[(32, 256, 1024), float32] */;
  %1357 = fn (%p0427: Tensor[(32, 256, 1024), float32] /* ty=Tensor[(32, 256, 1024), float32] */, Primitive=1) -> Tensor[(32, 256, 1), float32] {
    %805 = power(%p0427, 2f /* ty=float32 */) /* ty=Tensor[(32, 256, 1024), float32] */;
    mean(%805, axis=[-1], keepdims=True) /* ty=Tensor[(32, 256, 1), float32] */
  } /* ty=fn (Tensor[(32, 256, 1024), float32]) -> Tensor[(32, 256, 1), float32] */;
  %1358 = %1357(%1356) /* ty=Tensor[(32, 256, 1), float32] */;
  %1359 = fn (%p0426: Tensor[(32, 256, 1), float32] /* ty=Tensor[(32, 256, 1), float32] */, %p1291: Tensor[(32, 256, 1024), float32] /* ty=Tensor[(32, 256, 1024), float32] */, %p2117: Tensor[(1024), float32] /* ty=Tensor[(1024), float32] */, %p339: Tensor[(1024), float32] /* ty=Tensor[(1024), float32] */, Primitive=1) -> Tensor[(32, 256, 1024), float32] {
    %801 = add(%p0426, 1.19209e-07f /* ty=float32 */) /* ty=Tensor[(32, 256, 1), float32] */;
    %802 = rsqrt(%801) /* ty=Tensor[(32, 256, 1), float32] */;
    %803 = multiply(%p1291, %802) /* ty=Tensor[(32, 256, 1024), float32] */;
    %804 = multiply(%803, %p2117) /* ty=Tensor[(32, 256, 1024), float32] */;
    add(%804, %p339) /* ty=Tensor[(32, 256, 1024), float32] */
  } /* ty=fn (Tensor[(32, 256, 1), float32], Tensor[(32, 256, 1024), float32], Tensor[(1024), float32], Tensor[(1024), float32]) -> Tensor[(32, 256, 1024), float32] */;
  %1360 = %1359(%1358, %1356, meta[relay.Constant][15] /* ty=Tensor[(1024), float32] */, meta[relay.Constant][16] /* ty=Tensor[(1024), float32] */) /* ty=Tensor[(32, 256, 1024), float32] */;
  %1361 = fn (%p0425: Tensor[(32, 256, 1024), float32] /* ty=Tensor[(32, 256, 1024), float32] */, Primitive=1) -> Tensor[(8192, 1024), float16] {
    %800 = reshape(%p0425, newshape=[-1, 1024]) /* ty=Tensor[(8192, 1024), float32] */;
    cast(%800, dtype="float16") /* ty=Tensor[(8192, 1024), float16] */
  } /* ty=fn (Tensor[(32, 256, 1024), float32]) -> Tensor[(8192, 1024), float16] */;
  %1362 = %1361(%1360) /* ty=Tensor[(8192, 1024), float16] */;
  %1363 = fn (%p0424: Tensor[(8192, 1024), float16] /* ty=Tensor[(8192, 1024), float16] */, %p1290: Tensor[(4096, 1024), float16] /* ty=Tensor[(4096, 1024), float16] */, Primitive=1) -> Tensor[(8192, 4096), float16] {
    nn.dense(%p0424, %p1290, units=None, out_dtype="float16") /* ty=Tensor[(8192, 4096), float16] */
  } /* ty=fn (Tensor[(8192, 1024), float16], Tensor[(4096, 1024), float16]) -> Tensor[(8192, 4096), float16] */;
  %1364 = %1363(%1362, meta[relay.Constant][45] /* ty=Tensor[(4096, 1024), float16] span=/encoder/albert_layer_groups.0/albert_layers.0/ffn_4/MatMul:0:0 */) /* ty=Tensor[(8192, 4096), float16] */;
  %1365 = fn (%p0423: Tensor[(8192, 4096), float16] /* ty=Tensor[(8192, 4096), float16] */, %p1289: Tensor[(4096), float16] /* ty=Tensor[(4096), float16] */, %p2116: float16 /* ty=float16 */, Primitive=1) -> Tensor[(8192, 4096), float16] {
    %787 = reshape(%p0423, newshape=[32, 256, 4096]) /* ty=Tensor[(32, 256, 4096), float16] */;
    %788 = add(%p1289, %787) /* ty=Tensor[(32, 256, 4096), float16] */;
    %789 = multiply(%788, %p2116) /* ty=Tensor[(32, 256, 4096), float16] */;
    %790 = cast(%788, dtype="float32") /* ty=Tensor[(32, 256, 4096), float32] */;
    %791 = power(%790, 3f /* ty=float32 */) /* ty=Tensor[(32, 256, 4096), float32] */;
    %792 = multiply(%791, 0.0447083f /* ty=float32 */) /* ty=Tensor[(32, 256, 4096), float32] */;
    %793 = add(%790, %792) /* ty=Tensor[(32, 256, 4096), float32] */;
    %794 = multiply(%793, 0.797852f /* ty=float32 */) /* ty=Tensor[(32, 256, 4096), float32] */;
    %795 = tanh(%794) /* ty=Tensor[(32, 256, 4096), float32] */;
    %796 = cast(%789, dtype="float32") /* ty=Tensor[(32, 256, 4096), float32] */;
    %797 = add(%795, 1f /* ty=float32 */) /* ty=Tensor[(32, 256, 4096), float32] */;
    %798 = multiply(%796, %797) /* ty=Tensor[(32, 256, 4096), float32] */;
    %799 = reshape(%798, newshape=[-1, 4096]) /* ty=Tensor[(8192, 4096), float32] */;
    cast(%799, dtype="float16") /* ty=Tensor[(8192, 4096), float16] */
  } /* ty=fn (Tensor[(8192, 4096), float16], Tensor[(4096), float16], float16) -> Tensor[(8192, 4096), float16] */;
  %1366 = %1365(%1364, meta[relay.Constant][18] /* ty=Tensor[(4096), float16] span=/encoder/albert_layer_groups.0/albert_layers.0/ffn/Add.encoder.albert_layer_groups.0.albert_layers.0.ffn.bias:0:0 */, 0.5f16 /* ty=float16 span=/encoder/albert_layer_groups.0/albert_layers.0/activation_4/Constant:0:0 */) /* ty=Tensor[(8192, 4096), float16] */;
  %1367 = fn (%p0422: Tensor[(8192, 4096), float16] /* ty=Tensor[(8192, 4096), float16] */, %p1288: Tensor[(1024, 4096), float16] /* ty=Tensor[(1024, 4096), float16] */, Primitive=1) -> Tensor[(8192, 1024), float16] {
    nn.dense(%p0422, %p1288, units=None, out_dtype="float16") /* ty=Tensor[(8192, 1024), float16] */
  } /* ty=fn (Tensor[(8192, 4096), float16], Tensor[(1024, 4096), float16]) -> Tensor[(8192, 1024), float16] */;
  %1368 = %1367(%1366, meta[relay.Constant][46] /* ty=Tensor[(1024, 4096), float16] span=/encoder/albert_layer_groups.0/albert_layers.0/ffn_output_4/MatMul:0:0 */) /* ty=Tensor[(8192, 1024), float16] */;
  %1369 = fn (%p0421: Tensor[(8192, 1024), float16] /* ty=Tensor[(8192, 1024), float16] */, %p1287: Tensor[(1024), float16] /* ty=Tensor[(1024), float16] */, %p2115: Tensor[(32, 256, 1024), float32] /* ty=Tensor[(32, 256, 1024), float32] */, Primitive=1) -> Tensor[(32, 256, 1024), float32] {
    %784 = reshape(%p0421, newshape=[32, 256, 1024]) /* ty=Tensor[(32, 256, 1024), float16] */;
    %785 = add(%p1287, %784) /* ty=Tensor[(32, 256, 1024), float16] */;
    %786 = cast(%785, dtype="float32") /* ty=Tensor[(32, 256, 1024), float32] */;
    add(%786, %p2115) /* ty=Tensor[(32, 256, 1024), float32] */
  } /* ty=fn (Tensor[(8192, 1024), float16], Tensor[(1024), float16], Tensor[(32, 256, 1024), float32]) -> Tensor[(32, 256, 1024), float32] */;
  %1370 = %1369(%1368, meta[relay.Constant][20] /* ty=Tensor[(1024), float16] span=Identity_1:0:0 */, %1360) /* ty=Tensor[(32, 256, 1024), float32] */;
  %1371 = fn (%p0575: Tensor[(32, 256, 1024), float32] /* ty=Tensor[(32, 256, 1024), float32] */, Primitive=1) -> Tensor[(32, 256, 1), float32] {
    mean(%p0575, axis=[-1], keepdims=True) /* ty=Tensor[(32, 256, 1), float32] */
  } /* ty=fn (Tensor[(32, 256, 1024), float32]) -> Tensor[(32, 256, 1), float32] */;
  %1372 = %1371(%1370) /* ty=Tensor[(32, 256, 1), float32] */;
  %1373 = fn (%p0420: Tensor[(32, 256, 1024), float32] /* ty=Tensor[(32, 256, 1024), float32] */, %p1286: Tensor[(32, 256, 1), float32] /* ty=Tensor[(32, 256, 1), float32] */, Primitive=1) -> Tensor[(32, 256, 1024), float32] {
    subtract(%p0420, %p1286) /* ty=Tensor[(32, 256, 1024), float32] */
  } /* ty=fn (Tensor[(32, 256, 1024), float32], Tensor[(32, 256, 1), float32]) -> Tensor[(32, 256, 1024), float32] */;
  %1374 = %1373(%1370, %1372) /* ty=Tensor[(32, 256, 1024), float32] */;
  %1375 = fn (%p0419: Tensor[(32, 256, 1024), float32] /* ty=Tensor[(32, 256, 1024), float32] */, Primitive=1) -> Tensor[(32, 256, 1), float32] {
    %783 = power(%p0419, 2f /* ty=float32 */) /* ty=Tensor[(32, 256, 1024), float32] */;
    mean(%783, axis=[-1], keepdims=True) /* ty=Tensor[(32, 256, 1), float32] */
  } /* ty=fn (Tensor[(32, 256, 1024), float32]) -> Tensor[(32, 256, 1), float32] */;
  %1376 = %1375(%1374) /* ty=Tensor[(32, 256, 1), float32] */;
  %1377 = fn (%p0418: Tensor[(32, 256, 1), float32] /* ty=Tensor[(32, 256, 1), float32] */, %p1285: Tensor[(32, 256, 1024), float32] /* ty=Tensor[(32, 256, 1024), float32] */, %p2114: Tensor[(1024), float32] /* ty=Tensor[(1024), float32] */, %p338: Tensor[(1024), float32] /* ty=Tensor[(1024), float32] */, Primitive=1) -> Tensor[(32, 256, 1024), float32] {
    %779 = add(%p0418, 1.19209e-07f /* ty=float32 */) /* ty=Tensor[(32, 256, 1), float32] */;
    %780 = rsqrt(%779) /* ty=Tensor[(32, 256, 1), float32] */;
    %781 = multiply(%p1285, %780) /* ty=Tensor[(32, 256, 1024), float32] */;
    %782 = multiply(%781, %p2114) /* ty=Tensor[(32, 256, 1024), float32] */;
    add(%782, %p338) /* ty=Tensor[(32, 256, 1024), float32] */
  } /* ty=fn (Tensor[(32, 256, 1), float32], Tensor[(32, 256, 1024), float32], Tensor[(1024), float32], Tensor[(1024), float32]) -> Tensor[(32, 256, 1024), float32] */;
  %1378 = %1377(%1376, %1374, meta[relay.Constant][21] /* ty=Tensor[(1024), float32] */, meta[relay.Constant][22] /* ty=Tensor[(1024), float32] */) /* ty=Tensor[(32, 256, 1024), float32] */;
  %1379 = fn (%p0417: Tensor[(32, 256, 1024), float32] /* ty=Tensor[(32, 256, 1024), float32] */, Primitive=1) -> Tensor[(8192, 1024), float16] {
    %778 = reshape(%p0417, newshape=[-1, 1024]) /* ty=Tensor[(8192, 1024), float32] */;
    cast(%778, dtype="float16") /* ty=Tensor[(8192, 1024), float16] */
  } /* ty=fn (Tensor[(32, 256, 1024), float32]) -> Tensor[(8192, 1024), float16] */;
  %1380 = %1379(%1378) /* ty=Tensor[(8192, 1024), float16] */;
  %1381 = fn (%p0416: Tensor[(8192, 1024), float16] /* ty=Tensor[(8192, 1024), float16] */, %p1284: Tensor[(1024, 1024), float16] /* ty=Tensor[(1024, 1024), float16] */, Primitive=1) -> Tensor[(8192, 1024), float16] {
    nn.dense(%p0416, %p1284, units=None, out_dtype="float16") /* ty=Tensor[(8192, 1024), float16] */
  } /* ty=fn (Tensor[(8192, 1024), float16], Tensor[(1024, 1024), float16]) -> Tensor[(8192, 1024), float16] */;
  %1382 = %1381(%1380, meta[relay.Constant][47] /* ty=Tensor[(1024, 1024), float16] span=/encoder/albert_layer_groups.0/albert_layers.0/attention/query_5/MatMul:0:0 */) /* ty=Tensor[(8192, 1024), float16] */;
  %1383 = fn (%p0415: Tensor[(8192, 1024), float16] /* ty=Tensor[(8192, 1024), float16] */, %p1283: Tensor[(1024), float16] /* ty=Tensor[(1024), float16] */, Primitive=1) -> Tensor[(512, 256, 64), float16] {
    %774 = reshape(%p0415, newshape=[32, 256, 1024]) /* ty=Tensor[(32, 256, 1024), float16] */;
    %775 = add(%p1283, %774) /* ty=Tensor[(32, 256, 1024), float16] */;
    %776 = reshape(%775, newshape=[32, 256, 16, 64]) /* ty=Tensor[(32, 256, 16, 64), float16] */;
    %777 = transpose(%776, axes=[0, 2, 1, 3]) /* ty=Tensor[(32, 16, 256, 64), float16] */;
    reshape(%777, newshape=[-1, 256, 64]) /* ty=Tensor[(512, 256, 64), float16] */
  } /* ty=fn (Tensor[(8192, 1024), float16], Tensor[(1024), float16]) -> Tensor[(512, 256, 64), float16] */;
  %1390 = fn (%p0578: Tensor[(32, 256, 1024), float32] /* ty=Tensor[(32, 256, 1024), float32] */, Primitive=1) -> Tensor[(8192, 1024), float16] {
    %1389 = reshape(%p0578, newshape=[-1, 1024]) /* ty=Tensor[(8192, 1024), float32] */;
    cast(%1389, dtype="float16") /* ty=Tensor[(8192, 1024), float16] */
  } /* ty=fn (Tensor[(32, 256, 1024), float32]) -> Tensor[(8192, 1024), float16] */;
  %1391 = %1390(%1378) /* ty=Tensor[(8192, 1024), float16] */;
  %1392 = fn (%p0577: Tensor[(8192, 1024), float16] /* ty=Tensor[(8192, 1024), float16] */, %p1387: Tensor[(1024, 1024), float16] /* ty=Tensor[(1024, 1024), float16] */, Primitive=1) -> Tensor[(8192, 1024), float16] {
    nn.dense(%p0577, %p1387, units=None, out_dtype="float16") /* ty=Tensor[(8192, 1024), float16] */
  } /* ty=fn (Tensor[(8192, 1024), float16], Tensor[(1024, 1024), float16]) -> Tensor[(8192, 1024), float16] */;
  %1393 = %1392(%1391, meta[relay.Constant][48] /* ty=Tensor[(1024, 1024), float16] span=/encoder/albert_layer_groups.0/albert_layers.0/attention/key_5/MatMul:0:0 */) /* ty=Tensor[(8192, 1024), float16] */;
  %1394 = fn (%p0576: Tensor[(8192, 1024), float16] /* ty=Tensor[(8192, 1024), float16] */, %p1386: Tensor[(1024), float16] /* ty=Tensor[(1024), float16] */, Primitive=1) -> Tensor[(512, 256, 64), float16] {
    %1384 = reshape(%p0576, newshape=[32, 256, 1024]) /* ty=Tensor[(32, 256, 1024), float16] */;
    %1385 = add(%p1386, %1384) /* ty=Tensor[(32, 256, 1024), float16] */;
    %1386 = reshape(%1385, newshape=[32, 256, 16, 64]) /* ty=Tensor[(32, 256, 16, 64), float16] */;
    %1387 = transpose(%1386, axes=[0, 2, 3, 1]) /* ty=Tensor[(32, 16, 64, 256), float16] */;
    %1388 = reshape(%1387, newshape=[-1, 64, 256]) /* ty=Tensor[(512, 64, 256), float16] */;
    transpose(%1388, axes=[0, 2, 1]) /* ty=Tensor[(512, 256, 64), float16] */
  } /* ty=fn (Tensor[(8192, 1024), float16], Tensor[(1024), float16]) -> Tensor[(512, 256, 64), float16] */;
  %1395 = %1383(%1382, meta[relay.Constant][8] /* ty=Tensor[(1024), float16] span=Identity_7:0:0 */) /* ty=Tensor[(512, 256, 64), float16] */;
  %1396 = %1394(%1393, meta[relay.Constant][10] /* ty=Tensor[(1024), float16] span=Identity_6:0:0 */) /* ty=Tensor[(512, 256, 64), float16] */;
  %1397 = fn (%p0414: Tensor[(512, 256, 64), float16] /* ty=Tensor[(512, 256, 64), float16] */, %p1282: Tensor[(512, 256, 64), float16] /* ty=Tensor[(512, 256, 64), float16] */, Primitive=1) -> Tensor[(512, 256, 256), float16] {
    nn.batch_matmul(%p0414, %p1282, out_dtype="float16", transpose_b=True) /* ty=Tensor[(512, 256, 256), float16] */
  } /* ty=fn (Tensor[(512, 256, 64), float16], Tensor[(512, 256, 64), float16]) -> Tensor[(512, 256, 256), float16] */;
  %1398 = %1397(%1395, %1396) /* ty=Tensor[(512, 256, 256), float16] */;
  %1399 = fn (%p0413: Tensor[(512, 256, 256), float16] /* ty=Tensor[(512, 256, 256), float16] */, %p1281: float16 /* ty=float16 */, %p2113: Tensor[(32, 1, 1, 256), float16] /* ty=Tensor[(32, 1, 1, 256), float16] */, Primitive=1) -> Tensor[(32, 16, 256, 256), float32] {
    %771 = reshape(%p0413, newshape=[32, 16, 256, 256]) /* ty=Tensor[(32, 16, 256, 256), float16] */;
    %772 = divide(%771, %p1281) /* ty=Tensor[(32, 16, 256, 256), float16] */;
    %773 = add(%772, %p2113) /* ty=Tensor[(32, 16, 256, 256), float16] */;
    cast(%773, dtype="float32") /* ty=Tensor[(32, 16, 256, 256), float32] */
  } /* ty=fn (Tensor[(512, 256, 256), float16], float16, Tensor[(32, 1, 1, 256), float16]) -> Tensor[(32, 16, 256, 256), float32] */;
  %1400 = %1399(%1398, 8f16 /* ty=float16 span=/encoder/albert_layer_groups.0/albert_layers.0/attention_5/Constant_6:0:0 */, %1039) /* ty=Tensor[(32, 16, 256, 256), float32] */;
  %1401 = fn (%p0412: Tensor[(32, 16, 256, 256), float32] /* ty=Tensor[(32, 16, 256, 256), float32] */, Primitive=1) -> Tensor[(32, 16, 256, 256), float32] {
    nn.softmax(%p0412, axis=3) /* ty=Tensor[(32, 16, 256, 256), float32] */
  } /* ty=fn (Tensor[(32, 16, 256, 256), float32]) -> Tensor[(32, 16, 256, 256), float32] */;
  %1402 = %1401(%1400) /* ty=Tensor[(32, 16, 256, 256), float32] */;
  %1403 = fn (%p0411: Tensor[(32, 16, 256, 256), float32] /* ty=Tensor[(32, 16, 256, 256), float32] */, Primitive=1) -> Tensor[(512, 256, 256), float16] {
    %770 = reshape(%p0411, newshape=[-1, 256, 256]) /* ty=Tensor[(512, 256, 256), float32] */;
    cast(%770, dtype="float16") /* ty=Tensor[(512, 256, 256), float16] */
  } /* ty=fn (Tensor[(32, 16, 256, 256), float32]) -> Tensor[(512, 256, 256), float16] */;
  %1410 = fn (%p0581: Tensor[(32, 256, 1024), float32] /* ty=Tensor[(32, 256, 1024), float32] */, Primitive=1) -> Tensor[(8192, 1024), float16] {
    %1409 = reshape(%p0581, newshape=[-1, 1024]) /* ty=Tensor[(8192, 1024), float32] */;
    cast(%1409, dtype="float16") /* ty=Tensor[(8192, 1024), float16] */
  } /* ty=fn (Tensor[(32, 256, 1024), float32]) -> Tensor[(8192, 1024), float16] */;
  %1411 = %1410(%1378) /* ty=Tensor[(8192, 1024), float16] */;
  %1412 = fn (%p0580: Tensor[(8192, 1024), float16] /* ty=Tensor[(8192, 1024), float16] */, %p1389: Tensor[(1024, 1024), float16] /* ty=Tensor[(1024, 1024), float16] */, Primitive=1) -> Tensor[(8192, 1024), float16] {
    nn.dense(%p0580, %p1389, units=None, out_dtype="float16") /* ty=Tensor[(8192, 1024), float16] */
  } /* ty=fn (Tensor[(8192, 1024), float16], Tensor[(1024, 1024), float16]) -> Tensor[(8192, 1024), float16] */;
  %1413 = %1412(%1411, meta[relay.Constant][49] /* ty=Tensor[(1024, 1024), float16] span=/encoder/albert_layer_groups.0/albert_layers.0/attention/value_5/MatMul:0:0 */) /* ty=Tensor[(8192, 1024), float16] */;
  %1414 = fn (%p0579: Tensor[(8192, 1024), float16] /* ty=Tensor[(8192, 1024), float16] */, %p1388: Tensor[(1024), float16] /* ty=Tensor[(1024), float16] */, Primitive=1) -> Tensor[(512, 64, 256), float16] {
    %1404 = reshape(%p0579, newshape=[32, 256, 1024]) /* ty=Tensor[(32, 256, 1024), float16] */;
    %1405 = add(%p1388, %1404) /* ty=Tensor[(32, 256, 1024), float16] */;
    %1406 = reshape(%1405, newshape=[32, 256, 16, 64]) /* ty=Tensor[(32, 256, 16, 64), float16] */;
    %1407 = transpose(%1406, axes=[0, 2, 1, 3]) /* ty=Tensor[(32, 16, 256, 64), float16] */;
    %1408 = reshape(%1407, newshape=[-1, 256, 64]) /* ty=Tensor[(512, 256, 64), float16] */;
    transpose(%1408, axes=[0, 2, 1]) /* ty=Tensor[(512, 64, 256), float16] */
  } /* ty=fn (Tensor[(8192, 1024), float16], Tensor[(1024), float16]) -> Tensor[(512, 64, 256), float16] */;
  %1415 = %1403(%1402) /* ty=Tensor[(512, 256, 256), float16] */;
  %1416 = %1414(%1413, meta[relay.Constant][12] /* ty=Tensor[(1024), float16] span=Identity_5:0:0 */) /* ty=Tensor[(512, 64, 256), float16] */;
  %1417 = fn (%p0410: Tensor[(512, 256, 256), float16] /* ty=Tensor[(512, 256, 256), float16] */, %p1280: Tensor[(512, 64, 256), float16] /* ty=Tensor[(512, 64, 256), float16] */, Primitive=1) -> Tensor[(512, 256, 64), float16] {
    nn.batch_matmul(%p0410, %p1280, out_dtype="float16", transpose_b=True) /* ty=Tensor[(512, 256, 64), float16] */
  } /* ty=fn (Tensor[(512, 256, 256), float16], Tensor[(512, 64, 256), float16]) -> Tensor[(512, 256, 64), float16] */;
  %1418 = %1417(%1415, %1416) /* ty=Tensor[(512, 256, 64), float16] */;
  %1419 = fn (%p0409: Tensor[(512, 256, 64), float16] /* ty=Tensor[(512, 256, 64), float16] */, Primitive=1) -> Tensor[(8192, 1024), float16] {
    %768 = reshape(%p0409, newshape=[32, 16, 256, 64]) /* ty=Tensor[(32, 16, 256, 64), float16] */;
    %769 = transpose(%768, axes=[0, 2, 1, 3]) /* ty=Tensor[(32, 256, 16, 64), float16] */;
    reshape(%769, newshape=[8192, 1024]) /* ty=Tensor[(8192, 1024), float16] */
  } /* ty=fn (Tensor[(512, 256, 64), float16]) -> Tensor[(8192, 1024), float16] */;
  %1420 = %1419(%1418) /* ty=Tensor[(8192, 1024), float16] */;
  %1421 = fn (%p0408: Tensor[(8192, 1024), float16] /* ty=Tensor[(8192, 1024), float16] */, %p1279: Tensor[(1024, 1024), float16] /* ty=Tensor[(1024, 1024), float16] */, Primitive=1) -> Tensor[(8192, 1024), float16] {
    nn.dense(%p0408, %p1279, units=None, out_dtype="float16") /* ty=Tensor[(8192, 1024), float16] */
  } /* ty=fn (Tensor[(8192, 1024), float16], Tensor[(1024, 1024), float16]) -> Tensor[(8192, 1024), float16] */;
  %1422 = %1421(%1420, meta[relay.Constant][50] /* ty=Tensor[(1024, 1024), float16] span=/encoder/albert_layer_groups.0/albert_layers.0/attention/dense_5/MatMul:0:0 */) /* ty=Tensor[(8192, 1024), float16] */;
  %1423 = fn (%p0407: Tensor[(8192, 1024), float16] /* ty=Tensor[(8192, 1024), float16] */, %p1278: Tensor[(1024), float16] /* ty=Tensor[(1024), float16] */, %p2112: Tensor[(32, 256, 1024), float32] /* ty=Tensor[(32, 256, 1024), float32] */, Primitive=1) -> Tensor[(32, 256, 1024), float32] {
    %765 = reshape(%p0407, newshape=[32, 256, 1024]) /* ty=Tensor[(32, 256, 1024), float16] */;
    %766 = add(%p1278, %765) /* ty=Tensor[(32, 256, 1024), float16] */;
    %767 = cast(%766, dtype="float32") /* ty=Tensor[(32, 256, 1024), float32] */;
    add(%p2112, %767) /* ty=Tensor[(32, 256, 1024), float32] */
  } /* ty=fn (Tensor[(8192, 1024), float16], Tensor[(1024), float16], Tensor[(32, 256, 1024), float32]) -> Tensor[(32, 256, 1024), float32] */;
  %1424 = %1423(%1422, meta[relay.Constant][14] /* ty=Tensor[(1024), float16] span=Identity_4:0:0 */, %1378) /* ty=Tensor[(32, 256, 1024), float32] */;
  %1425 = fn (%p0582: Tensor[(32, 256, 1024), float32] /* ty=Tensor[(32, 256, 1024), float32] */, Primitive=1) -> Tensor[(32, 256, 1), float32] {
    mean(%p0582, axis=[-1], keepdims=True) /* ty=Tensor[(32, 256, 1), float32] */
  } /* ty=fn (Tensor[(32, 256, 1024), float32]) -> Tensor[(32, 256, 1), float32] */;
  %1426 = %1425(%1424) /* ty=Tensor[(32, 256, 1), float32] */;
  %1427 = fn (%p0406: Tensor[(32, 256, 1024), float32] /* ty=Tensor[(32, 256, 1024), float32] */, %p1277: Tensor[(32, 256, 1), float32] /* ty=Tensor[(32, 256, 1), float32] */, Primitive=1) -> Tensor[(32, 256, 1024), float32] {
    subtract(%p0406, %p1277) /* ty=Tensor[(32, 256, 1024), float32] */
  } /* ty=fn (Tensor[(32, 256, 1024), float32], Tensor[(32, 256, 1), float32]) -> Tensor[(32, 256, 1024), float32] */;
  %1428 = %1427(%1424, %1426) /* ty=Tensor[(32, 256, 1024), float32] */;
  %1429 = fn (%p0405: Tensor[(32, 256, 1024), float32] /* ty=Tensor[(32, 256, 1024), float32] */, Primitive=1) -> Tensor[(32, 256, 1), float32] {
    %764 = power(%p0405, 2f /* ty=float32 */) /* ty=Tensor[(32, 256, 1024), float32] */;
    mean(%764, axis=[-1], keepdims=True) /* ty=Tensor[(32, 256, 1), float32] */
  } /* ty=fn (Tensor[(32, 256, 1024), float32]) -> Tensor[(32, 256, 1), float32] */;
  %1430 = %1429(%1428) /* ty=Tensor[(32, 256, 1), float32] */;
  %1431 = fn (%p0404: Tensor[(32, 256, 1), float32] /* ty=Tensor[(32, 256, 1), float32] */, %p1276: Tensor[(32, 256, 1024), float32] /* ty=Tensor[(32, 256, 1024), float32] */, %p2111: Tensor[(1024), float32] /* ty=Tensor[(1024), float32] */, %p337: Tensor[(1024), float32] /* ty=Tensor[(1024), float32] */, Primitive=1) -> Tensor[(32, 256, 1024), float32] {
    %760 = add(%p0404, 1.19209e-07f /* ty=float32 */) /* ty=Tensor[(32, 256, 1), float32] */;
    %761 = rsqrt(%760) /* ty=Tensor[(32, 256, 1), float32] */;
    %762 = multiply(%p1276, %761) /* ty=Tensor[(32, 256, 1024), float32] */;
    %763 = multiply(%762, %p2111) /* ty=Tensor[(32, 256, 1024), float32] */;
    add(%763, %p337) /* ty=Tensor[(32, 256, 1024), float32] */
  } /* ty=fn (Tensor[(32, 256, 1), float32], Tensor[(32, 256, 1024), float32], Tensor[(1024), float32], Tensor[(1024), float32]) -> Tensor[(32, 256, 1024), float32] */;
  %1432 = %1431(%1430, %1428, meta[relay.Constant][15] /* ty=Tensor[(1024), float32] */, meta[relay.Constant][16] /* ty=Tensor[(1024), float32] */) /* ty=Tensor[(32, 256, 1024), float32] */;
  %1433 = fn (%p0403: Tensor[(32, 256, 1024), float32] /* ty=Tensor[(32, 256, 1024), float32] */, Primitive=1) -> Tensor[(8192, 1024), float16] {
    %759 = reshape(%p0403, newshape=[-1, 1024]) /* ty=Tensor[(8192, 1024), float32] */;
    cast(%759, dtype="float16") /* ty=Tensor[(8192, 1024), float16] */
  } /* ty=fn (Tensor[(32, 256, 1024), float32]) -> Tensor[(8192, 1024), float16] */;
  %1434 = %1433(%1432) /* ty=Tensor[(8192, 1024), float16] */;
  %1435 = fn (%p0402: Tensor[(8192, 1024), float16] /* ty=Tensor[(8192, 1024), float16] */, %p1275: Tensor[(4096, 1024), float16] /* ty=Tensor[(4096, 1024), float16] */, Primitive=1) -> Tensor[(8192, 4096), float16] {
    nn.dense(%p0402, %p1275, units=None, out_dtype="float16") /* ty=Tensor[(8192, 4096), float16] */
  } /* ty=fn (Tensor[(8192, 1024), float16], Tensor[(4096, 1024), float16]) -> Tensor[(8192, 4096), float16] */;
  %1436 = %1435(%1434, meta[relay.Constant][51] /* ty=Tensor[(4096, 1024), float16] span=/encoder/albert_layer_groups.0/albert_layers.0/ffn_5/MatMul:0:0 */) /* ty=Tensor[(8192, 4096), float16] */;
  %1437 = fn (%p0401: Tensor[(8192, 4096), float16] /* ty=Tensor[(8192, 4096), float16] */, %p1274: Tensor[(4096), float16] /* ty=Tensor[(4096), float16] */, %p2110: float16 /* ty=float16 */, Primitive=1) -> Tensor[(8192, 4096), float16] {
    %746 = reshape(%p0401, newshape=[32, 256, 4096]) /* ty=Tensor[(32, 256, 4096), float16] */;
    %747 = add(%p1274, %746) /* ty=Tensor[(32, 256, 4096), float16] */;
    %748 = multiply(%747, %p2110) /* ty=Tensor[(32, 256, 4096), float16] */;
    %749 = cast(%747, dtype="float32") /* ty=Tensor[(32, 256, 4096), float32] */;
    %750 = power(%749, 3f /* ty=float32 */) /* ty=Tensor[(32, 256, 4096), float32] */;
    %751 = multiply(%750, 0.0447083f /* ty=float32 */) /* ty=Tensor[(32, 256, 4096), float32] */;
    %752 = add(%749, %751) /* ty=Tensor[(32, 256, 4096), float32] */;
    %753 = multiply(%752, 0.797852f /* ty=float32 */) /* ty=Tensor[(32, 256, 4096), float32] */;
    %754 = tanh(%753) /* ty=Tensor[(32, 256, 4096), float32] */;
    %755 = cast(%748, dtype="float32") /* ty=Tensor[(32, 256, 4096), float32] */;
    %756 = add(%754, 1f /* ty=float32 */) /* ty=Tensor[(32, 256, 4096), float32] */;
    %757 = multiply(%755, %756) /* ty=Tensor[(32, 256, 4096), float32] */;
    %758 = reshape(%757, newshape=[-1, 4096]) /* ty=Tensor[(8192, 4096), float32] */;
    cast(%758, dtype="float16") /* ty=Tensor[(8192, 4096), float16] */
  } /* ty=fn (Tensor[(8192, 4096), float16], Tensor[(4096), float16], float16) -> Tensor[(8192, 4096), float16] */;
  %1438 = %1437(%1436, meta[relay.Constant][18] /* ty=Tensor[(4096), float16] span=/encoder/albert_layer_groups.0/albert_layers.0/ffn/Add.encoder.albert_layer_groups.0.albert_layers.0.ffn.bias:0:0 */, 0.5f16 /* ty=float16 span=/encoder/albert_layer_groups.0/albert_layers.0/activation_5/Constant:0:0 */) /* ty=Tensor[(8192, 4096), float16] */;
  %1439 = fn (%p0400: Tensor[(8192, 4096), float16] /* ty=Tensor[(8192, 4096), float16] */, %p1273: Tensor[(1024, 4096), float16] /* ty=Tensor[(1024, 4096), float16] */, Primitive=1) -> Tensor[(8192, 1024), float16] {
    nn.dense(%p0400, %p1273, units=None, out_dtype="float16") /* ty=Tensor[(8192, 1024), float16] */
  } /* ty=fn (Tensor[(8192, 4096), float16], Tensor[(1024, 4096), float16]) -> Tensor[(8192, 1024), float16] */;
  %1440 = %1439(%1438, meta[relay.Constant][52] /* ty=Tensor[(1024, 4096), float16] span=/encoder/albert_layer_groups.0/albert_layers.0/ffn_output_5/MatMul:0:0 */) /* ty=Tensor[(8192, 1024), float16] */;
  %1441 = fn (%p0399: Tensor[(8192, 1024), float16] /* ty=Tensor[(8192, 1024), float16] */, %p1272: Tensor[(1024), float16] /* ty=Tensor[(1024), float16] */, %p2109: Tensor[(32, 256, 1024), float32] /* ty=Tensor[(32, 256, 1024), float32] */, Primitive=1) -> Tensor[(32, 256, 1024), float32] {
    %743 = reshape(%p0399, newshape=[32, 256, 1024]) /* ty=Tensor[(32, 256, 1024), float16] */;
    %744 = add(%p1272, %743) /* ty=Tensor[(32, 256, 1024), float16] */;
    %745 = cast(%744, dtype="float32") /* ty=Tensor[(32, 256, 1024), float32] */;
    add(%745, %p2109) /* ty=Tensor[(32, 256, 1024), float32] */
  } /* ty=fn (Tensor[(8192, 1024), float16], Tensor[(1024), float16], Tensor[(32, 256, 1024), float32]) -> Tensor[(32, 256, 1024), float32] */;
  %1442 = %1441(%1440, meta[relay.Constant][20] /* ty=Tensor[(1024), float16] span=Identity_1:0:0 */, %1432) /* ty=Tensor[(32, 256, 1024), float32] */;
  %1443 = fn (%p0583: Tensor[(32, 256, 1024), float32] /* ty=Tensor[(32, 256, 1024), float32] */, Primitive=1) -> Tensor[(32, 256, 1), float32] {
    mean(%p0583, axis=[-1], keepdims=True) /* ty=Tensor[(32, 256, 1), float32] */
  } /* ty=fn (Tensor[(32, 256, 1024), float32]) -> Tensor[(32, 256, 1), float32] */;
  %1444 = %1443(%1442) /* ty=Tensor[(32, 256, 1), float32] */;
  %1445 = fn (%p0398: Tensor[(32, 256, 1024), float32] /* ty=Tensor[(32, 256, 1024), float32] */, %p1271: Tensor[(32, 256, 1), float32] /* ty=Tensor[(32, 256, 1), float32] */, Primitive=1) -> Tensor[(32, 256, 1024), float32] {
    subtract(%p0398, %p1271) /* ty=Tensor[(32, 256, 1024), float32] */
  } /* ty=fn (Tensor[(32, 256, 1024), float32], Tensor[(32, 256, 1), float32]) -> Tensor[(32, 256, 1024), float32] */;
  %1446 = %1445(%1442, %1444) /* ty=Tensor[(32, 256, 1024), float32] */;
  %1447 = fn (%p0397: Tensor[(32, 256, 1024), float32] /* ty=Tensor[(32, 256, 1024), float32] */, Primitive=1) -> Tensor[(32, 256, 1), float32] {
    %742 = power(%p0397, 2f /* ty=float32 */) /* ty=Tensor[(32, 256, 1024), float32] */;
    mean(%742, axis=[-1], keepdims=True) /* ty=Tensor[(32, 256, 1), float32] */
  } /* ty=fn (Tensor[(32, 256, 1024), float32]) -> Tensor[(32, 256, 1), float32] */;
  %1448 = %1447(%1446) /* ty=Tensor[(32, 256, 1), float32] */;
  %1449 = fn (%p0396: Tensor[(32, 256, 1), float32] /* ty=Tensor[(32, 256, 1), float32] */, %p1270: Tensor[(32, 256, 1024), float32] /* ty=Tensor[(32, 256, 1024), float32] */, %p2108: Tensor[(1024), float32] /* ty=Tensor[(1024), float32] */, %p336: Tensor[(1024), float32] /* ty=Tensor[(1024), float32] */, Primitive=1) -> Tensor[(32, 256, 1024), float32] {
    %738 = add(%p0396, 1.19209e-07f /* ty=float32 */) /* ty=Tensor[(32, 256, 1), float32] */;
    %739 = rsqrt(%738) /* ty=Tensor[(32, 256, 1), float32] */;
    %740 = multiply(%p1270, %739) /* ty=Tensor[(32, 256, 1024), float32] */;
    %741 = multiply(%740, %p2108) /* ty=Tensor[(32, 256, 1024), float32] */;
    add(%741, %p336) /* ty=Tensor[(32, 256, 1024), float32] */
  } /* ty=fn (Tensor[(32, 256, 1), float32], Tensor[(32, 256, 1024), float32], Tensor[(1024), float32], Tensor[(1024), float32]) -> Tensor[(32, 256, 1024), float32] */;
  %1450 = %1449(%1448, %1446, meta[relay.Constant][21] /* ty=Tensor[(1024), float32] */, meta[relay.Constant][22] /* ty=Tensor[(1024), float32] */) /* ty=Tensor[(32, 256, 1024), float32] */;
  %1451 = fn (%p0395: Tensor[(32, 256, 1024), float32] /* ty=Tensor[(32, 256, 1024), float32] */, Primitive=1) -> Tensor[(8192, 1024), float16] {
    %737 = reshape(%p0395, newshape=[-1, 1024]) /* ty=Tensor[(8192, 1024), float32] */;
    cast(%737, dtype="float16") /* ty=Tensor[(8192, 1024), float16] */
  } /* ty=fn (Tensor[(32, 256, 1024), float32]) -> Tensor[(8192, 1024), float16] */;
  %1452 = %1451(%1450) /* ty=Tensor[(8192, 1024), float16] */;
  %1453 = fn (%p0394: Tensor[(8192, 1024), float16] /* ty=Tensor[(8192, 1024), float16] */, %p1269: Tensor[(1024, 1024), float16] /* ty=Tensor[(1024, 1024), float16] */, Primitive=1) -> Tensor[(8192, 1024), float16] {
    nn.dense(%p0394, %p1269, units=None, out_dtype="float16") /* ty=Tensor[(8192, 1024), float16] */
  } /* ty=fn (Tensor[(8192, 1024), float16], Tensor[(1024, 1024), float16]) -> Tensor[(8192, 1024), float16] */;
  %1454 = %1453(%1452, meta[relay.Constant][53] /* ty=Tensor[(1024, 1024), float16] span=/encoder/albert_layer_groups.0/albert_layers.0/attention/query_6/MatMul:0:0 */) /* ty=Tensor[(8192, 1024), float16] */;
  %1455 = fn (%p0393: Tensor[(8192, 1024), float16] /* ty=Tensor[(8192, 1024), float16] */, %p1268: Tensor[(1024), float16] /* ty=Tensor[(1024), float16] */, Primitive=1) -> Tensor[(512, 256, 64), float16] {
    %733 = reshape(%p0393, newshape=[32, 256, 1024]) /* ty=Tensor[(32, 256, 1024), float16] */;
    %734 = add(%p1268, %733) /* ty=Tensor[(32, 256, 1024), float16] */;
    %735 = reshape(%734, newshape=[32, 256, 16, 64]) /* ty=Tensor[(32, 256, 16, 64), float16] */;
    %736 = transpose(%735, axes=[0, 2, 1, 3]) /* ty=Tensor[(32, 16, 256, 64), float16] */;
    reshape(%736, newshape=[-1, 256, 64]) /* ty=Tensor[(512, 256, 64), float16] */
  } /* ty=fn (Tensor[(8192, 1024), float16], Tensor[(1024), float16]) -> Tensor[(512, 256, 64), float16] */;
  %1462 = fn (%p0586: Tensor[(32, 256, 1024), float32] /* ty=Tensor[(32, 256, 1024), float32] */, Primitive=1) -> Tensor[(8192, 1024), float16] {
    %1461 = reshape(%p0586, newshape=[-1, 1024]) /* ty=Tensor[(8192, 1024), float32] */;
    cast(%1461, dtype="float16") /* ty=Tensor[(8192, 1024), float16] */
  } /* ty=fn (Tensor[(32, 256, 1024), float32]) -> Tensor[(8192, 1024), float16] */;
  %1463 = %1462(%1450) /* ty=Tensor[(8192, 1024), float16] */;
  %1464 = fn (%p0585: Tensor[(8192, 1024), float16] /* ty=Tensor[(8192, 1024), float16] */, %p1391: Tensor[(1024, 1024), float16] /* ty=Tensor[(1024, 1024), float16] */, Primitive=1) -> Tensor[(8192, 1024), float16] {
    nn.dense(%p0585, %p1391, units=None, out_dtype="float16") /* ty=Tensor[(8192, 1024), float16] */
  } /* ty=fn (Tensor[(8192, 1024), float16], Tensor[(1024, 1024), float16]) -> Tensor[(8192, 1024), float16] */;
  %1465 = %1464(%1463, meta[relay.Constant][54] /* ty=Tensor[(1024, 1024), float16] span=/encoder/albert_layer_groups.0/albert_layers.0/attention/key_6/MatMul:0:0 */) /* ty=Tensor[(8192, 1024), float16] */;
  %1466 = fn (%p0584: Tensor[(8192, 1024), float16] /* ty=Tensor[(8192, 1024), float16] */, %p1390: Tensor[(1024), float16] /* ty=Tensor[(1024), float16] */, Primitive=1) -> Tensor[(512, 256, 64), float16] {
    %1456 = reshape(%p0584, newshape=[32, 256, 1024]) /* ty=Tensor[(32, 256, 1024), float16] */;
    %1457 = add(%p1390, %1456) /* ty=Tensor[(32, 256, 1024), float16] */;
    %1458 = reshape(%1457, newshape=[32, 256, 16, 64]) /* ty=Tensor[(32, 256, 16, 64), float16] */;
    %1459 = transpose(%1458, axes=[0, 2, 3, 1]) /* ty=Tensor[(32, 16, 64, 256), float16] */;
    %1460 = reshape(%1459, newshape=[-1, 64, 256]) /* ty=Tensor[(512, 64, 256), float16] */;
    transpose(%1460, axes=[0, 2, 1]) /* ty=Tensor[(512, 256, 64), float16] */
  } /* ty=fn (Tensor[(8192, 1024), float16], Tensor[(1024), float16]) -> Tensor[(512, 256, 64), float16] */;
  %1467 = %1455(%1454, meta[relay.Constant][8] /* ty=Tensor[(1024), float16] span=Identity_7:0:0 */) /* ty=Tensor[(512, 256, 64), float16] */;
  %1468 = %1466(%1465, meta[relay.Constant][10] /* ty=Tensor[(1024), float16] span=Identity_6:0:0 */) /* ty=Tensor[(512, 256, 64), float16] */;
  %1469 = fn (%p0392: Tensor[(512, 256, 64), float16] /* ty=Tensor[(512, 256, 64), float16] */, %p1267: Tensor[(512, 256, 64), float16] /* ty=Tensor[(512, 256, 64), float16] */, Primitive=1) -> Tensor[(512, 256, 256), float16] {
    nn.batch_matmul(%p0392, %p1267, out_dtype="float16", transpose_b=True) /* ty=Tensor[(512, 256, 256), float16] */
  } /* ty=fn (Tensor[(512, 256, 64), float16], Tensor[(512, 256, 64), float16]) -> Tensor[(512, 256, 256), float16] */;
  %1470 = %1469(%1467, %1468) /* ty=Tensor[(512, 256, 256), float16] */;
  %1471 = fn (%p0391: Tensor[(512, 256, 256), float16] /* ty=Tensor[(512, 256, 256), float16] */, %p1266: float16 /* ty=float16 */, %p2107: Tensor[(32, 1, 1, 256), float16] /* ty=Tensor[(32, 1, 1, 256), float16] */, Primitive=1) -> Tensor[(32, 16, 256, 256), float32] {
    %730 = reshape(%p0391, newshape=[32, 16, 256, 256]) /* ty=Tensor[(32, 16, 256, 256), float16] */;
    %731 = divide(%730, %p1266) /* ty=Tensor[(32, 16, 256, 256), float16] */;
    %732 = add(%731, %p2107) /* ty=Tensor[(32, 16, 256, 256), float16] */;
    cast(%732, dtype="float32") /* ty=Tensor[(32, 16, 256, 256), float32] */
  } /* ty=fn (Tensor[(512, 256, 256), float16], float16, Tensor[(32, 1, 1, 256), float16]) -> Tensor[(32, 16, 256, 256), float32] */;
  %1472 = %1471(%1470, 8f16 /* ty=float16 span=/encoder/albert_layer_groups.0/albert_layers.0/attention_6/Constant_6:0:0 */, %1039) /* ty=Tensor[(32, 16, 256, 256), float32] */;
  %1473 = fn (%p0390: Tensor[(32, 16, 256, 256), float32] /* ty=Tensor[(32, 16, 256, 256), float32] */, Primitive=1) -> Tensor[(32, 16, 256, 256), float32] {
    nn.softmax(%p0390, axis=3) /* ty=Tensor[(32, 16, 256, 256), float32] */
  } /* ty=fn (Tensor[(32, 16, 256, 256), float32]) -> Tensor[(32, 16, 256, 256), float32] */;
  %1474 = %1473(%1472) /* ty=Tensor[(32, 16, 256, 256), float32] */;
  %1475 = fn (%p0389: Tensor[(32, 16, 256, 256), float32] /* ty=Tensor[(32, 16, 256, 256), float32] */, Primitive=1) -> Tensor[(512, 256, 256), float16] {
    %729 = reshape(%p0389, newshape=[-1, 256, 256]) /* ty=Tensor[(512, 256, 256), float32] */;
    cast(%729, dtype="float16") /* ty=Tensor[(512, 256, 256), float16] */
  } /* ty=fn (Tensor[(32, 16, 256, 256), float32]) -> Tensor[(512, 256, 256), float16] */;
  %1482 = fn (%p0589: Tensor[(32, 256, 1024), float32] /* ty=Tensor[(32, 256, 1024), float32] */, Primitive=1) -> Tensor[(8192, 1024), float16] {
    %1481 = reshape(%p0589, newshape=[-1, 1024]) /* ty=Tensor[(8192, 1024), float32] */;
    cast(%1481, dtype="float16") /* ty=Tensor[(8192, 1024), float16] */
  } /* ty=fn (Tensor[(32, 256, 1024), float32]) -> Tensor[(8192, 1024), float16] */;
  %1483 = %1482(%1450) /* ty=Tensor[(8192, 1024), float16] */;
  %1484 = fn (%p0588: Tensor[(8192, 1024), float16] /* ty=Tensor[(8192, 1024), float16] */, %p1393: Tensor[(1024, 1024), float16] /* ty=Tensor[(1024, 1024), float16] */, Primitive=1) -> Tensor[(8192, 1024), float16] {
    nn.dense(%p0588, %p1393, units=None, out_dtype="float16") /* ty=Tensor[(8192, 1024), float16] */
  } /* ty=fn (Tensor[(8192, 1024), float16], Tensor[(1024, 1024), float16]) -> Tensor[(8192, 1024), float16] */;
  %1485 = %1484(%1483, meta[relay.Constant][55] /* ty=Tensor[(1024, 1024), float16] span=/encoder/albert_layer_groups.0/albert_layers.0/attention/value_6/MatMul:0:0 */) /* ty=Tensor[(8192, 1024), float16] */;
  %1486 = fn (%p0587: Tensor[(8192, 1024), float16] /* ty=Tensor[(8192, 1024), float16] */, %p1392: Tensor[(1024), float16] /* ty=Tensor[(1024), float16] */, Primitive=1) -> Tensor[(512, 64, 256), float16] {
    %1476 = reshape(%p0587, newshape=[32, 256, 1024]) /* ty=Tensor[(32, 256, 1024), float16] */;
    %1477 = add(%p1392, %1476) /* ty=Tensor[(32, 256, 1024), float16] */;
    %1478 = reshape(%1477, newshape=[32, 256, 16, 64]) /* ty=Tensor[(32, 256, 16, 64), float16] */;
    %1479 = transpose(%1478, axes=[0, 2, 1, 3]) /* ty=Tensor[(32, 16, 256, 64), float16] */;
    %1480 = reshape(%1479, newshape=[-1, 256, 64]) /* ty=Tensor[(512, 256, 64), float16] */;
    transpose(%1480, axes=[0, 2, 1]) /* ty=Tensor[(512, 64, 256), float16] */
  } /* ty=fn (Tensor[(8192, 1024), float16], Tensor[(1024), float16]) -> Tensor[(512, 64, 256), float16] */;
  %1487 = %1475(%1474) /* ty=Tensor[(512, 256, 256), float16] */;
  %1488 = %1486(%1485, meta[relay.Constant][12] /* ty=Tensor[(1024), float16] span=Identity_5:0:0 */) /* ty=Tensor[(512, 64, 256), float16] */;
  %1489 = fn (%p0388: Tensor[(512, 256, 256), float16] /* ty=Tensor[(512, 256, 256), float16] */, %p1265: Tensor[(512, 64, 256), float16] /* ty=Tensor[(512, 64, 256), float16] */, Primitive=1) -> Tensor[(512, 256, 64), float16] {
    nn.batch_matmul(%p0388, %p1265, out_dtype="float16", transpose_b=True) /* ty=Tensor[(512, 256, 64), float16] */
  } /* ty=fn (Tensor[(512, 256, 256), float16], Tensor[(512, 64, 256), float16]) -> Tensor[(512, 256, 64), float16] */;
  %1490 = %1489(%1487, %1488) /* ty=Tensor[(512, 256, 64), float16] */;
  %1491 = fn (%p0387: Tensor[(512, 256, 64), float16] /* ty=Tensor[(512, 256, 64), float16] */, Primitive=1) -> Tensor[(8192, 1024), float16] {
    %727 = reshape(%p0387, newshape=[32, 16, 256, 64]) /* ty=Tensor[(32, 16, 256, 64), float16] */;
    %728 = transpose(%727, axes=[0, 2, 1, 3]) /* ty=Tensor[(32, 256, 16, 64), float16] */;
    reshape(%728, newshape=[8192, 1024]) /* ty=Tensor[(8192, 1024), float16] */
  } /* ty=fn (Tensor[(512, 256, 64), float16]) -> Tensor[(8192, 1024), float16] */;
  %1492 = %1491(%1490) /* ty=Tensor[(8192, 1024), float16] */;
  %1493 = fn (%p0386: Tensor[(8192, 1024), float16] /* ty=Tensor[(8192, 1024), float16] */, %p1264: Tensor[(1024, 1024), float16] /* ty=Tensor[(1024, 1024), float16] */, Primitive=1) -> Tensor[(8192, 1024), float16] {
    nn.dense(%p0386, %p1264, units=None, out_dtype="float16") /* ty=Tensor[(8192, 1024), float16] */
  } /* ty=fn (Tensor[(8192, 1024), float16], Tensor[(1024, 1024), float16]) -> Tensor[(8192, 1024), float16] */;
  %1494 = %1493(%1492, meta[relay.Constant][56] /* ty=Tensor[(1024, 1024), float16] span=/encoder/albert_layer_groups.0/albert_layers.0/attention/dense_6/MatMul:0:0 */) /* ty=Tensor[(8192, 1024), float16] */;
  %1495 = fn (%p0385: Tensor[(8192, 1024), float16] /* ty=Tensor[(8192, 1024), float16] */, %p1263: Tensor[(1024), float16] /* ty=Tensor[(1024), float16] */, %p2106: Tensor[(32, 256, 1024), float32] /* ty=Tensor[(32, 256, 1024), float32] */, Primitive=1) -> Tensor[(32, 256, 1024), float32] {
    %724 = reshape(%p0385, newshape=[32, 256, 1024]) /* ty=Tensor[(32, 256, 1024), float16] */;
    %725 = add(%p1263, %724) /* ty=Tensor[(32, 256, 1024), float16] */;
    %726 = cast(%725, dtype="float32") /* ty=Tensor[(32, 256, 1024), float32] */;
    add(%p2106, %726) /* ty=Tensor[(32, 256, 1024), float32] */
  } /* ty=fn (Tensor[(8192, 1024), float16], Tensor[(1024), float16], Tensor[(32, 256, 1024), float32]) -> Tensor[(32, 256, 1024), float32] */;
  %1496 = %1495(%1494, meta[relay.Constant][14] /* ty=Tensor[(1024), float16] span=Identity_4:0:0 */, %1450) /* ty=Tensor[(32, 256, 1024), float32] */;
  %1497 = fn (%p0590: Tensor[(32, 256, 1024), float32] /* ty=Tensor[(32, 256, 1024), float32] */, Primitive=1) -> Tensor[(32, 256, 1), float32] {
    mean(%p0590, axis=[-1], keepdims=True) /* ty=Tensor[(32, 256, 1), float32] */
  } /* ty=fn (Tensor[(32, 256, 1024), float32]) -> Tensor[(32, 256, 1), float32] */;
  %1498 = %1497(%1496) /* ty=Tensor[(32, 256, 1), float32] */;
  %1499 = fn (%p0384: Tensor[(32, 256, 1024), float32] /* ty=Tensor[(32, 256, 1024), float32] */, %p1262: Tensor[(32, 256, 1), float32] /* ty=Tensor[(32, 256, 1), float32] */, Primitive=1) -> Tensor[(32, 256, 1024), float32] {
    subtract(%p0384, %p1262) /* ty=Tensor[(32, 256, 1024), float32] */
  } /* ty=fn (Tensor[(32, 256, 1024), float32], Tensor[(32, 256, 1), float32]) -> Tensor[(32, 256, 1024), float32] */;
  %1500 = %1499(%1496, %1498) /* ty=Tensor[(32, 256, 1024), float32] */;
  %1501 = fn (%p0383: Tensor[(32, 256, 1024), float32] /* ty=Tensor[(32, 256, 1024), float32] */, Primitive=1) -> Tensor[(32, 256, 1), float32] {
    %723 = power(%p0383, 2f /* ty=float32 */) /* ty=Tensor[(32, 256, 1024), float32] */;
    mean(%723, axis=[-1], keepdims=True) /* ty=Tensor[(32, 256, 1), float32] */
  } /* ty=fn (Tensor[(32, 256, 1024), float32]) -> Tensor[(32, 256, 1), float32] */;
  %1502 = %1501(%1500) /* ty=Tensor[(32, 256, 1), float32] */;
  %1503 = fn (%p0382: Tensor[(32, 256, 1), float32] /* ty=Tensor[(32, 256, 1), float32] */, %p1261: Tensor[(32, 256, 1024), float32] /* ty=Tensor[(32, 256, 1024), float32] */, %p2105: Tensor[(1024), float32] /* ty=Tensor[(1024), float32] */, %p335: Tensor[(1024), float32] /* ty=Tensor[(1024), float32] */, Primitive=1) -> Tensor[(32, 256, 1024), float32] {
    %719 = add(%p0382, 1.19209e-07f /* ty=float32 */) /* ty=Tensor[(32, 256, 1), float32] */;
    %720 = rsqrt(%719) /* ty=Tensor[(32, 256, 1), float32] */;
    %721 = multiply(%p1261, %720) /* ty=Tensor[(32, 256, 1024), float32] */;
    %722 = multiply(%721, %p2105) /* ty=Tensor[(32, 256, 1024), float32] */;
    add(%722, %p335) /* ty=Tensor[(32, 256, 1024), float32] */
  } /* ty=fn (Tensor[(32, 256, 1), float32], Tensor[(32, 256, 1024), float32], Tensor[(1024), float32], Tensor[(1024), float32]) -> Tensor[(32, 256, 1024), float32] */;
  %1504 = %1503(%1502, %1500, meta[relay.Constant][15] /* ty=Tensor[(1024), float32] */, meta[relay.Constant][16] /* ty=Tensor[(1024), float32] */) /* ty=Tensor[(32, 256, 1024), float32] */;
  %1505 = fn (%p0381: Tensor[(32, 256, 1024), float32] /* ty=Tensor[(32, 256, 1024), float32] */, Primitive=1) -> Tensor[(8192, 1024), float16] {
    %718 = reshape(%p0381, newshape=[-1, 1024]) /* ty=Tensor[(8192, 1024), float32] */;
    cast(%718, dtype="float16") /* ty=Tensor[(8192, 1024), float16] */
  } /* ty=fn (Tensor[(32, 256, 1024), float32]) -> Tensor[(8192, 1024), float16] */;
  %1506 = %1505(%1504) /* ty=Tensor[(8192, 1024), float16] */;
  %1507 = fn (%p0380: Tensor[(8192, 1024), float16] /* ty=Tensor[(8192, 1024), float16] */, %p1260: Tensor[(4096, 1024), float16] /* ty=Tensor[(4096, 1024), float16] */, Primitive=1) -> Tensor[(8192, 4096), float16] {
    nn.dense(%p0380, %p1260, units=None, out_dtype="float16") /* ty=Tensor[(8192, 4096), float16] */
  } /* ty=fn (Tensor[(8192, 1024), float16], Tensor[(4096, 1024), float16]) -> Tensor[(8192, 4096), float16] */;
  %1508 = %1507(%1506, meta[relay.Constant][57] /* ty=Tensor[(4096, 1024), float16] span=/encoder/albert_layer_groups.0/albert_layers.0/ffn_6/MatMul:0:0 */) /* ty=Tensor[(8192, 4096), float16] */;
  %1509 = fn (%p0379: Tensor[(8192, 4096), float16] /* ty=Tensor[(8192, 4096), float16] */, %p1259: Tensor[(4096), float16] /* ty=Tensor[(4096), float16] */, %p2104: float16 /* ty=float16 */, Primitive=1) -> Tensor[(8192, 4096), float16] {
    %705 = reshape(%p0379, newshape=[32, 256, 4096]) /* ty=Tensor[(32, 256, 4096), float16] */;
    %706 = add(%p1259, %705) /* ty=Tensor[(32, 256, 4096), float16] */;
    %707 = multiply(%706, %p2104) /* ty=Tensor[(32, 256, 4096), float16] */;
    %708 = cast(%706, dtype="float32") /* ty=Tensor[(32, 256, 4096), float32] */;
    %709 = power(%708, 3f /* ty=float32 */) /* ty=Tensor[(32, 256, 4096), float32] */;
    %710 = multiply(%709, 0.0447083f /* ty=float32 */) /* ty=Tensor[(32, 256, 4096), float32] */;
    %711 = add(%708, %710) /* ty=Tensor[(32, 256, 4096), float32] */;
    %712 = multiply(%711, 0.797852f /* ty=float32 */) /* ty=Tensor[(32, 256, 4096), float32] */;
    %713 = tanh(%712) /* ty=Tensor[(32, 256, 4096), float32] */;
    %714 = cast(%707, dtype="float32") /* ty=Tensor[(32, 256, 4096), float32] */;
    %715 = add(%713, 1f /* ty=float32 */) /* ty=Tensor[(32, 256, 4096), float32] */;
    %716 = multiply(%714, %715) /* ty=Tensor[(32, 256, 4096), float32] */;
    %717 = reshape(%716, newshape=[-1, 4096]) /* ty=Tensor[(8192, 4096), float32] */;
    cast(%717, dtype="float16") /* ty=Tensor[(8192, 4096), float16] */
  } /* ty=fn (Tensor[(8192, 4096), float16], Tensor[(4096), float16], float16) -> Tensor[(8192, 4096), float16] */;
  %1510 = %1509(%1508, meta[relay.Constant][18] /* ty=Tensor[(4096), float16] span=/encoder/albert_layer_groups.0/albert_layers.0/ffn/Add.encoder.albert_layer_groups.0.albert_layers.0.ffn.bias:0:0 */, 0.5f16 /* ty=float16 span=/encoder/albert_layer_groups.0/albert_layers.0/activation_6/Constant:0:0 */) /* ty=Tensor[(8192, 4096), float16] */;
  %1511 = fn (%p0378: Tensor[(8192, 4096), float16] /* ty=Tensor[(8192, 4096), float16] */, %p1258: Tensor[(1024, 4096), float16] /* ty=Tensor[(1024, 4096), float16] */, Primitive=1) -> Tensor[(8192, 1024), float16] {
    nn.dense(%p0378, %p1258, units=None, out_dtype="float16") /* ty=Tensor[(8192, 1024), float16] */
  } /* ty=fn (Tensor[(8192, 4096), float16], Tensor[(1024, 4096), float16]) -> Tensor[(8192, 1024), float16] */;
  %1512 = %1511(%1510, meta[relay.Constant][58] /* ty=Tensor[(1024, 4096), float16] span=/encoder/albert_layer_groups.0/albert_layers.0/ffn_output_6/MatMul:0:0 */) /* ty=Tensor[(8192, 1024), float16] */;
  %1513 = fn (%p0377: Tensor[(8192, 1024), float16] /* ty=Tensor[(8192, 1024), float16] */, %p1257: Tensor[(1024), float16] /* ty=Tensor[(1024), float16] */, %p2103: Tensor[(32, 256, 1024), float32] /* ty=Tensor[(32, 256, 1024), float32] */, Primitive=1) -> Tensor[(32, 256, 1024), float32] {
    %702 = reshape(%p0377, newshape=[32, 256, 1024]) /* ty=Tensor[(32, 256, 1024), float16] */;
    %703 = add(%p1257, %702) /* ty=Tensor[(32, 256, 1024), float16] */;
    %704 = cast(%703, dtype="float32") /* ty=Tensor[(32, 256, 1024), float32] */;
    add(%704, %p2103) /* ty=Tensor[(32, 256, 1024), float32] */
  } /* ty=fn (Tensor[(8192, 1024), float16], Tensor[(1024), float16], Tensor[(32, 256, 1024), float32]) -> Tensor[(32, 256, 1024), float32] */;
  %1514 = %1513(%1512, meta[relay.Constant][20] /* ty=Tensor[(1024), float16] span=Identity_1:0:0 */, %1504) /* ty=Tensor[(32, 256, 1024), float32] */;
  %1515 = fn (%p0591: Tensor[(32, 256, 1024), float32] /* ty=Tensor[(32, 256, 1024), float32] */, Primitive=1) -> Tensor[(32, 256, 1), float32] {
    mean(%p0591, axis=[-1], keepdims=True) /* ty=Tensor[(32, 256, 1), float32] */
  } /* ty=fn (Tensor[(32, 256, 1024), float32]) -> Tensor[(32, 256, 1), float32] */;
  %1516 = %1515(%1514) /* ty=Tensor[(32, 256, 1), float32] */;
  %1517 = fn (%p0376: Tensor[(32, 256, 1024), float32] /* ty=Tensor[(32, 256, 1024), float32] */, %p1256: Tensor[(32, 256, 1), float32] /* ty=Tensor[(32, 256, 1), float32] */, Primitive=1) -> Tensor[(32, 256, 1024), float32] {
    subtract(%p0376, %p1256) /* ty=Tensor[(32, 256, 1024), float32] */
  } /* ty=fn (Tensor[(32, 256, 1024), float32], Tensor[(32, 256, 1), float32]) -> Tensor[(32, 256, 1024), float32] */;
  %1518 = %1517(%1514, %1516) /* ty=Tensor[(32, 256, 1024), float32] */;
  %1519 = fn (%p0375: Tensor[(32, 256, 1024), float32] /* ty=Tensor[(32, 256, 1024), float32] */, Primitive=1) -> Tensor[(32, 256, 1), float32] {
    %701 = power(%p0375, 2f /* ty=float32 */) /* ty=Tensor[(32, 256, 1024), float32] */;
    mean(%701, axis=[-1], keepdims=True) /* ty=Tensor[(32, 256, 1), float32] */
  } /* ty=fn (Tensor[(32, 256, 1024), float32]) -> Tensor[(32, 256, 1), float32] */;
  %1520 = %1519(%1518) /* ty=Tensor[(32, 256, 1), float32] */;
  %1521 = fn (%p0374: Tensor[(32, 256, 1), float32] /* ty=Tensor[(32, 256, 1), float32] */, %p1255: Tensor[(32, 256, 1024), float32] /* ty=Tensor[(32, 256, 1024), float32] */, %p2102: Tensor[(1024), float32] /* ty=Tensor[(1024), float32] */, %p334: Tensor[(1024), float32] /* ty=Tensor[(1024), float32] */, Primitive=1) -> Tensor[(32, 256, 1024), float32] {
    %697 = add(%p0374, 1.19209e-07f /* ty=float32 */) /* ty=Tensor[(32, 256, 1), float32] */;
    %698 = rsqrt(%697) /* ty=Tensor[(32, 256, 1), float32] */;
    %699 = multiply(%p1255, %698) /* ty=Tensor[(32, 256, 1024), float32] */;
    %700 = multiply(%699, %p2102) /* ty=Tensor[(32, 256, 1024), float32] */;
    add(%700, %p334) /* ty=Tensor[(32, 256, 1024), float32] */
…
  } /* ty=fn (Tensor[(32, 256, 1024), float32]) -> Tensor[(32, 256, 1), float32] */;
  %2582 = %2581(%2580) /* ty=Tensor[(32, 256, 1), float32] */;
  %2583 = fn (%p052: Tensor[(32, 256, 1), float32] /* ty=Tensor[(32, 256, 1), float32] */, %p136: Tensor[(32, 256, 1024), float32] /* ty=Tensor[(32, 256, 1024), float32] */, %p215: Tensor[(1024), float32] /* ty=Tensor[(1024), float32] */, %p35: Tensor[(1024), float32] /* ty=Tensor[(1024), float32] */, Primitive=1) -> Tensor[(32, 256, 1024), float32] {
    %104 = add(%p052, 1.19209e-07f /* ty=float32 */) /* ty=Tensor[(32, 256, 1), float32] */;
    %105 = rsqrt(%104) /* ty=Tensor[(32, 256, 1), float32] */;
    %106 = multiply(%p136, %105) /* ty=Tensor[(32, 256, 1024), float32] */;
    %107 = multiply(%106, %p215) /* ty=Tensor[(32, 256, 1024), float32] */;
    add(%107, %p35) /* ty=Tensor[(32, 256, 1024), float32] */
  } /* ty=fn (Tensor[(32, 256, 1), float32], Tensor[(32, 256, 1024), float32], Tensor[(1024), float32], Tensor[(1024), float32]) -> Tensor[(32, 256, 1024), float32] */;
  %2584 = %2583(%2582, %2580, meta[relay.Constant][15] /* ty=Tensor[(1024), float32] */, meta[relay.Constant][16] /* ty=Tensor[(1024), float32] */) /* ty=Tensor[(32, 256, 1024), float32] */;
  %2585 = fn (%p051: Tensor[(32, 256, 1024), float32] /* ty=Tensor[(32, 256, 1024), float32] */, Primitive=1) -> Tensor[(8192, 1024), float16] {
    %103 = reshape(%p051, newshape=[-1, 1024]) /* ty=Tensor[(8192, 1024), float32] */;
    cast(%103, dtype="float16") /* ty=Tensor[(8192, 1024), float16] */
  } /* ty=fn (Tensor[(32, 256, 1024), float32]) -> Tensor[(8192, 1024), float16] */;
  %2586 = %2585(%2584) /* ty=Tensor[(8192, 1024), float16] */;
  %2587 = fn (%p050: Tensor[(8192, 1024), float16] /* ty=Tensor[(8192, 1024), float16] */, %p135: Tensor[(4096, 1024), float16] /* ty=Tensor[(4096, 1024), float16] */, Primitive=1) -> Tensor[(8192, 4096), float16] {
    nn.dense(%p050, %p135, units=None, out_dtype="float16") /* ty=Tensor[(8192, 4096), float16] */
  } /* ty=fn (Tensor[(8192, 1024), float16], Tensor[(4096, 1024), float16]) -> Tensor[(8192, 4096), float16] */;
  %2588 = %2587(%2586, meta[relay.Constant][147] /* ty=Tensor[(4096, 1024), float16] span=/encoder/albert_layer_groups.0/albert_layers.0/ffn_21/MatMul:0:0 */) /* ty=Tensor[(8192, 4096), float16] */;
  %2589 = fn (%p049: Tensor[(8192, 4096), float16] /* ty=Tensor[(8192, 4096), float16] */, %p134: Tensor[(4096), float16] /* ty=Tensor[(4096), float16] */, %p214: float16 /* ty=float16 */, Primitive=1) -> Tensor[(8192, 4096), float16] {
    %90 = reshape(%p049, newshape=[32, 256, 4096]) /* ty=Tensor[(32, 256, 4096), float16] */;
    %91 = add(%p134, %90) /* ty=Tensor[(32, 256, 4096), float16] */;
    %92 = multiply(%91, %p214) /* ty=Tensor[(32, 256, 4096), float16] */;
    %93 = cast(%91, dtype="float32") /* ty=Tensor[(32, 256, 4096), float32] */;
    %94 = power(%93, 3f /* ty=float32 */) /* ty=Tensor[(32, 256, 4096), float32] */;
    %95 = multiply(%94, 0.0447083f /* ty=float32 */) /* ty=Tensor[(32, 256, 4096), float32] */;
    %96 = add(%93, %95) /* ty=Tensor[(32, 256, 4096), float32] */;
    %97 = multiply(%96, 0.797852f /* ty=float32 */) /* ty=Tensor[(32, 256, 4096), float32] */;
    %98 = tanh(%97) /* ty=Tensor[(32, 256, 4096), float32] */;
    %99 = cast(%92, dtype="float32") /* ty=Tensor[(32, 256, 4096), float32] */;
    %100 = add(%98, 1f /* ty=float32 */) /* ty=Tensor[(32, 256, 4096), float32] */;
    %101 = multiply(%99, %100) /* ty=Tensor[(32, 256, 4096), float32] */;
    %102 = reshape(%101, newshape=[-1, 4096]) /* ty=Tensor[(8192, 4096), float32] */;
    cast(%102, dtype="float16") /* ty=Tensor[(8192, 4096), float16] */
  } /* ty=fn (Tensor[(8192, 4096), float16], Tensor[(4096), float16], float16) -> Tensor[(8192, 4096), float16] */;
  %2590 = %2589(%2588, meta[relay.Constant][18] /* ty=Tensor[(4096), float16] span=/encoder/albert_layer_groups.0/albert_layers.0/ffn/Add.encoder.albert_layer_groups.0.albert_layers.0.ffn.bias:0:0 */, 0.5f16 /* ty=float16 span=/encoder/albert_layer_groups.0/albert_layers.0/activation_21/Constant:0:0 */) /* ty=Tensor[(8192, 4096), float16] */;
  %2591 = fn (%p048: Tensor[(8192, 4096), float16] /* ty=Tensor[(8192, 4096), float16] */, %p133: Tensor[(1024, 4096), float16] /* ty=Tensor[(1024, 4096), float16] */, Primitive=1) -> Tensor[(8192, 1024), float16] {
    nn.dense(%p048, %p133, units=None, out_dtype="float16") /* ty=Tensor[(8192, 1024), float16] */
  } /* ty=fn (Tensor[(8192, 4096), float16], Tensor[(1024, 4096), float16]) -> Tensor[(8192, 1024), float16] */;
  %2592 = %2591(%2590, meta[relay.Constant][148] /* ty=Tensor[(1024, 4096), float16] span=/encoder/albert_layer_groups.0/albert_layers.0/ffn_output_21/MatMul:0:0 */) /* ty=Tensor[(8192, 1024), float16] */;
  %2593 = fn (%p047: Tensor[(8192, 1024), float16] /* ty=Tensor[(8192, 1024), float16] */, %p132: Tensor[(1024), float16] /* ty=Tensor[(1024), float16] */, %p213: Tensor[(32, 256, 1024), float32] /* ty=Tensor[(32, 256, 1024), float32] */, Primitive=1) -> Tensor[(32, 256, 1024), float32] {
    %87 = reshape(%p047, newshape=[32, 256, 1024]) /* ty=Tensor[(32, 256, 1024), float16] */;
    %88 = add(%p132, %87) /* ty=Tensor[(32, 256, 1024), float16] */;
    %89 = cast(%88, dtype="float32") /* ty=Tensor[(32, 256, 1024), float32] */;
    add(%89, %p213) /* ty=Tensor[(32, 256, 1024), float32] */
  } /* ty=fn (Tensor[(8192, 1024), float16], Tensor[(1024), float16], Tensor[(32, 256, 1024), float32]) -> Tensor[(32, 256, 1024), float32] */;
  %2594 = %2593(%2592, meta[relay.Constant][20] /* ty=Tensor[(1024), float16] span=Identity_1:0:0 */, %2584) /* ty=Tensor[(32, 256, 1024), float32] */;
  %2595 = fn (%p0711: Tensor[(32, 256, 1024), float32] /* ty=Tensor[(32, 256, 1024), float32] */, Primitive=1) -> Tensor[(32, 256, 1), float32] {
    mean(%p0711, axis=[-1], keepdims=True) /* ty=Tensor[(32, 256, 1), float32] */
  } /* ty=fn (Tensor[(32, 256, 1024), float32]) -> Tensor[(32, 256, 1), float32] */;
  %2596 = %2595(%2594) /* ty=Tensor[(32, 256, 1), float32] */;
  %2597 = fn (%p046: Tensor[(32, 256, 1024), float32] /* ty=Tensor[(32, 256, 1024), float32] */, %p131: Tensor[(32, 256, 1), float32] /* ty=Tensor[(32, 256, 1), float32] */, Primitive=1) -> Tensor[(32, 256, 1024), float32] {
    subtract(%p046, %p131) /* ty=Tensor[(32, 256, 1024), float32] */
  } /* ty=fn (Tensor[(32, 256, 1024), float32], Tensor[(32, 256, 1), float32]) -> Tensor[(32, 256, 1024), float32] */;
  %2598 = %2597(%2594, %2596) /* ty=Tensor[(32, 256, 1024), float32] */;
  %2599 = fn (%p045: Tensor[(32, 256, 1024), float32] /* ty=Tensor[(32, 256, 1024), float32] */, Primitive=1) -> Tensor[(32, 256, 1), float32] {
    %86 = power(%p045, 2f /* ty=float32 */) /* ty=Tensor[(32, 256, 1024), float32] */;
    mean(%86, axis=[-1], keepdims=True) /* ty=Tensor[(32, 256, 1), float32] */
  } /* ty=fn (Tensor[(32, 256, 1024), float32]) -> Tensor[(32, 256, 1), float32] */;
  %2600 = %2599(%2598) /* ty=Tensor[(32, 256, 1), float32] */;
  %2601 = fn (%p044: Tensor[(32, 256, 1), float32] /* ty=Tensor[(32, 256, 1), float32] */, %p130: Tensor[(32, 256, 1024), float32] /* ty=Tensor[(32, 256, 1024), float32] */, %p212: Tensor[(1024), float32] /* ty=Tensor[(1024), float32] */, %p34: Tensor[(1024), float32] /* ty=Tensor[(1024), float32] */, Primitive=1) -> Tensor[(32, 256, 1024), float32] {
    %82 = add(%p044, 1.19209e-07f /* ty=float32 */) /* ty=Tensor[(32, 256, 1), float32] */;
    %83 = rsqrt(%82) /* ty=Tensor[(32, 256, 1), float32] */;
    %84 = multiply(%p130, %83) /* ty=Tensor[(32, 256, 1024), float32] */;
    %85 = multiply(%84, %p212) /* ty=Tensor[(32, 256, 1024), float32] */;
    add(%85, %p34) /* ty=Tensor[(32, 256, 1024), float32] */
  } /* ty=fn (Tensor[(32, 256, 1), float32], Tensor[(32, 256, 1024), float32], Tensor[(1024), float32], Tensor[(1024), float32]) -> Tensor[(32, 256, 1024), float32] */;
  %2602 = %2601(%2600, %2598, meta[relay.Constant][21] /* ty=Tensor[(1024), float32] */, meta[relay.Constant][22] /* ty=Tensor[(1024), float32] */) /* ty=Tensor[(32, 256, 1024), float32] */;
  %2603 = fn (%p043: Tensor[(32, 256, 1024), float32] /* ty=Tensor[(32, 256, 1024), float32] */, Primitive=1) -> Tensor[(8192, 1024), float16] {
    %81 = reshape(%p043, newshape=[-1, 1024]) /* ty=Tensor[(8192, 1024), float32] */;
    cast(%81, dtype="float16") /* ty=Tensor[(8192, 1024), float16] */
  } /* ty=fn (Tensor[(32, 256, 1024), float32]) -> Tensor[(8192, 1024), float16] */;
  %2604 = %2603(%2602) /* ty=Tensor[(8192, 1024), float16] */;
  %2605 = fn (%p042: Tensor[(8192, 1024), float16] /* ty=Tensor[(8192, 1024), float16] */, %p129: Tensor[(1024, 1024), float16] /* ty=Tensor[(1024, 1024), float16] */, Primitive=1) -> Tensor[(8192, 1024), float16] {
    nn.dense(%p042, %p129, units=None, out_dtype="float16") /* ty=Tensor[(8192, 1024), float16] */
  } /* ty=fn (Tensor[(8192, 1024), float16], Tensor[(1024, 1024), float16]) -> Tensor[(8192, 1024), float16] */;
  %2606 = %2605(%2604, meta[relay.Constant][149] /* ty=Tensor[(1024, 1024), float16] span=/encoder/albert_layer_groups.0/albert_layers.0/attention/query_22/MatMul:0:0 */) /* ty=Tensor[(8192, 1024), float16] */;
  %2607 = fn (%p041: Tensor[(8192, 1024), float16] /* ty=Tensor[(8192, 1024), float16] */, %p128: Tensor[(1024), float16] /* ty=Tensor[(1024), float16] */, Primitive=1) -> Tensor[(512, 256, 64), float16] {
    %77 = reshape(%p041, newshape=[32, 256, 1024]) /* ty=Tensor[(32, 256, 1024), float16] */;
    %78 = add(%p128, %77) /* ty=Tensor[(32, 256, 1024), float16] */;
    %79 = reshape(%78, newshape=[32, 256, 16, 64]) /* ty=Tensor[(32, 256, 16, 64), float16] */;
    %80 = transpose(%79, axes=[0, 2, 1, 3]) /* ty=Tensor[(32, 16, 256, 64), float16] */;
    reshape(%80, newshape=[-1, 256, 64]) /* ty=Tensor[(512, 256, 64), float16] */
  } /* ty=fn (Tensor[(8192, 1024), float16], Tensor[(1024), float16]) -> Tensor[(512, 256, 64), float16] */;
  %2614 = fn (%p0714: Tensor[(32, 256, 1024), float32] /* ty=Tensor[(32, 256, 1024), float32] */, Primitive=1) -> Tensor[(8192, 1024), float16] {
    %2613 = reshape(%p0714, newshape=[-1, 1024]) /* ty=Tensor[(8192, 1024), float32] */;
    cast(%2613, dtype="float16") /* ty=Tensor[(8192, 1024), float16] */
  } /* ty=fn (Tensor[(32, 256, 1024), float32]) -> Tensor[(8192, 1024), float16] */;
  %2615 = %2614(%2602) /* ty=Tensor[(8192, 1024), float16] */;
  %2616 = fn (%p0713: Tensor[(8192, 1024), float16] /* ty=Tensor[(8192, 1024), float16] */, %p1455: Tensor[(1024, 1024), float16] /* ty=Tensor[(1024, 1024), float16] */, Primitive=1) -> Tensor[(8192, 1024), float16] {
    nn.dense(%p0713, %p1455, units=None, out_dtype="float16") /* ty=Tensor[(8192, 1024), float16] */
  } /* ty=fn (Tensor[(8192, 1024), float16], Tensor[(1024, 1024), float16]) -> Tensor[(8192, 1024), float16] */;
  %2617 = %2616(%2615, meta[relay.Constant][150] /* ty=Tensor[(1024, 1024), float16] span=/encoder/albert_layer_groups.0/albert_layers.0/attention/key_22/MatMul:0:0 */) /* ty=Tensor[(8192, 1024), float16] */;
  %2618 = fn (%p0712: Tensor[(8192, 1024), float16] /* ty=Tensor[(8192, 1024), float16] */, %p1454: Tensor[(1024), float16] /* ty=Tensor[(1024), float16] */, Primitive=1) -> Tensor[(512, 256, 64), float16] {
    %2608 = reshape(%p0712, newshape=[32, 256, 1024]) /* ty=Tensor[(32, 256, 1024), float16] */;
    %2609 = add(%p1454, %2608) /* ty=Tensor[(32, 256, 1024), float16] */;
    %2610 = reshape(%2609, newshape=[32, 256, 16, 64]) /* ty=Tensor[(32, 256, 16, 64), float16] */;
    %2611 = transpose(%2610, axes=[0, 2, 3, 1]) /* ty=Tensor[(32, 16, 64, 256), float16] */;
    %2612 = reshape(%2611, newshape=[-1, 64, 256]) /* ty=Tensor[(512, 64, 256), float16] */;
    transpose(%2612, axes=[0, 2, 1]) /* ty=Tensor[(512, 256, 64), float16] */
  } /* ty=fn (Tensor[(8192, 1024), float16], Tensor[(1024), float16]) -> Tensor[(512, 256, 64), float16] */;
  %2619 = %2607(%2606, meta[relay.Constant][8] /* ty=Tensor[(1024), float16] span=Identity_7:0:0 */) /* ty=Tensor[(512, 256, 64), float16] */;
  %2620 = %2618(%2617, meta[relay.Constant][10] /* ty=Tensor[(1024), float16] span=Identity_6:0:0 */) /* ty=Tensor[(512, 256, 64), float16] */;
  %2621 = fn (%p040: Tensor[(512, 256, 64), float16] /* ty=Tensor[(512, 256, 64), float16] */, %p127: Tensor[(512, 256, 64), float16] /* ty=Tensor[(512, 256, 64), float16] */, Primitive=1) -> Tensor[(512, 256, 256), float16] {
    nn.batch_matmul(%p040, %p127, out_dtype="float16", transpose_b=True) /* ty=Tensor[(512, 256, 256), float16] */
  } /* ty=fn (Tensor[(512, 256, 64), float16], Tensor[(512, 256, 64), float16]) -> Tensor[(512, 256, 256), float16] */;
  %2622 = %2621(%2619, %2620) /* ty=Tensor[(512, 256, 256), float16] */;
  %2623 = fn (%p039: Tensor[(512, 256, 256), float16] /* ty=Tensor[(512, 256, 256), float16] */, %p126: float16 /* ty=float16 */, %p211: Tensor[(32, 1, 1, 256), float16] /* ty=Tensor[(32, 1, 1, 256), float16] */, Primitive=1) -> Tensor[(32, 16, 256, 256), float32] {
    %74 = reshape(%p039, newshape=[32, 16, 256, 256]) /* ty=Tensor[(32, 16, 256, 256), float16] */;
    %75 = divide(%74, %p126) /* ty=Tensor[(32, 16, 256, 256), float16] */;
    %76 = add(%75, %p211) /* ty=Tensor[(32, 16, 256, 256), float16] */;
    cast(%76, dtype="float32") /* ty=Tensor[(32, 16, 256, 256), float32] */
  } /* ty=fn (Tensor[(512, 256, 256), float16], float16, Tensor[(32, 1, 1, 256), float16]) -> Tensor[(32, 16, 256, 256), float32] */;
  %2624 = %2623(%2622, 8f16 /* ty=float16 span=/encoder/albert_layer_groups.0/albert_layers.0/attention_22/Constant_6:0:0 */, %1039) /* ty=Tensor[(32, 16, 256, 256), float32] */;
  %2625 = fn (%p038: Tensor[(32, 16, 256, 256), float32] /* ty=Tensor[(32, 16, 256, 256), float32] */, Primitive=1) -> Tensor[(32, 16, 256, 256), float32] {
    nn.softmax(%p038, axis=3) /* ty=Tensor[(32, 16, 256, 256), float32] */
  } /* ty=fn (Tensor[(32, 16, 256, 256), float32]) -> Tensor[(32, 16, 256, 256), float32] */;
  %2626 = %2625(%2624) /* ty=Tensor[(32, 16, 256, 256), float32] */;
  %2627 = fn (%p037: Tensor[(32, 16, 256, 256), float32] /* ty=Tensor[(32, 16, 256, 256), float32] */, Primitive=1) -> Tensor[(512, 256, 256), float16] {
    %73 = reshape(%p037, newshape=[-1, 256, 256]) /* ty=Tensor[(512, 256, 256), float32] */;
    cast(%73, dtype="float16") /* ty=Tensor[(512, 256, 256), float16] */
  } /* ty=fn (Tensor[(32, 16, 256, 256), float32]) -> Tensor[(512, 256, 256), float16] */;
  %2634 = fn (%p0717: Tensor[(32, 256, 1024), float32] /* ty=Tensor[(32, 256, 1024), float32] */, Primitive=1) -> Tensor[(8192, 1024), float16] {
    %2633 = reshape(%p0717, newshape=[-1, 1024]) /* ty=Tensor[(8192, 1024), float32] */;
    cast(%2633, dtype="float16") /* ty=Tensor[(8192, 1024), float16] */
  } /* ty=fn (Tensor[(32, 256, 1024), float32]) -> Tensor[(8192, 1024), float16] */;
  %2635 = %2634(%2602) /* ty=Tensor[(8192, 1024), float16] */;
  %2636 = fn (%p0716: Tensor[(8192, 1024), float16] /* ty=Tensor[(8192, 1024), float16] */, %p1457: Tensor[(1024, 1024), float16] /* ty=Tensor[(1024, 1024), float16] */, Primitive=1) -> Tensor[(8192, 1024), float16] {
    nn.dense(%p0716, %p1457, units=None, out_dtype="float16") /* ty=Tensor[(8192, 1024), float16] */
  } /* ty=fn (Tensor[(8192, 1024), float16], Tensor[(1024, 1024), float16]) -> Tensor[(8192, 1024), float16] */;
  %2637 = %2636(%2635, meta[relay.Constant][151] /* ty=Tensor[(1024, 1024), float16] span=/encoder/albert_layer_groups.0/albert_layers.0/attention/value_22/MatMul:0:0 */) /* ty=Tensor[(8192, 1024), float16] */;
  %2638 = fn (%p0715: Tensor[(8192, 1024), float16] /* ty=Tensor[(8192, 1024), float16] */, %p1456: Tensor[(1024), float16] /* ty=Tensor[(1024), float16] */, Primitive=1) -> Tensor[(512, 64, 256), float16] {
    %2628 = reshape(%p0715, newshape=[32, 256, 1024]) /* ty=Tensor[(32, 256, 1024), float16] */;
    %2629 = add(%p1456, %2628) /* ty=Tensor[(32, 256, 1024), float16] */;
    %2630 = reshape(%2629, newshape=[32, 256, 16, 64]) /* ty=Tensor[(32, 256, 16, 64), float16] */;
    %2631 = transpose(%2630, axes=[0, 2, 1, 3]) /* ty=Tensor[(32, 16, 256, 64), float16] */;
    %2632 = reshape(%2631, newshape=[-1, 256, 64]) /* ty=Tensor[(512, 256, 64), float16] */;
    transpose(%2632, axes=[0, 2, 1]) /* ty=Tensor[(512, 64, 256), float16] */
  } /* ty=fn (Tensor[(8192, 1024), float16], Tensor[(1024), float16]) -> Tensor[(512, 64, 256), float16] */;
  %2639 = %2627(%2626) /* ty=Tensor[(512, 256, 256), float16] */;
  %2640 = %2638(%2637, meta[relay.Constant][12] /* ty=Tensor[(1024), float16] span=Identity_5:0:0 */) /* ty=Tensor[(512, 64, 256), float16] */;
  %2641 = fn (%p036: Tensor[(512, 256, 256), float16] /* ty=Tensor[(512, 256, 256), float16] */, %p125: Tensor[(512, 64, 256), float16] /* ty=Tensor[(512, 64, 256), float16] */, Primitive=1) -> Tensor[(512, 256, 64), float16] {
    nn.batch_matmul(%p036, %p125, out_dtype="float16", transpose_b=True) /* ty=Tensor[(512, 256, 64), float16] */
  } /* ty=fn (Tensor[(512, 256, 256), float16], Tensor[(512, 64, 256), float16]) -> Tensor[(512, 256, 64), float16] */;
  %2642 = %2641(%2639, %2640) /* ty=Tensor[(512, 256, 64), float16] */;
  %2643 = fn (%p035: Tensor[(512, 256, 64), float16] /* ty=Tensor[(512, 256, 64), float16] */, Primitive=1) -> Tensor[(8192, 1024), float16] {
    %71 = reshape(%p035, newshape=[32, 16, 256, 64]) /* ty=Tensor[(32, 16, 256, 64), float16] */;
    %72 = transpose(%71, axes=[0, 2, 1, 3]) /* ty=Tensor[(32, 256, 16, 64), float16] */;
    reshape(%72, newshape=[8192, 1024]) /* ty=Tensor[(8192, 1024), float16] */
  } /* ty=fn (Tensor[(512, 256, 64), float16]) -> Tensor[(8192, 1024), float16] */;
  %2644 = %2643(%2642) /* ty=Tensor[(8192, 1024), float16] */;
  %2645 = fn (%p034: Tensor[(8192, 1024), float16] /* ty=Tensor[(8192, 1024), float16] */, %p124: Tensor[(1024, 1024), float16] /* ty=Tensor[(1024, 1024), float16] */, Primitive=1) -> Tensor[(8192, 1024), float16] {
    nn.dense(%p034, %p124, units=None, out_dtype="float16") /* ty=Tensor[(8192, 1024), float16] */
  } /* ty=fn (Tensor[(8192, 1024), float16], Tensor[(1024, 1024), float16]) -> Tensor[(8192, 1024), float16] */;
  %2646 = %2645(%2644, meta[relay.Constant][152] /* ty=Tensor[(1024, 1024), float16] span=/encoder/albert_layer_groups.0/albert_layers.0/attention/dense_22/MatMul:0:0 */) /* ty=Tensor[(8192, 1024), float16] */;
  %2647 = fn (%p033: Tensor[(8192, 1024), float16] /* ty=Tensor[(8192, 1024), float16] */, %p123: Tensor[(1024), float16] /* ty=Tensor[(1024), float16] */, %p210: Tensor[(32, 256, 1024), float32] /* ty=Tensor[(32, 256, 1024), float32] */, Primitive=1) -> Tensor[(32, 256, 1024), float32] {
    %68 = reshape(%p033, newshape=[32, 256, 1024]) /* ty=Tensor[(32, 256, 1024), float16] */;
    %69 = add(%p123, %68) /* ty=Tensor[(32, 256, 1024), float16] */;
    %70 = cast(%69, dtype="float32") /* ty=Tensor[(32, 256, 1024), float32] */;
    add(%p210, %70) /* ty=Tensor[(32, 256, 1024), float32] */
  } /* ty=fn (Tensor[(8192, 1024), float16], Tensor[(1024), float16], Tensor[(32, 256, 1024), float32]) -> Tensor[(32, 256, 1024), float32] */;
  %2648 = %2647(%2646, meta[relay.Constant][14] /* ty=Tensor[(1024), float16] span=Identity_4:0:0 */, %2602) /* ty=Tensor[(32, 256, 1024), float32] */;
  %2649 = fn (%p0718: Tensor[(32, 256, 1024), float32] /* ty=Tensor[(32, 256, 1024), float32] */, Primitive=1) -> Tensor[(32, 256, 1), float32] {
    mean(%p0718, axis=[-1], keepdims=True) /* ty=Tensor[(32, 256, 1), float32] */
  } /* ty=fn (Tensor[(32, 256, 1024), float32]) -> Tensor[(32, 256, 1), float32] */;
  %2650 = %2649(%2648) /* ty=Tensor[(32, 256, 1), float32] */;
  %2651 = fn (%p032: Tensor[(32, 256, 1024), float32] /* ty=Tensor[(32, 256, 1024), float32] */, %p122: Tensor[(32, 256, 1), float32] /* ty=Tensor[(32, 256, 1), float32] */, Primitive=1) -> Tensor[(32, 256, 1024), float32] {
    subtract(%p032, %p122) /* ty=Tensor[(32, 256, 1024), float32] */
  } /* ty=fn (Tensor[(32, 256, 1024), float32], Tensor[(32, 256, 1), float32]) -> Tensor[(32, 256, 1024), float32] */;
  %2652 = %2651(%2648, %2650) /* ty=Tensor[(32, 256, 1024), float32] */;
  %2653 = fn (%p031: Tensor[(32, 256, 1024), float32] /* ty=Tensor[(32, 256, 1024), float32] */, Primitive=1) -> Tensor[(32, 256, 1), float32] {
    %67 = power(%p031, 2f /* ty=float32 */) /* ty=Tensor[(32, 256, 1024), float32] */;
    mean(%67, axis=[-1], keepdims=True) /* ty=Tensor[(32, 256, 1), float32] */
  } /* ty=fn (Tensor[(32, 256, 1024), float32]) -> Tensor[(32, 256, 1), float32] */;
  %2654 = %2653(%2652) /* ty=Tensor[(32, 256, 1), float32] */;
  %2655 = fn (%p030: Tensor[(32, 256, 1), float32] /* ty=Tensor[(32, 256, 1), float32] */, %p121: Tensor[(32, 256, 1024), float32] /* ty=Tensor[(32, 256, 1024), float32] */, %p29: Tensor[(1024), float32] /* ty=Tensor[(1024), float32] */, %p33: Tensor[(1024), float32] /* ty=Tensor[(1024), float32] */, Primitive=1) -> Tensor[(32, 256, 1024), float32] {
    %63 = add(%p030, 1.19209e-07f /* ty=float32 */) /* ty=Tensor[(32, 256, 1), float32] */;
    %64 = rsqrt(%63) /* ty=Tensor[(32, 256, 1), float32] */;
    %65 = multiply(%p121, %64) /* ty=Tensor[(32, 256, 1024), float32] */;
    %66 = multiply(%65, %p29) /* ty=Tensor[(32, 256, 1024), float32] */;
    add(%66, %p33) /* ty=Tensor[(32, 256, 1024), float32] */
  } /* ty=fn (Tensor[(32, 256, 1), float32], Tensor[(32, 256, 1024), float32], Tensor[(1024), float32], Tensor[(1024), float32]) -> Tensor[(32, 256, 1024), float32] */;
  %2656 = %2655(%2654, %2652, meta[relay.Constant][15] /* ty=Tensor[(1024), float32] */, meta[relay.Constant][16] /* ty=Tensor[(1024), float32] */) /* ty=Tensor[(32, 256, 1024), float32] */;
  %2657 = fn (%p029: Tensor[(32, 256, 1024), float32] /* ty=Tensor[(32, 256, 1024), float32] */, Primitive=1) -> Tensor[(8192, 1024), float16] {
    %62 = reshape(%p029, newshape=[-1, 1024]) /* ty=Tensor[(8192, 1024), float32] */;
    cast(%62, dtype="float16") /* ty=Tensor[(8192, 1024), float16] */
  } /* ty=fn (Tensor[(32, 256, 1024), float32]) -> Tensor[(8192, 1024), float16] */;
  %2658 = %2657(%2656) /* ty=Tensor[(8192, 1024), float16] */;
  %2659 = fn (%p028: Tensor[(8192, 1024), float16] /* ty=Tensor[(8192, 1024), float16] */, %p120: Tensor[(4096, 1024), float16] /* ty=Tensor[(4096, 1024), float16] */, Primitive=1) -> Tensor[(8192, 4096), float16] {
    nn.dense(%p028, %p120, units=None, out_dtype="float16") /* ty=Tensor[(8192, 4096), float16] */
  } /* ty=fn (Tensor[(8192, 1024), float16], Tensor[(4096, 1024), float16]) -> Tensor[(8192, 4096), float16] */;
  %2660 = %2659(%2658, meta[relay.Constant][153] /* ty=Tensor[(4096, 1024), float16] span=/encoder/albert_layer_groups.0/albert_layers.0/ffn_22/MatMul:0:0 */) /* ty=Tensor[(8192, 4096), float16] */;
  %2661 = fn (%p027: Tensor[(8192, 4096), float16] /* ty=Tensor[(8192, 4096), float16] */, %p119: Tensor[(4096), float16] /* ty=Tensor[(4096), float16] */, %p28: float16 /* ty=float16 */, Primitive=1) -> Tensor[(8192, 4096), float16] {
    %49 = reshape(%p027, newshape=[32, 256, 4096]) /* ty=Tensor[(32, 256, 4096), float16] */;
    %50 = add(%p119, %49) /* ty=Tensor[(32, 256, 4096), float16] */;
    %51 = multiply(%50, %p28) /* ty=Tensor[(32, 256, 4096), float16] */;
    %52 = cast(%50, dtype="float32") /* ty=Tensor[(32, 256, 4096), float32] */;
    %53 = power(%52, 3f /* ty=float32 */) /* ty=Tensor[(32, 256, 4096), float32] */;
    %54 = multiply(%53, 0.0447083f /* ty=float32 */) /* ty=Tensor[(32, 256, 4096), float32] */;
    %55 = add(%52, %54) /* ty=Tensor[(32, 256, 4096), float32] */;
    %56 = multiply(%55, 0.797852f /* ty=float32 */) /* ty=Tensor[(32, 256, 4096), float32] */;
    %57 = tanh(%56) /* ty=Tensor[(32, 256, 4096), float32] */;
    %58 = cast(%51, dtype="float32") /* ty=Tensor[(32, 256, 4096), float32] */;
    %59 = add(%57, 1f /* ty=float32 */) /* ty=Tensor[(32, 256, 4096), float32] */;
    %60 = multiply(%58, %59) /* ty=Tensor[(32, 256, 4096), float32] */;
    %61 = reshape(%60, newshape=[-1, 4096]) /* ty=Tensor[(8192, 4096), float32] */;
    cast(%61, dtype="float16") /* ty=Tensor[(8192, 4096), float16] */
  } /* ty=fn (Tensor[(8192, 4096), float16], Tensor[(4096), float16], float16) -> Tensor[(8192, 4096), float16] */;
  %2662 = %2661(%2660, meta[relay.Constant][18] /* ty=Tensor[(4096), float16] span=/encoder/albert_layer_groups.0/albert_layers.0/ffn/Add.encoder.albert_layer_groups.0.albert_layers.0.ffn.bias:0:0 */, 0.5f16 /* ty=float16 span=/encoder/albert_layer_groups.0/albert_layers.0/activation_22/Constant:0:0 */) /* ty=Tensor[(8192, 4096), float16] */;
  %2663 = fn (%p026: Tensor[(8192, 4096), float16] /* ty=Tensor[(8192, 4096), float16] */, %p118: Tensor[(1024, 4096), float16] /* ty=Tensor[(1024, 4096), float16] */, Primitive=1) -> Tensor[(8192, 1024), float16] {
    nn.dense(%p026, %p118, units=None, out_dtype="float16") /* ty=Tensor[(8192, 1024), float16] */
  } /* ty=fn (Tensor[(8192, 4096), float16], Tensor[(1024, 4096), float16]) -> Tensor[(8192, 1024), float16] */;
  %2664 = %2663(%2662, meta[relay.Constant][154] /* ty=Tensor[(1024, 4096), float16] span=/encoder/albert_layer_groups.0/albert_layers.0/ffn_output_22/MatMul:0:0 */) /* ty=Tensor[(8192, 1024), float16] */;
  %2665 = fn (%p025: Tensor[(8192, 1024), float16] /* ty=Tensor[(8192, 1024), float16] */, %p117: Tensor[(1024), float16] /* ty=Tensor[(1024), float16] */, %p27: Tensor[(32, 256, 1024), float32] /* ty=Tensor[(32, 256, 1024), float32] */, Primitive=1) -> Tensor[(32, 256, 1024), float32] {
    %46 = reshape(%p025, newshape=[32, 256, 1024]) /* ty=Tensor[(32, 256, 1024), float16] */;
    %47 = add(%p117, %46) /* ty=Tensor[(32, 256, 1024), float16] */;
    %48 = cast(%47, dtype="float32") /* ty=Tensor[(32, 256, 1024), float32] */;
    add(%48, %p27) /* ty=Tensor[(32, 256, 1024), float32] */
  } /* ty=fn (Tensor[(8192, 1024), float16], Tensor[(1024), float16], Tensor[(32, 256, 1024), float32]) -> Tensor[(32, 256, 1024), float32] */;
  %2666 = %2665(%2664, meta[relay.Constant][20] /* ty=Tensor[(1024), float16] span=Identity_1:0:0 */, %2656) /* ty=Tensor[(32, 256, 1024), float32] */;
  %2667 = fn (%p0719: Tensor[(32, 256, 1024), float32] /* ty=Tensor[(32, 256, 1024), float32] */, Primitive=1) -> Tensor[(32, 256, 1), float32] {
    mean(%p0719, axis=[-1], keepdims=True) /* ty=Tensor[(32, 256, 1), float32] */
  } /* ty=fn (Tensor[(32, 256, 1024), float32]) -> Tensor[(32, 256, 1), float32] */;
  %2668 = %2667(%2666) /* ty=Tensor[(32, 256, 1), float32] */;
  %2669 = fn (%p024: Tensor[(32, 256, 1024), float32] /* ty=Tensor[(32, 256, 1024), float32] */, %p116: Tensor[(32, 256, 1), float32] /* ty=Tensor[(32, 256, 1), float32] */, Primitive=1) -> Tensor[(32, 256, 1024), float32] {
    subtract(%p024, %p116) /* ty=Tensor[(32, 256, 1024), float32] */
  } /* ty=fn (Tensor[(32, 256, 1024), float32], Tensor[(32, 256, 1), float32]) -> Tensor[(32, 256, 1024), float32] */;
  %2670 = %2669(%2666, %2668) /* ty=Tensor[(32, 256, 1024), float32] */;
  %2671 = fn (%p023: Tensor[(32, 256, 1024), float32] /* ty=Tensor[(32, 256, 1024), float32] */, Primitive=1) -> Tensor[(32, 256, 1), float32] {
    %45 = power(%p023, 2f /* ty=float32 */) /* ty=Tensor[(32, 256, 1024), float32] */;
    mean(%45, axis=[-1], keepdims=True) /* ty=Tensor[(32, 256, 1), float32] */
  } /* ty=fn (Tensor[(32, 256, 1024), float32]) -> Tensor[(32, 256, 1), float32] */;
  %2672 = %2671(%2670) /* ty=Tensor[(32, 256, 1), float32] */;
  %2673 = fn (%p022: Tensor[(32, 256, 1), float32] /* ty=Tensor[(32, 256, 1), float32] */, %p115: Tensor[(32, 256, 1024), float32] /* ty=Tensor[(32, 256, 1024), float32] */, %p26: Tensor[(1024), float32] /* ty=Tensor[(1024), float32] */, %p32: Tensor[(1024), float32] /* ty=Tensor[(1024), float32] */, Primitive=1) -> Tensor[(32, 256, 1024), float32] {
    %41 = add(%p022, 1.19209e-07f /* ty=float32 */) /* ty=Tensor[(32, 256, 1), float32] */;
    %42 = rsqrt(%41) /* ty=Tensor[(32, 256, 1), float32] */;
    %43 = multiply(%p115, %42) /* ty=Tensor[(32, 256, 1024), float32] */;
    %44 = multiply(%43, %p26) /* ty=Tensor[(32, 256, 1024), float32] */;
    add(%44, %p32) /* ty=Tensor[(32, 256, 1024), float32] */
  } /* ty=fn (Tensor[(32, 256, 1), float32], Tensor[(32, 256, 1024), float32], Tensor[(1024), float32], Tensor[(1024), float32]) -> Tensor[(32, 256, 1024), float32] */;
  %2674 = %2673(%2672, %2670, meta[relay.Constant][21] /* ty=Tensor[(1024), float32] */, meta[relay.Constant][22] /* ty=Tensor[(1024), float32] */) /* ty=Tensor[(32, 256, 1024), float32] */;
  %2675 = fn (%p021: Tensor[(32, 256, 1024), float32] /* ty=Tensor[(32, 256, 1024), float32] */, Primitive=1) -> Tensor[(8192, 1024), float16] {
    %40 = reshape(%p021, newshape=[-1, 1024]) /* ty=Tensor[(8192, 1024), float32] */;
    cast(%40, dtype="float16") /* ty=Tensor[(8192, 1024), float16] */
  } /* ty=fn (Tensor[(32, 256, 1024), float32]) -> Tensor[(8192, 1024), float16] */;
  %2676 = %2675(%2674) /* ty=Tensor[(8192, 1024), float16] */;
  %2677 = fn (%p020: Tensor[(8192, 1024), float16] /* ty=Tensor[(8192, 1024), float16] */, %p114: Tensor[(1024, 1024), float16] /* ty=Tensor[(1024, 1024), float16] */, Primitive=1) -> Tensor[(8192, 1024), float16] {
    nn.dense(%p020, %p114, units=None, out_dtype="float16") /* ty=Tensor[(8192, 1024), float16] */
  } /* ty=fn (Tensor[(8192, 1024), float16], Tensor[(1024, 1024), float16]) -> Tensor[(8192, 1024), float16] */;
  %2678 = %2677(%2676, meta[relay.Constant][155] /* ty=Tensor[(1024, 1024), float16] span=/encoder/albert_layer_groups.0/albert_layers.0/attention/query_23/MatMul:0:0 */) /* ty=Tensor[(8192, 1024), float16] */;
  %2679 = fn (%p019: Tensor[(8192, 1024), float16] /* ty=Tensor[(8192, 1024), float16] */, %p113: Tensor[(1024), float16] /* ty=Tensor[(1024), float16] */, Primitive=1) -> Tensor[(512, 256, 64), float16] {
    %36 = reshape(%p019, newshape=[32, 256, 1024]) /* ty=Tensor[(32, 256, 1024), float16] */;
    %37 = add(%p113, %36) /* ty=Tensor[(32, 256, 1024), float16] */;
    %38 = reshape(%37, newshape=[32, 256, 16, 64]) /* ty=Tensor[(32, 256, 16, 64), float16] */;
    %39 = transpose(%38, axes=[0, 2, 1, 3]) /* ty=Tensor[(32, 16, 256, 64), float16] */;
    reshape(%39, newshape=[-1, 256, 64]) /* ty=Tensor[(512, 256, 64), float16] */
  } /* ty=fn (Tensor[(8192, 1024), float16], Tensor[(1024), float16]) -> Tensor[(512, 256, 64), float16] */;
  %2686 = fn (%p0722: Tensor[(32, 256, 1024), float32] /* ty=Tensor[(32, 256, 1024), float32] */, Primitive=1) -> Tensor[(8192, 1024), float16] {
    %2685 = reshape(%p0722, newshape=[-1, 1024]) /* ty=Tensor[(8192, 1024), float32] */;
    cast(%2685, dtype="float16") /* ty=Tensor[(8192, 1024), float16] */
  } /* ty=fn (Tensor[(32, 256, 1024), float32]) -> Tensor[(8192, 1024), float16] */;
  %2687 = %2686(%2674) /* ty=Tensor[(8192, 1024), float16] */;
  %2688 = fn (%p0721: Tensor[(8192, 1024), float16] /* ty=Tensor[(8192, 1024), float16] */, %p1459: Tensor[(1024, 1024), float16] /* ty=Tensor[(1024, 1024), float16] */, Primitive=1) -> Tensor[(8192, 1024), float16] {
    nn.dense(%p0721, %p1459, units=None, out_dtype="float16") /* ty=Tensor[(8192, 1024), float16] */
  } /* ty=fn (Tensor[(8192, 1024), float16], Tensor[(1024, 1024), float16]) -> Tensor[(8192, 1024), float16] */;
  %2689 = %2688(%2687, meta[relay.Constant][156] /* ty=Tensor[(1024, 1024), float16] span=/encoder/albert_layer_groups.0/albert_layers.0/attention/key_23/MatMul:0:0 */) /* ty=Tensor[(8192, 1024), float16] */;
  %2690 = fn (%p0720: Tensor[(8192, 1024), float16] /* ty=Tensor[(8192, 1024), float16] */, %p1458: Tensor[(1024), float16] /* ty=Tensor[(1024), float16] */, Primitive=1) -> Tensor[(512, 256, 64), float16] {
    %2680 = reshape(%p0720, newshape=[32, 256, 1024]) /* ty=Tensor[(32, 256, 1024), float16] */;
    %2681 = add(%p1458, %2680) /* ty=Tensor[(32, 256, 1024), float16] */;
    %2682 = reshape(%2681, newshape=[32, 256, 16, 64]) /* ty=Tensor[(32, 256, 16, 64), float16] */;
    %2683 = transpose(%2682, axes=[0, 2, 3, 1]) /* ty=Tensor[(32, 16, 64, 256), float16] */;
    %2684 = reshape(%2683, newshape=[-1, 64, 256]) /* ty=Tensor[(512, 64, 256), float16] */;
    transpose(%2684, axes=[0, 2, 1]) /* ty=Tensor[(512, 256, 64), float16] */
  } /* ty=fn (Tensor[(8192, 1024), float16], Tensor[(1024), float16]) -> Tensor[(512, 256, 64), float16] */;
  %2691 = %2679(%2678, meta[relay.Constant][8] /* ty=Tensor[(1024), float16] span=Identity_7:0:0 */) /* ty=Tensor[(512, 256, 64), float16] */;
  %2692 = %2690(%2689, meta[relay.Constant][10] /* ty=Tensor[(1024), float16] span=Identity_6:0:0 */) /* ty=Tensor[(512, 256, 64), float16] */;
  %2693 = fn (%p018: Tensor[(512, 256, 64), float16] /* ty=Tensor[(512, 256, 64), float16] */, %p112: Tensor[(512, 256, 64), float16] /* ty=Tensor[(512, 256, 64), float16] */, Primitive=1) -> Tensor[(512, 256, 256), float16] {
    nn.batch_matmul(%p018, %p112, out_dtype="float16", transpose_b=True) /* ty=Tensor[(512, 256, 256), float16] */
  } /* ty=fn (Tensor[(512, 256, 64), float16], Tensor[(512, 256, 64), float16]) -> Tensor[(512, 256, 256), float16] */;
  %2694 = %2693(%2691, %2692) /* ty=Tensor[(512, 256, 256), float16] */;
  %2695 = fn (%p017: Tensor[(512, 256, 256), float16] /* ty=Tensor[(512, 256, 256), float16] */, %p111: float16 /* ty=float16 */, %p25: Tensor[(32, 1, 1, 256), float16] /* ty=Tensor[(32, 1, 1, 256), float16] */, Primitive=1) -> Tensor[(32, 16, 256, 256), float32] {
    %33 = reshape(%p017, newshape=[32, 16, 256, 256]) /* ty=Tensor[(32, 16, 256, 256), float16] */;
    %34 = divide(%33, %p111) /* ty=Tensor[(32, 16, 256, 256), float16] */;
    %35 = add(%34, %p25) /* ty=Tensor[(32, 16, 256, 256), float16] */;
    cast(%35, dtype="float32") /* ty=Tensor[(32, 16, 256, 256), float32] */
  } /* ty=fn (Tensor[(512, 256, 256), float16], float16, Tensor[(32, 1, 1, 256), float16]) -> Tensor[(32, 16, 256, 256), float32] */;
  %2696 = %2695(%2694, 8f16 /* ty=float16 span=/encoder/albert_layer_groups.0/albert_layers.0/attention_23/Constant_6:0:0 */, %1039) /* ty=Tensor[(32, 16, 256, 256), float32] */;
  %2697 = fn (%p016: Tensor[(32, 16, 256, 256), float32] /* ty=Tensor[(32, 16, 256, 256), float32] */, Primitive=1) -> Tensor[(32, 16, 256, 256), float32] {
    nn.softmax(%p016, axis=3) /* ty=Tensor[(32, 16, 256, 256), float32] */
  } /* ty=fn (Tensor[(32, 16, 256, 256), float32]) -> Tensor[(32, 16, 256, 256), float32] */;
  %2698 = %2697(%2696) /* ty=Tensor[(32, 16, 256, 256), float32] */;
  %2699 = fn (%p015: Tensor[(32, 16, 256, 256), float32] /* ty=Tensor[(32, 16, 256, 256), float32] */, Primitive=1) -> Tensor[(512, 256, 256), float16] {
    %32 = reshape(%p015, newshape=[-1, 256, 256]) /* ty=Tensor[(512, 256, 256), float32] */;
    cast(%32, dtype="float16") /* ty=Tensor[(512, 256, 256), float16] */
  } /* ty=fn (Tensor[(32, 16, 256, 256), float32]) -> Tensor[(512, 256, 256), float16] */;
  %2706 = fn (%p0725: Tensor[(32, 256, 1024), float32] /* ty=Tensor[(32, 256, 1024), float32] */, Primitive=1) -> Tensor[(8192, 1024), float16] {
    %2705 = reshape(%p0725, newshape=[-1, 1024]) /* ty=Tensor[(8192, 1024), float32] */;
    cast(%2705, dtype="float16") /* ty=Tensor[(8192, 1024), float16] */
  } /* ty=fn (Tensor[(32, 256, 1024), float32]) -> Tensor[(8192, 1024), float16] */;
  %2707 = %2706(%2674) /* ty=Tensor[(8192, 1024), float16] */;
  %2708 = fn (%p0724: Tensor[(8192, 1024), float16] /* ty=Tensor[(8192, 1024), float16] */, %p1461: Tensor[(1024, 1024), float16] /* ty=Tensor[(1024, 1024), float16] */, Primitive=1) -> Tensor[(8192, 1024), float16] {
    nn.dense(%p0724, %p1461, units=None, out_dtype="float16") /* ty=Tensor[(8192, 1024), float16] */
  } /* ty=fn (Tensor[(8192, 1024), float16], Tensor[(1024, 1024), float16]) -> Tensor[(8192, 1024), float16] */;
  %2709 = %2708(%2707, meta[relay.Constant][157] /* ty=Tensor[(1024, 1024), float16] span=/encoder/albert_layer_groups.0/albert_layers.0/attention/value_23/MatMul:0:0 */) /* ty=Tensor[(8192, 1024), float16] */;
  %2710 = fn (%p0723: Tensor[(8192, 1024), float16] /* ty=Tensor[(8192, 1024), float16] */, %p1460: Tensor[(1024), float16] /* ty=Tensor[(1024), float16] */, Primitive=1) -> Tensor[(512, 64, 256), float16] {
    %2700 = reshape(%p0723, newshape=[32, 256, 1024]) /* ty=Tensor[(32, 256, 1024), float16] */;
    %2701 = add(%p1460, %2700) /* ty=Tensor[(32, 256, 1024), float16] */;
    %2702 = reshape(%2701, newshape=[32, 256, 16, 64]) /* ty=Tensor[(32, 256, 16, 64), float16] */;
    %2703 = transpose(%2702, axes=[0, 2, 1, 3]) /* ty=Tensor[(32, 16, 256, 64), float16] */;
    %2704 = reshape(%2703, newshape=[-1, 256, 64]) /* ty=Tensor[(512, 256, 64), float16] */;
    transpose(%2704, axes=[0, 2, 1]) /* ty=Tensor[(512, 64, 256), float16] */
  } /* ty=fn (Tensor[(8192, 1024), float16], Tensor[(1024), float16]) -> Tensor[(512, 64, 256), float16] */;
  %2711 = %2699(%2698) /* ty=Tensor[(512, 256, 256), float16] */;
  %2712 = %2710(%2709, meta[relay.Constant][12] /* ty=Tensor[(1024), float16] span=Identity_5:0:0 */) /* ty=Tensor[(512, 64, 256), float16] */;
  %2713 = fn (%p014: Tensor[(512, 256, 256), float16] /* ty=Tensor[(512, 256, 256), float16] */, %p110: Tensor[(512, 64, 256), float16] /* ty=Tensor[(512, 64, 256), float16] */, Primitive=1) -> Tensor[(512, 256, 64), float16] {
    nn.batch_matmul(%p014, %p110, out_dtype="float16", transpose_b=True) /* ty=Tensor[(512, 256, 64), float16] */
  } /* ty=fn (Tensor[(512, 256, 256), float16], Tensor[(512, 64, 256), float16]) -> Tensor[(512, 256, 64), float16] */;
  %2714 = %2713(%2711, %2712) /* ty=Tensor[(512, 256, 64), float16] */;
  %2715 = fn (%p013: Tensor[(512, 256, 64), float16] /* ty=Tensor[(512, 256, 64), float16] */, Primitive=1) -> Tensor[(8192, 1024), float16] {
    %30 = reshape(%p013, newshape=[32, 16, 256, 64]) /* ty=Tensor[(32, 16, 256, 64), float16] */;
    %31 = transpose(%30, axes=[0, 2, 1, 3]) /* ty=Tensor[(32, 256, 16, 64), float16] */;
    reshape(%31, newshape=[8192, 1024]) /* ty=Tensor[(8192, 1024), float16] */
  } /* ty=fn (Tensor[(512, 256, 64), float16]) -> Tensor[(8192, 1024), float16] */;
  %2716 = %2715(%2714) /* ty=Tensor[(8192, 1024), float16] */;
  %2717 = fn (%p012: Tensor[(8192, 1024), float16] /* ty=Tensor[(8192, 1024), float16] */, %p19: Tensor[(1024, 1024), float16] /* ty=Tensor[(1024, 1024), float16] */, Primitive=1) -> Tensor[(8192, 1024), float16] {
    nn.dense(%p012, %p19, units=None, out_dtype="float16") /* ty=Tensor[(8192, 1024), float16] */
  } /* ty=fn (Tensor[(8192, 1024), float16], Tensor[(1024, 1024), float16]) -> Tensor[(8192, 1024), float16] */;
  %2718 = %2717(%2716, meta[relay.Constant][158] /* ty=Tensor[(1024, 1024), float16] span=/encoder/albert_layer_groups.0/albert_layers.0/attention/dense_23/MatMul:0:0 */) /* ty=Tensor[(8192, 1024), float16] */;
  %2719 = fn (%p011: Tensor[(8192, 1024), float16] /* ty=Tensor[(8192, 1024), float16] */, %p18: Tensor[(1024), float16] /* ty=Tensor[(1024), float16] */, %p24: Tensor[(32, 256, 1024), float32] /* ty=Tensor[(32, 256, 1024), float32] */, Primitive=1) -> Tensor[(32, 256, 1024), float32] {
    %27 = reshape(%p011, newshape=[32, 256, 1024]) /* ty=Tensor[(32, 256, 1024), float16] */;
    %28 = add(%p18, %27) /* ty=Tensor[(32, 256, 1024), float16] */;
    %29 = cast(%28, dtype="float32") /* ty=Tensor[(32, 256, 1024), float32] */;
    add(%p24, %29) /* ty=Tensor[(32, 256, 1024), float32] */
  } /* ty=fn (Tensor[(8192, 1024), float16], Tensor[(1024), float16], Tensor[(32, 256, 1024), float32]) -> Tensor[(32, 256, 1024), float32] */;
  %2720 = %2719(%2718, meta[relay.Constant][14] /* ty=Tensor[(1024), float16] span=Identity_4:0:0 */, %2674) /* ty=Tensor[(32, 256, 1024), float32] */;
  %2721 = fn (%p0726: Tensor[(32, 256, 1024), float32] /* ty=Tensor[(32, 256, 1024), float32] */, Primitive=1) -> Tensor[(32, 256, 1), float32] {
    mean(%p0726, axis=[-1], keepdims=True) /* ty=Tensor[(32, 256, 1), float32] */
  } /* ty=fn (Tensor[(32, 256, 1024), float32]) -> Tensor[(32, 256, 1), float32] */;
  %2722 = %2721(%2720) /* ty=Tensor[(32, 256, 1), float32] */;
  %2723 = fn (%p010: Tensor[(32, 256, 1024), float32] /* ty=Tensor[(32, 256, 1024), float32] */, %p17: Tensor[(32, 256, 1), float32] /* ty=Tensor[(32, 256, 1), float32] */, Primitive=1) -> Tensor[(32, 256, 1024), float32] {
    subtract(%p010, %p17) /* ty=Tensor[(32, 256, 1024), float32] */
  } /* ty=fn (Tensor[(32, 256, 1024), float32], Tensor[(32, 256, 1), float32]) -> Tensor[(32, 256, 1024), float32] */;
  %2724 = %2723(%2720, %2722) /* ty=Tensor[(32, 256, 1024), float32] */;
  %2725 = fn (%p09: Tensor[(32, 256, 1024), float32] /* ty=Tensor[(32, 256, 1024), float32] */, Primitive=1) -> Tensor[(32, 256, 1), float32] {
    %26 = power(%p09, 2f /* ty=float32 */) /* ty=Tensor[(32, 256, 1024), float32] */;
    mean(%26, axis=[-1], keepdims=True) /* ty=Tensor[(32, 256, 1), float32] */
  } /* ty=fn (Tensor[(32, 256, 1024), float32]) -> Tensor[(32, 256, 1), float32] */;
  %2726 = %2725(%2724) /* ty=Tensor[(32, 256, 1), float32] */;
  %2727 = fn (%p08: Tensor[(32, 256, 1), float32] /* ty=Tensor[(32, 256, 1), float32] */, %p16: Tensor[(32, 256, 1024), float32] /* ty=Tensor[(32, 256, 1024), float32] */, %p23: Tensor[(1024), float32] /* ty=Tensor[(1024), float32] */, %p31: Tensor[(1024), float32] /* ty=Tensor[(1024), float32] */, Primitive=1) -> Tensor[(32, 256, 1024), float32] {
    %22 = add(%p08, 1.19209e-07f /* ty=float32 */) /* ty=Tensor[(32, 256, 1), float32] */;
    %23 = rsqrt(%22) /* ty=Tensor[(32, 256, 1), float32] */;
    %24 = multiply(%p16, %23) /* ty=Tensor[(32, 256, 1024), float32] */;
    %25 = multiply(%24, %p23) /* ty=Tensor[(32, 256, 1024), float32] */;
    add(%25, %p31) /* ty=Tensor[(32, 256, 1024), float32] */
  } /* ty=fn (Tensor[(32, 256, 1), float32], Tensor[(32, 256, 1024), float32], Tensor[(1024), float32], Tensor[(1024), float32]) -> Tensor[(32, 256, 1024), float32] */;
  %2728 = %2727(%2726, %2724, meta[relay.Constant][15] /* ty=Tensor[(1024), float32] */, meta[relay.Constant][16] /* ty=Tensor[(1024), float32] */) /* ty=Tensor[(32, 256, 1024), float32] */;
  %2729 = fn (%p07: Tensor[(32, 256, 1024), float32] /* ty=Tensor[(32, 256, 1024), float32] */, Primitive=1) -> Tensor[(8192, 1024), float16] {
    %21 = reshape(%p07, newshape=[-1, 1024]) /* ty=Tensor[(8192, 1024), float32] */;
    cast(%21, dtype="float16") /* ty=Tensor[(8192, 1024), float16] */
  } /* ty=fn (Tensor[(32, 256, 1024), float32]) -> Tensor[(8192, 1024), float16] */;
  %2730 = %2729(%2728) /* ty=Tensor[(8192, 1024), float16] */;
  %2731 = fn (%p06: Tensor[(8192, 1024), float16] /* ty=Tensor[(8192, 1024), float16] */, %p15: Tensor[(4096, 1024), float16] /* ty=Tensor[(4096, 1024), float16] */, Primitive=1) -> Tensor[(8192, 4096), float16] {
    nn.dense(%p06, %p15, units=None, out_dtype="float16") /* ty=Tensor[(8192, 4096), float16] */
  } /* ty=fn (Tensor[(8192, 1024), float16], Tensor[(4096, 1024), float16]) -> Tensor[(8192, 4096), float16] */;
  %2732 = %2731(%2730, meta[relay.Constant][159] /* ty=Tensor[(4096, 1024), float16] span=/encoder/albert_layer_groups.0/albert_layers.0/ffn_23/MatMul:0:0 */) /* ty=Tensor[(8192, 4096), float16] */;
  %2733 = fn (%p05: Tensor[(8192, 4096), float16] /* ty=Tensor[(8192, 4096), float16] */, %p14: Tensor[(4096), float16] /* ty=Tensor[(4096), float16] */, %p22: float16 /* ty=float16 */, Primitive=1) -> Tensor[(8192, 4096), float16] {
    %8 = reshape(%p05, newshape=[32, 256, 4096]) /* ty=Tensor[(32, 256, 4096), float16] */;
    %9 = add(%p14, %8) /* ty=Tensor[(32, 256, 4096), float16] */;
    %10 = multiply(%9, %p22) /* ty=Tensor[(32, 256, 4096), float16] */;
    %11 = cast(%9, dtype="float32") /* ty=Tensor[(32, 256, 4096), float32] */;
    %12 = power(%11, 3f /* ty=float32 */) /* ty=Tensor[(32, 256, 4096), float32] */;
    %13 = multiply(%12, 0.0447083f /* ty=float32 */) /* ty=Tensor[(32, 256, 4096), float32] */;
    %14 = add(%11, %13) /* ty=Tensor[(32, 256, 4096), float32] */;
    %15 = multiply(%14, 0.797852f /* ty=float32 */) /* ty=Tensor[(32, 256, 4096), float32] */;
    %16 = tanh(%15) /* ty=Tensor[(32, 256, 4096), float32] */;
    %17 = cast(%10, dtype="float32") /* ty=Tensor[(32, 256, 4096), float32] */;
    %18 = add(%16, 1f /* ty=float32 */) /* ty=Tensor[(32, 256, 4096), float32] */;
    %19 = multiply(%17, %18) /* ty=Tensor[(32, 256, 4096), float32] */;
    %20 = reshape(%19, newshape=[-1, 4096]) /* ty=Tensor[(8192, 4096), float32] */;
    cast(%20, dtype="float16") /* ty=Tensor[(8192, 4096), float16] */
  } /* ty=fn (Tensor[(8192, 4096), float16], Tensor[(4096), float16], float16) -> Tensor[(8192, 4096), float16] */;
  %2734 = %2733(%2732, meta[relay.Constant][18] /* ty=Tensor[(4096), float16] span=/encoder/albert_layer_groups.0/albert_layers.0/ffn/Add.encoder.albert_layer_groups.0.albert_layers.0.ffn.bias:0:0 */, 0.5f16 /* ty=float16 span=/encoder/albert_layer_groups.0/albert_layers.0/activation_23/Constant:0:0 */) /* ty=Tensor[(8192, 4096), float16] */;
  %2735 = fn (%p04: Tensor[(8192, 4096), float16] /* ty=Tensor[(8192, 4096), float16] */, %p13: Tensor[(1024, 4096), float16] /* ty=Tensor[(1024, 4096), float16] */, Primitive=1) -> Tensor[(8192, 1024), float16] {
    nn.dense(%p04, %p13, units=None, out_dtype="float16") /* ty=Tensor[(8192, 1024), float16] */
  } /* ty=fn (Tensor[(8192, 4096), float16], Tensor[(1024, 4096), float16]) -> Tensor[(8192, 1024), float16] */;
  %2736 = %2735(%2734, meta[relay.Constant][160] /* ty=Tensor[(1024, 4096), float16] span=/encoder/albert_layer_groups.0/albert_layers.0/ffn_output_23/MatMul:0:0 */) /* ty=Tensor[(8192, 1024), float16] */;
  %2737 = fn (%p03: Tensor[(8192, 1024), float16] /* ty=Tensor[(8192, 1024), float16] */, %p12: Tensor[(1024), float16] /* ty=Tensor[(1024), float16] */, %p21: Tensor[(32, 256, 1024), float32] /* ty=Tensor[(32, 256, 1024), float32] */, Primitive=1) -> Tensor[(32, 256, 1024), float32] {
    %5 = reshape(%p03, newshape=[32, 256, 1024]) /* ty=Tensor[(32, 256, 1024), float16] */;
    %6 = add(%p12, %5) /* ty=Tensor[(32, 256, 1024), float16] */;
    %7 = cast(%6, dtype="float32") /* ty=Tensor[(32, 256, 1024), float32] */;
    add(%7, %p21) /* ty=Tensor[(32, 256, 1024), float32] */
  } /* ty=fn (Tensor[(8192, 1024), float16], Tensor[(1024), float16], Tensor[(32, 256, 1024), float32]) -> Tensor[(32, 256, 1024), float32] */;
  %2738 = %2737(%2736, meta[relay.Constant][20] /* ty=Tensor[(1024), float16] span=Identity_1:0:0 */, %2728) /* ty=Tensor[(32, 256, 1024), float32] */;
  %2739 = fn (%p0727: Tensor[(32, 256, 1024), float32] /* ty=Tensor[(32, 256, 1024), float32] */, Primitive=1) -> Tensor[(32, 256, 1), float32] {
    mean(%p0727, axis=[-1], keepdims=True) /* ty=Tensor[(32, 256, 1), float32] */
  } /* ty=fn (Tensor[(32, 256, 1024), float32]) -> Tensor[(32, 256, 1), float32] */;
  %2740 = %2739(%2738) /* ty=Tensor[(32, 256, 1), float32] */;
  %2741 = fn (%p02: Tensor[(32, 256, 1024), float32] /* ty=Tensor[(32, 256, 1024), float32] */, %p11: Tensor[(32, 256, 1), float32] /* ty=Tensor[(32, 256, 1), float32] */, Primitive=1) -> Tensor[(32, 256, 1024), float32] {
    subtract(%p02, %p11) /* ty=Tensor[(32, 256, 1024), float32] */
  } /* ty=fn (Tensor[(32, 256, 1024), float32], Tensor[(32, 256, 1), float32]) -> Tensor[(32, 256, 1024), float32] */;
  %2742 = %2741(%2738, %2740) /* ty=Tensor[(32, 256, 1024), float32] */;
  %2743 = fn (%p01: Tensor[(32, 256, 1024), float32] /* ty=Tensor[(32, 256, 1024), float32] */, Primitive=1) -> Tensor[(32, 256, 1), float32] {
    %4 = power(%p01, 2f /* ty=float32 */) /* ty=Tensor[(32, 256, 1024), float32] */;
    mean(%4, axis=[-1], keepdims=True) /* ty=Tensor[(32, 256, 1), float32] */
  } /* ty=fn (Tensor[(32, 256, 1024), float32]) -> Tensor[(32, 256, 1), float32] */;
  %2744 = %2743(%2742) /* ty=Tensor[(32, 256, 1), float32] */;
  %2745 = fn (%p0: Tensor[(32, 256, 1), float32] /* ty=Tensor[(32, 256, 1), float32] */, %p1: Tensor[(32, 256, 1024), float32] /* ty=Tensor[(32, 256, 1024), float32] */, %p2: Tensor[(1024), float32] /* ty=Tensor[(1024), float32] */, %p3: Tensor[(1024), float32] /* ty=Tensor[(1024), float32] */, Primitive=1) -> Tensor[(32, 256, 1024), float32] {
    %0 = add(%p0, 1.19209e-07f /* ty=float32 */) /* ty=Tensor[(32, 256, 1), float32] */;
    %1 = rsqrt(%0) /* ty=Tensor[(32, 256, 1), float32] */;
    %2 = multiply(%p1, %1) /* ty=Tensor[(32, 256, 1024), float32] */;
    %3 = multiply(%2, %p2) /* ty=Tensor[(32, 256, 1024), float32] */;
    add(%3, %p3) /* ty=Tensor[(32, 256, 1024), float32] */
  } /* ty=fn (Tensor[(32, 256, 1), float32], Tensor[(32, 256, 1024), float32], Tensor[(1024), float32], Tensor[(1024), float32]) -> Tensor[(32, 256, 1024), float32] */;
  %2749 = %2745(%2744, %2742, meta[relay.Constant][21] /* ty=Tensor[(1024), float32] */, meta[relay.Constant][22] /* ty=Tensor[(1024), float32] */) /* ty=Tensor[(32, 256, 1024), float32] */;
  %2750 = fn (%p0729: Tensor[(32, 256, 1024), float32] /* ty=Tensor[(32, 256, 1024), float32] */, Primitive=1) -> Tensor[(32, 1024), float16] {
    %2748 = take(%p0729, 0i64 /* ty=int64 span=/embeddings/Constant:0:0 */, axis=1) /* ty=Tensor[(32, 1024), float32] */;
    cast(%2748, dtype="float16") /* ty=Tensor[(32, 1024), float16] */
  } /* ty=fn (Tensor[(32, 256, 1024), float32]) -> Tensor[(32, 1024), float16] */;
  %2751 = %2750(%2749) /* ty=Tensor[(32, 1024), float16] */;
  %2752 = fn (%p0728: Tensor[(32, 1024), float16] /* ty=Tensor[(32, 1024), float16] */, %p1462: Tensor[(1024, 1024), float16] /* ty=Tensor[(1024, 1024), float16] */, %p2147: Tensor[(1, 1024), float16] /* ty=Tensor[(1, 1024), float16] */, Primitive=1) -> Tensor[(32, 1024), float16] {
    %2746 = nn.dense(%p0728, %p1462, units=1024, out_dtype="float16") /* ty=Tensor[(32, 1024), float16] */;
    %2747 = add(%2746, %p2147) /* ty=Tensor[(32, 1024), float16] */;
    tanh(%2747) /* ty=Tensor[(32, 1024), float16] */
  } /* ty=fn (Tensor[(32, 1024), float16], Tensor[(1024, 1024), float16], Tensor[(1, 1024), float16]) -> Tensor[(32, 1024), float16] */;
  %2753 = %2752(%2751, meta[relay.Constant][161] /* ty=Tensor[(1024, 1024), float16] span=/pooler/Gemm.pooler.weight:0:0 */, meta[relay.Constant][162] /* ty=Tensor[(1, 1024), float16] */) /* ty=Tensor[(32, 1024), float16] */;
  (%2749, %2753) /* ty=(Tensor[(32, 256, 1024), float32], Tensor[(32, 1024), float16]) */
}


