type List[A] {
  Cons(A, List[A]),
  Nil,
}

type Option[A] {
  Some(A),
  None,
}

type Tree[A] {
  Rose(A, List[Tree[A]]),
}

type tensor_float16_t {
  tensor_nil_float16,
  tensor0_float16(float16),
  tensor1_float16(Tensor[(?), float16]),
  tensor2_float16(Tensor[(?, ?), float16]),
  tensor3_float16(Tensor[(?, ?, ?), float16]),
  tensor4_float16(Tensor[(?, ?, ?, ?), float16]),
  tensor5_float16(Tensor[(?, ?, ?, ?, ?), float16]),
  tensor6_float16(Tensor[(?, ?, ?, ?, ?, ?), float16]),
}

type tensor_float32_t {
  tensor_nil_float32,
  tensor0_float32(float32),
  tensor1_float32(Tensor[(?), float32]),
  tensor2_float32(Tensor[(?, ?), float32]),
  tensor3_float32(Tensor[(?, ?, ?), float32]),
  tensor4_float32(Tensor[(?, ?, ?, ?), float32]),
  tensor5_float32(Tensor[(?, ?, ?, ?, ?), float32]),
  tensor6_float32(Tensor[(?, ?, ?, ?, ?, ?), float32]),
}

type tensor_float64_t {
  tensor_nil_float64,
  tensor0_float64(float64),
  tensor1_float64(Tensor[(?), float64]),
  tensor2_float64(Tensor[(?, ?), float64]),
  tensor3_float64(Tensor[(?, ?, ?), float64]),
  tensor4_float64(Tensor[(?, ?, ?, ?), float64]),
  tensor5_float64(Tensor[(?, ?, ?, ?, ?), float64]),
  tensor6_float64(Tensor[(?, ?, ?, ?, ?, ?), float64]),
}

type tensor_int16_t {
  tensor_nil_int16,
  tensor0_int16(int16),
  tensor1_int16(Tensor[(?), int16]),
  tensor2_int16(Tensor[(?, ?), int16]),
  tensor3_int16(Tensor[(?, ?, ?), int16]),
  tensor4_int16(Tensor[(?, ?, ?, ?), int16]),
  tensor5_int16(Tensor[(?, ?, ?, ?, ?), int16]),
  tensor6_int16(Tensor[(?, ?, ?, ?, ?, ?), int16]),
}

type tensor_int32_t {
  tensor_nil_int32,
  tensor0_int32(int32),
  tensor1_int32(Tensor[(?), int32]),
  tensor2_int32(Tensor[(?, ?), int32]),
  tensor3_int32(Tensor[(?, ?, ?), int32]),
  tensor4_int32(Tensor[(?, ?, ?, ?), int32]),
  tensor5_int32(Tensor[(?, ?, ?, ?, ?), int32]),
  tensor6_int32(Tensor[(?, ?, ?, ?, ?, ?), int32]),
}

type tensor_int64_t {
  tensor_nil_int64,
  tensor0_int64(int64),
  tensor1_int64(Tensor[(?), int64]),
  tensor2_int64(Tensor[(?, ?), int64]),
  tensor3_int64(Tensor[(?, ?, ?), int64]),
  tensor4_int64(Tensor[(?, ?, ?, ?), int64]),
  tensor5_int64(Tensor[(?, ?, ?, ?, ?), int64]),
  tensor6_int64(Tensor[(?, ?, ?, ?, ?, ?), int64]),
}

type tensor_int8_t {
  tensor_nil_int8,
  tensor0_int8(int8),
  tensor1_int8(Tensor[(?), int8]),
  tensor2_int8(Tensor[(?, ?), int8]),
  tensor3_int8(Tensor[(?, ?, ?), int8]),
  tensor4_int8(Tensor[(?, ?, ?, ?), int8]),
  tensor5_int8(Tensor[(?, ?, ?, ?, ?), int8]),
  tensor6_int8(Tensor[(?, ?, ?, ?, ?, ?), int8]),
}

type tensor_uint16_t {
  tensor_nil_uint16,
  tensor0_uint16(uint16),
  tensor1_uint16(Tensor[(?), uint16]),
  tensor2_uint16(Tensor[(?, ?), uint16]),
  tensor3_uint16(Tensor[(?, ?, ?), uint16]),
  tensor4_uint16(Tensor[(?, ?, ?, ?), uint16]),
  tensor5_uint16(Tensor[(?, ?, ?, ?, ?), uint16]),
  tensor6_uint16(Tensor[(?, ?, ?, ?, ?, ?), uint16]),
}

type tensor_uint8_t {
  tensor_nil_uint8,
  tensor0_uint8(uint8),
  tensor1_uint8(Tensor[(?), uint8]),
  tensor2_uint8(Tensor[(?, ?), uint8]),
  tensor3_uint8(Tensor[(?, ?, ?), uint8]),
  tensor4_uint8(Tensor[(?, ?, ?, ?), uint8]),
  tensor5_uint8(Tensor[(?, ?, ?, ?, ?), uint8]),
  tensor6_uint8(Tensor[(?, ?, ?, ?, ?, ?), uint8]),
}

def @main(%input_ids: Tensor[(32, 256), int64] /* ty=Tensor[(32, 256), int64] span=aten::size_0.input_ids:0:0 */) -> (Tensor[(32, 256, 1024), float32], Tensor[(32, 1024), float16]) {
  %1112 = fn (%p0433: Tensor[(32, 256), int64] /* ty=Tensor[(32, 256), int64] */, %p1313: Tensor[(30522, 1024), float16] /* ty=Tensor[(30522, 1024), float16] */, %p2145: Tensor[(32, 256, 1024), float16] /* ty=Tensor[(32, 256, 1024), float16] */, Primitive=1) -> Tensor[(32, 256, 1024), float32] {
    %1109 = cast(%p0433, dtype="int32") /* ty=Tensor[(32, 256), int32] */;
    %1110 = take(%p1313, %1109, axis=0) /* ty=Tensor[(32, 256, 1024), float16] */;
    %1111 = add(%1110, %p2145) /* ty=Tensor[(32, 256, 1024), float16] */;
    cast(%1111, dtype="float32") /* ty=Tensor[(32, 256, 1024), float32] */
  } /* ty=fn (Tensor[(32, 256), int64], Tensor[(30522, 1024), float16], Tensor[(32, 256, 1024), float16]) -> Tensor[(32, 256, 1024), float32] */;
  %1113 = %1112(%input_ids, meta[relay.Constant][0] /* ty=Tensor[(30522, 1024), float16] */, meta[relay.Constant][1] /* ty=Tensor[(32, 256, 1024), float16] */) /* ty=Tensor[(32, 256, 1024), float32] */;
  %1114 = fn (%p0434: Tensor[(32, 256, 1024), float32] /* ty=Tensor[(32, 256, 1024), float32] */, Primitive=1) -> Tensor[(32, 256, 1), float32] {
    mean(%p0434, axis=[-1], keepdims=True) /* ty=Tensor[(32, 256, 1), float32] */
  } /* ty=fn (Tensor[(32, 256, 1024), float32]) -> Tensor[(32, 256, 1), float32] */;
  %1115 = %1114(%1113) /* ty=Tensor[(32, 256, 1), float32] */;
  %1116 = fn (%p0435: Tensor[(32, 256, 1024), float32] /* ty=Tensor[(32, 256, 1024), float32] */, %p1314: Tensor[(32, 256, 1), float32] /* ty=Tensor[(32, 256, 1), float32] */, Primitive=1) -> Tensor[(32, 256, 1), float32] {
    variance(%p0435, %p1314, axis=[-1], keepdims=True) /* ty=Tensor[(32, 256, 1), float32] */
  } /* ty=fn (Tensor[(32, 256, 1024), float32], Tensor[(32, 256, 1), float32]) -> Tensor[(32, 256, 1), float32] */;
  %1117 = %1116(%1113, %1115) /* ty=Tensor[(32, 256, 1), float32] */;
  %1118 = fn (%p0432: Tensor[(32, 256, 1024), float32] /* ty=Tensor[(32, 256, 1024), float32] */, %p1312: Tensor[(32, 256, 1), float32] /* ty=Tensor[(32, 256, 1), float32] */, %p2144: Tensor[(32, 256, 1), float32] /* ty=Tensor[(32, 256, 1), float32] */, %p372: Tensor[(1024), float32] /* ty=Tensor[(1024), float32] */, %p472: Tensor[(1024), float32] /* ty=Tensor[(1024), float32] */, Primitive=1) -> Tensor[(32, 256, 1024), float32] {
    %1104 = add(%p2144, 1e-12f /* ty=float32 */) /* ty=Tensor[(32, 256, 1), float32] */;
    %1105 = subtract(%p0432, %p1312) /* ty=Tensor[(32, 256, 1024), float32] */;
    %1106 = rsqrt(%1104) /* ty=Tensor[(32, 256, 1), float32] */;
    %1107 = multiply(%1105, %1106) /* ty=Tensor[(32, 256, 1024), float32] */;
    %1108 = multiply(%1107, %p372) /* ty=Tensor[(32, 256, 1024), float32] */;
    add(%1108, %p472) /* ty=Tensor[(32, 256, 1024), float32] */
  } /* ty=fn (Tensor[(32, 256, 1024), float32], Tensor[(32, 256, 1), float32], Tensor[(32, 256, 1), float32], Tensor[(1024), float32], Tensor[(1024), float32]) -> Tensor[(32, 256, 1024), float32] */;
  %1119 = %1118(%1113, %1115, %1117, meta[relay.Constant][2] /* ty=Tensor[(1024), float32] */, meta[relay.Constant][3] /* ty=Tensor[(1024), float32] */) /* ty=Tensor[(32, 256, 1024), float32] */;
  %1120 = fn (%p0431: Tensor[(32, 256, 1024), float32] /* ty=Tensor[(32, 256, 1024), float32] */, Primitive=1) -> Tensor[(32, 256, 1024), float16] {
    %1102 = broadcast_to(%p0431, shape=[32, 256, 1024]) /* ty=Tensor[(32, 256, 1024), float32] */;
    %1103 = reshape(%1102, newshape=[-1, 256, 1024]) /* ty=Tensor[(32, 256, 1024), float32] */;
    cast(%1103, dtype="float16") /* ty=Tensor[(32, 256, 1024), float16] */
  } /* ty=fn (Tensor[(32, 256, 1024), float32]) -> Tensor[(32, 256, 1024), float16] */;
  %1121 = %1120(%1119) /* ty=Tensor[(32, 256, 1024), float16] */;
  %1122 = fn (%p0430: Tensor[(32, 256, 1024), float16] /* ty=Tensor[(32, 256, 1024), float16] */, %p1311: Tensor[(32, 1024, 1024), float16] /* ty=Tensor[(32, 1024, 1024), float16] */, Primitive=1) -> Tensor[(32, 256, 1024), float16] {
    nn.batch_matmul(%p0430, %p1311, out_dtype="float16") /* ty=Tensor[(32, 256, 1024), float16] */
  } /* ty=fn (Tensor[(32, 256, 1024), float16], Tensor[(32, 1024, 1024), float16]) -> Tensor[(32, 256, 1024), float16] */;
  %1123 = %1122(%1121, meta[relay.Constant][4] /* ty=Tensor[(32, 1024, 1024), float16] */) /* ty=Tensor[(32, 256, 1024), float16] */;
  %1124 = fn (%p0429: Tensor[(32, 256, 1024), float16] /* ty=Tensor[(32, 256, 1024), float16] */, %p1310: Tensor[(1024), float16] /* ty=Tensor[(1024), float16] */, Primitive=1) -> Tensor[(512, 256, 64), float16] {
    %1096 = reshape(%p0429, newshape=[32, 256, 1024]) /* ty=Tensor[(32, 256, 1024), float16] */;
    %1097 = squeeze(%1096, axis=[]) /* ty=Tensor[(32, 256, 1024), float16] */;
    %1098 = add(%1097, %p1310) /* ty=Tensor[(32, 256, 1024), float16] */;
    %1099 = reshape(%1098, newshape=[32, 256, 16, 64]) /* ty=Tensor[(32, 256, 16, 64), float16] */;
    %1100 = transpose(%1099, axes=[0, 2, 1, 3]) /* ty=Tensor[(32, 16, 256, 64), float16] */;
    %1101 = broadcast_to(%1100, shape=[32, 16, 256, 64], dtype="float16") /* ty=Tensor[(32, 16, 256, 64), float16] */;
    reshape(%1101, newshape=[-1, 256, 64]) /* ty=Tensor[(512, 256, 64), float16] */
  } /* ty=fn (Tensor[(32, 256, 1024), float16], Tensor[(1024), float16]) -> Tensor[(512, 256, 64), float16] */;
  %1133 = fn (%p0438: Tensor[(32, 256, 1024), float32] /* ty=Tensor[(32, 256, 1024), float32] */, Primitive=1) -> Tensor[(32, 256, 1024), float16] {
    %1131 = broadcast_to(%p0438, shape=[32, 256, 1024]) /* ty=Tensor[(32, 256, 1024), float32] */;
    %1132 = reshape(%1131, newshape=[-1, 256, 1024]) /* ty=Tensor[(32, 256, 1024), float32] */;
    cast(%1132, dtype="float16") /* ty=Tensor[(32, 256, 1024), float16] */
  } /* ty=fn (Tensor[(32, 256, 1024), float32]) -> Tensor[(32, 256, 1024), float16] */;
  %1134 = %1133(%1119) /* ty=Tensor[(32, 256, 1024), float16] */;
  %1135 = fn (%p0437: Tensor[(32, 256, 1024), float16] /* ty=Tensor[(32, 256, 1024), float16] */, %p1316: Tensor[(32, 1024, 1024), float16] /* ty=Tensor[(32, 1024, 1024), float16] */, Primitive=1) -> Tensor[(32, 256, 1024), float16] {
    nn.batch_matmul(%p0437, %p1316, out_dtype="float16") /* ty=Tensor[(32, 256, 1024), float16] */
  } /* ty=fn (Tensor[(32, 256, 1024), float16], Tensor[(32, 1024, 1024), float16]) -> Tensor[(32, 256, 1024), float16] */;
  %1136 = %1135(%1134, meta[relay.Constant][6] /* ty=Tensor[(32, 1024, 1024), float16] */) /* ty=Tensor[(32, 256, 1024), float16] */;
  %1137 = fn (%p0436: Tensor[(32, 256, 1024), float16] /* ty=Tensor[(32, 256, 1024), float16] */, %p1315: Tensor[(1024), float16] /* ty=Tensor[(1024), float16] */, Primitive=1) -> Tensor[(512, 64, 256), float16] {
    %1125 = reshape(%p0436, newshape=[32, 256, 1024]) /* ty=Tensor[(32, 256, 1024), float16] */;
    %1126 = squeeze(%1125, axis=[]) /* ty=Tensor[(32, 256, 1024), float16] */;
    %1127 = add(%1126, %p1315) /* ty=Tensor[(32, 256, 1024), float16] */;
    %1128 = reshape(%1127, newshape=[32, 256, 16, 64]) /* ty=Tensor[(32, 256, 16, 64), float16] */;
    %1129 = transpose(%1128, axes=[0, 2, 3, 1]) /* ty=Tensor[(32, 16, 64, 256), float16] */;
    %1130 = broadcast_to(%1129, shape=[32, 16, 64, 256], dtype="float16") /* ty=Tensor[(32, 16, 64, 256), float16] */;
    reshape(%1130, newshape=[-1, 64, 256]) /* ty=Tensor[(512, 64, 256), float16] */
  } /* ty=fn (Tensor[(32, 256, 1024), float16], Tensor[(1024), float16]) -> Tensor[(512, 64, 256), float16] */;
  %1138 = %1124(%1123, meta[relay.Constant][5] /* ty=Tensor[(1024), float16] */) /* ty=Tensor[(512, 256, 64), float16] */;
  %1139 = %1137(%1136, meta[relay.Constant][7] /* ty=Tensor[(1024), float16] */) /* ty=Tensor[(512, 64, 256), float16] */;
  %1140 = fn (%p0428: Tensor[(512, 256, 64), float16] /* ty=Tensor[(512, 256, 64), float16] */, %p1309: Tensor[(512, 64, 256), float16] /* ty=Tensor[(512, 64, 256), float16] */, Primitive=1) -> Tensor[(512, 256, 256), float16] {
    nn.batch_matmul(%p0428, %p1309, out_dtype="float16") /* ty=Tensor[(512, 256, 256), float16] */
  } /* ty=fn (Tensor[(512, 256, 64), float16], Tensor[(512, 64, 256), float16]) -> Tensor[(512, 256, 256), float16] */;
  %1141 = %1140(%1138, %1139) /* ty=Tensor[(512, 256, 256), float16] */;
  %1142 = fn (%p0427: Tensor[(512, 256, 256), float16] /* ty=Tensor[(512, 256, 256), float16] */, %p1308: float16 /* ty=float16 */, %p2143: Tensor[(32, 1, 1, 256), float16] /* ty=Tensor[(32, 1, 1, 256), float16] */, Primitive=1) -> Tensor[(32, 16, 256, 256), float16] {
    %1093 = reshape(%p0427, newshape=[32, 16, 256, 256]) /* ty=Tensor[(32, 16, 256, 256), float16] */;
    %1094 = squeeze(%1093, axis=[]) /* ty=Tensor[(32, 16, 256, 256), float16] */;
    %1095 = divide(%1094, %p1308) /* ty=Tensor[(32, 16, 256, 256), float16] */;
    add(%1095, %p2143) /* ty=Tensor[(32, 16, 256, 256), float16] */
  } /* ty=fn (Tensor[(512, 256, 256), float16], float16, Tensor[(32, 1, 1, 256), float16]) -> Tensor[(32, 16, 256, 256), float16] */;
  %1143 = %1142(%1141, 8f16 /* ty=float16 */, meta[relay.Constant][8] /* ty=Tensor[(32, 1, 1, 256), float16] */) /* ty=Tensor[(32, 16, 256, 256), float16] */;
  %1144 = fn (%p0426: Tensor[(32, 16, 256, 256), float16] /* ty=Tensor[(32, 16, 256, 256), float16] */, Primitive=1) -> Tensor[(32, 16, 256, 256), float16] {
    %1092 = nn.fast_softmax(%p0426) /* ty=Tensor[(32, 16, 256, 256), float16] */;
    broadcast_to(%1092, shape=[32, 16, 256, 256], dtype="float16") /* ty=Tensor[(32, 16, 256, 256), float16] */
  } /* ty=fn (Tensor[(32, 16, 256, 256), float16]) -> Tensor[(32, 16, 256, 256), float16] */;
  %1145 = %1144(%1143) /* ty=Tensor[(32, 16, 256, 256), float16] */;
  %1146 = fn (%p0425: Tensor[(32, 16, 256, 256), float16] /* ty=Tensor[(32, 16, 256, 256), float16] */, Primitive=1, relay.reshape_only=1) -> Tensor[(512, 256, 256), float16] {
    reshape(%p0425, newshape=[-1, 256, 256]) /* ty=Tensor[(512, 256, 256), float16] */
  } /* ty=fn (Tensor[(32, 16, 256, 256), float16]) -> Tensor[(512, 256, 256), float16] */;
  %1155 = fn (%p0441: Tensor[(32, 256, 1024), float32] /* ty=Tensor[(32, 256, 1024), float32] */, Primitive=1) -> Tensor[(32, 256, 1024), float16] {
    %1153 = broadcast_to(%p0441, shape=[32, 256, 1024]) /* ty=Tensor[(32, 256, 1024), float32] */;
    %1154 = reshape(%1153, newshape=[-1, 256, 1024]) /* ty=Tensor[(32, 256, 1024), float32] */;
    cast(%1154, dtype="float16") /* ty=Tensor[(32, 256, 1024), float16] */
  } /* ty=fn (Tensor[(32, 256, 1024), float32]) -> Tensor[(32, 256, 1024), float16] */;
  %1156 = %1155(%1119) /* ty=Tensor[(32, 256, 1024), float16] */;
  %1157 = fn (%p0440: Tensor[(32, 256, 1024), float16] /* ty=Tensor[(32, 256, 1024), float16] */, %p1318: Tensor[(32, 1024, 1024), float16] /* ty=Tensor[(32, 1024, 1024), float16] */, Primitive=1) -> Tensor[(32, 256, 1024), float16] {
    nn.batch_matmul(%p0440, %p1318, out_dtype="float16") /* ty=Tensor[(32, 256, 1024), float16] */
  } /* ty=fn (Tensor[(32, 256, 1024), float16], Tensor[(32, 1024, 1024), float16]) -> Tensor[(32, 256, 1024), float16] */;
  %1158 = %1157(%1156, meta[relay.Constant][9] /* ty=Tensor[(32, 1024, 1024), float16] */) /* ty=Tensor[(32, 256, 1024), float16] */;
  %1159 = fn (%p0439: Tensor[(32, 256, 1024), float16] /* ty=Tensor[(32, 256, 1024), float16] */, %p1317: Tensor[(1024), float16] /* ty=Tensor[(1024), float16] */, Primitive=1) -> Tensor[(512, 256, 64), float16] {
    %1147 = reshape(%p0439, newshape=[32, 256, 1024]) /* ty=Tensor[(32, 256, 1024), float16] */;
    %1148 = squeeze(%1147, axis=[]) /* ty=Tensor[(32, 256, 1024), float16] */;
    %1149 = add(%1148, %p1317) /* ty=Tensor[(32, 256, 1024), float16] */;
    %1150 = reshape(%1149, newshape=[32, 256, 16, 64]) /* ty=Tensor[(32, 256, 16, 64), float16] */;
    %1151 = transpose(%1150, axes=[0, 2, 1, 3]) /* ty=Tensor[(32, 16, 256, 64), float16] */;
    %1152 = broadcast_to(%1151, shape=[32, 16, 256, 64], dtype="float16") /* ty=Tensor[(32, 16, 256, 64), float16] */;
    reshape(%1152, newshape=[-1, 256, 64]) /* ty=Tensor[(512, 256, 64), float16] */
  } /* ty=fn (Tensor[(32, 256, 1024), float16], Tensor[(1024), float16]) -> Tensor[(512, 256, 64), float16] */;
  %1160 = %1146(%1145) /* ty=Tensor[(512, 256, 256), float16] */;
  %1161 = %1159(%1158, meta[relay.Constant][10] /* ty=Tensor[(1024), float16] */) /* ty=Tensor[(512, 256, 64), float16] */;
  %1162 = fn (%p0424: Tensor[(512, 256, 256), float16] /* ty=Tensor[(512, 256, 256), float16] */, %p1307: Tensor[(512, 256, 64), float16] /* ty=Tensor[(512, 256, 64), float16] */, Primitive=1) -> Tensor[(512, 256, 64), float16] {
    nn.batch_matmul(%p0424, %p1307, out_dtype="float16") /* ty=Tensor[(512, 256, 64), float16] */
  } /* ty=fn (Tensor[(512, 256, 256), float16], Tensor[(512, 256, 64), float16]) -> Tensor[(512, 256, 64), float16] */;
  %1163 = %1162(%1160, %1161) /* ty=Tensor[(512, 256, 64), float16] */;
  %1164 = fn (%p0423: Tensor[(512, 256, 64), float16] /* ty=Tensor[(512, 256, 64), float16] */, Primitive=1) -> Tensor[(32, 256, 1024), float16] {
    %1087 = reshape(%p0423, newshape=[32, 16, 256, 64]) /* ty=Tensor[(32, 16, 256, 64), float16] */;
    %1088 = squeeze(%1087, axis=[]) /* ty=Tensor[(32, 16, 256, 64), float16] */;
    %1089 = transpose(%1088, axes=[0, 2, 1, 3]) /* ty=Tensor[(32, 256, 16, 64), float16] */;
    %1090 = reshape(%1089, newshape=[32, 256, 1024]) /* ty=Tensor[(32, 256, 1024), float16] */;
    %1091 = broadcast_to(%1090, shape=[32, 256, 1024], dtype="float16") /* ty=Tensor[(32, 256, 1024), float16] */;
    reshape(%1091, newshape=[-1, 256, 1024]) /* ty=Tensor[(32, 256, 1024), float16] */
  } /* ty=fn (Tensor[(512, 256, 64), float16]) -> Tensor[(32, 256, 1024), float16] */;
  %1165 = %1164(%1163) /* ty=Tensor[(32, 256, 1024), float16] */;
  %1166 = fn (%p0422: Tensor[(32, 256, 1024), float16] /* ty=Tensor[(32, 256, 1024), float16] */, %p1306: Tensor[(32, 1024, 1024), float16] /* ty=Tensor[(32, 1024, 1024), float16] */, Primitive=1) -> Tensor[(32, 256, 1024), float16] {
    nn.batch_matmul(%p0422, %p1306, out_dtype="float16") /* ty=Tensor[(32, 256, 1024), float16] */
  } /* ty=fn (Tensor[(32, 256, 1024), float16], Tensor[(32, 1024, 1024), float16]) -> Tensor[(32, 256, 1024), float16] */;
  %1167 = %1166(%1165, meta[relay.Constant][11] /* ty=Tensor[(32, 1024, 1024), float16] */) /* ty=Tensor[(32, 256, 1024), float16] */;
  %1168 = fn (%p0421: Tensor[(32, 256, 1024), float16] /* ty=Tensor[(32, 256, 1024), float16] */, %p1305: Tensor[(1024), float16] /* ty=Tensor[(1024), float16] */, %p2142: Tensor[(32, 256, 1024), float32] /* ty=Tensor[(32, 256, 1024), float32] */, Primitive=1) -> Tensor[(32, 256, 1024), float32] {
    %1083 = reshape(%p0421, newshape=[32, 256, 1024]) /* ty=Tensor[(32, 256, 1024), float16] */;
    %1084 = squeeze(%1083, axis=[]) /* ty=Tensor[(32, 256, 1024), float16] */;
    %1085 = add(%1084, %p1305) /* ty=Tensor[(32, 256, 1024), float16] */;
    %1086 = cast(%1085, dtype="float32") /* ty=Tensor[(32, 256, 1024), float32] */;
    add(%1086, %p2142) /* ty=Tensor[(32, 256, 1024), float32] */
  } /* ty=fn (Tensor[(32, 256, 1024), float16], Tensor[(1024), float16], Tensor[(32, 256, 1024), float32]) -> Tensor[(32, 256, 1024), float32] */;
  %1169 = %1168(%1167, meta[relay.Constant][12] /* ty=Tensor[(1024), float16] */, %1119) /* ty=Tensor[(32, 256, 1024), float32] */;
  %1170 = fn (%p0442: Tensor[(32, 256, 1024), float32] /* ty=Tensor[(32, 256, 1024), float32] */, Primitive=1) -> Tensor[(32, 256, 1), float32] {
    mean(%p0442, axis=[-1], keepdims=True) /* ty=Tensor[(32, 256, 1), float32] */
  } /* ty=fn (Tensor[(32, 256, 1024), float32]) -> Tensor[(32, 256, 1), float32] */;
  %1171 = %1170(%1169) /* ty=Tensor[(32, 256, 1), float32] */;
  %1172 = fn (%p0443: Tensor[(32, 256, 1024), float32] /* ty=Tensor[(32, 256, 1024), float32] */, %p1319: Tensor[(32, 256, 1), float32] /* ty=Tensor[(32, 256, 1), float32] */, Primitive=1) -> Tensor[(32, 256, 1), float32] {
    variance(%p0443, %p1319, axis=[-1], keepdims=True) /* ty=Tensor[(32, 256, 1), float32] */
  } /* ty=fn (Tensor[(32, 256, 1024), float32], Tensor[(32, 256, 1), float32]) -> Tensor[(32, 256, 1), float32] */;
  %1173 = %1172(%1169, %1171) /* ty=Tensor[(32, 256, 1), float32] */;
  %1174 = fn (%p0420: Tensor[(32, 256, 1024), float32] /* ty=Tensor[(32, 256, 1024), float32] */, %p1304: Tensor[(32, 256, 1), float32] /* ty=Tensor[(32, 256, 1), float32] */, %p2141: Tensor[(32, 256, 1), float32] /* ty=Tensor[(32, 256, 1), float32] */, %p371: Tensor[(1024), float32] /* ty=Tensor[(1024), float32] */, %p471: Tensor[(1024), float32] /* ty=Tensor[(1024), float32] */, Primitive=1) -> Tensor[(32, 256, 1024), float32] {
    %1078 = add(%p2141, 1e-12f /* ty=float32 */) /* ty=Tensor[(32, 256, 1), float32] */;
    %1079 = subtract(%p0420, %p1304) /* ty=Tensor[(32, 256, 1024), float32] */;
    %1080 = rsqrt(%1078) /* ty=Tensor[(32, 256, 1), float32] */;
    %1081 = multiply(%1079, %1080) /* ty=Tensor[(32, 256, 1024), float32] */;
    %1082 = multiply(%1081, %p371) /* ty=Tensor[(32, 256, 1024), float32] */;
    add(%1082, %p471) /* ty=Tensor[(32, 256, 1024), float32] */
  } /* ty=fn (Tensor[(32, 256, 1024), float32], Tensor[(32, 256, 1), float32], Tensor[(32, 256, 1), float32], Tensor[(1024), float32], Tensor[(1024), float32]) -> Tensor[(32, 256, 1024), float32] */;
  %1175 = %1174(%1169, %1171, %1173, meta[relay.Constant][13] /* ty=Tensor[(1024), float32] */, meta[relay.Constant][14] /* ty=Tensor[(1024), float32] */) /* ty=Tensor[(32, 256, 1024), float32] */;
  %1176 = fn (%p0419: Tensor[(32, 256, 1024), float32] /* ty=Tensor[(32, 256, 1024), float32] */, Primitive=1) -> Tensor[(32, 256, 1024), float16] {
    %1076 = broadcast_to(%p0419, shape=[32, 256, 1024]) /* ty=Tensor[(32, 256, 1024), float32] */;
    %1077 = reshape(%1076, newshape=[-1, 256, 1024]) /* ty=Tensor[(32, 256, 1024), float32] */;
    cast(%1077, dtype="float16") /* ty=Tensor[(32, 256, 1024), float16] */
  } /* ty=fn (Tensor[(32, 256, 1024), float32]) -> Tensor[(32, 256, 1024), float16] */;
  %1177 = %1176(%1175) /* ty=Tensor[(32, 256, 1024), float16] */;
  %1178 = fn (%p0418: Tensor[(32, 256, 1024), float16] /* ty=Tensor[(32, 256, 1024), float16] */, %p1303: Tensor[(32, 1024, 4096), float16] /* ty=Tensor[(32, 1024, 4096), float16] */, Primitive=1) -> Tensor[(32, 256, 4096), float16] {
    nn.batch_matmul(%p0418, %p1303, out_dtype="float16") /* ty=Tensor[(32, 256, 4096), float16] */
  } /* ty=fn (Tensor[(32, 256, 1024), float16], Tensor[(32, 1024, 4096), float16]) -> Tensor[(32, 256, 4096), float16] */;
  %1179 = %1178(%1177, meta[relay.Constant][15] /* ty=Tensor[(32, 1024, 4096), float16] */) /* ty=Tensor[(32, 256, 4096), float16] */;
  %1180 = fn (%p0417: Tensor[(32, 256, 4096), float16] /* ty=Tensor[(32, 256, 4096), float16] */, %p1302: Tensor[(4096), float16] /* ty=Tensor[(4096), float16] */, %p2140: float16 /* ty=float16 */, %p370: float16 /* ty=float16 */, %p470: float16 /* ty=float16 */, Primitive=1) -> Tensor[(32, 256, 4096), float16] {
    %1067 = reshape(%p0417, newshape=[32, 256, 4096]) /* ty=Tensor[(32, 256, 4096), float16] */;
    %1068 = squeeze(%1067, axis=[]) /* ty=Tensor[(32, 256, 4096), float16] */;
    %1069 = add(%1068, %p1302) /* ty=Tensor[(32, 256, 4096), float16] */;
    %1070 = multiply(%1069, %p2140) /* ty=Tensor[(32, 256, 4096), float16] */;
    %1071 = fast_erf(%1070) /* ty=Tensor[(32, 256, 4096), float16] */;
    %1072 = multiply(%1071, %p370) /* ty=Tensor[(32, 256, 4096), float16] */;
    %1073 = add(%p470, %1072) /* ty=Tensor[(32, 256, 4096), float16] */;
    %1074 = multiply(%1069, %1073) /* ty=Tensor[(32, 256, 4096), float16] */;
    %1075 = broadcast_to(%1074, shape=[32, 256, 4096], dtype="float16") /* ty=Tensor[(32, 256, 4096), float16] */;
    reshape(%1075, newshape=[-1, 256, 4096]) /* ty=Tensor[(32, 256, 4096), float16] */
  } /* ty=fn (Tensor[(32, 256, 4096), float16], Tensor[(4096), float16], float16, float16, float16) -> Tensor[(32, 256, 4096), float16] */;
  %1181 = %1180(%1179, meta[relay.Constant][16] /* ty=Tensor[(4096), float16] */, 0.707031f16 /* ty=float16 */, 0.5f16 /* ty=float16 */, 0.5f16 /* ty=float16 */) /* ty=Tensor[(32, 256, 4096), float16] */;
  %1182 = fn (%p0416: Tensor[(32, 256, 4096), float16] /* ty=Tensor[(32, 256, 4096), float16] */, %p1301: Tensor[(32, 4096, 1024), float16] /* ty=Tensor[(32, 4096, 1024), float16] */, Primitive=1) -> Tensor[(32, 256, 1024), float16] {
    nn.batch_matmul(%p0416, %p1301, out_dtype="float16") /* ty=Tensor[(32, 256, 1024), float16] */
  } /* ty=fn (Tensor[(32, 256, 4096), float16], Tensor[(32, 4096, 1024), float16]) -> Tensor[(32, 256, 1024), float16] */;
  %1183 = %1182(%1181, meta[relay.Constant][17] /* ty=Tensor[(32, 4096, 1024), float16] */) /* ty=Tensor[(32, 256, 1024), float16] */;
  %1184 = fn (%p0415: Tensor[(32, 256, 1024), float16] /* ty=Tensor[(32, 256, 1024), float16] */, %p1300: Tensor[(1024), float16] /* ty=Tensor[(1024), float16] */, %p2139: Tensor[(32, 256, 1024), float32] /* ty=Tensor[(32, 256, 1024), float32] */, Primitive=1) -> Tensor[(32, 256, 1024), float32] {
    %1063 = reshape(%p0415, newshape=[32, 256, 1024]) /* ty=Tensor[(32, 256, 1024), float16] */;
    %1064 = squeeze(%1063, axis=[]) /* ty=Tensor[(32, 256, 1024), float16] */;
    %1065 = add(%1064, %p1300) /* ty=Tensor[(32, 256, 1024), float16] */;
    %1066 = cast(%1065, dtype="float32") /* ty=Tensor[(32, 256, 1024), float32] */;
    add(%1066, %p2139) /* ty=Tensor[(32, 256, 1024), float32] */
  } /* ty=fn (Tensor[(32, 256, 1024), float16], Tensor[(1024), float16], Tensor[(32, 256, 1024), float32]) -> Tensor[(32, 256, 1024), float32] */;
  %1185 = %1184(%1183, meta[relay.Constant][18] /* ty=Tensor[(1024), float16] */, %1175) /* ty=Tensor[(32, 256, 1024), float32] */;
  %1186 = fn (%p0444: Tensor[(32, 256, 1024), float32] /* ty=Tensor[(32, 256, 1024), float32] */, Primitive=1) -> Tensor[(32, 256, 1), float32] {
    mean(%p0444, axis=[-1], keepdims=True) /* ty=Tensor[(32, 256, 1), float32] */
  } /* ty=fn (Tensor[(32, 256, 1024), float32]) -> Tensor[(32, 256, 1), float32] */;
  %1187 = %1186(%1185) /* ty=Tensor[(32, 256, 1), float32] */;
  %1188 = fn (%p0445: Tensor[(32, 256, 1024), float32] /* ty=Tensor[(32, 256, 1024), float32] */, %p1320: Tensor[(32, 256, 1), float32] /* ty=Tensor[(32, 256, 1), float32] */, Primitive=1) -> Tensor[(32, 256, 1), float32] {
    variance(%p0445, %p1320, axis=[-1], keepdims=True) /* ty=Tensor[(32, 256, 1), float32] */
  } /* ty=fn (Tensor[(32, 256, 1024), float32], Tensor[(32, 256, 1), float32]) -> Tensor[(32, 256, 1), float32] */;
  %1189 = %1188(%1185, %1187) /* ty=Tensor[(32, 256, 1), float32] */;
  %1190 = fn (%p0414: Tensor[(32, 256, 1024), float32] /* ty=Tensor[(32, 256, 1024), float32] */, %p1299: Tensor[(32, 256, 1), float32] /* ty=Tensor[(32, 256, 1), float32] */, %p2138: Tensor[(32, 256, 1), float32] /* ty=Tensor[(32, 256, 1), float32] */, %p369: Tensor[(1024), float32] /* ty=Tensor[(1024), float32] */, %p469: Tensor[(1024), float32] /* ty=Tensor[(1024), float32] */, Primitive=1) -> Tensor[(32, 256, 1024), float32] {
    %1058 = add(%p2138, 1e-12f /* ty=float32 */) /* ty=Tensor[(32, 256, 1), float32] */;
    %1059 = subtract(%p0414, %p1299) /* ty=Tensor[(32, 256, 1024), float32] */;
    %1060 = rsqrt(%1058) /* ty=Tensor[(32, 256, 1), float32] */;
    %1061 = multiply(%1059, %1060) /* ty=Tensor[(32, 256, 1024), float32] */;
    %1062 = multiply(%1061, %p369) /* ty=Tensor[(32, 256, 1024), float32] */;
    add(%1062, %p469) /* ty=Tensor[(32, 256, 1024), float32] */
  } /* ty=fn (Tensor[(32, 256, 1024), float32], Tensor[(32, 256, 1), float32], Tensor[(32, 256, 1), float32], Tensor[(1024), float32], Tensor[(1024), float32]) -> Tensor[(32, 256, 1024), float32] */;
  %1191 = %1190(%1185, %1187, %1189, meta[relay.Constant][19] /* ty=Tensor[(1024), float32] */, meta[relay.Constant][20] /* ty=Tensor[(1024), float32] */) /* ty=Tensor[(32, 256, 1024), float32] */;
  %1192 = fn (%p0413: Tensor[(32, 256, 1024), float32] /* ty=Tensor[(32, 256, 1024), float32] */, Primitive=1) -> Tensor[(32, 256, 1024), float16] {
    %1056 = broadcast_to(%p0413, shape=[32, 256, 1024]) /* ty=Tensor[(32, 256, 1024), float32] */;
    %1057 = reshape(%1056, newshape=[-1, 256, 1024]) /* ty=Tensor[(32, 256, 1024), float32] */;
    cast(%1057, dtype="float16") /* ty=Tensor[(32, 256, 1024), float16] */
  } /* ty=fn (Tensor[(32, 256, 1024), float32]) -> Tensor[(32, 256, 1024), float16] */;
  %1193 = %1192(%1191) /* ty=Tensor[(32, 256, 1024), float16] */;
  %1194 = fn (%p0412: Tensor[(32, 256, 1024), float16] /* ty=Tensor[(32, 256, 1024), float16] */, %p1298: Tensor[(32, 1024, 1024), float16] /* ty=Tensor[(32, 1024, 1024), float16] */, Primitive=1) -> Tensor[(32, 256, 1024), float16] {
    nn.batch_matmul(%p0412, %p1298, out_dtype="float16") /* ty=Tensor[(32, 256, 1024), float16] */
  } /* ty=fn (Tensor[(32, 256, 1024), float16], Tensor[(32, 1024, 1024), float16]) -> Tensor[(32, 256, 1024), float16] */;
  %1195 = %1194(%1193, meta[relay.Constant][21] /* ty=Tensor[(32, 1024, 1024), float16] */) /* ty=Tensor[(32, 256, 1024), float16] */;
  %1196 = fn (%p0411: Tensor[(32, 256, 1024), float16] /* ty=Tensor[(32, 256, 1024), float16] */, %p1297: Tensor[(1024), float16] /* ty=Tensor[(1024), float16] */, Primitive=1) -> Tensor[(512, 256, 64), float16] {
    %1050 = reshape(%p0411, newshape=[32, 256, 1024]) /* ty=Tensor[(32, 256, 1024), float16] */;
    %1051 = squeeze(%1050, axis=[]) /* ty=Tensor[(32, 256, 1024), float16] */;
    %1052 = add(%1051, %p1297) /* ty=Tensor[(32, 256, 1024), float16] */;
    %1053 = reshape(%1052, newshape=[32, 256, 16, 64]) /* ty=Tensor[(32, 256, 16, 64), float16] */;
    %1054 = transpose(%1053, axes=[0, 2, 1, 3]) /* ty=Tensor[(32, 16, 256, 64), float16] */;
    %1055 = broadcast_to(%1054, shape=[32, 16, 256, 64], dtype="float16") /* ty=Tensor[(32, 16, 256, 64), float16] */;
    reshape(%1055, newshape=[-1, 256, 64]) /* ty=Tensor[(512, 256, 64), float16] */
  } /* ty=fn (Tensor[(32, 256, 1024), float16], Tensor[(1024), float16]) -> Tensor[(512, 256, 64), float16] */;
  %1205 = fn (%p0448: Tensor[(32, 256, 1024), float32] /* ty=Tensor[(32, 256, 1024), float32] */, Primitive=1) -> Tensor[(32, 256, 1024), float16] {
    %1203 = broadcast_to(%p0448, shape=[32, 256, 1024]) /* ty=Tensor[(32, 256, 1024), float32] */;
    %1204 = reshape(%1203, newshape=[-1, 256, 1024]) /* ty=Tensor[(32, 256, 1024), float32] */;
    cast(%1204, dtype="float16") /* ty=Tensor[(32, 256, 1024), float16] */
  } /* ty=fn (Tensor[(32, 256, 1024), float32]) -> Tensor[(32, 256, 1024), float16] */;
  %1206 = %1205(%1191) /* ty=Tensor[(32, 256, 1024), float16] */;
  %1207 = fn (%p0447: Tensor[(32, 256, 1024), float16] /* ty=Tensor[(32, 256, 1024), float16] */, %p1322: Tensor[(32, 1024, 1024), float16] /* ty=Tensor[(32, 1024, 1024), float16] */, Primitive=1) -> Tensor[(32, 256, 1024), float16] {
    nn.batch_matmul(%p0447, %p1322, out_dtype="float16") /* ty=Tensor[(32, 256, 1024), float16] */
  } /* ty=fn (Tensor[(32, 256, 1024), float16], Tensor[(32, 1024, 1024), float16]) -> Tensor[(32, 256, 1024), float16] */;
  %1208 = %1207(%1206, meta[relay.Constant][23] /* ty=Tensor[(32, 1024, 1024), float16] */) /* ty=Tensor[(32, 256, 1024), float16] */;
  %1209 = fn (%p0446: Tensor[(32, 256, 1024), float16] /* ty=Tensor[(32, 256, 1024), float16] */, %p1321: Tensor[(1024), float16] /* ty=Tensor[(1024), float16] */, Primitive=1) -> Tensor[(512, 64, 256), float16] {
    %1197 = reshape(%p0446, newshape=[32, 256, 1024]) /* ty=Tensor[(32, 256, 1024), float16] */;
    %1198 = squeeze(%1197, axis=[]) /* ty=Tensor[(32, 256, 1024), float16] */;
    %1199 = add(%1198, %p1321) /* ty=Tensor[(32, 256, 1024), float16] */;
    %1200 = reshape(%1199, newshape=[32, 256, 16, 64]) /* ty=Tensor[(32, 256, 16, 64), float16] */;
    %1201 = transpose(%1200, axes=[0, 2, 3, 1]) /* ty=Tensor[(32, 16, 64, 256), float16] */;
    %1202 = broadcast_to(%1201, shape=[32, 16, 64, 256], dtype="float16") /* ty=Tensor[(32, 16, 64, 256), float16] */;
    reshape(%1202, newshape=[-1, 64, 256]) /* ty=Tensor[(512, 64, 256), float16] */
  } /* ty=fn (Tensor[(32, 256, 1024), float16], Tensor[(1024), float16]) -> Tensor[(512, 64, 256), float16] */;
  %1210 = %1196(%1195, meta[relay.Constant][22] /* ty=Tensor[(1024), float16] */) /* ty=Tensor[(512, 256, 64), float16] */;
  %1211 = %1209(%1208, meta[relay.Constant][24] /* ty=Tensor[(1024), float16] */) /* ty=Tensor[(512, 64, 256), float16] */;
  %1212 = fn (%p0410: Tensor[(512, 256, 64), float16] /* ty=Tensor[(512, 256, 64), float16] */, %p1296: Tensor[(512, 64, 256), float16] /* ty=Tensor[(512, 64, 256), float16] */, Primitive=1) -> Tensor[(512, 256, 256), float16] {
    nn.batch_matmul(%p0410, %p1296, out_dtype="float16") /* ty=Tensor[(512, 256, 256), float16] */
  } /* ty=fn (Tensor[(512, 256, 64), float16], Tensor[(512, 64, 256), float16]) -> Tensor[(512, 256, 256), float16] */;
  %1213 = %1212(%1210, %1211) /* ty=Tensor[(512, 256, 256), float16] */;
  %1214 = fn (%p0409: Tensor[(512, 256, 256), float16] /* ty=Tensor[(512, 256, 256), float16] */, %p1295: float16 /* ty=float16 */, %p2137: Tensor[(32, 1, 1, 256), float16] /* ty=Tensor[(32, 1, 1, 256), float16] */, Primitive=1) -> Tensor[(32, 16, 256, 256), float16] {
    %1047 = reshape(%p0409, newshape=[32, 16, 256, 256]) /* ty=Tensor[(32, 16, 256, 256), float16] */;
    %1048 = squeeze(%1047, axis=[]) /* ty=Tensor[(32, 16, 256, 256), float16] */;
    %1049 = divide(%1048, %p1295) /* ty=Tensor[(32, 16, 256, 256), float16] */;
    add(%1049, %p2137) /* ty=Tensor[(32, 16, 256, 256), float16] */
  } /* ty=fn (Tensor[(512, 256, 256), float16], float16, Tensor[(32, 1, 1, 256), float16]) -> Tensor[(32, 16, 256, 256), float16] */;
  %1215 = %1214(%1213, 8f16 /* ty=float16 */, meta[relay.Constant][8] /* ty=Tensor[(32, 1, 1, 256), float16] */) /* ty=Tensor[(32, 16, 256, 256), float16] */;
  %1216 = fn (%p0408: Tensor[(32, 16, 256, 256), float16] /* ty=Tensor[(32, 16, 256, 256), float16] */, Primitive=1) -> Tensor[(32, 16, 256, 256), float16] {
    %1046 = nn.fast_softmax(%p0408) /* ty=Tensor[(32, 16, 256, 256), float16] */;
    broadcast_to(%1046, shape=[32, 16, 256, 256], dtype="float16") /* ty=Tensor[(32, 16, 256, 256), float16] */
  } /* ty=fn (Tensor[(32, 16, 256, 256), float16]) -> Tensor[(32, 16, 256, 256), float16] */;
  %1217 = %1216(%1215) /* ty=Tensor[(32, 16, 256, 256), float16] */;
  %1218 = fn (%p0407: Tensor[(32, 16, 256, 256), float16] /* ty=Tensor[(32, 16, 256, 256), float16] */, Primitive=1, relay.reshape_only=1) -> Tensor[(512, 256, 256), float16] {
    reshape(%p0407, newshape=[-1, 256, 256]) /* ty=Tensor[(512, 256, 256), float16] */
  } /* ty=fn (Tensor[(32, 16, 256, 256), float16]) -> Tensor[(512, 256, 256), float16] */;
  %1227 = fn (%p0451: Tensor[(32, 256, 1024), float32] /* ty=Tensor[(32, 256, 1024), float32] */, Primitive=1) -> Tensor[(32, 256, 1024), float16] {
    %1225 = broadcast_to(%p0451, shape=[32, 256, 1024]) /* ty=Tensor[(32, 256, 1024), float32] */;
    %1226 = reshape(%1225, newshape=[-1, 256, 1024]) /* ty=Tensor[(32, 256, 1024), float32] */;
    cast(%1226, dtype="float16") /* ty=Tensor[(32, 256, 1024), float16] */
  } /* ty=fn (Tensor[(32, 256, 1024), float32]) -> Tensor[(32, 256, 1024), float16] */;
  %1228 = %1227(%1191) /* ty=Tensor[(32, 256, 1024), float16] */;
  %1229 = fn (%p0450: Tensor[(32, 256, 1024), float16] /* ty=Tensor[(32, 256, 1024), float16] */, %p1324: Tensor[(32, 1024, 1024), float16] /* ty=Tensor[(32, 1024, 1024), float16] */, Primitive=1) -> Tensor[(32, 256, 1024), float16] {
    nn.batch_matmul(%p0450, %p1324, out_dtype="float16") /* ty=Tensor[(32, 256, 1024), float16] */
  } /* ty=fn (Tensor[(32, 256, 1024), float16], Tensor[(32, 1024, 1024), float16]) -> Tensor[(32, 256, 1024), float16] */;
  %1230 = %1229(%1228, meta[relay.Constant][25] /* ty=Tensor[(32, 1024, 1024), float16] */) /* ty=Tensor[(32, 256, 1024), float16] */;
  %1231 = fn (%p0449: Tensor[(32, 256, 1024), float16] /* ty=Tensor[(32, 256, 1024), float16] */, %p1323: Tensor[(1024), float16] /* ty=Tensor[(1024), float16] */, Primitive=1) -> Tensor[(512, 256, 64), float16] {
    %1219 = reshape(%p0449, newshape=[32, 256, 1024]) /* ty=Tensor[(32, 256, 1024), float16] */;
    %1220 = squeeze(%1219, axis=[]) /* ty=Tensor[(32, 256, 1024), float16] */;
    %1221 = add(%1220, %p1323) /* ty=Tensor[(32, 256, 1024), float16] */;
    %1222 = reshape(%1221, newshape=[32, 256, 16, 64]) /* ty=Tensor[(32, 256, 16, 64), float16] */;
    %1223 = transpose(%1222, axes=[0, 2, 1, 3]) /* ty=Tensor[(32, 16, 256, 64), float16] */;
    %1224 = broadcast_to(%1223, shape=[32, 16, 256, 64], dtype="float16") /* ty=Tensor[(32, 16, 256, 64), float16] */;
    reshape(%1224, newshape=[-1, 256, 64]) /* ty=Tensor[(512, 256, 64), float16] */
  } /* ty=fn (Tensor[(32, 256, 1024), float16], Tensor[(1024), float16]) -> Tensor[(512, 256, 64), float16] */;
  %1232 = %1218(%1217) /* ty=Tensor[(512, 256, 256), float16] */;
  %1233 = %1231(%1230, meta[relay.Constant][26] /* ty=Tensor[(1024), float16] */) /* ty=Tensor[(512, 256, 64), float16] */;
  %1234 = fn (%p0406: Tensor[(512, 256, 256), float16] /* ty=Tensor[(512, 256, 256), float16] */, %p1294: Tensor[(512, 256, 64), float16] /* ty=Tensor[(512, 256, 64), float16] */, Primitive=1) -> Tensor[(512, 256, 64), float16] {
    nn.batch_matmul(%p0406, %p1294, out_dtype="float16") /* ty=Tensor[(512, 256, 64), float16] */
  } /* ty=fn (Tensor[(512, 256, 256), float16], Tensor[(512, 256, 64), float16]) -> Tensor[(512, 256, 64), float16] */;
  %1235 = %1234(%1232, %1233) /* ty=Tensor[(512, 256, 64), float16] */;
  %1236 = fn (%p0405: Tensor[(512, 256, 64), float16] /* ty=Tensor[(512, 256, 64), float16] */, Primitive=1) -> Tensor[(32, 256, 1024), float16] {
    %1041 = reshape(%p0405, newshape=[32, 16, 256, 64]) /* ty=Tensor[(32, 16, 256, 64), float16] */;
    %1042 = squeeze(%1041, axis=[]) /* ty=Tensor[(32, 16, 256, 64), float16] */;
    %1043 = transpose(%1042, axes=[0, 2, 1, 3]) /* ty=Tensor[(32, 256, 16, 64), float16] */;
    %1044 = reshape(%1043, newshape=[32, 256, 1024]) /* ty=Tensor[(32, 256, 1024), float16] */;
    %1045 = broadcast_to(%1044, shape=[32, 256, 1024], dtype="float16") /* ty=Tensor[(32, 256, 1024), float16] */;
    reshape(%1045, newshape=[-1, 256, 1024]) /* ty=Tensor[(32, 256, 1024), float16] */
  } /* ty=fn (Tensor[(512, 256, 64), float16]) -> Tensor[(32, 256, 1024), float16] */;
  %1237 = %1236(%1235) /* ty=Tensor[(32, 256, 1024), float16] */;
  %1238 = fn (%p0404: Tensor[(32, 256, 1024), float16] /* ty=Tensor[(32, 256, 1024), float16] */, %p1293: Tensor[(32, 1024, 1024), float16] /* ty=Tensor[(32, 1024, 1024), float16] */, Primitive=1) -> Tensor[(32, 256, 1024), float16] {
    nn.batch_matmul(%p0404, %p1293, out_dtype="float16") /* ty=Tensor[(32, 256, 1024), float16] */
  } /* ty=fn (Tensor[(32, 256, 1024), float16], Tensor[(32, 1024, 1024), float16]) -> Tensor[(32, 256, 1024), float16] */;
  %1239 = %1238(%1237, meta[relay.Constant][27] /* ty=Tensor[(32, 1024, 1024), float16] */) /* ty=Tensor[(32, 256, 1024), float16] */;
  %1240 = fn (%p0403: Tensor[(32, 256, 1024), float16] /* ty=Tensor[(32, 256, 1024), float16] */, %p1292: Tensor[(1024), float16] /* ty=Tensor[(1024), float16] */, %p2136: Tensor[(32, 256, 1024), float32] /* ty=Tensor[(32, 256, 1024), float32] */, Primitive=1) -> Tensor[(32, 256, 1024), float32] {
    %1037 = reshape(%p0403, newshape=[32, 256, 1024]) /* ty=Tensor[(32, 256, 1024), float16] */;
    %1038 = squeeze(%1037, axis=[]) /* ty=Tensor[(32, 256, 1024), float16] */;
    %1039 = add(%1038, %p1292) /* ty=Tensor[(32, 256, 1024), float16] */;
    %1040 = cast(%1039, dtype="float32") /* ty=Tensor[(32, 256, 1024), float32] */;
    add(%1040, %p2136) /* ty=Tensor[(32, 256, 1024), float32] */
  } /* ty=fn (Tensor[(32, 256, 1024), float16], Tensor[(1024), float16], Tensor[(32, 256, 1024), float32]) -> Tensor[(32, 256, 1024), float32] */;
  %1241 = %1240(%1239, meta[relay.Constant][28] /* ty=Tensor[(1024), float16] */, %1191) /* ty=Tensor[(32, 256, 1024), float32] */;
  %1242 = fn (%p0452: Tensor[(32, 256, 1024), float32] /* ty=Tensor[(32, 256, 1024), float32] */, Primitive=1) -> Tensor[(32, 256, 1), float32] {
    mean(%p0452, axis=[-1], keepdims=True) /* ty=Tensor[(32, 256, 1), float32] */
  } /* ty=fn (Tensor[(32, 256, 1024), float32]) -> Tensor[(32, 256, 1), float32] */;
  %1243 = %1242(%1241) /* ty=Tensor[(32, 256, 1), float32] */;
  %1244 = fn (%p0453: Tensor[(32, 256, 1024), float32] /* ty=Tensor[(32, 256, 1024), float32] */, %p1325: Tensor[(32, 256, 1), float32] /* ty=Tensor[(32, 256, 1), float32] */, Primitive=1) -> Tensor[(32, 256, 1), float32] {
    variance(%p0453, %p1325, axis=[-1], keepdims=True) /* ty=Tensor[(32, 256, 1), float32] */
  } /* ty=fn (Tensor[(32, 256, 1024), float32], Tensor[(32, 256, 1), float32]) -> Tensor[(32, 256, 1), float32] */;
  %1245 = %1244(%1241, %1243) /* ty=Tensor[(32, 256, 1), float32] */;
  %1246 = fn (%p0402: Tensor[(32, 256, 1024), float32] /* ty=Tensor[(32, 256, 1024), float32] */, %p1291: Tensor[(32, 256, 1), float32] /* ty=Tensor[(32, 256, 1), float32] */, %p2135: Tensor[(32, 256, 1), float32] /* ty=Tensor[(32, 256, 1), float32] */, %p368: Tensor[(1024), float32] /* ty=Tensor[(1024), float32] */, %p468: Tensor[(1024), float32] /* ty=Tensor[(1024), float32] */, Primitive=1) -> Tensor[(32, 256, 1024), float32] {
    %1032 = add(%p2135, 1e-12f /* ty=float32 */) /* ty=Tensor[(32, 256, 1), float32] */;
    %1033 = subtract(%p0402, %p1291) /* ty=Tensor[(32, 256, 1024), float32] */;
    %1034 = rsqrt(%1032) /* ty=Tensor[(32, 256, 1), float32] */;
    %1035 = multiply(%1033, %1034) /* ty=Tensor[(32, 256, 1024), float32] */;
    %1036 = multiply(%1035, %p368) /* ty=Tensor[(32, 256, 1024), float32] */;
    add(%1036, %p468) /* ty=Tensor[(32, 256, 1024), float32] */
  } /* ty=fn (Tensor[(32, 256, 1024), float32], Tensor[(32, 256, 1), float32], Tensor[(32, 256, 1), float32], Tensor[(1024), float32], Tensor[(1024), float32]) -> Tensor[(32, 256, 1024), float32] */;
  %1247 = %1246(%1241, %1243, %1245, meta[relay.Constant][29] /* ty=Tensor[(1024), float32] */, meta[relay.Constant][30] /* ty=Tensor[(1024), float32] */) /* ty=Tensor[(32, 256, 1024), float32] */;
  %1248 = fn (%p0401: Tensor[(32, 256, 1024), float32] /* ty=Tensor[(32, 256, 1024), float32] */, Primitive=1) -> Tensor[(32, 256, 1024), float16] {
    %1030 = broadcast_to(%p0401, shape=[32, 256, 1024]) /* ty=Tensor[(32, 256, 1024), float32] */;
    %1031 = reshape(%1030, newshape=[-1, 256, 1024]) /* ty=Tensor[(32, 256, 1024), float32] */;
    cast(%1031, dtype="float16") /* ty=Tensor[(32, 256, 1024), float16] */
  } /* ty=fn (Tensor[(32, 256, 1024), float32]) -> Tensor[(32, 256, 1024), float16] */;
  %1249 = %1248(%1247) /* ty=Tensor[(32, 256, 1024), float16] */;
  %1250 = fn (%p0400: Tensor[(32, 256, 1024), float16] /* ty=Tensor[(32, 256, 1024), float16] */, %p1290: Tensor[(32, 1024, 4096), float16] /* ty=Tensor[(32, 1024, 4096), float16] */, Primitive=1) -> Tensor[(32, 256, 4096), float16] {
    nn.batch_matmul(%p0400, %p1290, out_dtype="float16") /* ty=Tensor[(32, 256, 4096), float16] */
  } /* ty=fn (Tensor[(32, 256, 1024), float16], Tensor[(32, 1024, 4096), float16]) -> Tensor[(32, 256, 4096), float16] */;
  %1251 = %1250(%1249, meta[relay.Constant][31] /* ty=Tensor[(32, 1024, 4096), float16] */) /* ty=Tensor[(32, 256, 4096), float16] */;
  %1252 = fn (%p0399: Tensor[(32, 256, 4096), float16] /* ty=Tensor[(32, 256, 4096), float16] */, %p1289: Tensor[(4096), float16] /* ty=Tensor[(4096), float16] */, %p2134: float16 /* ty=float16 */, %p367: float16 /* ty=float16 */, %p467: float16 /* ty=float16 */, Primitive=1) -> Tensor[(32, 256, 4096), float16] {
    %1021 = reshape(%p0399, newshape=[32, 256, 4096]) /* ty=Tensor[(32, 256, 4096), float16] */;
    %1022 = squeeze(%1021, axis=[]) /* ty=Tensor[(32, 256, 4096), float16] */;
    %1023 = add(%1022, %p1289) /* ty=Tensor[(32, 256, 4096), float16] */;
    %1024 = multiply(%1023, %p2134) /* ty=Tensor[(32, 256, 4096), float16] */;
    %1025 = fast_erf(%1024) /* ty=Tensor[(32, 256, 4096), float16] */;
    %1026 = multiply(%1025, %p367) /* ty=Tensor[(32, 256, 4096), float16] */;
    %1027 = add(%p467, %1026) /* ty=Tensor[(32, 256, 4096), float16] */;
    %1028 = multiply(%1023, %1027) /* ty=Tensor[(32, 256, 4096), float16] */;
    %1029 = broadcast_to(%1028, shape=[32, 256, 4096], dtype="float16") /* ty=Tensor[(32, 256, 4096), float16] */;
    reshape(%1029, newshape=[-1, 256, 4096]) /* ty=Tensor[(32, 256, 4096), float16] */
  } /* ty=fn (Tensor[(32, 256, 4096), float16], Tensor[(4096), float16], float16, float16, float16) -> Tensor[(32, 256, 4096), float16] */;
  %1253 = %1252(%1251, meta[relay.Constant][32] /* ty=Tensor[(4096), float16] */, 0.707031f16 /* ty=float16 */, 0.5f16 /* ty=float16 */, 0.5f16 /* ty=float16 */) /* ty=Tensor[(32, 256, 4096), float16] */;
  %1254 = fn (%p0398: Tensor[(32, 256, 4096), float16] /* ty=Tensor[(32, 256, 4096), float16] */, %p1288: Tensor[(32, 4096, 1024), float16] /* ty=Tensor[(32, 4096, 1024), float16] */, Primitive=1) -> Tensor[(32, 256, 1024), float16] {
    nn.batch_matmul(%p0398, %p1288, out_dtype="float16") /* ty=Tensor[(32, 256, 1024), float16] */
  } /* ty=fn (Tensor[(32, 256, 4096), float16], Tensor[(32, 4096, 1024), float16]) -> Tensor[(32, 256, 1024), float16] */;
  %1255 = %1254(%1253, meta[relay.Constant][33] /* ty=Tensor[(32, 4096, 1024), float16] */) /* ty=Tensor[(32, 256, 1024), float16] */;
  %1256 = fn (%p0397: Tensor[(32, 256, 1024), float16] /* ty=Tensor[(32, 256, 1024), float16] */, %p1287: Tensor[(1024), float16] /* ty=Tensor[(1024), float16] */, %p2133: Tensor[(32, 256, 1024), float32] /* ty=Tensor[(32, 256, 1024), float32] */, Primitive=1) -> Tensor[(32, 256, 1024), float32] {
    %1017 = reshape(%p0397, newshape=[32, 256, 1024]) /* ty=Tensor[(32, 256, 1024), float16] */;
    %1018 = squeeze(%1017, axis=[]) /* ty=Tensor[(32, 256, 1024), float16] */;
    %1019 = add(%1018, %p1287) /* ty=Tensor[(32, 256, 1024), float16] */;
    %1020 = cast(%1019, dtype="float32") /* ty=Tensor[(32, 256, 1024), float32] */;
    add(%1020, %p2133) /* ty=Tensor[(32, 256, 1024), float32] */
  } /* ty=fn (Tensor[(32, 256, 1024), float16], Tensor[(1024), float16], Tensor[(32, 256, 1024), float32]) -> Tensor[(32, 256, 1024), float32] */;
  %1257 = %1256(%1255, meta[relay.Constant][34] /* ty=Tensor[(1024), float16] */, %1247) /* ty=Tensor[(32, 256, 1024), float32] */;
  %1258 = fn (%p0454: Tensor[(32, 256, 1024), float32] /* ty=Tensor[(32, 256, 1024), float32] */, Primitive=1) -> Tensor[(32, 256, 1), float32] {
    mean(%p0454, axis=[-1], keepdims=True) /* ty=Tensor[(32, 256, 1), float32] */
  } /* ty=fn (Tensor[(32, 256, 1024), float32]) -> Tensor[(32, 256, 1), float32] */;
  %1259 = %1258(%1257) /* ty=Tensor[(32, 256, 1), float32] */;
  %1260 = fn (%p0455: Tensor[(32, 256, 1024), float32] /* ty=Tensor[(32, 256, 1024), float32] */, %p1326: Tensor[(32, 256, 1), float32] /* ty=Tensor[(32, 256, 1), float32] */, Primitive=1) -> Tensor[(32, 256, 1), float32] {
    variance(%p0455, %p1326, axis=[-1], keepdims=True) /* ty=Tensor[(32, 256, 1), float32] */
  } /* ty=fn (Tensor[(32, 256, 1024), float32], Tensor[(32, 256, 1), float32]) -> Tensor[(32, 256, 1), float32] */;
  %1261 = %1260(%1257, %1259) /* ty=Tensor[(32, 256, 1), float32] */;
  %1262 = fn (%p0396: Tensor[(32, 256, 1024), float32] /* ty=Tensor[(32, 256, 1024), float32] */, %p1286: Tensor[(32, 256, 1), float32] /* ty=Tensor[(32, 256, 1), float32] */, %p2132: Tensor[(32, 256, 1), float32] /* ty=Tensor[(32, 256, 1), float32] */, %p366: Tensor[(1024), float32] /* ty=Tensor[(1024), float32] */, %p466: Tensor[(1024), float32] /* ty=Tensor[(1024), float32] */, Primitive=1) -> Tensor[(32, 256, 1024), float32] {
    %1012 = add(%p2132, 1e-12f /* ty=float32 */) /* ty=Tensor[(32, 256, 1), float32] */;
    %1013 = subtract(%p0396, %p1286) /* ty=Tensor[(32, 256, 1024), float32] */;
    %1014 = rsqrt(%1012) /* ty=Tensor[(32, 256, 1), float32] */;
    %1015 = multiply(%1013, %1014) /* ty=Tensor[(32, 256, 1024), float32] */;
    %1016 = multiply(%1015, %p366) /* ty=Tensor[(32, 256, 1024), float32] */;
    add(%1016, %p466) /* ty=Tensor[(32, 256, 1024), float32] */
  } /* ty=fn (Tensor[(32, 256, 1024), float32], Tensor[(32, 256, 1), float32], Tensor[(32, 256, 1), float32], Tensor[(1024), float32], Tensor[(1024), float32]) -> Tensor[(32, 256, 1024), float32] */;
  %1263 = %1262(%1257, %1259, %1261, meta[relay.Constant][35] /* ty=Tensor[(1024), float32] */, meta[relay.Constant][36] /* ty=Tensor[(1024), float32] */) /* ty=Tensor[(32, 256, 1024), float32] */;
  %1264 = fn (%p0395: Tensor[(32, 256, 1024), float32] /* ty=Tensor[(32, 256, 1024), float32] */, Primitive=1) -> Tensor[(32, 256, 1024), float16] {
    %1010 = broadcast_to(%p0395, shape=[32, 256, 1024]) /* ty=Tensor[(32, 256, 1024), float32] */;
    %1011 = reshape(%1010, newshape=[-1, 256, 1024]) /* ty=Tensor[(32, 256, 1024), float32] */;
    cast(%1011, dtype="float16") /* ty=Tensor[(32, 256, 1024), float16] */
  } /* ty=fn (Tensor[(32, 256, 1024), float32]) -> Tensor[(32, 256, 1024), float16] */;
  %1265 = %1264(%1263) /* ty=Tensor[(32, 256, 1024), float16] */;
  %1266 = fn (%p0394: Tensor[(32, 256, 1024), float16] /* ty=Tensor[(32, 256, 1024), float16] */, %p1285: Tensor[(32, 1024, 1024), float16] /* ty=Tensor[(32, 1024, 1024), float16] */, Primitive=1) -> Tensor[(32, 256, 1024), float16] {
    nn.batch_matmul(%p0394, %p1285, out_dtype="float16") /* ty=Tensor[(32, 256, 1024), float16] */
  } /* ty=fn (Tensor[(32, 256, 1024), float16], Tensor[(32, 1024, 1024), float16]) -> Tensor[(32, 256, 1024), float16] */;
  %1267 = %1266(%1265, meta[relay.Constant][37] /* ty=Tensor[(32, 1024, 1024), float16] */) /* ty=Tensor[(32, 256, 1024), float16] */;
  %1268 = fn (%p0393: Tensor[(32, 256, 1024), float16] /* ty=Tensor[(32, 256, 1024), float16] */, %p1284: Tensor[(1024), float16] /* ty=Tensor[(1024), float16] */, Primitive=1) -> Tensor[(512, 256, 64), float16] {
    %1004 = reshape(%p0393, newshape=[32, 256, 1024]) /* ty=Tensor[(32, 256, 1024), float16] */;
    %1005 = squeeze(%1004, axis=[]) /* ty=Tensor[(32, 256, 1024), float16] */;
    %1006 = add(%1005, %p1284) /* ty=Tensor[(32, 256, 1024), float16] */;
    %1007 = reshape(%1006, newshape=[32, 256, 16, 64]) /* ty=Tensor[(32, 256, 16, 64), float16] */;
    %1008 = transpose(%1007, axes=[0, 2, 1, 3]) /* ty=Tensor[(32, 16, 256, 64), float16] */;
    %1009 = broadcast_to(%1008, shape=[32, 16, 256, 64], dtype="float16") /* ty=Tensor[(32, 16, 256, 64), float16] */;
    reshape(%1009, newshape=[-1, 256, 64]) /* ty=Tensor[(512, 256, 64), float16] */
  } /* ty=fn (Tensor[(32, 256, 1024), float16], Tensor[(1024), float16]) -> Tensor[(512, 256, 64), float16] */;
  %1277 = fn (%p0458: Tensor[(32, 256, 1024), float32] /* ty=Tensor[(32, 256, 1024), float32] */, Primitive=1) -> Tensor[(32, 256, 1024), float16] {
    %1275 = broadcast_to(%p0458, shape=[32, 256, 1024]) /* ty=Tensor[(32, 256, 1024), float32] */;
    %1276 = reshape(%1275, newshape=[-1, 256, 1024]) /* ty=Tensor[(32, 256, 1024), float32] */;
    cast(%1276, dtype="float16") /* ty=Tensor[(32, 256, 1024), float16] */
  } /* ty=fn (Tensor[(32, 256, 1024), float32]) -> Tensor[(32, 256, 1024), float16] */;
  %1278 = %1277(%1263) /* ty=Tensor[(32, 256, 1024), float16] */;
  %1279 = fn (%p0457: Tensor[(32, 256, 1024), float16] /* ty=Tensor[(32, 256, 1024), float16] */, %p1328: Tensor[(32, 1024, 1024), float16] /* ty=Tensor[(32, 1024, 1024), float16] */, Primitive=1) -> Tensor[(32, 256, 1024), float16] {
    nn.batch_matmul(%p0457, %p1328, out_dtype="float16") /* ty=Tensor[(32, 256, 1024), float16] */
  } /* ty=fn (Tensor[(32, 256, 1024), float16], Tensor[(32, 1024, 1024), float16]) -> Tensor[(32, 256, 1024), float16] */;
  %1280 = %1279(%1278, meta[relay.Constant][39] /* ty=Tensor[(32, 1024, 1024), float16] */) /* ty=Tensor[(32, 256, 1024), float16] */;
  %1281 = fn (%p0456: Tensor[(32, 256, 1024), float16] /* ty=Tensor[(32, 256, 1024), float16] */, %p1327: Tensor[(1024), float16] /* ty=Tensor[(1024), float16] */, Primitive=1) -> Tensor[(512, 64, 256), float16] {
    %1269 = reshape(%p0456, newshape=[32, 256, 1024]) /* ty=Tensor[(32, 256, 1024), float16] */;
    %1270 = squeeze(%1269, axis=[]) /* ty=Tensor[(32, 256, 1024), float16] */;
    %1271 = add(%1270, %p1327) /* ty=Tensor[(32, 256, 1024), float16] */;
    %1272 = reshape(%1271, newshape=[32, 256, 16, 64]) /* ty=Tensor[(32, 256, 16, 64), float16] */;
    %1273 = transpose(%1272, axes=[0, 2, 3, 1]) /* ty=Tensor[(32, 16, 64, 256), float16] */;
    %1274 = broadcast_to(%1273, shape=[32, 16, 64, 256], dtype="float16") /* ty=Tensor[(32, 16, 64, 256), float16] */;
    reshape(%1274, newshape=[-1, 64, 256]) /* ty=Tensor[(512, 64, 256), float16] */
  } /* ty=fn (Tensor[(32, 256, 1024), float16], Tensor[(1024), float16]) -> Tensor[(512, 64, 256), float16] */;
  %1282 = %1268(%1267, meta[relay.Constant][38] /* ty=Tensor[(1024), float16] */) /* ty=Tensor[(512, 256, 64), float16] */;
  %1283 = %1281(%1280, meta[relay.Constant][40] /* ty=Tensor[(1024), float16] */) /* ty=Tensor[(512, 64, 256), float16] */;
  %1284 = fn (%p0392: Tensor[(512, 256, 64), float16] /* ty=Tensor[(512, 256, 64), float16] */, %p1283: Tensor[(512, 64, 256), float16] /* ty=Tensor[(512, 64, 256), float16] */, Primitive=1) -> Tensor[(512, 256, 256), float16] {
    nn.batch_matmul(%p0392, %p1283, out_dtype="float16") /* ty=Tensor[(512, 256, 256), float16] */
  } /* ty=fn (Tensor[(512, 256, 64), float16], Tensor[(512, 64, 256), float16]) -> Tensor[(512, 256, 256), float16] */;
  %1285 = %1284(%1282, %1283) /* ty=Tensor[(512, 256, 256), float16] */;
  %1286 = fn (%p0391: Tensor[(512, 256, 256), float16] /* ty=Tensor[(512, 256, 256), float16] */, %p1282: float16 /* ty=float16 */, %p2131: Tensor[(32, 1, 1, 256), float16] /* ty=Tensor[(32, 1, 1, 256), float16] */, Primitive=1) -> Tensor[(32, 16, 256, 256), float16] {
    %1001 = reshape(%p0391, newshape=[32, 16, 256, 256]) /* ty=Tensor[(32, 16, 256, 256), float16] */;
    %1002 = squeeze(%1001, axis=[]) /* ty=Tensor[(32, 16, 256, 256), float16] */;
    %1003 = divide(%1002, %p1282) /* ty=Tensor[(32, 16, 256, 256), float16] */;
    add(%1003, %p2131) /* ty=Tensor[(32, 16, 256, 256), float16] */
  } /* ty=fn (Tensor[(512, 256, 256), float16], float16, Tensor[(32, 1, 1, 256), float16]) -> Tensor[(32, 16, 256, 256), float16] */;
  %1287 = %1286(%1285, 8f16 /* ty=float16 */, meta[relay.Constant][8] /* ty=Tensor[(32, 1, 1, 256), float16] */) /* ty=Tensor[(32, 16, 256, 256), float16] */;
  %1288 = fn (%p0390: Tensor[(32, 16, 256, 256), float16] /* ty=Tensor[(32, 16, 256, 256), float16] */, Primitive=1) -> Tensor[(32, 16, 256, 256), float16] {
    %1000 = nn.fast_softmax(%p0390) /* ty=Tensor[(32, 16, 256, 256), float16] */;
    broadcast_to(%1000, shape=[32, 16, 256, 256], dtype="float16") /* ty=Tensor[(32, 16, 256, 256), float16] */
  } /* ty=fn (Tensor[(32, 16, 256, 256), float16]) -> Tensor[(32, 16, 256, 256), float16] */;
  %1289 = %1288(%1287) /* ty=Tensor[(32, 16, 256, 256), float16] */;
  %1290 = fn (%p0389: Tensor[(32, 16, 256, 256), float16] /* ty=Tensor[(32, 16, 256, 256), float16] */, Primitive=1, relay.reshape_only=1) -> Tensor[(512, 256, 256), float16] {
    reshape(%p0389, newshape=[-1, 256, 256]) /* ty=Tensor[(512, 256, 256), float16] */
  } /* ty=fn (Tensor[(32, 16, 256, 256), float16]) -> Tensor[(512, 256, 256), float16] */;
  %1299 = fn (%p0461: Tensor[(32, 256, 1024), float32] /* ty=Tensor[(32, 256, 1024), float32] */, Primitive=1) -> Tensor[(32, 256, 1024), float16] {
    %1297 = broadcast_to(%p0461, shape=[32, 256, 1024]) /* ty=Tensor[(32, 256, 1024), float32] */;
    %1298 = reshape(%1297, newshape=[-1, 256, 1024]) /* ty=Tensor[(32, 256, 1024), float32] */;
    cast(%1298, dtype="float16") /* ty=Tensor[(32, 256, 1024), float16] */
  } /* ty=fn (Tensor[(32, 256, 1024), float32]) -> Tensor[(32, 256, 1024), float16] */;
  %1300 = %1299(%1263) /* ty=Tensor[(32, 256, 1024), float16] */;
  %1301 = fn (%p0460: Tensor[(32, 256, 1024), float16] /* ty=Tensor[(32, 256, 1024), float16] */, %p1330: Tensor[(32, 1024, 1024), float16] /* ty=Tensor[(32, 1024, 1024), float16] */, Primitive=1) -> Tensor[(32, 256, 1024), float16] {
    nn.batch_matmul(%p0460, %p1330, out_dtype="float16") /* ty=Tensor[(32, 256, 1024), float16] */
  } /* ty=fn (Tensor[(32, 256, 1024), float16], Tensor[(32, 1024, 1024), float16]) -> Tensor[(32, 256, 1024), float16] */;
  %1302 = %1301(%1300, meta[relay.Constant][41] /* ty=Tensor[(32, 1024, 1024), float16] */) /* ty=Tensor[(32, 256, 1024), float16] */;
  %1303 = fn (%p0459: Tensor[(32, 256, 1024), float16] /* ty=Tensor[(32, 256, 1024), float16] */, %p1329: Tensor[(1024), float16] /* ty=Tensor[(1024), float16] */, Primitive=1) -> Tensor[(512, 256, 64), float16] {
    %1291 = reshape(%p0459, newshape=[32, 256, 1024]) /* ty=Tensor[(32, 256, 1024), float16] */;
    %1292 = squeeze(%1291, axis=[]) /* ty=Tensor[(32, 256, 1024), float16] */;
    %1293 = add(%1292, %p1329) /* ty=Tensor[(32, 256, 1024), float16] */;
    %1294 = reshape(%1293, newshape=[32, 256, 16, 64]) /* ty=Tensor[(32, 256, 16, 64), float16] */;
    %1295 = transpose(%1294, axes=[0, 2, 1, 3]) /* ty=Tensor[(32, 16, 256, 64), float16] */;
    %1296 = broadcast_to(%1295, shape=[32, 16, 256, 64], dtype="float16") /* ty=Tensor[(32, 16, 256, 64), float16] */;
    reshape(%1296, newshape=[-1, 256, 64]) /* ty=Tensor[(512, 256, 64), float16] */
  } /* ty=fn (Tensor[(32, 256, 1024), float16], Tensor[(1024), float16]) -> Tensor[(512, 256, 64), float16] */;
  %1304 = %1290(%1289) /* ty=Tensor[(512, 256, 256), float16] */;
  %1305 = %1303(%1302, meta[relay.Constant][42] /* ty=Tensor[(1024), float16] */) /* ty=Tensor[(512, 256, 64), float16] */;
  %1306 = fn (%p0388: Tensor[(512, 256, 256), float16] /* ty=Tensor[(512, 256, 256), float16] */, %p1281: Tensor[(512, 256, 64), float16] /* ty=Tensor[(512, 256, 64), float16] */, Primitive=1) -> Tensor[(512, 256, 64), float16] {
    nn.batch_matmul(%p0388, %p1281, out_dtype="float16") /* ty=Tensor[(512, 256, 64), float16] */
  } /* ty=fn (Tensor[(512, 256, 256), float16], Tensor[(512, 256, 64), float16]) -> Tensor[(512, 256, 64), float16] */;
  %1307 = %1306(%1304, %1305) /* ty=Tensor[(512, 256, 64), float16] */;
  %1308 = fn (%p0387: Tensor[(512, 256, 64), float16] /* ty=Tensor[(512, 256, 64), float16] */, Primitive=1) -> Tensor[(32, 256, 1024), float16] {
    %995 = reshape(%p0387, newshape=[32, 16, 256, 64]) /* ty=Tensor[(32, 16, 256, 64), float16] */;
    %996 = squeeze(%995, axis=[]) /* ty=Tensor[(32, 16, 256, 64), float16] */;
    %997 = transpose(%996, axes=[0, 2, 1, 3]) /* ty=Tensor[(32, 256, 16, 64), float16] */;
    %998 = reshape(%997, newshape=[32, 256, 1024]) /* ty=Tensor[(32, 256, 1024), float16] */;
    %999 = broadcast_to(%998, shape=[32, 256, 1024], dtype="float16") /* ty=Tensor[(32, 256, 1024), float16] */;
    reshape(%999, newshape=[-1, 256, 1024]) /* ty=Tensor[(32, 256, 1024), float16] */
  } /* ty=fn (Tensor[(512, 256, 64), float16]) -> Tensor[(32, 256, 1024), float16] */;
  %1309 = %1308(%1307) /* ty=Tensor[(32, 256, 1024), float16] */;
  %1310 = fn (%p0386: Tensor[(32, 256, 1024), float16] /* ty=Tensor[(32, 256, 1024), float16] */, %p1280: Tensor[(32, 1024, 1024), float16] /* ty=Tensor[(32, 1024, 1024), float16] */, Primitive=1) -> Tensor[(32, 256, 1024), float16] {
    nn.batch_matmul(%p0386, %p1280, out_dtype="float16") /* ty=Tensor[(32, 256, 1024), float16] */
  } /* ty=fn (Tensor[(32, 256, 1024), float16], Tensor[(32, 1024, 1024), float16]) -> Tensor[(32, 256, 1024), float16] */;
  %1311 = %1310(%1309, meta[relay.Constant][43] /* ty=Tensor[(32, 1024, 1024), float16] */) /* ty=Tensor[(32, 256, 1024), float16] */;
  %1312 = fn (%p0385: Tensor[(32, 256, 1024), float16] /* ty=Tensor[(32, 256, 1024), float16] */, %p1279: Tensor[(1024), float16] /* ty=Tensor[(1024), float16] */, %p2130: Tensor[(32, 256, 1024), float32] /* ty=Tensor[(32, 256, 1024), float32] */, Primitive=1) -> Tensor[(32, 256, 1024), float32] {
    %991 = reshape(%p0385, newshape=[32, 256, 1024]) /* ty=Tensor[(32, 256, 1024), float16] */;
    %992 = squeeze(%991, axis=[]) /* ty=Tensor[(32, 256, 1024), float16] */;
    %993 = add(%992, %p1279) /* ty=Tensor[(32, 256, 1024), float16] */;
    %994 = cast(%993, dtype="float32") /* ty=Tensor[(32, 256, 1024), float32] */;
    add(%994, %p2130) /* ty=Tensor[(32, 256, 1024), float32] */
  } /* ty=fn (Tensor[(32, 256, 1024), float16], Tensor[(1024), float16], Tensor[(32, 256, 1024), float32]) -> Tensor[(32, 256, 1024), float32] */;
  %1313 = %1312(%1311, meta[relay.Constant][44] /* ty=Tensor[(1024), float16] */, %1263) /* ty=Tensor[(32, 256, 1024), float32] */;
  %1314 = fn (%p0462: Tensor[(32, 256, 1024), float32] /* ty=Tensor[(32, 256, 1024), float32] */, Primitive=1) -> Tensor[(32, 256, 1), float32] {
    mean(%p0462, axis=[-1], keepdims=True) /* ty=Tensor[(32, 256, 1), float32] */
  } /* ty=fn (Tensor[(32, 256, 1024), float32]) -> Tensor[(32, 256, 1), float32] */;
  %1315 = %1314(%1313) /* ty=Tensor[(32, 256, 1), float32] */;
  %1316 = fn (%p0463: Tensor[(32, 256, 1024), float32] /* ty=Tensor[(32, 256, 1024), float32] */, %p1331: Tensor[(32, 256, 1), float32] /* ty=Tensor[(32, 256, 1), float32] */, Primitive=1) -> Tensor[(32, 256, 1), float32] {
    variance(%p0463, %p1331, axis=[-1], keepdims=True) /* ty=Tensor[(32, 256, 1), float32] */
  } /* ty=fn (Tensor[(32, 256, 1024), float32], Tensor[(32, 256, 1), float32]) -> Tensor[(32, 256, 1), float32] */;
  %1317 = %1316(%1313, %1315) /* ty=Tensor[(32, 256, 1), float32] */;
  %1318 = fn (%p0384: Tensor[(32, 256, 1024), float32] /* ty=Tensor[(32, 256, 1024), float32] */, %p1278: Tensor[(32, 256, 1), float32] /* ty=Tensor[(32, 256, 1), float32] */, %p2129: Tensor[(32, 256, 1), float32] /* ty=Tensor[(32, 256, 1), float32] */, %p365: Tensor[(1024), float32] /* ty=Tensor[(1024), float32] */, %p465: Tensor[(1024), float32] /* ty=Tensor[(1024), float32] */, Primitive=1) -> Tensor[(32, 256, 1024), float32] {
    %986 = add(%p2129, 1e-12f /* ty=float32 */) /* ty=Tensor[(32, 256, 1), float32] */;
    %987 = subtract(%p0384, %p1278) /* ty=Tensor[(32, 256, 1024), float32] */;
    %988 = rsqrt(%986) /* ty=Tensor[(32, 256, 1), float32] */;
    %989 = multiply(%987, %988) /* ty=Tensor[(32, 256, 1024), float32] */;
    %990 = multiply(%989, %p365) /* ty=Tensor[(32, 256, 1024), float32] */;
    add(%990, %p465) /* ty=Tensor[(32, 256, 1024), float32] */
  } /* ty=fn (Tensor[(32, 256, 1024), float32], Tensor[(32, 256, 1), float32], Tensor[(32, 256, 1), float32], Tensor[(1024), float32], Tensor[(1024), float32]) -> Tensor[(32, 256, 1024), float32] */;
  %1319 = %1318(%1313, %1315, %1317, meta[relay.Constant][45] /* ty=Tensor[(1024), float32] */, meta[relay.Constant][46] /* ty=Tensor[(1024), float32] */) /* ty=Tensor[(32, 256, 1024), float32] */;
  %1320 = fn (%p0383: Tensor[(32, 256, 1024), float32] /* ty=Tensor[(32, 256, 1024), float32] */, Primitive=1) -> Tensor[(32, 256, 1024), float16] {
    %984 = broadcast_to(%p0383, shape=[32, 256, 1024]) /* ty=Tensor[(32, 256, 1024), float32] */;
    %985 = reshape(%984, newshape=[-1, 256, 1024]) /* ty=Tensor[(32, 256, 1024), float32] */;
    cast(%985, dtype="float16") /* ty=Tensor[(32, 256, 1024), float16] */
  } /* ty=fn (Tensor[(32, 256, 1024), float32]) -> Tensor[(32, 256, 1024), float16] */;
  %1321 = %1320(%1319) /* ty=Tensor[(32, 256, 1024), float16] */;
  %1322 = fn (%p0382: Tensor[(32, 256, 1024), float16] /* ty=Tensor[(32, 256, 1024), float16] */, %p1277: Tensor[(32, 1024, 4096), float16] /* ty=Tensor[(32, 1024, 4096), float16] */, Primitive=1) -> Tensor[(32, 256, 4096), float16] {
    nn.batch_matmul(%p0382, %p1277, out_dtype="float16") /* ty=Tensor[(32, 256, 4096), float16] */
  } /* ty=fn (Tensor[(32, 256, 1024), float16], Tensor[(32, 1024, 4096), float16]) -> Tensor[(32, 256, 4096), float16] */;
  %1323 = %1322(%1321, meta[relay.Constant][47] /* ty=Tensor[(32, 1024, 4096), float16] */) /* ty=Tensor[(32, 256, 4096), float16] */;
  %1324 = fn (%p0381: Tensor[(32, 256, 4096), float16] /* ty=Tensor[(32, 256, 4096), float16] */, %p1276: Tensor[(4096), float16] /* ty=Tensor[(4096), float16] */, %p2128: float16 /* ty=float16 */, %p364: float16 /* ty=float16 */, %p464: float16 /* ty=float16 */, Primitive=1) -> Tensor[(32, 256, 4096), float16] {
    %975 = reshape(%p0381, newshape=[32, 256, 4096]) /* ty=Tensor[(32, 256, 4096), float16] */;
    %976 = squeeze(%975, axis=[]) /* ty=Tensor[(32, 256, 4096), float16] */;
    %977 = add(%976, %p1276) /* ty=Tensor[(32, 256, 4096), float16] */;
    %978 = multiply(%977, %p2128) /* ty=Tensor[(32, 256, 4096), float16] */;
    %979 = fast_erf(%978) /* ty=Tensor[(32, 256, 4096), float16] */;
    %980 = multiply(%979, %p364) /* ty=Tensor[(32, 256, 4096), float16] */;
    %981 = add(%p464, %980) /* ty=Tensor[(32, 256, 4096), float16] */;
    %982 = multiply(%977, %981) /* ty=Tensor[(32, 256, 4096), float16] */;
    %983 = broadcast_to(%982, shape=[32, 256, 4096], dtype="float16") /* ty=Tensor[(32, 256, 4096), float16] */;
    reshape(%983, newshape=[-1, 256, 4096]) /* ty=Tensor[(32, 256, 4096), float16] */
  } /* ty=fn (Tensor[(32, 256, 4096), float16], Tensor[(4096), float16], float16, float16, float16) -> Tensor[(32, 256, 4096), float16] */;
  %1325 = %1324(%1323, meta[relay.Constant][48] /* ty=Tensor[(4096), float16] */, 0.707031f16 /* ty=float16 */, 0.5f16 /* ty=float16 */, 0.5f16 /* ty=float16 */) /* ty=Tensor[(32, 256, 4096), float16] */;
  %1326 = fn (%p0380: Tensor[(32, 256, 4096), float16] /* ty=Tensor[(32, 256, 4096), float16] */, %p1275: Tensor[(32, 4096, 1024), float16] /* ty=Tensor[(32, 4096, 1024), float16] */, Primitive=1) -> Tensor[(32, 256, 1024), float16] {
    nn.batch_matmul(%p0380, %p1275, out_dtype="float16") /* ty=Tensor[(32, 256, 1024), float16] */
  } /* ty=fn (Tensor[(32, 256, 4096), float16], Tensor[(32, 4096, 1024), float16]) -> Tensor[(32, 256, 1024), float16] */;
  %1327 = %1326(%1325, meta[relay.Constant][49] /* ty=Tensor[(32, 4096, 1024), float16] */) /* ty=Tensor[(32, 256, 1024), float16] */;
  %1328 = fn (%p0379: Tensor[(32, 256, 1024), float16] /* ty=Tensor[(32, 256, 1024), float16] */, %p1274: Tensor[(1024), float16] /* ty=Tensor[(1024), float16] */, %p2127: Tensor[(32, 256, 1024), float32] /* ty=Tensor[(32, 256, 1024), float32] */, Primitive=1) -> Tensor[(32, 256, 1024), float32] {
    %971 = reshape(%p0379, newshape=[32, 256, 1024]) /* ty=Tensor[(32, 256, 1024), float16] */;
    %972 = squeeze(%971, axis=[]) /* ty=Tensor[(32, 256, 1024), float16] */;
    %973 = add(%972, %p1274) /* ty=Tensor[(32, 256, 1024), float16] */;
    %974 = cast(%973, dtype="float32") /* ty=Tensor[(32, 256, 1024), float32] */;
    add(%974, %p2127) /* ty=Tensor[(32, 256, 1024), float32] */
  } /* ty=fn (Tensor[(32, 256, 1024), float16], Tensor[(1024), float16], Tensor[(32, 256, 1024), float32]) -> Tensor[(32, 256, 1024), float32] */;
  %1329 = %1328(%1327, meta[relay.Constant][50] /* ty=Tensor[(1024), float16] */, %1319) /* ty=Tensor[(32, 256, 1024), float32] */;
  %1330 = fn (%p0464: Tensor[(32, 256, 1024), float32] /* ty=Tensor[(32, 256, 1024), float32] */, Primitive=1) -> Tensor[(32, 256, 1), float32] {
    mean(%p0464, axis=[-1], keepdims=True) /* ty=Tensor[(32, 256, 1), float32] */
  } /* ty=fn (Tensor[(32, 256, 1024), float32]) -> Tensor[(32, 256, 1), float32] */;
  %1331 = %1330(%1329) /* ty=Tensor[(32, 256, 1), float32] */;
  %1332 = fn (%p0465: Tensor[(32, 256, 1024), float32] /* ty=Tensor[(32, 256, 1024), float32] */, %p1332: Tensor[(32, 256, 1), float32] /* ty=Tensor[(32, 256, 1), float32] */, Primitive=1) -> Tensor[(32, 256, 1), float32] {
    variance(%p0465, %p1332, axis=[-1], keepdims=True) /* ty=Tensor[(32, 256, 1), float32] */
  } /* ty=fn (Tensor[(32, 256, 1024), float32], Tensor[(32, 256, 1), float32]) -> Tensor[(32, 256, 1), float32] */;
  %1333 = %1332(%1329, %1331) /* ty=Tensor[(32, 256, 1), float32] */;
  %1334 = fn (%p0378: Tensor[(32, 256, 1024), float32] /* ty=Tensor[(32, 256, 1024), float32] */, %p1273: Tensor[(32, 256, 1), float32] /* ty=Tensor[(32, 256, 1), float32] */, %p2126: Tensor[(32, 256, 1), float32] /* ty=Tensor[(32, 256, 1), float32] */, %p363: Tensor[(1024), float32] /* ty=Tensor[(1024), float32] */, %p463: Tensor[(1024), float32] /* ty=Tensor[(1024), float32] */, Primitive=1) -> Tensor[(32, 256, 1024), float32] {
    %966 = add(%p2126, 1e-12f /* ty=float32 */) /* ty=Tensor[(32, 256, 1), float32] */;
    %967 = subtract(%p0378, %p1273) /* ty=Tensor[(32, 256, 1024), float32] */;
    %968 = rsqrt(%966) /* ty=Tensor[(32, 256, 1), float32] */;
    %969 = multiply(%967, %968) /* ty=Tensor[(32, 256, 1024), float32] */;
    %970 = multiply(%969, %p363) /* ty=Tensor[(32, 256, 1024), float32] */;
    add(%970, %p463) /* ty=Tensor[(32, 256, 1024), float32] */
  } /* ty=fn (Tensor[(32, 256, 1024), float32], Tensor[(32, 256, 1), float32], Tensor[(32, 256, 1), float32], Tensor[(1024), float32], Tensor[(1024), float32]) -> Tensor[(32, 256, 1024), float32] */;
  %1335 = %1334(%1329, %1331, %1333, meta[relay.Constant][51] /* ty=Tensor[(1024), float32] */, meta[relay.Constant][52] /* ty=Tensor[(1024), float32] */) /* ty=Tensor[(32, 256, 1024), float32] */;
  %1336 = fn (%p0377: Tensor[(32, 256, 1024), float32] /* ty=Tensor[(32, 256, 1024), float32] */, Primitive=1) -> Tensor[(32, 256, 1024), float16] {
    %964 = broadcast_to(%p0377, shape=[32, 256, 1024]) /* ty=Tensor[(32, 256, 1024), float32] */;
    %965 = reshape(%964, newshape=[-1, 256, 1024]) /* ty=Tensor[(32, 256, 1024), float32] */;
    cast(%965, dtype="float16") /* ty=Tensor[(32, 256, 1024), float16] */
  } /* ty=fn (Tensor[(32, 256, 1024), float32]) -> Tensor[(32, 256, 1024), float16] */;
  %1337 = %1336(%1335) /* ty=Tensor[(32, 256, 1024), float16] */;
  %1338 = fn (%p0376: Tensor[(32, 256, 1024), float16] /* ty=Tensor[(32, 256, 1024), float16] */, %p1272: Tensor[(32, 1024, 1024), float16] /* ty=Tensor[(32, 1024, 1024), float16] */, Primitive=1) -> Tensor[(32, 256, 1024), float16] {
    nn.batch_matmul(%p0376, %p1272, out_dtype="float16") /* ty=Tensor[(32, 256, 1024), float16] */
  } /* ty=fn (Tensor[(32, 256, 1024), float16], Tensor[(32, 1024, 1024), float16]) -> Tensor[(32, 256, 1024), float16] */;
  %1339 = %1338(%1337, meta[relay.Constant][53] /* ty=Tensor[(32, 1024, 1024), float16] */) /* ty=Tensor[(32, 256, 1024), float16] */;
  %1340 = fn (%p0375: Tensor[(32, 256, 1024), float16] /* ty=Tensor[(32, 256, 1024), float16] */, %p1271: Tensor[(1024), float16] /* ty=Tensor[(1024), float16] */, Primitive=1) -> Tensor[(512, 256, 64), float16] {
    %958 = reshape(%p0375, newshape=[32, 256, 1024]) /* ty=Tensor[(32, 256, 1024), float16] */;
    %959 = squeeze(%958, axis=[]) /* ty=Tensor[(32, 256, 1024), float16] */;
    %960 = add(%959, %p1271) /* ty=Tensor[(32, 256, 1024), float16] */;
    %961 = reshape(%960, newshape=[32, 256, 16, 64]) /* ty=Tensor[(32, 256, 16, 64), float16] */;
    %962 = transpose(%961, axes=[0, 2, 1, 3]) /* ty=Tensor[(32, 16, 256, 64), float16] */;
    %963 = broadcast_to(%962, shape=[32, 16, 256, 64], dtype="float16") /* ty=Tensor[(32, 16, 256, 64), float16] */;
    reshape(%963, newshape=[-1, 256, 64]) /* ty=Tensor[(512, 256, 64), float16] */
  } /* ty=fn (Tensor[(32, 256, 1024), float16], Tensor[(1024), float16]) -> Tensor[(512, 256, 64), float16] */;
  %1349 = fn (%p0468: Tensor[(32, 256, 1024), float32] /* ty=Tensor[(32, 256, 1024), float32] */, Primitive=1) -> Tensor[(32, 256, 1024), float16] {
    %1347 = broadcast_to(%p0468, shape=[32, 256, 1024]) /* ty=Tensor[(32, 256, 1024), float32] */;
    %1348 = reshape(%1347, newshape=[-1, 256, 1024]) /* ty=Tensor[(32, 256, 1024), float32] */;
    cast(%1348, dtype="float16") /* ty=Tensor[(32, 256, 1024), float16] */
  } /* ty=fn (Tensor[(32, 256, 1024), float32]) -> Tensor[(32, 256, 1024), float16] */;
  %1350 = %1349(%1335) /* ty=Tensor[(32, 256, 1024), float16] */;
  %1351 = fn (%p0467: Tensor[(32, 256, 1024), float16] /* ty=Tensor[(32, 256, 1024), float16] */, %p1334: Tensor[(32, 1024, 1024), float16] /* ty=Tensor[(32, 1024, 1024), float16] */, Primitive=1) -> Tensor[(32, 256, 1024), float16] {
    nn.batch_matmul(%p0467, %p1334, out_dtype="float16") /* ty=Tensor[(32, 256, 1024), float16] */
  } /* ty=fn (Tensor[(32, 256, 1024), float16], Tensor[(32, 1024, 1024), float16]) -> Tensor[(32, 256, 1024), float16] */;
  %1352 = %1351(%1350, meta[relay.Constant][55] /* ty=Tensor[(32, 1024, 1024), float16] */) /* ty=Tensor[(32, 256, 1024), float16] */;
  %1353 = fn (%p0466: Tensor[(32, 256, 1024), float16] /* ty=Tensor[(32, 256, 1024), float16] */, %p1333: Tensor[(1024), float16] /* ty=Tensor[(1024), float16] */, Primitive=1) -> Tensor[(512, 64, 256), float16] {
    %1341 = reshape(%p0466, newshape=[32, 256, 1024]) /* ty=Tensor[(32, 256, 1024), float16] */;
    %1342 = squeeze(%1341, axis=[]) /* ty=Tensor[(32, 256, 1024), float16] */;
    %1343 = add(%1342, %p1333) /* ty=Tensor[(32, 256, 1024), float16] */;
    %1344 = reshape(%1343, newshape=[32, 256, 16, 64]) /* ty=Tensor[(32, 256, 16, 64), float16] */;
    %1345 = transpose(%1344, axes=[0, 2, 3, 1]) /* ty=Tensor[(32, 16, 64, 256), float16] */;
    %1346 = broadcast_to(%1345, shape=[32, 16, 64, 256], dtype="float16") /* ty=Tensor[(32, 16, 64, 256), float16] */;
    reshape(%1346, newshape=[-1, 64, 256]) /* ty=Tensor[(512, 64, 256), float16] */
  } /* ty=fn (Tensor[(32, 256, 1024), float16], Tensor[(1024), float16]) -> Tensor[(512, 64, 256), float16] */;
  %1354 = %1340(%1339, meta[relay.Constant][54] /* ty=Tensor[(1024), float16] */) /* ty=Tensor[(512, 256, 64), float16] */;
  %1355 = %1353(%1352, meta[relay.Constant][56] /* ty=Tensor[(1024), float16] */) /* ty=Tensor[(512, 64, 256), float16] */;
  %1356 = fn (%p0374: Tensor[(512, 256, 64), float16] /* ty=Tensor[(512, 256, 64), float16] */, %p1270: Tensor[(512, 64, 256), float16] /* ty=Tensor[(512, 64, 256), float16] */, Primitive=1) -> Tensor[(512, 256, 256), float16] {
    nn.batch_matmul(%p0374, %p1270, out_dtype="float16") /* ty=Tensor[(512, 256, 256), float16] */
  } /* ty=fn (Tensor[(512, 256, 64), float16], Tensor[(512, 64, 256), float16]) -> Tensor[(512, 256, 256), float16] */;
  %1357 = %1356(%1354, %1355) /* ty=Tensor[(512, 256, 256), float16] */;
  %1358 = fn (%p0373: Tensor[(512, 256, 256), float16] /* ty=Tensor[(512, 256, 256), float16] */, %p1269: float16 /* ty=float16 */, %p2125: Tensor[(32, 1, 1, 256), float16] /* ty=Tensor[(32, 1, 1, 256), float16] */, Primitive=1) -> Tensor[(32, 16, 256, 256), float16] {
    %955 = reshape(%p0373, newshape=[32, 16, 256, 256]) /* ty=Tensor[(32, 16, 256, 256), float16] */;
    %956 = squeeze(%955, axis=[]) /* ty=Tensor[(32, 16, 256, 256), float16] */;
    %957 = divide(%956, %p1269) /* ty=Tensor[(32, 16, 256, 256), float16] */;
    add(%957, %p2125) /* ty=Tensor[(32, 16, 256, 256), float16] */
  } /* ty=fn (Tensor[(512, 256, 256), float16], float16, Tensor[(32, 1, 1, 256), float16]) -> Tensor[(32, 16, 256, 256), float16] */;
  %1359 = %1358(%1357, 8f16 /* ty=float16 */, meta[relay.Constant][8] /* ty=Tensor[(32, 1, 1, 256), float16] */) /* ty=Tensor[(32, 16, 256, 256), float16] */;
  %1360 = fn (%p0372: Tensor[(32, 16, 256, 256), float16] /* ty=Tensor[(32, 16, 256, 256), float16] */, Primitive=1) -> Tensor[(32, 16, 256, 256), float16] {
    %954 = nn.fast_softmax(%p0372) /* ty=Tensor[(32, 16, 256, 256), float16] */;
    broadcast_to(%954, shape=[32, 16, 256, 256], dtype="float16") /* ty=Tensor[(32, 16, 256, 256), float16] */
  } /* ty=fn (Tensor[(32, 16, 256, 256), float16]) -> Tensor[(32, 16, 256, 256), float16] */;
  %1361 = %1360(%1359) /* ty=Tensor[(32, 16, 256, 256), float16] */;
  %1362 = fn (%p0371: Tensor[(32, 16, 256, 256), float16] /* ty=Tensor[(32, 16, 256, 256), float16] */, Primitive=1, relay.reshape_only=1) -> Tensor[(512, 256, 256), float16] {
    reshape(%p0371, newshape=[-1, 256, 256]) /* ty=Tensor[(512, 256, 256), float16] */
  } /* ty=fn (Tensor[(32, 16, 256, 256), float16]) -> Tensor[(512, 256, 256), float16] */;
  %1371 = fn (%p0471: Tensor[(32, 256, 1024), float32] /* ty=Tensor[(32, 256, 1024), float32] */, Primitive=1) -> Tensor[(32, 256, 1024), float16] {
    %1369 = broadcast_to(%p0471, shape=[32, 256, 1024]) /* ty=Tensor[(32, 256, 1024), float32] */;
    %1370 = reshape(%1369, newshape=[-1, 256, 1024]) /* ty=Tensor[(32, 256, 1024), float32] */;
    cast(%1370, dtype="float16") /* ty=Tensor[(32, 256, 1024), float16] */
  } /* ty=fn (Tensor[(32, 256, 1024), float32]) -> Tensor[(32, 256, 1024), float16] */;
  %1372 = %1371(%1335) /* ty=Tensor[(32, 256, 1024), float16] */;
  %1373 = fn (%p0470: Tensor[(32, 256, 1024), float16] /* ty=Tensor[(32, 256, 1024), float16] */, %p1336: Tensor[(32, 1024, 1024), float16] /* ty=Tensor[(32, 1024, 1024), float16] */, Primitive=1) -> Tensor[(32, 256, 1024), float16] {
    nn.batch_matmul(%p0470, %p1336, out_dtype="float16") /* ty=Tensor[(32, 256, 1024), float16] */
  } /* ty=fn (Tensor[(32, 256, 1024), float16], Tensor[(32, 1024, 1024), float16]) -> Tensor[(32, 256, 1024), float16] */;
  %1374 = %1373(%1372, meta[relay.Constant][57] /* ty=Tensor[(32, 1024, 1024), float16] */) /* ty=Tensor[(32, 256, 1024), float16] */;
  %1375 = fn (%p0469: Tensor[(32, 256, 1024), float16] /* ty=Tensor[(32, 256, 1024), float16] */, %p1335: Tensor[(1024), float16] /* ty=Tensor[(1024), float16] */, Primitive=1) -> Tensor[(512, 256, 64), float16] {
    %1363 = reshape(%p0469, newshape=[32, 256, 1024]) /* ty=Tensor[(32, 256, 1024), float16] */;
    %1364 = squeeze(%1363, axis=[]) /* ty=Tensor[(32, 256, 1024), float16] */;
    %1365 = add(%1364, %p1335) /* ty=Tensor[(32, 256, 1024), float16] */;
    %1366 = reshape(%1365, newshape=[32, 256, 16, 64]) /* ty=Tensor[(32, 256, 16, 64), float16] */;
    %1367 = transpose(%1366, axes=[0, 2, 1, 3]) /* ty=Tensor[(32, 16, 256, 64), float16] */;
    %1368 = broadcast_to(%1367, shape=[32, 16, 256, 64], dtype="float16") /* ty=Tensor[(32, 16, 256, 64), float16] */;
    reshape(%1368, newshape=[-1, 256, 64]) /* ty=Tensor[(512, 256, 64), float16] */
  } /* ty=fn (Tensor[(32, 256, 1024), float16], Tensor[(1024), float16]) -> Tensor[(512, 256, 64), float16] */;
  %1376 = %1362(%1361) /* ty=Tensor[(512, 256, 256), float16] */;
  %1377 = %1375(%1374, meta[relay.Constant][58] /* ty=Tensor[(1024), float16] */) /* ty=Tensor[(512, 256, 64), float16] */;
  %1378 = fn (%p0370: Tensor[(512, 256, 256), float16] /* ty=Tensor[(512, 256, 256), float16] */, %p1268: Tensor[(512, 256, 64), float16] /* ty=Tensor[(512, 256, 64), float16] */, Primitive=1) -> Tensor[(512, 256, 64), float16] {
    nn.batch_matmul(%p0370, %p1268, out_dtype="float16") /* ty=Tensor[(512, 256, 64), float16] */
  } /* ty=fn (Tensor[(512, 256, 256), float16], Tensor[(512, 256, 64), float16]) -> Tensor[(512, 256, 64), float16] */;
  %1379 = %1378(%1376, %1377) /* ty=Tensor[(512, 256, 64), float16] */;
  %1380 = fn (%p0369: Tensor[(512, 256, 64), float16] /* ty=Tensor[(512, 256, 64), float16] */, Primitive=1) -> Tensor[(32, 256, 1024), float16] {
    %949 = reshape(%p0369, newshape=[32, 16, 256, 64]) /* ty=Tensor[(32, 16, 256, 64), float16] */;
    %950 = squeeze(%949, axis=[]) /* ty=Tensor[(32, 16, 256, 64), float16] */;
    %951 = transpose(%950, axes=[0, 2, 1, 3]) /* ty=Tensor[(32, 256, 16, 64), float16] */;
    %952 = reshape(%951, newshape=[32, 256, 1024]) /* ty=Tensor[(32, 256, 1024), float16] */;
    %953 = broadcast_to(%952, shape=[32, 256, 1024], dtype="float16") /* ty=Tensor[(32, 256, 1024), float16] */;
    reshape(%953, newshape=[-1, 256, 1024]) /* ty=Tensor[(32, 256, 1024), float16] */
  } /* ty=fn (Tensor[(512, 256, 64), float16]) -> Tensor[(32, 256, 1024), float16] */;
  %1381 = %1380(%1379) /* ty=Tensor[(32, 256, 1024), float16] */;
  %1382 = fn (%p0368: Tensor[(32, 256, 1024), float16] /* ty=Tensor[(32, 256, 1024), float16] */, %p1267: Tensor[(32, 1024, 1024), float16] /* ty=Tensor[(32, 1024, 1024), float16] */, Primitive=1) -> Tensor[(32, 256, 1024), float16] {
    nn.batch_matmul(%p0368, %p1267, out_dtype="float16") /* ty=Tensor[(32, 256, 1024), float16] */
  } /* ty=fn (Tensor[(32, 256, 1024), float16], Tensor[(32, 1024, 1024), float16]) -> Tensor[(32, 256, 1024), float16] */;
  %1383 = %1382(%1381, meta[relay.Constant][59] /* ty=Tensor[(32, 1024, 1024), float16] */) /* ty=Tensor[(32, 256, 1024), float16] */;
  %1384 = fn (%p0367: Tensor[(32, 256, 1024), float16] /* ty=Tensor[(32, 256, 1024), float16] */, %p1266: Tensor[(1024), float16] /* ty=Tensor[(1024), float16] */, %p2124: Tensor[(32, 256, 1024), float32] /* ty=Tensor[(32, 256, 1024), float32] */, Primitive=1) -> Tensor[(32, 256, 1024), float32] {
    %945 = reshape(%p0367, newshape=[32, 256, 1024]) /* ty=Tensor[(32, 256, 1024), float16] */;
    %946 = squeeze(%945, axis=[]) /* ty=Tensor[(32, 256, 1024), float16] */;
    %947 = add(%946, %p1266) /* ty=Tensor[(32, 256, 1024), float16] */;
    %948 = cast(%947, dtype="float32") /* ty=Tensor[(32, 256, 1024), float32] */;
    add(%948, %p2124) /* ty=Tensor[(32, 256, 1024), float32] */
  } /* ty=fn (Tensor[(32, 256, 1024), float16], Tensor[(1024), float16], Tensor[(32, 256, 1024), float32]) -> Tensor[(32, 256, 1024), float32] */;
  %1385 = %1384(%1383, meta[relay.Constant][60] /* ty=Tensor[(1024), float16] */, %1335) /* ty=Tensor[(32, 256, 1024), float32] */;
  %1386 = fn (%p0472: Tensor[(32, 256, 1024), float32] /* ty=Tensor[(32, 256, 1024), float32] */, Primitive=1) -> Tensor[(32, 256, 1), float32] {
    mean(%p0472, axis=[-1], keepdims=True) /* ty=Tensor[(32, 256, 1), float32] */
  } /* ty=fn (Tensor[(32, 256, 1024), float32]) -> Tensor[(32, 256, 1), float32] */;
  %1387 = %1386(%1385) /* ty=Tensor[(32, 256, 1), float32] */;
  %1388 = fn (%p0473: Tensor[(32, 256, 1024), float32] /* ty=Tensor[(32, 256, 1024), float32] */, %p1337: Tensor[(32, 256, 1), float32] /* ty=Tensor[(32, 256, 1), float32] */, Primitive=1) -> Tensor[(32, 256, 1), float32] {
    variance(%p0473, %p1337, axis=[-1], keepdims=True) /* ty=Tensor[(32, 256, 1), float32] */
  } /* ty=fn (Tensor[(32, 256, 1024), float32], Tensor[(32, 256, 1), float32]) -> Tensor[(32, 256, 1), float32] */;
  %1389 = %1388(%1385, %1387) /* ty=Tensor[(32, 256, 1), float32] */;
  %1390 = fn (%p0366: Tensor[(32, 256, 1024), float32] /* ty=Tensor[(32, 256, 1024), float32] */, %p1265: Tensor[(32, 256, 1), float32] /* ty=Tensor[(32, 256, 1), float32] */, %p2123: Tensor[(32, 256, 1), float32] /* ty=Tensor[(32, 256, 1), float32] */, %p362: Tensor[(1024), float32] /* ty=Tensor[(1024), float32] */, %p462: Tensor[(1024), float32] /* ty=Tensor[(1024), float32] */, Primitive=1) -> Tensor[(32, 256, 1024), float32] {
    %940 = add(%p2123, 1e-12f /* ty=float32 */) /* ty=Tensor[(32, 256, 1), float32] */;
    %941 = subtract(%p0366, %p1265) /* ty=Tensor[(32, 256, 1024), float32] */;
    %942 = rsqrt(%940) /* ty=Tensor[(32, 256, 1), float32] */;
    %943 = multiply(%941, %942) /* ty=Tensor[(32, 256, 1024), float32] */;
    %944 = multiply(%943, %p362) /* ty=Tensor[(32, 256, 1024), float32] */;
    add(%944, %p462) /* ty=Tensor[(32, 256, 1024), float32] */
  } /* ty=fn (Tensor[(32, 256, 1024), float32], Tensor[(32, 256, 1), float32], Tensor[(32, 256, 1), float32], Tensor[(1024), float32], Tensor[(1024), float32]) -> Tensor[(32, 256, 1024), float32] */;
  %1391 = %1390(%1385, %1387, %1389, meta[relay.Constant][61] /* ty=Tensor[(1024), float32] */, meta[relay.Constant][62] /* ty=Tensor[(1024), float32] */) /* ty=Tensor[(32, 256, 1024), float32] */;
  %1392 = fn (%p0365: Tensor[(32, 256, 1024), float32] /* ty=Tensor[(32, 256, 1024), float32] */, Primitive=1) -> Tensor[(32, 256, 1024), float16] {
    %938 = broadcast_to(%p0365, shape=[32, 256, 1024]) /* ty=Tensor[(32, 256, 1024), float32] */;
    %939 = reshape(%938, newshape=[-1, 256, 1024]) /* ty=Tensor[(32, 256, 1024), float32] */;
    cast(%939, dtype="float16") /* ty=Tensor[(32, 256, 1024), float16] */
  } /* ty=fn (Tensor[(32, 256, 1024), float32]) -> Tensor[(32, 256, 1024), float16] */;
  %1393 = %1392(%1391) /* ty=Tensor[(32, 256, 1024), float16] */;
  %1394 = fn (%p0364: Tensor[(32, 256, 1024), float16] /* ty=Tensor[(32, 256, 1024), float16] */, %p1264: Tensor[(32, 1024, 4096), float16] /* ty=Tensor[(32, 1024, 4096), float16] */, Primitive=1) -> Tensor[(32, 256, 4096), float16] {
    nn.batch_matmul(%p0364, %p1264, out_dtype="float16") /* ty=Tensor[(32, 256, 4096), float16] */
  } /* ty=fn (Tensor[(32, 256, 1024), float16], Tensor[(32, 1024, 4096), float16]) -> Tensor[(32, 256, 4096), float16] */;
  %1395 = %1394(%1393, meta[relay.Constant][63] /* ty=Tensor[(32, 1024, 4096), float16] */) /* ty=Tensor[(32, 256, 4096), float16] */;
  %1396 = fn (%p0363: Tensor[(32, 256, 4096), float16] /* ty=Tensor[(32, 256, 4096), float16] */, %p1263: Tensor[(4096), float16] /* ty=Tensor[(4096), float16] */, %p2122: float16 /* ty=float16 */, %p361: float16 /* ty=float16 */, %p461: float16 /* ty=float16 */, Primitive=1) -> Tensor[(32, 256, 4096), float16] {
    %929 = reshape(%p0363, newshape=[32, 256, 4096]) /* ty=Tensor[(32, 256, 4096), float16] */;
    %930 = squeeze(%929, axis=[]) /* ty=Tensor[(32, 256, 4096), float16] */;
    %931 = add(%930, %p1263) /* ty=Tensor[(32, 256, 4096), float16] */;
    %932 = multiply(%931, %p2122) /* ty=Tensor[(32, 256, 4096), float16] */;
    %933 = fast_erf(%932) /* ty=Tensor[(32, 256, 4096), float16] */;
    %934 = multiply(%933, %p361) /* ty=Tensor[(32, 256, 4096), float16] */;
    %935 = add(%p461, %934) /* ty=Tensor[(32, 256, 4096), float16] */;
    %936 = multiply(%931, %935) /* ty=Tensor[(32, 256, 4096), float16] */;
    %937 = broadcast_to(%936, shape=[32, 256, 4096], dtype="float16") /* ty=Tensor[(32, 256, 4096), float16] */;
    reshape(%937, newshape=[-1, 256, 4096]) /* ty=Tensor[(32, 256, 4096), float16] */
  } /* ty=fn (Tensor[(32, 256, 4096), float16], Tensor[(4096), float16], float16, float16, float16) -> Tensor[(32, 256, 4096), float16] */;
  %1397 = %1396(%1395, meta[relay.Constant][64] /* ty=Tensor[(4096), float16] */, 0.707031f16 /* ty=float16 */, 0.5f16 /* ty=float16 */, 0.5f16 /* ty=float16 */) /* ty=Tensor[(32, 256, 4096), float16] */;
  %1398 = fn (%p0362: Tensor[(32, 256, 4096), float16] /* ty=Tensor[(32, 256, 4096), float16] */, %p1262: Tensor[(32, 4096, 1024), float16] /* ty=Tensor[(32, 4096, 1024), float16] */, Primitive=1) -> Tensor[(32, 256, 1024), float16] {
    nn.batch_matmul(%p0362, %p1262, out_dtype="float16") /* ty=Tensor[(32, 256, 1024), float16] */
  } /* ty=fn (Tensor[(32, 256, 4096), float16], Tensor[(32, 4096, 1024), float16]) -> Tensor[(32, 256, 1024), float16] */;
  %1399 = %1398(%1397, meta[relay.Constant][65] /* ty=Tensor[(32, 4096, 1024), float16] */) /* ty=Tensor[(32, 256, 1024), float16] */;
  %1400 = fn (%p0361: Tensor[(32, 256, 1024), float16] /* ty=Tensor[(32, 256, 1024), float16] */, %p1261: Tensor[(1024), float16] /* ty=Tensor[(1024), float16] */, %p2121: Tensor[(32, 256, 1024), float32] /* ty=Tensor[(32, 256, 1024), float32] */, Primitive=1) -> Tensor[(32, 256, 1024), float32] {
    %925 = reshape(%p0361, newshape=[32, 256, 1024]) /* ty=Tensor[(32, 256, 1024), float16] */;
    %926 = squeeze(%925, axis=[]) /* ty=Tensor[(32, 256, 1024), float16] */;
    %927 = add(%926, %p1261) /* ty=Tensor[(32, 256, 1024), float16] */;
    %928 = cast(%927, dtype="float32") /* ty=Tensor[(32, 256, 1024), float32] */;
    add(%928, %p2121) /* ty=Tensor[(32, 256, 1024), float32] */
  } /* ty=fn (Tensor[(32, 256, 1024), float16], Tensor[(1024), float16], Tensor[(32, 256, 1024), float32]) -> Tensor[(32, 256, 1024), float32] */;
  %1401 = %1400(%1399, meta[relay.Constant][66] /* ty=Tensor[(1024), float16] */, %1391) /* ty=Tensor[(32, 256, 1024), float32] */;
  %1402 = fn (%p0474: Tensor[(32, 256, 1024), float32] /* ty=Tensor[(32, 256, 1024), float32] */, Primitive=1) -> Tensor[(32, 256, 1), float32] {
    mean(%p0474, axis=[-1], keepdims=True) /* ty=Tensor[(32, 256, 1), float32] */
  } /* ty=fn (Tensor[(32, 256, 1024), float32]) -> Tensor[(32, 256, 1), float32] */;
  %1403 = %1402(%1401) /* ty=Tensor[(32, 256, 1), float32] */;
  %1404 = fn (%p0475: Tensor[(32, 256, 1024), float32] /* ty=Tensor[(32, 256, 1024), float32] */, %p1338: Tensor[(32, 256, 1), float32] /* ty=Tensor[(32, 256, 1), float32] */, Primitive=1) -> Tensor[(32, 256, 1), float32] {
    variance(%p0475, %p1338, axis=[-1], keepdims=True) /* ty=Tensor[(32, 256, 1), float32] */
  } /* ty=fn (Tensor[(32, 256, 1024), float32], Tensor[(32, 256, 1), float32]) -> Tensor[(32, 256, 1), float32] */;
  %1405 = %1404(%1401, %1403) /* ty=Tensor[(32, 256, 1), float32] */;
  %1406 = fn (%p0360: Tensor[(32, 256, 1024), float32] /* ty=Tensor[(32, 256, 1024), float32] */, %p1260: Tensor[(32, 256, 1), float32] /* ty=Tensor[(32, 256, 1), float32] */, %p2120: Tensor[(32, 256, 1), float32] /* ty=Tensor[(32, 256, 1), float32] */, %p360: Tensor[(1024), float32] /* ty=Tensor[(1024), float32] */, %p460: Tensor[(1024), float32] /* ty=Tensor[(1024), float32] */, Primitive=1) -> Tensor[(32, 256, 1024), float32] {
    %920 = add(%p2120, 1e-12f /* ty=float32 */) /* ty=Tensor[(32, 256, 1), float32] */;
    %921 = subtract(%p0360, %p1260) /* ty=Tensor[(32, 256, 1024), float32] */;
    %922 = rsqrt(%920) /* ty=Tensor[(32, 256, 1), float32] */;
    %923 = multiply(%921, %922) /* ty=Tensor[(32, 256, 1024), float32] */;
    %924 = multiply(%923, %p360) /* ty=Tensor[(32, 256, 1024), float32] */;
    add(%924, %p460) /* ty=Tensor[(32, 256, 1024), float32] */
  } /* ty=fn (Tensor[(32, 256, 1024), float32], Tensor[(32, 256, 1), float32], Tensor[(32, 256, 1), float32], Tensor[(1024), float32], Tensor[(1024), float32]) -> Tensor[(32, 256, 1024), float32] */;
  %1407 = %1406(%1401, %1403, %1405, meta[relay.Constant][67] /* ty=Tensor[(1024), float32] */, meta[relay.Constant][68] /* ty=Tensor[(1024), float32] */) /* ty=Tensor[(32, 256, 1024), float32] */;
  %1408 = fn (%p0359: Tensor[(32, 256, 1024), float32] /* ty=Tensor[(32, 256, 1024), float32] */, Primitive=1) -> Tensor[(32, 256, 1024), float16] {
    %918 = broadcast_to(%p0359, shape=[32, 256, 1024]) /* ty=Tensor[(32, 256, 1024), float32] */;
    %919 = reshape(%918, newshape=[-1, 256, 1024]) /* ty=Tensor[(32, 256, 1024), float32] */;
    cast(%919, dtype="float16") /* ty=Tensor[(32, 256, 1024), float16] */
  } /* ty=fn (Tensor[(32, 256, 1024), float32]) -> Tensor[(32, 256, 1024), float16] */;
  %1409 = %1408(%1407) /* ty=Tensor[(32, 256, 1024), float16] */;
  %1410 = fn (%p0358: Tensor[(32, 256, 1024), float16] /* ty=Tensor[(32, 256, 1024), float16] */, %p1259: Tensor[(32, 1024, 1024), float16] /* ty=Tensor[(32, 1024, 1024), float16] */, Primitive=1) -> Tensor[(32, 256, 1024), float16] {
    nn.batch_matmul(%p0358, %p1259, out_dtype="float16") /* ty=Tensor[(32, 256, 1024), float16] */
  } /* ty=fn (Tensor[(32, 256, 1024), float16], Tensor[(32, 1024, 1024), float16]) -> Tensor[(32, 256, 1024), float16] */;
  %1411 = %1410(%1409, meta[relay.Constant][69] /* ty=Tensor[(32, 1024, 1024), float16] */) /* ty=Tensor[(32, 256, 1024), float16] */;
  %1412 = fn (%p0357: Tensor[(32, 256, 1024), float16] /* ty=Tensor[(32, 256, 1024), float16] */, %p1258: Tensor[(1024), float16] /* ty=Tensor[(1024), float16] */, Primitive=1) -> Tensor[(512, 256, 64), float16] {
    %912 = reshape(%p0357, newshape=[32, 256, 1024]) /* ty=Tensor[(32, 256, 1024), float16] */;
    %913 = squeeze(%912, axis=[]) /* ty=Tensor[(32, 256, 1024), float16] */;
    %914 = add(%913, %p1258) /* ty=Tensor[(32, 256, 1024), float16] */;
    %915 = reshape(%914, newshape=[32, 256, 16, 64]) /* ty=Tensor[(32, 256, 16, 64), float16] */;
    %916 = transpose(%915, axes=[0, 2, 1, 3]) /* ty=Tensor[(32, 16, 256, 64), float16] */;
    %917 = broadcast_to(%916, shape=[32, 16, 256, 64], dtype="float16") /* ty=Tensor[(32, 16, 256, 64), float16] */;
    reshape(%917, newshape=[-1, 256, 64]) /* ty=Tensor[(512, 256, 64), float16] */
  } /* ty=fn (Tensor[(32, 256, 1024), float16], Tensor[(1024), float16]) -> Tensor[(512, 256, 64), float16] */;
  %1421 = fn (%p0478: Tensor[(32, 256, 1024), float32] /* ty=Tensor[(32, 256, 1024), float32] */, Primitive=1) -> Tensor[(32, 256, 1024), float16] {
    %1419 = broadcast_to(%p0478, shape=[32, 256, 1024]) /* ty=Tensor[(32, 256, 1024), float32] */;
    %1420 = reshape(%1419, newshape=[-1, 256, 1024]) /* ty=Tensor[(32, 256, 1024), float32] */;
    cast(%1420, dtype="float16") /* ty=Tensor[(32, 256, 1024), float16] */
  } /* ty=fn (Tensor[(32, 256, 1024), float32]) -> Tensor[(32, 256, 1024), float16] */;
  %1422 = %1421(%1407) /* ty=Tensor[(32, 256, 1024), float16] */;
  %1423 = fn (%p0477: Tensor[(32, 256, 1024), float16] /* ty=Tensor[(32, 256, 1024), float16] */, %p1340: Tensor[(32, 1024, 1024), float16] /* ty=Tensor[(32, 1024, 1024), float16] */, Primitive=1) -> Tensor[(32, 256, 1024), float16] {
    nn.batch_matmul(%p0477, %p1340, out_dtype="float16") /* ty=Tensor[(32, 256, 1024), float16] */
  } /* ty=fn (Tensor[(32, 256, 1024), float16], Tensor[(32, 1024, 1024), float16]) -> Tensor[(32, 256, 1024), float16] */;
  %1424 = %1423(%1422, meta[relay.Constant][71] /* ty=Tensor[(32, 1024, 1024), float16] */) /* ty=Tensor[(32, 256, 1024), float16] */;
  %1425 = fn (%p0476: Tensor[(32, 256, 1024), float16] /* ty=Tensor[(32, 256, 1024), float16] */, %p1339: Tensor[(1024), float16] /* ty=Tensor[(1024), float16] */, Primitive=1) -> Tensor[(512, 64, 256), float16] {
    %1413 = reshape(%p0476, newshape=[32, 256, 1024]) /* ty=Tensor[(32, 256, 1024), float16] */;
    %1414 = squeeze(%1413, axis=[]) /* ty=Tensor[(32, 256, 1024), float16] */;
    %1415 = add(%1414, %p1339) /* ty=Tensor[(32, 256, 1024), float16] */;
    %1416 = reshape(%1415, newshape=[32, 256, 16, 64]) /* ty=Tensor[(32, 256, 16, 64), float16] */;
    %1417 = transpose(%1416, axes=[0, 2, 3, 1]) /* ty=Tensor[(32, 16, 64, 256), float16] */;
    %1418 = broadcast_to(%1417, shape=[32, 16, 64, 256], dtype="float16") /* ty=Tensor[(32, 16, 64, 256), float16] */;
    reshape(%1418, newshape=[-1, 64, 256]) /* ty=Tensor[(512, 64, 256), float16] */
  } /* ty=fn (Tensor[(32, 256, 1024), float16], Tensor[(1024), float16]) -> Tensor[(512, 64, 256), float16] */;
  %1426 = %1412(%1411, meta[relay.Constant][70] /* ty=Tensor[(1024), float16] */) /* ty=Tensor[(512, 256, 64), float16] */;
  %1427 = %1425(%1424, meta[relay.Constant][72] /* ty=Tensor[(1024), float16] */) /* ty=Tensor[(512, 64, 256), float16] */;
  %1428 = fn (%p0356: Tensor[(512, 256, 64), float16] /* ty=Tensor[(512, 256, 64), float16] */, %p1257: Tensor[(512, 64, 256), float16] /* ty=Tensor[(512, 64, 256), float16] */, Primitive=1) -> Tensor[(512, 256, 256), float16] {
    nn.batch_matmul(%p0356, %p1257, out_dtype="float16") /* ty=Tensor[(512, 256, 256), float16] */
  } /* ty=fn (Tensor[(512, 256, 64), float16], Tensor[(512, 64, 256), float16]) -> Tensor[(512, 256, 256), float16] */;
  %1429 = %1428(%1426, %1427) /* ty=Tensor[(512, 256, 256), float16] */;
  %1430 = fn (%p0355: Tensor[(512, 256, 256), float16] /* ty=Tensor[(512, 256, 256), float16] */, %p1256: float16 /* ty=float16 */, %p2119: Tensor[(32, 1, 1, 256), float16] /* ty=Tensor[(32, 1, 1, 256), float16] */, Primitive=1) -> Tensor[(32, 16, 256, 256), float16] {
    %909 = reshape(%p0355, newshape=[32, 16, 256, 256]) /* ty=Tensor[(32, 16, 256, 256), float16] */;
    %910 = squeeze(%909, axis=[]) /* ty=Tensor[(32, 16, 256, 256), float16] */;
    %911 = divide(%910, %p1256) /* ty=Tensor[(32, 16, 256, 256), float16] */;
    add(%911, %p2119) /* ty=Tensor[(32, 16, 256, 256), float16] */
  } /* ty=fn (Tensor[(512, 256, 256), float16], float16, Tensor[(32, 1, 1, 256), float16]) -> Tensor[(32, 16, 256, 256), float16] */;
  %1431 = %1430(%1429, 8f16 /* ty=float16 */, meta[relay.Constant][8] /* ty=Tensor[(32, 1, 1, 256), float16] */) /* ty=Tensor[(32, 16, 256, 256), float16] */;
  %1432 = fn (%p0354: Tensor[(32, 16, 256, 256), float16] /* ty=Tensor[(32, 16, 256, 256), float16] */, Primitive=1) -> Tensor[(32, 16, 256, 256), float16] {
    %908 = nn.fast_softmax(%p0354) /* ty=Tensor[(32, 16, 256, 256), float16] */;
    broadcast_to(%908, shape=[32, 16, 256, 256], dtype="float16") /* ty=Tensor[(32, 16, 256, 256), float16] */
  } /* ty=fn (Tensor[(32, 16, 256, 256), float16]) -> Tensor[(32, 16, 256, 256), float16] */;
  %1433 = %1432(%1431) /* ty=Tensor[(32, 16, 256, 256), float16] */;
  %1434 = fn (%p0353: Tensor[(32, 16, 256, 256), float16] /* ty=Tensor[(32, 16, 256, 256), float16] */, Primitive=1, relay.reshape_only=1) -> Tensor[(512, 256, 256), float16] {
    reshape(%p0353, newshape=[-1, 256, 256]) /* ty=Tensor[(512, 256, 256), float16] */
  } /* ty=fn (Tensor[(32, 16, 256, 256), float16]) -> Tensor[(512, 256, 256), float16] */;
  %1443 = fn (%p0481: Tensor[(32, 256, 1024), float32] /* ty=Tensor[(32, 256, 1024), float32] */, Primitive=1) -> Tensor[(32, 256, 1024), float16] {
    %1441 = broadcast_to(%p0481, shape=[32, 256, 1024]) /* ty=Tensor[(32, 256, 1024), float32] */;
    %1442 = reshape(%1441, newshape=[-1, 256, 1024]) /* ty=Tensor[(32, 256, 1024), float32] */;
    cast(%1442, dtype="float16") /* ty=Tensor[(32, 256, 1024), float16] */
  } /* ty=fn (Tensor[(32, 256, 1024), float32]) -> Tensor[(32, 256, 1024), float16] */;
  %1444 = %1443(%1407) /* ty=Tensor[(32, 256, 1024), float16] */;
  %1445 = fn (%p0480: Tensor[(32, 256, 1024), float16] /* ty=Tensor[(32, 256, 1024), float16] */, %p1342: Tensor[(32, 1024, 1024), float16] /* ty=Tensor[(32, 1024, 1024), float16] */, Primitive=1) -> Tensor[(32, 256, 1024), float16] {
    nn.batch_matmul(%p0480, %p1342, out_dtype="float16") /* ty=Tensor[(32, 256, 1024), float16] */
  } /* ty=fn (Tensor[(32, 256, 1024), float16], Tensor[(32, 1024, 1024), float16]) -> Tensor[(32, 256, 1024), float16] */;
  %1446 = %1445(%1444, meta[relay.Constant][73] /* ty=Tensor[(32, 1024, 1024), float16] */) /* ty=Tensor[(32, 256, 1024), float16] */;
  %1447 = fn (%p0479: Tensor[(32, 256, 1024), float16] /* ty=Tensor[(32, 256, 1024), float16] */, %p1341: Tensor[(1024), float16] /* ty=Tensor[(1024), float16] */, Primitive=1) -> Tensor[(512, 256, 64), float16] {
    %1435 = reshape(%p0479, newshape=[32, 256, 1024]) /* ty=Tensor[(32, 256, 1024), float16] */;
    %1436 = squeeze(%1435, axis=[]) /* ty=Tensor[(32, 256, 1024), float16] */;
    %1437 = add(%1436, %p1341) /* ty=Tensor[(32, 256, 1024), float16] */;
    %1438 = reshape(%1437, newshape=[32, 256, 16, 64]) /* ty=Tensor[(32, 256, 16, 64), float16] */;
    %1439 = transpose(%1438, axes=[0, 2, 1, 3]) /* ty=Tensor[(32, 16, 256, 64), float16] */;
    %1440 = broadcast_to(%1439, shape=[32, 16, 256, 64], dtype="float16") /* ty=Tensor[(32, 16, 256, 64), float16] */;
    reshape(%1440, newshape=[-1, 256, 64]) /* ty=Tensor[(512, 256, 64), float16] */
  } /* ty=fn (Tensor[(32, 256, 1024), float16], Tensor[(1024), float16]) -> Tensor[(512, 256, 64), float16] */;
  %1448 = %1434(%1433) /* ty=Tensor[(512, 256, 256), float16] */;
  %1449 = %1447(%1446, meta[relay.Constant][74] /* ty=Tensor[(1024), float16] */) /* ty=Tensor[(512, 256, 64), float16] */;
  %1450 = fn (%p0352: Tensor[(512, 256, 256), float16] /* ty=Tensor[(512, 256, 256), float16] */, %p1255: Tensor[(512, 256, 64), float16] /* ty=Tensor[(512, 256, 64), float16] */, Primitive=1) -> Tensor[(512, 256, 64), float16] {
    nn.batch_matmul(%p0352, %p1255, out_dtype="float16") /* ty=Tensor[(512, 256, 64), float16] */
  } /* ty=fn (Tensor[(512, 256, 256), float16], Tensor[(512, 256, 64), float16]) -> Tensor[(512, 256, 64), float16] */;
  %1451 = %1450(%1448, %1449) /* ty=Tensor[(512, 256, 64), float16] */;
  %1452 = fn (%p0351: Tensor[(512, 256, 64), float16] /* ty=Tensor[(512, 256, 64), float16] */, Primitive=1) -> Tensor[(32, 256, 1024), float16] {
    %903 = reshape(%p0351, newshape=[32, 16, 256, 64]) /* ty=Tensor[(32, 16, 256, 64), float16] */;
    %904 = squeeze(%903, axis=[]) /* ty=Tensor[(32, 16, 256, 64), float16] */;
    %905 = transpose(%904, axes=[0, 2, 1, 3]) /* ty=Tensor[(32, 256, 16, 64), float16] */;
    %906 = reshape(%905, newshape=[32, 256, 1024]) /* ty=Tensor[(32, 256, 1024), float16] */;
    %907 = broadcast_to(%906, shape=[32, 256, 1024], dtype="float16") /* ty=Tensor[(32, 256, 1024), float16] */;
    reshape(%907, newshape=[-1, 256, 1024]) /* ty=Tensor[(32, 256, 1024), float16] */
  } /* ty=fn (Tensor[(512, 256, 64), float16]) -> Tensor[(32, 256, 1024), float16] */;
  %1453 = %1452(%1451) /* ty=Tensor[(32, 256, 1024), float16] */;
  %1454 = fn (%p0350: Tensor[(32, 256, 1024), float16] /* ty=Tensor[(32, 256, 1024), float16] */, %p1254: Tensor[(32, 1024, 1024), float16] /* ty=Tensor[(32, 1024, 1024), float16] */, Primitive=1) -> Tensor[(32, 256, 1024), float16] {
    nn.batch_matmul(%p0350, %p1254, out_dtype="float16") /* ty=Tensor[(32, 256, 1024), float16] */
  } /* ty=fn (Tensor[(32, 256, 1024), float16], Tensor[(32, 1024, 1024), float16]) -> Tensor[(32, 256, 1024), float16] */;
  %1455 = %1454(%1453, meta[relay.Constant][75] /* ty=Tensor[(32, 1024, 1024), float16] */) /* ty=Tensor[(32, 256, 1024), float16] */;
  %1456 = fn (%p0349: Tensor[(32, 256, 1024), float16] /* ty=Tensor[(32, 256, 1024), float16] */, %p1253: Tensor[(1024), float16] /* ty=Tensor[(1024), float16] */, %p2118: Tensor[(32, 256, 1024), float32] /* ty=Tensor[(32, 256, 1024), float32] */, Primitive=1) -> Tensor[(32, 256, 1024), float32] {
    %899 = reshape(%p0349, newshape=[32, 256, 1024]) /* ty=Tensor[(32, 256, 1024), float16] */;
    %900 = squeeze(%899, axis=[]) /* ty=Tensor[(32, 256, 1024), float16] */;
    %901 = add(%900, %p1253) /* ty=Tensor[(32, 256, 1024), float16] */;
    %902 = cast(%901, dtype="float32") /* ty=Tensor[(32, 256, 1024), float32] */;
    add(%902, %p2118) /* ty=Tensor[(32, 256, 1024), float32] */
  } /* ty=fn (Tensor[(32, 256, 1024), float16], Tensor[(1024), float16], Tensor[(32, 256, 1024), float32]) -> Tensor[(32, 256, 1024), float32] */;
  %1457 = %1456(%1455, meta[relay.Constant][76] /* ty=Tensor[(1024), float16] */, %1407) /* ty=Tensor[(32, 256, 1024), float32] */;
  %1458 = fn (%p0482: Tensor[(32, 256, 1024), float32] /* ty=Tensor[(32, 256, 1024), float32] */, Primitive=1) -> Tensor[(32, 256, 1), float32] {
    mean(%p0482, axis=[-1], keepdims=True) /* ty=Tensor[(32, 256, 1), float32] */
  } /* ty=fn (Tensor[(32, 256, 1024), float32]) -> Tensor[(32, 256, 1), float32] */;
  %1459 = %1458(%1457) /* ty=Tensor[(32, 256, 1), float32] */;
  %1460 = fn (%p0483: Tensor[(32, 256, 1024), float32] /* ty=Tensor[(32, 256, 1024), float32] */, %p1343: Tensor[(32, 256, 1), float32] /* ty=Tensor[(32, 256, 1), float32] */, Primitive=1) -> Tensor[(32, 256, 1), float32] {
    variance(%p0483, %p1343, axis=[-1], keepdims=True) /* ty=Tensor[(32, 256, 1), float32] */
  } /* ty=fn (Tensor[(32, 256, 1024), float32], Tensor[(32, 256, 1), float32]) -> Tensor[(32, 256, 1), float32] */;
  %1461 = %1460(%1457, %1459) /* ty=Tensor[(32, 256, 1), float32] */;
  %1462 = fn (%p0348: Tensor[(32, 256, 1024), float32] /* ty=Tensor[(32, 256, 1024), float32] */, %p1252: Tensor[(32, 256, 1), float32] /* ty=Tensor[(32, 256, 1), float32] */, %p2117: Tensor[(32, 256, 1), float32] /* ty=Tensor[(32, 256, 1), float32] */, %p359: Tensor[(1024), float32] /* ty=Tensor[(1024), float32] */, %p459: Tensor[(1024), float32] /* ty=Tensor[(1024), float32] */, Primitive=1) -> Tensor[(32, 256, 1024), float32] {
    %894 = add(%p2117, 1e-12f /* ty=float32 */) /* ty=Tensor[(32, 256, 1), float32] */;
    %895 = subtract(%p0348, %p1252) /* ty=Tensor[(32, 256, 1024), float32] */;
    %896 = rsqrt(%894) /* ty=Tensor[(32, 256, 1), float32] */;
    %897 = multiply(%895, %896) /* ty=Tensor[(32, 256, 1024), float32] */;
    %898 = multiply(%897, %p359) /* ty=Tensor[(32, 256, 1024), float32] */;
    add(%898, %p459) /* ty=Tensor[(32, 256, 1024), float32] */
  } /* ty=fn (Tensor[(32, 256, 1024), float32], Tensor[(32, 256, 1), float32], Tensor[(32, 256, 1), float32], Tensor[(1024), float32], Tensor[(1024), float32]) -> Tensor[(32, 256, 1024), float32] */;
  %1463 = %1462(%1457, %1459, %1461, meta[relay.Constant][77] /* ty=Tensor[(1024), float32] */, meta[relay.Constant][78] /* ty=Tensor[(1024), float32] */) /* ty=Tensor[(32, 256, 1024), float32] */;
  %1464 = fn (%p0347: Tensor[(32, 256, 1024), float32] /* ty=Tensor[(32, 256, 1024), float32] */, Primitive=1) -> Tensor[(32, 256, 1024), float16] {
    %892 = broadcast_to(%p0347, shape=[32, 256, 1024]) /* ty=Tensor[(32, 256, 1024), float32] */;
    %893 = reshape(%892, newshape=[-1, 256, 1024]) /* ty=Tensor[(32, 256, 1024), float32] */;
    cast(%893, dtype="float16") /* ty=Tensor[(32, 256, 1024), float16] */
  } /* ty=fn (Tensor[(32, 256, 1024), float32]) -> Tensor[(32, 256, 1024), float16] */;
  %1465 = %1464(%1463) /* ty=Tensor[(32, 256, 1024), float16] */;
  %1466 = fn (%p0346: Tensor[(32, 256, 1024), float16] /* ty=Tensor[(32, 256, 1024), float16] */, %p1251: Tensor[(32, 1024, 4096), float16] /* ty=Tensor[(32, 1024, 4096), float16] */, Primitive=1) -> Tensor[(32, 256, 4096), float16] {
    nn.batch_matmul(%p0346, %p1251, out_dtype="float16") /* ty=Tensor[(32, 256, 4096), float16] */
  } /* ty=fn (Tensor[(32, 256, 1024), float16], Tensor[(32, 1024, 4096), float16]) -> Tensor[(32, 256, 4096), float16] */;
  %1467 = %1466(%1465, meta[relay.Constant][79] /* ty=Tensor[(32, 1024, 4096), float16] */) /* ty=Tensor[(32, 256, 4096), float16] */;
  %1468 = fn (%p0345: Tensor[(32, 256, 4096), float16] /* ty=Tensor[(32, 256, 4096), float16] */, %p1250: Tensor[(4096), float16] /* ty=Tensor[(4096), float16] */, %p2116: float16 /* ty=float16 */, %p358: float16 /* ty=float16 */, %p458: float16 /* ty=float16 */, Primitive=1) -> Tensor[(32, 256, 4096), float16] {
    %883 = reshape(%p0345, newshape=[32, 256, 4096]) /* ty=Tensor[(32, 256, 4096), float16] */;
    %884 = squeeze(%883, axis=[]) /* ty=Tensor[(32, 256, 4096), float16] */;
    %885 = add(%884, %p1250) /* ty=Tensor[(32, 256, 4096), float16] */;
    %886 = multiply(%885, %p2116) /* ty=Tensor[(32, 256, 4096), float16] */;
    %887 = fast_erf(%886) /* ty=Tensor[(32, 256, 4096), float16] */;
    %888 = multiply(%887, %p358) /* ty=Tensor[(32, 256, 4096), float16] */;
    %889 = add(%p458, %888) /* ty=Tensor[(32, 256, 4096), float16] */;
    %890 = multiply(%885, %889) /* ty=Tensor[(32, 256, 4096), float16] */;
    %891 = broadcast_to(%890, shape=[32, 256, 4096], dtype="float16") /* ty=Tensor[(32, 256, 4096), float16] */;
    reshape(%891, newshape=[-1, 256, 4096]) /* ty=Tensor[(32, 256, 4096), float16] */
  } /* ty=fn (Tensor[(32, 256, 4096), float16], Tensor[(4096), float16], float16, float16, float16) -> Tensor[(32, 256, 4096), float16] */;
  %1469 = %1468(%1467, meta[relay.Constant][80] /* ty=Tensor[(4096), float16] */, 0.707031f16 /* ty=float16 */, 0.5f16 /* ty=float16 */, 0.5f16 /* ty=float16 */) /* ty=Tensor[(32, 256, 4096), float16] */;
  %1470 = fn (%p0344: Tensor[(32, 256, 4096), float16] /* ty=Tensor[(32, 256, 4096), float16] */, %p1249: Tensor[(32, 4096, 1024), float16] /* ty=Tensor[(32, 4096, 1024), float16] */, Primitive=1) -> Tensor[(32, 256, 1024), float16] {
    nn.batch_matmul(%p0344, %p1249, out_dtype="float16") /* ty=Tensor[(32, 256, 1024), float16] */
  } /* ty=fn (Tensor[(32, 256, 4096), float16], Tensor[(32, 4096, 1024), float16]) -> Tensor[(32, 256, 1024), float16] */;
  %1471 = %1470(%1469, meta[relay.Constant][81] /* ty=Tensor[(32, 4096, 1024), float16] */) /* ty=Tensor[(32, 256, 1024), float16] */;
  %1472 = fn (%p0343: Tensor[(32, 256, 1024), float16] /* ty=Tensor[(32, 256, 1024), float16] */, %p1248: Tensor[(1024), float16] /* ty=Tensor[(1024), float16] */, %p2115: Tensor[(32, 256, 1024), float32] /* ty=Tensor[(32, 256, 1024), float32] */, Primitive=1) -> Tensor[(32, 256, 1024), float32] {
    %879 = reshape(%p0343, newshape=[32, 256, 1024]) /* ty=Tensor[(32, 256, 1024), float16] */;
    %880 = squeeze(%879, axis=[]) /* ty=Tensor[(32, 256, 1024), float16] */;
    %881 = add(%880, %p1248) /* ty=Tensor[(32, 256, 1024), float16] */;
    %882 = cast(%881, dtype="float32") /* ty=Tensor[(32, 256, 1024), float32] */;
    add(%882, %p2115) /* ty=Tensor[(32, 256, 1024), float32] */
  } /* ty=fn (Tensor[(32, 256, 1024), float16], Tensor[(1024), float16], Tensor[(32, 256, 1024), float32]) -> Tensor[(32, 256, 1024), float32] */;
  %1473 = %1472(%1471, meta[relay.Constant][82] /* ty=Tensor[(1024), float16] */, %1463) /* ty=Tensor[(32, 256, 1024), float32] */;
  %1474 = fn (%p0484: Tensor[(32, 256, 1024), float32] /* ty=Tensor[(32, 256, 1024), float32] */, Primitive=1) -> Tensor[(32, 256, 1), float32] {
    mean(%p0484, axis=[-1], keepdims=True) /* ty=Tensor[(32, 256, 1), float32] */
  } /* ty=fn (Tensor[(32, 256, 1024), float32]) -> Tensor[(32, 256, 1), float32] */;
  %1475 = %1474(%1473) /* ty=Tensor[(32, 256, 1), float32] */;
  %1476 = fn (%p0485: Tensor[(32, 256, 1024), float32] /* ty=Tensor[(32, 256, 1024), float32] */, %p1344: Tensor[(32, 256, 1), float32] /* ty=Tensor[(32, 256, 1), float32] */, Primitive=1) -> Tensor[(32, 256, 1), float32] {
    variance(%p0485, %p1344, axis=[-1], keepdims=True) /* ty=Tensor[(32, 256, 1), float32] */
  } /* ty=fn (Tensor[(32, 256, 1024), float32], Tensor[(32, 256, 1), float32]) -> Tensor[(32, 256, 1), float32] */;
  %1477 = %1476(%1473, %1475) /* ty=Tensor[(32, 256, 1), float32] */;
  %1478 = fn (%p0342: Tensor[(32, 256, 1024), float32] /* ty=Tensor[(32, 256, 1024), float32] */, %p1247: Tensor[(32, 256, 1), float32] /* ty=Tensor[(32, 256, 1), float32] */, %p2114: Tensor[(32, 256, 1), float32] /* ty=Tensor[(32, 256, 1), float32] */, %p357: Tensor[(1024), float32] /* ty=Tensor[(1024), float32] */, %p457: Tensor[(1024), float32] /* ty=Tensor[(1024), float32] */, Primitive=1) -> Tensor[(32, 256, 1024), float32] {
    %874 = add(%p2114, 1e-12f /* ty=float32 */) /* ty=Tensor[(32, 256, 1), float32] */;
    %875 = subtract(%p0342, %p1247) /* ty=Tensor[(32, 256, 1024), float32] */;
    %876 = rsqrt(%874) /* ty=Tensor[(32, 256, 1), float32] */;
    %877 = multiply(%875, %876) /* ty=Tensor[(32, 256, 1024), float32] */;
    %878 = multiply(%877, %p357) /* ty=Tensor[(32, 256, 1024), float32] */;
    add(%878, %p457) /* ty=Tensor[(32, 256, 1024), float32] */
  } /* ty=fn (Tensor[(32, 256, 1024), float32], Tensor[(32, 256, 1), float32], Tensor[(32, 256, 1), float32], Tensor[(1024), float32], Tensor[(1024), float32]) -> Tensor[(32, 256, 1024), float32] */;
  %1479 = %1478(%1473, %1475, %1477, meta[relay.Constant][83] /* ty=Tensor[(1024), float32] */, meta[relay.Constant][84] /* ty=Tensor[(1024), float32] */) /* ty=Tensor[(32, 256, 1024), float32] */;
  %1480 = fn (%p0341: Tensor[(32, 256, 1024), float32] /* ty=Tensor[(32, 256, 1024), float32] */, Primitive=1) -> Tensor[(32, 256, 1024), float16] {
    %872 = broadcast_to(%p0341, shape=[32, 256, 1024]) /* ty=Tensor[(32, 256, 1024), float32] */;
    %873 = reshape(%872, newshape=[-1, 256, 1024]) /* ty=Tensor[(32, 256, 1024), float32] */;
    cast(%873, dtype="float16") /* ty=Tensor[(32, 256, 1024), float16] */
  } /* ty=fn (Tensor[(32, 256, 1024), float32]) -> Tensor[(32, 256, 1024), float16] */;
  %1481 = %1480(%1479) /* ty=Tensor[(32, 256, 1024), float16] */;
  %1482 = fn (%p0340: Tensor[(32, 256, 1024), float16] /* ty=Tensor[(32, 256, 1024), float16] */, %p1246: Tensor[(32, 1024, 1024), float16] /* ty=Tensor[(32, 1024, 1024), float16] */, Primitive=1) -> Tensor[(32, 256, 1024), float16] {
    nn.batch_matmul(%p0340, %p1246, out_dtype="float16") /* ty=Tensor[(32, 256, 1024), float16] */
  } /* ty=fn (Tensor[(32, 256, 1024), float16], Tensor[(32, 1024, 1024), float16]) -> Tensor[(32, 256, 1024), float16] */;
  %1483 = %1482(%1481, meta[relay.Constant][85] /* ty=Tensor[(32, 1024, 1024), float16] */) /* ty=Tensor[(32, 256, 1024), float16] */;
  %1484 = fn (%p0339: Tensor[(32, 256, 1024), float16] /* ty=Tensor[(32, 256, 1024), float16] */, %p1245: Tensor[(1024), float16] /* ty=Tensor[(1024), float16] */, Primitive=1) -> Tensor[(512, 256, 64), float16] {
    %866 = reshape(%p0339, newshape=[32, 256, 1024]) /* ty=Tensor[(32, 256, 1024), float16] */;
    %867 = squeeze(%866, axis=[]) /* ty=Tensor[(32, 256, 1024), float16] */;
    %868 = add(%867, %p1245) /* ty=Tensor[(32, 256, 1024), float16] */;
    %869 = reshape(%868, newshape=[32, 256, 16, 64]) /* ty=Tensor[(32, 256, 16, 64), float16] */;
    %870 = transpose(%869, axes=[0, 2, 1, 3]) /* ty=Tensor[(32, 16, 256, 64), float16] */;
    %871 = broadcast_to(%870, shape=[32, 16, 256, 64], dtype="float16") /* ty=Tensor[(32, 16, 256, 64), float16] */;
    reshape(%871, newshape=[-1, 256, 64]) /* ty=Tensor[(512, 256, 64), float16] */
  } /* ty=fn (Tensor[(32, 256, 1024), float16], Tensor[(1024), float16]) -> Tensor[(512, 256, 64), float16] */;
  %1493 = fn (%p0488: Tensor[(32, 256, 1024), float32] /* ty=Tensor[(32, 256, 1024), float32] */, Primitive=1) -> Tensor[(32, 256, 1024), float16] {
    %1491 = broadcast_to(%p0488, shape=[32, 256, 1024]) /* ty=Tensor[(32, 256, 1024), float32] */;
    %1492 = reshape(%1491, newshape=[-1, 256, 1024]) /* ty=Tensor[(32, 256, 1024), float32] */;
    cast(%1492, dtype="float16") /* ty=Tensor[(32, 256, 1024), float16] */
  } /* ty=fn (Tensor[(32, 256, 1024), float32]) -> Tensor[(32, 256, 1024), float16] */;
  %1494 = %1493(%1479) /* ty=Tensor[(32, 256, 1024), float16] */;
  %1495 = fn (%p0487: Tensor[(32, 256, 1024), float16] /* ty=Tensor[(32, 256, 1024), float16] */, %p1346: Tensor[(32, 1024, 1024), float16] /* ty=Tensor[(32, 1024, 1024), float16] */, Primitive=1) -> Tensor[(32, 256, 1024), float16] {
    nn.batch_matmul(%p0487, %p1346, out_dtype="float16") /* ty=Tensor[(32, 256, 1024), float16] */
  } /* ty=fn (Tensor[(32, 256, 1024), float16], Tensor[(32, 1024, 1024), float16]) -> Tensor[(32, 256, 1024), float16] */;
  %1496 = %1495(%1494, meta[relay.Constant][87] /* ty=Tensor[(32, 1024, 1024), float16] */) /* ty=Tensor[(32, 256, 1024), float16] */;
  %1497 = fn (%p0486: Tensor[(32, 256, 1024), float16] /* ty=Tensor[(32, 256, 1024), float16] */, %p1345: Tensor[(1024), float16] /* ty=Tensor[(1024), float16] */, Primitive=1) -> Tensor[(512, 64, 256), float16] {
    %1485 = reshape(%p0486, newshape=[32, 256, 1024]) /* ty=Tensor[(32, 256, 1024), float16] */;
    %1486 = squeeze(%1485, axis=[]) /* ty=Tensor[(32, 256, 1024), float16] */;
    %1487 = add(%1486, %p1345) /* ty=Tensor[(32, 256, 1024), float16] */;
    %1488 = reshape(%1487, newshape=[32, 256, 16, 64]) /* ty=Tensor[(32, 256, 16, 64), float16] */;
    %1489 = transpose(%1488, axes=[0, 2, 3, 1]) /* ty=Tensor[(32, 16, 64, 256), float16] */;
    %1490 = broadcast_to(%1489, shape=[32, 16, 64, 256], dtype="float16") /* ty=Tensor[(32, 16, 64, 256), float16] */;
    reshape(%1490, newshape=[-1, 64, 256]) /* ty=Tensor[(512, 64, 256), float16] */
  } /* ty=fn (Tensor[(32, 256, 1024), float16], Tensor[(1024), float16]) -> Tensor[(512, 64, 256), float16] */;
  %1498 = %1484(%1483, meta[relay.Constant][86] /* ty=Tensor[(1024), float16] */) /* ty=Tensor[(512, 256, 64), float16] */;
  %1499 = %1497(%1496, meta[relay.Constant][88] /* ty=Tensor[(1024), float16] */) /* ty=Tensor[(512, 64, 256), float16] */;
  %1500 = fn (%p0338: Tensor[(512, 256, 64), float16] /* ty=Tensor[(512, 256, 64), float16] */, %p1244: Tensor[(512, 64, 256), float16] /* ty=Tensor[(512, 64, 256), float16] */, Primitive=1) -> Tensor[(512, 256, 256), float16] {
    nn.batch_matmul(%p0338, %p1244, out_dtype="float16") /* ty=Tensor[(512, 256, 256), float16] */
  } /* ty=fn (Tensor[(512, 256, 64), float16], Tensor[(512, 64, 256), float16]) -> Tensor[(512, 256, 256), float16] */;
  %1501 = %1500(%1498, %1499) /* ty=Tensor[(512, 256, 256), float16] */;
  %1502 = fn (%p0337: Tensor[(512, 256, 256), float16] /* ty=Tensor[(512, 256, 256), float16] */, %p1243: float16 /* ty=float16 */, %p2113: Tensor[(32, 1, 1, 256), float16] /* ty=Tensor[(32, 1, 1, 256), float16] */, Primitive=1) -> Tensor[(32, 16, 256, 256), float16] {
    %863 = reshape(%p0337, newshape=[32, 16, 256, 256]) /* ty=Tensor[(32, 16, 256, 256), float16] */;
    %864 = squeeze(%863, axis=[]) /* ty=Tensor[(32, 16, 256, 256), float16] */;
    %865 = divide(%864, %p1243) /* ty=Tensor[(32, 16, 256, 256), float16] */;
    add(%865, %p2113) /* ty=Tensor[(32, 16, 256, 256), float16] */
  } /* ty=fn (Tensor[(512, 256, 256), float16], float16, Tensor[(32, 1, 1, 256), float16]) -> Tensor[(32, 16, 256, 256), float16] */;
  %1503 = %1502(%1501, 8f16 /* ty=float16 */, meta[relay.Constant][8] /* ty=Tensor[(32, 1, 1, 256), float16] */) /* ty=Tensor[(32, 16, 256, 256), float16] */;
  %1504 = fn (%p0336: Tensor[(32, 16, 256, 256), float16] /* ty=Tensor[(32, 16, 256, 256), float16] */, Primitive=1) -> Tensor[(32, 16, 256, 256), float16] {
    %862 = nn.fast_softmax(%p0336) /* ty=Tensor[(32, 16, 256, 256), float16] */;
    broadcast_to(%862, shape=[32, 16, 256, 256], dtype="float16") /* ty=Tensor[(32, 16, 256, 256), float16] */
  } /* ty=fn (Tensor[(32, 16, 256, 256), float16]) -> Tensor[(32, 16, 256, 256), float16] */;
  %1505 = %1504(%1503) /* ty=Tensor[(32, 16, 256, 256), float16] */;
  %1506 = fn (%p0335: Tensor[(32, 16, 256, 256), float16] /* ty=Tensor[(32, 16, 256, 256), float16] */, Primitive=1, relay.reshape_only=1) -> Tensor[(512, 256, 256), float16] {
    reshape(%p0335, newshape=[-1, 256, 256]) /* ty=Tensor[(512, 256, 256), float16] */
  } /* ty=fn (Tensor[(32, 16, 256, 256), float16]) -> Tensor[(512, 256, 256), float16] */;
  %1515 = fn (%p0491: Tensor[(32, 256, 1024), float32] /* ty=Tensor[(32, 256, 1024), float32] */, Primitive=1) -> Tensor[(32, 256, 1024), float16] {
    %1513 = broadcast_to(%p0491, shape=[32, 256, 1024]) /* ty=Tensor[(32, 256, 1024), float32] */;
    %1514 = reshape(%1513, newshape=[-1, 256, 1024]) /* ty=Tensor[(32, 256, 1024), float32] */;
    cast(%1514, dtype="float16") /* ty=Tensor[(32, 256, 1024), float16] */
  } /* ty=fn (Tensor[(32, 256, 1024), float32]) -> Tensor[(32, 256, 1024), float16] */;
  %1516 = %1515(%1479) /* ty=Tensor[(32, 256, 1024), float16] */;
  %1517 = fn (%p0490: Tensor[(32, 256, 1024), float16] /* ty=Tensor[(32, 256, 1024), float16] */, %p1348: Tensor[(32, 1024, 1024), float16] /* ty=Tensor[(32, 1024, 1024), float16] */, Primitive=1) -> Tensor[(32, 256, 1024), float16] {
    nn.batch_matmul(%p0490, %p1348, out_dtype="float16") /* ty=Tensor[(32, 256, 1024), float16] */
  } /* ty=fn (Tensor[(32, 256, 1024), float16], Tensor[(32, 1024, 1024), float16]) -> Tensor[(32, 256, 1024), float16] */;
  %1518 = %1517(%1516, meta[relay.Constant][89] /* ty=Tensor[(32, 1024, 1024), float16] */) /* ty=Tensor[(32, 256, 1024), float16] */;
  %1519 = fn (%p0489: Tensor[(32, 256, 1024), float16] /* ty=Tensor[(32, 256, 1024), float16] */, %p1347: Tensor[(1024), float16] /* ty=Tensor[(1024), float16] */, Primitive=1) -> Tensor[(512, 256, 64), float16] {
    %1507 = reshape(%p0489, newshape=[32, 256, 1024]) /* ty=Tensor[(32, 256, 1024), float16] */;
    %1508 = squeeze(%1507, axis=[]) /* ty=Tensor[(32, 256, 1024), float16] */;
    %1509 = add(%1508, %p1347) /* ty=Tensor[(32, 256, 1024), float16] */;
    %1510 = reshape(%1509, newshape=[32, 256, 16, 64]) /* ty=Tensor[(32, 256, 16, 64), float16] */;
    %1511 = transpose(%1510, axes=[0, 2, 1, 3]) /* ty=Tensor[(32, 16, 256, 64), float16] */;
    %1512 = broadcast_to(%1511, shape=[32, 16, 256, 64], dtype="float16") /* ty=Tensor[(32, 16, 256, 64), float16] */;
    reshape(%1512, newshape=[-1, 256, 64]) /* ty=Tensor[(512, 256, 64), float16] */
  } /* ty=fn (Tensor[(32, 256, 1024), float16], Tensor[(1024), float16]) -> Tensor[(512, 256, 64), float16] */;
  %1520 = %1506(%1505) /* ty=Tensor[(512, 256, 256), float16] */;
  %1521 = %1519(%1518, meta[relay.Constant][90] /* ty=Tensor[(1024), float16] */) /* ty=Tensor[(512, 256, 64), float16] */;
  %1522 = fn (%p0334: Tensor[(512, 256, 256), float16] /* ty=Tensor[(512, 256, 256), float16] */, %p1242: Tensor[(512, 256, 64), float16] /* ty=Tensor[(512, 256, 64), float16] */, Primitive=1) -> Tensor[(512, 256, 64), float16] {
    nn.batch_matmul(%p0334, %p1242, out_dtype="float16") /* ty=Tensor[(512, 256, 64), float16] */
  } /* ty=fn (Tensor[(512, 256, 256), float16], Tensor[(512, 256, 64), float16]) -> Tensor[(512, 256, 64), float16] */;
  %1523 = %1522(%1520, %1521) /* ty=Tensor[(512, 256, 64), float16] */;
  %1524 = fn (%p0333: Tensor[(512, 256, 64), float16] /* ty=Tensor[(512, 256, 64), float16] */, Primitive=1) -> Tensor[(32, 256, 1024), float16] {
    %857 = reshape(%p0333, newshape=[32, 16, 256, 64]) /* ty=Tensor[(32, 16, 256, 64), float16] */;
    %858 = squeeze(%857, axis=[]) /* ty=Tensor[(32, 16, 256, 64), float16] */;
    %859 = transpose(%858, axes=[0, 2, 1, 3]) /* ty=Tensor[(32, 256, 16, 64), float16] */;
    %860 = reshape(%859, newshape=[32, 256, 1024]) /* ty=Tensor[(32, 256, 1024), float16] */;
    %861 = broadcast_to(%860, shape=[32, 256, 1024], dtype="float16") /* ty=Tensor[(32, 256, 1024), float16] */;
    reshape(%861, newshape=[-1, 256, 1024]) /* ty=Tensor[(32, 256, 1024), float16] */
  } /* ty=fn (Tensor[(512, 256, 64), float16]) -> Tensor[(32, 256, 1024), float16] */;
  %1525 = %1524(%1523) /* ty=Tensor[(32, 256, 1024), float16] */;
  %1526 = fn (%p0332: Tensor[(32, 256, 1024), float16] /* ty=Tensor[(32, 256, 1024), float16] */, %p1241: Tensor[(32, 1024, 1024), float16] /* ty=Tensor[(32, 1024, 1024), float16] */, Primitive=1) -> Tensor[(32, 256, 1024), float16] {
    nn.batch_matmul(%p0332, %p1241, out_dtype="float16") /* ty=Tensor[(32, 256, 1024), float16] */
  } /* ty=fn (Tensor[(32, 256, 1024), float16], Tensor[(32, 1024, 1024), float16]) -> Tensor[(32, 256, 1024), float16] */;
  %1527 = %1526(%1525, meta[relay.Constant][91] /* ty=Tensor[(32, 1024, 1024), float16] */) /* ty=Tensor[(32, 256, 1024), float16] */;
  %1528 = fn (%p0331: Tensor[(32, 256, 1024), float16] /* ty=Tensor[(32, 256, 1024), float16] */, %p1240: Tensor[(1024), float16] /* ty=Tensor[(1024), float16] */, %p2112: Tensor[(32, 256, 1024), float32] /* ty=Tensor[(32, 256, 1024), float32] */, Primitive=1) -> Tensor[(32, 256, 1024), float32] {
    %853 = reshape(%p0331, newshape=[32, 256, 1024]) /* ty=Tensor[(32, 256, 1024), float16] */;
    %854 = squeeze(%853, axis=[]) /* ty=Tensor[(32, 256, 1024), float16] */;
    %855 = add(%854, %p1240) /* ty=Tensor[(32, 256, 1024), float16] */;
    %856 = cast(%855, dtype="float32") /* ty=Tensor[(32, 256, 1024), float32] */;
    add(%856, %p2112) /* ty=Tensor[(32, 256, 1024), float32] */
  } /* ty=fn (Tensor[(32, 256, 1024), float16], Tensor[(1024), float16], Tensor[(32, 256, 1024), float32]) -> Tensor[(32, 256, 1024), float32] */;
  %1529 = %1528(%1527, meta[relay.Constant][92] /* ty=Tensor[(1024), float16] */, %1479) /* ty=Tensor[(32, 256, 1024), float32] */;
  %1530 = fn (%p0492: Tensor[(32, 256, 1024), float32] /* ty=Tensor[(32, 256, 1024), float32] */, Primitive=1) -> Tensor[(32, 256, 1), float32] {
    mean(%p0492, axis=[-1], keepdims=True) /* ty=Tensor[(32, 256, 1), float32] */
  } /* ty=fn (Tensor[(32, 256, 1024), float32]) -> Tensor[(32, 256, 1), float32] */;
  %1531 = %1530(%1529) /* ty=Tensor[(32, 256, 1), float32] */;
  %1532 = fn (%p0493: Tensor[(32, 256, 1024), float32] /* ty=Tensor[(32, 256, 1024), float32] */, %p1349: Tensor[(32, 256, 1), float32] /* ty=Tensor[(32, 256, 1), float32] */, Primitive=1) -> Tensor[(32, 256, 1), float32] {
    variance(%p0493, %p1349, axis=[-1], keepdims=True) /* ty=Tensor[(32, 256, 1), float32] */
  } /* ty=fn (Tensor[(32, 256, 1024), float32], Tensor[(32, 256, 1), float32]) -> Tensor[(32, 256, 1), float32] */;
  %1533 = %1532(%1529, %1531) /* ty=Tensor[(32, 256, 1), float32] */;
  %1534 = fn (%p0330: Tensor[(32, 256, 1024), float32] /* ty=Tensor[(32, 256, 1024), float32] */, %p1239: Tensor[(32, 256, 1), float32] /* ty=Tensor[(32, 256, 1), float32] */, %p2111: Tensor[(32, 256, 1), float32] /* ty=Tensor[(32, 256, 1), float32] */, %p356: Tensor[(1024), float32] /* ty=Tensor[(1024), float32] */, %p456: Tensor[(1024), float32] /* ty=Tensor[(1024), float32] */, Primitive=1) -> Tensor[(32, 256, 1024), float32] {
    %848 = add(%p2111, 1e-12f /* ty=float32 */) /* ty=Tensor[(32, 256, 1), float32] */;
    %849 = subtract(%p0330, %p1239) /* ty=Tensor[(32, 256, 1024), float32] */;
    %850 = rsqrt(%848) /* ty=Tensor[(32, 256, 1), float32] */;
    %851 = multiply(%849, %850) /* ty=Tensor[(32, 256, 1024), float32] */;
    %852 = multiply(%851, %p356) /* ty=Tensor[(32, 256, 1024), float32] */;
    add(%852, %p456) /* ty=Tensor[(32, 256, 1024), float32] */
  } /* ty=fn (Tensor[(32, 256, 1024), float32], Tensor[(32, 256, 1), float32], Tensor[(32, 256, 1), float32], Tensor[(1024), float32], Tensor[(1024), float32]) -> Tensor[(32, 256, 1024), float32] */;
  %1535 = %1534(%1529, %1531, %1533, meta[relay.Constant][93] /* ty=Tensor[(1024), float32] */, meta[relay.Constant][94] /* ty=Tensor[(1024), float32] */) /* ty=Tensor[(32, 256, 1024), float32] */;
  %1536 = fn (%p0329: Tensor[(32, 256, 1024), float32] /* ty=Tensor[(32, 256, 1024), float32] */, Primitive=1) -> Tensor[(32, 256, 1024), float16] {
    %846 = broadcast_to(%p0329, shape=[32, 256, 1024]) /* ty=Tensor[(32, 256, 1024), float32] */;
    %847 = reshape(%846, newshape=[-1, 256, 1024]) /* ty=Tensor[(32, 256, 1024), float32] */;
    cast(%847, dtype="float16") /* ty=Tensor[(32, 256, 1024), float16] */
  } /* ty=fn (Tensor[(32, 256, 1024), float32]) -> Tensor[(32, 256, 1024), float16] */;
  %1537 = %1536(%1535) /* ty=Tensor[(32, 256, 1024), float16] */;
  %1538 = fn (%p0328: Tensor[(32, 256, 1024), float16] /* ty=Tensor[(32, 256, 1024), float16] */, %p1238: Tensor[(32, 1024, 4096), float16] /* ty=Tensor[(32, 1024, 4096), float16] */, Primitive=1) -> Tensor[(32, 256, 4096), float16] {
    nn.batch_matmul(%p0328, %p1238, out_dtype="float16") /* ty=Tensor[(32, 256, 4096), float16] */
  } /* ty=fn (Tensor[(32, 256, 1024), float16], Tensor[(32, 1024, 4096), float16]) -> Tensor[(32, 256, 4096), float16] */;
  %1539 = %1538(%1537, meta[relay.Constant][95] /* ty=Tensor[(32, 1024, 4096), float16] */) /* ty=Tensor[(32, 256, 4096), float16] */;
  %1540 = fn (%p0327: Tensor[(32, 256, 4096), float16] /* ty=Tensor[(32, 256, 4096), float16] */, %p1237: Tensor[(4096), float16] /* ty=Tensor[(4096), float16] */, %p2110: float16 /* ty=float16 */, %p355: float16 /* ty=float16 */, %p455: float16 /* ty=float16 */, Primitive=1) -> Tensor[(32, 256, 4096), float16] {
    %837 = reshape(%p0327, newshape=[32, 256, 4096]) /* ty=Tensor[(32, 256, 4096), float16] */;
    %838 = squeeze(%837, axis=[]) /* ty=Tensor[(32, 256, 4096), float16] */;
    %839 = add(%838, %p1237) /* ty=Tensor[(32, 256, 4096), float16] */;
    %840 = multiply(%839, %p2110) /* ty=Tensor[(32, 256, 4096), float16] */;
    %841 = fast_erf(%840) /* ty=Tensor[(32, 256, 4096), float16] */;
    %842 = multiply(%841, %p355) /* ty=Tensor[(32, 256, 4096), float16] */;
    %843 = add(%p455, %842) /* ty=Tensor[(32, 256, 4096), float16] */;
    %844 = multiply(%839, %843) /* ty=Tensor[(32, 256, 4096), float16] */;
    %845 = broadcast_to(%844, shape=[32, 256, 4096], dtype="float16") /* ty=Tensor[(32, 256, 4096), float16] */;
    reshape(%845, newshape=[-1, 256, 4096]) /* ty=Tensor[(32, 256, 4096), float16] */
  } /* ty=fn (Tensor[(32, 256, 4096), float16], Tensor[(4096), float16], float16, float16, float16) -> Tensor[(32, 256, 4096), float16] */;
  %1541 = %1540(%1539, meta[relay.Constant][96] /* ty=Tensor[(4096), float16] */, 0.707031f16 /* ty=float16 */, 0.5f16 /* ty=float16 */, 0.5f16 /* ty=float16 */) /* ty=Tensor[(32, 256, 4096), float16] */;
  %1542 = fn (%p0326: Tensor[(32, 256, 4096), float16] /* ty=Tensor[(32, 256, 4096), float16] */, %p1236: Tensor[(32, 4096, 1024), float16] /* ty=Tensor[(32, 4096, 1024), float16] */, Primitive=1) -> Tensor[(32, 256, 1024), float16] {
    nn.batch_matmul(%p0326, %p1236, out_dtype="float16") /* ty=Tensor[(32, 256, 1024), float16] */
  } /* ty=fn (Tensor[(32, 256, 4096), float16], Tensor[(32, 4096, 1024), float16]) -> Tensor[(32, 256, 1024), float16] */;
  %1543 = %1542(%1541, meta[relay.Constant][97] /* ty=Tensor[(32, 4096, 1024), float16] */) /* ty=Tensor[(32, 256, 1024), float16] */;
  %1544 = fn (%p0325: Tensor[(32, 256, 1024), float16] /* ty=Tensor[(32, 256, 1024), float16] */, %p1235: Tensor[(1024), float16] /* ty=Tensor[(1024), float16] */, %p2109: Tensor[(32, 256, 1024), float32] /* ty=Tensor[(32, 256, 1024), float32] */, Primitive=1) -> Tensor[(32, 256, 1024), float32] {
    %833 = reshape(%p0325, newshape=[32, 256, 1024]) /* ty=Tensor[(32, 256, 1024), float16] */;
    %834 = squeeze(%833, axis=[]) /* ty=Tensor[(32, 256, 1024), float16] */;
    %835 = add(%834, %p1235) /* ty=Tensor[(32, 256, 1024), float16] */;
    %836 = cast(%835, dtype="float32") /* ty=Tensor[(32, 256, 1024), float32] */;
    add(%836, %p2109) /* ty=Tensor[(32, 256, 1024), float32] */
  } /* ty=fn (Tensor[(32, 256, 1024), float16], Tensor[(1024), float16], Tensor[(32, 256, 1024), float32]) -> Tensor[(32, 256, 1024), float32] */;
  %1545 = %1544(%1543, meta[relay.Constant][98] /* ty=Tensor[(1024), float16] */, %1535) /* ty=Tensor[(32, 256, 1024), float32] */;
  %1546 = fn (%p0494: Tensor[(32, 256, 1024), float32] /* ty=Tensor[(32, 256, 1024), float32] */, Primitive=1) -> Tensor[(32, 256, 1), float32] {
    mean(%p0494, axis=[-1], keepdims=True) /* ty=Tensor[(32, 256, 1), float32] */
  } /* ty=fn (Tensor[(32, 256, 1024), float32]) -> Tensor[(32, 256, 1), float32] */;
  %1547 = %1546(%1545) /* ty=Tensor[(32, 256, 1), float32] */;
  %1548 = fn (%p0495: Tensor[(32, 256, 1024), float32] /* ty=Tensor[(32, 256, 1024), float32] */, %p1350: Tensor[(32, 256, 1), float32] /* ty=Tensor[(32, 256, 1), float32] */, Primitive=1) -> Tensor[(32, 256, 1), float32] {
    variance(%p0495, %p1350, axis=[-1], keepdims=True) /* ty=Tensor[(32, 256, 1), float32] */
  } /* ty=fn (Tensor[(32, 256, 1024), float32], Tensor[(32, 256, 1), float32]) -> Tensor[(32, 256, 1), float32] */;
  %1549 = %1548(%1545, %1547) /* ty=Tensor[(32, 256, 1), float32] */;
  %1550 = fn (%p0324: Tensor[(32, 256, 1024), float32] /* ty=Tensor[(32, 256, 1024), float32] */, %p1234: Tensor[(32, 256, 1), float32] /* ty=Tensor[(32, 256, 1), float32] */, %p2108: Tensor[(32, 256, 1), float32] /* ty=Tensor[(32, 256, 1), float32] */, %p354: Tensor[(1024), float32] /* ty=Tensor[(1024), float32] */, %p454: Tensor[(1024), float32] /* ty=Tensor[(1024), float32] */, Primitive=1) -> Tensor[(32, 256, 1024), float32] {
    %828 = add(%p2108, 1e-12f /* ty=float32 */) /* ty=Tensor[(32, 256, 1), float32] */;
    %829 = subtract(%p0324, %p1234) /* ty=Tensor[(32, 256, 1024), float32] */;
    %830 = rsqrt(%828) /* ty=Tensor[(32, 256, 1), float32] */;
    %831 = multiply(%829, %830) /* ty=Tensor[(32, 256, 1024), float32] */;
    %832 = multiply(%831, %p354) /* ty=Tensor[(32, 256, 1024), float32] */;
    add(%832, %p454) /* ty=Tensor[(32, 256, 1024), float32] */
  } /* ty=fn (Tensor[(32, 256, 1024), float32], Tensor[(32, 256, 1), float32], Tensor[(32, 256, 1), float32], Tensor[(1024), float32], Tensor[(1024), float32]) -> Tensor[(32, 256, 1024), float32] */;
  %1551 = %1550(%1545, %1547, %1549, meta[relay.Constant][99] /* ty=Tensor[(1024), float32] */, meta[relay.Constant][100] /* ty=Tensor[(1024), float32] */) /* ty=Tensor[(32, 256, 1024), float32] */;
  %1552 = fn (%p0323: Tensor[(32, 256, 1024), float32] /* ty=Tensor[(32, 256, 1024), float32] */, Primitive=1) -> Tensor[(32, 256, 1024), float16] {
    %826 = broadcast_to(%p0323, shape=[32, 256, 1024]) /* ty=Tensor[(32, 256, 1024), float32] */;
    %827 = reshape(%826, newshape=[-1, 256, 1024]) /* ty=Tensor[(32, 256, 1024), float32] */;
    cast(%827, dtype="float16") /* ty=Tensor[(32, 256, 1024), float16] */
  } /* ty=fn (Tensor[(32, 256, 1024), float32]) -> Tensor[(32, 256, 1024), float16] */;
  %1553 = %1552(%1551) /* ty=Tensor[(32, 256, 1024), float16] */;
  %1554 = fn (%p0322: Tensor[(32, 256, 1024), float16] /* ty=Tensor[(32, 256, 1024), float16] */, %p1233: Tensor[(32, 1024, 1024), float16] /* ty=Tensor[(32, 1024, 1024), float16] */, Primitive=1) -> Tensor[(32, 256, 1024), float16] {
    nn.batch_matmul(%p0322, %p1233, out_dtype="float16") /* ty=Tensor[(32, 256, 1024), float16] */
  } /* ty=fn (Tensor[(32, 256, 1024), float16], Tensor[(32, 1024, 1024), float16]) -> Tensor[(32, 256, 1024), float16] */;
  %1555 = %1554(%1553, meta[relay.Constant][101] /* ty=Tensor[(32, 1024, 1024), float16] */) /* ty=Tensor[(32, 256, 1024), float16] */;
  %1556 = fn (%p0321: Tensor[(32, 256, 1024), float16] /* ty=Tensor[(32, 256, 1024), float16] */, %p1232: Tensor[(1024), float16] /* ty=Tensor[(1024), float16] */, Primitive=1) -> Tensor[(512, 256, 64), float16] {
    %820 = reshape(%p0321, newshape=[32, 256, 1024]) /* ty=Tensor[(32, 256, 1024), float16] */;
    %821 = squeeze(%820, axis=[]) /* ty=Tensor[(32, 256, 1024), float16] */;
    %822 = add(%821, %p1232) /* ty=Tensor[(32, 256, 1024), float16] */;
    %823 = reshape(%822, newshape=[32, 256, 16, 64]) /* ty=Tensor[(32, 256, 16, 64), float16] */;
    %824 = transpose(%823, axes=[0, 2, 1, 3]) /* ty=Tensor[(32, 16, 256, 64), float16] */;
    %825 = broadcast_to(%824, shape=[32, 16, 256, 64], dtype="float16") /* ty=Tensor[(32, 16, 256, 64), float16] */;
    reshape(%825, newshape=[-1, 256, 64]) /* ty=Tensor[(512, 256, 64), float16] */
  } /* ty=fn (Tensor[(32, 256, 1024), float16], Tensor[(1024), float16]) -> Tensor[(512, 256, 64), float16] */;
  %1565 = fn (%p0498: Tensor[(32, 256, 1024), float32] /* ty=Tensor[(32, 256, 1024), float32] */, Primitive=1) -> Tensor[(32, 256, 1024), float16] {
    %1563 = broadcast_to(%p0498, shape=[32, 256, 1024]) /* ty=Tensor[(32, 256, 1024), float32] */;
    %1564 = reshape(%1563, newshape=[-1, 256, 1024]) /* ty=Tensor[(32, 256, 1024), float32] */;
    cast(%1564, dtype="float16") /* ty=Tensor[(32, 256, 1024), float16] */
  } /* ty=fn (Tensor[(32, 256, 1024), float32]) -> Tensor[(32, 256, 1024), float16] */;
  %1566 = %1565(%1551) /* ty=Tensor[(32, 256, 1024), float16] */;
  %1567 = fn (%p0497: Tensor[(32, 256, 1024), float16] /* ty=Tensor[(32, 256, 1024), float16] */, %p1352: Tensor[(32, 1024, 1024), float16] /* ty=Tensor[(32, 1024, 1024), float16] */, Primitive=1) -> Tensor[(32, 256, 1024), float16] {
    nn.batch_matmul(%p0497, %p1352, out_dtype="float16") /* ty=Tensor[(32, 256, 1024), float16] */
  } /* ty=fn (Tensor[(32, 256, 1024), float16], Tensor[(32, 1024, 1024), float16]) -> Tensor[(32, 256, 1024), float16] */;
  %1568 = %1567(%1566, meta[relay.Constant][103] /* ty=Tensor[(32, 1024, 1024), float16] */) /* ty=Tensor[(32, 256, 1024), float16] */;
  %1569 = fn (%p0496: Tensor[(32, 256, 1024), float16] /* ty=Tensor[(32, 256, 1024), float16] */, %p1351: Tensor[(1024), float16] /* ty=Tensor[(1024), float16] */, Primitive=1) -> Tensor[(512, 64, 256), float16] {
    %1557 = reshape(%p0496, newshape=[32, 256, 1024]) /* ty=Tensor[(32, 256, 1024), float16] */;
    %1558 = squeeze(%1557, axis=[]) /* ty=Tensor[(32, 256, 1024), float16] */;
    %1559 = add(%1558, %p1351) /* ty=Tensor[(32, 256, 1024), float16] */;
    %1560 = reshape(%1559, newshape=[32, 256, 16, 64]) /* ty=Tensor[(32, 256, 16, 64), float16] */;
    %1561 = transpose(%1560, axes=[0, 2, 3, 1]) /* ty=Tensor[(32, 16, 64, 256), float16] */;
    %1562 = broadcast_to(%1561, shape=[32, 16, 64, 256], dtype="float16") /* ty=Tensor[(32, 16, 64, 256), float16] */;
    reshape(%1562, newshape=[-1, 64, 256]) /* ty=Tensor[(512, 64, 256), float16] */
  } /* ty=fn (Tensor[(32, 256, 1024), float16], Tensor[(1024), float16]) -> Tensor[(512, 64, 256), float16] */;
  %1570 = %1556(%1555, meta[relay.Constant][102] /* ty=Tensor[(1024), float16] */) /* ty=Tensor[(512, 256, 64), float16] */;
  %1571 = %1569(%1568, meta[relay.Constant][104] /* ty=Tensor[(1024), float16] */) /* ty=Tensor[(512, 64, 256), float16] */;
  %1572 = fn (%p0320: Tensor[(512, 256, 64), float16] /* ty=Tensor[(512, 256, 64), float16] */, %p1231: Tensor[(512, 64, 256), float16] /* ty=Tensor[(512, 64, 256), float16] */, Primitive=1) -> Tensor[(512, 256, 256), float16] {
    nn.batch_matmul(%p0320, %p1231, out_dtype="float16") /* ty=Tensor[(512, 256, 256), float16] */
  } /* ty=fn (Tensor[(512, 256, 64), float16], Tensor[(512, 64, 256), float16]) -> Tensor[(512, 256, 256), float16] */;
  %1573 = %1572(%1570, %1571) /* ty=Tensor[(512, 256, 256), float16] */;
  %1574 = fn (%p0319: Tensor[(512, 256, 256), float16] /* ty=Tensor[(512, 256, 256), float16] */, %p1230: float16 /* ty=float16 */, %p2107: Tensor[(32, 1, 1, 256), float16] /* ty=Tensor[(32, 1, 1, 256), float16] */, Primitive=1) -> Tensor[(32, 16, 256, 256), float16] {
    %817 = reshape(%p0319, newshape=[32, 16, 256, 256]) /* ty=Tensor[(32, 16, 256, 256), float16] */;
    %818 = squeeze(%817, axis=[]) /* ty=Tensor[(32, 16, 256, 256), float16] */;
    %819 = divide(%818, %p1230) /* ty=Tensor[(32, 16, 256, 256), float16] */;
    add(%819, %p2107) /* ty=Tensor[(32, 16, 256, 256), float16] */
  } /* ty=fn (Tensor[(512, 256, 256), float16], float16, Tensor[(32, 1, 1, 256), float16]) -> Tensor[(32, 16, 256, 256), float16] */;
  %1575 = %1574(%1573, 8f16 /* ty=float16 */, meta[relay.Constant][8] /* ty=Tensor[(32, 1, 1, 256), float16] */) /* ty=Tensor[(32, 16, 256, 256), float16] */;
  %1576 = fn (%p0318: Tensor[(32, 16, 256, 256), float16] /* ty=Tensor[(32, 16, 256, 256), float16] */, Primitive=1) -> Tensor[(32, 16, 256, 256), float16] {
    %816 = nn.fast_softmax(%p0318) /* ty=Tensor[(32, 16, 256, 256), float16] */;
    broadcast_to(%816, shape=[32, 16, 256, 256], dtype="float16") /* ty=Tensor[(32, 16, 256, 256), float16] */
  } /* ty=fn (Tensor[(32, 16, 256, 256), float16]) -> Tensor[(32, 16, 256, 256), float16] */;
  %1577 = %1576(%1575) /* ty=Tensor[(32, 16, 256, 256), float16] */;
  %1578 = fn (%p0317: Tensor[(32, 16, 256, 256), float16] /* ty=Tensor[(32, 16, 256, 256), float16] */, Primitive=1, relay.reshape_only=1) -> Tensor[(512, 256, 256), float16] {
    reshape(%p0317, newshape=[-1, 256, 256]) /* ty=Tensor[(512, 256, 256), float16] */
  } /* ty=fn (Tensor[(32, 16, 256, 256), float16]) -> Tensor[(512, 256, 256), float16] */;
  %1587 = fn (%p0501: Tensor[(32, 256, 1024), float32] /* ty=Tensor[(32, 256, 1024), float32] */, Primitive=1) -> Tensor[(32, 256, 1024), float16] {
    %1585 = broadcast_to(%p0501, shape=[32, 256, 1024]) /* ty=Tensor[(32, 256, 1024), float32] */;
    %1586 = reshape(%1585, newshape=[-1, 256, 1024]) /* ty=Tensor[(32, 256, 1024), float32] */;
    cast(%1586, dtype="float16") /* ty=Tensor[(32, 256, 1024), float16] */
  } /* ty=fn (Tensor[(32, 256, 1024), float32]) -> Tensor[(32, 256, 1024), float16] */;
  %1588 = %1587(%1551) /* ty=Tensor[(32, 256, 1024), float16] */;
  %1589 = fn (%p0500: Tensor[(32, 256, 1024), float16] /* ty=Tensor[(32, 256, 1024), float16] */, %p1354: Tensor[(32, 1024, 1024), float16] /* ty=Tensor[(32, 1024, 1024), float16] */, Primitive=1) -> Tensor[(32, 256, 1024), float16] {
    nn.batch_matmul(%p0500, %p1354, out_dtype="float16") /* ty=Tensor[(32, 256, 1024), float16] */
  } /* ty=fn (Tensor[(32, 256, 1024), float16], Tensor[(32, 1024, 1024), float16]) -> Tensor[(32, 256, 1024), float16] */;
  %1590 = %1589(%1588, meta[relay.Constant][105] /* ty=Tensor[(32, 1024, 1024), float16] */) /* ty=Tensor[(32, 256, 1024), float16] */;
  %1591 = fn (%p0499: Tensor[(32, 256, 1024), float16] /* ty=Tensor[(32, 256, 1024), float16] */, %p1353: Tensor[(1024), float16] /* ty=Tensor[(1024), float16] */, Primitive=1) -> Tensor[(512, 256, 64), float16] {
    %1579 = reshape(%p0499, newshape=[32, 256, 1024]) /* ty=Tensor[(32, 256, 1024), float16] */;
    %1580 = squeeze(%1579, axis=[]) /* ty=Tensor[(32, 256, 1024), float16] */;
    %1581 = add(%1580, %p1353) /* ty=Tensor[(32, 256, 1024), float16] */;
    %1582 = reshape(%1581, newshape=[32, 256, 16, 64]) /* ty=Tensor[(32, 256, 16, 64), float16] */;
    %1583 = transpose(%1582, axes=[0, 2, 1, 3]) /* ty=Tensor[(32, 16, 256, 64), float16] */;
    %1584 = broadcast_to(%1583, shape=[32, 16, 256, 64], dtype="float16") /* ty=Tensor[(32, 16, 256, 64), float16] */;
    reshape(%1584, newshape=[-1, 256, 64]) /* ty=Tensor[(512, 256, 64), float16] */
  } /* ty=fn (Tensor[(32, 256, 1024), float16], Tensor[(1024), float16]) -> Tensor[(512, 256, 64), float16] */;
  %1592 = %1578(%1577) /* ty=Tensor[(512, 256, 256), float16] */;
  %1593 = %1591(%1590, meta[relay.Constant][106] /* ty=Tensor[(1024), float16] */) /* ty=Tensor[(512, 256, 64), float16] */;
  %1594 = fn (%p0316: Tensor[(512, 256, 256), float16] /* ty=Tensor[(512, 256, 256), float16] */, %p1229: Tensor[(512, 256, 64), float16] /* ty=Tensor[(512, 256, 64), float16] */, Primitive=1) -> Tensor[(512, 256, 64), float16] {
    nn.batch_matmul(%p0316, %p1229, out_dtype="float16") /* ty=Tensor[(512, 256, 64), float16] */
  } /* ty=fn (Tensor[(512, 256, 256), float16], Tensor[(512, 256, 64), float16]) -> Tensor[(512, 256, 64), float16] */;
  %1595 = %1594(%1592, %1593) /* ty=Tensor[(512, 256, 64), float16] */;
  %1596 = fn (%p0315: Tensor[(512, 256, 64), float16] /* ty=Tensor[(512, 256, 64), float16] */, Primitive=1) -> Tensor[(32, 256, 1024), float16] {
    %811 = reshape(%p0315, newshape=[32, 16, 256, 64]) /* ty=Tensor[(32, 16, 256, 64), float16] */;
    %812 = squeeze(%811, axis=[]) /* ty=Tensor[(32, 16, 256, 64), float16] */;
    %813 = transpose(%812, axes=[0, 2, 1, 3]) /* ty=Tensor[(32, 256, 16, 64), float16] */;
    %814 = reshape(%813, newshape=[32, 256, 1024]) /* ty=Tensor[(32, 256, 1024), float16] */;
    %815 = broadcast_to(%814, shape=[32, 256, 1024], dtype="float16") /* ty=Tensor[(32, 256, 1024), float16] */;
    reshape(%815, newshape=[-1, 256, 1024]) /* ty=Tensor[(32, 256, 1024), float16] */
  } /* ty=fn (Tensor[(512, 256, 64), float16]) -> Tensor[(32, 256, 1024), float16] */;
  %1597 = %1596(%1595) /* ty=Tensor[(32, 256, 1024), float16] */;
  %1598 = fn (%p0314: Tensor[(32, 256, 1024), float16] /* ty=Tensor[(32, 256, 1024), float16] */, %p1228: Tensor[(32, 1024, 1024), float16] /* ty=Tensor[(32, 1024, 1024), float16] */, Primitive=1) -> Tensor[(32, 256, 1024), float16] {
    nn.batch_matmul(%p0314, %p1228, out_dtype="float16") /* ty=Tensor[(32, 256, 1024), float16] */
  } /* ty=fn (Tensor[(32, 256, 1024), float16], Tensor[(32, 1024, 1024), float16]) -> Tensor[(32, 256, 1024), float16] */;
  %1599 = %1598(%1597, meta[relay.Constant][107] /* ty=Tensor[(32, 1024, 1024), float16] */) /* ty=Tensor[(32, 256, 1024), float16] */;
  %1600 = fn (%p0313: Tensor[(32, 256, 1024), float16] /* ty=Tensor[(32, 256, 1024), float16] */, %p1227: Tensor[(1024), float16] /* ty=Tensor[(1024), float16] */, %p2106: Tensor[(32, 256, 1024), float32] /* ty=Tensor[(32, 256, 1024), float32] */, Primitive=1) -> Tensor[(32, 256, 1024), float32] {
    %807 = reshape(%p0313, newshape=[32, 256, 1024]) /* ty=Tensor[(32, 256, 1024), float16] */;
    %808 = squeeze(%807, axis=[]) /* ty=Tensor[(32, 256, 1024), float16] */;
    %809 = add(%808, %p1227) /* ty=Tensor[(32, 256, 1024), float16] */;
    %810 = cast(%809, dtype="float32") /* ty=Tensor[(32, 256, 1024), float32] */;
    add(%810, %p2106) /* ty=Tensor[(32, 256, 1024), float32] */
  } /* ty=fn (Tensor[(32, 256, 1024), float16], Tensor[(1024), float16], Tensor[(32, 256, 1024), float32]) -> Tensor[(32, 256, 1024), float32] */;
  %1601 = %1600(%1599, meta[relay.Constant][108] /* ty=Tensor[(1024), float16] */, %1551) /* ty=Tensor[(32, 256, 1024), float32] */;
  %1602 = fn (%p0502: Tensor[(32, 256, 1024), float32] /* ty=Tensor[(32, 256, 1024), float32] */, Primitive=1) -> Tensor[(32, 256, 1), float32] {
    mean(%p0502, axis=[-1], keepdims=True) /* ty=Tensor[(32, 256, 1), float32] */
  } /* ty=fn (Tensor[(32, 256, 1024), float32]) -> Tensor[(32, 256, 1), float32] */;
  %1603 = %1602(%1601) /* ty=Tensor[(32, 256, 1), float32] */;
  %1604 = fn (%p0503: Tensor[(32, 256, 1024), float32] /* ty=Tensor[(32, 256, 1024), float32] */, %p1355: Tensor[(32, 256, 1), float32] /* ty=Tensor[(32, 256, 1), float32] */, Primitive=1) -> Tensor[(32, 256, 1), float32] {
    variance(%p0503, %p1355, axis=[-1], keepdims=True) /* ty=Tensor[(32, 256, 1), float32] */
  } /* ty=fn (Tensor[(32, 256, 1024), float32], Tensor[(32, 256, 1), float32]) -> Tensor[(32, 256, 1), float32] */;
  %1605 = %1604(%1601, %1603) /* ty=Tensor[(32, 256, 1), float32] */;
  %1606 = fn (%p0312: Tensor[(32, 256, 1024), float32] /* ty=Tensor[(32, 256, 1024), float32] */, %p1226: Tensor[(32, 256, 1), float32] /* ty=Tensor[(32, 256, 1), float32] */, %p2105: Tensor[(32, 256, 1), float32] /* ty=Tensor[(32, 256, 1), float32] */, %p353: Tensor[(1024), float32] /* ty=Tensor[(1024), float32] */, %p453: Tensor[(1024), float32] /* ty=Tensor[(1024), float32] */, Primitive=1) -> Tensor[(32, 256, 1024), float32] {
    %802 = add(%p2105, 1e-12f /* ty=float32 */) /* ty=Tensor[(32, 256, 1), float32] */;
    %803 = subtract(%p0312, %p1226) /* ty=Tensor[(32, 256, 1024), float32] */;
    %804 = rsqrt(%802) /* ty=Tensor[(32, 256, 1), float32] */;
    %805 = multiply(%803, %804) /* ty=Tensor[(32, 256, 1024), float32] */;
    %806 = multiply(%805, %p353) /* ty=Tensor[(32, 256, 1024), float32] */;
    add(%806, %p453) /* ty=Tensor[(32, 256, 1024), float32] */
  } /* ty=fn (Tensor[(32, 256, 1024), float32], Tensor[(32, 256, 1), float32], Tensor[(32, 256, 1), float32], Tensor[(1024), float32], Tensor[(1024), float32]) -> Tensor[(32, 256, 1024), float32] */;
  %1607 = %1606(%1601, %1603, %1605, meta[relay.Constant][109] /* ty=Tensor[(1024), float32] */, meta[relay.Constant][110] /* ty=Tensor[(1024), float32] */) /* ty=Tensor[(32, 256, 1024), float32] */;
  %1608 = fn (%p0311: Tensor[(32, 256, 1024), float32] /* ty=Tensor[(32, 256, 1024), float32] */, Primitive=1) -> Tensor[(32, 256, 1024), float16] {
    %800 = broadcast_to(%p0311, shape=[32, 256, 1024]) /* ty=Tensor[(32, 256, 1024), float32] */;
    %801 = reshape(%800, newshape=[-1, 256, 1024]) /* ty=Tensor[(32, 256, 1024), float32] */;
    cast(%801, dtype="float16") /* ty=Tensor[(32, 256, 1024), float16] */
  } /* ty=fn (Tensor[(32, 256, 1024), float32]) -> Tensor[(32, 256, 1024), float16] */;
  %1609 = %1608(%1607) /* ty=Tensor[(32, 256, 1024), float16] */;
  %1610 = fn (%p0310: Tensor[(32, 256, 1024), float16] /* ty=Tensor[(32, 256, 1024), float16] */, %p1225: Tensor[(32, 1024, 4096), float16] /* ty=Tensor[(32, 1024, 4096), float16] */, Primitive=1) -> Tensor[(32, 256, 4096), float16] {
    nn.batch_matmul(%p0310, %p1225, out_dtype="float16") /* ty=Tensor[(32, 256, 4096), float16] */
  } /* ty=fn (Tensor[(32, 256, 1024), float16], Tensor[(32, 1024, 4096), float16]) -> Tensor[(32, 256, 4096), float16] */;
  %1611 = %1610(%1609, meta[relay.Constant][111] /* ty=Tensor[(32, 1024, 4096), float16] */) /* ty=Tensor[(32, 256, 4096), float16] */;
  %1612 = fn (%p0309: Tensor[(32, 256, 4096), float16] /* ty=Tensor[(32, 256, 4096), float16] */, %p1224: Tensor[(4096), float16] /* ty=Tensor[(4096), float16] */, %p2104: float16 /* ty=float16 */, %p352: float16 /* ty=float16 */, %p452: float16 /* ty=float16 */, Primitive=1) -> Tensor[(32, 256, 4096), float16] {
    %791 = reshape(%p0309, newshape=[32, 256, 4096]) /* ty=Tensor[(32, 256, 4096), float16] */;
    %792 = squeeze(%791, axis=[]) /* ty=Tensor[(32, 256, 4096), float16] */;
    %793 = add(%792, %p1224) /* ty=Tensor[(32, 256, 4096), float16] */;
    %794 = multiply(%793, %p2104) /* ty=Tensor[(32, 256, 4096), float16] */;
    %795 = fast_erf(%794) /* ty=Tensor[(32, 256, 4096), float16] */;
    %796 = multiply(%795, %p352) /* ty=Tensor[(32, 256, 4096), float16] */;
    %797 = add(%p452, %796) /* ty=Tensor[(32, 256, 4096), float16] */;
    %798 = multiply(%793, %797) /* ty=Tensor[(32, 256, 4096), float16] */;
    %799 = broadcast_to(%798, shape=[32, 256, 4096], dtype="float16") /* ty=Tensor[(32, 256, 4096), float16] */;
    reshape(%799, newshape=[-1, 256, 4096]) /* ty=Tensor[(32, 256, 4096), float16] */
  } /* ty=fn (Tensor[(32, 256, 4096), float16], Tensor[(4096), float16], float16, float16, float16) -> Tensor[(32, 256, 4096), float16] */;
  %1613 = %1612(%1611, meta[relay.Constant][112] /* ty=Tensor[(4096), float16] */, 0.707031f16 /* ty=float16 */, 0.5f16 /* ty=float16 */, 0.5f16 /* ty=float16 */) /* ty=Tensor[(32, 256, 4096), float16] */;
  %1614 = fn (%p0308: Tensor[(32, 256, 4096), float16] /* ty=Tensor[(32, 256, 4096), float16] */, %p1223: Tensor[(32, 4096, 1024), float16] /* ty=Tensor[(32, 4096, 1024), float16] */, Primitive=1) -> Tensor[(32, 256, 1024), float16] {
    nn.batch_matmul(%p0308, %p1223, out_dtype="float16") /* ty=Tensor[(32, 256, 1024), float16] */
  } /* ty=fn (Tensor[(32, 256, 4096), float16], Tensor[(32, 4096, 1024), float16]) -> Tensor[(32, 256, 1024), float16] */;
  %1615 = %1614(%1613, meta[relay.Constant][113] /* ty=Tensor[(32, 4096, 1024), float16] */) /* ty=Tensor[(32, 256, 1024), float16] */;
  %1616 = fn (%p0307: Tensor[(32, 256, 1024), float16] /* ty=Tensor[(32, 256, 1024), float16] */, %p1222: Tensor[(1024), float16] /* ty=Tensor[(1024), float16] */, %p2103: Tensor[(32, 256, 1024), float32] /* ty=Tensor[(32, 256, 1024), float32] */, Primitive=1) -> Tensor[(32, 256, 1024), float32] {
    %787 = reshape(%p0307, newshape=[32, 256, 1024]) /* ty=Tensor[(32, 256, 1024), float16] */;
    %788 = squeeze(%787, axis=[]) /* ty=Tensor[(32, 256, 1024), float16] */;
    %789 = add(%788, %p1222) /* ty=Tensor[(32, 256, 1024), float16] */;
    %790 = cast(%789, dtype="float32") /* ty=Tensor[(32, 256, 1024), float32] */;
    add(%790, %p2103) /* ty=Tensor[(32, 256, 1024), float32] */
  } /* ty=fn (Tensor[(32, 256, 1024), float16], Tensor[(1024), float16], Tensor[(32, 256, 1024), float32]) -> Tensor[(32, 256, 1024), float32] */;
  %1617 = %1616(%1615, meta[relay.Constant][114] /* ty=Tensor[(1024), float16] */, %1607) /* ty=Tensor[(32, 256, 1024), float32] */;
  %1618 = fn (%p0504: Tensor[(32, 256, 1024), float32] /* ty=Tensor[(32, 256, 1024), float32] */, Primitive=1) -> Tensor[(32, 256, 1), float32] {
    mean(%p0504, axis=[-1], keepdims=True) /* ty=Tensor[(32, 256, 1), float32] */
  } /* ty=fn (Tensor[(32, 256, 1024), float32]) -> Tensor[(32, 256, 1), float32] */;
  %1619 = %1618(%1617) /* ty=Tensor[(32, 256, 1), float32] */;
  %1620 = fn (%p0505: Tensor[(32, 256, 1024), float32] /* ty=Tensor[(32, 256, 1024), float32] */, %p1356: Tensor[(32, 256, 1), float32] /* ty=Tensor[(32, 256, 1), float32] */, Primitive=1) -> Tensor[(32, 256, 1), float32] {
    variance(%p0505, %p1356, axis=[-1], keepdims=True) /* ty=Tensor[(32, 256, 1), float32] */
  } /* ty=fn (Tensor[(32, 256, 1024), float32], Tensor[(32, 256, 1), float32]) -> Tensor[(32, 256, 1), float32] */;
  %1621 = %1620(%1617, %1619) /* ty=Tensor[(32, 256, 1), float32] */;
  %1622 = fn (%p0306: Tensor[(32, 256, 1024), float32] /* ty=Tensor[(32, 256, 1024), float32] */, %p1221: Tensor[(32, 256, 1), float32] /* ty=Tensor[(32, 256, 1), float32] */, %p2102: Tensor[(32, 256, 1), float32] /* ty=Tensor[(32, 256, 1), float32] */, %p351: Tensor[(1024), float32] /* ty=Tensor[(1024), float32] */, %p451: Tensor[(1024), float32] /* ty=Tensor[(1024), float32] */, Primitive=1) -> Tensor[(32, 256, 1024), float32] {
    %782 = add(%p2102, 1e-12f /* ty=float32 */) /* ty=Tensor[(32, 256, 1), float32] */;
…
  %2684 = fn (%p0653: Tensor[(32, 256, 1024), float32] /* ty=Tensor[(32, 256, 1024), float32] */, %p1445: Tensor[(32, 256, 1), float32] /* ty=Tensor[(32, 256, 1), float32] */, Primitive=1) -> Tensor[(32, 256, 1), float32] {
    variance(%p0653, %p1445, axis=[-1], keepdims=True) /* ty=Tensor[(32, 256, 1), float32] */
  } /* ty=fn (Tensor[(32, 256, 1024), float32], Tensor[(32, 256, 1), float32]) -> Tensor[(32, 256, 1), float32] */;
  %2685 = %2684(%2681, %2683) /* ty=Tensor[(32, 256, 1), float32] */;
  %2686 = fn (%p042: Tensor[(32, 256, 1024), float32] /* ty=Tensor[(32, 256, 1024), float32] */, %p131: Tensor[(32, 256, 1), float32] /* ty=Tensor[(32, 256, 1), float32] */, %p215: Tensor[(32, 256, 1), float32] /* ty=Tensor[(32, 256, 1), float32] */, %p38: Tensor[(1024), float32] /* ty=Tensor[(1024), float32] */, %p48: Tensor[(1024), float32] /* ty=Tensor[(1024), float32] */, Primitive=1) -> Tensor[(32, 256, 1024), float32] {
    %112 = add(%p215, 1e-12f /* ty=float32 */) /* ty=Tensor[(32, 256, 1), float32] */;
    %113 = subtract(%p042, %p131) /* ty=Tensor[(32, 256, 1024), float32] */;
    %114 = rsqrt(%112) /* ty=Tensor[(32, 256, 1), float32] */;
    %115 = multiply(%113, %114) /* ty=Tensor[(32, 256, 1024), float32] */;
    %116 = multiply(%115, %p38) /* ty=Tensor[(32, 256, 1024), float32] */;
    add(%116, %p48) /* ty=Tensor[(32, 256, 1024), float32] */
  } /* ty=fn (Tensor[(32, 256, 1024), float32], Tensor[(32, 256, 1), float32], Tensor[(32, 256, 1), float32], Tensor[(1024), float32], Tensor[(1024), float32]) -> Tensor[(32, 256, 1024), float32] */;
  %2687 = %2686(%2681, %2683, %2685, meta[relay.Constant][349] /* ty=Tensor[(1024), float32] */, meta[relay.Constant][350] /* ty=Tensor[(1024), float32] */) /* ty=Tensor[(32, 256, 1024), float32] */;
  %2688 = fn (%p041: Tensor[(32, 256, 1024), float32] /* ty=Tensor[(32, 256, 1024), float32] */, Primitive=1) -> Tensor[(32, 256, 1024), float16] {
    %110 = broadcast_to(%p041, shape=[32, 256, 1024]) /* ty=Tensor[(32, 256, 1024), float32] */;
    %111 = reshape(%110, newshape=[-1, 256, 1024]) /* ty=Tensor[(32, 256, 1024), float32] */;
    cast(%111, dtype="float16") /* ty=Tensor[(32, 256, 1024), float16] */
  } /* ty=fn (Tensor[(32, 256, 1024), float32]) -> Tensor[(32, 256, 1024), float16] */;
  %2689 = %2688(%2687) /* ty=Tensor[(32, 256, 1024), float16] */;
  %2690 = fn (%p040: Tensor[(32, 256, 1024), float16] /* ty=Tensor[(32, 256, 1024), float16] */, %p130: Tensor[(32, 1024, 4096), float16] /* ty=Tensor[(32, 1024, 4096), float16] */, Primitive=1) -> Tensor[(32, 256, 4096), float16] {
    nn.batch_matmul(%p040, %p130, out_dtype="float16") /* ty=Tensor[(32, 256, 4096), float16] */
  } /* ty=fn (Tensor[(32, 256, 1024), float16], Tensor[(32, 1024, 4096), float16]) -> Tensor[(32, 256, 4096), float16] */;
  %2691 = %2690(%2689, meta[relay.Constant][351] /* ty=Tensor[(32, 1024, 4096), float16] */) /* ty=Tensor[(32, 256, 4096), float16] */;
  %2692 = fn (%p039: Tensor[(32, 256, 4096), float16] /* ty=Tensor[(32, 256, 4096), float16] */, %p129: Tensor[(4096), float16] /* ty=Tensor[(4096), float16] */, %p214: float16 /* ty=float16 */, %p37: float16 /* ty=float16 */, %p47: float16 /* ty=float16 */, Primitive=1) -> Tensor[(32, 256, 4096), float16] {
    %101 = reshape(%p039, newshape=[32, 256, 4096]) /* ty=Tensor[(32, 256, 4096), float16] */;
    %102 = squeeze(%101, axis=[]) /* ty=Tensor[(32, 256, 4096), float16] */;
    %103 = add(%102, %p129) /* ty=Tensor[(32, 256, 4096), float16] */;
    %104 = multiply(%103, %p214) /* ty=Tensor[(32, 256, 4096), float16] */;
    %105 = fast_erf(%104) /* ty=Tensor[(32, 256, 4096), float16] */;
    %106 = multiply(%105, %p37) /* ty=Tensor[(32, 256, 4096), float16] */;
    %107 = add(%p47, %106) /* ty=Tensor[(32, 256, 4096), float16] */;
    %108 = multiply(%103, %107) /* ty=Tensor[(32, 256, 4096), float16] */;
    %109 = broadcast_to(%108, shape=[32, 256, 4096], dtype="float16") /* ty=Tensor[(32, 256, 4096), float16] */;
    reshape(%109, newshape=[-1, 256, 4096]) /* ty=Tensor[(32, 256, 4096), float16] */
  } /* ty=fn (Tensor[(32, 256, 4096), float16], Tensor[(4096), float16], float16, float16, float16) -> Tensor[(32, 256, 4096), float16] */;
  %2693 = %2692(%2691, meta[relay.Constant][352] /* ty=Tensor[(4096), float16] */, 0.707031f16 /* ty=float16 */, 0.5f16 /* ty=float16 */, 0.5f16 /* ty=float16 */) /* ty=Tensor[(32, 256, 4096), float16] */;
  %2694 = fn (%p038: Tensor[(32, 256, 4096), float16] /* ty=Tensor[(32, 256, 4096), float16] */, %p128: Tensor[(32, 4096, 1024), float16] /* ty=Tensor[(32, 4096, 1024), float16] */, Primitive=1) -> Tensor[(32, 256, 1024), float16] {
    nn.batch_matmul(%p038, %p128, out_dtype="float16") /* ty=Tensor[(32, 256, 1024), float16] */
  } /* ty=fn (Tensor[(32, 256, 4096), float16], Tensor[(32, 4096, 1024), float16]) -> Tensor[(32, 256, 1024), float16] */;
  %2695 = %2694(%2693, meta[relay.Constant][353] /* ty=Tensor[(32, 4096, 1024), float16] */) /* ty=Tensor[(32, 256, 1024), float16] */;
  %2696 = fn (%p037: Tensor[(32, 256, 1024), float16] /* ty=Tensor[(32, 256, 1024), float16] */, %p127: Tensor[(1024), float16] /* ty=Tensor[(1024), float16] */, %p213: Tensor[(32, 256, 1024), float32] /* ty=Tensor[(32, 256, 1024), float32] */, Primitive=1) -> Tensor[(32, 256, 1024), float32] {
    %97 = reshape(%p037, newshape=[32, 256, 1024]) /* ty=Tensor[(32, 256, 1024), float16] */;
    %98 = squeeze(%97, axis=[]) /* ty=Tensor[(32, 256, 1024), float16] */;
    %99 = add(%98, %p127) /* ty=Tensor[(32, 256, 1024), float16] */;
    %100 = cast(%99, dtype="float32") /* ty=Tensor[(32, 256, 1024), float32] */;
    add(%100, %p213) /* ty=Tensor[(32, 256, 1024), float32] */
  } /* ty=fn (Tensor[(32, 256, 1024), float16], Tensor[(1024), float16], Tensor[(32, 256, 1024), float32]) -> Tensor[(32, 256, 1024), float32] */;
  %2697 = %2696(%2695, meta[relay.Constant][354] /* ty=Tensor[(1024), float16] */, %2687) /* ty=Tensor[(32, 256, 1024), float32] */;
  %2698 = fn (%p0654: Tensor[(32, 256, 1024), float32] /* ty=Tensor[(32, 256, 1024), float32] */, Primitive=1) -> Tensor[(32, 256, 1), float32] {
    mean(%p0654, axis=[-1], keepdims=True) /* ty=Tensor[(32, 256, 1), float32] */
  } /* ty=fn (Tensor[(32, 256, 1024), float32]) -> Tensor[(32, 256, 1), float32] */;
  %2699 = %2698(%2697) /* ty=Tensor[(32, 256, 1), float32] */;
  %2700 = fn (%p0655: Tensor[(32, 256, 1024), float32] /* ty=Tensor[(32, 256, 1024), float32] */, %p1446: Tensor[(32, 256, 1), float32] /* ty=Tensor[(32, 256, 1), float32] */, Primitive=1) -> Tensor[(32, 256, 1), float32] {
    variance(%p0655, %p1446, axis=[-1], keepdims=True) /* ty=Tensor[(32, 256, 1), float32] */
  } /* ty=fn (Tensor[(32, 256, 1024), float32], Tensor[(32, 256, 1), float32]) -> Tensor[(32, 256, 1), float32] */;
  %2701 = %2700(%2697, %2699) /* ty=Tensor[(32, 256, 1), float32] */;
  %2702 = fn (%p036: Tensor[(32, 256, 1024), float32] /* ty=Tensor[(32, 256, 1024), float32] */, %p126: Tensor[(32, 256, 1), float32] /* ty=Tensor[(32, 256, 1), float32] */, %p212: Tensor[(32, 256, 1), float32] /* ty=Tensor[(32, 256, 1), float32] */, %p36: Tensor[(1024), float32] /* ty=Tensor[(1024), float32] */, %p46: Tensor[(1024), float32] /* ty=Tensor[(1024), float32] */, Primitive=1) -> Tensor[(32, 256, 1024), float32] {
    %92 = add(%p212, 1e-12f /* ty=float32 */) /* ty=Tensor[(32, 256, 1), float32] */;
    %93 = subtract(%p036, %p126) /* ty=Tensor[(32, 256, 1024), float32] */;
    %94 = rsqrt(%92) /* ty=Tensor[(32, 256, 1), float32] */;
    %95 = multiply(%93, %94) /* ty=Tensor[(32, 256, 1024), float32] */;
    %96 = multiply(%95, %p36) /* ty=Tensor[(32, 256, 1024), float32] */;
    add(%96, %p46) /* ty=Tensor[(32, 256, 1024), float32] */
  } /* ty=fn (Tensor[(32, 256, 1024), float32], Tensor[(32, 256, 1), float32], Tensor[(32, 256, 1), float32], Tensor[(1024), float32], Tensor[(1024), float32]) -> Tensor[(32, 256, 1024), float32] */;
  %2703 = %2702(%2697, %2699, %2701, meta[relay.Constant][355] /* ty=Tensor[(1024), float32] */, meta[relay.Constant][356] /* ty=Tensor[(1024), float32] */) /* ty=Tensor[(32, 256, 1024), float32] */;
  %2704 = fn (%p035: Tensor[(32, 256, 1024), float32] /* ty=Tensor[(32, 256, 1024), float32] */, Primitive=1) -> Tensor[(32, 256, 1024), float16] {
    %90 = broadcast_to(%p035, shape=[32, 256, 1024]) /* ty=Tensor[(32, 256, 1024), float32] */;
    %91 = reshape(%90, newshape=[-1, 256, 1024]) /* ty=Tensor[(32, 256, 1024), float32] */;
    cast(%91, dtype="float16") /* ty=Tensor[(32, 256, 1024), float16] */
  } /* ty=fn (Tensor[(32, 256, 1024), float32]) -> Tensor[(32, 256, 1024), float16] */;
  %2705 = %2704(%2703) /* ty=Tensor[(32, 256, 1024), float16] */;
  %2706 = fn (%p034: Tensor[(32, 256, 1024), float16] /* ty=Tensor[(32, 256, 1024), float16] */, %p125: Tensor[(32, 1024, 1024), float16] /* ty=Tensor[(32, 1024, 1024), float16] */, Primitive=1) -> Tensor[(32, 256, 1024), float16] {
    nn.batch_matmul(%p034, %p125, out_dtype="float16") /* ty=Tensor[(32, 256, 1024), float16] */
  } /* ty=fn (Tensor[(32, 256, 1024), float16], Tensor[(32, 1024, 1024), float16]) -> Tensor[(32, 256, 1024), float16] */;
  %2707 = %2706(%2705, meta[relay.Constant][357] /* ty=Tensor[(32, 1024, 1024), float16] */) /* ty=Tensor[(32, 256, 1024), float16] */;
  %2708 = fn (%p033: Tensor[(32, 256, 1024), float16] /* ty=Tensor[(32, 256, 1024), float16] */, %p124: Tensor[(1024), float16] /* ty=Tensor[(1024), float16] */, Primitive=1) -> Tensor[(512, 256, 64), float16] {
    %84 = reshape(%p033, newshape=[32, 256, 1024]) /* ty=Tensor[(32, 256, 1024), float16] */;
    %85 = squeeze(%84, axis=[]) /* ty=Tensor[(32, 256, 1024), float16] */;
    %86 = add(%85, %p124) /* ty=Tensor[(32, 256, 1024), float16] */;
    %87 = reshape(%86, newshape=[32, 256, 16, 64]) /* ty=Tensor[(32, 256, 16, 64), float16] */;
    %88 = transpose(%87, axes=[0, 2, 1, 3]) /* ty=Tensor[(32, 16, 256, 64), float16] */;
    %89 = broadcast_to(%88, shape=[32, 16, 256, 64], dtype="float16") /* ty=Tensor[(32, 16, 256, 64), float16] */;
    reshape(%89, newshape=[-1, 256, 64]) /* ty=Tensor[(512, 256, 64), float16] */
  } /* ty=fn (Tensor[(32, 256, 1024), float16], Tensor[(1024), float16]) -> Tensor[(512, 256, 64), float16] */;
  %2717 = fn (%p0658: Tensor[(32, 256, 1024), float32] /* ty=Tensor[(32, 256, 1024), float32] */, Primitive=1) -> Tensor[(32, 256, 1024), float16] {
    %2715 = broadcast_to(%p0658, shape=[32, 256, 1024]) /* ty=Tensor[(32, 256, 1024), float32] */;
    %2716 = reshape(%2715, newshape=[-1, 256, 1024]) /* ty=Tensor[(32, 256, 1024), float32] */;
    cast(%2716, dtype="float16") /* ty=Tensor[(32, 256, 1024), float16] */
  } /* ty=fn (Tensor[(32, 256, 1024), float32]) -> Tensor[(32, 256, 1024), float16] */;
  %2718 = %2717(%2703) /* ty=Tensor[(32, 256, 1024), float16] */;
  %2719 = fn (%p0657: Tensor[(32, 256, 1024), float16] /* ty=Tensor[(32, 256, 1024), float16] */, %p1448: Tensor[(32, 1024, 1024), float16] /* ty=Tensor[(32, 1024, 1024), float16] */, Primitive=1) -> Tensor[(32, 256, 1024), float16] {
    nn.batch_matmul(%p0657, %p1448, out_dtype="float16") /* ty=Tensor[(32, 256, 1024), float16] */
  } /* ty=fn (Tensor[(32, 256, 1024), float16], Tensor[(32, 1024, 1024), float16]) -> Tensor[(32, 256, 1024), float16] */;
  %2720 = %2719(%2718, meta[relay.Constant][359] /* ty=Tensor[(32, 1024, 1024), float16] */) /* ty=Tensor[(32, 256, 1024), float16] */;
  %2721 = fn (%p0656: Tensor[(32, 256, 1024), float16] /* ty=Tensor[(32, 256, 1024), float16] */, %p1447: Tensor[(1024), float16] /* ty=Tensor[(1024), float16] */, Primitive=1) -> Tensor[(512, 64, 256), float16] {
    %2709 = reshape(%p0656, newshape=[32, 256, 1024]) /* ty=Tensor[(32, 256, 1024), float16] */;
    %2710 = squeeze(%2709, axis=[]) /* ty=Tensor[(32, 256, 1024), float16] */;
    %2711 = add(%2710, %p1447) /* ty=Tensor[(32, 256, 1024), float16] */;
    %2712 = reshape(%2711, newshape=[32, 256, 16, 64]) /* ty=Tensor[(32, 256, 16, 64), float16] */;
    %2713 = transpose(%2712, axes=[0, 2, 3, 1]) /* ty=Tensor[(32, 16, 64, 256), float16] */;
    %2714 = broadcast_to(%2713, shape=[32, 16, 64, 256], dtype="float16") /* ty=Tensor[(32, 16, 64, 256), float16] */;
    reshape(%2714, newshape=[-1, 64, 256]) /* ty=Tensor[(512, 64, 256), float16] */
  } /* ty=fn (Tensor[(32, 256, 1024), float16], Tensor[(1024), float16]) -> Tensor[(512, 64, 256), float16] */;
  %2722 = %2708(%2707, meta[relay.Constant][358] /* ty=Tensor[(1024), float16] */) /* ty=Tensor[(512, 256, 64), float16] */;
  %2723 = %2721(%2720, meta[relay.Constant][360] /* ty=Tensor[(1024), float16] */) /* ty=Tensor[(512, 64, 256), float16] */;
  %2724 = fn (%p032: Tensor[(512, 256, 64), float16] /* ty=Tensor[(512, 256, 64), float16] */, %p123: Tensor[(512, 64, 256), float16] /* ty=Tensor[(512, 64, 256), float16] */, Primitive=1) -> Tensor[(512, 256, 256), float16] {
    nn.batch_matmul(%p032, %p123, out_dtype="float16") /* ty=Tensor[(512, 256, 256), float16] */
  } /* ty=fn (Tensor[(512, 256, 64), float16], Tensor[(512, 64, 256), float16]) -> Tensor[(512, 256, 256), float16] */;
  %2725 = %2724(%2722, %2723) /* ty=Tensor[(512, 256, 256), float16] */;
  %2726 = fn (%p031: Tensor[(512, 256, 256), float16] /* ty=Tensor[(512, 256, 256), float16] */, %p122: float16 /* ty=float16 */, %p211: Tensor[(32, 1, 1, 256), float16] /* ty=Tensor[(32, 1, 1, 256), float16] */, Primitive=1) -> Tensor[(32, 16, 256, 256), float16] {
    %81 = reshape(%p031, newshape=[32, 16, 256, 256]) /* ty=Tensor[(32, 16, 256, 256), float16] */;
    %82 = squeeze(%81, axis=[]) /* ty=Tensor[(32, 16, 256, 256), float16] */;
    %83 = divide(%82, %p122) /* ty=Tensor[(32, 16, 256, 256), float16] */;
    add(%83, %p211) /* ty=Tensor[(32, 16, 256, 256), float16] */
  } /* ty=fn (Tensor[(512, 256, 256), float16], float16, Tensor[(32, 1, 1, 256), float16]) -> Tensor[(32, 16, 256, 256), float16] */;
  %2727 = %2726(%2725, 8f16 /* ty=float16 */, meta[relay.Constant][8] /* ty=Tensor[(32, 1, 1, 256), float16] */) /* ty=Tensor[(32, 16, 256, 256), float16] */;
  %2728 = fn (%p030: Tensor[(32, 16, 256, 256), float16] /* ty=Tensor[(32, 16, 256, 256), float16] */, Primitive=1) -> Tensor[(32, 16, 256, 256), float16] {
    %80 = nn.fast_softmax(%p030) /* ty=Tensor[(32, 16, 256, 256), float16] */;
    broadcast_to(%80, shape=[32, 16, 256, 256], dtype="float16") /* ty=Tensor[(32, 16, 256, 256), float16] */
  } /* ty=fn (Tensor[(32, 16, 256, 256), float16]) -> Tensor[(32, 16, 256, 256), float16] */;
  %2729 = %2728(%2727) /* ty=Tensor[(32, 16, 256, 256), float16] */;
  %2730 = fn (%p029: Tensor[(32, 16, 256, 256), float16] /* ty=Tensor[(32, 16, 256, 256), float16] */, Primitive=1, relay.reshape_only=1) -> Tensor[(512, 256, 256), float16] {
    reshape(%p029, newshape=[-1, 256, 256]) /* ty=Tensor[(512, 256, 256), float16] */
  } /* ty=fn (Tensor[(32, 16, 256, 256), float16]) -> Tensor[(512, 256, 256), float16] */;
  %2739 = fn (%p0661: Tensor[(32, 256, 1024), float32] /* ty=Tensor[(32, 256, 1024), float32] */, Primitive=1) -> Tensor[(32, 256, 1024), float16] {
    %2737 = broadcast_to(%p0661, shape=[32, 256, 1024]) /* ty=Tensor[(32, 256, 1024), float32] */;
    %2738 = reshape(%2737, newshape=[-1, 256, 1024]) /* ty=Tensor[(32, 256, 1024), float32] */;
    cast(%2738, dtype="float16") /* ty=Tensor[(32, 256, 1024), float16] */
  } /* ty=fn (Tensor[(32, 256, 1024), float32]) -> Tensor[(32, 256, 1024), float16] */;
  %2740 = %2739(%2703) /* ty=Tensor[(32, 256, 1024), float16] */;
  %2741 = fn (%p0660: Tensor[(32, 256, 1024), float16] /* ty=Tensor[(32, 256, 1024), float16] */, %p1450: Tensor[(32, 1024, 1024), float16] /* ty=Tensor[(32, 1024, 1024), float16] */, Primitive=1) -> Tensor[(32, 256, 1024), float16] {
    nn.batch_matmul(%p0660, %p1450, out_dtype="float16") /* ty=Tensor[(32, 256, 1024), float16] */
  } /* ty=fn (Tensor[(32, 256, 1024), float16], Tensor[(32, 1024, 1024), float16]) -> Tensor[(32, 256, 1024), float16] */;
  %2742 = %2741(%2740, meta[relay.Constant][361] /* ty=Tensor[(32, 1024, 1024), float16] */) /* ty=Tensor[(32, 256, 1024), float16] */;
  %2743 = fn (%p0659: Tensor[(32, 256, 1024), float16] /* ty=Tensor[(32, 256, 1024), float16] */, %p1449: Tensor[(1024), float16] /* ty=Tensor[(1024), float16] */, Primitive=1) -> Tensor[(512, 256, 64), float16] {
    %2731 = reshape(%p0659, newshape=[32, 256, 1024]) /* ty=Tensor[(32, 256, 1024), float16] */;
    %2732 = squeeze(%2731, axis=[]) /* ty=Tensor[(32, 256, 1024), float16] */;
    %2733 = add(%2732, %p1449) /* ty=Tensor[(32, 256, 1024), float16] */;
    %2734 = reshape(%2733, newshape=[32, 256, 16, 64]) /* ty=Tensor[(32, 256, 16, 64), float16] */;
    %2735 = transpose(%2734, axes=[0, 2, 1, 3]) /* ty=Tensor[(32, 16, 256, 64), float16] */;
    %2736 = broadcast_to(%2735, shape=[32, 16, 256, 64], dtype="float16") /* ty=Tensor[(32, 16, 256, 64), float16] */;
    reshape(%2736, newshape=[-1, 256, 64]) /* ty=Tensor[(512, 256, 64), float16] */
  } /* ty=fn (Tensor[(32, 256, 1024), float16], Tensor[(1024), float16]) -> Tensor[(512, 256, 64), float16] */;
  %2744 = %2730(%2729) /* ty=Tensor[(512, 256, 256), float16] */;
  %2745 = %2743(%2742, meta[relay.Constant][362] /* ty=Tensor[(1024), float16] */) /* ty=Tensor[(512, 256, 64), float16] */;
  %2746 = fn (%p028: Tensor[(512, 256, 256), float16] /* ty=Tensor[(512, 256, 256), float16] */, %p121: Tensor[(512, 256, 64), float16] /* ty=Tensor[(512, 256, 64), float16] */, Primitive=1) -> Tensor[(512, 256, 64), float16] {
    nn.batch_matmul(%p028, %p121, out_dtype="float16") /* ty=Tensor[(512, 256, 64), float16] */
  } /* ty=fn (Tensor[(512, 256, 256), float16], Tensor[(512, 256, 64), float16]) -> Tensor[(512, 256, 64), float16] */;
  %2747 = %2746(%2744, %2745) /* ty=Tensor[(512, 256, 64), float16] */;
  %2748 = fn (%p027: Tensor[(512, 256, 64), float16] /* ty=Tensor[(512, 256, 64), float16] */, Primitive=1) -> Tensor[(32, 256, 1024), float16] {
    %75 = reshape(%p027, newshape=[32, 16, 256, 64]) /* ty=Tensor[(32, 16, 256, 64), float16] */;
    %76 = squeeze(%75, axis=[]) /* ty=Tensor[(32, 16, 256, 64), float16] */;
    %77 = transpose(%76, axes=[0, 2, 1, 3]) /* ty=Tensor[(32, 256, 16, 64), float16] */;
    %78 = reshape(%77, newshape=[32, 256, 1024]) /* ty=Tensor[(32, 256, 1024), float16] */;
    %79 = broadcast_to(%78, shape=[32, 256, 1024], dtype="float16") /* ty=Tensor[(32, 256, 1024), float16] */;
    reshape(%79, newshape=[-1, 256, 1024]) /* ty=Tensor[(32, 256, 1024), float16] */
  } /* ty=fn (Tensor[(512, 256, 64), float16]) -> Tensor[(32, 256, 1024), float16] */;
  %2749 = %2748(%2747) /* ty=Tensor[(32, 256, 1024), float16] */;
  %2750 = fn (%p026: Tensor[(32, 256, 1024), float16] /* ty=Tensor[(32, 256, 1024), float16] */, %p120: Tensor[(32, 1024, 1024), float16] /* ty=Tensor[(32, 1024, 1024), float16] */, Primitive=1) -> Tensor[(32, 256, 1024), float16] {
    nn.batch_matmul(%p026, %p120, out_dtype="float16") /* ty=Tensor[(32, 256, 1024), float16] */
  } /* ty=fn (Tensor[(32, 256, 1024), float16], Tensor[(32, 1024, 1024), float16]) -> Tensor[(32, 256, 1024), float16] */;
  %2751 = %2750(%2749, meta[relay.Constant][363] /* ty=Tensor[(32, 1024, 1024), float16] */) /* ty=Tensor[(32, 256, 1024), float16] */;
  %2752 = fn (%p025: Tensor[(32, 256, 1024), float16] /* ty=Tensor[(32, 256, 1024), float16] */, %p119: Tensor[(1024), float16] /* ty=Tensor[(1024), float16] */, %p210: Tensor[(32, 256, 1024), float32] /* ty=Tensor[(32, 256, 1024), float32] */, Primitive=1) -> Tensor[(32, 256, 1024), float32] {
    %71 = reshape(%p025, newshape=[32, 256, 1024]) /* ty=Tensor[(32, 256, 1024), float16] */;
    %72 = squeeze(%71, axis=[]) /* ty=Tensor[(32, 256, 1024), float16] */;
    %73 = add(%72, %p119) /* ty=Tensor[(32, 256, 1024), float16] */;
    %74 = cast(%73, dtype="float32") /* ty=Tensor[(32, 256, 1024), float32] */;
    add(%74, %p210) /* ty=Tensor[(32, 256, 1024), float32] */
  } /* ty=fn (Tensor[(32, 256, 1024), float16], Tensor[(1024), float16], Tensor[(32, 256, 1024), float32]) -> Tensor[(32, 256, 1024), float32] */;
  %2753 = %2752(%2751, meta[relay.Constant][364] /* ty=Tensor[(1024), float16] */, %2703) /* ty=Tensor[(32, 256, 1024), float32] */;
  %2754 = fn (%p0662: Tensor[(32, 256, 1024), float32] /* ty=Tensor[(32, 256, 1024), float32] */, Primitive=1) -> Tensor[(32, 256, 1), float32] {
    mean(%p0662, axis=[-1], keepdims=True) /* ty=Tensor[(32, 256, 1), float32] */
  } /* ty=fn (Tensor[(32, 256, 1024), float32]) -> Tensor[(32, 256, 1), float32] */;
  %2755 = %2754(%2753) /* ty=Tensor[(32, 256, 1), float32] */;
  %2756 = fn (%p0663: Tensor[(32, 256, 1024), float32] /* ty=Tensor[(32, 256, 1024), float32] */, %p1451: Tensor[(32, 256, 1), float32] /* ty=Tensor[(32, 256, 1), float32] */, Primitive=1) -> Tensor[(32, 256, 1), float32] {
    variance(%p0663, %p1451, axis=[-1], keepdims=True) /* ty=Tensor[(32, 256, 1), float32] */
  } /* ty=fn (Tensor[(32, 256, 1024), float32], Tensor[(32, 256, 1), float32]) -> Tensor[(32, 256, 1), float32] */;
  %2757 = %2756(%2753, %2755) /* ty=Tensor[(32, 256, 1), float32] */;
  %2758 = fn (%p024: Tensor[(32, 256, 1024), float32] /* ty=Tensor[(32, 256, 1024), float32] */, %p118: Tensor[(32, 256, 1), float32] /* ty=Tensor[(32, 256, 1), float32] */, %p29: Tensor[(32, 256, 1), float32] /* ty=Tensor[(32, 256, 1), float32] */, %p35: Tensor[(1024), float32] /* ty=Tensor[(1024), float32] */, %p45: Tensor[(1024), float32] /* ty=Tensor[(1024), float32] */, Primitive=1) -> Tensor[(32, 256, 1024), float32] {
    %66 = add(%p29, 1e-12f /* ty=float32 */) /* ty=Tensor[(32, 256, 1), float32] */;
    %67 = subtract(%p024, %p118) /* ty=Tensor[(32, 256, 1024), float32] */;
    %68 = rsqrt(%66) /* ty=Tensor[(32, 256, 1), float32] */;
    %69 = multiply(%67, %68) /* ty=Tensor[(32, 256, 1024), float32] */;
    %70 = multiply(%69, %p35) /* ty=Tensor[(32, 256, 1024), float32] */;
    add(%70, %p45) /* ty=Tensor[(32, 256, 1024), float32] */
  } /* ty=fn (Tensor[(32, 256, 1024), float32], Tensor[(32, 256, 1), float32], Tensor[(32, 256, 1), float32], Tensor[(1024), float32], Tensor[(1024), float32]) -> Tensor[(32, 256, 1024), float32] */;
  %2759 = %2758(%2753, %2755, %2757, meta[relay.Constant][365] /* ty=Tensor[(1024), float32] */, meta[relay.Constant][366] /* ty=Tensor[(1024), float32] */) /* ty=Tensor[(32, 256, 1024), float32] */;
  %2760 = fn (%p023: Tensor[(32, 256, 1024), float32] /* ty=Tensor[(32, 256, 1024), float32] */, Primitive=1) -> Tensor[(32, 256, 1024), float16] {
    %64 = broadcast_to(%p023, shape=[32, 256, 1024]) /* ty=Tensor[(32, 256, 1024), float32] */;
    %65 = reshape(%64, newshape=[-1, 256, 1024]) /* ty=Tensor[(32, 256, 1024), float32] */;
    cast(%65, dtype="float16") /* ty=Tensor[(32, 256, 1024), float16] */
  } /* ty=fn (Tensor[(32, 256, 1024), float32]) -> Tensor[(32, 256, 1024), float16] */;
  %2761 = %2760(%2759) /* ty=Tensor[(32, 256, 1024), float16] */;
  %2762 = fn (%p022: Tensor[(32, 256, 1024), float16] /* ty=Tensor[(32, 256, 1024), float16] */, %p117: Tensor[(32, 1024, 4096), float16] /* ty=Tensor[(32, 1024, 4096), float16] */, Primitive=1) -> Tensor[(32, 256, 4096), float16] {
    nn.batch_matmul(%p022, %p117, out_dtype="float16") /* ty=Tensor[(32, 256, 4096), float16] */
  } /* ty=fn (Tensor[(32, 256, 1024), float16], Tensor[(32, 1024, 4096), float16]) -> Tensor[(32, 256, 4096), float16] */;
  %2763 = %2762(%2761, meta[relay.Constant][367] /* ty=Tensor[(32, 1024, 4096), float16] */) /* ty=Tensor[(32, 256, 4096), float16] */;
  %2764 = fn (%p021: Tensor[(32, 256, 4096), float16] /* ty=Tensor[(32, 256, 4096), float16] */, %p116: Tensor[(4096), float16] /* ty=Tensor[(4096), float16] */, %p28: float16 /* ty=float16 */, %p34: float16 /* ty=float16 */, %p44: float16 /* ty=float16 */, Primitive=1) -> Tensor[(32, 256, 4096), float16] {
    %55 = reshape(%p021, newshape=[32, 256, 4096]) /* ty=Tensor[(32, 256, 4096), float16] */;
    %56 = squeeze(%55, axis=[]) /* ty=Tensor[(32, 256, 4096), float16] */;
    %57 = add(%56, %p116) /* ty=Tensor[(32, 256, 4096), float16] */;
    %58 = multiply(%57, %p28) /* ty=Tensor[(32, 256, 4096), float16] */;
    %59 = fast_erf(%58) /* ty=Tensor[(32, 256, 4096), float16] */;
    %60 = multiply(%59, %p34) /* ty=Tensor[(32, 256, 4096), float16] */;
    %61 = add(%p44, %60) /* ty=Tensor[(32, 256, 4096), float16] */;
    %62 = multiply(%57, %61) /* ty=Tensor[(32, 256, 4096), float16] */;
    %63 = broadcast_to(%62, shape=[32, 256, 4096], dtype="float16") /* ty=Tensor[(32, 256, 4096), float16] */;
    reshape(%63, newshape=[-1, 256, 4096]) /* ty=Tensor[(32, 256, 4096), float16] */
  } /* ty=fn (Tensor[(32, 256, 4096), float16], Tensor[(4096), float16], float16, float16, float16) -> Tensor[(32, 256, 4096), float16] */;
  %2765 = %2764(%2763, meta[relay.Constant][368] /* ty=Tensor[(4096), float16] */, 0.707031f16 /* ty=float16 */, 0.5f16 /* ty=float16 */, 0.5f16 /* ty=float16 */) /* ty=Tensor[(32, 256, 4096), float16] */;
  %2766 = fn (%p020: Tensor[(32, 256, 4096), float16] /* ty=Tensor[(32, 256, 4096), float16] */, %p115: Tensor[(32, 4096, 1024), float16] /* ty=Tensor[(32, 4096, 1024), float16] */, Primitive=1) -> Tensor[(32, 256, 1024), float16] {
    nn.batch_matmul(%p020, %p115, out_dtype="float16") /* ty=Tensor[(32, 256, 1024), float16] */
  } /* ty=fn (Tensor[(32, 256, 4096), float16], Tensor[(32, 4096, 1024), float16]) -> Tensor[(32, 256, 1024), float16] */;
  %2767 = %2766(%2765, meta[relay.Constant][369] /* ty=Tensor[(32, 4096, 1024), float16] */) /* ty=Tensor[(32, 256, 1024), float16] */;
  %2768 = fn (%p019: Tensor[(32, 256, 1024), float16] /* ty=Tensor[(32, 256, 1024), float16] */, %p114: Tensor[(1024), float16] /* ty=Tensor[(1024), float16] */, %p27: Tensor[(32, 256, 1024), float32] /* ty=Tensor[(32, 256, 1024), float32] */, Primitive=1) -> Tensor[(32, 256, 1024), float32] {
    %51 = reshape(%p019, newshape=[32, 256, 1024]) /* ty=Tensor[(32, 256, 1024), float16] */;
    %52 = squeeze(%51, axis=[]) /* ty=Tensor[(32, 256, 1024), float16] */;
    %53 = add(%52, %p114) /* ty=Tensor[(32, 256, 1024), float16] */;
    %54 = cast(%53, dtype="float32") /* ty=Tensor[(32, 256, 1024), float32] */;
    add(%54, %p27) /* ty=Tensor[(32, 256, 1024), float32] */
  } /* ty=fn (Tensor[(32, 256, 1024), float16], Tensor[(1024), float16], Tensor[(32, 256, 1024), float32]) -> Tensor[(32, 256, 1024), float32] */;
  %2769 = %2768(%2767, meta[relay.Constant][370] /* ty=Tensor[(1024), float16] */, %2759) /* ty=Tensor[(32, 256, 1024), float32] */;
  %2770 = fn (%p0664: Tensor[(32, 256, 1024), float32] /* ty=Tensor[(32, 256, 1024), float32] */, Primitive=1) -> Tensor[(32, 256, 1), float32] {
    mean(%p0664, axis=[-1], keepdims=True) /* ty=Tensor[(32, 256, 1), float32] */
  } /* ty=fn (Tensor[(32, 256, 1024), float32]) -> Tensor[(32, 256, 1), float32] */;
  %2771 = %2770(%2769) /* ty=Tensor[(32, 256, 1), float32] */;
  %2772 = fn (%p0665: Tensor[(32, 256, 1024), float32] /* ty=Tensor[(32, 256, 1024), float32] */, %p1452: Tensor[(32, 256, 1), float32] /* ty=Tensor[(32, 256, 1), float32] */, Primitive=1) -> Tensor[(32, 256, 1), float32] {
    variance(%p0665, %p1452, axis=[-1], keepdims=True) /* ty=Tensor[(32, 256, 1), float32] */
  } /* ty=fn (Tensor[(32, 256, 1024), float32], Tensor[(32, 256, 1), float32]) -> Tensor[(32, 256, 1), float32] */;
  %2773 = %2772(%2769, %2771) /* ty=Tensor[(32, 256, 1), float32] */;
  %2774 = fn (%p018: Tensor[(32, 256, 1024), float32] /* ty=Tensor[(32, 256, 1024), float32] */, %p113: Tensor[(32, 256, 1), float32] /* ty=Tensor[(32, 256, 1), float32] */, %p26: Tensor[(32, 256, 1), float32] /* ty=Tensor[(32, 256, 1), float32] */, %p33: Tensor[(1024), float32] /* ty=Tensor[(1024), float32] */, %p43: Tensor[(1024), float32] /* ty=Tensor[(1024), float32] */, Primitive=1) -> Tensor[(32, 256, 1024), float32] {
    %46 = add(%p26, 1e-12f /* ty=float32 */) /* ty=Tensor[(32, 256, 1), float32] */;
    %47 = subtract(%p018, %p113) /* ty=Tensor[(32, 256, 1024), float32] */;
    %48 = rsqrt(%46) /* ty=Tensor[(32, 256, 1), float32] */;
    %49 = multiply(%47, %48) /* ty=Tensor[(32, 256, 1024), float32] */;
    %50 = multiply(%49, %p33) /* ty=Tensor[(32, 256, 1024), float32] */;
    add(%50, %p43) /* ty=Tensor[(32, 256, 1024), float32] */
  } /* ty=fn (Tensor[(32, 256, 1024), float32], Tensor[(32, 256, 1), float32], Tensor[(32, 256, 1), float32], Tensor[(1024), float32], Tensor[(1024), float32]) -> Tensor[(32, 256, 1024), float32] */;
  %2775 = %2774(%2769, %2771, %2773, meta[relay.Constant][371] /* ty=Tensor[(1024), float32] */, meta[relay.Constant][372] /* ty=Tensor[(1024), float32] */) /* ty=Tensor[(32, 256, 1024), float32] */;
  %2776 = fn (%p017: Tensor[(32, 256, 1024), float32] /* ty=Tensor[(32, 256, 1024), float32] */, Primitive=1) -> Tensor[(32, 256, 1024), float16] {
    %44 = broadcast_to(%p017, shape=[32, 256, 1024]) /* ty=Tensor[(32, 256, 1024), float32] */;
    %45 = reshape(%44, newshape=[-1, 256, 1024]) /* ty=Tensor[(32, 256, 1024), float32] */;
    cast(%45, dtype="float16") /* ty=Tensor[(32, 256, 1024), float16] */
  } /* ty=fn (Tensor[(32, 256, 1024), float32]) -> Tensor[(32, 256, 1024), float16] */;
  %2777 = %2776(%2775) /* ty=Tensor[(32, 256, 1024), float16] */;
  %2778 = fn (%p016: Tensor[(32, 256, 1024), float16] /* ty=Tensor[(32, 256, 1024), float16] */, %p112: Tensor[(32, 1024, 1024), float16] /* ty=Tensor[(32, 1024, 1024), float16] */, Primitive=1) -> Tensor[(32, 256, 1024), float16] {
    nn.batch_matmul(%p016, %p112, out_dtype="float16") /* ty=Tensor[(32, 256, 1024), float16] */
  } /* ty=fn (Tensor[(32, 256, 1024), float16], Tensor[(32, 1024, 1024), float16]) -> Tensor[(32, 256, 1024), float16] */;
  %2779 = %2778(%2777, meta[relay.Constant][373] /* ty=Tensor[(32, 1024, 1024), float16] */) /* ty=Tensor[(32, 256, 1024), float16] */;
  %2780 = fn (%p015: Tensor[(32, 256, 1024), float16] /* ty=Tensor[(32, 256, 1024), float16] */, %p111: Tensor[(1024), float16] /* ty=Tensor[(1024), float16] */, Primitive=1) -> Tensor[(512, 256, 64), float16] {
    %38 = reshape(%p015, newshape=[32, 256, 1024]) /* ty=Tensor[(32, 256, 1024), float16] */;
    %39 = squeeze(%38, axis=[]) /* ty=Tensor[(32, 256, 1024), float16] */;
    %40 = add(%39, %p111) /* ty=Tensor[(32, 256, 1024), float16] */;
    %41 = reshape(%40, newshape=[32, 256, 16, 64]) /* ty=Tensor[(32, 256, 16, 64), float16] */;
    %42 = transpose(%41, axes=[0, 2, 1, 3]) /* ty=Tensor[(32, 16, 256, 64), float16] */;
    %43 = broadcast_to(%42, shape=[32, 16, 256, 64], dtype="float16") /* ty=Tensor[(32, 16, 256, 64), float16] */;
    reshape(%43, newshape=[-1, 256, 64]) /* ty=Tensor[(512, 256, 64), float16] */
  } /* ty=fn (Tensor[(32, 256, 1024), float16], Tensor[(1024), float16]) -> Tensor[(512, 256, 64), float16] */;
  %2789 = fn (%p0668: Tensor[(32, 256, 1024), float32] /* ty=Tensor[(32, 256, 1024), float32] */, Primitive=1) -> Tensor[(32, 256, 1024), float16] {
    %2787 = broadcast_to(%p0668, shape=[32, 256, 1024]) /* ty=Tensor[(32, 256, 1024), float32] */;
    %2788 = reshape(%2787, newshape=[-1, 256, 1024]) /* ty=Tensor[(32, 256, 1024), float32] */;
    cast(%2788, dtype="float16") /* ty=Tensor[(32, 256, 1024), float16] */
  } /* ty=fn (Tensor[(32, 256, 1024), float32]) -> Tensor[(32, 256, 1024), float16] */;
  %2790 = %2789(%2775) /* ty=Tensor[(32, 256, 1024), float16] */;
  %2791 = fn (%p0667: Tensor[(32, 256, 1024), float16] /* ty=Tensor[(32, 256, 1024), float16] */, %p1454: Tensor[(32, 1024, 1024), float16] /* ty=Tensor[(32, 1024, 1024), float16] */, Primitive=1) -> Tensor[(32, 256, 1024), float16] {
    nn.batch_matmul(%p0667, %p1454, out_dtype="float16") /* ty=Tensor[(32, 256, 1024), float16] */
  } /* ty=fn (Tensor[(32, 256, 1024), float16], Tensor[(32, 1024, 1024), float16]) -> Tensor[(32, 256, 1024), float16] */;
  %2792 = %2791(%2790, meta[relay.Constant][375] /* ty=Tensor[(32, 1024, 1024), float16] */) /* ty=Tensor[(32, 256, 1024), float16] */;
  %2793 = fn (%p0666: Tensor[(32, 256, 1024), float16] /* ty=Tensor[(32, 256, 1024), float16] */, %p1453: Tensor[(1024), float16] /* ty=Tensor[(1024), float16] */, Primitive=1) -> Tensor[(512, 64, 256), float16] {
    %2781 = reshape(%p0666, newshape=[32, 256, 1024]) /* ty=Tensor[(32, 256, 1024), float16] */;
    %2782 = squeeze(%2781, axis=[]) /* ty=Tensor[(32, 256, 1024), float16] */;
    %2783 = add(%2782, %p1453) /* ty=Tensor[(32, 256, 1024), float16] */;
    %2784 = reshape(%2783, newshape=[32, 256, 16, 64]) /* ty=Tensor[(32, 256, 16, 64), float16] */;
    %2785 = transpose(%2784, axes=[0, 2, 3, 1]) /* ty=Tensor[(32, 16, 64, 256), float16] */;
    %2786 = broadcast_to(%2785, shape=[32, 16, 64, 256], dtype="float16") /* ty=Tensor[(32, 16, 64, 256), float16] */;
    reshape(%2786, newshape=[-1, 64, 256]) /* ty=Tensor[(512, 64, 256), float16] */
  } /* ty=fn (Tensor[(32, 256, 1024), float16], Tensor[(1024), float16]) -> Tensor[(512, 64, 256), float16] */;
  %2794 = %2780(%2779, meta[relay.Constant][374] /* ty=Tensor[(1024), float16] */) /* ty=Tensor[(512, 256, 64), float16] */;
  %2795 = %2793(%2792, meta[relay.Constant][376] /* ty=Tensor[(1024), float16] */) /* ty=Tensor[(512, 64, 256), float16] */;
  %2796 = fn (%p014: Tensor[(512, 256, 64), float16] /* ty=Tensor[(512, 256, 64), float16] */, %p110: Tensor[(512, 64, 256), float16] /* ty=Tensor[(512, 64, 256), float16] */, Primitive=1) -> Tensor[(512, 256, 256), float16] {
    nn.batch_matmul(%p014, %p110, out_dtype="float16") /* ty=Tensor[(512, 256, 256), float16] */
  } /* ty=fn (Tensor[(512, 256, 64), float16], Tensor[(512, 64, 256), float16]) -> Tensor[(512, 256, 256), float16] */;
  %2797 = %2796(%2794, %2795) /* ty=Tensor[(512, 256, 256), float16] */;
  %2798 = fn (%p013: Tensor[(512, 256, 256), float16] /* ty=Tensor[(512, 256, 256), float16] */, %p19: float16 /* ty=float16 */, %p25: Tensor[(32, 1, 1, 256), float16] /* ty=Tensor[(32, 1, 1, 256), float16] */, Primitive=1) -> Tensor[(32, 16, 256, 256), float16] {
    %35 = reshape(%p013, newshape=[32, 16, 256, 256]) /* ty=Tensor[(32, 16, 256, 256), float16] */;
    %36 = squeeze(%35, axis=[]) /* ty=Tensor[(32, 16, 256, 256), float16] */;
    %37 = divide(%36, %p19) /* ty=Tensor[(32, 16, 256, 256), float16] */;
    add(%37, %p25) /* ty=Tensor[(32, 16, 256, 256), float16] */
  } /* ty=fn (Tensor[(512, 256, 256), float16], float16, Tensor[(32, 1, 1, 256), float16]) -> Tensor[(32, 16, 256, 256), float16] */;
  %2799 = %2798(%2797, 8f16 /* ty=float16 */, meta[relay.Constant][8] /* ty=Tensor[(32, 1, 1, 256), float16] */) /* ty=Tensor[(32, 16, 256, 256), float16] */;
  %2800 = fn (%p012: Tensor[(32, 16, 256, 256), float16] /* ty=Tensor[(32, 16, 256, 256), float16] */, Primitive=1) -> Tensor[(32, 16, 256, 256), float16] {
    %34 = nn.fast_softmax(%p012) /* ty=Tensor[(32, 16, 256, 256), float16] */;
    broadcast_to(%34, shape=[32, 16, 256, 256], dtype="float16") /* ty=Tensor[(32, 16, 256, 256), float16] */
  } /* ty=fn (Tensor[(32, 16, 256, 256), float16]) -> Tensor[(32, 16, 256, 256), float16] */;
  %2801 = %2800(%2799) /* ty=Tensor[(32, 16, 256, 256), float16] */;
  %2802 = fn (%p011: Tensor[(32, 16, 256, 256), float16] /* ty=Tensor[(32, 16, 256, 256), float16] */, Primitive=1, relay.reshape_only=1) -> Tensor[(512, 256, 256), float16] {
    reshape(%p011, newshape=[-1, 256, 256]) /* ty=Tensor[(512, 256, 256), float16] */
  } /* ty=fn (Tensor[(32, 16, 256, 256), float16]) -> Tensor[(512, 256, 256), float16] */;
  %2811 = fn (%p0671: Tensor[(32, 256, 1024), float32] /* ty=Tensor[(32, 256, 1024), float32] */, Primitive=1) -> Tensor[(32, 256, 1024), float16] {
    %2809 = broadcast_to(%p0671, shape=[32, 256, 1024]) /* ty=Tensor[(32, 256, 1024), float32] */;
    %2810 = reshape(%2809, newshape=[-1, 256, 1024]) /* ty=Tensor[(32, 256, 1024), float32] */;
    cast(%2810, dtype="float16") /* ty=Tensor[(32, 256, 1024), float16] */
  } /* ty=fn (Tensor[(32, 256, 1024), float32]) -> Tensor[(32, 256, 1024), float16] */;
  %2812 = %2811(%2775) /* ty=Tensor[(32, 256, 1024), float16] */;
  %2813 = fn (%p0670: Tensor[(32, 256, 1024), float16] /* ty=Tensor[(32, 256, 1024), float16] */, %p1456: Tensor[(32, 1024, 1024), float16] /* ty=Tensor[(32, 1024, 1024), float16] */, Primitive=1) -> Tensor[(32, 256, 1024), float16] {
    nn.batch_matmul(%p0670, %p1456, out_dtype="float16") /* ty=Tensor[(32, 256, 1024), float16] */
  } /* ty=fn (Tensor[(32, 256, 1024), float16], Tensor[(32, 1024, 1024), float16]) -> Tensor[(32, 256, 1024), float16] */;
  %2814 = %2813(%2812, meta[relay.Constant][377] /* ty=Tensor[(32, 1024, 1024), float16] */) /* ty=Tensor[(32, 256, 1024), float16] */;
  %2815 = fn (%p0669: Tensor[(32, 256, 1024), float16] /* ty=Tensor[(32, 256, 1024), float16] */, %p1455: Tensor[(1024), float16] /* ty=Tensor[(1024), float16] */, Primitive=1) -> Tensor[(512, 256, 64), float16] {
    %2803 = reshape(%p0669, newshape=[32, 256, 1024]) /* ty=Tensor[(32, 256, 1024), float16] */;
    %2804 = squeeze(%2803, axis=[]) /* ty=Tensor[(32, 256, 1024), float16] */;
    %2805 = add(%2804, %p1455) /* ty=Tensor[(32, 256, 1024), float16] */;
    %2806 = reshape(%2805, newshape=[32, 256, 16, 64]) /* ty=Tensor[(32, 256, 16, 64), float16] */;
    %2807 = transpose(%2806, axes=[0, 2, 1, 3]) /* ty=Tensor[(32, 16, 256, 64), float16] */;
    %2808 = broadcast_to(%2807, shape=[32, 16, 256, 64], dtype="float16") /* ty=Tensor[(32, 16, 256, 64), float16] */;
    reshape(%2808, newshape=[-1, 256, 64]) /* ty=Tensor[(512, 256, 64), float16] */
  } /* ty=fn (Tensor[(32, 256, 1024), float16], Tensor[(1024), float16]) -> Tensor[(512, 256, 64), float16] */;
  %2816 = %2802(%2801) /* ty=Tensor[(512, 256, 256), float16] */;
  %2817 = %2815(%2814, meta[relay.Constant][378] /* ty=Tensor[(1024), float16] */) /* ty=Tensor[(512, 256, 64), float16] */;
  %2818 = fn (%p010: Tensor[(512, 256, 256), float16] /* ty=Tensor[(512, 256, 256), float16] */, %p18: Tensor[(512, 256, 64), float16] /* ty=Tensor[(512, 256, 64), float16] */, Primitive=1) -> Tensor[(512, 256, 64), float16] {
    nn.batch_matmul(%p010, %p18, out_dtype="float16") /* ty=Tensor[(512, 256, 64), float16] */
  } /* ty=fn (Tensor[(512, 256, 256), float16], Tensor[(512, 256, 64), float16]) -> Tensor[(512, 256, 64), float16] */;
  %2819 = %2818(%2816, %2817) /* ty=Tensor[(512, 256, 64), float16] */;
  %2820 = fn (%p09: Tensor[(512, 256, 64), float16] /* ty=Tensor[(512, 256, 64), float16] */, Primitive=1) -> Tensor[(32, 256, 1024), float16] {
    %29 = reshape(%p09, newshape=[32, 16, 256, 64]) /* ty=Tensor[(32, 16, 256, 64), float16] */;
    %30 = squeeze(%29, axis=[]) /* ty=Tensor[(32, 16, 256, 64), float16] */;
    %31 = transpose(%30, axes=[0, 2, 1, 3]) /* ty=Tensor[(32, 256, 16, 64), float16] */;
    %32 = reshape(%31, newshape=[32, 256, 1024]) /* ty=Tensor[(32, 256, 1024), float16] */;
    %33 = broadcast_to(%32, shape=[32, 256, 1024], dtype="float16") /* ty=Tensor[(32, 256, 1024), float16] */;
    reshape(%33, newshape=[-1, 256, 1024]) /* ty=Tensor[(32, 256, 1024), float16] */
  } /* ty=fn (Tensor[(512, 256, 64), float16]) -> Tensor[(32, 256, 1024), float16] */;
  %2821 = %2820(%2819) /* ty=Tensor[(32, 256, 1024), float16] */;
  %2822 = fn (%p08: Tensor[(32, 256, 1024), float16] /* ty=Tensor[(32, 256, 1024), float16] */, %p17: Tensor[(32, 1024, 1024), float16] /* ty=Tensor[(32, 1024, 1024), float16] */, Primitive=1) -> Tensor[(32, 256, 1024), float16] {
    nn.batch_matmul(%p08, %p17, out_dtype="float16") /* ty=Tensor[(32, 256, 1024), float16] */
  } /* ty=fn (Tensor[(32, 256, 1024), float16], Tensor[(32, 1024, 1024), float16]) -> Tensor[(32, 256, 1024), float16] */;
  %2823 = %2822(%2821, meta[relay.Constant][379] /* ty=Tensor[(32, 1024, 1024), float16] */) /* ty=Tensor[(32, 256, 1024), float16] */;
  %2824 = fn (%p07: Tensor[(32, 256, 1024), float16] /* ty=Tensor[(32, 256, 1024), float16] */, %p16: Tensor[(1024), float16] /* ty=Tensor[(1024), float16] */, %p24: Tensor[(32, 256, 1024), float32] /* ty=Tensor[(32, 256, 1024), float32] */, Primitive=1) -> Tensor[(32, 256, 1024), float32] {
    %25 = reshape(%p07, newshape=[32, 256, 1024]) /* ty=Tensor[(32, 256, 1024), float16] */;
    %26 = squeeze(%25, axis=[]) /* ty=Tensor[(32, 256, 1024), float16] */;
    %27 = add(%26, %p16) /* ty=Tensor[(32, 256, 1024), float16] */;
    %28 = cast(%27, dtype="float32") /* ty=Tensor[(32, 256, 1024), float32] */;
    add(%28, %p24) /* ty=Tensor[(32, 256, 1024), float32] */
  } /* ty=fn (Tensor[(32, 256, 1024), float16], Tensor[(1024), float16], Tensor[(32, 256, 1024), float32]) -> Tensor[(32, 256, 1024), float32] */;
  %2825 = %2824(%2823, meta[relay.Constant][380] /* ty=Tensor[(1024), float16] */, %2775) /* ty=Tensor[(32, 256, 1024), float32] */;
  %2826 = fn (%p0672: Tensor[(32, 256, 1024), float32] /* ty=Tensor[(32, 256, 1024), float32] */, Primitive=1) -> Tensor[(32, 256, 1), float32] {
    mean(%p0672, axis=[-1], keepdims=True) /* ty=Tensor[(32, 256, 1), float32] */
  } /* ty=fn (Tensor[(32, 256, 1024), float32]) -> Tensor[(32, 256, 1), float32] */;
  %2827 = %2826(%2825) /* ty=Tensor[(32, 256, 1), float32] */;
  %2828 = fn (%p0673: Tensor[(32, 256, 1024), float32] /* ty=Tensor[(32, 256, 1024), float32] */, %p1457: Tensor[(32, 256, 1), float32] /* ty=Tensor[(32, 256, 1), float32] */, Primitive=1) -> Tensor[(32, 256, 1), float32] {
    variance(%p0673, %p1457, axis=[-1], keepdims=True) /* ty=Tensor[(32, 256, 1), float32] */
  } /* ty=fn (Tensor[(32, 256, 1024), float32], Tensor[(32, 256, 1), float32]) -> Tensor[(32, 256, 1), float32] */;
  %2829 = %2828(%2825, %2827) /* ty=Tensor[(32, 256, 1), float32] */;
  %2830 = fn (%p06: Tensor[(32, 256, 1024), float32] /* ty=Tensor[(32, 256, 1024), float32] */, %p15: Tensor[(32, 256, 1), float32] /* ty=Tensor[(32, 256, 1), float32] */, %p23: Tensor[(32, 256, 1), float32] /* ty=Tensor[(32, 256, 1), float32] */, %p32: Tensor[(1024), float32] /* ty=Tensor[(1024), float32] */, %p42: Tensor[(1024), float32] /* ty=Tensor[(1024), float32] */, Primitive=1) -> Tensor[(32, 256, 1024), float32] {
    %20 = add(%p23, 1e-12f /* ty=float32 */) /* ty=Tensor[(32, 256, 1), float32] */;
    %21 = subtract(%p06, %p15) /* ty=Tensor[(32, 256, 1024), float32] */;
    %22 = rsqrt(%20) /* ty=Tensor[(32, 256, 1), float32] */;
    %23 = multiply(%21, %22) /* ty=Tensor[(32, 256, 1024), float32] */;
    %24 = multiply(%23, %p32) /* ty=Tensor[(32, 256, 1024), float32] */;
    add(%24, %p42) /* ty=Tensor[(32, 256, 1024), float32] */
  } /* ty=fn (Tensor[(32, 256, 1024), float32], Tensor[(32, 256, 1), float32], Tensor[(32, 256, 1), float32], Tensor[(1024), float32], Tensor[(1024), float32]) -> Tensor[(32, 256, 1024), float32] */;
  %2831 = %2830(%2825, %2827, %2829, meta[relay.Constant][381] /* ty=Tensor[(1024), float32] */, meta[relay.Constant][382] /* ty=Tensor[(1024), float32] */) /* ty=Tensor[(32, 256, 1024), float32] */;
  %2832 = fn (%p05: Tensor[(32, 256, 1024), float32] /* ty=Tensor[(32, 256, 1024), float32] */, Primitive=1) -> Tensor[(32, 256, 1024), float16] {
    %18 = broadcast_to(%p05, shape=[32, 256, 1024]) /* ty=Tensor[(32, 256, 1024), float32] */;
    %19 = reshape(%18, newshape=[-1, 256, 1024]) /* ty=Tensor[(32, 256, 1024), float32] */;
    cast(%19, dtype="float16") /* ty=Tensor[(32, 256, 1024), float16] */
  } /* ty=fn (Tensor[(32, 256, 1024), float32]) -> Tensor[(32, 256, 1024), float16] */;
  %2833 = %2832(%2831) /* ty=Tensor[(32, 256, 1024), float16] */;
  %2834 = fn (%p04: Tensor[(32, 256, 1024), float16] /* ty=Tensor[(32, 256, 1024), float16] */, %p14: Tensor[(32, 1024, 4096), float16] /* ty=Tensor[(32, 1024, 4096), float16] */, Primitive=1) -> Tensor[(32, 256, 4096), float16] {
    nn.batch_matmul(%p04, %p14, out_dtype="float16") /* ty=Tensor[(32, 256, 4096), float16] */
  } /* ty=fn (Tensor[(32, 256, 1024), float16], Tensor[(32, 1024, 4096), float16]) -> Tensor[(32, 256, 4096), float16] */;
  %2835 = %2834(%2833, meta[relay.Constant][383] /* ty=Tensor[(32, 1024, 4096), float16] */) /* ty=Tensor[(32, 256, 4096), float16] */;
  %2836 = fn (%p03: Tensor[(32, 256, 4096), float16] /* ty=Tensor[(32, 256, 4096), float16] */, %p13: Tensor[(4096), float16] /* ty=Tensor[(4096), float16] */, %p22: float16 /* ty=float16 */, %p31: float16 /* ty=float16 */, %p41: float16 /* ty=float16 */, Primitive=1) -> Tensor[(32, 256, 4096), float16] {
    %9 = reshape(%p03, newshape=[32, 256, 4096]) /* ty=Tensor[(32, 256, 4096), float16] */;
    %10 = squeeze(%9, axis=[]) /* ty=Tensor[(32, 256, 4096), float16] */;
    %11 = add(%10, %p13) /* ty=Tensor[(32, 256, 4096), float16] */;
    %12 = multiply(%11, %p22) /* ty=Tensor[(32, 256, 4096), float16] */;
    %13 = fast_erf(%12) /* ty=Tensor[(32, 256, 4096), float16] */;
    %14 = multiply(%13, %p31) /* ty=Tensor[(32, 256, 4096), float16] */;
    %15 = add(%p41, %14) /* ty=Tensor[(32, 256, 4096), float16] */;
    %16 = multiply(%11, %15) /* ty=Tensor[(32, 256, 4096), float16] */;
    %17 = broadcast_to(%16, shape=[32, 256, 4096], dtype="float16") /* ty=Tensor[(32, 256, 4096), float16] */;
    reshape(%17, newshape=[-1, 256, 4096]) /* ty=Tensor[(32, 256, 4096), float16] */
  } /* ty=fn (Tensor[(32, 256, 4096), float16], Tensor[(4096), float16], float16, float16, float16) -> Tensor[(32, 256, 4096), float16] */;
  %2837 = %2836(%2835, meta[relay.Constant][384] /* ty=Tensor[(4096), float16] */, 0.707031f16 /* ty=float16 */, 0.5f16 /* ty=float16 */, 0.5f16 /* ty=float16 */) /* ty=Tensor[(32, 256, 4096), float16] */;
  %2838 = fn (%p02: Tensor[(32, 256, 4096), float16] /* ty=Tensor[(32, 256, 4096), float16] */, %p12: Tensor[(32, 4096, 1024), float16] /* ty=Tensor[(32, 4096, 1024), float16] */, Primitive=1) -> Tensor[(32, 256, 1024), float16] {
    nn.batch_matmul(%p02, %p12, out_dtype="float16") /* ty=Tensor[(32, 256, 1024), float16] */
  } /* ty=fn (Tensor[(32, 256, 4096), float16], Tensor[(32, 4096, 1024), float16]) -> Tensor[(32, 256, 1024), float16] */;
  %2839 = %2838(%2837, meta[relay.Constant][385] /* ty=Tensor[(32, 4096, 1024), float16] */) /* ty=Tensor[(32, 256, 1024), float16] */;
  %2840 = fn (%p01: Tensor[(32, 256, 1024), float16] /* ty=Tensor[(32, 256, 1024), float16] */, %p11: Tensor[(1024), float16] /* ty=Tensor[(1024), float16] */, %p21: Tensor[(32, 256, 1024), float32] /* ty=Tensor[(32, 256, 1024), float32] */, Primitive=1) -> Tensor[(32, 256, 1024), float32] {
    %5 = reshape(%p01, newshape=[32, 256, 1024]) /* ty=Tensor[(32, 256, 1024), float16] */;
    %6 = squeeze(%5, axis=[]) /* ty=Tensor[(32, 256, 1024), float16] */;
    %7 = add(%6, %p11) /* ty=Tensor[(32, 256, 1024), float16] */;
    %8 = cast(%7, dtype="float32") /* ty=Tensor[(32, 256, 1024), float32] */;
    add(%8, %p21) /* ty=Tensor[(32, 256, 1024), float32] */
  } /* ty=fn (Tensor[(32, 256, 1024), float16], Tensor[(1024), float16], Tensor[(32, 256, 1024), float32]) -> Tensor[(32, 256, 1024), float32] */;
  %2841 = %2840(%2839, meta[relay.Constant][386] /* ty=Tensor[(1024), float16] */, %2831) /* ty=Tensor[(32, 256, 1024), float32] */;
  %2842 = fn (%p0674: Tensor[(32, 256, 1024), float32] /* ty=Tensor[(32, 256, 1024), float32] */, Primitive=1) -> Tensor[(32, 256, 1), float32] {
    mean(%p0674, axis=[-1], keepdims=True) /* ty=Tensor[(32, 256, 1), float32] */
  } /* ty=fn (Tensor[(32, 256, 1024), float32]) -> Tensor[(32, 256, 1), float32] */;
  %2843 = %2842(%2841) /* ty=Tensor[(32, 256, 1), float32] */;
  %2844 = fn (%p0675: Tensor[(32, 256, 1024), float32] /* ty=Tensor[(32, 256, 1024), float32] */, %p1458: Tensor[(32, 256, 1), float32] /* ty=Tensor[(32, 256, 1), float32] */, Primitive=1) -> Tensor[(32, 256, 1), float32] {
    variance(%p0675, %p1458, axis=[-1], keepdims=True) /* ty=Tensor[(32, 256, 1), float32] */
  } /* ty=fn (Tensor[(32, 256, 1024), float32], Tensor[(32, 256, 1), float32]) -> Tensor[(32, 256, 1), float32] */;
  %2845 = %2844(%2841, %2843) /* ty=Tensor[(32, 256, 1), float32] */;
  %2846 = fn (%p0: Tensor[(32, 256, 1024), float32] /* ty=Tensor[(32, 256, 1024), float32] */, %p1: Tensor[(32, 256, 1), float32] /* ty=Tensor[(32, 256, 1), float32] */, %p2: Tensor[(32, 256, 1), float32] /* ty=Tensor[(32, 256, 1), float32] */, %p3: Tensor[(1024), float32] /* ty=Tensor[(1024), float32] */, %p4: Tensor[(1024), float32] /* ty=Tensor[(1024), float32] */, Primitive=1) -> Tensor[(32, 256, 1024), float32] {
    %0 = add(%p2, 1e-12f /* ty=float32 */) /* ty=Tensor[(32, 256, 1), float32] */;
    %1 = subtract(%p0, %p1) /* ty=Tensor[(32, 256, 1024), float32] */;
    %2 = rsqrt(%0) /* ty=Tensor[(32, 256, 1), float32] */;
    %3 = multiply(%1, %2) /* ty=Tensor[(32, 256, 1024), float32] */;
    %4 = multiply(%3, %p3) /* ty=Tensor[(32, 256, 1024), float32] */;
    add(%4, %p4) /* ty=Tensor[(32, 256, 1024), float32] */
  } /* ty=fn (Tensor[(32, 256, 1024), float32], Tensor[(32, 256, 1), float32], Tensor[(32, 256, 1), float32], Tensor[(1024), float32], Tensor[(1024), float32]) -> Tensor[(32, 256, 1024), float32] */;
  %2850 = %2846(%2841, %2843, %2845, meta[relay.Constant][387] /* ty=Tensor[(1024), float32] */, meta[relay.Constant][388] /* ty=Tensor[(1024), float32] */) /* ty=Tensor[(32, 256, 1024), float32] */;
  %2851 = fn (%p0677: Tensor[(32, 256, 1024), float32] /* ty=Tensor[(32, 256, 1024), float32] */, Primitive=1) -> Tensor[(32, 1024), float16] {
    %2849 = take(%p0677, 0 /* ty=int32 span=aten::select_0:0:0 */, axis=1, mode="wrap") /* ty=Tensor[(32, 1024), float32] */;
    cast(%2849, dtype="float16") /* ty=Tensor[(32, 1024), float16] */
  } /* ty=fn (Tensor[(32, 256, 1024), float32]) -> Tensor[(32, 1024), float16] */;
  %2852 = %2851(%2850) /* ty=Tensor[(32, 1024), float16] */;
  %2853 = fn (%p0676: Tensor[(32, 1024), float16] /* ty=Tensor[(32, 1024), float16] */, %p1459: Tensor[(1024, 1024), float16] /* ty=Tensor[(1024, 1024), float16] */, %p2146: Tensor[(1, 1024), float16] /* ty=Tensor[(1, 1024), float16] */, Primitive=1) -> Tensor[(32, 1024), float16] {
    %2847 = nn.dense(%p0676, %p1459, units=None, out_dtype="float16") /* ty=Tensor[(32, 1024), float16] */;
    %2848 = add(%2847, %p2146) /* ty=Tensor[(32, 1024), float16] */;
    fast_tanh(%2848) /* ty=Tensor[(32, 1024), float16] */
  } /* ty=fn (Tensor[(32, 1024), float16], Tensor[(1024, 1024), float16], Tensor[(1, 1024), float16]) -> Tensor[(32, 1024), float16] */;
  %2854 = %2853(%2852, meta[relay.Constant][389] /* ty=Tensor[(1024, 1024), float16] */, meta[relay.Constant][390] /* ty=Tensor[(1, 1024), float16] */) /* ty=Tensor[(32, 1024), float16] */;
  (%2850, %2854) /* ty=(Tensor[(32, 256, 1024), float32], Tensor[(32, 1024), float16]) */
}


