def @main(%input0: Tensor[(32, 3, 224, 224), float16] /* ty=Tensor[(32, 3, 224, 224), float16] span=/Split.inputs:0:0 */, %input1: Tensor[(32, 7, 7), float32] /* ty=Tensor[(32, 7, 7), float32] span=/Unsqueeze.input1:0:0 */) -> (Tensor[(32, 100, 92), float16], Tensor[(32, 100, 4), float16]) {
  %547 = fn (%p0213: Tensor[(32, 3, 224, 224), float16] /* ty=Tensor[(32, 3, 224, 224), float16] */, Primitive=1) -> Tensor[(32, 224, 224, 3), float16] {
    layout_transform(%p0213, src_layout="NCHW", dst_layout="NHWC") /* ty=Tensor[(32, 224, 224, 3), float16] */
  } /* ty=fn (Tensor[(32, 3, 224, 224), float16]) -> Tensor[(32, 224, 224, 3), float16] */;
  %550 = %547(%input0) /* ty=Tensor[(32, 224, 224, 3), float16] */;
  %551 = fn (%p0211: Tensor[(32, 224, 224, 3), float16] /* ty=Tensor[(32, 224, 224, 3), float16] */, %p1168: Tensor[(64, 7, 7, 3), float16] /* ty=Tensor[(64, 7, 7, 3), float16] */, %p284: Tensor[(1, 1, 1, 64), float16] /* ty=Tensor[(1, 1, 1, 64), float16] */, %p363: Tensor[(1, 1, 1, 64), float16] /* ty=Tensor[(1, 1, 1, 64), float16] */, Primitive=1) -> Tensor[(32, 112, 112, 64), float16] {
    %413 = nn.conv2d(%p0211, %p1168, strides=[2, 2], padding=[3, 3, 3, 3], channels=64, kernel_size=[7, 7], data_layout="NHWC", kernel_layout="OHWI", out_dtype="float16") /* ty=Tensor[(32, 112, 112, 64), float16] */;
    %414 = multiply(%413, %p284) /* ty=Tensor[(32, 112, 112, 64), float16] */;
    %415 = add(%414, %p363) /* ty=Tensor[(32, 112, 112, 64), float16] */;
    nn.relu(%415) /* ty=Tensor[(32, 112, 112, 64), float16] */
  } /* ty=fn (Tensor[(32, 224, 224, 3), float16], Tensor[(64, 7, 7, 3), float16], Tensor[(1, 1, 1, 64), float16], Tensor[(1, 1, 1, 64), float16]) -> Tensor[(32, 112, 112, 64), float16] */;
  %552 = %551(%550, meta[relay.Constant][1] /* ty=Tensor[(64, 7, 7, 3), float16] */, meta[relay.Constant][2] /* ty=Tensor[(1, 1, 1, 64), float16] */, meta[relay.Constant][3] /* ty=Tensor[(1, 1, 1, 64), float16] */) /* ty=Tensor[(32, 112, 112, 64), float16] */;
  %553 = fn (%p0210: Tensor[(32, 112, 112, 64), float16] /* ty=Tensor[(32, 112, 112, 64), float16] */, Primitive=1) -> Tensor[(32, 56, 56, 64), float16] {
    nn.max_pool2d(%p0210, pool_size=[3, 3], strides=[2, 2], padding=[1, 1, 1, 1], layout="NHWC") /* ty=Tensor[(32, 56, 56, 64), float16] */
  } /* ty=fn (Tensor[(32, 112, 112, 64), float16]) -> Tensor[(32, 56, 56, 64), float16] */;
  %554 = %553(%552) /* ty=Tensor[(32, 56, 56, 64), float16] */;
  %555 = fn (%p0209: Tensor[(32, 56, 56, 64), float16] /* ty=Tensor[(32, 56, 56, 64), float16] */, %p1167: Tensor[(64, 1, 1, 64), float16] /* ty=Tensor[(64, 1, 1, 64), float16] */, %p283: Tensor[(1, 1, 1, 64), float16] /* ty=Tensor[(1, 1, 1, 64), float16] */, %p362: Tensor[(1, 1, 1, 64), float16] /* ty=Tensor[(1, 1, 1, 64), float16] */, Primitive=1) -> Tensor[(32, 56, 56, 64), float16] {
    %410 = nn.conv2d(%p0209, %p1167, padding=[0, 0, 0, 0], channels=64, kernel_size=[1, 1], data_layout="NHWC", kernel_layout="OHWI", out_dtype="float16") /* ty=Tensor[(32, 56, 56, 64), float16] */;
    %411 = multiply(%410, %p283) /* ty=Tensor[(32, 56, 56, 64), float16] */;
    %412 = add(%411, %p362) /* ty=Tensor[(32, 56, 56, 64), float16] */;
    nn.relu(%412) /* ty=Tensor[(32, 56, 56, 64), float16] */
  } /* ty=fn (Tensor[(32, 56, 56, 64), float16], Tensor[(64, 1, 1, 64), float16], Tensor[(1, 1, 1, 64), float16], Tensor[(1, 1, 1, 64), float16]) -> Tensor[(32, 56, 56, 64), float16] */;
  %556 = %555(%554, meta[relay.Constant][4] /* ty=Tensor[(64, 1, 1, 64), float16] */, meta[relay.Constant][5] /* ty=Tensor[(1, 1, 1, 64), float16] */, meta[relay.Constant][6] /* ty=Tensor[(1, 1, 1, 64), float16] */) /* ty=Tensor[(32, 56, 56, 64), float16] */;
  %557 = fn (%p0208: Tensor[(32, 56, 56, 64), float16] /* ty=Tensor[(32, 56, 56, 64), float16] */, %p1166: Tensor[(64, 3, 3, 64), float16] /* ty=Tensor[(64, 3, 3, 64), float16] */, %p282: Tensor[(1, 1, 1, 64), float16] /* ty=Tensor[(1, 1, 1, 64), float16] */, %p361: Tensor[(1, 1, 1, 64), float16] /* ty=Tensor[(1, 1, 1, 64), float16] */, Primitive=1) -> Tensor[(32, 56, 56, 64), float16] {
    %407 = nn.conv2d(%p0208, %p1166, padding=[1, 1, 1, 1], channels=64, kernel_size=[3, 3], data_layout="NHWC", kernel_layout="OHWI", out_dtype="float16") /* ty=Tensor[(32, 56, 56, 64), float16] */;
    %408 = multiply(%407, %p282) /* ty=Tensor[(32, 56, 56, 64), float16] */;
    %409 = add(%408, %p361) /* ty=Tensor[(32, 56, 56, 64), float16] */;
    nn.relu(%409) /* ty=Tensor[(32, 56, 56, 64), float16] */
  } /* ty=fn (Tensor[(32, 56, 56, 64), float16], Tensor[(64, 3, 3, 64), float16], Tensor[(1, 1, 1, 64), float16], Tensor[(1, 1, 1, 64), float16]) -> Tensor[(32, 56, 56, 64), float16] */;
  %560 = fn (%p0214: Tensor[(32, 56, 56, 64), float16] /* ty=Tensor[(32, 56, 56, 64), float16] */, %p1171: Tensor[(256, 1, 1, 64), float16] /* ty=Tensor[(256, 1, 1, 64), float16] */, %p287: Tensor[(1, 1, 1, 256), float16] /* ty=Tensor[(1, 1, 1, 256), float16] */, %p365: Tensor[(1, 1, 1, 256), float16] /* ty=Tensor[(1, 1, 1, 256), float16] */, Primitive=1) -> Tensor[(32, 56, 56, 256), float16] {
    %558 = nn.conv2d(%p0214, %p1171, padding=[0, 0, 0, 0], channels=256, kernel_size=[1, 1], data_layout="NHWC", kernel_layout="OHWI", out_dtype="float16") /* ty=Tensor[(32, 56, 56, 256), float16] */;
    %559 = multiply(%558, %p287) /* ty=Tensor[(32, 56, 56, 256), float16] */;
    add(%559, %p365) /* ty=Tensor[(32, 56, 56, 256), float16] */
  } /* ty=fn (Tensor[(32, 56, 56, 64), float16], Tensor[(256, 1, 1, 64), float16], Tensor[(1, 1, 1, 256), float16], Tensor[(1, 1, 1, 256), float16]) -> Tensor[(32, 56, 56, 256), float16] */;
  %561 = %557(%556, meta[relay.Constant][7] /* ty=Tensor[(64, 3, 3, 64), float16] */, meta[relay.Constant][8] /* ty=Tensor[(1, 1, 1, 64), float16] */, meta[relay.Constant][9] /* ty=Tensor[(1, 1, 1, 64), float16] */) /* ty=Tensor[(32, 56, 56, 64), float16] */;
  %562 = %560(%554, meta[relay.Constant][13] /* ty=Tensor[(256, 1, 1, 64), float16] */, meta[relay.Constant][14] /* ty=Tensor[(1, 1, 1, 256), float16] */, meta[relay.Constant][15] /* ty=Tensor[(1, 1, 1, 256), float16] */) /* ty=Tensor[(32, 56, 56, 256), float16] */;
  %563 = fn (%p0207: Tensor[(32, 56, 56, 64), float16] /* ty=Tensor[(32, 56, 56, 64), float16] */, %p1165: Tensor[(256, 1, 1, 64), float16] /* ty=Tensor[(256, 1, 1, 64), float16] */, %p281: Tensor[(1, 1, 1, 256), float16] /* ty=Tensor[(1, 1, 1, 256), float16] */, %p360: Tensor[(1, 1, 1, 256), float16] /* ty=Tensor[(1, 1, 1, 256), float16] */, %p416: Tensor[(32, 56, 56, 256), float16] /* ty=Tensor[(32, 56, 56, 256), float16] */, Primitive=1) -> Tensor[(32, 56, 56, 256), float16] {
    %403 = nn.conv2d(%p0207, %p1165, padding=[0, 0, 0, 0], channels=256, kernel_size=[1, 1], data_layout="NHWC", kernel_layout="OHWI", out_dtype="float16") /* ty=Tensor[(32, 56, 56, 256), float16] */;
    %404 = multiply(%403, %p281) /* ty=Tensor[(32, 56, 56, 256), float16] */;
    %405 = add(%404, %p360) /* ty=Tensor[(32, 56, 56, 256), float16] */;
    %406 = add(%405, %p416) /* ty=Tensor[(32, 56, 56, 256), float16] */;
    nn.relu(%406) /* ty=Tensor[(32, 56, 56, 256), float16] */
  } /* ty=fn (Tensor[(32, 56, 56, 64), float16], Tensor[(256, 1, 1, 64), float16], Tensor[(1, 1, 1, 256), float16], Tensor[(1, 1, 1, 256), float16], Tensor[(32, 56, 56, 256), float16]) -> Tensor[(32, 56, 56, 256), float16] */;
  %564 = %563(%561, meta[relay.Constant][10] /* ty=Tensor[(256, 1, 1, 64), float16] */, meta[relay.Constant][11] /* ty=Tensor[(1, 1, 1, 256), float16] */, meta[relay.Constant][12] /* ty=Tensor[(1, 1, 1, 256), float16] */, %562) /* ty=Tensor[(32, 56, 56, 256), float16] */;
  %565 = fn (%p0206: Tensor[(32, 56, 56, 256), float16] /* ty=Tensor[(32, 56, 56, 256), float16] */, %p1164: Tensor[(64, 1, 1, 256), float16] /* ty=Tensor[(64, 1, 1, 256), float16] */, %p280: Tensor[(1, 1, 1, 64), float16] /* ty=Tensor[(1, 1, 1, 64), float16] */, %p359: Tensor[(1, 1, 1, 64), float16] /* ty=Tensor[(1, 1, 1, 64), float16] */, Primitive=1) -> Tensor[(32, 56, 56, 64), float16] {
    %400 = nn.conv2d(%p0206, %p1164, padding=[0, 0, 0, 0], channels=64, kernel_size=[1, 1], data_layout="NHWC", kernel_layout="OHWI", out_dtype="float16") /* ty=Tensor[(32, 56, 56, 64), float16] */;
    %401 = multiply(%400, %p280) /* ty=Tensor[(32, 56, 56, 64), float16] */;
    %402 = add(%401, %p359) /* ty=Tensor[(32, 56, 56, 64), float16] */;
    nn.relu(%402) /* ty=Tensor[(32, 56, 56, 64), float16] */
  } /* ty=fn (Tensor[(32, 56, 56, 256), float16], Tensor[(64, 1, 1, 256), float16], Tensor[(1, 1, 1, 64), float16], Tensor[(1, 1, 1, 64), float16]) -> Tensor[(32, 56, 56, 64), float16] */;
  %566 = %565(%564, meta[relay.Constant][16] /* ty=Tensor[(64, 1, 1, 256), float16] */, meta[relay.Constant][17] /* ty=Tensor[(1, 1, 1, 64), float16] */, meta[relay.Constant][18] /* ty=Tensor[(1, 1, 1, 64), float16] */) /* ty=Tensor[(32, 56, 56, 64), float16] */;
  %567 = fn (%p0205: Tensor[(32, 56, 56, 64), float16] /* ty=Tensor[(32, 56, 56, 64), float16] */, %p1163: Tensor[(64, 3, 3, 64), float16] /* ty=Tensor[(64, 3, 3, 64), float16] */, %p279: Tensor[(1, 1, 1, 64), float16] /* ty=Tensor[(1, 1, 1, 64), float16] */, %p358: Tensor[(1, 1, 1, 64), float16] /* ty=Tensor[(1, 1, 1, 64), float16] */, Primitive=1) -> Tensor[(32, 56, 56, 64), float16] {
    %397 = nn.conv2d(%p0205, %p1163, padding=[1, 1, 1, 1], channels=64, kernel_size=[3, 3], data_layout="NHWC", kernel_layout="OHWI", out_dtype="float16") /* ty=Tensor[(32, 56, 56, 64), float16] */;
    %398 = multiply(%397, %p279) /* ty=Tensor[(32, 56, 56, 64), float16] */;
    %399 = add(%398, %p358) /* ty=Tensor[(32, 56, 56, 64), float16] */;
    nn.relu(%399) /* ty=Tensor[(32, 56, 56, 64), float16] */
  } /* ty=fn (Tensor[(32, 56, 56, 64), float16], Tensor[(64, 3, 3, 64), float16], Tensor[(1, 1, 1, 64), float16], Tensor[(1, 1, 1, 64), float16]) -> Tensor[(32, 56, 56, 64), float16] */;
  %568 = %567(%566, meta[relay.Constant][19] /* ty=Tensor[(64, 3, 3, 64), float16] */, meta[relay.Constant][20] /* ty=Tensor[(1, 1, 1, 64), float16] */, meta[relay.Constant][21] /* ty=Tensor[(1, 1, 1, 64), float16] */) /* ty=Tensor[(32, 56, 56, 64), float16] */;
  %569 = fn (%p0204: Tensor[(32, 56, 56, 64), float16] /* ty=Tensor[(32, 56, 56, 64), float16] */, %p1162: Tensor[(256, 1, 1, 64), float16] /* ty=Tensor[(256, 1, 1, 64), float16] */, %p278: Tensor[(1, 1, 1, 256), float16] /* ty=Tensor[(1, 1, 1, 256), float16] */, %p357: Tensor[(1, 1, 1, 256), float16] /* ty=Tensor[(1, 1, 1, 256), float16] */, %p415: Tensor[(32, 56, 56, 256), float16] /* ty=Tensor[(32, 56, 56, 256), float16] */, Primitive=1) -> Tensor[(32, 56, 56, 256), float16] {
    %393 = nn.conv2d(%p0204, %p1162, padding=[0, 0, 0, 0], channels=256, kernel_size=[1, 1], data_layout="NHWC", kernel_layout="OHWI", out_dtype="float16") /* ty=Tensor[(32, 56, 56, 256), float16] */;
    %394 = multiply(%393, %p278) /* ty=Tensor[(32, 56, 56, 256), float16] */;
    %395 = add(%394, %p357) /* ty=Tensor[(32, 56, 56, 256), float16] */;
    %396 = add(%395, %p415) /* ty=Tensor[(32, 56, 56, 256), float16] */;
    nn.relu(%396) /* ty=Tensor[(32, 56, 56, 256), float16] */
  } /* ty=fn (Tensor[(32, 56, 56, 64), float16], Tensor[(256, 1, 1, 64), float16], Tensor[(1, 1, 1, 256), float16], Tensor[(1, 1, 1, 256), float16], Tensor[(32, 56, 56, 256), float16]) -> Tensor[(32, 56, 56, 256), float16] */;
  %570 = %569(%568, meta[relay.Constant][22] /* ty=Tensor[(256, 1, 1, 64), float16] */, meta[relay.Constant][23] /* ty=Tensor[(1, 1, 1, 256), float16] */, meta[relay.Constant][24] /* ty=Tensor[(1, 1, 1, 256), float16] */, %564) /* ty=Tensor[(32, 56, 56, 256), float16] */;
  %571 = fn (%p0203: Tensor[(32, 56, 56, 256), float16] /* ty=Tensor[(32, 56, 56, 256), float16] */, %p1161: Tensor[(64, 1, 1, 256), float16] /* ty=Tensor[(64, 1, 1, 256), float16] */, %p277: Tensor[(1, 1, 1, 64), float16] /* ty=Tensor[(1, 1, 1, 64), float16] */, %p356: Tensor[(1, 1, 1, 64), float16] /* ty=Tensor[(1, 1, 1, 64), float16] */, Primitive=1) -> Tensor[(32, 56, 56, 64), float16] {
    %390 = nn.conv2d(%p0203, %p1161, padding=[0, 0, 0, 0], channels=64, kernel_size=[1, 1], data_layout="NHWC", kernel_layout="OHWI", out_dtype="float16") /* ty=Tensor[(32, 56, 56, 64), float16] */;
    %391 = multiply(%390, %p277) /* ty=Tensor[(32, 56, 56, 64), float16] */;
    %392 = add(%391, %p356) /* ty=Tensor[(32, 56, 56, 64), float16] */;
    nn.relu(%392) /* ty=Tensor[(32, 56, 56, 64), float16] */
  } /* ty=fn (Tensor[(32, 56, 56, 256), float16], Tensor[(64, 1, 1, 256), float16], Tensor[(1, 1, 1, 64), float16], Tensor[(1, 1, 1, 64), float16]) -> Tensor[(32, 56, 56, 64), float16] */;
  %572 = %571(%570, meta[relay.Constant][25] /* ty=Tensor[(64, 1, 1, 256), float16] */, meta[relay.Constant][26] /* ty=Tensor[(1, 1, 1, 64), float16] */, meta[relay.Constant][27] /* ty=Tensor[(1, 1, 1, 64), float16] */) /* ty=Tensor[(32, 56, 56, 64), float16] */;
  %573 = fn (%p0202: Tensor[(32, 56, 56, 64), float16] /* ty=Tensor[(32, 56, 56, 64), float16] */, %p1160: Tensor[(64, 3, 3, 64), float16] /* ty=Tensor[(64, 3, 3, 64), float16] */, %p276: Tensor[(1, 1, 1, 64), float16] /* ty=Tensor[(1, 1, 1, 64), float16] */, %p355: Tensor[(1, 1, 1, 64), float16] /* ty=Tensor[(1, 1, 1, 64), float16] */, Primitive=1) -> Tensor[(32, 56, 56, 64), float16] {
    %387 = nn.conv2d(%p0202, %p1160, padding=[1, 1, 1, 1], channels=64, kernel_size=[3, 3], data_layout="NHWC", kernel_layout="OHWI", out_dtype="float16") /* ty=Tensor[(32, 56, 56, 64), float16] */;
    %388 = multiply(%387, %p276) /* ty=Tensor[(32, 56, 56, 64), float16] */;
    %389 = add(%388, %p355) /* ty=Tensor[(32, 56, 56, 64), float16] */;
    nn.relu(%389) /* ty=Tensor[(32, 56, 56, 64), float16] */
  } /* ty=fn (Tensor[(32, 56, 56, 64), float16], Tensor[(64, 3, 3, 64), float16], Tensor[(1, 1, 1, 64), float16], Tensor[(1, 1, 1, 64), float16]) -> Tensor[(32, 56, 56, 64), float16] */;
  %574 = %573(%572, meta[relay.Constant][28] /* ty=Tensor[(64, 3, 3, 64), float16] */, meta[relay.Constant][29] /* ty=Tensor[(1, 1, 1, 64), float16] */, meta[relay.Constant][30] /* ty=Tensor[(1, 1, 1, 64), float16] */) /* ty=Tensor[(32, 56, 56, 64), float16] */;
  %575 = fn (%p0201: Tensor[(32, 56, 56, 64), float16] /* ty=Tensor[(32, 56, 56, 64), float16] */, %p1159: Tensor[(256, 1, 1, 64), float16] /* ty=Tensor[(256, 1, 1, 64), float16] */, %p275: Tensor[(1, 1, 1, 256), float16] /* ty=Tensor[(1, 1, 1, 256), float16] */, %p354: Tensor[(1, 1, 1, 256), float16] /* ty=Tensor[(1, 1, 1, 256), float16] */, %p414: Tensor[(32, 56, 56, 256), float16] /* ty=Tensor[(32, 56, 56, 256), float16] */, Primitive=1) -> Tensor[(32, 56, 56, 256), float16] {
    %383 = nn.conv2d(%p0201, %p1159, padding=[0, 0, 0, 0], channels=256, kernel_size=[1, 1], data_layout="NHWC", kernel_layout="OHWI", out_dtype="float16") /* ty=Tensor[(32, 56, 56, 256), float16] */;
    %384 = multiply(%383, %p275) /* ty=Tensor[(32, 56, 56, 256), float16] */;
    %385 = add(%384, %p354) /* ty=Tensor[(32, 56, 56, 256), float16] */;
    %386 = add(%385, %p414) /* ty=Tensor[(32, 56, 56, 256), float16] */;
    nn.relu(%386) /* ty=Tensor[(32, 56, 56, 256), float16] */
  } /* ty=fn (Tensor[(32, 56, 56, 64), float16], Tensor[(256, 1, 1, 64), float16], Tensor[(1, 1, 1, 256), float16], Tensor[(1, 1, 1, 256), float16], Tensor[(32, 56, 56, 256), float16]) -> Tensor[(32, 56, 56, 256), float16] */;
  %576 = %575(%574, meta[relay.Constant][31] /* ty=Tensor[(256, 1, 1, 64), float16] */, meta[relay.Constant][32] /* ty=Tensor[(1, 1, 1, 256), float16] */, meta[relay.Constant][33] /* ty=Tensor[(1, 1, 1, 256), float16] */, %570) /* ty=Tensor[(32, 56, 56, 256), float16] */;
  %577 = fn (%p0200: Tensor[(32, 56, 56, 256), float16] /* ty=Tensor[(32, 56, 56, 256), float16] */, %p1158: Tensor[(128, 1, 1, 256), float16] /* ty=Tensor[(128, 1, 1, 256), float16] */, %p274: Tensor[(1, 1, 1, 128), float16] /* ty=Tensor[(1, 1, 1, 128), float16] */, %p353: Tensor[(1, 1, 1, 128), float16] /* ty=Tensor[(1, 1, 1, 128), float16] */, Primitive=1) -> Tensor[(32, 56, 56, 128), float16] {
    %380 = nn.conv2d(%p0200, %p1158, padding=[0, 0, 0, 0], channels=128, kernel_size=[1, 1], data_layout="NHWC", kernel_layout="OHWI", out_dtype="float16") /* ty=Tensor[(32, 56, 56, 128), float16] */;
    %381 = multiply(%380, %p274) /* ty=Tensor[(32, 56, 56, 128), float16] */;
    %382 = add(%381, %p353) /* ty=Tensor[(32, 56, 56, 128), float16] */;
    nn.relu(%382) /* ty=Tensor[(32, 56, 56, 128), float16] */
  } /* ty=fn (Tensor[(32, 56, 56, 256), float16], Tensor[(128, 1, 1, 256), float16], Tensor[(1, 1, 1, 128), float16], Tensor[(1, 1, 1, 128), float16]) -> Tensor[(32, 56, 56, 128), float16] */;
  %578 = %577(%576, meta[relay.Constant][34] /* ty=Tensor[(128, 1, 1, 256), float16] */, meta[relay.Constant][35] /* ty=Tensor[(1, 1, 1, 128), float16] */, meta[relay.Constant][36] /* ty=Tensor[(1, 1, 1, 128), float16] */) /* ty=Tensor[(32, 56, 56, 128), float16] */;
  %579 = fn (%p0199: Tensor[(32, 56, 56, 128), float16] /* ty=Tensor[(32, 56, 56, 128), float16] */, %p1157: Tensor[(128, 3, 3, 128), float16] /* ty=Tensor[(128, 3, 3, 128), float16] */, %p273: Tensor[(1, 1, 1, 128), float16] /* ty=Tensor[(1, 1, 1, 128), float16] */, %p352: Tensor[(1, 1, 1, 128), float16] /* ty=Tensor[(1, 1, 1, 128), float16] */, Primitive=1) -> Tensor[(32, 28, 28, 128), float16] {
    %377 = nn.conv2d(%p0199, %p1157, strides=[2, 2], padding=[1, 1, 1, 1], channels=128, kernel_size=[3, 3], data_layout="NHWC", kernel_layout="OHWI", out_dtype="float16") /* ty=Tensor[(32, 28, 28, 128), float16] */;
    %378 = multiply(%377, %p273) /* ty=Tensor[(32, 28, 28, 128), float16] */;
    %379 = add(%378, %p352) /* ty=Tensor[(32, 28, 28, 128), float16] */;
    nn.relu(%379) /* ty=Tensor[(32, 28, 28, 128), float16] */
  } /* ty=fn (Tensor[(32, 56, 56, 128), float16], Tensor[(128, 3, 3, 128), float16], Tensor[(1, 1, 1, 128), float16], Tensor[(1, 1, 1, 128), float16]) -> Tensor[(32, 28, 28, 128), float16] */;
  %582 = fn (%p0215: Tensor[(32, 56, 56, 256), float16] /* ty=Tensor[(32, 56, 56, 256), float16] */, %p1172: Tensor[(512, 1, 1, 256), float16] /* ty=Tensor[(512, 1, 1, 256), float16] */, %p288: Tensor[(1, 1, 1, 512), float16] /* ty=Tensor[(1, 1, 1, 512), float16] */, %p366: Tensor[(1, 1, 1, 512), float16] /* ty=Tensor[(1, 1, 1, 512), float16] */, Primitive=1) -> Tensor[(32, 28, 28, 512), float16] {
    %580 = nn.conv2d(%p0215, %p1172, strides=[2, 2], padding=[0, 0, 0, 0], channels=512, kernel_size=[1, 1], data_layout="NHWC", kernel_layout="OHWI", out_dtype="float16") /* ty=Tensor[(32, 28, 28, 512), float16] */;
    %581 = multiply(%580, %p288) /* ty=Tensor[(32, 28, 28, 512), float16] */;
    add(%581, %p366) /* ty=Tensor[(32, 28, 28, 512), float16] */
  } /* ty=fn (Tensor[(32, 56, 56, 256), float16], Tensor[(512, 1, 1, 256), float16], Tensor[(1, 1, 1, 512), float16], Tensor[(1, 1, 1, 512), float16]) -> Tensor[(32, 28, 28, 512), float16] */;
  %583 = %579(%578, meta[relay.Constant][37] /* ty=Tensor[(128, 3, 3, 128), float16] */, meta[relay.Constant][38] /* ty=Tensor[(1, 1, 1, 128), float16] */, meta[relay.Constant][39] /* ty=Tensor[(1, 1, 1, 128), float16] */) /* ty=Tensor[(32, 28, 28, 128), float16] */;
  %584 = %582(%576, meta[relay.Constant][43] /* ty=Tensor[(512, 1, 1, 256), float16] */, meta[relay.Constant][44] /* ty=Tensor[(1, 1, 1, 512), float16] */, meta[relay.Constant][45] /* ty=Tensor[(1, 1, 1, 512), float16] */) /* ty=Tensor[(32, 28, 28, 512), float16] */;
  %585 = fn (%p0198: Tensor[(32, 28, 28, 128), float16] /* ty=Tensor[(32, 28, 28, 128), float16] */, %p1156: Tensor[(512, 1, 1, 128), float16] /* ty=Tensor[(512, 1, 1, 128), float16] */, %p272: Tensor[(1, 1, 1, 512), float16] /* ty=Tensor[(1, 1, 1, 512), float16] */, %p351: Tensor[(1, 1, 1, 512), float16] /* ty=Tensor[(1, 1, 1, 512), float16] */, %p413: Tensor[(32, 28, 28, 512), float16] /* ty=Tensor[(32, 28, 28, 512), float16] */, Primitive=1) -> Tensor[(32, 28, 28, 512), float16] {
    %373 = nn.conv2d(%p0198, %p1156, padding=[0, 0, 0, 0], channels=512, kernel_size=[1, 1], data_layout="NHWC", kernel_layout="OHWI", out_dtype="float16") /* ty=Tensor[(32, 28, 28, 512), float16] */;
    %374 = multiply(%373, %p272) /* ty=Tensor[(32, 28, 28, 512), float16] */;
    %375 = add(%374, %p351) /* ty=Tensor[(32, 28, 28, 512), float16] */;
    %376 = add(%375, %p413) /* ty=Tensor[(32, 28, 28, 512), float16] */;
    nn.relu(%376) /* ty=Tensor[(32, 28, 28, 512), float16] */
  } /* ty=fn (Tensor[(32, 28, 28, 128), float16], Tensor[(512, 1, 1, 128), float16], Tensor[(1, 1, 1, 512), float16], Tensor[(1, 1, 1, 512), float16], Tensor[(32, 28, 28, 512), float16]) -> Tensor[(32, 28, 28, 512), float16] */;
  %586 = %585(%583, meta[relay.Constant][40] /* ty=Tensor[(512, 1, 1, 128), float16] */, meta[relay.Constant][41] /* ty=Tensor[(1, 1, 1, 512), float16] */, meta[relay.Constant][42] /* ty=Tensor[(1, 1, 1, 512), float16] */, %584) /* ty=Tensor[(32, 28, 28, 512), float16] */;
  %587 = fn (%p0197: Tensor[(32, 28, 28, 512), float16] /* ty=Tensor[(32, 28, 28, 512), float16] */, %p1155: Tensor[(128, 1, 1, 512), float16] /* ty=Tensor[(128, 1, 1, 512), float16] */, %p271: Tensor[(1, 1, 1, 128), float16] /* ty=Tensor[(1, 1, 1, 128), float16] */, %p350: Tensor[(1, 1, 1, 128), float16] /* ty=Tensor[(1, 1, 1, 128), float16] */, Primitive=1) -> Tensor[(32, 28, 28, 128), float16] {
    %370 = nn.conv2d(%p0197, %p1155, padding=[0, 0, 0, 0], channels=128, kernel_size=[1, 1], data_layout="NHWC", kernel_layout="OHWI", out_dtype="float16") /* ty=Tensor[(32, 28, 28, 128), float16] */;
    %371 = multiply(%370, %p271) /* ty=Tensor[(32, 28, 28, 128), float16] */;
    %372 = add(%371, %p350) /* ty=Tensor[(32, 28, 28, 128), float16] */;
    nn.relu(%372) /* ty=Tensor[(32, 28, 28, 128), float16] */
  } /* ty=fn (Tensor[(32, 28, 28, 512), float16], Tensor[(128, 1, 1, 512), float16], Tensor[(1, 1, 1, 128), float16], Tensor[(1, 1, 1, 128), float16]) -> Tensor[(32, 28, 28, 128), float16] */;
  %588 = %587(%586, meta[relay.Constant][46] /* ty=Tensor[(128, 1, 1, 512), float16] */, meta[relay.Constant][47] /* ty=Tensor[(1, 1, 1, 128), float16] */, meta[relay.Constant][48] /* ty=Tensor[(1, 1, 1, 128), float16] */) /* ty=Tensor[(32, 28, 28, 128), float16] */;
  %589 = fn (%p0196: Tensor[(32, 28, 28, 128), float16] /* ty=Tensor[(32, 28, 28, 128), float16] */, %p1154: Tensor[(128, 3, 3, 128), float16] /* ty=Tensor[(128, 3, 3, 128), float16] */, %p270: Tensor[(1, 1, 1, 128), float16] /* ty=Tensor[(1, 1, 1, 128), float16] */, %p349: Tensor[(1, 1, 1, 128), float16] /* ty=Tensor[(1, 1, 1, 128), float16] */, Primitive=1) -> Tensor[(32, 28, 28, 128), float16] {
    %367 = nn.conv2d(%p0196, %p1154, padding=[1, 1, 1, 1], channels=128, kernel_size=[3, 3], data_layout="NHWC", kernel_layout="OHWI", out_dtype="float16") /* ty=Tensor[(32, 28, 28, 128), float16] */;
    %368 = multiply(%367, %p270) /* ty=Tensor[(32, 28, 28, 128), float16] */;
    %369 = add(%368, %p349) /* ty=Tensor[(32, 28, 28, 128), float16] */;
    nn.relu(%369) /* ty=Tensor[(32, 28, 28, 128), float16] */
  } /* ty=fn (Tensor[(32, 28, 28, 128), float16], Tensor[(128, 3, 3, 128), float16], Tensor[(1, 1, 1, 128), float16], Tensor[(1, 1, 1, 128), float16]) -> Tensor[(32, 28, 28, 128), float16] */;
  %590 = %589(%588, meta[relay.Constant][49] /* ty=Tensor[(128, 3, 3, 128), float16] */, meta[relay.Constant][50] /* ty=Tensor[(1, 1, 1, 128), float16] */, meta[relay.Constant][51] /* ty=Tensor[(1, 1, 1, 128), float16] */) /* ty=Tensor[(32, 28, 28, 128), float16] */;
  %591 = fn (%p0195: Tensor[(32, 28, 28, 128), float16] /* ty=Tensor[(32, 28, 28, 128), float16] */, %p1153: Tensor[(512, 1, 1, 128), float16] /* ty=Tensor[(512, 1, 1, 128), float16] */, %p269: Tensor[(1, 1, 1, 512), float16] /* ty=Tensor[(1, 1, 1, 512), float16] */, %p348: Tensor[(1, 1, 1, 512), float16] /* ty=Tensor[(1, 1, 1, 512), float16] */, %p412: Tensor[(32, 28, 28, 512), float16] /* ty=Tensor[(32, 28, 28, 512), float16] */, Primitive=1) -> Tensor[(32, 28, 28, 512), float16] {
    %363 = nn.conv2d(%p0195, %p1153, padding=[0, 0, 0, 0], channels=512, kernel_size=[1, 1], data_layout="NHWC", kernel_layout="OHWI", out_dtype="float16") /* ty=Tensor[(32, 28, 28, 512), float16] */;
    %364 = multiply(%363, %p269) /* ty=Tensor[(32, 28, 28, 512), float16] */;
    %365 = add(%364, %p348) /* ty=Tensor[(32, 28, 28, 512), float16] */;
    %366 = add(%365, %p412) /* ty=Tensor[(32, 28, 28, 512), float16] */;
    nn.relu(%366) /* ty=Tensor[(32, 28, 28, 512), float16] */
  } /* ty=fn (Tensor[(32, 28, 28, 128), float16], Tensor[(512, 1, 1, 128), float16], Tensor[(1, 1, 1, 512), float16], Tensor[(1, 1, 1, 512), float16], Tensor[(32, 28, 28, 512), float16]) -> Tensor[(32, 28, 28, 512), float16] */;
  %592 = %591(%590, meta[relay.Constant][52] /* ty=Tensor[(512, 1, 1, 128), float16] */, meta[relay.Constant][53] /* ty=Tensor[(1, 1, 1, 512), float16] */, meta[relay.Constant][54] /* ty=Tensor[(1, 1, 1, 512), float16] */, %586) /* ty=Tensor[(32, 28, 28, 512), float16] */;
  %593 = fn (%p0194: Tensor[(32, 28, 28, 512), float16] /* ty=Tensor[(32, 28, 28, 512), float16] */, %p1152: Tensor[(128, 1, 1, 512), float16] /* ty=Tensor[(128, 1, 1, 512), float16] */, %p268: Tensor[(1, 1, 1, 128), float16] /* ty=Tensor[(1, 1, 1, 128), float16] */, %p347: Tensor[(1, 1, 1, 128), float16] /* ty=Tensor[(1, 1, 1, 128), float16] */, Primitive=1) -> Tensor[(32, 28, 28, 128), float16] {
    %360 = nn.conv2d(%p0194, %p1152, padding=[0, 0, 0, 0], channels=128, kernel_size=[1, 1], data_layout="NHWC", kernel_layout="OHWI", out_dtype="float16") /* ty=Tensor[(32, 28, 28, 128), float16] */;
    %361 = multiply(%360, %p268) /* ty=Tensor[(32, 28, 28, 128), float16] */;
    %362 = add(%361, %p347) /* ty=Tensor[(32, 28, 28, 128), float16] */;
    nn.relu(%362) /* ty=Tensor[(32, 28, 28, 128), float16] */
  } /* ty=fn (Tensor[(32, 28, 28, 512), float16], Tensor[(128, 1, 1, 512), float16], Tensor[(1, 1, 1, 128), float16], Tensor[(1, 1, 1, 128), float16]) -> Tensor[(32, 28, 28, 128), float16] */;
  %594 = %593(%592, meta[relay.Constant][55] /* ty=Tensor[(128, 1, 1, 512), float16] */, meta[relay.Constant][56] /* ty=Tensor[(1, 1, 1, 128), float16] */, meta[relay.Constant][57] /* ty=Tensor[(1, 1, 1, 128), float16] */) /* ty=Tensor[(32, 28, 28, 128), float16] */;
  %595 = fn (%p0193: Tensor[(32, 28, 28, 128), float16] /* ty=Tensor[(32, 28, 28, 128), float16] */, %p1151: Tensor[(128, 3, 3, 128), float16] /* ty=Tensor[(128, 3, 3, 128), float16] */, %p267: Tensor[(1, 1, 1, 128), float16] /* ty=Tensor[(1, 1, 1, 128), float16] */, %p346: Tensor[(1, 1, 1, 128), float16] /* ty=Tensor[(1, 1, 1, 128), float16] */, Primitive=1) -> Tensor[(32, 28, 28, 128), float16] {
    %357 = nn.conv2d(%p0193, %p1151, padding=[1, 1, 1, 1], channels=128, kernel_size=[3, 3], data_layout="NHWC", kernel_layout="OHWI", out_dtype="float16") /* ty=Tensor[(32, 28, 28, 128), float16] */;
    %358 = multiply(%357, %p267) /* ty=Tensor[(32, 28, 28, 128), float16] */;
    %359 = add(%358, %p346) /* ty=Tensor[(32, 28, 28, 128), float16] */;
    nn.relu(%359) /* ty=Tensor[(32, 28, 28, 128), float16] */
  } /* ty=fn (Tensor[(32, 28, 28, 128), float16], Tensor[(128, 3, 3, 128), float16], Tensor[(1, 1, 1, 128), float16], Tensor[(1, 1, 1, 128), float16]) -> Tensor[(32, 28, 28, 128), float16] */;
  %596 = %595(%594, meta[relay.Constant][58] /* ty=Tensor[(128, 3, 3, 128), float16] */, meta[relay.Constant][59] /* ty=Tensor[(1, 1, 1, 128), float16] */, meta[relay.Constant][60] /* ty=Tensor[(1, 1, 1, 128), float16] */) /* ty=Tensor[(32, 28, 28, 128), float16] */;
  %597 = fn (%p0192: Tensor[(32, 28, 28, 128), float16] /* ty=Tensor[(32, 28, 28, 128), float16] */, %p1150: Tensor[(512, 1, 1, 128), float16] /* ty=Tensor[(512, 1, 1, 128), float16] */, %p266: Tensor[(1, 1, 1, 512), float16] /* ty=Tensor[(1, 1, 1, 512), float16] */, %p345: Tensor[(1, 1, 1, 512), float16] /* ty=Tensor[(1, 1, 1, 512), float16] */, %p411: Tensor[(32, 28, 28, 512), float16] /* ty=Tensor[(32, 28, 28, 512), float16] */, Primitive=1) -> Tensor[(32, 28, 28, 512), float16] {
    %353 = nn.conv2d(%p0192, %p1150, padding=[0, 0, 0, 0], channels=512, kernel_size=[1, 1], data_layout="NHWC", kernel_layout="OHWI", out_dtype="float16") /* ty=Tensor[(32, 28, 28, 512), float16] */;
    %354 = multiply(%353, %p266) /* ty=Tensor[(32, 28, 28, 512), float16] */;
    %355 = add(%354, %p345) /* ty=Tensor[(32, 28, 28, 512), float16] */;
    %356 = add(%355, %p411) /* ty=Tensor[(32, 28, 28, 512), float16] */;
    nn.relu(%356) /* ty=Tensor[(32, 28, 28, 512), float16] */
  } /* ty=fn (Tensor[(32, 28, 28, 128), float16], Tensor[(512, 1, 1, 128), float16], Tensor[(1, 1, 1, 512), float16], Tensor[(1, 1, 1, 512), float16], Tensor[(32, 28, 28, 512), float16]) -> Tensor[(32, 28, 28, 512), float16] */;
  %598 = %597(%596, meta[relay.Constant][61] /* ty=Tensor[(512, 1, 1, 128), float16] */, meta[relay.Constant][62] /* ty=Tensor[(1, 1, 1, 512), float16] */, meta[relay.Constant][63] /* ty=Tensor[(1, 1, 1, 512), float16] */, %592) /* ty=Tensor[(32, 28, 28, 512), float16] */;
  %599 = fn (%p0191: Tensor[(32, 28, 28, 512), float16] /* ty=Tensor[(32, 28, 28, 512), float16] */, %p1149: Tensor[(128, 1, 1, 512), float16] /* ty=Tensor[(128, 1, 1, 512), float16] */, %p265: Tensor[(1, 1, 1, 128), float16] /* ty=Tensor[(1, 1, 1, 128), float16] */, %p344: Tensor[(1, 1, 1, 128), float16] /* ty=Tensor[(1, 1, 1, 128), float16] */, Primitive=1) -> Tensor[(32, 28, 28, 128), float16] {
    %350 = nn.conv2d(%p0191, %p1149, padding=[0, 0, 0, 0], channels=128, kernel_size=[1, 1], data_layout="NHWC", kernel_layout="OHWI", out_dtype="float16") /* ty=Tensor[(32, 28, 28, 128), float16] */;
    %351 = multiply(%350, %p265) /* ty=Tensor[(32, 28, 28, 128), float16] */;
    %352 = add(%351, %p344) /* ty=Tensor[(32, 28, 28, 128), float16] */;
    nn.relu(%352) /* ty=Tensor[(32, 28, 28, 128), float16] */
  } /* ty=fn (Tensor[(32, 28, 28, 512), float16], Tensor[(128, 1, 1, 512), float16], Tensor[(1, 1, 1, 128), float16], Tensor[(1, 1, 1, 128), float16]) -> Tensor[(32, 28, 28, 128), float16] */;
  %600 = %599(%598, meta[relay.Constant][64] /* ty=Tensor[(128, 1, 1, 512), float16] */, meta[relay.Constant][65] /* ty=Tensor[(1, 1, 1, 128), float16] */, meta[relay.Constant][66] /* ty=Tensor[(1, 1, 1, 128), float16] */) /* ty=Tensor[(32, 28, 28, 128), float16] */;
  %601 = fn (%p0190: Tensor[(32, 28, 28, 128), float16] /* ty=Tensor[(32, 28, 28, 128), float16] */, %p1148: Tensor[(128, 3, 3, 128), float16] /* ty=Tensor[(128, 3, 3, 128), float16] */, %p264: Tensor[(1, 1, 1, 128), float16] /* ty=Tensor[(1, 1, 1, 128), float16] */, %p343: Tensor[(1, 1, 1, 128), float16] /* ty=Tensor[(1, 1, 1, 128), float16] */, Primitive=1) -> Tensor[(32, 28, 28, 128), float16] {
    %347 = nn.conv2d(%p0190, %p1148, padding=[1, 1, 1, 1], channels=128, kernel_size=[3, 3], data_layout="NHWC", kernel_layout="OHWI", out_dtype="float16") /* ty=Tensor[(32, 28, 28, 128), float16] */;
    %348 = multiply(%347, %p264) /* ty=Tensor[(32, 28, 28, 128), float16] */;
    %349 = add(%348, %p343) /* ty=Tensor[(32, 28, 28, 128), float16] */;
    nn.relu(%349) /* ty=Tensor[(32, 28, 28, 128), float16] */
  } /* ty=fn (Tensor[(32, 28, 28, 128), float16], Tensor[(128, 3, 3, 128), float16], Tensor[(1, 1, 1, 128), float16], Tensor[(1, 1, 1, 128), float16]) -> Tensor[(32, 28, 28, 128), float16] */;
  %602 = %601(%600, meta[relay.Constant][67] /* ty=Tensor[(128, 3, 3, 128), float16] */, meta[relay.Constant][68] /* ty=Tensor[(1, 1, 1, 128), float16] */, meta[relay.Constant][69] /* ty=Tensor[(1, 1, 1, 128), float16] */) /* ty=Tensor[(32, 28, 28, 128), float16] */;
  %603 = fn (%p0189: Tensor[(32, 28, 28, 128), float16] /* ty=Tensor[(32, 28, 28, 128), float16] */, %p1147: Tensor[(512, 1, 1, 128), float16] /* ty=Tensor[(512, 1, 1, 128), float16] */, %p263: Tensor[(1, 1, 1, 512), float16] /* ty=Tensor[(1, 1, 1, 512), float16] */, %p342: Tensor[(1, 1, 1, 512), float16] /* ty=Tensor[(1, 1, 1, 512), float16] */, %p410: Tensor[(32, 28, 28, 512), float16] /* ty=Tensor[(32, 28, 28, 512), float16] */, Primitive=1) -> Tensor[(32, 28, 28, 512), float16] {
    %343 = nn.conv2d(%p0189, %p1147, padding=[0, 0, 0, 0], channels=512, kernel_size=[1, 1], data_layout="NHWC", kernel_layout="OHWI", out_dtype="float16") /* ty=Tensor[(32, 28, 28, 512), float16] */;
    %344 = multiply(%343, %p263) /* ty=Tensor[(32, 28, 28, 512), float16] */;
    %345 = add(%344, %p342) /* ty=Tensor[(32, 28, 28, 512), float16] */;
    %346 = add(%345, %p410) /* ty=Tensor[(32, 28, 28, 512), float16] */;
    nn.relu(%346) /* ty=Tensor[(32, 28, 28, 512), float16] */
  } /* ty=fn (Tensor[(32, 28, 28, 128), float16], Tensor[(512, 1, 1, 128), float16], Tensor[(1, 1, 1, 512), float16], Tensor[(1, 1, 1, 512), float16], Tensor[(32, 28, 28, 512), float16]) -> Tensor[(32, 28, 28, 512), float16] */;
  %604 = %603(%602, meta[relay.Constant][70] /* ty=Tensor[(512, 1, 1, 128), float16] */, meta[relay.Constant][71] /* ty=Tensor[(1, 1, 1, 512), float16] */, meta[relay.Constant][72] /* ty=Tensor[(1, 1, 1, 512), float16] */, %598) /* ty=Tensor[(32, 28, 28, 512), float16] */;
  %605 = fn (%p0188: Tensor[(32, 28, 28, 512), float16] /* ty=Tensor[(32, 28, 28, 512), float16] */, %p1146: Tensor[(256, 1, 1, 512), float16] /* ty=Tensor[(256, 1, 1, 512), float16] */, %p262: Tensor[(1, 1, 1, 256), float16] /* ty=Tensor[(1, 1, 1, 256), float16] */, %p341: Tensor[(1, 1, 1, 256), float16] /* ty=Tensor[(1, 1, 1, 256), float16] */, Primitive=1) -> Tensor[(32, 28, 28, 256), float16] {
    %340 = nn.conv2d(%p0188, %p1146, padding=[0, 0, 0, 0], channels=256, kernel_size=[1, 1], data_layout="NHWC", kernel_layout="OHWI", out_dtype="float16") /* ty=Tensor[(32, 28, 28, 256), float16] */;
    %341 = multiply(%340, %p262) /* ty=Tensor[(32, 28, 28, 256), float16] */;
    %342 = add(%341, %p341) /* ty=Tensor[(32, 28, 28, 256), float16] */;
    nn.relu(%342) /* ty=Tensor[(32, 28, 28, 256), float16] */
  } /* ty=fn (Tensor[(32, 28, 28, 512), float16], Tensor[(256, 1, 1, 512), float16], Tensor[(1, 1, 1, 256), float16], Tensor[(1, 1, 1, 256), float16]) -> Tensor[(32, 28, 28, 256), float16] */;
  %606 = %605(%604, meta[relay.Constant][73] /* ty=Tensor[(256, 1, 1, 512), float16] */, meta[relay.Constant][74] /* ty=Tensor[(1, 1, 1, 256), float16] */, meta[relay.Constant][75] /* ty=Tensor[(1, 1, 1, 256), float16] */) /* ty=Tensor[(32, 28, 28, 256), float16] */;
  %607 = fn (%p0187: Tensor[(32, 28, 28, 256), float16] /* ty=Tensor[(32, 28, 28, 256), float16] */, %p1145: Tensor[(256, 3, 3, 256), float16] /* ty=Tensor[(256, 3, 3, 256), float16] */, %p261: Tensor[(1, 1, 1, 256), float16] /* ty=Tensor[(1, 1, 1, 256), float16] */, %p340: Tensor[(1, 1, 1, 256), float16] /* ty=Tensor[(1, 1, 1, 256), float16] */, Primitive=1) -> Tensor[(32, 14, 14, 256), float16] {
    %337 = nn.conv2d(%p0187, %p1145, strides=[2, 2], padding=[1, 1, 1, 1], channels=256, kernel_size=[3, 3], data_layout="NHWC", kernel_layout="OHWI", out_dtype="float16") /* ty=Tensor[(32, 14, 14, 256), float16] */;
    %338 = multiply(%337, %p261) /* ty=Tensor[(32, 14, 14, 256), float16] */;
    %339 = add(%338, %p340) /* ty=Tensor[(32, 14, 14, 256), float16] */;
    nn.relu(%339) /* ty=Tensor[(32, 14, 14, 256), float16] */
  } /* ty=fn (Tensor[(32, 28, 28, 256), float16], Tensor[(256, 3, 3, 256), float16], Tensor[(1, 1, 1, 256), float16], Tensor[(1, 1, 1, 256), float16]) -> Tensor[(32, 14, 14, 256), float16] */;
  %610 = fn (%p0216: Tensor[(32, 28, 28, 512), float16] /* ty=Tensor[(32, 28, 28, 512), float16] */, %p1173: Tensor[(1024, 1, 1, 512), float16] /* ty=Tensor[(1024, 1, 1, 512), float16] */, %p289: Tensor[(1, 1, 1, 1024), float16] /* ty=Tensor[(1, 1, 1, 1024), float16] */, %p367: Tensor[(1, 1, 1, 1024), float16] /* ty=Tensor[(1, 1, 1, 1024), float16] */, Primitive=1) -> Tensor[(32, 14, 14, 1024), float16] {
    %608 = nn.conv2d(%p0216, %p1173, strides=[2, 2], padding=[0, 0, 0, 0], channels=1024, kernel_size=[1, 1], data_layout="NHWC", kernel_layout="OHWI", out_dtype="float16") /* ty=Tensor[(32, 14, 14, 1024), float16] */;
    %609 = multiply(%608, %p289) /* ty=Tensor[(32, 14, 14, 1024), float16] */;
    add(%609, %p367) /* ty=Tensor[(32, 14, 14, 1024), float16] */
  } /* ty=fn (Tensor[(32, 28, 28, 512), float16], Tensor[(1024, 1, 1, 512), float16], Tensor[(1, 1, 1, 1024), float16], Tensor[(1, 1, 1, 1024), float16]) -> Tensor[(32, 14, 14, 1024), float16] */;
  %611 = %607(%606, meta[relay.Constant][76] /* ty=Tensor[(256, 3, 3, 256), float16] */, meta[relay.Constant][77] /* ty=Tensor[(1, 1, 1, 256), float16] */, meta[relay.Constant][78] /* ty=Tensor[(1, 1, 1, 256), float16] */) /* ty=Tensor[(32, 14, 14, 256), float16] */;
  %612 = %610(%604, meta[relay.Constant][82] /* ty=Tensor[(1024, 1, 1, 512), float16] */, meta[relay.Constant][83] /* ty=Tensor[(1, 1, 1, 1024), float16] */, meta[relay.Constant][84] /* ty=Tensor[(1, 1, 1, 1024), float16] */) /* ty=Tensor[(32, 14, 14, 1024), float16] */;
  %613 = fn (%p0186: Tensor[(32, 14, 14, 256), float16] /* ty=Tensor[(32, 14, 14, 256), float16] */, %p1144: Tensor[(1024, 1, 1, 256), float16] /* ty=Tensor[(1024, 1, 1, 256), float16] */, %p260: Tensor[(1, 1, 1, 1024), float16] /* ty=Tensor[(1, 1, 1, 1024), float16] */, %p339: Tensor[(1, 1, 1, 1024), float16] /* ty=Tensor[(1, 1, 1, 1024), float16] */, %p49: Tensor[(32, 14, 14, 1024), float16] /* ty=Tensor[(32, 14, 14, 1024), float16] */, Primitive=1) -> Tensor[(32, 14, 14, 1024), float16] {
    %333 = nn.conv2d(%p0186, %p1144, padding=[0, 0, 0, 0], channels=1024, kernel_size=[1, 1], data_layout="NHWC", kernel_layout="OHWI", out_dtype="float16") /* ty=Tensor[(32, 14, 14, 1024), float16] */;
    %334 = multiply(%333, %p260) /* ty=Tensor[(32, 14, 14, 1024), float16] */;
    %335 = add(%334, %p339) /* ty=Tensor[(32, 14, 14, 1024), float16] */;
    %336 = add(%335, %p49) /* ty=Tensor[(32, 14, 14, 1024), float16] */;
    nn.relu(%336) /* ty=Tensor[(32, 14, 14, 1024), float16] */
  } /* ty=fn (Tensor[(32, 14, 14, 256), float16], Tensor[(1024, 1, 1, 256), float16], Tensor[(1, 1, 1, 1024), float16], Tensor[(1, 1, 1, 1024), float16], Tensor[(32, 14, 14, 1024), float16]) -> Tensor[(32, 14, 14, 1024), float16] */;
  %614 = %613(%611, meta[relay.Constant][79] /* ty=Tensor[(1024, 1, 1, 256), float16] */, meta[relay.Constant][80] /* ty=Tensor[(1, 1, 1, 1024), float16] */, meta[relay.Constant][81] /* ty=Tensor[(1, 1, 1, 1024), float16] */, %612) /* ty=Tensor[(32, 14, 14, 1024), float16] */;
  %615 = fn (%p0185: Tensor[(32, 14, 14, 1024), float16] /* ty=Tensor[(32, 14, 14, 1024), float16] */, %p1143: Tensor[(256, 1, 1, 1024), float16] /* ty=Tensor[(256, 1, 1, 1024), float16] */, %p259: Tensor[(1, 1, 1, 256), float16] /* ty=Tensor[(1, 1, 1, 256), float16] */, %p338: Tensor[(1, 1, 1, 256), float16] /* ty=Tensor[(1, 1, 1, 256), float16] */, Primitive=1) -> Tensor[(32, 14, 14, 256), float16] {
    %330 = nn.conv2d(%p0185, %p1143, padding=[0, 0, 0, 0], channels=256, kernel_size=[1, 1], data_layout="NHWC", kernel_layout="OHWI", out_dtype="float16") /* ty=Tensor[(32, 14, 14, 256), float16] */;
    %331 = multiply(%330, %p259) /* ty=Tensor[(32, 14, 14, 256), float16] */;
    %332 = add(%331, %p338) /* ty=Tensor[(32, 14, 14, 256), float16] */;
    nn.relu(%332) /* ty=Tensor[(32, 14, 14, 256), float16] */
  } /* ty=fn (Tensor[(32, 14, 14, 1024), float16], Tensor[(256, 1, 1, 1024), float16], Tensor[(1, 1, 1, 256), float16], Tensor[(1, 1, 1, 256), float16]) -> Tensor[(32, 14, 14, 256), float16] */;
  %616 = %615(%614, meta[relay.Constant][85] /* ty=Tensor[(256, 1, 1, 1024), float16] */, meta[relay.Constant][86] /* ty=Tensor[(1, 1, 1, 256), float16] */, meta[relay.Constant][87] /* ty=Tensor[(1, 1, 1, 256), float16] */) /* ty=Tensor[(32, 14, 14, 256), float16] */;
  %617 = fn (%p0184: Tensor[(32, 14, 14, 256), float16] /* ty=Tensor[(32, 14, 14, 256), float16] */, %p1142: Tensor[(256, 3, 3, 256), float16] /* ty=Tensor[(256, 3, 3, 256), float16] */, %p258: Tensor[(1, 1, 1, 256), float16] /* ty=Tensor[(1, 1, 1, 256), float16] */, %p337: Tensor[(1, 1, 1, 256), float16] /* ty=Tensor[(1, 1, 1, 256), float16] */, Primitive=1) -> Tensor[(32, 14, 14, 256), float16] {
    %327 = nn.conv2d(%p0184, %p1142, padding=[1, 1, 1, 1], channels=256, kernel_size=[3, 3], data_layout="NHWC", kernel_layout="OHWI", out_dtype="float16") /* ty=Tensor[(32, 14, 14, 256), float16] */;
    %328 = multiply(%327, %p258) /* ty=Tensor[(32, 14, 14, 256), float16] */;
    %329 = add(%328, %p337) /* ty=Tensor[(32, 14, 14, 256), float16] */;
    nn.relu(%329) /* ty=Tensor[(32, 14, 14, 256), float16] */
  } /* ty=fn (Tensor[(32, 14, 14, 256), float16], Tensor[(256, 3, 3, 256), float16], Tensor[(1, 1, 1, 256), float16], Tensor[(1, 1, 1, 256), float16]) -> Tensor[(32, 14, 14, 256), float16] */;
  %618 = %617(%616, meta[relay.Constant][88] /* ty=Tensor[(256, 3, 3, 256), float16] */, meta[relay.Constant][89] /* ty=Tensor[(1, 1, 1, 256), float16] */, meta[relay.Constant][90] /* ty=Tensor[(1, 1, 1, 256), float16] */) /* ty=Tensor[(32, 14, 14, 256), float16] */;
  %619 = fn (%p0183: Tensor[(32, 14, 14, 256), float16] /* ty=Tensor[(32, 14, 14, 256), float16] */, %p1141: Tensor[(1024, 1, 1, 256), float16] /* ty=Tensor[(1024, 1, 1, 256), float16] */, %p257: Tensor[(1, 1, 1, 1024), float16] /* ty=Tensor[(1, 1, 1, 1024), float16] */, %p336: Tensor[(1, 1, 1, 1024), float16] /* ty=Tensor[(1, 1, 1, 1024), float16] */, %p48: Tensor[(32, 14, 14, 1024), float16] /* ty=Tensor[(32, 14, 14, 1024), float16] */, Primitive=1) -> Tensor[(32, 14, 14, 1024), float16] {
    %323 = nn.conv2d(%p0183, %p1141, padding=[0, 0, 0, 0], channels=1024, kernel_size=[1, 1], data_layout="NHWC", kernel_layout="OHWI", out_dtype="float16") /* ty=Tensor[(32, 14, 14, 1024), float16] */;
    %324 = multiply(%323, %p257) /* ty=Tensor[(32, 14, 14, 1024), float16] */;
    %325 = add(%324, %p336) /* ty=Tensor[(32, 14, 14, 1024), float16] */;
    %326 = add(%325, %p48) /* ty=Tensor[(32, 14, 14, 1024), float16] */;
    nn.relu(%326) /* ty=Tensor[(32, 14, 14, 1024), float16] */
  } /* ty=fn (Tensor[(32, 14, 14, 256), float16], Tensor[(1024, 1, 1, 256), float16], Tensor[(1, 1, 1, 1024), float16], Tensor[(1, 1, 1, 1024), float16], Tensor[(32, 14, 14, 1024), float16]) -> Tensor[(32, 14, 14, 1024), float16] */;
  %620 = %619(%618, meta[relay.Constant][91] /* ty=Tensor[(1024, 1, 1, 256), float16] */, meta[relay.Constant][92] /* ty=Tensor[(1, 1, 1, 1024), float16] */, meta[relay.Constant][93] /* ty=Tensor[(1, 1, 1, 1024), float16] */, %614) /* ty=Tensor[(32, 14, 14, 1024), float16] */;
  %621 = fn (%p0182: Tensor[(32, 14, 14, 1024), float16] /* ty=Tensor[(32, 14, 14, 1024), float16] */, %p1140: Tensor[(256, 1, 1, 1024), float16] /* ty=Tensor[(256, 1, 1, 1024), float16] */, %p256: Tensor[(1, 1, 1, 256), float16] /* ty=Tensor[(1, 1, 1, 256), float16] */, %p335: Tensor[(1, 1, 1, 256), float16] /* ty=Tensor[(1, 1, 1, 256), float16] */, Primitive=1) -> Tensor[(32, 14, 14, 256), float16] {
    %320 = nn.conv2d(%p0182, %p1140, padding=[0, 0, 0, 0], channels=256, kernel_size=[1, 1], data_layout="NHWC", kernel_layout="OHWI", out_dtype="float16") /* ty=Tensor[(32, 14, 14, 256), float16] */;
    %321 = multiply(%320, %p256) /* ty=Tensor[(32, 14, 14, 256), float16] */;
    %322 = add(%321, %p335) /* ty=Tensor[(32, 14, 14, 256), float16] */;
    nn.relu(%322) /* ty=Tensor[(32, 14, 14, 256), float16] */
  } /* ty=fn (Tensor[(32, 14, 14, 1024), float16], Tensor[(256, 1, 1, 1024), float16], Tensor[(1, 1, 1, 256), float16], Tensor[(1, 1, 1, 256), float16]) -> Tensor[(32, 14, 14, 256), float16] */;
  %622 = %621(%620, meta[relay.Constant][94] /* ty=Tensor[(256, 1, 1, 1024), float16] */, meta[relay.Constant][95] /* ty=Tensor[(1, 1, 1, 256), float16] */, meta[relay.Constant][96] /* ty=Tensor[(1, 1, 1, 256), float16] */) /* ty=Tensor[(32, 14, 14, 256), float16] */;
  %623 = fn (%p0181: Tensor[(32, 14, 14, 256), float16] /* ty=Tensor[(32, 14, 14, 256), float16] */, %p1139: Tensor[(256, 3, 3, 256), float16] /* ty=Tensor[(256, 3, 3, 256), float16] */, %p255: Tensor[(1, 1, 1, 256), float16] /* ty=Tensor[(1, 1, 1, 256), float16] */, %p334: Tensor[(1, 1, 1, 256), float16] /* ty=Tensor[(1, 1, 1, 256), float16] */, Primitive=1) -> Tensor[(32, 14, 14, 256), float16] {
    %317 = nn.conv2d(%p0181, %p1139, padding=[1, 1, 1, 1], channels=256, kernel_size=[3, 3], data_layout="NHWC", kernel_layout="OHWI", out_dtype="float16") /* ty=Tensor[(32, 14, 14, 256), float16] */;
    %318 = multiply(%317, %p255) /* ty=Tensor[(32, 14, 14, 256), float16] */;
    %319 = add(%318, %p334) /* ty=Tensor[(32, 14, 14, 256), float16] */;
    nn.relu(%319) /* ty=Tensor[(32, 14, 14, 256), float16] */
  } /* ty=fn (Tensor[(32, 14, 14, 256), float16], Tensor[(256, 3, 3, 256), float16], Tensor[(1, 1, 1, 256), float16], Tensor[(1, 1, 1, 256), float16]) -> Tensor[(32, 14, 14, 256), float16] */;
  %624 = %623(%622, meta[relay.Constant][97] /* ty=Tensor[(256, 3, 3, 256), float16] */, meta[relay.Constant][98] /* ty=Tensor[(1, 1, 1, 256), float16] */, meta[relay.Constant][99] /* ty=Tensor[(1, 1, 1, 256), float16] */) /* ty=Tensor[(32, 14, 14, 256), float16] */;
  %625 = fn (%p0180: Tensor[(32, 14, 14, 256), float16] /* ty=Tensor[(32, 14, 14, 256), float16] */, %p1138: Tensor[(1024, 1, 1, 256), float16] /* ty=Tensor[(1024, 1, 1, 256), float16] */, %p254: Tensor[(1, 1, 1, 1024), float16] /* ty=Tensor[(1, 1, 1, 1024), float16] */, %p333: Tensor[(1, 1, 1, 1024), float16] /* ty=Tensor[(1, 1, 1, 1024), float16] */, %p47: Tensor[(32, 14, 14, 1024), float16] /* ty=Tensor[(32, 14, 14, 1024), float16] */, Primitive=1) -> Tensor[(32, 14, 14, 1024), float16] {
    %313 = nn.conv2d(%p0180, %p1138, padding=[0, 0, 0, 0], channels=1024, kernel_size=[1, 1], data_layout="NHWC", kernel_layout="OHWI", out_dtype="float16") /* ty=Tensor[(32, 14, 14, 1024), float16] */;
    %314 = multiply(%313, %p254) /* ty=Tensor[(32, 14, 14, 1024), float16] */;
    %315 = add(%314, %p333) /* ty=Tensor[(32, 14, 14, 1024), float16] */;
    %316 = add(%315, %p47) /* ty=Tensor[(32, 14, 14, 1024), float16] */;
    nn.relu(%316) /* ty=Tensor[(32, 14, 14, 1024), float16] */
  } /* ty=fn (Tensor[(32, 14, 14, 256), float16], Tensor[(1024, 1, 1, 256), float16], Tensor[(1, 1, 1, 1024), float16], Tensor[(1, 1, 1, 1024), float16], Tensor[(32, 14, 14, 1024), float16]) -> Tensor[(32, 14, 14, 1024), float16] */;
  %626 = %625(%624, meta[relay.Constant][100] /* ty=Tensor[(1024, 1, 1, 256), float16] */, meta[relay.Constant][101] /* ty=Tensor[(1, 1, 1, 1024), float16] */, meta[relay.Constant][102] /* ty=Tensor[(1, 1, 1, 1024), float16] */, %620) /* ty=Tensor[(32, 14, 14, 1024), float16] */;
  %627 = fn (%p0179: Tensor[(32, 14, 14, 1024), float16] /* ty=Tensor[(32, 14, 14, 1024), float16] */, %p1137: Tensor[(256, 1, 1, 1024), float16] /* ty=Tensor[(256, 1, 1, 1024), float16] */, %p253: Tensor[(1, 1, 1, 256), float16] /* ty=Tensor[(1, 1, 1, 256), float16] */, %p332: Tensor[(1, 1, 1, 256), float16] /* ty=Tensor[(1, 1, 1, 256), float16] */, Primitive=1) -> Tensor[(32, 14, 14, 256), float16] {
    %310 = nn.conv2d(%p0179, %p1137, padding=[0, 0, 0, 0], channels=256, kernel_size=[1, 1], data_layout="NHWC", kernel_layout="OHWI", out_dtype="float16") /* ty=Tensor[(32, 14, 14, 256), float16] */;
    %311 = multiply(%310, %p253) /* ty=Tensor[(32, 14, 14, 256), float16] */;
    %312 = add(%311, %p332) /* ty=Tensor[(32, 14, 14, 256), float16] */;
    nn.relu(%312) /* ty=Tensor[(32, 14, 14, 256), float16] */
  } /* ty=fn (Tensor[(32, 14, 14, 1024), float16], Tensor[(256, 1, 1, 1024), float16], Tensor[(1, 1, 1, 256), float16], Tensor[(1, 1, 1, 256), float16]) -> Tensor[(32, 14, 14, 256), float16] */;
  %628 = %627(%626, meta[relay.Constant][103] /* ty=Tensor[(256, 1, 1, 1024), float16] */, meta[relay.Constant][104] /* ty=Tensor[(1, 1, 1, 256), float16] */, meta[relay.Constant][105] /* ty=Tensor[(1, 1, 1, 256), float16] */) /* ty=Tensor[(32, 14, 14, 256), float16] */;
  %629 = fn (%p0178: Tensor[(32, 14, 14, 256), float16] /* ty=Tensor[(32, 14, 14, 256), float16] */, %p1136: Tensor[(256, 3, 3, 256), float16] /* ty=Tensor[(256, 3, 3, 256), float16] */, %p252: Tensor[(1, 1, 1, 256), float16] /* ty=Tensor[(1, 1, 1, 256), float16] */, %p331: Tensor[(1, 1, 1, 256), float16] /* ty=Tensor[(1, 1, 1, 256), float16] */, Primitive=1) -> Tensor[(32, 14, 14, 256), float16] {
    %307 = nn.conv2d(%p0178, %p1136, padding=[1, 1, 1, 1], channels=256, kernel_size=[3, 3], data_layout="NHWC", kernel_layout="OHWI", out_dtype="float16") /* ty=Tensor[(32, 14, 14, 256), float16] */;
    %308 = multiply(%307, %p252) /* ty=Tensor[(32, 14, 14, 256), float16] */;
    %309 = add(%308, %p331) /* ty=Tensor[(32, 14, 14, 256), float16] */;
    nn.relu(%309) /* ty=Tensor[(32, 14, 14, 256), float16] */
  } /* ty=fn (Tensor[(32, 14, 14, 256), float16], Tensor[(256, 3, 3, 256), float16], Tensor[(1, 1, 1, 256), float16], Tensor[(1, 1, 1, 256), float16]) -> Tensor[(32, 14, 14, 256), float16] */;
  %630 = %629(%628, meta[relay.Constant][106] /* ty=Tensor[(256, 3, 3, 256), float16] */, meta[relay.Constant][107] /* ty=Tensor[(1, 1, 1, 256), float16] */, meta[relay.Constant][108] /* ty=Tensor[(1, 1, 1, 256), float16] */) /* ty=Tensor[(32, 14, 14, 256), float16] */;
  %631 = fn (%p0177: Tensor[(32, 14, 14, 256), float16] /* ty=Tensor[(32, 14, 14, 256), float16] */, %p1135: Tensor[(1024, 1, 1, 256), float16] /* ty=Tensor[(1024, 1, 1, 256), float16] */, %p251: Tensor[(1, 1, 1, 1024), float16] /* ty=Tensor[(1, 1, 1, 1024), float16] */, %p330: Tensor[(1, 1, 1, 1024), float16] /* ty=Tensor[(1, 1, 1, 1024), float16] */, %p46: Tensor[(32, 14, 14, 1024), float16] /* ty=Tensor[(32, 14, 14, 1024), float16] */, Primitive=1) -> Tensor[(32, 14, 14, 1024), float16] {
    %303 = nn.conv2d(%p0177, %p1135, padding=[0, 0, 0, 0], channels=1024, kernel_size=[1, 1], data_layout="NHWC", kernel_layout="OHWI", out_dtype="float16") /* ty=Tensor[(32, 14, 14, 1024), float16] */;
    %304 = multiply(%303, %p251) /* ty=Tensor[(32, 14, 14, 1024), float16] */;
    %305 = add(%304, %p330) /* ty=Tensor[(32, 14, 14, 1024), float16] */;
    %306 = add(%305, %p46) /* ty=Tensor[(32, 14, 14, 1024), float16] */;
    nn.relu(%306) /* ty=Tensor[(32, 14, 14, 1024), float16] */
  } /* ty=fn (Tensor[(32, 14, 14, 256), float16], Tensor[(1024, 1, 1, 256), float16], Tensor[(1, 1, 1, 1024), float16], Tensor[(1, 1, 1, 1024), float16], Tensor[(32, 14, 14, 1024), float16]) -> Tensor[(32, 14, 14, 1024), float16] */;
  %632 = %631(%630, meta[relay.Constant][109] /* ty=Tensor[(1024, 1, 1, 256), float16] */, meta[relay.Constant][110] /* ty=Tensor[(1, 1, 1, 1024), float16] */, meta[relay.Constant][111] /* ty=Tensor[(1, 1, 1, 1024), float16] */, %626) /* ty=Tensor[(32, 14, 14, 1024), float16] */;
  %633 = fn (%p0176: Tensor[(32, 14, 14, 1024), float16] /* ty=Tensor[(32, 14, 14, 1024), float16] */, %p1134: Tensor[(256, 1, 1, 1024), float16] /* ty=Tensor[(256, 1, 1, 1024), float16] */, %p250: Tensor[(1, 1, 1, 256), float16] /* ty=Tensor[(1, 1, 1, 256), float16] */, %p329: Tensor[(1, 1, 1, 256), float16] /* ty=Tensor[(1, 1, 1, 256), float16] */, Primitive=1) -> Tensor[(32, 14, 14, 256), float16] {
    %300 = nn.conv2d(%p0176, %p1134, padding=[0, 0, 0, 0], channels=256, kernel_size=[1, 1], data_layout="NHWC", kernel_layout="OHWI", out_dtype="float16") /* ty=Tensor[(32, 14, 14, 256), float16] */;
    %301 = multiply(%300, %p250) /* ty=Tensor[(32, 14, 14, 256), float16] */;
    %302 = add(%301, %p329) /* ty=Tensor[(32, 14, 14, 256), float16] */;
    nn.relu(%302) /* ty=Tensor[(32, 14, 14, 256), float16] */
  } /* ty=fn (Tensor[(32, 14, 14, 1024), float16], Tensor[(256, 1, 1, 1024), float16], Tensor[(1, 1, 1, 256), float16], Tensor[(1, 1, 1, 256), float16]) -> Tensor[(32, 14, 14, 256), float16] */;
  %634 = %633(%632, meta[relay.Constant][112] /* ty=Tensor[(256, 1, 1, 1024), float16] */, meta[relay.Constant][113] /* ty=Tensor[(1, 1, 1, 256), float16] */, meta[relay.Constant][114] /* ty=Tensor[(1, 1, 1, 256), float16] */) /* ty=Tensor[(32, 14, 14, 256), float16] */;
  %635 = fn (%p0175: Tensor[(32, 14, 14, 256), float16] /* ty=Tensor[(32, 14, 14, 256), float16] */, %p1133: Tensor[(256, 3, 3, 256), float16] /* ty=Tensor[(256, 3, 3, 256), float16] */, %p249: Tensor[(1, 1, 1, 256), float16] /* ty=Tensor[(1, 1, 1, 256), float16] */, %p328: Tensor[(1, 1, 1, 256), float16] /* ty=Tensor[(1, 1, 1, 256), float16] */, Primitive=1) -> Tensor[(32, 14, 14, 256), float16] {
    %297 = nn.conv2d(%p0175, %p1133, padding=[1, 1, 1, 1], channels=256, kernel_size=[3, 3], data_layout="NHWC", kernel_layout="OHWI", out_dtype="float16") /* ty=Tensor[(32, 14, 14, 256), float16] */;
    %298 = multiply(%297, %p249) /* ty=Tensor[(32, 14, 14, 256), float16] */;
    %299 = add(%298, %p328) /* ty=Tensor[(32, 14, 14, 256), float16] */;
    nn.relu(%299) /* ty=Tensor[(32, 14, 14, 256), float16] */
  } /* ty=fn (Tensor[(32, 14, 14, 256), float16], Tensor[(256, 3, 3, 256), float16], Tensor[(1, 1, 1, 256), float16], Tensor[(1, 1, 1, 256), float16]) -> Tensor[(32, 14, 14, 256), float16] */;
  %636 = %635(%634, meta[relay.Constant][115] /* ty=Tensor[(256, 3, 3, 256), float16] */, meta[relay.Constant][116] /* ty=Tensor[(1, 1, 1, 256), float16] */, meta[relay.Constant][117] /* ty=Tensor[(1, 1, 1, 256), float16] */) /* ty=Tensor[(32, 14, 14, 256), float16] */;
  %637 = fn (%p0174: Tensor[(32, 14, 14, 256), float16] /* ty=Tensor[(32, 14, 14, 256), float16] */, %p1132: Tensor[(1024, 1, 1, 256), float16] /* ty=Tensor[(1024, 1, 1, 256), float16] */, %p248: Tensor[(1, 1, 1, 1024), float16] /* ty=Tensor[(1, 1, 1, 1024), float16] */, %p327: Tensor[(1, 1, 1, 1024), float16] /* ty=Tensor[(1, 1, 1, 1024), float16] */, %p45: Tensor[(32, 14, 14, 1024), float16] /* ty=Tensor[(32, 14, 14, 1024), float16] */, Primitive=1) -> Tensor[(32, 14, 14, 1024), float16] {
    %293 = nn.conv2d(%p0174, %p1132, padding=[0, 0, 0, 0], channels=1024, kernel_size=[1, 1], data_layout="NHWC", kernel_layout="OHWI", out_dtype="float16") /* ty=Tensor[(32, 14, 14, 1024), float16] */;
    %294 = multiply(%293, %p248) /* ty=Tensor[(32, 14, 14, 1024), float16] */;
    %295 = add(%294, %p327) /* ty=Tensor[(32, 14, 14, 1024), float16] */;
    %296 = add(%295, %p45) /* ty=Tensor[(32, 14, 14, 1024), float16] */;
    nn.relu(%296) /* ty=Tensor[(32, 14, 14, 1024), float16] */
  } /* ty=fn (Tensor[(32, 14, 14, 256), float16], Tensor[(1024, 1, 1, 256), float16], Tensor[(1, 1, 1, 1024), float16], Tensor[(1, 1, 1, 1024), float16], Tensor[(32, 14, 14, 1024), float16]) -> Tensor[(32, 14, 14, 1024), float16] */;
  %638 = %637(%636, meta[relay.Constant][118] /* ty=Tensor[(1024, 1, 1, 256), float16] */, meta[relay.Constant][119] /* ty=Tensor[(1, 1, 1, 1024), float16] */, meta[relay.Constant][120] /* ty=Tensor[(1, 1, 1, 1024), float16] */, %632) /* ty=Tensor[(32, 14, 14, 1024), float16] */;
  %639 = fn (%p0173: Tensor[(32, 14, 14, 1024), float16] /* ty=Tensor[(32, 14, 14, 1024), float16] */, %p1131: Tensor[(256, 1, 1, 1024), float16] /* ty=Tensor[(256, 1, 1, 1024), float16] */, %p247: Tensor[(1, 1, 1, 256), float16] /* ty=Tensor[(1, 1, 1, 256), float16] */, %p326: Tensor[(1, 1, 1, 256), float16] /* ty=Tensor[(1, 1, 1, 256), float16] */, Primitive=1) -> Tensor[(32, 14, 14, 256), float16] {
    %290 = nn.conv2d(%p0173, %p1131, padding=[0, 0, 0, 0], channels=256, kernel_size=[1, 1], data_layout="NHWC", kernel_layout="OHWI", out_dtype="float16") /* ty=Tensor[(32, 14, 14, 256), float16] */;
    %291 = multiply(%290, %p247) /* ty=Tensor[(32, 14, 14, 256), float16] */;
    %292 = add(%291, %p326) /* ty=Tensor[(32, 14, 14, 256), float16] */;
    nn.relu(%292) /* ty=Tensor[(32, 14, 14, 256), float16] */
  } /* ty=fn (Tensor[(32, 14, 14, 1024), float16], Tensor[(256, 1, 1, 1024), float16], Tensor[(1, 1, 1, 256), float16], Tensor[(1, 1, 1, 256), float16]) -> Tensor[(32, 14, 14, 256), float16] */;
  %640 = %639(%638, meta[relay.Constant][121] /* ty=Tensor[(256, 1, 1, 1024), float16] */, meta[relay.Constant][122] /* ty=Tensor[(1, 1, 1, 256), float16] */, meta[relay.Constant][123] /* ty=Tensor[(1, 1, 1, 256), float16] */) /* ty=Tensor[(32, 14, 14, 256), float16] */;
  %641 = fn (%p0172: Tensor[(32, 14, 14, 256), float16] /* ty=Tensor[(32, 14, 14, 256), float16] */, %p1130: Tensor[(256, 3, 3, 256), float16] /* ty=Tensor[(256, 3, 3, 256), float16] */, %p246: Tensor[(1, 1, 1, 256), float16] /* ty=Tensor[(1, 1, 1, 256), float16] */, %p325: Tensor[(1, 1, 1, 256), float16] /* ty=Tensor[(1, 1, 1, 256), float16] */, Primitive=1) -> Tensor[(32, 14, 14, 256), float16] {
    %287 = nn.conv2d(%p0172, %p1130, padding=[1, 1, 1, 1], channels=256, kernel_size=[3, 3], data_layout="NHWC", kernel_layout="OHWI", out_dtype="float16") /* ty=Tensor[(32, 14, 14, 256), float16] */;
    %288 = multiply(%287, %p246) /* ty=Tensor[(32, 14, 14, 256), float16] */;
    %289 = add(%288, %p325) /* ty=Tensor[(32, 14, 14, 256), float16] */;
    nn.relu(%289) /* ty=Tensor[(32, 14, 14, 256), float16] */
  } /* ty=fn (Tensor[(32, 14, 14, 256), float16], Tensor[(256, 3, 3, 256), float16], Tensor[(1, 1, 1, 256), float16], Tensor[(1, 1, 1, 256), float16]) -> Tensor[(32, 14, 14, 256), float16] */;
  %642 = %641(%640, meta[relay.Constant][124] /* ty=Tensor[(256, 3, 3, 256), float16] */, meta[relay.Constant][125] /* ty=Tensor[(1, 1, 1, 256), float16] */, meta[relay.Constant][126] /* ty=Tensor[(1, 1, 1, 256), float16] */) /* ty=Tensor[(32, 14, 14, 256), float16] */;
  %643 = fn (%p0171: Tensor[(32, 14, 14, 256), float16] /* ty=Tensor[(32, 14, 14, 256), float16] */, %p1129: Tensor[(1024, 1, 1, 256), float16] /* ty=Tensor[(1024, 1, 1, 256), float16] */, %p245: Tensor[(1, 1, 1, 1024), float16] /* ty=Tensor[(1, 1, 1, 1024), float16] */, %p324: Tensor[(1, 1, 1, 1024), float16] /* ty=Tensor[(1, 1, 1, 1024), float16] */, %p44: Tensor[(32, 14, 14, 1024), float16] /* ty=Tensor[(32, 14, 14, 1024), float16] */, Primitive=1) -> Tensor[(32, 14, 14, 1024), float16] {
    %283 = nn.conv2d(%p0171, %p1129, padding=[0, 0, 0, 0], channels=1024, kernel_size=[1, 1], data_layout="NHWC", kernel_layout="OHWI", out_dtype="float16") /* ty=Tensor[(32, 14, 14, 1024), float16] */;
    %284 = multiply(%283, %p245) /* ty=Tensor[(32, 14, 14, 1024), float16] */;
    %285 = add(%284, %p324) /* ty=Tensor[(32, 14, 14, 1024), float16] */;
    %286 = add(%285, %p44) /* ty=Tensor[(32, 14, 14, 1024), float16] */;
    nn.relu(%286) /* ty=Tensor[(32, 14, 14, 1024), float16] */
  } /* ty=fn (Tensor[(32, 14, 14, 256), float16], Tensor[(1024, 1, 1, 256), float16], Tensor[(1, 1, 1, 1024), float16], Tensor[(1, 1, 1, 1024), float16], Tensor[(32, 14, 14, 1024), float16]) -> Tensor[(32, 14, 14, 1024), float16] */;
  %644 = %643(%642, meta[relay.Constant][127] /* ty=Tensor[(1024, 1, 1, 256), float16] */, meta[relay.Constant][128] /* ty=Tensor[(1, 1, 1, 1024), float16] */, meta[relay.Constant][129] /* ty=Tensor[(1, 1, 1, 1024), float16] */, %638) /* ty=Tensor[(32, 14, 14, 1024), float16] */;
  %645 = fn (%p0170: Tensor[(32, 14, 14, 1024), float16] /* ty=Tensor[(32, 14, 14, 1024), float16] */, %p1128: Tensor[(512, 1, 1, 1024), float16] /* ty=Tensor[(512, 1, 1, 1024), float16] */, %p244: Tensor[(1, 1, 1, 512), float16] /* ty=Tensor[(1, 1, 1, 512), float16] */, %p323: Tensor[(1, 1, 1, 512), float16] /* ty=Tensor[(1, 1, 1, 512), float16] */, Primitive=1) -> Tensor[(32, 14, 14, 512), float16] {
    %280 = nn.conv2d(%p0170, %p1128, padding=[0, 0, 0, 0], channels=512, kernel_size=[1, 1], data_layout="NHWC", kernel_layout="OHWI", out_dtype="float16") /* ty=Tensor[(32, 14, 14, 512), float16] */;
    %281 = multiply(%280, %p244) /* ty=Tensor[(32, 14, 14, 512), float16] */;
    %282 = add(%281, %p323) /* ty=Tensor[(32, 14, 14, 512), float16] */;
    nn.relu(%282) /* ty=Tensor[(32, 14, 14, 512), float16] */
  } /* ty=fn (Tensor[(32, 14, 14, 1024), float16], Tensor[(512, 1, 1, 1024), float16], Tensor[(1, 1, 1, 512), float16], Tensor[(1, 1, 1, 512), float16]) -> Tensor[(32, 14, 14, 512), float16] */;
  %646 = %645(%644, meta[relay.Constant][130] /* ty=Tensor[(512, 1, 1, 1024), float16] */, meta[relay.Constant][131] /* ty=Tensor[(1, 1, 1, 512), float16] */, meta[relay.Constant][132] /* ty=Tensor[(1, 1, 1, 512), float16] */) /* ty=Tensor[(32, 14, 14, 512), float16] */;
  %647 = fn (%p0169: Tensor[(32, 14, 14, 512), float16] /* ty=Tensor[(32, 14, 14, 512), float16] */, %p1127: Tensor[(512, 3, 3, 512), float16] /* ty=Tensor[(512, 3, 3, 512), float16] */, %p243: Tensor[(1, 1, 1, 512), float16] /* ty=Tensor[(1, 1, 1, 512), float16] */, %p322: Tensor[(1, 1, 1, 512), float16] /* ty=Tensor[(1, 1, 1, 512), float16] */, Primitive=1) -> Tensor[(32, 7, 7, 512), float16] {
    %277 = nn.conv2d(%p0169, %p1127, strides=[2, 2], padding=[1, 1, 1, 1], channels=512, kernel_size=[3, 3], data_layout="NHWC", kernel_layout="OHWI", out_dtype="float16") /* ty=Tensor[(32, 7, 7, 512), float16] */;
    %278 = multiply(%277, %p243) /* ty=Tensor[(32, 7, 7, 512), float16] */;
    %279 = add(%278, %p322) /* ty=Tensor[(32, 7, 7, 512), float16] */;
    nn.relu(%279) /* ty=Tensor[(32, 7, 7, 512), float16] */
  } /* ty=fn (Tensor[(32, 14, 14, 512), float16], Tensor[(512, 3, 3, 512), float16], Tensor[(1, 1, 1, 512), float16], Tensor[(1, 1, 1, 512), float16]) -> Tensor[(32, 7, 7, 512), float16] */;
  %650 = fn (%p0217: Tensor[(32, 14, 14, 1024), float16] /* ty=Tensor[(32, 14, 14, 1024), float16] */, %p1174: Tensor[(2048, 1, 1, 1024), float16] /* ty=Tensor[(2048, 1, 1, 1024), float16] */, %p290: Tensor[(1, 1, 1, 2048), float16] /* ty=Tensor[(1, 1, 1, 2048), float16] */, %p368: Tensor[(1, 1, 1, 2048), float16] /* ty=Tensor[(1, 1, 1, 2048), float16] */, Primitive=1) -> Tensor[(32, 7, 7, 2048), float16] {
    %648 = nn.conv2d(%p0217, %p1174, strides=[2, 2], padding=[0, 0, 0, 0], channels=2048, kernel_size=[1, 1], data_layout="NHWC", kernel_layout="OHWI", out_dtype="float16") /* ty=Tensor[(32, 7, 7, 2048), float16] */;
    %649 = multiply(%648, %p290) /* ty=Tensor[(32, 7, 7, 2048), float16] */;
    add(%649, %p368) /* ty=Tensor[(32, 7, 7, 2048), float16] */
  } /* ty=fn (Tensor[(32, 14, 14, 1024), float16], Tensor[(2048, 1, 1, 1024), float16], Tensor[(1, 1, 1, 2048), float16], Tensor[(1, 1, 1, 2048), float16]) -> Tensor[(32, 7, 7, 2048), float16] */;
  %651 = %647(%646, meta[relay.Constant][133] /* ty=Tensor[(512, 3, 3, 512), float16] */, meta[relay.Constant][134] /* ty=Tensor[(1, 1, 1, 512), float16] */, meta[relay.Constant][135] /* ty=Tensor[(1, 1, 1, 512), float16] */) /* ty=Tensor[(32, 7, 7, 512), float16] */;
  %652 = %650(%644, meta[relay.Constant][139] /* ty=Tensor[(2048, 1, 1, 1024), float16] */, meta[relay.Constant][140] /* ty=Tensor[(1, 1, 1, 2048), float16] */, meta[relay.Constant][141] /* ty=Tensor[(1, 1, 1, 2048), float16] */) /* ty=Tensor[(32, 7, 7, 2048), float16] */;
  %653 = fn (%p0168: Tensor[(32, 7, 7, 512), float16] /* ty=Tensor[(32, 7, 7, 512), float16] */, %p1126: Tensor[(2048, 1, 1, 512), float16] /* ty=Tensor[(2048, 1, 1, 512), float16] */, %p242: Tensor[(1, 1, 1, 2048), float16] /* ty=Tensor[(1, 1, 1, 2048), float16] */, %p321: Tensor[(1, 1, 1, 2048), float16] /* ty=Tensor[(1, 1, 1, 2048), float16] */, %p43: Tensor[(32, 7, 7, 2048), float16] /* ty=Tensor[(32, 7, 7, 2048), float16] */, Primitive=1) -> Tensor[(32, 7, 7, 2048), float16] {
    %273 = nn.conv2d(%p0168, %p1126, padding=[0, 0, 0, 0], channels=2048, kernel_size=[1, 1], data_layout="NHWC", kernel_layout="OHWI", out_dtype="float16") /* ty=Tensor[(32, 7, 7, 2048), float16] */;
    %274 = multiply(%273, %p242) /* ty=Tensor[(32, 7, 7, 2048), float16] */;
    %275 = add(%274, %p321) /* ty=Tensor[(32, 7, 7, 2048), float16] */;
    %276 = add(%275, %p43) /* ty=Tensor[(32, 7, 7, 2048), float16] */;
    nn.relu(%276) /* ty=Tensor[(32, 7, 7, 2048), float16] */
  } /* ty=fn (Tensor[(32, 7, 7, 512), float16], Tensor[(2048, 1, 1, 512), float16], Tensor[(1, 1, 1, 2048), float16], Tensor[(1, 1, 1, 2048), float16], Tensor[(32, 7, 7, 2048), float16]) -> Tensor[(32, 7, 7, 2048), float16] */;
  %654 = %653(%651, meta[relay.Constant][136] /* ty=Tensor[(2048, 1, 1, 512), float16] */, meta[relay.Constant][137] /* ty=Tensor[(1, 1, 1, 2048), float16] */, meta[relay.Constant][138] /* ty=Tensor[(1, 1, 1, 2048), float16] */, %652) /* ty=Tensor[(32, 7, 7, 2048), float16] */;
  %655 = fn (%p0167: Tensor[(32, 7, 7, 2048), float16] /* ty=Tensor[(32, 7, 7, 2048), float16] */, %p1125: Tensor[(512, 1, 1, 2048), float16] /* ty=Tensor[(512, 1, 1, 2048), float16] */, %p241: Tensor[(1, 1, 1, 512), float16] /* ty=Tensor[(1, 1, 1, 512), float16] */, %p320: Tensor[(1, 1, 1, 512), float16] /* ty=Tensor[(1, 1, 1, 512), float16] */, Primitive=1) -> Tensor[(32, 7, 7, 512), float16] {
    %270 = nn.conv2d(%p0167, %p1125, padding=[0, 0, 0, 0], channels=512, kernel_size=[1, 1], data_layout="NHWC", kernel_layout="OHWI", out_dtype="float16") /* ty=Tensor[(32, 7, 7, 512), float16] */;
    %271 = multiply(%270, %p241) /* ty=Tensor[(32, 7, 7, 512), float16] */;
    %272 = add(%271, %p320) /* ty=Tensor[(32, 7, 7, 512), float16] */;
    nn.relu(%272) /* ty=Tensor[(32, 7, 7, 512), float16] */
  } /* ty=fn (Tensor[(32, 7, 7, 2048), float16], Tensor[(512, 1, 1, 2048), float16], Tensor[(1, 1, 1, 512), float16], Tensor[(1, 1, 1, 512), float16]) -> Tensor[(32, 7, 7, 512), float16] */;
  %656 = %655(%654, meta[relay.Constant][142] /* ty=Tensor[(512, 1, 1, 2048), float16] */, meta[relay.Constant][143] /* ty=Tensor[(1, 1, 1, 512), float16] */, meta[relay.Constant][144] /* ty=Tensor[(1, 1, 1, 512), float16] */) /* ty=Tensor[(32, 7, 7, 512), float16] */;
  %657 = fn (%p0166: Tensor[(32, 7, 7, 512), float16] /* ty=Tensor[(32, 7, 7, 512), float16] */, %p1124: Tensor[(512, 3, 3, 512), float16] /* ty=Tensor[(512, 3, 3, 512), float16] */, %p240: Tensor[(1, 1, 1, 512), float16] /* ty=Tensor[(1, 1, 1, 512), float16] */, %p319: Tensor[(1, 1, 1, 512), float16] /* ty=Tensor[(1, 1, 1, 512), float16] */, Primitive=1) -> Tensor[(32, 7, 7, 512), float16] {
    %267 = nn.conv2d(%p0166, %p1124, padding=[1, 1, 1, 1], channels=512, kernel_size=[3, 3], data_layout="NHWC", kernel_layout="OHWI", out_dtype="float16") /* ty=Tensor[(32, 7, 7, 512), float16] */;
    %268 = multiply(%267, %p240) /* ty=Tensor[(32, 7, 7, 512), float16] */;
    %269 = add(%268, %p319) /* ty=Tensor[(32, 7, 7, 512), float16] */;
    nn.relu(%269) /* ty=Tensor[(32, 7, 7, 512), float16] */
  } /* ty=fn (Tensor[(32, 7, 7, 512), float16], Tensor[(512, 3, 3, 512), float16], Tensor[(1, 1, 1, 512), float16], Tensor[(1, 1, 1, 512), float16]) -> Tensor[(32, 7, 7, 512), float16] */;
  %658 = %657(%656, meta[relay.Constant][145] /* ty=Tensor[(512, 3, 3, 512), float16] */, meta[relay.Constant][146] /* ty=Tensor[(1, 1, 1, 512), float16] */, meta[relay.Constant][147] /* ty=Tensor[(1, 1, 1, 512), float16] */) /* ty=Tensor[(32, 7, 7, 512), float16] */;
  %659 = fn (%p0165: Tensor[(32, 7, 7, 512), float16] /* ty=Tensor[(32, 7, 7, 512), float16] */, %p1123: Tensor[(2048, 1, 1, 512), float16] /* ty=Tensor[(2048, 1, 1, 512), float16] */, %p239: Tensor[(1, 1, 1, 2048), float16] /* ty=Tensor[(1, 1, 1, 2048), float16] */, %p318: Tensor[(1, 1, 1, 2048), float16] /* ty=Tensor[(1, 1, 1, 2048), float16] */, %p42: Tensor[(32, 7, 7, 2048), float16] /* ty=Tensor[(32, 7, 7, 2048), float16] */, Primitive=1) -> Tensor[(32, 7, 7, 2048), float16] {
    %263 = nn.conv2d(%p0165, %p1123, padding=[0, 0, 0, 0], channels=2048, kernel_size=[1, 1], data_layout="NHWC", kernel_layout="OHWI", out_dtype="float16") /* ty=Tensor[(32, 7, 7, 2048), float16] */;
    %264 = multiply(%263, %p239) /* ty=Tensor[(32, 7, 7, 2048), float16] */;
    %265 = add(%264, %p318) /* ty=Tensor[(32, 7, 7, 2048), float16] */;
    %266 = add(%265, %p42) /* ty=Tensor[(32, 7, 7, 2048), float16] */;
    nn.relu(%266) /* ty=Tensor[(32, 7, 7, 2048), float16] */
  } /* ty=fn (Tensor[(32, 7, 7, 512), float16], Tensor[(2048, 1, 1, 512), float16], Tensor[(1, 1, 1, 2048), float16], Tensor[(1, 1, 1, 2048), float16], Tensor[(32, 7, 7, 2048), float16]) -> Tensor[(32, 7, 7, 2048), float16] */;
  %660 = %659(%658, meta[relay.Constant][148] /* ty=Tensor[(2048, 1, 1, 512), float16] */, meta[relay.Constant][149] /* ty=Tensor[(1, 1, 1, 2048), float16] */, meta[relay.Constant][150] /* ty=Tensor[(1, 1, 1, 2048), float16] */, %654) /* ty=Tensor[(32, 7, 7, 2048), float16] */;
  %661 = fn (%p0164: Tensor[(32, 7, 7, 2048), float16] /* ty=Tensor[(32, 7, 7, 2048), float16] */, %p1122: Tensor[(512, 1, 1, 2048), float16] /* ty=Tensor[(512, 1, 1, 2048), float16] */, %p238: Tensor[(1, 1, 1, 512), float16] /* ty=Tensor[(1, 1, 1, 512), float16] */, %p317: Tensor[(1, 1, 1, 512), float16] /* ty=Tensor[(1, 1, 1, 512), float16] */, Primitive=1) -> Tensor[(32, 7, 7, 512), float16] {
    %260 = nn.conv2d(%p0164, %p1122, padding=[0, 0, 0, 0], channels=512, kernel_size=[1, 1], data_layout="NHWC", kernel_layout="OHWI", out_dtype="float16") /* ty=Tensor[(32, 7, 7, 512), float16] */;
    %261 = multiply(%260, %p238) /* ty=Tensor[(32, 7, 7, 512), float16] */;
    %262 = add(%261, %p317) /* ty=Tensor[(32, 7, 7, 512), float16] */;
    nn.relu(%262) /* ty=Tensor[(32, 7, 7, 512), float16] */
  } /* ty=fn (Tensor[(32, 7, 7, 2048), float16], Tensor[(512, 1, 1, 2048), float16], Tensor[(1, 1, 1, 512), float16], Tensor[(1, 1, 1, 512), float16]) -> Tensor[(32, 7, 7, 512), float16] */;
  %662 = %661(%660, meta[relay.Constant][151] /* ty=Tensor[(512, 1, 1, 2048), float16] */, meta[relay.Constant][152] /* ty=Tensor[(1, 1, 1, 512), float16] */, meta[relay.Constant][153] /* ty=Tensor[(1, 1, 1, 512), float16] */) /* ty=Tensor[(32, 7, 7, 512), float16] */;
  %663 = fn (%p0163: Tensor[(32, 7, 7, 512), float16] /* ty=Tensor[(32, 7, 7, 512), float16] */, %p1121: Tensor[(512, 3, 3, 512), float16] /* ty=Tensor[(512, 3, 3, 512), float16] */, %p237: Tensor[(1, 1, 1, 512), float16] /* ty=Tensor[(1, 1, 1, 512), float16] */, %p316: Tensor[(1, 1, 1, 512), float16] /* ty=Tensor[(1, 1, 1, 512), float16] */, Primitive=1) -> Tensor[(32, 7, 7, 512), float16] {
    %257 = nn.conv2d(%p0163, %p1121, padding=[1, 1, 1, 1], channels=512, kernel_size=[3, 3], data_layout="NHWC", kernel_layout="OHWI", out_dtype="float16") /* ty=Tensor[(32, 7, 7, 512), float16] */;
    %258 = multiply(%257, %p237) /* ty=Tensor[(32, 7, 7, 512), float16] */;
    %259 = add(%258, %p316) /* ty=Tensor[(32, 7, 7, 512), float16] */;
    nn.relu(%259) /* ty=Tensor[(32, 7, 7, 512), float16] */
  } /* ty=fn (Tensor[(32, 7, 7, 512), float16], Tensor[(512, 3, 3, 512), float16], Tensor[(1, 1, 1, 512), float16], Tensor[(1, 1, 1, 512), float16]) -> Tensor[(32, 7, 7, 512), float16] */;
  %664 = %663(%662, meta[relay.Constant][154] /* ty=Tensor[(512, 3, 3, 512), float16] */, meta[relay.Constant][155] /* ty=Tensor[(1, 1, 1, 512), float16] */, meta[relay.Constant][156] /* ty=Tensor[(1, 1, 1, 512), float16] */) /* ty=Tensor[(32, 7, 7, 512), float16] */;
  %665 = fn (%p0162: Tensor[(32, 7, 7, 512), float16] /* ty=Tensor[(32, 7, 7, 512), float16] */, %p1120: Tensor[(2048, 1, 1, 512), float16] /* ty=Tensor[(2048, 1, 1, 512), float16] */, %p236: Tensor[(1, 1, 1, 2048), float16] /* ty=Tensor[(1, 1, 1, 2048), float16] */, %p315: Tensor[(1, 1, 1, 2048), float16] /* ty=Tensor[(1, 1, 1, 2048), float16] */, %p41: Tensor[(32, 7, 7, 2048), float16] /* ty=Tensor[(32, 7, 7, 2048), float16] */, Primitive=1) -> Tensor[(32, 7, 7, 2048), float16] {
    %253 = nn.conv2d(%p0162, %p1120, padding=[0, 0, 0, 0], channels=2048, kernel_size=[1, 1], data_layout="NHWC", kernel_layout="OHWI", out_dtype="float16") /* ty=Tensor[(32, 7, 7, 2048), float16] */;
    %254 = multiply(%253, %p236) /* ty=Tensor[(32, 7, 7, 2048), float16] */;
    %255 = add(%254, %p315) /* ty=Tensor[(32, 7, 7, 2048), float16] */;
    %256 = add(%255, %p41) /* ty=Tensor[(32, 7, 7, 2048), float16] */;
    nn.relu(%256) /* ty=Tensor[(32, 7, 7, 2048), float16] */
  } /* ty=fn (Tensor[(32, 7, 7, 512), float16], Tensor[(2048, 1, 1, 512), float16], Tensor[(1, 1, 1, 2048), float16], Tensor[(1, 1, 1, 2048), float16], Tensor[(32, 7, 7, 2048), float16]) -> Tensor[(32, 7, 7, 2048), float16] */;
  %666 = %665(%664, meta[relay.Constant][157] /* ty=Tensor[(2048, 1, 1, 512), float16] */, meta[relay.Constant][158] /* ty=Tensor[(1, 1, 1, 2048), float16] */, meta[relay.Constant][159] /* ty=Tensor[(1, 1, 1, 2048), float16] */, %660) /* ty=Tensor[(32, 7, 7, 2048), float16] */;
  %667 = fn (%p0161: Tensor[(32, 7, 7, 2048), float16] /* ty=Tensor[(32, 7, 7, 2048), float16] */, %p1119: Tensor[(256, 1, 1, 2048), float16] /* ty=Tensor[(256, 1, 1, 2048), float16] */, %p235: Tensor[(1, 1, 1, 256), float16] /* ty=Tensor[(1, 1, 1, 256), float16] */, Primitive=1) -> Tensor[(32, 7, 7, 256), float16] {
    %252 = nn.conv2d(%p0161, %p1119, padding=[0, 0, 0, 0], channels=256, kernel_size=[1, 1], data_layout="NHWC", kernel_layout="OHWI", out_dtype="float16") /* ty=Tensor[(32, 7, 7, 256), float16] */;
    add(%252, %p235) /* ty=Tensor[(32, 7, 7, 256), float16] */
  } /* ty=fn (Tensor[(32, 7, 7, 2048), float16], Tensor[(256, 1, 1, 2048), float16], Tensor[(1, 1, 1, 256), float16]) -> Tensor[(32, 7, 7, 256), float16] */;
  %668 = %667(%666, meta[relay.Constant][160] /* ty=Tensor[(256, 1, 1, 2048), float16] */, meta[relay.Constant][161] /* ty=Tensor[(1, 1, 1, 256), float16] */) /* ty=Tensor[(32, 7, 7, 256), float16] */;
  %669 = fn (%p0160: Tensor[(32, 7, 7, 256), float16] /* ty=Tensor[(32, 7, 7, 256), float16] */, Primitive=1) -> Tensor[(49, 32, 256), float16] {
    %250 = layout_transform(%p0160, src_layout="NHWC", dst_layout="NCHW") /* ty=Tensor[(32, 256, 7, 7), float16] */;
    %251 = reshape(%250, newshape=[32, 256, -1]) /* ty=Tensor[(32, 256, 49), float16] */;
    transpose(%251, axes=[2, 0, 1]) /* ty=Tensor[(49, 32, 256), float16] */
  } /* ty=fn (Tensor[(32, 7, 7, 256), float16]) -> Tensor[(49, 32, 256), float16] */;
  %2028 = fn (%p0181: Tensor[(32, 7, 7), float32] /* ty=Tensor[(32, 7, 7), float32] */, Primitive=1) -> Tensor[(32, 7, 7), bool] {
    %653 = cast(%p0181, dtype="bool") /* ty=Tensor[(32, 7, 7), bool] */;
    logical_not(%653) /* ty=Tensor[(32, 7, 7), bool] */
  } /* ty=fn (Tensor[(32, 7, 7), float32]) -> Tensor[(32, 7, 7), bool] */;
  %2029 = %2028(%input1) /* ty=Tensor[(32, 7, 7), bool] */;
  %2030 = fn (%p0180: Tensor[(32, 7, 7), bool] /* ty=Tensor[(32, 7, 7), bool] */, Primitive=1) -> Tensor[(32, 7, 7), float32] {
    cumsum(%p0180, axis=1, dtype="float32", exclusive=None) /* ty=Tensor[(32, 7, 7), float32] */
  } /* ty=fn (Tensor[(32, 7, 7), bool]) -> Tensor[(32, 7, 7), float32] */;
  %2031 = fn (%p0182: Tensor[(32, 7, 7), bool] /* ty=Tensor[(32, 7, 7), bool] */, Primitive=1) -> Tensor[(32, 7, 7), float32] {
    cumsum(%p0182, axis=2, dtype="float32", exclusive=None) /* ty=Tensor[(32, 7, 7), float32] */
  } /* ty=fn (Tensor[(32, 7, 7), bool]) -> Tensor[(32, 7, 7), float32] */;
  %2032 = %2030(%2029) /* ty=Tensor[(32, 7, 7), float32] */;
  %2033 = %2031(%2029) /* ty=Tensor[(32, 7, 7), float32] */;
  %2034 = fn (%p0179: Tensor[(32, 7, 7), float32] /* ty=Tensor[(32, 7, 7), float32] */, %p1157: Tensor[(128), float32] /* ty=Tensor[(128), float32] */, %p2105: Tensor[(32, 7, 7), float32] /* ty=Tensor[(32, 7, 7), float32] */, Primitive=1) -> Tensor[(49, 32, 256), float32] {
    %620 = strided_slice(%p0179, begin=[0, -1, 0], end=[32, 7, 7], strides=[1, 1, 1], axes=None) /* ty=Tensor[(32, 1, 7), float32] */;
    %621 = add(%620, 1e-06f /* ty=float32 span=aten::add_106:0:0 */) /* ty=Tensor[(32, 1, 7), float32] */;
    %622 = divide(%p0179, %621) /* ty=Tensor[(32, 7, 7), float32] */;
    %623 = multiply(%622, 6.28319f /* ty=float32 span=aten::mul_159:0:0 */) /* ty=Tensor[(32, 7, 7), float32] */;
    %624 = expand_dims(%623, axis=3) /* ty=Tensor[(32, 7, 7, 1), float32] */;
    %660 = broadcast_to(%624, shape=[32, 7, 7, 128], dtype="float32") /* ty=Tensor[(32, 7, 7, 128), float32] */;
    %625 = divide(%660, %p1157) /* ty=Tensor[(32, 7, 7, 128), float32] */;
    %626 = strided_slice(%625, begin=[0, 0, 0, 0], end=[32, 7, 7, 128], strides=[1, 1, 1, 2], axes=None) /* ty=Tensor[(32, 7, 7, 64), float32] */;
    %627 = strided_slice(%625, begin=[0, 0, 0, 1], end=[32, 7, 7, 128], strides=[1, 1, 1, 2], axes=None) /* ty=Tensor[(32, 7, 7, 64), float32] */;
    %628 = sin(%626) /* ty=Tensor[(32, 7, 7, 64), float32] */;
    %629 = cos(%627) /* ty=Tensor[(32, 7, 7, 64), float32] */;
    %653 = expand_dims(%628, axis=4) /* ty=Tensor[(32, 7, 7, 64, 1), float32] */;
    %654 = expand_dims(%629, axis=4) /* ty=Tensor[(32, 7, 7, 64, 1), float32] */;
    %655 = (%653, %654) /* ty=(Tensor[(32, 7, 7, 64), float32], Tensor[(32, 7, 7, 64), float32]) span=aten::stack_6:0:0 */;
    %631 = concatenate(%655, axis=4) /* ty=Tensor[(32, 7, 7, 64, 2), float32] */;
    %632 = reshape(%631, newshape=[0, 0, 0, -1, 1]) /* ty=Tensor[(32, 7, 7, 128, 1), float32] */;
    %633 = strided_slice(%p2105, begin=[0, 0, -1], end=[32, 7, 7], strides=[1, 1, 1], axes=None) /* ty=Tensor[(32, 7, 1), float32] */;
    %634 = add(%633, 1e-06f /* ty=float32 span=aten::add_107:0:0 */) /* ty=Tensor[(32, 7, 1), float32] */;
    %635 = divide(%p2105, %634) /* ty=Tensor[(32, 7, 7), float32] */;
    %636 = multiply(%635, 6.28319f /* ty=float32 span=aten::mul_160:0:0 */) /* ty=Tensor[(32, 7, 7), float32] */;
    %637 = expand_dims(%636, axis=3) /* ty=Tensor[(32, 7, 7, 1), float32] */;
    %661 = broadcast_to(%637, shape=[32, 7, 7, 128], dtype="float32") /* ty=Tensor[(32, 7, 7, 128), float32] */;
    %638 = divide(%661, %p1157) /* ty=Tensor[(32, 7, 7, 128), float32] */;
    %639 = strided_slice(%638, begin=[0, 0, 0, 0], end=[32, 7, 7, 128], strides=[1, 1, 1, 2], axes=None) /* ty=Tensor[(32, 7, 7, 64), float32] */;
    %640 = strided_slice(%638, begin=[0, 0, 0, 1], end=[32, 7, 7, 128], strides=[1, 1, 1, 2], axes=None) /* ty=Tensor[(32, 7, 7, 64), float32] */;
    %641 = sin(%639) /* ty=Tensor[(32, 7, 7, 64), float32] */;
    %642 = cos(%640) /* ty=Tensor[(32, 7, 7, 64), float32] */;
    %656 = expand_dims(%641, axis=4) /* ty=Tensor[(32, 7, 7, 64, 1), float32] */;
    %657 = expand_dims(%642, axis=4) /* ty=Tensor[(32, 7, 7, 64, 1), float32] */;
    %658 = (%656, %657) /* ty=(Tensor[(32, 7, 7, 64), float32], Tensor[(32, 7, 7, 64), float32]) span=aten::stack_6:0:0 */;
    %659 = concatenate(%658, axis=4) /* ty=Tensor[(32, 7, 7, 64, 2), float32] */;
    %645 = reshape(%659, newshape=[0, 0, 0, -1, 1]) /* ty=Tensor[(32, 7, 7, 128, 1), float32] */;
    %646 = squeeze(%632, axis=[4]) /* ty=Tensor[(32, 7, 7, 128), float32] */;
    %647 = squeeze(%645, axis=[4]) /* ty=Tensor[(32, 7, 7, 128), float32] */;
    %648 = (%646, %647) /* ty=(Tensor[(32, 7, 7, 128), float32], Tensor[(32, 7, 7, 128), float32]) span=aten::cat_0:0:0 */;
    %649 = concatenate(%648, axis=3) /* ty=Tensor[(32, 7, 7, 256), float32] */;
    %650 = reshape(%649, newshape=[32, 49, 256]) /* ty=Tensor[(32, 49, 256), float32] */;
    %651 = transpose(%650, axes=[1, 0, 2]) /* ty=Tensor[(49, 32, 256), float32] */;
    cast(%651, dtype="float16") /* ty=Tensor[(49, 32, 256), float16] */;
  } /* ty=fn (Tensor[(32, 7, 7), float32], Tensor[(128), float32], Tensor[(32, 7, 7), float32]) -> Tensor[(49, 32, 256), float32] */;
  %670 = %669(%668) /* ty=Tensor[(49, 32, 256), float16] */;
  %2035 = %2034(%2032, meta[relay.Constant][109] /* ty=Tensor[(128), float32] */, %2033) /* ty=Tensor[(49, 32, 256), float32] */;
  %671 = fn (%p0159: Tensor[(49, 32, 256), float16] /* ty=Tensor[(49, 32, 256), float16] */, %p1118: Tensor[(49, 32, 256), float16] /* ty=Tensor[(49, 32, 256), float16] */, Primitive=1) -> Tensor[(49, 32, 256), float16] {
    add(%p0159, %p1118) /* ty=Tensor[(49, 32, 256), float16] */
  } /* ty=fn (Tensor[(49, 32, 256), float16], Tensor[(49, 32, 256), float16]) -> Tensor[(49, 32, 256), float16] */;
  %672 = %671(%670, %2035) /* ty=Tensor[(49, 32, 256), float16] */;
  %673 = fn (%p0158: Tensor[(49, 32, 256), float16] /* ty=Tensor[(49, 32, 256), float16] */, Primitive=1, relay.reshape_only=1) -> Tensor[(1568, 256), float16] {
    reshape(%p0158, newshape=[-1, 256]) /* ty=Tensor[(1568, 256), float16] */
  } /* ty=fn (Tensor[(49, 32, 256), float16]) -> Tensor[(1568, 256), float16] */;
  %674 = %673(%672) /* ty=Tensor[(1568, 256), float16] */;
  %675 = fn (%p0157: Tensor[(1568, 256), float16] /* ty=Tensor[(1568, 256), float16] */, %p1117: Tensor[(256, 256), float16] /* ty=Tensor[(256, 256), float16] */, Primitive=1) -> Tensor[(1568, 256), float16] {
    nn.dense(%p0157, %p1117, units=None, out_dtype="float16") /* ty=Tensor[(1568, 256), float16] */
  } /* ty=fn (Tensor[(1568, 256), float16], Tensor[(256, 256), float16]) -> Tensor[(1568, 256), float16] */;
  %676 = %675(%674, meta[relay.Constant][163] /* ty=Tensor[(256, 256), float16] */) /* ty=Tensor[(1568, 256), float16] */;
  %677 = fn (%p0156: Tensor[(1568, 256), float16] /* ty=Tensor[(1568, 256), float16] */, %p1116: Tensor[(256), float16] /* ty=Tensor[(256), float16] */, %p234: float16 /* ty=float16 */, Primitive=1) -> Tensor[(256, 49, 32), float16] {
    %246 = reshape(%p0156, newshape=[49, 32, 256]) /* ty=Tensor[(49, 32, 256), float16] */;
    %247 = add(%p1116, %246) /* ty=Tensor[(49, 32, 256), float16] */;
    %248 = reshape(%247, newshape=[49, 256, 32]) /* ty=Tensor[(49, 256, 32), float16] */;
    %249 = transpose(%248, axes=[1, 0, 2]) /* ty=Tensor[(256, 49, 32), float16] */;
    divide(%249, %p234) /* ty=Tensor[(256, 49, 32), float16] */
  } /* ty=fn (Tensor[(1568, 256), float16], Tensor[(256), float16], float16) -> Tensor[(256, 49, 32), float16] */;
  %681 = fn (%p0220: Tensor[(49, 32, 256), float16] /* ty=Tensor[(49, 32, 256), float16] */, Primitive=1, relay.reshape_only=1) -> Tensor[(1568, 256), float16] {
    reshape(%p0220, newshape=[-1, 256]) /* ty=Tensor[(1568, 256), float16] */
  } /* ty=fn (Tensor[(49, 32, 256), float16]) -> Tensor[(1568, 256), float16] */;
  %682 = %681(%672) /* ty=Tensor[(1568, 256), float16] */;
  %683 = fn (%p0219: Tensor[(1568, 256), float16] /* ty=Tensor[(1568, 256), float16] */, %p1176: Tensor[(256, 256), float16] /* ty=Tensor[(256, 256), float16] */, Primitive=1) -> Tensor[(1568, 256), float16] {
    nn.dense(%p0219, %p1176, units=None, out_dtype="float16") /* ty=Tensor[(1568, 256), float16] */
  } /* ty=fn (Tensor[(1568, 256), float16], Tensor[(256, 256), float16]) -> Tensor[(1568, 256), float16] */;
  %684 = %683(%682, meta[relay.Constant][165] /* ty=Tensor[(256, 256), float16] */) /* ty=Tensor[(1568, 256), float16] */;
  %685 = fn (%p0218: Tensor[(1568, 256), float16] /* ty=Tensor[(1568, 256), float16] */, %p1175: Tensor[(256), float16] /* ty=Tensor[(256), float16] */, Primitive=1) -> Tensor[(256, 49, 32), float16] {
    %678 = reshape(%p0218, newshape=[49, 32, 256]) /* ty=Tensor[(49, 32, 256), float16] */;
    %679 = add(%p1175, %678) /* ty=Tensor[(49, 32, 256), float16] */;
    %680 = reshape(%679, newshape=[49, 256, 32]) /* ty=Tensor[(49, 256, 32), float16] */;
    transpose(%680, axes=[1, 0, 2]) /* ty=Tensor[(256, 49, 32), float16] */
  } /* ty=fn (Tensor[(1568, 256), float16], Tensor[(256), float16]) -> Tensor[(256, 49, 32), float16] */;
  %686 = %677(%676, meta[relay.Constant][164] /* ty=Tensor[(256), float16] */, 5.65625f16 /* ty=float16 */) /* ty=Tensor[(256, 49, 32), float16] */;
  %687 = %685(%684, meta[relay.Constant][166] /* ty=Tensor[(256), float16] */) /* ty=Tensor[(256, 49, 32), float16] */;
  %688 = fn (%p0155: Tensor[(256, 49, 32), float16] /* ty=Tensor[(256, 49, 32), float16] */, %p1115: Tensor[(256, 49, 32), float16] /* ty=Tensor[(256, 49, 32), float16] */, Primitive=1) -> Tensor[(256, 49, 49), float16] {
    nn.batch_matmul(%p0155, %p1115, out_dtype="float16", transpose_b=True) /* ty=Tensor[(256, 49, 49), float16] */
  } /* ty=fn (Tensor[(256, 49, 32), float16], Tensor[(256, 49, 32), float16]) -> Tensor[(256, 49, 49), float16] */;
  %689 = %688(%686, %687) /* ty=Tensor[(256, 49, 49), float16] */;
  %690 = fn (%p0154: Tensor[(256, 49, 49), float16] /* ty=Tensor[(256, 49, 49), float16] */, %p1114: Tensor[(256, 1, 49), float16] /* ty=Tensor[(256, 1, 49), float16] */, Primitive=1) -> Tensor[(256, 49, 49), float32] {
    %244 = reshape(%p0154, newshape=[256, 49, 49]) /* ty=Tensor[(256, 49, 49), float16] */;
    %245 = add(%244, %p1114) /* ty=Tensor[(256, 49, 49), float16] */;
    cast(%245, dtype="float32") /* ty=Tensor[(256, 49, 49), float32] */
  } /* ty=fn (Tensor[(256, 49, 49), float16], Tensor[(256, 1, 49), float16]) -> Tensor[(256, 49, 49), float32] */;
  %691 = %690(%689, meta[relay.Constant][167] /* ty=Tensor[(256, 1, 49), float16] */) /* ty=Tensor[(256, 49, 49), float32] */;
  %692 = fn (%p0153: Tensor[(256, 49, 49), float32] /* ty=Tensor[(256, 49, 49), float32] */, Primitive=1) -> Tensor[(256, 49, 49), float16] {
    %243 = nn.softmax(%p0153, axis=2) /* ty=Tensor[(256, 49, 49), float32] */;
    cast(%243, dtype="float16") /* ty=Tensor[(256, 49, 49), float16] */
  } /* ty=fn (Tensor[(256, 49, 49), float32]) -> Tensor[(256, 49, 49), float16] */;
  %696 = fn (%p0223: Tensor[(49, 32, 256), float16] /* ty=Tensor[(49, 32, 256), float16] */, Primitive=1, relay.reshape_only=1) -> Tensor[(1568, 256), float16] {
    reshape(%p0223, newshape=[-1, 256]) /* ty=Tensor[(1568, 256), float16] */
  } /* ty=fn (Tensor[(49, 32, 256), float16]) -> Tensor[(1568, 256), float16] */;
  %697 = %696(%670) /* ty=Tensor[(1568, 256), float16] */;
  %698 = fn (%p0222: Tensor[(1568, 256), float16] /* ty=Tensor[(1568, 256), float16] */, %p1178: Tensor[(256, 256), float16] /* ty=Tensor[(256, 256), float16] */, Primitive=1) -> Tensor[(1568, 256), float16] {
    nn.dense(%p0222, %p1178, units=None, out_dtype="float16") /* ty=Tensor[(1568, 256), float16] */
  } /* ty=fn (Tensor[(1568, 256), float16], Tensor[(256, 256), float16]) -> Tensor[(1568, 256), float16] */;
  %699 = %698(%697, meta[relay.Constant][168] /* ty=Tensor[(256, 256), float16] */) /* ty=Tensor[(1568, 256), float16] */;
  %700 = fn (%p0221: Tensor[(1568, 256), float16] /* ty=Tensor[(1568, 256), float16] */, %p1177: Tensor[(256), float16] /* ty=Tensor[(256), float16] */, Primitive=1) -> Tensor[(256, 32, 49), float16] {
    %693 = reshape(%p0221, newshape=[49, 32, 256]) /* ty=Tensor[(49, 32, 256), float16] */;
    %694 = add(%p1177, %693) /* ty=Tensor[(49, 32, 256), float16] */;
    %695 = reshape(%694, newshape=[49, 256, 32]) /* ty=Tensor[(49, 256, 32), float16] */;
    transpose(%695, axes=[1, 2, 0]) /* ty=Tensor[(256, 32, 49), float16] */
  } /* ty=fn (Tensor[(1568, 256), float16], Tensor[(256), float16]) -> Tensor[(256, 32, 49), float16] */;
  %701 = %692(%691) /* ty=Tensor[(256, 49, 49), float16] */;
  %702 = %700(%699, meta[relay.Constant][169] /* ty=Tensor[(256), float16] */) /* ty=Tensor[(256, 32, 49), float16] */;
  %703 = fn (%p0152: Tensor[(256, 49, 49), float16] /* ty=Tensor[(256, 49, 49), float16] */, %p1113: Tensor[(256, 32, 49), float16] /* ty=Tensor[(256, 32, 49), float16] */, Primitive=1) -> Tensor[(256, 49, 32), float16] {
    nn.batch_matmul(%p0152, %p1113, out_dtype="float16", transpose_b=True) /* ty=Tensor[(256, 49, 32), float16] */
  } /* ty=fn (Tensor[(256, 49, 49), float16], Tensor[(256, 32, 49), float16]) -> Tensor[(256, 49, 32), float16] */;
  %704 = %703(%701, %702) /* ty=Tensor[(256, 49, 32), float16] */;
  %705 = fn (%p0151: Tensor[(256, 49, 32), float16] /* ty=Tensor[(256, 49, 32), float16] */, Primitive=1) -> Tensor[(1568, 256), float16] {
    %241 = reshape(%p0151, newshape=[256, 49, 32]) /* ty=Tensor[(256, 49, 32), float16] */;
    %242 = transpose(%241, axes=[1, 0, 2]) /* ty=Tensor[(49, 256, 32), float16] */;
    reshape(%242, newshape=[1568, 256]) /* ty=Tensor[(1568, 256), float16] */
  } /* ty=fn (Tensor[(256, 49, 32), float16]) -> Tensor[(1568, 256), float16] */;
  %706 = %705(%704) /* ty=Tensor[(1568, 256), float16] */;
  %707 = fn (%p0150: Tensor[(1568, 256), float16] /* ty=Tensor[(1568, 256), float16] */, %p1112: Tensor[(256, 256), float16] /* ty=Tensor[(256, 256), float16] */, %p233: Tensor[(1, 256), float16] /* ty=Tensor[(1, 256), float16] */, Primitive=1) -> Tensor[(1568, 256), float16] {
    %240 = nn.dense(%p0150, %p1112, units=256, out_dtype="float16") /* ty=Tensor[(1568, 256), float16] */;
    add(%240, %p233) /* ty=Tensor[(1568, 256), float16] */
  } /* ty=fn (Tensor[(1568, 256), float16], Tensor[(256, 256), float16], Tensor[(1, 256), float16]) -> Tensor[(1568, 256), float16] */;
  %708 = %707(%706, meta[relay.Constant][170] /* ty=Tensor[(256, 256), float16] */, meta[relay.Constant][171] /* ty=Tensor[(1, 256), float16] */) /* ty=Tensor[(1568, 256), float16] */;
  %709 = fn (%p0149: Tensor[(1568, 256), float16] /* ty=Tensor[(1568, 256), float16] */, %p1111: Tensor[(49, 32, 256), float16] /* ty=Tensor[(49, 32, 256), float16] */, Primitive=1) -> Tensor[(49, 32, 256), float32] {
    %238 = reshape(%p0149, newshape=[49, 32, 256]) /* ty=Tensor[(49, 32, 256), float16] */;
    %239 = add(%p1111, %238) /* ty=Tensor[(49, 32, 256), float16] */;
    cast(%239, dtype="float32") /* ty=Tensor[(49, 32, 256), float32] */
  } /* ty=fn (Tensor[(1568, 256), float16], Tensor[(49, 32, 256), float16]) -> Tensor[(49, 32, 256), float32] */;
  %710 = %709(%708, %670) /* ty=Tensor[(49, 32, 256), float32] */;
  %711 = fn (%p0224: Tensor[(49, 32, 256), float32] /* ty=Tensor[(49, 32, 256), float32] */, Primitive=1) -> Tensor[(49, 32, 1), float32] {
    mean(%p0224, axis=[-1], keepdims=True) /* ty=Tensor[(49, 32, 1), float32] */
  } /* ty=fn (Tensor[(49, 32, 256), float32]) -> Tensor[(49, 32, 1), float32] */;
  %712 = %711(%710) /* ty=Tensor[(49, 32, 1), float32] */;
  %713 = fn (%p0148: Tensor[(49, 32, 256), float32] /* ty=Tensor[(49, 32, 256), float32] */, %p1110: Tensor[(49, 32, 1), float32] /* ty=Tensor[(49, 32, 1), float32] */, Primitive=1) -> Tensor[(49, 32, 256), float32] {
    subtract(%p0148, %p1110) /* ty=Tensor[(49, 32, 256), float32] */
  } /* ty=fn (Tensor[(49, 32, 256), float32], Tensor[(49, 32, 1), float32]) -> Tensor[(49, 32, 256), float32] */;
  %714 = %713(%710, %712) /* ty=Tensor[(49, 32, 256), float32] */;
  %715 = fn (%p0147: Tensor[(49, 32, 256), float32] /* ty=Tensor[(49, 32, 256), float32] */, Primitive=1) -> Tensor[(49, 32, 1), float32] {
    %237 = power(%p0147, 2f /* ty=float32 span=/transformer/encoder/layers.0/norm1/Constant:0:0 */) /* ty=Tensor[(49, 32, 256), float32] */;
    mean(%237, axis=[-1], keepdims=True) /* ty=Tensor[(49, 32, 1), float32] */
  } /* ty=fn (Tensor[(49, 32, 256), float32]) -> Tensor[(49, 32, 1), float32] */;
  %716 = %715(%714) /* ty=Tensor[(49, 32, 1), float32] */;
  %717 = fn (%p0146: Tensor[(49, 32, 1), float32] /* ty=Tensor[(49, 32, 1), float32] */, %p1109: Tensor[(49, 32, 256), float32] /* ty=Tensor[(49, 32, 256), float32] */, %p232: Tensor[(256), float32] /* ty=Tensor[(256), float32] */, %p314: Tensor[(256), float32] /* ty=Tensor[(256), float32] */, Primitive=1) -> Tensor[(49, 32, 256), float16] {
    %233 = add(%p0146, 1e-05f /* ty=float32 span=/transformer/encoder/layers.0/norm1/Constant_1:0:0 */) /* ty=Tensor[(49, 32, 1), float32] */;
    %234 = rsqrt(%233) /* ty=Tensor[(49, 32, 1), float32] */;
    %235 = multiply(%p1109, %234) /* ty=Tensor[(49, 32, 256), float32] */;
    %236 = multiply(%235, %p232) /* ty=Tensor[(49, 32, 256), float32] */;
    %237 = add(%236, %p314) /* ty=Tensor[(49, 32, 256), float32] */
    cast(%237, dtype="float16") /* ty=Tensor[(49, 32, 256), float16] */
  } /* ty=fn (Tensor[(49, 32, 1), float32], Tensor[(49, 32, 256), float32], Tensor[(256), float32], Tensor[(256), float32]) -> Tensor[(49, 32, 256), float16] */;
  %718 = %717(%716, %714, meta[relay.Constant][172] /* ty=Tensor[(256), float32] span=/transformer/encoder/layers.0/norm1/Mul.transformer.encoder.layers.0.norm1.weight:0:0 */, meta[relay.Constant][173] /* ty=Tensor[(256), float32] span=/transformer/encoder/layers.0/norm1/Add_1.transformer.encoder.layers.0.norm1.bias:0:0 */) /* ty=Tensor[(49, 32, 256), float16] */;
  %719 = fn (%p0145: Tensor[(49, 32, 256), float32] /* ty=Tensor[(49, 32, 256), float32] */, Primitive=1) -> Tensor[(1568, 256), float16] {
    %232 = reshape(%p0145, newshape=[-1, 256]) /* ty=Tensor[(1568, 256), float32] */;
  } /* ty=fn (Tensor[(49, 32, 256), float32]) -> Tensor[(1568, 256), float16] */;
  %720 = %719(%718) /* ty=Tensor[(1568, 256), float16] */;
  %721 = fn (%p0144: Tensor[(1568, 256), float16] /* ty=Tensor[(1568, 256), float16] */, %p1108: Tensor[(2048, 256), float16] /* ty=Tensor[(2048, 256), float16] */, Primitive=1) -> Tensor[(1568, 2048), float16] {
    nn.dense(%p0144, %p1108, units=None, out_dtype="float16") /* ty=Tensor[(1568, 2048), float16] */
  } /* ty=fn (Tensor[(1568, 256), float16], Tensor[(2048, 256), float16]) -> Tensor[(1568, 2048), float16] */;
  %722 = %721(%720, meta[relay.Constant][174] /* ty=Tensor[(2048, 256), float16] */) /* ty=Tensor[(1568, 2048), float16] */;
  %723 = fn (%p0143: Tensor[(1568, 2048), float16] /* ty=Tensor[(1568, 2048), float16] */, %p1107: Tensor[(2048), float16] /* ty=Tensor[(2048), float16] */, Primitive=1) -> Tensor[(1568, 2048), float16] {
    %229 = reshape(%p0143, newshape=[49, 32, 2048]) /* ty=Tensor[(49, 32, 2048), float16] */;
    %230 = add(%p1107, %229) /* ty=Tensor[(49, 32, 2048), float16] */;
    %231 = nn.relu(%230) /* ty=Tensor[(49, 32, 2048), float16] */;
    reshape(%231, newshape=[-1, 2048]) /* ty=Tensor[(1568, 2048), float16] */
  } /* ty=fn (Tensor[(1568, 2048), float16], Tensor[(2048), float16]) -> Tensor[(1568, 2048), float16] */;
  %724 = %723(%722, meta[relay.Constant][175] /* ty=Tensor[(2048), float16] */) /* ty=Tensor[(1568, 2048), float16] */;
  %725 = fn (%p0142: Tensor[(1568, 2048), float16] /* ty=Tensor[(1568, 2048), float16] */, %p1106: Tensor[(256, 2048), float16] /* ty=Tensor[(256, 2048), float16] */, Primitive=1) -> Tensor[(1568, 256), float16] {
    nn.dense(%p0142, %p1106, units=None, out_dtype="float16") /* ty=Tensor[(1568, 256), float16] */
  } /* ty=fn (Tensor[(1568, 2048), float16], Tensor[(256, 2048), float16]) -> Tensor[(1568, 256), float16] */;
  %726 = %725(%724, meta[relay.Constant][176] /* ty=Tensor[(256, 2048), float16] */) /* ty=Tensor[(1568, 256), float16] */;
  %727 = fn (%p0141: Tensor[(1568, 256), float16] /* ty=Tensor[(1568, 256), float16] */, %p1105: Tensor[(256), float16] /* ty=Tensor[(256), float16] */, %p231: Tensor[(49, 32, 256), float16] /* ty=Tensor[(49, 32, 256), float16] */, Primitive=1) -> Tensor[(49, 32, 256), float32] {
    %226 = reshape(%p0141, newshape=[49, 32, 256]) /* ty=Tensor[(49, 32, 256), float16] */;
    %227 = add(%p1105, %226) /* ty=Tensor[(49, 32, 256), float16] */;
    %228 = cast(%227, dtype="float32") /* ty=Tensor[(49, 32, 256), float32] */;
    %229 = cast(%p231, dtype="float32") /* ty=Tensor[(49, 32, 256), float32] */;
    add(%229, %228) /* ty=Tensor[(49, 32, 256), float32] */
  } /* ty=fn (Tensor[(1568, 256), float16], Tensor[(256), float16], Tensor[(49, 32, 256), float32]) -> Tensor[(49, 32, 256), float32] */;
  %728 = %727(%726, meta[relay.Constant][177] /* ty=Tensor[(256), float16] */, %718) /* ty=Tensor[(49, 32, 256), float32] */;
  %729 = fn (%p0225: Tensor[(49, 32, 256), float32] /* ty=Tensor[(49, 32, 256), float32] */, Primitive=1) -> Tensor[(49, 32, 1), float32] {
    mean(%p0225, axis=[-1], keepdims=True) /* ty=Tensor[(49, 32, 1), float32] */
  } /* ty=fn (Tensor[(49, 32, 256), float32]) -> Tensor[(49, 32, 1), float32] */;
  %730 = %729(%728) /* ty=Tensor[(49, 32, 1), float32] */;
  %731 = fn (%p0140: Tensor[(49, 32, 256), float32] /* ty=Tensor[(49, 32, 256), float32] */, %p1104: Tensor[(49, 32, 1), float32] /* ty=Tensor[(49, 32, 1), float32] */, Primitive=1) -> Tensor[(49, 32, 256), float32] {
    subtract(%p0140, %p1104) /* ty=Tensor[(49, 32, 256), float32] */
  } /* ty=fn (Tensor[(49, 32, 256), float32], Tensor[(49, 32, 1), float32]) -> Tensor[(49, 32, 256), float32] */;
  %732 = %731(%728, %730) /* ty=Tensor[(49, 32, 256), float32] */;
  %733 = fn (%p0139: Tensor[(49, 32, 256), float32] /* ty=Tensor[(49, 32, 256), float32] */, Primitive=1) -> Tensor[(49, 32, 1), float32] {
    %225 = power(%p0139, 2f /* ty=float32 span=/transformer/encoder/layers.0/norm2/Constant:0:0 */) /* ty=Tensor[(49, 32, 256), float32] */;
    mean(%225, axis=[-1], keepdims=True) /* ty=Tensor[(49, 32, 1), float32] */
  } /* ty=fn (Tensor[(49, 32, 256), float32]) -> Tensor[(49, 32, 1), float32] */;
  %734 = %733(%732) /* ty=Tensor[(49, 32, 1), float32] */;
  %735 = fn (%p0138: Tensor[(49, 32, 1), float32] /* ty=Tensor[(49, 32, 1), float32] */, %p1103: Tensor[(49, 32, 256), float32] /* ty=Tensor[(49, 32, 256), float32] */, %p230: Tensor[(256), float32] /* ty=Tensor[(256), float32] */, %p313: Tensor[(256), float32] /* ty=Tensor[(256), float32] */, Primitive=1) -> Tensor[(49, 32, 256), float32] {
    %221 = add(%p0138, 1e-05f /* ty=float32 span=/transformer/encoder/layers.0/norm2/Constant_1:0:0 */) /* ty=Tensor[(49, 32, 1), float32] */;
    %222 = rsqrt(%221) /* ty=Tensor[(49, 32, 1), float32] */;
    %223 = multiply(%p1103, %222) /* ty=Tensor[(49, 32, 256), float32] */;
    %224 = multiply(%223, %p230) /* ty=Tensor[(49, 32, 256), float32] */;
    add(%224, %p313) /* ty=Tensor[(49, 32, 256), float32] */
  } /* ty=fn (Tensor[(49, 32, 1), float32], Tensor[(49, 32, 256), float32], Tensor[(256), float32], Tensor[(256), float32]) -> Tensor[(49, 32, 256), float32] */;
  %736 = %735(%734, %732, meta[relay.Constant][178] /* ty=Tensor[(256), float32] span=/transformer/encoder/layers.0/norm2/Mul.transformer.encoder.layers.0.norm2.weight:0:0 */, meta[relay.Constant][179] /* ty=Tensor[(256), float32] span=/transformer/encoder/layers.0/norm2/Add_1.transformer.encoder.layers.0.norm2.bias:0:0 */) /* ty=Tensor[(49, 32, 256), float32] */;
  %737 = fn (%p0137: Tensor[(49, 32, 256), float32] /* ty=Tensor[(49, 32, 256), float32] */, %p1102: Tensor[(49, 32, 256), float32] /* ty=Tensor[(49, 32, 256), float32] */, Primitive=1) -> Tensor[(49, 32, 256), float32] {
    add(%p0137, %p1102) /* ty=Tensor[(49, 32, 256), float32] */
  } /* ty=fn (Tensor[(49, 32, 256), float32], Tensor[(49, 32, 256), float32]) -> Tensor[(49, 32, 256), float32] */;
  %738 = %737(%736, meta[relay.Constant][180] /* ty=Tensor[(49, 32, 256), float32] span=/transformer/Transpose_1:0:0 */) /* ty=Tensor[(49, 32, 256), float32] */;
  %739 = fn (%p0136: Tensor[(49, 32, 256), float32] /* ty=Tensor[(49, 32, 256), float32] */, Primitive=1) -> Tensor[(1568, 256), float16] {
    %220 = reshape(%p0136, newshape=[-1, 256]) /* ty=Tensor[(1568, 256), float32] */;
    cast(%220, dtype="float16") /* ty=Tensor[(1568, 256), float16] */
  } /* ty=fn (Tensor[(49, 32, 256), float32]) -> Tensor[(1568, 256), float16] */;
  %740 = %739(%738) /* ty=Tensor[(1568, 256), float16] */;
  %741 = fn (%p0135: Tensor[(1568, 256), float16] /* ty=Tensor[(1568, 256), float16] */, %p1101: Tensor[(256, 256), float16] /* ty=Tensor[(256, 256), float16] */, Primitive=1) -> Tensor[(1568, 256), float16] {
    nn.dense(%p0135, %p1101, units=None, out_dtype="float16") /* ty=Tensor[(1568, 256), float16] */
  } /* ty=fn (Tensor[(1568, 256), float16], Tensor[(256, 256), float16]) -> Tensor[(1568, 256), float16] */;
  %742 = %741(%740, meta[relay.Constant][181] /* ty=Tensor[(256, 256), float16] */) /* ty=Tensor[(1568, 256), float16] */;
  %743 = fn (%p0134: Tensor[(1568, 256), float16] /* ty=Tensor[(1568, 256), float16] */, %p1100: Tensor[(256), float16] /* ty=Tensor[(256), float16] */, %p229: float16 /* ty=float16 */, Primitive=1) -> Tensor[(256, 49, 32), float16] {
    %216 = reshape(%p0134, newshape=[49, 32, 256]) /* ty=Tensor[(49, 32, 256), float16] */;
    %217 = add(%p1100, %216) /* ty=Tensor[(49, 32, 256), float16] */;
    %218 = reshape(%217, newshape=[49, 256, 32]) /* ty=Tensor[(49, 256, 32), float16] */;
    %219 = transpose(%218, axes=[1, 0, 2]) /* ty=Tensor[(256, 49, 32), float16] */;
    divide(%219, %p229) /* ty=Tensor[(256, 49, 32), float16] */
  } /* ty=fn (Tensor[(1568, 256), float16], Tensor[(256), float16], float16) -> Tensor[(256, 49, 32), float16] */;
  %748 = fn (%p0228: Tensor[(49, 32, 256), float32] /* ty=Tensor[(49, 32, 256), float32] */, Primitive=1) -> Tensor[(1568, 256), float16] {
    %747 = reshape(%p0228, newshape=[-1, 256]) /* ty=Tensor[(1568, 256), float32] */;
    cast(%747, dtype="float16") /* ty=Tensor[(1568, 256), float16] */
  } /* ty=fn (Tensor[(49, 32, 256), float32]) -> Tensor[(1568, 256), float16] */;
  %749 = %748(%738) /* ty=Tensor[(1568, 256), float16] */;
  %750 = fn (%p0227: Tensor[(1568, 256), float16] /* ty=Tensor[(1568, 256), float16] */, %p1180: Tensor[(256, 256), float16] /* ty=Tensor[(256, 256), float16] */, Primitive=1) -> Tensor[(1568, 256), float16] {
    nn.dense(%p0227, %p1180, units=None, out_dtype="float16") /* ty=Tensor[(1568, 256), float16] */
  } /* ty=fn (Tensor[(1568, 256), float16], Tensor[(256, 256), float16]) -> Tensor[(1568, 256), float16] */;
  %751 = %750(%749, meta[relay.Constant][183] /* ty=Tensor[(256, 256), float16] */) /* ty=Tensor[(1568, 256), float16] */;
  %752 = fn (%p0226: Tensor[(1568, 256), float16] /* ty=Tensor[(1568, 256), float16] */, %p1179: Tensor[(256), float16] /* ty=Tensor[(256), float16] */, Primitive=1) -> Tensor[(256, 49, 32), float16] {
    %744 = reshape(%p0226, newshape=[49, 32, 256]) /* ty=Tensor[(49, 32, 256), float16] */;
    %745 = add(%p1179, %744) /* ty=Tensor[(49, 32, 256), float16] */;
    %746 = reshape(%745, newshape=[49, 256, 32]) /* ty=Tensor[(49, 256, 32), float16] */;
    transpose(%746, axes=[1, 0, 2]) /* ty=Tensor[(256, 49, 32), float16] */
  } /* ty=fn (Tensor[(1568, 256), float16], Tensor[(256), float16]) -> Tensor[(256, 49, 32), float16] */;
  %753 = %743(%742, meta[relay.Constant][182] /* ty=Tensor[(256), float16] */, 5.65625f16 /* ty=float16 */) /* ty=Tensor[(256, 49, 32), float16] */;
  %754 = %752(%751, meta[relay.Constant][184] /* ty=Tensor[(256), float16] */) /* ty=Tensor[(256, 49, 32), float16] */;
  %755 = fn (%p0133: Tensor[(256, 49, 32), float16] /* ty=Tensor[(256, 49, 32), float16] */, %p199: Tensor[(256, 49, 32), float16] /* ty=Tensor[(256, 49, 32), float16] */, Primitive=1) -> Tensor[(256, 49, 49), float16] {
    nn.batch_matmul(%p0133, %p199, out_dtype="float16", transpose_b=True) /* ty=Tensor[(256, 49, 49), float16] */
  } /* ty=fn (Tensor[(256, 49, 32), float16], Tensor[(256, 49, 32), float16]) -> Tensor[(256, 49, 49), float16] */;
  %756 = %755(%753, %754) /* ty=Tensor[(256, 49, 49), float16] */;
  %757 = fn (%p0132: Tensor[(256, 49, 49), float16] /* ty=Tensor[(256, 49, 49), float16] */, %p198: Tensor[(256, 1, 49), float16] /* ty=Tensor[(256, 1, 49), float16] */, Primitive=1) -> Tensor[(256, 49, 49), float32] {
    %214 = reshape(%p0132, newshape=[256, 49, 49]) /* ty=Tensor[(256, 49, 49), float16] */;
    %215 = add(%214, %p198) /* ty=Tensor[(256, 49, 49), float16] */;
    cast(%215, dtype="float32") /* ty=Tensor[(256, 49, 49), float32] */
  } /* ty=fn (Tensor[(256, 49, 49), float16], Tensor[(256, 1, 49), float16]) -> Tensor[(256, 49, 49), float32] */;
  %758 = %757(%756, meta[relay.Constant][185] /* ty=Tensor[(256, 1, 49), float16] */) /* ty=Tensor[(256, 49, 49), float32] */;
  %759 = fn (%p0131: Tensor[(256, 49, 49), float32] /* ty=Tensor[(256, 49, 49), float32] */, Primitive=1) -> Tensor[(256, 49, 49), float16] {
    %213 = nn.softmax(%p0131, axis=2) /* ty=Tensor[(256, 49, 49), float32] */;
    cast(%213, dtype="float16") /* ty=Tensor[(256, 49, 49), float16] */
  } /* ty=fn (Tensor[(256, 49, 49), float32]) -> Tensor[(256, 49, 49), float16] */;
  %764 = fn (%p0231: Tensor[(49, 32, 256), float32] /* ty=Tensor[(49, 32, 256), float32] */, Primitive=1) -> Tensor[(1568, 256), float16] {
    %763 = reshape(%p0231, newshape=[-1, 256]) /* ty=Tensor[(1568, 256), float32] */;
    cast(%763, dtype="float16") /* ty=Tensor[(1568, 256), float16] */
  } /* ty=fn (Tensor[(49, 32, 256), float32]) -> Tensor[(1568, 256), float16] */;
  %765 = %764(%736) /* ty=Tensor[(1568, 256), float16] */;
  %766 = fn (%p0230: Tensor[(1568, 256), float16] /* ty=Tensor[(1568, 256), float16] */, %p1182: Tensor[(256, 256), float16] /* ty=Tensor[(256, 256), float16] */, Primitive=1) -> Tensor[(1568, 256), float16] {
    nn.dense(%p0230, %p1182, units=None, out_dtype="float16") /* ty=Tensor[(1568, 256), float16] */
  } /* ty=fn (Tensor[(1568, 256), float16], Tensor[(256, 256), float16]) -> Tensor[(1568, 256), float16] */;
  %767 = %766(%765, meta[relay.Constant][186] /* ty=Tensor[(256, 256), float16] */) /* ty=Tensor[(1568, 256), float16] */;
  %768 = fn (%p0229: Tensor[(1568, 256), float16] /* ty=Tensor[(1568, 256), float16] */, %p1181: Tensor[(256), float16] /* ty=Tensor[(256), float16] */, Primitive=1) -> Tensor[(256, 32, 49), float16] {
    %760 = reshape(%p0229, newshape=[49, 32, 256]) /* ty=Tensor[(49, 32, 256), float16] */;
    %761 = add(%p1181, %760) /* ty=Tensor[(49, 32, 256), float16] */;
    %762 = reshape(%761, newshape=[49, 256, 32]) /* ty=Tensor[(49, 256, 32), float16] */;
    transpose(%762, axes=[1, 2, 0]) /* ty=Tensor[(256, 32, 49), float16] */
  } /* ty=fn (Tensor[(1568, 256), float16], Tensor[(256), float16]) -> Tensor[(256, 32, 49), float16] */;
  %769 = %759(%758) /* ty=Tensor[(256, 49, 49), float16] */;
  %770 = %768(%767, meta[relay.Constant][187] /* ty=Tensor[(256), float16] */) /* ty=Tensor[(256, 32, 49), float16] */;
  %771 = fn (%p0130: Tensor[(256, 49, 49), float16] /* ty=Tensor[(256, 49, 49), float16] */, %p197: Tensor[(256, 32, 49), float16] /* ty=Tensor[(256, 32, 49), float16] */, Primitive=1) -> Tensor[(256, 49, 32), float16] {
    nn.batch_matmul(%p0130, %p197, out_dtype="float16", transpose_b=True) /* ty=Tensor[(256, 49, 32), float16] */
  } /* ty=fn (Tensor[(256, 49, 49), float16], Tensor[(256, 32, 49), float16]) -> Tensor[(256, 49, 32), float16] */;
  %772 = %771(%769, %770) /* ty=Tensor[(256, 49, 32), float16] */;
  %773 = fn (%p0129: Tensor[(256, 49, 32), float16] /* ty=Tensor[(256, 49, 32), float16] */, Primitive=1) -> Tensor[(1568, 256), float16] {
    %211 = reshape(%p0129, newshape=[256, 49, 32]) /* ty=Tensor[(256, 49, 32), float16] */;
    %212 = transpose(%211, axes=[1, 0, 2]) /* ty=Tensor[(49, 256, 32), float16] */;
    reshape(%212, newshape=[1568, 256]) /* ty=Tensor[(1568, 256), float16] */
  } /* ty=fn (Tensor[(256, 49, 32), float16]) -> Tensor[(1568, 256), float16] */;
  %774 = %773(%772) /* ty=Tensor[(1568, 256), float16] */;
  %775 = fn (%p0128: Tensor[(1568, 256), float16] /* ty=Tensor[(1568, 256), float16] */, %p196: Tensor[(256, 256), float16] /* ty=Tensor[(256, 256), float16] */, %p228: Tensor[(1, 256), float16] /* ty=Tensor[(1, 256), float16] */, Primitive=1) -> Tensor[(1568, 256), float16] {
    %210 = nn.dense(%p0128, %p196, units=256, out_dtype="float16") /* ty=Tensor[(1568, 256), float16] */;
    add(%210, %p228) /* ty=Tensor[(1568, 256), float16] */
  } /* ty=fn (Tensor[(1568, 256), float16], Tensor[(256, 256), float16], Tensor[(1, 256), float16]) -> Tensor[(1568, 256), float16] */;
  %776 = %775(%774, meta[relay.Constant][188] /* ty=Tensor[(256, 256), float16] */, meta[relay.Constant][189] /* ty=Tensor[(1, 256), float16] */) /* ty=Tensor[(1568, 256), float16] */;
  %777 = fn (%p0127: Tensor[(1568, 256), float16] /* ty=Tensor[(1568, 256), float16] */, %p195: Tensor[(49, 32, 256), float32] /* ty=Tensor[(49, 32, 256), float32] */, Primitive=1) -> Tensor[(49, 32, 256), float32] {
    %208 = reshape(%p0127, newshape=[49, 32, 256]) /* ty=Tensor[(49, 32, 256), float16] */;
    %209 = cast(%208, dtype="float32") /* ty=Tensor[(49, 32, 256), float32] */;
    add(%p195, %209) /* ty=Tensor[(49, 32, 256), float32] */
  } /* ty=fn (Tensor[(1568, 256), float16], Tensor[(49, 32, 256), float32]) -> Tensor[(49, 32, 256), float32] */;
  %778 = %777(%776, %736) /* ty=Tensor[(49, 32, 256), float32] */;
  %779 = fn (%p0232: Tensor[(49, 32, 256), float32] /* ty=Tensor[(49, 32, 256), float32] */, Primitive=1) -> Tensor[(49, 32, 1), float32] {
    mean(%p0232, axis=[-1], keepdims=True) /* ty=Tensor[(49, 32, 1), float32] */
  } /* ty=fn (Tensor[(49, 32, 256), float32]) -> Tensor[(49, 32, 1), float32] */;
  %780 = %779(%778) /* ty=Tensor[(49, 32, 1), float32] */;
  %781 = fn (%p0126: Tensor[(49, 32, 256), float32] /* ty=Tensor[(49, 32, 256), float32] */, %p194: Tensor[(49, 32, 1), float32] /* ty=Tensor[(49, 32, 1), float32] */, Primitive=1) -> Tensor[(49, 32, 256), float32] {
    subtract(%p0126, %p194) /* ty=Tensor[(49, 32, 256), float32] */
  } /* ty=fn (Tensor[(49, 32, 256), float32], Tensor[(49, 32, 1), float32]) -> Tensor[(49, 32, 256), float32] */;
  %782 = %781(%778, %780) /* ty=Tensor[(49, 32, 256), float32] */;
  %783 = fn (%p0125: Tensor[(49, 32, 256), float32] /* ty=Tensor[(49, 32, 256), float32] */, Primitive=1) -> Tensor[(49, 32, 1), float32] {
    %207 = power(%p0125, 2f /* ty=float32 span=/transformer/encoder/layers.1/norm1/Constant:0:0 */) /* ty=Tensor[(49, 32, 256), float32] */;
    mean(%207, axis=[-1], keepdims=True) /* ty=Tensor[(49, 32, 1), float32] */
  } /* ty=fn (Tensor[(49, 32, 256), float32]) -> Tensor[(49, 32, 1), float32] */;
  %784 = %783(%782) /* ty=Tensor[(49, 32, 1), float32] */;
  %785 = fn (%p0124: Tensor[(49, 32, 1), float32] /* ty=Tensor[(49, 32, 1), float32] */, %p193: Tensor[(49, 32, 256), float32] /* ty=Tensor[(49, 32, 256), float32] */, %p227: Tensor[(256), float32] /* ty=Tensor[(256), float32] */, %p312: Tensor[(256), float32] /* ty=Tensor[(256), float32] */, Primitive=1) -> Tensor[(49, 32, 256), float32] {
    %203 = add(%p0124, 1e-05f /* ty=float32 span=/transformer/encoder/layers.1/norm1/Constant_1:0:0 */) /* ty=Tensor[(49, 32, 1), float32] */;
    %204 = rsqrt(%203) /* ty=Tensor[(49, 32, 1), float32] */;
    %205 = multiply(%p193, %204) /* ty=Tensor[(49, 32, 256), float32] */;
    %206 = multiply(%205, %p227) /* ty=Tensor[(49, 32, 256), float32] */;
    add(%206, %p312) /* ty=Tensor[(49, 32, 256), float32] */
  } /* ty=fn (Tensor[(49, 32, 1), float32], Tensor[(49, 32, 256), float32], Tensor[(256), float32], Tensor[(256), float32]) -> Tensor[(49, 32, 256), float32] */;
  %786 = %785(%784, %782, meta[relay.Constant][190] /* ty=Tensor[(256), float32] span=/transformer/encoder/layers.1/norm1/Mul.transformer.encoder.layers.1.norm1.weight:0:0 */, meta[relay.Constant][191] /* ty=Tensor[(256), float32] span=/transformer/encoder/layers.1/norm1/Add_1.transformer.encoder.layers.1.norm1.bias:0:0 */) /* ty=Tensor[(49, 32, 256), float32] */;
  %787 = fn (%p0123: Tensor[(49, 32, 256), float32] /* ty=Tensor[(49, 32, 256), float32] */, Primitive=1) -> Tensor[(1568, 256), float16] {
    %202 = reshape(%p0123, newshape=[-1, 256]) /* ty=Tensor[(1568, 256), float32] */;
    cast(%202, dtype="float16") /* ty=Tensor[(1568, 256), float16] */
  } /* ty=fn (Tensor[(49, 32, 256), float32]) -> Tensor[(1568, 256), float16] */;
  %788 = %787(%786) /* ty=Tensor[(1568, 256), float16] */;
  %789 = fn (%p0122: Tensor[(1568, 256), float16] /* ty=Tensor[(1568, 256), float16] */, %p192: Tensor[(2048, 256), float16] /* ty=Tensor[(2048, 256), float16] */, Primitive=1) -> Tensor[(1568, 2048), float16] {
    nn.dense(%p0122, %p192, units=None, out_dtype="float16") /* ty=Tensor[(1568, 2048), float16] */
  } /* ty=fn (Tensor[(1568, 256), float16], Tensor[(2048, 256), float16]) -> Tensor[(1568, 2048), float16] */;
  %790 = %789(%788, meta[relay.Constant][192] /* ty=Tensor[(2048, 256), float16] */) /* ty=Tensor[(1568, 2048), float16] */;
  %791 = fn (%p0121: Tensor[(1568, 2048), float16] /* ty=Tensor[(1568, 2048), float16] */, %p191: Tensor[(2048), float16] /* ty=Tensor[(2048), float16] */, Primitive=1) -> Tensor[(1568, 2048), float16] {
    %199 = reshape(%p0121, newshape=[49, 32, 2048]) /* ty=Tensor[(49, 32, 2048), float16] */;
    %200 = add(%p191, %199) /* ty=Tensor[(49, 32, 2048), float16] */;
    %201 = nn.relu(%200) /* ty=Tensor[(49, 32, 2048), float16] */;
    reshape(%201, newshape=[-1, 2048]) /* ty=Tensor[(1568, 2048), float16] */
  } /* ty=fn (Tensor[(1568, 2048), float16], Tensor[(2048), float16]) -> Tensor[(1568, 2048), float16] */;
  %792 = %791(%790, meta[relay.Constant][193] /* ty=Tensor[(2048), float16] */) /* ty=Tensor[(1568, 2048), float16] */;
  %793 = fn (%p0120: Tensor[(1568, 2048), float16] /* ty=Tensor[(1568, 2048), float16] */, %p190: Tensor[(256, 2048), float16] /* ty=Tensor[(256, 2048), float16] */, Primitive=1) -> Tensor[(1568, 256), float16] {
    nn.dense(%p0120, %p190, units=None, out_dtype="float16") /* ty=Tensor[(1568, 256), float16] */
  } /* ty=fn (Tensor[(1568, 2048), float16], Tensor[(256, 2048), float16]) -> Tensor[(1568, 256), float16] */;
  %794 = %793(%792, meta[relay.Constant][194] /* ty=Tensor[(256, 2048), float16] */) /* ty=Tensor[(1568, 256), float16] */;
  %795 = fn (%p0119: Tensor[(1568, 256), float16] /* ty=Tensor[(1568, 256), float16] */, %p189: Tensor[(256), float16] /* ty=Tensor[(256), float16] */, %p226: Tensor[(49, 32, 256), float32] /* ty=Tensor[(49, 32, 256), float32] */, Primitive=1) -> Tensor[(49, 32, 256), float32] {
    %196 = reshape(%p0119, newshape=[49, 32, 256]) /* ty=Tensor[(49, 32, 256), float16] */;
    %197 = add(%p189, %196) /* ty=Tensor[(49, 32, 256), float16] */;
    %198 = cast(%197, dtype="float32") /* ty=Tensor[(49, 32, 256), float32] */;
    add(%p226, %198) /* ty=Tensor[(49, 32, 256), float32] */
  } /* ty=fn (Tensor[(1568, 256), float16], Tensor[(256), float16], Tensor[(49, 32, 256), float32]) -> Tensor[(49, 32, 256), float32] */;
  %796 = %795(%794, meta[relay.Constant][195] /* ty=Tensor[(256), float16] */, %786) /* ty=Tensor[(49, 32, 256), float32] */;
  %797 = fn (%p0233: Tensor[(49, 32, 256), float32] /* ty=Tensor[(49, 32, 256), float32] */, Primitive=1) -> Tensor[(49, 32, 1), float32] {
    mean(%p0233, axis=[-1], keepdims=True) /* ty=Tensor[(49, 32, 1), float32] */
  } /* ty=fn (Tensor[(49, 32, 256), float32]) -> Tensor[(49, 32, 1), float32] */;
  %798 = %797(%796) /* ty=Tensor[(49, 32, 1), float32] */;
  %799 = fn (%p0118: Tensor[(49, 32, 256), float32] /* ty=Tensor[(49, 32, 256), float32] */, %p188: Tensor[(49, 32, 1), float32] /* ty=Tensor[(49, 32, 1), float32] */, Primitive=1) -> Tensor[(49, 32, 256), float32] {
    subtract(%p0118, %p188) /* ty=Tensor[(49, 32, 256), float32] */
  } /* ty=fn (Tensor[(49, 32, 256), float32], Tensor[(49, 32, 1), float32]) -> Tensor[(49, 32, 256), float32] */;
  %800 = %799(%796, %798) /* ty=Tensor[(49, 32, 256), float32] */;
  %801 = fn (%p0117: Tensor[(49, 32, 256), float32] /* ty=Tensor[(49, 32, 256), float32] */, Primitive=1) -> Tensor[(49, 32, 1), float32] {
    %195 = power(%p0117, 2f /* ty=float32 span=/transformer/encoder/layers.1/norm2/Constant:0:0 */) /* ty=Tensor[(49, 32, 256), float32] */;
    mean(%195, axis=[-1], keepdims=True) /* ty=Tensor[(49, 32, 1), float32] */
  } /* ty=fn (Tensor[(49, 32, 256), float32]) -> Tensor[(49, 32, 1), float32] */;
  %802 = %801(%800) /* ty=Tensor[(49, 32, 1), float32] */;
  %803 = fn (%p0116: Tensor[(49, 32, 1), float32] /* ty=Tensor[(49, 32, 1), float32] */, %p187: Tensor[(49, 32, 256), float32] /* ty=Tensor[(49, 32, 256), float32] */, %p225: Tensor[(256), float32] /* ty=Tensor[(256), float32] */, %p311: Tensor[(256), float32] /* ty=Tensor[(256), float32] */, Primitive=1) -> Tensor[(49, 32, 256), float32] {
    %191 = add(%p0116, 1e-05f /* ty=float32 span=/transformer/encoder/layers.1/norm2/Constant_1:0:0 */) /* ty=Tensor[(49, 32, 1), float32] */;
    %192 = rsqrt(%191) /* ty=Tensor[(49, 32, 1), float32] */;
    %193 = multiply(%p187, %192) /* ty=Tensor[(49, 32, 256), float32] */;
    %194 = multiply(%193, %p225) /* ty=Tensor[(49, 32, 256), float32] */;
    add(%194, %p311) /* ty=Tensor[(49, 32, 256), float32] */
  } /* ty=fn (Tensor[(49, 32, 1), float32], Tensor[(49, 32, 256), float32], Tensor[(256), float32], Tensor[(256), float32]) -> Tensor[(49, 32, 256), float32] */;
  %804 = %803(%802, %800, meta[relay.Constant][196] /* ty=Tensor[(256), float32] span=/transformer/encoder/layers.1/norm2/Mul.transformer.encoder.layers.1.norm2.weight:0:0 */, meta[relay.Constant][197] /* ty=Tensor[(256), float32] span=/transformer/encoder/layers.1/norm2/Add_1.transformer.encoder.layers.1.norm2.bias:0:0 */) /* ty=Tensor[(49, 32, 256), float32] */;
  %805 = fn (%p0115: Tensor[(49, 32, 256), float32] /* ty=Tensor[(49, 32, 256), float32] */, %p186: Tensor[(49, 32, 256), float32] /* ty=Tensor[(49, 32, 256), float32] */, Primitive=1) -> Tensor[(49, 32, 256), float32] {
    add(%p0115, %p186) /* ty=Tensor[(49, 32, 256), float32] */
  } /* ty=fn (Tensor[(49, 32, 256), float32], Tensor[(49, 32, 256), float32]) -> Tensor[(49, 32, 256), float32] */;
  %806 = %805(%804, meta[relay.Constant][180] /* ty=Tensor[(49, 32, 256), float32] span=/transformer/Transpose_1:0:0 */) /* ty=Tensor[(49, 32, 256), float32] */;
  %807 = fn (%p0114: Tensor[(49, 32, 256), float32] /* ty=Tensor[(49, 32, 256), float32] */, Primitive=1) -> Tensor[(1568, 256), float16] {
    %190 = reshape(%p0114, newshape=[-1, 256]) /* ty=Tensor[(1568, 256), float32] */;
    cast(%190, dtype="float16") /* ty=Tensor[(1568, 256), float16] */
  } /* ty=fn (Tensor[(49, 32, 256), float32]) -> Tensor[(1568, 256), float16] */;
  %808 = %807(%806) /* ty=Tensor[(1568, 256), float16] */;
  %809 = fn (%p0113: Tensor[(1568, 256), float16] /* ty=Tensor[(1568, 256), float16] */, %p185: Tensor[(256, 256), float16] /* ty=Tensor[(256, 256), float16] */, Primitive=1) -> Tensor[(1568, 256), float16] {
    nn.dense(%p0113, %p185, units=None, out_dtype="float16") /* ty=Tensor[(1568, 256), float16] */
  } /* ty=fn (Tensor[(1568, 256), float16], Tensor[(256, 256), float16]) -> Tensor[(1568, 256), float16] */;
  %810 = %809(%808, meta[relay.Constant][198] /* ty=Tensor[(256, 256), float16] */) /* ty=Tensor[(1568, 256), float16] */;
  %811 = fn (%p0112: Tensor[(1568, 256), float16] /* ty=Tensor[(1568, 256), float16] */, %p184: Tensor[(256), float16] /* ty=Tensor[(256), float16] */, %p224: float16 /* ty=float16 */, Primitive=1) -> Tensor[(256, 49, 32), float16] {
    %186 = reshape(%p0112, newshape=[49, 32, 256]) /* ty=Tensor[(49, 32, 256), float16] */;
    %187 = add(%p184, %186) /* ty=Tensor[(49, 32, 256), float16] */;
    %188 = reshape(%187, newshape=[49, 256, 32]) /* ty=Tensor[(49, 256, 32), float16] */;
    %189 = transpose(%188, axes=[1, 0, 2]) /* ty=Tensor[(256, 49, 32), float16] */;
    divide(%189, %p224) /* ty=Tensor[(256, 49, 32), float16] */
  } /* ty=fn (Tensor[(1568, 256), float16], Tensor[(256), float16], float16) -> Tensor[(256, 49, 32), float16] */;
  %816 = fn (%p0236: Tensor[(49, 32, 256), float32] /* ty=Tensor[(49, 32, 256), float32] */, Primitive=1) -> Tensor[(1568, 256), float16] {
    %815 = reshape(%p0236, newshape=[-1, 256]) /* ty=Tensor[(1568, 256), float32] */;
    cast(%815, dtype="float16") /* ty=Tensor[(1568, 256), float16] */
  } /* ty=fn (Tensor[(49, 32, 256), float32]) -> Tensor[(1568, 256), float16] */;
  %817 = %816(%806) /* ty=Tensor[(1568, 256), float16] */;
  %818 = fn (%p0235: Tensor[(1568, 256), float16] /* ty=Tensor[(1568, 256), float16] */, %p1184: Tensor[(256, 256), float16] /* ty=Tensor[(256, 256), float16] */, Primitive=1) -> Tensor[(1568, 256), float16] {
    nn.dense(%p0235, %p1184, units=None, out_dtype="float16") /* ty=Tensor[(1568, 256), float16] */
  } /* ty=fn (Tensor[(1568, 256), float16], Tensor[(256, 256), float16]) -> Tensor[(1568, 256), float16] */;
  %819 = %818(%817, meta[relay.Constant][200] /* ty=Tensor[(256, 256), float16] */) /* ty=Tensor[(1568, 256), float16] */;
  %820 = fn (%p0234: Tensor[(1568, 256), float16] /* ty=Tensor[(1568, 256), float16] */, %p1183: Tensor[(256), float16] /* ty=Tensor[(256), float16] */, Primitive=1) -> Tensor[(256, 49, 32), float16] {
    %812 = reshape(%p0234, newshape=[49, 32, 256]) /* ty=Tensor[(49, 32, 256), float16] */;
    %813 = add(%p1183, %812) /* ty=Tensor[(49, 32, 256), float16] */;
    %814 = reshape(%813, newshape=[49, 256, 32]) /* ty=Tensor[(49, 256, 32), float16] */;
    transpose(%814, axes=[1, 0, 2]) /* ty=Tensor[(256, 49, 32), float16] */
  } /* ty=fn (Tensor[(1568, 256), float16], Tensor[(256), float16]) -> Tensor[(256, 49, 32), float16] */;
  %821 = %811(%810, meta[relay.Constant][199] /* ty=Tensor[(256), float16] */, 5.65625f16 /* ty=float16 */) /* ty=Tensor[(256, 49, 32), float16] */;
  %822 = %820(%819, meta[relay.Constant][201] /* ty=Tensor[(256), float16] */) /* ty=Tensor[(256, 49, 32), float16] */;
  %823 = fn (%p0111: Tensor[(256, 49, 32), float16] /* ty=Tensor[(256, 49, 32), float16] */, %p183: Tensor[(256, 49, 32), float16] /* ty=Tensor[(256, 49, 32), float16] */, Primitive=1) -> Tensor[(256, 49, 49), float16] {
    nn.batch_matmul(%p0111, %p183, out_dtype="float16", transpose_b=True) /* ty=Tensor[(256, 49, 49), float16] */
  } /* ty=fn (Tensor[(256, 49, 32), float16], Tensor[(256, 49, 32), float16]) -> Tensor[(256, 49, 49), float16] */;
  %824 = %823(%821, %822) /* ty=Tensor[(256, 49, 49), float16] */;
  %825 = fn (%p0110: Tensor[(256, 49, 49), float16] /* ty=Tensor[(256, 49, 49), float16] */, %p182: Tensor[(256, 1, 49), float16] /* ty=Tensor[(256, 1, 49), float16] */, Primitive=1) -> Tensor[(256, 49, 49), float32] {
    %184 = reshape(%p0110, newshape=[256, 49, 49]) /* ty=Tensor[(256, 49, 49), float16] */;
    %185 = add(%184, %p182) /* ty=Tensor[(256, 49, 49), float16] */;
    cast(%185, dtype="float32") /* ty=Tensor[(256, 49, 49), float32] */
  } /* ty=fn (Tensor[(256, 49, 49), float16], Tensor[(256, 1, 49), float16]) -> Tensor[(256, 49, 49), float32] */;
  %826 = %825(%824, meta[relay.Constant][202] /* ty=Tensor[(256, 1, 49), float16] */) /* ty=Tensor[(256, 49, 49), float32] */;
  %827 = fn (%p0109: Tensor[(256, 49, 49), float32] /* ty=Tensor[(256, 49, 49), float32] */, Primitive=1) -> Tensor[(256, 49, 49), float16] {
    %183 = nn.softmax(%p0109, axis=2) /* ty=Tensor[(256, 49, 49), float32] */;
    cast(%183, dtype="float16") /* ty=Tensor[(256, 49, 49), float16] */
  } /* ty=fn (Tensor[(256, 49, 49), float32]) -> Tensor[(256, 49, 49), float16] */;
  %832 = fn (%p0239: Tensor[(49, 32, 256), float32] /* ty=Tensor[(49, 32, 256), float32] */, Primitive=1) -> Tensor[(1568, 256), float16] {
    %831 = reshape(%p0239, newshape=[-1, 256]) /* ty=Tensor[(1568, 256), float32] */;
    cast(%831, dtype="float16") /* ty=Tensor[(1568, 256), float16] */
  } /* ty=fn (Tensor[(49, 32, 256), float32]) -> Tensor[(1568, 256), float16] */;
  %833 = %832(%804) /* ty=Tensor[(1568, 256), float16] */;
  %834 = fn (%p0238: Tensor[(1568, 256), float16] /* ty=Tensor[(1568, 256), float16] */, %p1186: Tensor[(256, 256), float16] /* ty=Tensor[(256, 256), float16] */, Primitive=1) -> Tensor[(1568, 256), float16] {
    nn.dense(%p0238, %p1186, units=None, out_dtype="float16") /* ty=Tensor[(1568, 256), float16] */
  } /* ty=fn (Tensor[(1568, 256), float16], Tensor[(256, 256), float16]) -> Tensor[(1568, 256), float16] */;
  %835 = %834(%833, meta[relay.Constant][203] /* ty=Tensor[(256, 256), float16] */) /* ty=Tensor[(1568, 256), float16] */;
  %836 = fn (%p0237: Tensor[(1568, 256), float16] /* ty=Tensor[(1568, 256), float16] */, %p1185: Tensor[(256), float16] /* ty=Tensor[(256), float16] */, Primitive=1) -> Tensor[(256, 32, 49), float16] {
    %828 = reshape(%p0237, newshape=[49, 32, 256]) /* ty=Tensor[(49, 32, 256), float16] */;
    %829 = add(%p1185, %828) /* ty=Tensor[(49, 32, 256), float16] */;
    %830 = reshape(%829, newshape=[49, 256, 32]) /* ty=Tensor[(49, 256, 32), float16] */;
    transpose(%830, axes=[1, 2, 0]) /* ty=Tensor[(256, 32, 49), float16] */
  } /* ty=fn (Tensor[(1568, 256), float16], Tensor[(256), float16]) -> Tensor[(256, 32, 49), float16] */;
  %837 = %827(%826) /* ty=Tensor[(256, 49, 49), float16] */;
  %838 = %836(%835, meta[relay.Constant][204] /* ty=Tensor[(256), float16] */) /* ty=Tensor[(256, 32, 49), float16] */;
  %839 = fn (%p0108: Tensor[(256, 49, 49), float16] /* ty=Tensor[(256, 49, 49), float16] */, %p181: Tensor[(256, 32, 49), float16] /* ty=Tensor[(256, 32, 49), float16] */, Primitive=1) -> Tensor[(256, 49, 32), float16] {
    nn.batch_matmul(%p0108, %p181, out_dtype="float16", transpose_b=True) /* ty=Tensor[(256, 49, 32), float16] */
  } /* ty=fn (Tensor[(256, 49, 49), float16], Tensor[(256, 32, 49), float16]) -> Tensor[(256, 49, 32), float16] */;
  %840 = %839(%837, %838) /* ty=Tensor[(256, 49, 32), float16] */;
  %841 = fn (%p0107: Tensor[(256, 49, 32), float16] /* ty=Tensor[(256, 49, 32), float16] */, Primitive=1) -> Tensor[(1568, 256), float16] {
    %181 = reshape(%p0107, newshape=[256, 49, 32]) /* ty=Tensor[(256, 49, 32), float16] */;
    %182 = transpose(%181, axes=[1, 0, 2]) /* ty=Tensor[(49, 256, 32), float16] */;
    reshape(%182, newshape=[1568, 256]) /* ty=Tensor[(1568, 256), float16] */
  } /* ty=fn (Tensor[(256, 49, 32), float16]) -> Tensor[(1568, 256), float16] */;
  %842 = %841(%840) /* ty=Tensor[(1568, 256), float16] */;
  %843 = fn (%p0106: Tensor[(1568, 256), float16] /* ty=Tensor[(1568, 256), float16] */, %p180: Tensor[(256, 256), float16] /* ty=Tensor[(256, 256), float16] */, %p223: Tensor[(1, 256), float16] /* ty=Tensor[(1, 256), float16] */, Primitive=1) -> Tensor[(1568, 256), float16] {
    %180 = nn.dense(%p0106, %p180, units=256, out_dtype="float16") /* ty=Tensor[(1568, 256), float16] */;
    add(%180, %p223) /* ty=Tensor[(1568, 256), float16] */
  } /* ty=fn (Tensor[(1568, 256), float16], Tensor[(256, 256), float16], Tensor[(1, 256), float16]) -> Tensor[(1568, 256), float16] */;
  %844 = %843(%842, meta[relay.Constant][205] /* ty=Tensor[(256, 256), float16] */, meta[relay.Constant][206] /* ty=Tensor[(1, 256), float16] */) /* ty=Tensor[(1568, 256), float16] */;
  %845 = fn (%p0105: Tensor[(1568, 256), float16] /* ty=Tensor[(1568, 256), float16] */, %p179: Tensor[(49, 32, 256), float32] /* ty=Tensor[(49, 32, 256), float32] */, Primitive=1) -> Tensor[(49, 32, 256), float32] {
    %178 = reshape(%p0105, newshape=[49, 32, 256]) /* ty=Tensor[(49, 32, 256), float16] */;
    %179 = cast(%178, dtype="float32") /* ty=Tensor[(49, 32, 256), float32] */;
    add(%p179, %179) /* ty=Tensor[(49, 32, 256), float32] */
  } /* ty=fn (Tensor[(1568, 256), float16], Tensor[(49, 32, 256), float32]) -> Tensor[(49, 32, 256), float32] */;
  %846 = %845(%844, %804) /* ty=Tensor[(49, 32, 256), float32] */;
  %847 = fn (%p0240: Tensor[(49, 32, 256), float32] /* ty=Tensor[(49, 32, 256), float32] */, Primitive=1) -> Tensor[(49, 32, 1), float32] {
    mean(%p0240, axis=[-1], keepdims=True) /* ty=Tensor[(49, 32, 1), float32] */
  } /* ty=fn (Tensor[(49, 32, 256), float32]) -> Tensor[(49, 32, 1), float32] */;
  %848 = %847(%846) /* ty=Tensor[(49, 32, 1), float32] */;
  %849 = fn (%p0104: Tensor[(49, 32, 256), float32] /* ty=Tensor[(49, 32, 256), float32] */, %p178: Tensor[(49, 32, 1), float32] /* ty=Tensor[(49, 32, 1), float32] */, Primitive=1) -> Tensor[(49, 32, 256), float32] {
    subtract(%p0104, %p178) /* ty=Tensor[(49, 32, 256), float32] */
  } /* ty=fn (Tensor[(49, 32, 256), float32], Tensor[(49, 32, 1), float32]) -> Tensor[(49, 32, 256), float32] */;
  %850 = %849(%846, %848) /* ty=Tensor[(49, 32, 256), float32] */;
  %851 = fn (%p0103: Tensor[(49, 32, 256), float32] /* ty=Tensor[(49, 32, 256), float32] */, Primitive=1) -> Tensor[(49, 32, 1), float32] {
    %177 = power(%p0103, 2f /* ty=float32 span=/transformer/encoder/layers.2/norm1/Constant:0:0 */) /* ty=Tensor[(49, 32, 256), float32] */;
    mean(%177, axis=[-1], keepdims=True) /* ty=Tensor[(49, 32, 1), float32] */
  } /* ty=fn (Tensor[(49, 32, 256), float32]) -> Tensor[(49, 32, 1), float32] */;
  %852 = %851(%850) /* ty=Tensor[(49, 32, 1), float32] */;
  %853 = fn (%p0102: Tensor[(49, 32, 1), float32] /* ty=Tensor[(49, 32, 1), float32] */, %p177: Tensor[(49, 32, 256), float32] /* ty=Tensor[(49, 32, 256), float32] */, %p222: Tensor[(256), float32] /* ty=Tensor[(256), float32] */, %p310: Tensor[(256), float32] /* ty=Tensor[(256), float32] */, Primitive=1) -> Tensor[(49, 32, 256), float32] {
    %173 = add(%p0102, 1e-05f /* ty=float32 span=/transformer/encoder/layers.2/norm1/Constant_1:0:0 */) /* ty=Tensor[(49, 32, 1), float32] */;
    %174 = rsqrt(%173) /* ty=Tensor[(49, 32, 1), float32] */;
    %175 = multiply(%p177, %174) /* ty=Tensor[(49, 32, 256), float32] */;
    %176 = multiply(%175, %p222) /* ty=Tensor[(49, 32, 256), float32] */;
    add(%176, %p310) /* ty=Tensor[(49, 32, 256), float32] */
  } /* ty=fn (Tensor[(49, 32, 1), float32], Tensor[(49, 32, 256), float32], Tensor[(256), float32], Tensor[(256), float32]) -> Tensor[(49, 32, 256), float32] */;
  %854 = %853(%852, %850, meta[relay.Constant][207] /* ty=Tensor[(256), float32] span=/transformer/encoder/layers.2/norm1/Mul.transformer.encoder.layers.2.norm1.weight:0:0 */, meta[relay.Constant][208] /* ty=Tensor[(256), float32] span=/transformer/encoder/layers.2/norm1/Add_1.transformer.encoder.layers.2.norm1.bias:0:0 */) /* ty=Tensor[(49, 32, 256), float32] */;
  %855 = fn (%p0101: Tensor[(49, 32, 256), float32] /* ty=Tensor[(49, 32, 256), float32] */, Primitive=1) -> Tensor[(1568, 256), float16] {
    %172 = reshape(%p0101, newshape=[-1, 256]) /* ty=Tensor[(1568, 256), float32] */;
    cast(%172, dtype="float16") /* ty=Tensor[(1568, 256), float16] */
  } /* ty=fn (Tensor[(49, 32, 256), float32]) -> Tensor[(1568, 256), float16] */;
  %856 = %855(%854) /* ty=Tensor[(1568, 256), float16] */;
  %857 = fn (%p0100: Tensor[(1568, 256), float16] /* ty=Tensor[(1568, 256), float16] */, %p176: Tensor[(2048, 256), float16] /* ty=Tensor[(2048, 256), float16] */, Primitive=1) -> Tensor[(1568, 2048), float16] {
    nn.dense(%p0100, %p176, units=None, out_dtype="float16") /* ty=Tensor[(1568, 2048), float16] */
  } /* ty=fn (Tensor[(1568, 256), float16], Tensor[(2048, 256), float16]) -> Tensor[(1568, 2048), float16] */;
  %858 = %857(%856, meta[relay.Constant][209] /* ty=Tensor[(2048, 256), float16] */) /* ty=Tensor[(1568, 2048), float16] */;
  %859 = fn (%p099: Tensor[(1568, 2048), float16] /* ty=Tensor[(1568, 2048), float16] */, %p175: Tensor[(2048), float16] /* ty=Tensor[(2048), float16] */, Primitive=1) -> Tensor[(1568, 2048), float16] {
    %169 = reshape(%p099, newshape=[49, 32, 2048]) /* ty=Tensor[(49, 32, 2048), float16] */;
    %170 = add(%p175, %169) /* ty=Tensor[(49, 32, 2048), float16] */;
    %171 = nn.relu(%170) /* ty=Tensor[(49, 32, 2048), float16] */;
    reshape(%171, newshape=[-1, 2048]) /* ty=Tensor[(1568, 2048), float16] */
  } /* ty=fn (Tensor[(1568, 2048), float16], Tensor[(2048), float16]) -> Tensor[(1568, 2048), float16] */;
  %860 = %859(%858, meta[relay.Constant][210] /* ty=Tensor[(2048), float16] */) /* ty=Tensor[(1568, 2048), float16] */;
  %861 = fn (%p098: Tensor[(1568, 2048), float16] /* ty=Tensor[(1568, 2048), float16] */, %p174: Tensor[(256, 2048), float16] /* ty=Tensor[(256, 2048), float16] */, Primitive=1) -> Tensor[(1568, 256), float16] {
    nn.dense(%p098, %p174, units=None, out_dtype="float16") /* ty=Tensor[(1568, 256), float16] */
  } /* ty=fn (Tensor[(1568, 2048), float16], Tensor[(256, 2048), float16]) -> Tensor[(1568, 256), float16] */;
  %862 = %861(%860, meta[relay.Constant][211] /* ty=Tensor[(256, 2048), float16] */) /* ty=Tensor[(1568, 256), float16] */;
  %863 = fn (%p097: Tensor[(1568, 256), float16] /* ty=Tensor[(1568, 256), float16] */, %p173: Tensor[(256), float16] /* ty=Tensor[(256), float16] */, %p221: Tensor[(49, 32, 256), float32] /* ty=Tensor[(49, 32, 256), float32] */, Primitive=1) -> Tensor[(49, 32, 256), float32] {
    %166 = reshape(%p097, newshape=[49, 32, 256]) /* ty=Tensor[(49, 32, 256), float16] */;
    %167 = add(%p173, %166) /* ty=Tensor[(49, 32, 256), float16] */;
    %168 = cast(%167, dtype="float32") /* ty=Tensor[(49, 32, 256), float32] */;
    add(%p221, %168) /* ty=Tensor[(49, 32, 256), float32] */
  } /* ty=fn (Tensor[(1568, 256), float16], Tensor[(256), float16], Tensor[(49, 32, 256), float32]) -> Tensor[(49, 32, 256), float32] */;
  %864 = %863(%862, meta[relay.Constant][212] /* ty=Tensor[(256), float16] */, %854) /* ty=Tensor[(49, 32, 256), float32] */;
  %865 = fn (%p0241: Tensor[(49, 32, 256), float32] /* ty=Tensor[(49, 32, 256), float32] */, Primitive=1) -> Tensor[(49, 32, 1), float32] {
    mean(%p0241, axis=[-1], keepdims=True) /* ty=Tensor[(49, 32, 1), float32] */
  } /* ty=fn (Tensor[(49, 32, 256), float32]) -> Tensor[(49, 32, 1), float32] */;
  %866 = %865(%864) /* ty=Tensor[(49, 32, 1), float32] */;
  %867 = fn (%p096: Tensor[(49, 32, 256), float32] /* ty=Tensor[(49, 32, 256), float32] */, %p172: Tensor[(49, 32, 1), float32] /* ty=Tensor[(49, 32, 1), float32] */, Primitive=1) -> Tensor[(49, 32, 256), float32] {
    subtract(%p096, %p172) /* ty=Tensor[(49, 32, 256), float32] */
  } /* ty=fn (Tensor[(49, 32, 256), float32], Tensor[(49, 32, 1), float32]) -> Tensor[(49, 32, 256), float32] */;
  %868 = %867(%864, %866) /* ty=Tensor[(49, 32, 256), float32] */;
  %869 = fn (%p095: Tensor[(49, 32, 256), float32] /* ty=Tensor[(49, 32, 256), float32] */, Primitive=1) -> Tensor[(49, 32, 1), float32] {
    %165 = power(%p095, 2f /* ty=float32 span=/transformer/encoder/layers.2/norm2/Constant:0:0 */) /* ty=Tensor[(49, 32, 256), float32] */;
    mean(%165, axis=[-1], keepdims=True) /* ty=Tensor[(49, 32, 1), float32] */
  } /* ty=fn (Tensor[(49, 32, 256), float32]) -> Tensor[(49, 32, 1), float32] */;
  %870 = %869(%868) /* ty=Tensor[(49, 32, 1), float32] */;
  %871 = fn (%p094: Tensor[(49, 32, 1), float32] /* ty=Tensor[(49, 32, 1), float32] */, %p171: Tensor[(49, 32, 256), float32] /* ty=Tensor[(49, 32, 256), float32] */, %p220: Tensor[(256), float32] /* ty=Tensor[(256), float32] */, %p39: Tensor[(256), float32] /* ty=Tensor[(256), float32] */, Primitive=1) -> Tensor[(49, 32, 256), float32] {
    %161 = add(%p094, 1e-05f /* ty=float32 span=/transformer/encoder/layers.2/norm2/Constant_1:0:0 */) /* ty=Tensor[(49, 32, 1), float32] */;
    %162 = rsqrt(%161) /* ty=Tensor[(49, 32, 1), float32] */;
    %163 = multiply(%p171, %162) /* ty=Tensor[(49, 32, 256), float32] */;
    %164 = multiply(%163, %p220) /* ty=Tensor[(49, 32, 256), float32] */;
    add(%164, %p39) /* ty=Tensor[(49, 32, 256), float32] */
  } /* ty=fn (Tensor[(49, 32, 1), float32], Tensor[(49, 32, 256), float32], Tensor[(256), float32], Tensor[(256), float32]) -> Tensor[(49, 32, 256), float32] */;
  %872 = %871(%870, %868, meta[relay.Constant][213] /* ty=Tensor[(256), float32] span=/transformer/encoder/layers.2/norm2/Mul.transformer.encoder.layers.2.norm2.weight:0:0 */, meta[relay.Constant][214] /* ty=Tensor[(256), float32] span=/transformer/encoder/layers.2/norm2/Add_1.transformer.encoder.layers.2.norm2.bias:0:0 */) /* ty=Tensor[(49, 32, 256), float32] */;
  %873 = fn (%p093: Tensor[(49, 32, 256), float32] /* ty=Tensor[(49, 32, 256), float32] */, %p170: Tensor[(49, 32, 256), float32] /* ty=Tensor[(49, 32, 256), float32] */, Primitive=1) -> Tensor[(49, 32, 256), float32] {
    add(%p093, %p170) /* ty=Tensor[(49, 32, 256), float32] */
  } /* ty=fn (Tensor[(49, 32, 256), float32], Tensor[(49, 32, 256), float32]) -> Tensor[(49, 32, 256), float32] */;
  %874 = %873(%872, meta[relay.Constant][180] /* ty=Tensor[(49, 32, 256), float32] span=/transformer/Transpose_1:0:0 */) /* ty=Tensor[(49, 32, 256), float32] */;
  %875 = fn (%p092: Tensor[(49, 32, 256), float32] /* ty=Tensor[(49, 32, 256), float32] */, Primitive=1) -> Tensor[(1568, 256), float16] {
    %160 = reshape(%p092, newshape=[-1, 256]) /* ty=Tensor[(1568, 256), float32] */;
    cast(%160, dtype="float16") /* ty=Tensor[(1568, 256), float16] */
  } /* ty=fn (Tensor[(49, 32, 256), float32]) -> Tensor[(1568, 256), float16] */;
  %876 = %875(%874) /* ty=Tensor[(1568, 256), float16] */;
  %877 = fn (%p091: Tensor[(1568, 256), float16] /* ty=Tensor[(1568, 256), float16] */, %p169: Tensor[(256, 256), float16] /* ty=Tensor[(256, 256), float16] */, Primitive=1) -> Tensor[(1568, 256), float16] {
    nn.dense(%p091, %p169, units=None, out_dtype="float16") /* ty=Tensor[(1568, 256), float16] */
  } /* ty=fn (Tensor[(1568, 256), float16], Tensor[(256, 256), float16]) -> Tensor[(1568, 256), float16] */;
  %878 = %877(%876, meta[relay.Constant][215] /* ty=Tensor[(256, 256), float16] */) /* ty=Tensor[(1568, 256), float16] */;
  %879 = fn (%p090: Tensor[(1568, 256), float16] /* ty=Tensor[(1568, 256), float16] */, %p168: Tensor[(256), float16] /* ty=Tensor[(256), float16] */, %p219: float16 /* ty=float16 */, Primitive=1) -> Tensor[(256, 49, 32), float16] {
    %156 = reshape(%p090, newshape=[49, 32, 256]) /* ty=Tensor[(49, 32, 256), float16] */;
    %157 = add(%p168, %156) /* ty=Tensor[(49, 32, 256), float16] */;
    %158 = reshape(%157, newshape=[49, 256, 32]) /* ty=Tensor[(49, 256, 32), float16] */;
    %159 = transpose(%158, axes=[1, 0, 2]) /* ty=Tensor[(256, 49, 32), float16] */;
    divide(%159, %p219) /* ty=Tensor[(256, 49, 32), float16] */
  } /* ty=fn (Tensor[(1568, 256), float16], Tensor[(256), float16], float16) -> Tensor[(256, 49, 32), float16] */;
  %884 = fn (%p0244: Tensor[(49, 32, 256), float32] /* ty=Tensor[(49, 32, 256), float32] */, Primitive=1) -> Tensor[(1568, 256), float16] {
    %883 = reshape(%p0244, newshape=[-1, 256]) /* ty=Tensor[(1568, 256), float32] */;
    cast(%883, dtype="float16") /* ty=Tensor[(1568, 256), float16] */
  } /* ty=fn (Tensor[(49, 32, 256), float32]) -> Tensor[(1568, 256), float16] */;
  %885 = %884(%874) /* ty=Tensor[(1568, 256), float16] */;
  %886 = fn (%p0243: Tensor[(1568, 256), float16] /* ty=Tensor[(1568, 256), float16] */, %p1188: Tensor[(256, 256), float16] /* ty=Tensor[(256, 256), float16] */, Primitive=1) -> Tensor[(1568, 256), float16] {
    nn.dense(%p0243, %p1188, units=None, out_dtype="float16") /* ty=Tensor[(1568, 256), float16] */
  } /* ty=fn (Tensor[(1568, 256), float16], Tensor[(256, 256), float16]) -> Tensor[(1568, 256), float16] */;
  %887 = %886(%885, meta[relay.Constant][217] /* ty=Tensor[(256, 256), float16] */) /* ty=Tensor[(1568, 256), float16] */;
  %888 = fn (%p0242: Tensor[(1568, 256), float16] /* ty=Tensor[(1568, 256), float16] */, %p1187: Tensor[(256), float16] /* ty=Tensor[(256), float16] */, Primitive=1) -> Tensor[(256, 49, 32), float16] {
    %880 = reshape(%p0242, newshape=[49, 32, 256]) /* ty=Tensor[(49, 32, 256), float16] */;
    %881 = add(%p1187, %880) /* ty=Tensor[(49, 32, 256), float16] */;
    %882 = reshape(%881, newshape=[49, 256, 32]) /* ty=Tensor[(49, 256, 32), float16] */;
    transpose(%882, axes=[1, 0, 2]) /* ty=Tensor[(256, 49, 32), float16] */
  } /* ty=fn (Tensor[(1568, 256), float16], Tensor[(256), float16]) -> Tensor[(256, 49, 32), float16] */;
  %889 = %879(%878, meta[relay.Constant][216] /* ty=Tensor[(256), float16] */, 5.65625f16 /* ty=float16 */) /* ty=Tensor[(256, 49, 32), float16] */;
  %890 = %888(%887, meta[relay.Constant][218] /* ty=Tensor[(256), float16] */) /* ty=Tensor[(256, 49, 32), float16] */;
  %891 = fn (%p089: Tensor[(256, 49, 32), float16] /* ty=Tensor[(256, 49, 32), float16] */, %p167: Tensor[(256, 49, 32), float16] /* ty=Tensor[(256, 49, 32), float16] */, Primitive=1) -> Tensor[(256, 49, 49), float16] {
    nn.batch_matmul(%p089, %p167, out_dtype="float16", transpose_b=True) /* ty=Tensor[(256, 49, 49), float16] */
  } /* ty=fn (Tensor[(256, 49, 32), float16], Tensor[(256, 49, 32), float16]) -> Tensor[(256, 49, 49), float16] */;
  %892 = %891(%889, %890) /* ty=Tensor[(256, 49, 49), float16] */;
  %893 = fn (%p088: Tensor[(256, 49, 49), float16] /* ty=Tensor[(256, 49, 49), float16] */, %p166: Tensor[(256, 1, 49), float16] /* ty=Tensor[(256, 1, 49), float16] */, Primitive=1) -> Tensor[(256, 49, 49), float32] {
    %154 = reshape(%p088, newshape=[256, 49, 49]) /* ty=Tensor[(256, 49, 49), float16] */;
    %155 = add(%154, %p166) /* ty=Tensor[(256, 49, 49), float16] */;
    cast(%155, dtype="float32") /* ty=Tensor[(256, 49, 49), float32] */
  } /* ty=fn (Tensor[(256, 49, 49), float16], Tensor[(256, 1, 49), float16]) -> Tensor[(256, 49, 49), float32] */;
  %894 = %893(%892, meta[relay.Constant][219] /* ty=Tensor[(256, 1, 49), float16] */) /* ty=Tensor[(256, 49, 49), float32] */;
  %895 = fn (%p087: Tensor[(256, 49, 49), float32] /* ty=Tensor[(256, 49, 49), float32] */, Primitive=1) -> Tensor[(256, 49, 49), float16] {
    %153 = nn.softmax(%p087, axis=2) /* ty=Tensor[(256, 49, 49), float32] */;
    cast(%153, dtype="float16") /* ty=Tensor[(256, 49, 49), float16] */
  } /* ty=fn (Tensor[(256, 49, 49), float32]) -> Tensor[(256, 49, 49), float16] */;
  %900 = fn (%p0247: Tensor[(49, 32, 256), float32] /* ty=Tensor[(49, 32, 256), float32] */, Primitive=1) -> Tensor[(1568, 256), float16] {
    %899 = reshape(%p0247, newshape=[-1, 256]) /* ty=Tensor[(1568, 256), float32] */;
    cast(%899, dtype="float16") /* ty=Tensor[(1568, 256), float16] */
  } /* ty=fn (Tensor[(49, 32, 256), float32]) -> Tensor[(1568, 256), float16] */;
  %901 = %900(%872) /* ty=Tensor[(1568, 256), float16] */;
  %902 = fn (%p0246: Tensor[(1568, 256), float16] /* ty=Tensor[(1568, 256), float16] */, %p1190: Tensor[(256, 256), float16] /* ty=Tensor[(256, 256), float16] */, Primitive=1) -> Tensor[(1568, 256), float16] {
    nn.dense(%p0246, %p1190, units=None, out_dtype="float16") /* ty=Tensor[(1568, 256), float16] */
  } /* ty=fn (Tensor[(1568, 256), float16], Tensor[(256, 256), float16]) -> Tensor[(1568, 256), float16] */;
  %903 = %902(%901, meta[relay.Constant][220] /* ty=Tensor[(256, 256), float16] */) /* ty=Tensor[(1568, 256), float16] */;
  %904 = fn (%p0245: Tensor[(1568, 256), float16] /* ty=Tensor[(1568, 256), float16] */, %p1189: Tensor[(256), float16] /* ty=Tensor[(256), float16] */, Primitive=1) -> Tensor[(256, 32, 49), float16] {
    %896 = reshape(%p0245, newshape=[49, 32, 256]) /* ty=Tensor[(49, 32, 256), float16] */;
    %897 = add(%p1189, %896) /* ty=Tensor[(49, 32, 256), float16] */;
    %898 = reshape(%897, newshape=[49, 256, 32]) /* ty=Tensor[(49, 256, 32), float16] */;
    transpose(%898, axes=[1, 2, 0]) /* ty=Tensor[(256, 32, 49), float16] */
  } /* ty=fn (Tensor[(1568, 256), float16], Tensor[(256), float16]) -> Tensor[(256, 32, 49), float16] */;
  %905 = %895(%894) /* ty=Tensor[(256, 49, 49), float16] */;
  %906 = %904(%903, meta[relay.Constant][221] /* ty=Tensor[(256), float16] */) /* ty=Tensor[(256, 32, 49), float16] */;
  %907 = fn (%p086: Tensor[(256, 49, 49), float16] /* ty=Tensor[(256, 49, 49), float16] */, %p165: Tensor[(256, 32, 49), float16] /* ty=Tensor[(256, 32, 49), float16] */, Primitive=1) -> Tensor[(256, 49, 32), float16] {
    nn.batch_matmul(%p086, %p165, out_dtype="float16", transpose_b=True) /* ty=Tensor[(256, 49, 32), float16] */
  } /* ty=fn (Tensor[(256, 49, 49), float16], Tensor[(256, 32, 49), float16]) -> Tensor[(256, 49, 32), float16] */;
  %908 = %907(%905, %906) /* ty=Tensor[(256, 49, 32), float16] */;
  %909 = fn (%p085: Tensor[(256, 49, 32), float16] /* ty=Tensor[(256, 49, 32), float16] */, Primitive=1) -> Tensor[(1568, 256), float16] {
    %151 = reshape(%p085, newshape=[256, 49, 32]) /* ty=Tensor[(256, 49, 32), float16] */;
    %152 = transpose(%151, axes=[1, 0, 2]) /* ty=Tensor[(49, 256, 32), float16] */;
    reshape(%152, newshape=[1568, 256]) /* ty=Tensor[(1568, 256), float16] */
  } /* ty=fn (Tensor[(256, 49, 32), float16]) -> Tensor[(1568, 256), float16] */;
  %910 = %909(%908) /* ty=Tensor[(1568, 256), float16] */;
  %911 = fn (%p084: Tensor[(1568, 256), float16] /* ty=Tensor[(1568, 256), float16] */, %p164: Tensor[(256, 256), float16] /* ty=Tensor[(256, 256), float16] */, %p218: Tensor[(1, 256), float16] /* ty=Tensor[(1, 256), float16] */, Primitive=1) -> Tensor[(1568, 256), float16] {
    %150 = nn.dense(%p084, %p164, units=256, out_dtype="float16") /* ty=Tensor[(1568, 256), float16] */;
    add(%150, %p218) /* ty=Tensor[(1568, 256), float16] */
  } /* ty=fn (Tensor[(1568, 256), float16], Tensor[(256, 256), float16], Tensor[(1, 256), float16]) -> Tensor[(1568, 256), float16] */;
  %912 = %911(%910, meta[relay.Constant][222] /* ty=Tensor[(256, 256), float16] */, meta[relay.Constant][223] /* ty=Tensor[(1, 256), float16] */) /* ty=Tensor[(1568, 256), float16] */;
  %913 = fn (%p083: Tensor[(1568, 256), float16] /* ty=Tensor[(1568, 256), float16] */, %p163: Tensor[(49, 32, 256), float32] /* ty=Tensor[(49, 32, 256), float32] */, Primitive=1) -> Tensor[(49, 32, 256), float32] {
    %148 = reshape(%p083, newshape=[49, 32, 256]) /* ty=Tensor[(49, 32, 256), float16] */;
    %149 = cast(%148, dtype="float32") /* ty=Tensor[(49, 32, 256), float32] */;
    add(%p163, %149) /* ty=Tensor[(49, 32, 256), float32] */
  } /* ty=fn (Tensor[(1568, 256), float16], Tensor[(49, 32, 256), float32]) -> Tensor[(49, 32, 256), float32] */;
  %914 = %913(%912, %872) /* ty=Tensor[(49, 32, 256), float32] */;
  %915 = fn (%p0248: Tensor[(49, 32, 256), float32] /* ty=Tensor[(49, 32, 256), float32] */, Primitive=1) -> Tensor[(49, 32, 1), float32] {
    mean(%p0248, axis=[-1], keepdims=True) /* ty=Tensor[(49, 32, 1), float32] */
  } /* ty=fn (Tensor[(49, 32, 256), float32]) -> Tensor[(49, 32, 1), float32] */;
  %916 = %915(%914) /* ty=Tensor[(49, 32, 1), float32] */;
  %917 = fn (%p082: Tensor[(49, 32, 256), float32] /* ty=Tensor[(49, 32, 256), float32] */, %p162: Tensor[(49, 32, 1), float32] /* ty=Tensor[(49, 32, 1), float32] */, Primitive=1) -> Tensor[(49, 32, 256), float32] {
    subtract(%p082, %p162) /* ty=Tensor[(49, 32, 256), float32] */
  } /* ty=fn (Tensor[(49, 32, 256), float32], Tensor[(49, 32, 1), float32]) -> Tensor[(49, 32, 256), float32] */;
  %918 = %917(%914, %916) /* ty=Tensor[(49, 32, 256), float32] */;
  %919 = fn (%p081: Tensor[(49, 32, 256), float32] /* ty=Tensor[(49, 32, 256), float32] */, Primitive=1) -> Tensor[(49, 32, 1), float32] {
    %147 = power(%p081, 2f /* ty=float32 span=/transformer/encoder/layers.3/norm1/Constant:0:0 */) /* ty=Tensor[(49, 32, 256), float32] */;
    mean(%147, axis=[-1], keepdims=True) /* ty=Tensor[(49, 32, 1), float32] */
  } /* ty=fn (Tensor[(49, 32, 256), float32]) -> Tensor[(49, 32, 1), float32] */;
  %920 = %919(%918) /* ty=Tensor[(49, 32, 1), float32] */;
  %921 = fn (%p080: Tensor[(49, 32, 1), float32] /* ty=Tensor[(49, 32, 1), float32] */, %p161: Tensor[(49, 32, 256), float32] /* ty=Tensor[(49, 32, 256), float32] */, %p217: Tensor[(256), float32] /* ty=Tensor[(256), float32] */, %p38: Tensor[(256), float32] /* ty=Tensor[(256), float32] */, Primitive=1) -> Tensor[(49, 32, 256), float32] {
    %143 = add(%p080, 1e-05f /* ty=float32 span=/transformer/encoder/layers.3/norm1/Constant_1:0:0 */) /* ty=Tensor[(49, 32, 1), float32] */;
    %144 = rsqrt(%143) /* ty=Tensor[(49, 32, 1), float32] */;
    %145 = multiply(%p161, %144) /* ty=Tensor[(49, 32, 256), float32] */;
    %146 = multiply(%145, %p217) /* ty=Tensor[(49, 32, 256), float32] */;
    add(%146, %p38) /* ty=Tensor[(49, 32, 256), float32] */
  } /* ty=fn (Tensor[(49, 32, 1), float32], Tensor[(49, 32, 256), float32], Tensor[(256), float32], Tensor[(256), float32]) -> Tensor[(49, 32, 256), float32] */;
  %922 = %921(%920, %918, meta[relay.Constant][224] /* ty=Tensor[(256), float32] span=/transformer/encoder/layers.3/norm1/Mul.transformer.encoder.layers.3.norm1.weight:0:0 */, meta[relay.Constant][225] /* ty=Tensor[(256), float32] span=/transformer/encoder/layers.3/norm1/Add_1.transformer.encoder.layers.3.norm1.bias:0:0 */) /* ty=Tensor[(49, 32, 256), float32] */;
  %923 = fn (%p079: Tensor[(49, 32, 256), float32] /* ty=Tensor[(49, 32, 256), float32] */, Primitive=1) -> Tensor[(1568, 256), float16] {
    %142 = reshape(%p079, newshape=[-1, 256]) /* ty=Tensor[(1568, 256), float32] */;
    cast(%142, dtype="float16") /* ty=Tensor[(1568, 256), float16] */
  } /* ty=fn (Tensor[(49, 32, 256), float32]) -> Tensor[(1568, 256), float16] */;
  %924 = %923(%922) /* ty=Tensor[(1568, 256), float16] */;
  %925 = fn (%p078: Tensor[(1568, 256), float16] /* ty=Tensor[(1568, 256), float16] */, %p160: Tensor[(2048, 256), float16] /* ty=Tensor[(2048, 256), float16] */, Primitive=1) -> Tensor[(1568, 2048), float16] {
    nn.dense(%p078, %p160, units=None, out_dtype="float16") /* ty=Tensor[(1568, 2048), float16] */
  } /* ty=fn (Tensor[(1568, 256), float16], Tensor[(2048, 256), float16]) -> Tensor[(1568, 2048), float16] */;
  %926 = %925(%924, meta[relay.Constant][226] /* ty=Tensor[(2048, 256), float16] */) /* ty=Tensor[(1568, 2048), float16] */;
  %927 = fn (%p077: Tensor[(1568, 2048), float16] /* ty=Tensor[(1568, 2048), float16] */, %p159: Tensor[(2048), float16] /* ty=Tensor[(2048), float16] */, Primitive=1) -> Tensor[(1568, 2048), float16] {
    %139 = reshape(%p077, newshape=[49, 32, 2048]) /* ty=Tensor[(49, 32, 2048), float16] */;
    %140 = add(%p159, %139) /* ty=Tensor[(49, 32, 2048), float16] */;
    %141 = nn.relu(%140) /* ty=Tensor[(49, 32, 2048), float16] */;
    reshape(%141, newshape=[-1, 2048]) /* ty=Tensor[(1568, 2048), float16] */
  } /* ty=fn (Tensor[(1568, 2048), float16], Tensor[(2048), float16]) -> Tensor[(1568, 2048), float16] */;
  %928 = %927(%926, meta[relay.Constant][227] /* ty=Tensor[(2048), float16] */) /* ty=Tensor[(1568, 2048), float16] */;
  %929 = fn (%p076: Tensor[(1568, 2048), float16] /* ty=Tensor[(1568, 2048), float16] */, %p158: Tensor[(256, 2048), float16] /* ty=Tensor[(256, 2048), float16] */, Primitive=1) -> Tensor[(1568, 256), float16] {
    nn.dense(%p076, %p158, units=None, out_dtype="float16") /* ty=Tensor[(1568, 256), float16] */
  } /* ty=fn (Tensor[(1568, 2048), float16], Tensor[(256, 2048), float16]) -> Tensor[(1568, 256), float16] */;
  %930 = %929(%928, meta[relay.Constant][228] /* ty=Tensor[(256, 2048), float16] */) /* ty=Tensor[(1568, 256), float16] */;
  %931 = fn (%p075: Tensor[(1568, 256), float16] /* ty=Tensor[(1568, 256), float16] */, %p157: Tensor[(256), float16] /* ty=Tensor[(256), float16] */, %p216: Tensor[(49, 32, 256), float32] /* ty=Tensor[(49, 32, 256), float32] */, Primitive=1) -> Tensor[(49, 32, 256), float32] {
    %136 = reshape(%p075, newshape=[49, 32, 256]) /* ty=Tensor[(49, 32, 256), float16] */;
    %137 = add(%p157, %136) /* ty=Tensor[(49, 32, 256), float16] */;
    %138 = cast(%137, dtype="float32") /* ty=Tensor[(49, 32, 256), float32] */;
    add(%p216, %138) /* ty=Tensor[(49, 32, 256), float32] */
  } /* ty=fn (Tensor[(1568, 256), float16], Tensor[(256), float16], Tensor[(49, 32, 256), float32]) -> Tensor[(49, 32, 256), float32] */;
  %932 = %931(%930, meta[relay.Constant][229] /* ty=Tensor[(256), float16] */, %922) /* ty=Tensor[(49, 32, 256), float32] */;
  %933 = fn (%p0249: Tensor[(49, 32, 256), float32] /* ty=Tensor[(49, 32, 256), float32] */, Primitive=1) -> Tensor[(49, 32, 1), float32] {
    mean(%p0249, axis=[-1], keepdims=True) /* ty=Tensor[(49, 32, 1), float32] */
  } /* ty=fn (Tensor[(49, 32, 256), float32]) -> Tensor[(49, 32, 1), float32] */;
  %934 = %933(%932) /* ty=Tensor[(49, 32, 1), float32] */;
…
  } /* ty=fn (Tensor[(3200, 256), float16], Tensor[(2048, 256), float16]) -> Tensor[(3200, 2048), float16] */;
  %1800 = %1799(%1798, meta[relay.Constant][387] /* ty=Tensor[(2048, 256), float16] */) /* ty=Tensor[(3200, 2048), float16] */;
  %1801 = fn (%p0438: Tensor[(3200, 2048), float16] /* ty=Tensor[(3200, 2048), float16] */, %p1309: Tensor[(2048), float16] /* ty=Tensor[(2048), float16] */, Primitive=1) -> Tensor[(3200, 2048), float16] {
    %1659 = reshape(%p0438, newshape=[100, 32, 2048]) /* ty=Tensor[(100, 32, 2048), float16] */;
    %1660 = add(%p1309, %1659) /* ty=Tensor[(100, 32, 2048), float16] */;
    %1661 = nn.relu(%1660) /* ty=Tensor[(100, 32, 2048), float16] */;
    reshape(%1661, newshape=[-1, 2048]) /* ty=Tensor[(3200, 2048), float16] */
  } /* ty=fn (Tensor[(3200, 2048), float16], Tensor[(2048), float16]) -> Tensor[(3200, 2048), float16] */;
  %1802 = %1801(%1800, meta[relay.Constant][388] /* ty=Tensor[(2048), float16] */) /* ty=Tensor[(3200, 2048), float16] */;
  %1803 = fn (%p0437: Tensor[(3200, 2048), float16] /* ty=Tensor[(3200, 2048), float16] */, %p1308: Tensor[(256, 2048), float16] /* ty=Tensor[(256, 2048), float16] */, Primitive=1) -> Tensor[(3200, 256), float16] {
    nn.dense(%p0437, %p1308, units=None, out_dtype="float16") /* ty=Tensor[(3200, 256), float16] */
  } /* ty=fn (Tensor[(3200, 2048), float16], Tensor[(256, 2048), float16]) -> Tensor[(3200, 256), float16] */;
  %1804 = %1803(%1802, meta[relay.Constant][389] /* ty=Tensor[(256, 2048), float16] */) /* ty=Tensor[(3200, 256), float16] */;
  %1805 = fn (%p0436: Tensor[(3200, 256), float16] /* ty=Tensor[(3200, 256), float16] */, %p1307: Tensor[(256), float16] /* ty=Tensor[(256), float16] */, %p2118: Tensor[(100, 32, 256), float32] /* ty=Tensor[(100, 32, 256), float32] */, Primitive=1) -> Tensor[(100, 32, 256), float32] {
    %1656 = reshape(%p0436, newshape=[100, 32, 256]) /* ty=Tensor[(100, 32, 256), float16] */;
    %1657 = add(%p1307, %1656) /* ty=Tensor[(100, 32, 256), float16] */;
    %1658 = cast(%1657, dtype="float32") /* ty=Tensor[(100, 32, 256), float32] */;
    add(%p2118, %1658) /* ty=Tensor[(100, 32, 256), float32] */
  } /* ty=fn (Tensor[(3200, 256), float16], Tensor[(256), float16], Tensor[(100, 32, 256), float32]) -> Tensor[(100, 32, 256), float32] */;
  %1806 = %1805(%1804, meta[relay.Constant][390] /* ty=Tensor[(256), float16] */, %1796) /* ty=Tensor[(100, 32, 256), float32] */;
  %1807 = fn (%p0482: Tensor[(100, 32, 256), float32] /* ty=Tensor[(100, 32, 256), float32] */, Primitive=1) -> Tensor[(100, 32, 1), float32] {
    mean(%p0482, axis=[-1], keepdims=True) /* ty=Tensor[(100, 32, 1), float32] */
  } /* ty=fn (Tensor[(100, 32, 256), float32]) -> Tensor[(100, 32, 1), float32] */;
  %1808 = %1807(%1806) /* ty=Tensor[(100, 32, 1), float32] */;
  %1809 = fn (%p0435: Tensor[(100, 32, 256), float32] /* ty=Tensor[(100, 32, 256), float32] */, %p1306: Tensor[(100, 32, 1), float32] /* ty=Tensor[(100, 32, 1), float32] */, Primitive=1) -> Tensor[(100, 32, 256), float32] {
    subtract(%p0435, %p1306) /* ty=Tensor[(100, 32, 256), float32] */
  } /* ty=fn (Tensor[(100, 32, 256), float32], Tensor[(100, 32, 1), float32]) -> Tensor[(100, 32, 256), float32] */;
  %1810 = %1809(%1806, %1808) /* ty=Tensor[(100, 32, 256), float32] */;
  %1811 = fn (%p0434: Tensor[(100, 32, 256), float32] /* ty=Tensor[(100, 32, 256), float32] */, Primitive=1) -> Tensor[(100, 32, 1), float32] {
    %1655 = power(%p0434, 2f /* ty=float32 span=/transformer/decoder/layers.4/norm3/Constant:0:0 */) /* ty=Tensor[(100, 32, 256), float32] */;
    mean(%1655, axis=[-1], keepdims=True) /* ty=Tensor[(100, 32, 1), float32] */
  } /* ty=fn (Tensor[(100, 32, 256), float32]) -> Tensor[(100, 32, 1), float32] */;
  %1812 = %1811(%1810) /* ty=Tensor[(100, 32, 1), float32] */;
  %1813 = fn (%p0433: Tensor[(100, 32, 1), float32] /* ty=Tensor[(100, 32, 1), float32] */, %p1305: Tensor[(100, 32, 256), float32] /* ty=Tensor[(100, 32, 256), float32] */, %p2117: Tensor[(256), float32] /* ty=Tensor[(256), float32] */, %p378: Tensor[(256), float32] /* ty=Tensor[(256), float32] */, Primitive=1) -> Tensor[(100, 32, 256), float32] {
    %1651 = add(%p0433, 1e-05f /* ty=float32 span=/transformer/decoder/layers.4/norm3/Constant_1:0:0 */) /* ty=Tensor[(100, 32, 1), float32] */;
    %1652 = rsqrt(%1651) /* ty=Tensor[(100, 32, 1), float32] */;
    %1653 = multiply(%p1305, %1652) /* ty=Tensor[(100, 32, 256), float32] */;
    %1654 = multiply(%1653, %p2117) /* ty=Tensor[(100, 32, 256), float32] */;
    add(%1654, %p378) /* ty=Tensor[(100, 32, 256), float32] */
  } /* ty=fn (Tensor[(100, 32, 1), float32], Tensor[(100, 32, 256), float32], Tensor[(256), float32], Tensor[(256), float32]) -> Tensor[(100, 32, 256), float32] */;
  %1814 = %1813(%1812, %1810, meta[relay.Constant][391] /* ty=Tensor[(256), float32] span=/transformer/decoder/layers.4/norm3/Mul.transformer.decoder.layers.4.norm3.weight:0:0 */, meta[relay.Constant][392] /* ty=Tensor[(256), float32] span=/transformer/decoder/layers.4/norm3/Add_1.transformer.decoder.layers.4.norm3.bias:0:0 */) /* ty=Tensor[(100, 32, 256), float32] */;
  %1815 = fn (%p0483: Tensor[(100, 32, 256), float32] /* ty=Tensor[(100, 32, 256), float32] */, Primitive=1) -> Tensor[(100, 32, 1), float32] {
    mean(%p0483, axis=[-1], keepdims=True) /* ty=Tensor[(100, 32, 1), float32] */
  } /* ty=fn (Tensor[(100, 32, 256), float32]) -> Tensor[(100, 32, 1), float32] */;
  %1816 = %1815(%1814) /* ty=Tensor[(100, 32, 1), float32] */;
  %1817 = fn (%p0432: Tensor[(100, 32, 256), float32] /* ty=Tensor[(100, 32, 256), float32] */, %p1304: Tensor[(100, 32, 1), float32] /* ty=Tensor[(100, 32, 1), float32] */, Primitive=1) -> Tensor[(100, 32, 256), float32] {
    subtract(%p0432, %p1304) /* ty=Tensor[(100, 32, 256), float32] */
  } /* ty=fn (Tensor[(100, 32, 256), float32], Tensor[(100, 32, 1), float32]) -> Tensor[(100, 32, 256), float32] */;
  %1818 = %1817(%1814, %1816) /* ty=Tensor[(100, 32, 256), float32] */;
  %1819 = fn (%p0431: Tensor[(100, 32, 256), float32] /* ty=Tensor[(100, 32, 256), float32] */, %p2: Tensor[(256), float32] /* ty=Tensor[(256), float32] */, %p3: Tensor[(256), float32] /* ty=Tensor[(256), Primitive=1) -> Tensor[(100, 32, 256), float32] {
    %1650 = power(%p0431, 2f /* ty=float32 span=/transformer/decoder/norm_4/Constant:0:0 */) /* ty=Tensor[(100, 32, 256), float32] */;
    %1651 = mean(%1650, axis=[-1], keepdims=True) /* ty=Tensor[(100, 32, 1), float32] */
    %3 = add(%1651, 1e-05f /* ty=float32 span=/transformer/decoder/norm/Constant_1:0:0 */) /* ty=Tensor[(100, 32, 1), float32] */;
    %4 = rsqrt(%3) /* ty=Tensor[(100, 32, 1), float32] */;
    %5 = multiply(%p0431, %4) /* ty=Tensor[(100, 32, 256), float32] */;
    %6 = multiply(%5, %p2) /* ty=Tensor[(100, 32, 256), float32] */;
    %7 = add(%6, %p3) /* ty=Tensor[(100, 32, 256), float32] */;
  } /* ty=fn (Tensor[(100, 32, 256), float32]) -> Tensor[(100, 32, 1), float32] */;
  %1869 = fn (%p0520: Tensor[(100, 32, 256), float32] /* ty=Tensor[(100, 32, 256), float32] */, %p1364: Tensor[(100, 32, 256), float32] /* ty=Tensor[(100, 32, 256), float32] */, Primitive=1) -> Tensor[(100, 32, 256), float32] {
    add(%p0520, %p1364) /* ty=Tensor[(100, 32, 256), float32] */
  } /* ty=fn (Tensor[(100, 32, 256), float32], Tensor[(100, 32, 256), float32]) -> Tensor[(100, 32, 256), float32] */;
  %1870 = %1869(%1814, meta[relay.Constant][284] /* ty=Tensor[(100, 32, 256), float32] span=/transformer/Tile:0:0 */) /* ty=Tensor[(100, 32, 256), float32] */;
  %1871 = fn (%p0519: Tensor[(100, 32, 256), float32] /* ty=Tensor[(100, 32, 256), float32] */, Primitive=1) -> Tensor[(3200, 256), float16] {
    %1868 = reshape(%p0519, newshape=[-1, 256]) /* ty=Tensor[(3200, 256), float32] */;
    cast(%1868, dtype="float16") /* ty=Tensor[(3200, 256), float16] */
  } /* ty=fn (Tensor[(100, 32, 256), float32]) -> Tensor[(3200, 256), float16] */;
  %1872 = %1871(%1870) /* ty=Tensor[(3200, 256), float16] */;
  %1873 = fn (%p0518: Tensor[(3200, 256), float16] /* ty=Tensor[(3200, 256), float16] */, %p1363: Tensor[(256, 256), float16] /* ty=Tensor[(256, 256), float16] */, Primitive=1) -> Tensor[(3200, 256), float16] {
    nn.dense(%p0518, %p1363, units=None, out_dtype="float16") /* ty=Tensor[(3200, 256), float16] */
  } /* ty=fn (Tensor[(3200, 256), float16], Tensor[(256, 256), float16]) -> Tensor[(3200, 256), float16] */;
  %1874 = %1873(%1872, meta[relay.Constant][393] /* ty=Tensor[(256, 256), float16] */) /* ty=Tensor[(3200, 256), float16] */;
  %1875 = fn (%p0517: Tensor[(3200, 256), float16] /* ty=Tensor[(3200, 256), float16] */, %p1362: Tensor[(256), float16] /* ty=Tensor[(256), float16] */, %p2132: float16 /* ty=float16 */, Primitive=1) -> Tensor[(256, 100, 32), float16] {
    %1864 = reshape(%p0517, newshape=[100, 32, 256]) /* ty=Tensor[(100, 32, 256), float16] */;
    %1865 = add(%p1362, %1864) /* ty=Tensor[(100, 32, 256), float16] */;
    %1866 = reshape(%1865, newshape=[100, 256, 32]) /* ty=Tensor[(100, 256, 32), float16] */;
    %1867 = transpose(%1866, axes=[1, 0, 2]) /* ty=Tensor[(256, 100, 32), float16] */;
    divide(%1867, %p2132) /* ty=Tensor[(256, 100, 32), float16] */
  } /* ty=fn (Tensor[(3200, 256), float16], Tensor[(256), float16], float16) -> Tensor[(256, 100, 32), float16] */;
  %1880 = fn (%p0523: Tensor[(100, 32, 256), float32] /* ty=Tensor[(100, 32, 256), float32] */, Primitive=1) -> Tensor[(3200, 256), float16] {
    %1879 = reshape(%p0523, newshape=[-1, 256]) /* ty=Tensor[(3200, 256), float32] */;
    cast(%1879, dtype="float16") /* ty=Tensor[(3200, 256), float16] */
  } /* ty=fn (Tensor[(100, 32, 256), float32]) -> Tensor[(3200, 256), float16] */;
  %1881 = %1880(%1870) /* ty=Tensor[(3200, 256), float16] */;
  %1882 = fn (%p0522: Tensor[(3200, 256), float16] /* ty=Tensor[(3200, 256), float16] */, %p1366: Tensor[(256, 256), float16] /* ty=Tensor[(256, 256), float16] */, Primitive=1) -> Tensor[(3200, 256), float16] {
    nn.dense(%p0522, %p1366, units=None, out_dtype="float16") /* ty=Tensor[(3200, 256), float16] */
  } /* ty=fn (Tensor[(3200, 256), float16], Tensor[(256, 256), float16]) -> Tensor[(3200, 256), float16] */;
  %1883 = %1882(%1881, meta[relay.Constant][395] /* ty=Tensor[(256, 256), float16] */) /* ty=Tensor[(3200, 256), float16] */;
  %1884 = fn (%p0521: Tensor[(3200, 256), float16] /* ty=Tensor[(3200, 256), float16] */, %p1365: Tensor[(256), float16] /* ty=Tensor[(256), float16] */, Primitive=1) -> Tensor[(256, 100, 32), float16] {
    %1876 = reshape(%p0521, newshape=[100, 32, 256]) /* ty=Tensor[(100, 32, 256), float16] */;
    %1877 = add(%p1365, %1876) /* ty=Tensor[(100, 32, 256), float16] */;
    %1878 = reshape(%1877, newshape=[100, 256, 32]) /* ty=Tensor[(100, 256, 32), float16] */;
    transpose(%1878, axes=[1, 0, 2]) /* ty=Tensor[(256, 100, 32), float16] */
  } /* ty=fn (Tensor[(3200, 256), float16], Tensor[(256), float16]) -> Tensor[(256, 100, 32), float16] */;
  %1885 = %1875(%1874, meta[relay.Constant][394] /* ty=Tensor[(256), float16] */, 5.65625f16 /* ty=float16 */) /* ty=Tensor[(256, 100, 32), float16] */;
  %1886 = %1884(%1883, meta[relay.Constant][396] /* ty=Tensor[(256), float16] */) /* ty=Tensor[(256, 100, 32), float16] */;
  %1887 = fn (%p0516: Tensor[(256, 100, 32), float16] /* ty=Tensor[(256, 100, 32), float16] */, %p1361: Tensor[(256, 100, 32), float16] /* ty=Tensor[(256, 100, 32), float16] */, Primitive=1) -> Tensor[(256, 100, 100), float16] {
    nn.batch_matmul(%p0516, %p1361, out_dtype="float16", transpose_b=True) /* ty=Tensor[(256, 100, 100), float16] */
  } /* ty=fn (Tensor[(256, 100, 32), float16], Tensor[(256, 100, 32), float16]) -> Tensor[(256, 100, 100), float16] */;
  %1888 = %1887(%1885, %1886) /* ty=Tensor[(256, 100, 100), float16] */;
  %1889 = fn (%p0515: Tensor[(256, 100, 100), float16] /* ty=Tensor[(256, 100, 100), float16] */, Primitive=1) -> Tensor[(256, 100, 100), float32] {
    %1863 = reshape(%p0515, newshape=[256, 100, 100]) /* ty=Tensor[(256, 100, 100), float16] */;
    cast(%1863, dtype="float32") /* ty=Tensor[(256, 100, 100), float32] */
  } /* ty=fn (Tensor[(256, 100, 100), float16]) -> Tensor[(256, 100, 100), float32] */;
  %1890 = %1889(%1888) /* ty=Tensor[(256, 100, 100), float32] */;
  %1891 = fn (%p0514: Tensor[(256, 100, 100), float32] /* ty=Tensor[(256, 100, 100), float32] */, Primitive=1) -> Tensor[(256, 100, 100), float16] {
    %1862 = nn.softmax(%p0514, axis=2) /* ty=Tensor[(256, 100, 100), float32] */;
    cast(%1862, dtype="float16") /* ty=Tensor[(256, 100, 100), float16] */
  } /* ty=fn (Tensor[(256, 100, 100), float32]) -> Tensor[(256, 100, 100), float16] */;
  %1896 = fn (%p0526: Tensor[(100, 32, 256), float32] /* ty=Tensor[(100, 32, 256), float32] */, Primitive=1) -> Tensor[(3200, 256), float16] {
    %1895 = reshape(%p0526, newshape=[-1, 256]) /* ty=Tensor[(3200, 256), float32] */;
    cast(%1895, dtype="float16") /* ty=Tensor[(3200, 256), float16] */
  } /* ty=fn (Tensor[(100, 32, 256), float32]) -> Tensor[(3200, 256), float16] */;
  %1897 = %1896(%1814) /* ty=Tensor[(3200, 256), float16] */;
  %1898 = fn (%p0525: Tensor[(3200, 256), float16] /* ty=Tensor[(3200, 256), float16] */, %p1368: Tensor[(256, 256), float16] /* ty=Tensor[(256, 256), float16] */, Primitive=1) -> Tensor[(3200, 256), float16] {
    nn.dense(%p0525, %p1368, units=None, out_dtype="float16") /* ty=Tensor[(3200, 256), float16] */
  } /* ty=fn (Tensor[(3200, 256), float16], Tensor[(256, 256), float16]) -> Tensor[(3200, 256), float16] */;
  %1899 = %1898(%1897, meta[relay.Constant][397] /* ty=Tensor[(256, 256), float16] */) /* ty=Tensor[(3200, 256), float16] */;
  %1900 = fn (%p0524: Tensor[(3200, 256), float16] /* ty=Tensor[(3200, 256), float16] */, %p1367: Tensor[(256), float16] /* ty=Tensor[(256), float16] */, Primitive=1) -> Tensor[(256, 32, 100), float16] {
    %1892 = reshape(%p0524, newshape=[100, 32, 256]) /* ty=Tensor[(100, 32, 256), float16] */;
    %1893 = add(%p1367, %1892) /* ty=Tensor[(100, 32, 256), float16] */;
    %1894 = reshape(%1893, newshape=[100, 256, 32]) /* ty=Tensor[(100, 256, 32), float16] */;
    transpose(%1894, axes=[1, 2, 0]) /* ty=Tensor[(256, 32, 100), float16] */
  } /* ty=fn (Tensor[(3200, 256), float16], Tensor[(256), float16]) -> Tensor[(256, 32, 100), float16] */;
  %1901 = %1891(%1890) /* ty=Tensor[(256, 100, 100), float16] */;
  %1902 = %1900(%1899, meta[relay.Constant][398] /* ty=Tensor[(256), float16] */) /* ty=Tensor[(256, 32, 100), float16] */;
  %1903 = fn (%p0513: Tensor[(256, 100, 100), float16] /* ty=Tensor[(256, 100, 100), float16] */, %p1360: Tensor[(256, 32, 100), float16] /* ty=Tensor[(256, 32, 100), float16] */, Primitive=1) -> Tensor[(256, 100, 32), float16] {
    nn.batch_matmul(%p0513, %p1360, out_dtype="float16", transpose_b=True) /* ty=Tensor[(256, 100, 32), float16] */
  } /* ty=fn (Tensor[(256, 100, 100), float16], Tensor[(256, 32, 100), float16]) -> Tensor[(256, 100, 32), float16] */;
  %1904 = %1903(%1901, %1902) /* ty=Tensor[(256, 100, 32), float16] */;
  %1905 = fn (%p0512: Tensor[(256, 100, 32), float16] /* ty=Tensor[(256, 100, 32), float16] */, Primitive=1) -> Tensor[(3200, 256), float16] {
    %1860 = reshape(%p0512, newshape=[256, 100, 32]) /* ty=Tensor[(256, 100, 32), float16] */;
    %1861 = transpose(%1860, axes=[1, 0, 2]) /* ty=Tensor[(100, 256, 32), float16] */;
    reshape(%1861, newshape=[3200, 256]) /* ty=Tensor[(3200, 256), float16] */
  } /* ty=fn (Tensor[(256, 100, 32), float16]) -> Tensor[(3200, 256), float16] */;
  %1906 = %1905(%1904) /* ty=Tensor[(3200, 256), float16] */;
  %1907 = fn (%p0511: Tensor[(3200, 256), float16] /* ty=Tensor[(3200, 256), float16] */, %p1359: Tensor[(256, 256), float16] /* ty=Tensor[(256, 256), float16] */, %p2131: Tensor[(1, 256), float16] /* ty=Tensor[(1, 256), float16] */, Primitive=1) -> Tensor[(3200, 256), float16] {
    %1859 = nn.dense(%p0511, %p1359, units=256, out_dtype="float16") /* ty=Tensor[(3200, 256), float16] */;
    add(%1859, %p2131) /* ty=Tensor[(3200, 256), float16] */
  } /* ty=fn (Tensor[(3200, 256), float16], Tensor[(256, 256), float16], Tensor[(1, 256), float16]) -> Tensor[(3200, 256), float16] */;
  %1908 = %1907(%1906, meta[relay.Constant][399] /* ty=Tensor[(256, 256), float16] */, meta[relay.Constant][400] /* ty=Tensor[(1, 256), float16] */) /* ty=Tensor[(3200, 256), float16] */;
  %1909 = fn (%p0510: Tensor[(3200, 256), float16] /* ty=Tensor[(3200, 256), float16] */, %p1358: Tensor[(100, 32, 256), float32] /* ty=Tensor[(100, 32, 256), float32] */, Primitive=1) -> Tensor[(100, 32, 256), float32] {
    %1857 = reshape(%p0510, newshape=[100, 32, 256]) /* ty=Tensor[(100, 32, 256), float16] */;
    %1858 = cast(%1857, dtype="float32") /* ty=Tensor[(100, 32, 256), float32] */;
    add(%p1358, %1858) /* ty=Tensor[(100, 32, 256), float32] */
  } /* ty=fn (Tensor[(3200, 256), float16], Tensor[(100, 32, 256), float32]) -> Tensor[(100, 32, 256), float32] */;
  %1910 = %1909(%1908, %1814) /* ty=Tensor[(100, 32, 256), float32] */;
  %1911 = fn (%p0527: Tensor[(100, 32, 256), float32] /* ty=Tensor[(100, 32, 256), float32] */, Primitive=1) -> Tensor[(100, 32, 1), float32] {
    mean(%p0527, axis=[-1], keepdims=True) /* ty=Tensor[(100, 32, 1), float32] */
  } /* ty=fn (Tensor[(100, 32, 256), float32]) -> Tensor[(100, 32, 1), float32] */;
  %1912 = %1911(%1910) /* ty=Tensor[(100, 32, 1), float32] */;
  %1913 = fn (%p0509: Tensor[(100, 32, 256), float32] /* ty=Tensor[(100, 32, 256), float32] */, %p1357: Tensor[(100, 32, 1), float32] /* ty=Tensor[(100, 32, 1), float32] */, Primitive=1) -> Tensor[(100, 32, 256), float32] {
    subtract(%p0509, %p1357) /* ty=Tensor[(100, 32, 256), float32] */
  } /* ty=fn (Tensor[(100, 32, 256), float32], Tensor[(100, 32, 1), float32]) -> Tensor[(100, 32, 256), float32] */;
  %1914 = %1913(%1910, %1912) /* ty=Tensor[(100, 32, 256), float32] */;
  %1915 = fn (%p0508: Tensor[(100, 32, 256), float32] /* ty=Tensor[(100, 32, 256), float32] */, Primitive=1) -> Tensor[(100, 32, 1), float32] {
    %1856 = power(%p0508, 2f /* ty=float32 span=/transformer/decoder/layers.5/norm1/Constant:0:0 */) /* ty=Tensor[(100, 32, 256), float32] */;
    mean(%1856, axis=[-1], keepdims=True) /* ty=Tensor[(100, 32, 1), float32] */
  } /* ty=fn (Tensor[(100, 32, 256), float32]) -> Tensor[(100, 32, 1), float32] */;
  %1916 = %1915(%1914) /* ty=Tensor[(100, 32, 1), float32] */;
  %1917 = fn (%p0507: Tensor[(100, 32, 1), float32] /* ty=Tensor[(100, 32, 1), float32] */, %p1356: Tensor[(100, 32, 256), float32] /* ty=Tensor[(100, 32, 256), float32] */, %p2130: Tensor[(256), float32] /* ty=Tensor[(256), float32] */, %p383: Tensor[(256), float32] /* ty=Tensor[(256), float32] */, Primitive=1) -> Tensor[(100, 32, 256), float32] {
    %1852 = add(%p0507, 1e-05f /* ty=float32 span=/transformer/decoder/layers.5/norm1/Constant_1:0:0 */) /* ty=Tensor[(100, 32, 1), float32] */;
    %1853 = rsqrt(%1852) /* ty=Tensor[(100, 32, 1), float32] */;
    %1854 = multiply(%p1356, %1853) /* ty=Tensor[(100, 32, 256), float32] */;
    %1855 = multiply(%1854, %p2130) /* ty=Tensor[(100, 32, 256), float32] */;
    add(%1855, %p383) /* ty=Tensor[(100, 32, 256), float32] */
  } /* ty=fn (Tensor[(100, 32, 1), float32], Tensor[(100, 32, 256), float32], Tensor[(256), float32], Tensor[(256), float32]) -> Tensor[(100, 32, 256), float32] */;
  %1918 = %1917(%1916, %1914, meta[relay.Constant][401] /* ty=Tensor[(256), float32] span=/transformer/decoder/layers.5/norm1/Mul.transformer.decoder.layers.5.norm1.weight:0:0 */, meta[relay.Constant][402] /* ty=Tensor[(256), float32] span=/transformer/decoder/layers.5/norm1/Add_1.transformer.decoder.layers.5.norm1.bias:0:0 */) /* ty=Tensor[(100, 32, 256), float32] */;
  %1919 = fn (%p0506: Tensor[(100, 32, 256), float32] /* ty=Tensor[(100, 32, 256), float32] */, %p1355: Tensor[(100, 32, 256), float32] /* ty=Tensor[(100, 32, 256), float32] */, Primitive=1) -> Tensor[(3200, 256), float16] {
    %1850 = add(%p0506, %p1355) /* ty=Tensor[(100, 32, 256), float32] */;
    %1851 = reshape(%1850, newshape=[-1, 256]) /* ty=Tensor[(3200, 256), float32] */;
    cast(%1851, dtype="float16") /* ty=Tensor[(3200, 256), float16] */
  } /* ty=fn (Tensor[(100, 32, 256), float32], Tensor[(100, 32, 256), float32]) -> Tensor[(3200, 256), float16] */;
  %1920 = %1919(%1918, meta[relay.Constant][284] /* ty=Tensor[(100, 32, 256), float32] span=/transformer/Tile:0:0 */) /* ty=Tensor[(3200, 256), float16] */;
  %1921 = fn (%p0505: Tensor[(3200, 256), float16] /* ty=Tensor[(3200, 256), float16] */, %p1354: Tensor[(256, 256), float16] /* ty=Tensor[(256, 256), float16] */, Primitive=1) -> Tensor[(3200, 256), float16] {
    nn.dense(%p0505, %p1354, units=None, out_dtype="float16") /* ty=Tensor[(3200, 256), float16] */
  } /* ty=fn (Tensor[(3200, 256), float16], Tensor[(256, 256), float16]) -> Tensor[(3200, 256), float16] */;
  %1922 = %1921(%1920, meta[relay.Constant][403] /* ty=Tensor[(256, 256), float16] */) /* ty=Tensor[(3200, 256), float16] */;
  %1923 = fn (%p0504: Tensor[(3200, 256), float16] /* ty=Tensor[(3200, 256), float16] */, %p1353: Tensor[(256), float16] /* ty=Tensor[(256), float16] */, %p2129: float16 /* ty=float16 */, Primitive=1) -> Tensor[(256, 100, 32), float16] {
    %1846 = reshape(%p0504, newshape=[100, 32, 256]) /* ty=Tensor[(100, 32, 256), float16] */;
    %1847 = add(%p1353, %1846) /* ty=Tensor[(100, 32, 256), float16] */;
    %1848 = reshape(%1847, newshape=[100, 256, 32]) /* ty=Tensor[(100, 256, 32), float16] */;
    %1849 = transpose(%1848, axes=[1, 0, 2]) /* ty=Tensor[(256, 100, 32), float16] */;
    divide(%1849, %p2129) /* ty=Tensor[(256, 100, 32), float16] */
  } /* ty=fn (Tensor[(3200, 256), float16], Tensor[(256), float16], float16) -> Tensor[(256, 100, 32), float16] */;
  %1928 = fn (%p0530: Tensor[(49, 32, 256), float32] /* ty=Tensor[(49, 32, 256), float32] */, Primitive=1) -> Tensor[(1568, 256), float16] {
    %1927 = reshape(%p0530, newshape=[-1, 256]) /* ty=Tensor[(1568, 256), float32] */;
    cast(%1927, dtype="float16") /* ty=Tensor[(1568, 256), float16] */
  } /* ty=fn (Tensor[(49, 32, 256), float32]) -> Tensor[(1568, 256), float16] */;
  %1929 = %1928(%1078) /* ty=Tensor[(1568, 256), float16] */;
  %1930 = fn (%p0529: Tensor[(1568, 256), float16] /* ty=Tensor[(1568, 256), float16] */, %p1370: Tensor[(256, 256), float16] /* ty=Tensor[(256, 256), float16] */, Primitive=1) -> Tensor[(1568, 256), float16] {
    nn.dense(%p0529, %p1370, units=None, out_dtype="float16") /* ty=Tensor[(1568, 256), float16] */
  } /* ty=fn (Tensor[(1568, 256), float16], Tensor[(256, 256), float16]) -> Tensor[(1568, 256), float16] */;
  %1931 = %1930(%1929, meta[relay.Constant][405] /* ty=Tensor[(256, 256), float16] */) /* ty=Tensor[(1568, 256), float16] */;
  %1932 = fn (%p0528: Tensor[(1568, 256), float16] /* ty=Tensor[(1568, 256), float16] */, %p1369: Tensor[(256), float16] /* ty=Tensor[(256), float16] */, Primitive=1) -> Tensor[(256, 49, 32), float16] {
    %1924 = reshape(%p0528, newshape=[49, 32, 256]) /* ty=Tensor[(49, 32, 256), float16] */;
    %1925 = add(%p1369, %1924) /* ty=Tensor[(49, 32, 256), float16] */;
    %1926 = reshape(%1925, newshape=[49, 256, 32]) /* ty=Tensor[(49, 256, 32), float16] */;
    transpose(%1926, axes=[1, 0, 2]) /* ty=Tensor[(256, 49, 32), float16] */
  } /* ty=fn (Tensor[(1568, 256), float16], Tensor[(256), float16]) -> Tensor[(256, 49, 32), float16] */;
  %1933 = %1923(%1922, meta[relay.Constant][404] /* ty=Tensor[(256), float16] */, 5.65625f16 /* ty=float16 */) /* ty=Tensor[(256, 100, 32), float16] */;
  %1934 = %1932(%1931, meta[relay.Constant][406] /* ty=Tensor[(256), float16] */) /* ty=Tensor[(256, 49, 32), float16] */;
  %1935 = fn (%p0503: Tensor[(256, 100, 32), float16] /* ty=Tensor[(256, 100, 32), float16] */, %p1352: Tensor[(256, 49, 32), float16] /* ty=Tensor[(256, 49, 32), float16] */, Primitive=1) -> Tensor[(256, 100, 49), float16] {
    nn.batch_matmul(%p0503, %p1352, out_dtype="float16", transpose_b=True) /* ty=Tensor[(256, 100, 49), float16] */
  } /* ty=fn (Tensor[(256, 100, 32), float16], Tensor[(256, 49, 32), float16]) -> Tensor[(256, 100, 49), float16] */;
  %1936 = %1935(%1933, %1934) /* ty=Tensor[(256, 100, 49), float16] */;
  %1937 = fn (%p0502: Tensor[(256, 100, 49), float16] /* ty=Tensor[(256, 100, 49), float16] */, %p1351: Tensor[(256, 1, 49), float16] /* ty=Tensor[(256, 1, 49), float16] */, Primitive=1) -> Tensor[(256, 100, 49), float32] {
    %1844 = reshape(%p0502, newshape=[256, 100, 49]) /* ty=Tensor[(256, 100, 49), float16] */;
    %1845 = add(%1844, %p1351) /* ty=Tensor[(256, 100, 49), float16] */;
    cast(%1845, dtype="float32") /* ty=Tensor[(256, 100, 49), float32] */
  } /* ty=fn (Tensor[(256, 100, 49), float16], Tensor[(256, 1, 49), float16]) -> Tensor[(256, 100, 49), float32] */;
  %1938 = %1937(%1936, meta[relay.Constant][407] /* ty=Tensor[(256, 1, 49), float16] */) /* ty=Tensor[(256, 100, 49), float32] */;
  %1939 = fn (%p0501: Tensor[(256, 100, 49), float32] /* ty=Tensor[(256, 100, 49), float32] */, Primitive=1) -> Tensor[(256, 100, 49), float16] {
    %1843 = nn.softmax(%p0501, axis=2) /* ty=Tensor[(256, 100, 49), float32] */;
    cast(%1843, dtype="float16") /* ty=Tensor[(256, 100, 49), float16] */
  } /* ty=fn (Tensor[(256, 100, 49), float32]) -> Tensor[(256, 100, 49), float16] */;
  %1944 = fn (%p0533: Tensor[(49, 32, 256), float32] /* ty=Tensor[(49, 32, 256), float32] */, Primitive=1) -> Tensor[(1568, 256), float16] {
    %1943 = reshape(%p0533, newshape=[-1, 256]) /* ty=Tensor[(1568, 256), float32] */;
    cast(%1943, dtype="float16") /* ty=Tensor[(1568, 256), float16] */
  } /* ty=fn (Tensor[(49, 32, 256), float32]) -> Tensor[(1568, 256), float16] */;
  %1945 = %1944(%1076) /* ty=Tensor[(1568, 256), float16] */;
  %1946 = fn (%p0532: Tensor[(1568, 256), float16] /* ty=Tensor[(1568, 256), float16] */, %p1372: Tensor[(256, 256), float16] /* ty=Tensor[(256, 256), float16] */, Primitive=1) -> Tensor[(1568, 256), float16] {
    nn.dense(%p0532, %p1372, units=None, out_dtype="float16") /* ty=Tensor[(1568, 256), float16] */
  } /* ty=fn (Tensor[(1568, 256), float16], Tensor[(256, 256), float16]) -> Tensor[(1568, 256), float16] */;
  %1947 = %1946(%1945, meta[relay.Constant][408] /* ty=Tensor[(256, 256), float16] */) /* ty=Tensor[(1568, 256), float16] */;
  %1948 = fn (%p0531: Tensor[(1568, 256), float16] /* ty=Tensor[(1568, 256), float16] */, %p1371: Tensor[(256), float16] /* ty=Tensor[(256), float16] */, Primitive=1) -> Tensor[(256, 32, 49), float16] {
    %1940 = reshape(%p0531, newshape=[49, 32, 256]) /* ty=Tensor[(49, 32, 256), float16] */;
    %1941 = add(%p1371, %1940) /* ty=Tensor[(49, 32, 256), float16] */;
    %1942 = reshape(%1941, newshape=[49, 256, 32]) /* ty=Tensor[(49, 256, 32), float16] */;
    transpose(%1942, axes=[1, 2, 0]) /* ty=Tensor[(256, 32, 49), float16] */
  } /* ty=fn (Tensor[(1568, 256), float16], Tensor[(256), float16]) -> Tensor[(256, 32, 49), float16] */;
  %1949 = %1939(%1938) /* ty=Tensor[(256, 100, 49), float16] */;
  %1950 = %1948(%1947, meta[relay.Constant][409] /* ty=Tensor[(256), float16] */) /* ty=Tensor[(256, 32, 49), float16] */;
  %1951 = fn (%p0500: Tensor[(256, 100, 49), float16] /* ty=Tensor[(256, 100, 49), float16] */, %p1350: Tensor[(256, 32, 49), float16] /* ty=Tensor[(256, 32, 49), float16] */, Primitive=1) -> Tensor[(256, 100, 32), float16] {
    nn.batch_matmul(%p0500, %p1350, out_dtype="float16", transpose_b=True) /* ty=Tensor[(256, 100, 32), float16] */
  } /* ty=fn (Tensor[(256, 100, 49), float16], Tensor[(256, 32, 49), float16]) -> Tensor[(256, 100, 32), float16] */;
  %1952 = %1951(%1949, %1950) /* ty=Tensor[(256, 100, 32), float16] */;
  %1953 = fn (%p0499: Tensor[(256, 100, 32), float16] /* ty=Tensor[(256, 100, 32), float16] */, Primitive=1) -> Tensor[(3200, 256), float16] {
    %1841 = reshape(%p0499, newshape=[256, 100, 32]) /* ty=Tensor[(256, 100, 32), float16] */;
    %1842 = transpose(%1841, axes=[1, 0, 2]) /* ty=Tensor[(100, 256, 32), float16] */;
    reshape(%1842, newshape=[3200, 256]) /* ty=Tensor[(3200, 256), float16] */
  } /* ty=fn (Tensor[(256, 100, 32), float16]) -> Tensor[(3200, 256), float16] */;
  %1954 = %1953(%1952) /* ty=Tensor[(3200, 256), float16] */;
  %1955 = fn (%p0498: Tensor[(3200, 256), float16] /* ty=Tensor[(3200, 256), float16] */, %p1349: Tensor[(256, 256), float16] /* ty=Tensor[(256, 256), float16] */, %p2128: Tensor[(1, 256), float16] /* ty=Tensor[(1, 256), float16] */, Primitive=1) -> Tensor[(3200, 256), float16] {
    %1840 = nn.dense(%p0498, %p1349, units=256, out_dtype="float16") /* ty=Tensor[(3200, 256), float16] */;
    add(%1840, %p2128) /* ty=Tensor[(3200, 256), float16] */
  } /* ty=fn (Tensor[(3200, 256), float16], Tensor[(256, 256), float16], Tensor[(1, 256), float16]) -> Tensor[(3200, 256), float16] */;
  %1956 = %1955(%1954, meta[relay.Constant][410] /* ty=Tensor[(256, 256), float16] */, meta[relay.Constant][411] /* ty=Tensor[(1, 256), float16] */) /* ty=Tensor[(3200, 256), float16] */;
  %1957 = fn (%p0497: Tensor[(3200, 256), float16] /* ty=Tensor[(3200, 256), float16] */, %p1348: Tensor[(100, 32, 256), float32] /* ty=Tensor[(100, 32, 256), float32] */, Primitive=1) -> Tensor[(100, 32, 256), float32] {
    %1838 = reshape(%p0497, newshape=[100, 32, 256]) /* ty=Tensor[(100, 32, 256), float16] */;
    %1839 = cast(%1838, dtype="float32") /* ty=Tensor[(100, 32, 256), float32] */;
    add(%p1348, %1839) /* ty=Tensor[(100, 32, 256), float32] */
  } /* ty=fn (Tensor[(3200, 256), float16], Tensor[(100, 32, 256), float32]) -> Tensor[(100, 32, 256), float32] */;
  %1958 = %1957(%1956, %1918) /* ty=Tensor[(100, 32, 256), float32] */;
  %1959 = fn (%p0534: Tensor[(100, 32, 256), float32] /* ty=Tensor[(100, 32, 256), float32] */, Primitive=1) -> Tensor[(100, 32, 1), float32] {
    mean(%p0534, axis=[-1], keepdims=True) /* ty=Tensor[(100, 32, 1), float32] */
  } /* ty=fn (Tensor[(100, 32, 256), float32]) -> Tensor[(100, 32, 1), float32] */;
  %1960 = %1959(%1958) /* ty=Tensor[(100, 32, 1), float32] */;
  %1961 = fn (%p0496: Tensor[(100, 32, 256), float32] /* ty=Tensor[(100, 32, 256), float32] */, %p1347: Tensor[(100, 32, 1), float32] /* ty=Tensor[(100, 32, 1), float32] */, Primitive=1) -> Tensor[(100, 32, 256), float32] {
    subtract(%p0496, %p1347) /* ty=Tensor[(100, 32, 256), float32] */
  } /* ty=fn (Tensor[(100, 32, 256), float32], Tensor[(100, 32, 1), float32]) -> Tensor[(100, 32, 256), float32] */;
  %1962 = %1961(%1958, %1960) /* ty=Tensor[(100, 32, 256), float32] */;
  %1963 = fn (%p0495: Tensor[(100, 32, 256), float32] /* ty=Tensor[(100, 32, 256), float32] */, Primitive=1) -> Tensor[(100, 32, 1), float32] {
    %1837 = power(%p0495, 2f /* ty=float32 span=/transformer/decoder/layers.5/norm2/Constant:0:0 */) /* ty=Tensor[(100, 32, 256), float32] */;
    mean(%1837, axis=[-1], keepdims=True) /* ty=Tensor[(100, 32, 1), float32] */
  } /* ty=fn (Tensor[(100, 32, 256), float32]) -> Tensor[(100, 32, 1), float32] */;
  %1964 = %1963(%1962) /* ty=Tensor[(100, 32, 1), float32] */;
  %1965 = fn (%p0494: Tensor[(100, 32, 1), float32] /* ty=Tensor[(100, 32, 1), float32] */, %p1346: Tensor[(100, 32, 256), float32] /* ty=Tensor[(100, 32, 256), float32] */, %p2127: Tensor[(256), float32] /* ty=Tensor[(256), float32] */, %p382: Tensor[(256), float32] /* ty=Tensor[(256), float32] */, Primitive=1) -> Tensor[(100, 32, 256), float32] {
    %1833 = add(%p0494, 1e-05f /* ty=float32 span=/transformer/decoder/layers.5/norm2/Constant_1:0:0 */) /* ty=Tensor[(100, 32, 1), float32] */;
    %1834 = rsqrt(%1833) /* ty=Tensor[(100, 32, 1), float32] */;
    %1835 = multiply(%p1346, %1834) /* ty=Tensor[(100, 32, 256), float32] */;
    %1836 = multiply(%1835, %p2127) /* ty=Tensor[(100, 32, 256), float32] */;
    add(%1836, %p382) /* ty=Tensor[(100, 32, 256), float32] */
  } /* ty=fn (Tensor[(100, 32, 1), float32], Tensor[(100, 32, 256), float32], Tensor[(256), float32], Tensor[(256), float32]) -> Tensor[(100, 32, 256), float32] */;
  %1966 = %1965(%1964, %1962, meta[relay.Constant][412] /* ty=Tensor[(256), float32] span=/transformer/decoder/layers.5/norm2/Mul.transformer.decoder.layers.5.norm2.weight:0:0 */, meta[relay.Constant][413] /* ty=Tensor[(256), float32] span=/transformer/decoder/layers.5/norm2/Add_1.transformer.decoder.layers.5.norm2.bias:0:0 */) /* ty=Tensor[(100, 32, 256), float32] */;
  %1967 = fn (%p0493: Tensor[(100, 32, 256), float32] /* ty=Tensor[(100, 32, 256), float32] */, Primitive=1) -> Tensor[(3200, 256), float16] {
    %1832 = reshape(%p0493, newshape=[-1, 256]) /* ty=Tensor[(3200, 256), float32] */;
    cast(%1832, dtype="float16") /* ty=Tensor[(3200, 256), float16] */
  } /* ty=fn (Tensor[(100, 32, 256), float32]) -> Tensor[(3200, 256), float16] */;
  %1968 = %1967(%1966) /* ty=Tensor[(3200, 256), float16] */;
  %1969 = fn (%p0492: Tensor[(3200, 256), float16] /* ty=Tensor[(3200, 256), float16] */, %p1345: Tensor[(2048, 256), float16] /* ty=Tensor[(2048, 256), float16] */, Primitive=1) -> Tensor[(3200, 2048), float16] {
    nn.dense(%p0492, %p1345, units=None, out_dtype="float16") /* ty=Tensor[(3200, 2048), float16] */
  } /* ty=fn (Tensor[(3200, 256), float16], Tensor[(2048, 256), float16]) -> Tensor[(3200, 2048), float16] */;
  %1970 = %1969(%1968, meta[relay.Constant][414] /* ty=Tensor[(2048, 256), float16] */) /* ty=Tensor[(3200, 2048), float16] */;
  %1971 = fn (%p0491: Tensor[(3200, 2048), float16] /* ty=Tensor[(3200, 2048), float16] */, %p1344: Tensor[(2048), float16] /* ty=Tensor[(2048), float16] */, Primitive=1) -> Tensor[(3200, 2048), float16] {
    %1829 = reshape(%p0491, newshape=[100, 32, 2048]) /* ty=Tensor[(100, 32, 2048), float16] */;
    %1830 = add(%p1344, %1829) /* ty=Tensor[(100, 32, 2048), float16] */;
    %1831 = nn.relu(%1830) /* ty=Tensor[(100, 32, 2048), float16] */;
    reshape(%1831, newshape=[-1, 2048]) /* ty=Tensor[(3200, 2048), float16] */
  } /* ty=fn (Tensor[(3200, 2048), float16], Tensor[(2048), float16]) -> Tensor[(3200, 2048), float16] */;
  %1972 = %1971(%1970, meta[relay.Constant][415] /* ty=Tensor[(2048), float16] */) /* ty=Tensor[(3200, 2048), float16] */;
  %1973 = fn (%p0490: Tensor[(3200, 2048), float16] /* ty=Tensor[(3200, 2048), float16] */, %p1343: Tensor[(256, 2048), float16] /* ty=Tensor[(256, 2048), float16] */, Primitive=1) -> Tensor[(3200, 256), float16] {
    nn.dense(%p0490, %p1343, units=None, out_dtype="float16") /* ty=Tensor[(3200, 256), float16] */
  } /* ty=fn (Tensor[(3200, 2048), float16], Tensor[(256, 2048), float16]) -> Tensor[(3200, 256), float16] */;
  %1974 = %1973(%1972, meta[relay.Constant][416] /* ty=Tensor[(256, 2048), float16] */) /* ty=Tensor[(3200, 256), float16] */;
  %1975 = fn (%p0489: Tensor[(3200, 256), float16] /* ty=Tensor[(3200, 256), float16] */, %p1342: Tensor[(256), float16] /* ty=Tensor[(256), float16] */, %p2126: Tensor[(100, 32, 256), float32] /* ty=Tensor[(100, 32, 256), float32] */, Primitive=1) -> Tensor[(100, 32, 256), float32] {
    %1826 = reshape(%p0489, newshape=[100, 32, 256]) /* ty=Tensor[(100, 32, 256), float16] */;
    %1827 = add(%p1342, %1826) /* ty=Tensor[(100, 32, 256), float16] */;
    %1828 = cast(%1827, dtype="float32") /* ty=Tensor[(100, 32, 256), float32] */;
    add(%p2126, %1828) /* ty=Tensor[(100, 32, 256), float32] */
  } /* ty=fn (Tensor[(3200, 256), float16], Tensor[(256), float16], Tensor[(100, 32, 256), float32]) -> Tensor[(100, 32, 256), float32] */;
  %1976 = %1975(%1974, meta[relay.Constant][417] /* ty=Tensor[(256), float16] */, %1966) /* ty=Tensor[(100, 32, 256), float32] */;
  %1977 = fn (%p0535: Tensor[(100, 32, 256), float32] /* ty=Tensor[(100, 32, 256), float32] */, Primitive=1) -> Tensor[(100, 32, 1), float32] {
    mean(%p0535, axis=[-1], keepdims=True) /* ty=Tensor[(100, 32, 1), float32] */
  } /* ty=fn (Tensor[(100, 32, 256), float32]) -> Tensor[(100, 32, 1), float32] */;
  %1978 = %1977(%1976) /* ty=Tensor[(100, 32, 1), float32] */;
  %1979 = fn (%p0488: Tensor[(100, 32, 256), float32] /* ty=Tensor[(100, 32, 256), float32] */, %p1341: Tensor[(100, 32, 1), float32] /* ty=Tensor[(100, 32, 1), float32] */, Primitive=1) -> Tensor[(100, 32, 256), float32] {
    subtract(%p0488, %p1341) /* ty=Tensor[(100, 32, 256), float32] */
  } /* ty=fn (Tensor[(100, 32, 256), float32], Tensor[(100, 32, 1), float32]) -> Tensor[(100, 32, 256), float32] */;
  %1980 = %1979(%1976, %1978) /* ty=Tensor[(100, 32, 256), float32] */;
  %1981 = fn (%p0487: Tensor[(100, 32, 256), float32] /* ty=Tensor[(100, 32, 256), float32] */, Primitive=1) -> Tensor[(100, 32, 1), float32] {
    %1825 = power(%p0487, 2f /* ty=float32 span=/transformer/decoder/layers.5/norm3/Constant:0:0 */) /* ty=Tensor[(100, 32, 256), float32] */;
    mean(%1825, axis=[-1], keepdims=True) /* ty=Tensor[(100, 32, 1), float32] */
  } /* ty=fn (Tensor[(100, 32, 256), float32]) -> Tensor[(100, 32, 1), float32] */;
  %1982 = %1981(%1980) /* ty=Tensor[(100, 32, 1), float32] */;
  %1983 = fn (%p0486: Tensor[(100, 32, 1), float32] /* ty=Tensor[(100, 32, 1), float32] */, %p1340: Tensor[(100, 32, 256), float32] /* ty=Tensor[(100, 32, 256), float32] */, %p2125: Tensor[(256), float32] /* ty=Tensor[(256), float32] */, %p381: Tensor[(256), float32] /* ty=Tensor[(256), float32] */, Primitive=1) -> Tensor[(100, 32, 256), float32] {
    %1821 = add(%p0486, 1e-05f /* ty=float32 span=/transformer/decoder/layers.5/norm3/Constant_1:0:0 */) /* ty=Tensor[(100, 32, 1), float32] */;
    %1822 = rsqrt(%1821) /* ty=Tensor[(100, 32, 1), float32] */;
    %1823 = multiply(%p1340, %1822) /* ty=Tensor[(100, 32, 256), float32] */;
    %1824 = multiply(%1823, %p2125) /* ty=Tensor[(100, 32, 256), float32] */;
    add(%1824, %p381) /* ty=Tensor[(100, 32, 256), float32] */
  } /* ty=fn (Tensor[(100, 32, 1), float32], Tensor[(100, 32, 256), float32], Tensor[(256), float32], Tensor[(256), float32]) -> Tensor[(100, 32, 256), float32] */;
  %1984 = %1983(%1982, %1980, meta[relay.Constant][418] /* ty=Tensor[(256), float32] span=/transformer/decoder/layers.5/norm3/Mul.transformer.decoder.layers.5.norm3.weight:0:0 */, meta[relay.Constant][419] /* ty=Tensor[(256), float32] span=/transformer/decoder/layers.5/norm3/Add_1.transformer.decoder.layers.5.norm3.bias:0:0 */) /* ty=Tensor[(100, 32, 256), float32] */;
  %1985 = fn (%p0536: Tensor[(100, 32, 256), float32] /* ty=Tensor[(100, 32, 256), float32] */, Primitive=1) -> Tensor[(100, 32, 1), float32] {
    mean(%p0536, axis=[-1], keepdims=True) /* ty=Tensor[(100, 32, 1), float32] */
  } /* ty=fn (Tensor[(100, 32, 256), float32]) -> Tensor[(100, 32, 1), float32] */;
  %1986 = %1985(%1984) /* ty=Tensor[(100, 32, 1), float32] */;
  %1987 = fn (%p0485: Tensor[(100, 32, 256), float32] /* ty=Tensor[(100, 32, 256), float32] */, %p1339: Tensor[(100, 32, 1), float32] /* ty=Tensor[(100, 32, 1), float32] */, Primitive=1) -> Tensor[(100, 32, 256), float32] {
    subtract(%p0485, %p1339) /* ty=Tensor[(100, 32, 256), float32] */
  } /* ty=fn (Tensor[(100, 32, 256), float32], Tensor[(100, 32, 1), float32]) -> Tensor[(100, 32, 256), float32] */;
  %1988 = %1987(%1984, %1986) /* ty=Tensor[(100, 32, 256), float32] */;
  %1989 = fn (%p0484: Tensor[(100, 32, 256), float32] /* ty=Tensor[(100, 32, 256), float32] */, %p2: Tensor[(256), float32] /* ty=Tensor[(256), float32] */, %p3: Tensor[(256), float32] /* ty=Tensor[(256), Primitive=1) -> Tensor[(100, 32, 256), float32] {
    %1820 = power(%p0484, 2f /* ty=float32 span=/transformer/decoder/norm_5/Constant:0:0 */) /* ty=Tensor[(100, 32, 256), float32] */;
    %1821 = mean(%1820, axis=[-1], keepdims=True) /* ty=Tensor[(100, 32, 1), float32] */
    %3 = add(%1821, 1e-05f /* ty=float32 span=/transformer/decoder/norm/Constant_1:0:0 */) /* ty=Tensor[(100, 32, 1), float32] */;
    %4 = rsqrt(%3) /* ty=Tensor[(100, 32, 1), float32] */;
    %5 = multiply(%p0484, %4) /* ty=Tensor[(100, 32, 256), float32] */;
    %6 = multiply(%5, %p2) /* ty=Tensor[(100, 32, 256), float32] */;
    %7 = add(%6, %p3) /* ty=Tensor[(100, 32, 256), float32] */;
  } /* ty=fn (Tensor[(100, 32, 256), float32]) -> Tensor[(100, 32, 1), float32] */;
  %1990 = %1139(%1138, meta[relay.Constant][282] /* ty=Tensor[(256), float32] span=/transformer/decoder/norm/Mul.transformer.decoder.norm.weight:0:0 */, meta[relay.Constant][283] /* ty=Tensor[(256), float32] span=/transformer/decoder/norm/Add_1.transformer.decoder.norm.bias:0:0 */) /* ty=Tensor[(100, 32, 256), float32] */;
  %1991 = %1309(%1308, meta[relay.Constant][282] /* ty=Tensor[(256), float32] span=/transformer/decoder/norm/Mul.transformer.decoder.norm.weight:0:0 */, meta[relay.Constant][283] /* ty=Tensor[(256), float32] span=/transformer/decoder/norm/Add_1.transformer.decoder.norm.bias:0:0 */) /* ty=Tensor[(100, 32, 256), float32] */;
  %1992 = %1479(%1478, meta[relay.Constant][282] /* ty=Tensor[(256), float32] span=/transformer/decoder/norm/Mul.transformer.decoder.norm.weight:0:0 */, meta[relay.Constant][283] /* ty=Tensor[(256), float32] span=/transformer/decoder/norm/Add_1.transformer.decoder.norm.bias:0:0 */) /* ty=Tensor[(100, 32, 256), float32] */;
  %1993 = %1649(%1648, meta[relay.Constant][282] /* ty=Tensor[(256), float32] span=/transformer/decoder/norm/Mul.transformer.decoder.norm.weight:0:0 */, meta[relay.Constant][283] /* ty=Tensor[(256), float32] span=/transformer/decoder/norm/Add_1.transformer.decoder.norm.bias:0:0 */) /* ty=Tensor[(100, 32, 256), float32] */;
  %1994 = %1819(%1818, meta[relay.Constant][282] /* ty=Tensor[(256), float32] span=/transformer/decoder/norm/Mul.transformer.decoder.norm.weight:0:0 */, meta[relay.Constant][283] /* ty=Tensor[(256), float32] span=/transformer/decoder/norm/Add_1.transformer.decoder.norm.bias:0:0 */) /* ty=Tensor[(100, 32, 256), float32] */;
  %1995 = %1989(%1988, meta[relay.Constant][282] /* ty=Tensor[(256), float32] span=/transformer/decoder/norm/Mul.transformer.decoder.norm.weight:0:0 */, meta[relay.Constant][283] /* ty=Tensor[(256), float32] span=/transformer/decoder/norm/Add_1.transformer.decoder.norm.bias:0:0 */) /* ty=Tensor[(100, 32, 256), float32] */;
  %1996 = fn (%p03: Tensor[(100, 32, 256), float32] /* ty=Tensor[(100, 32, 256), float32] */, %p5: Tensor[(100, 32, 256), float32] /* ty=Tensor[(100, 32, 256), float32] */, %p7: Tensor[(100, 32, 256), float32] /* ty=Tensor[(100, 32, 256), float32] */, %p9: Tensor[(100, 32, 256), float32] /* ty=Tensor[(100, 32, 256), float32] */, %p111: Tensor[(100, 32, 256), float32] /* ty=Tensor[(100, 32, 256), float32] */, %p13: Tensor[(100, 32, 256), float32] /* ty=Tensor[(100, 32, 256), float32] */, Primitive=1) -> Tensor[(6, 32, 100, 256), float32] {
    %33 = expand_dims(%p03, axis=0) /* ty=Tensor[(1, 100, 32, 256), float32] */;
    %34 = expand_dims(%p5, axis=0) /* ty=Tensor[(1, 100, 32, 256), float32] */;
    %35 = expand_dims(%p7, axis=0) /* ty=Tensor[(1, 100, 32, 256), float32] */;
    %36 = expand_dims(%p9, axis=0) /* ty=Tensor[(1, 100, 32, 256), float32] */;
    %37 = expand_dims(%p111, axis=0) /* ty=Tensor[(1, 100, 32, 256), float32] */;
    %38 = expand_dims(%p13, axis=0) /* ty=Tensor[(1, 100, 32, 256), float32] */;
    %39 = (%33, %34, %35, %36, %37, %38) /* ty=(Tensor[(1, 100, 32, 256), float32], Tensor[(1, 100, 32, 256), float32], Tensor[(1, 100, 32, 256), float32], Tensor[(1, 100, 32, 256), float32], Tensor[(1, 100, 32, 256), float32], Tensor[(1, 100, 32, 256), float32]) span=/transformer/decoder/Concat:0:0 */;
    %40 = concatenate(%39, axis=0) /* ty=Tensor[(6, 100, 32, 256), float32] */;
    transpose(%40, axes=[0, 2, 1, 3]) /* ty=Tensor[(6, 32, 100, 256), float32] */
  } /* ty=fn (Tensor[(100, 32, 1), float32], Tensor[(100, 32, 256), float32], Tensor[(256), float32], Tensor[(256), float32], Tensor[(100, 32, 1), float32], Tensor[(100, 32, 256), float32], Tensor[(100, 32, 1), float32], Tensor[(100, 32, 256), float32], Tensor[(100, 32, 1), float32], Tensor[(100, 32, 256), float32], Tensor[(100, 32, 1), float32], Tensor[(100, 32, 256), float32], Tensor[(100, 32, 1), float32], Tensor[(100, 32, 256), float32]) -> Tensor[(6, 32, 100, 256), float32] */;
  %1997 = %1996(%1990, %1991, %1992, %1993, %1994, %1995) /* ty=Tensor[(6, 32, 100, 256), float32] */;
  %1998 = fn (%p02: Tensor[(6, 32, 100, 256), float32] /* ty=Tensor[(6, 32, 100, 256), float32] */, Primitive=1) -> Tensor[(19200, 256), float16] {
    %2 = reshape(%p02, newshape=[-1, 256]) /* ty=Tensor[(19200, 256), float32] */;
    cast(%2, dtype="float16") /* ty=Tensor[(19200, 256), float16] */
  } /* ty=fn (Tensor[(6, 32, 100, 256), float32]) -> Tensor[(19200, 256), float16] */;
  %1999 = %1998(%1997) /* ty=Tensor[(19200, 256), float16] */;
  %2000 = fn (%p01: Tensor[(19200, 256), float16] /* ty=Tensor[(19200, 256), float16] */, %p11: Tensor[(92, 256), float16] /* ty=Tensor[(92, 256), float16] */, Primitive=1) -> Tensor[(19200, 92), float16] {
    nn.dense(%p01, %p11, units=None, out_dtype="float16") /* ty=Tensor[(19200, 92), float16] */
  } /* ty=fn (Tensor[(19200, 256), float16], Tensor[(92, 256), float16]) -> Tensor[(19200, 92), float16] */;
  %2001 = %2000(%1999, meta[relay.Constant][420] /* ty=Tensor[(92, 256), float16] */) /* ty=Tensor[(19200, 92), float16] */;
  %2002 = fn (%p0: Tensor[(19200, 92), float16] /* ty=Tensor[(19200, 92), float16] */, %p1: Tensor[(92), float16] /* ty=Tensor[(92), float16] */, Primitive=1) -> Tensor[(32, 100, 92), float16] {
    %0 = reshape(%p0, newshape=[6, 32, 100, 92]) /* ty=Tensor[(6, 32, 100, 92), float16] */;
    %1 = add(%p1, %0) /* ty=Tensor[(6, 32, 100, 92), float16] */;
    take(%1, 5i64 /* ty=int64 */, axis=0) /* ty=Tensor[(32, 100, 92), float16] */
  } /* ty=fn (Tensor[(19200, 92), float16], Tensor[(92), float16]) -> Tensor[(32, 100, 92), float16] */;
  %2013 = fn (%p0543: Tensor[(6, 32, 100, 256), float32] /* ty=Tensor[(6, 32, 100, 256), float32] */, Primitive=1) -> Tensor[(19200, 256), float16] {
    %2012 = reshape(%p0543, newshape=[-1, 256]) /* ty=Tensor[(19200, 256), float32] */;
    cast(%2012, dtype="float16") /* ty=Tensor[(19200, 256), float16] */
  } /* ty=fn (Tensor[(6, 32, 100, 256), float32]) -> Tensor[(19200, 256), float16] */;
  %2014 = %2013(%1997) /* ty=Tensor[(19200, 256), float16] */;
  %2015 = fn (%p0542: Tensor[(19200, 256), float16] /* ty=Tensor[(19200, 256), float16] */, %p1378: Tensor[(256, 256), float16] /* ty=Tensor[(256, 256), float16] */, Primitive=1) -> Tensor[(19200, 256), float16] {
    nn.dense(%p0542, %p1378, units=None, out_dtype="float16") /* ty=Tensor[(19200, 256), float16] */
  } /* ty=fn (Tensor[(19200, 256), float16], Tensor[(256, 256), float16]) -> Tensor[(19200, 256), float16] */;
  %2016 = %2015(%2014, meta[relay.Constant][422] /* ty=Tensor[(256, 256), float16] */) /* ty=Tensor[(19200, 256), float16] */;
  %2017 = fn (%p0541: Tensor[(19200, 256), float16] /* ty=Tensor[(19200, 256), float16] */, %p1377: Tensor[(256), float16] /* ty=Tensor[(256), float16] */, Primitive=1) -> Tensor[(19200, 256), float16] {
    %2009 = reshape(%p0541, newshape=[6, 32, 100, 256]) /* ty=Tensor[(6, 32, 100, 256), float16] */;
    %2010 = add(%p1377, %2009) /* ty=Tensor[(6, 32, 100, 256), float16] */;
    %2011 = nn.relu(%2010) /* ty=Tensor[(6, 32, 100, 256), float16] */;
    reshape(%2011, newshape=[-1, 256]) /* ty=Tensor[(19200, 256), float16] */
  } /* ty=fn (Tensor[(19200, 256), float16], Tensor[(256), float16]) -> Tensor[(19200, 256), float16] */;
  %2018 = %2017(%2016, meta[relay.Constant][423] /* ty=Tensor[(256), float16] */) /* ty=Tensor[(19200, 256), float16] */;
  %2019 = fn (%p0540: Tensor[(19200, 256), float16] /* ty=Tensor[(19200, 256), float16] */, %p1376: Tensor[(256, 256), float16] /* ty=Tensor[(256, 256), float16] */, Primitive=1) -> Tensor[(19200, 256), float16] {
    nn.dense(%p0540, %p1376, units=None, out_dtype="float16") /* ty=Tensor[(19200, 256), float16] */
  } /* ty=fn (Tensor[(19200, 256), float16], Tensor[(256, 256), float16]) -> Tensor[(19200, 256), float16] */;
  %2020 = %2019(%2018, meta[relay.Constant][424] /* ty=Tensor[(256, 256), float16] */) /* ty=Tensor[(19200, 256), float16] */;
  %2021 = fn (%p0539: Tensor[(19200, 256), float16] /* ty=Tensor[(19200, 256), float16] */, %p1375: Tensor[(256), float16] /* ty=Tensor[(256), float16] */, Primitive=1) -> Tensor[(19200, 256), float16] {
    %2006 = reshape(%p0539, newshape=[6, 32, 100, 256]) /* ty=Tensor[(6, 32, 100, 256), float16] */;
    %2007 = add(%p1375, %2006) /* ty=Tensor[(6, 32, 100, 256), float16] */;
    %2008 = nn.relu(%2007) /* ty=Tensor[(6, 32, 100, 256), float16] */;
    reshape(%2008, newshape=[-1, 256]) /* ty=Tensor[(19200, 256), float16] */
  } /* ty=fn (Tensor[(19200, 256), float16], Tensor[(256), float16]) -> Tensor[(19200, 256), float16] */;
  %2022 = %2021(%2020, meta[relay.Constant][425] /* ty=Tensor[(256), float16] */) /* ty=Tensor[(19200, 256), float16] */;
  %2023 = fn (%p0538: Tensor[(19200, 256), float16] /* ty=Tensor[(19200, 256), float16] */, %p1374: Tensor[(4, 256), float16] /* ty=Tensor[(4, 256), float16] */, Primitive=1) -> Tensor[(19200, 4), float16] {
    nn.dense(%p0538, %p1374, units=None, out_dtype="float16") /* ty=Tensor[(19200, 4), float16] */
  } /* ty=fn (Tensor[(19200, 256), float16], Tensor[(4, 256), float16]) -> Tensor[(19200, 4), float16] */;
  %2024 = %2023(%2022, meta[relay.Constant][426] /* ty=Tensor[(4, 256), float16] */) /* ty=Tensor[(19200, 4), float16] */;
  %2025 = fn (%p0537: Tensor[(19200, 4), float16] /* ty=Tensor[(19200, 4), float16] */, %p1373: Tensor[(4), float16] /* ty=Tensor[(4), float16] */, Primitive=1) -> Tensor[(32, 100, 4), float16] {
    %2003 = reshape(%p0537, newshape=[6, 32, 100, 4]) /* ty=Tensor[(6, 32, 100, 4), float16] */;
    %2004 = add(%p1373, %2003) /* ty=Tensor[(6, 32, 100, 4), float16] */;
    %2005 = sigmoid(%2004) /* ty=Tensor[(6, 32, 100, 4), float16] */;
    take(%2005, 5i64 /* ty=int64 */, axis=0) /* ty=Tensor[(32, 100, 4), float16] */
  } /* ty=fn (Tensor[(19200, 4), float16], Tensor[(4), float16]) -> Tensor[(32, 100, 4), float16] */;
  %2026 = %2002(%2001, meta[relay.Constant][421] /* ty=Tensor[(92), float16] */) /* ty=Tensor[(32, 100, 92), float16] */;
  %2027 = %2025(%2024, meta[relay.Constant][427] /* ty=Tensor[(4), float16] */) /* ty=Tensor[(32, 100, 4), float16] */;
  (%2026, %2027) /* ty=(Tensor[(32, 100, 92), float16], Tensor[(32, 100, 4), float16]) */
}


