def @main(%input0: Tensor[(32, 3, 224, 224), float16] /* ty=Tensor[(32, 3, 224, 224), float16] span=/conv_proj/Conv.input0:0:0 */) -> Tensor[(32, 1000), float16] {
  %927 = fn (%p0534: Tensor[(32, 3, 224, 224), float16] /* ty=Tensor[(32, 3, 224, 224), float16] */, Primitive=1) -> Tensor[(32, 224, 224, 3), float16] {
    layout_transform(%p0534, src_layout="NCHW", dst_layout="NHWC") /* ty=Tensor[(32, 224, 224, 3), float16] */
  } /* ty=fn (Tensor[(32, 3, 224, 224), float16]) -> Tensor[(32, 224, 224, 3), float16] */;
  %928 = %927(%input0) /* ty=Tensor[(32, 224, 224, 3), float16] */;
  %929 = fn (%p0533: Tensor[(32, 224, 224, 3), float16] /* ty=Tensor[(32, 224, 224, 3), float16] */, %p1364: Tensor[(1024, 32, 32, 3), float16] /* ty=Tensor[(1024, 32, 32, 3), float16] */, %p2123: Tensor[(1, 1, 1, 1024), float16] /* ty=Tensor[(1, 1, 1, 1024), float16] */, Primitive=1) -> Tensor[(32, 7, 7, 1024), float16] {
    %926 = nn.conv2d(%p0533, %p1364, strides=[32, 32], padding=[0, 0, 0, 0], channels=1024, kernel_size=[32, 32], data_layout="NHWC", kernel_layout="OHWI", out_dtype="float16") /* ty=Tensor[(32, 7, 7, 1024), float16] */;
    add(%926, %p2123) /* ty=Tensor[(32, 7, 7, 1024), float16] */
  } /* ty=fn (Tensor[(32, 224, 224, 3), float16], Tensor[(1024, 32, 32, 3), float16], Tensor[(1, 1, 1, 1024), float16]) -> Tensor[(32, 7, 7, 1024), float16] */;
  %930 = %929(%928, meta[relay.Constant][0] /* ty=Tensor[(1024, 32, 32, 3), float16] */, meta[relay.Constant][1] /* ty=Tensor[(1, 1, 1, 1024), float16] */) /* ty=Tensor[(32, 7, 7, 1024), float16] */;
  %931 = fn (%p0532: Tensor[(32, 7, 7, 1024), float16] /* ty=Tensor[(32, 7, 7, 1024), float16] */, %p1363: Tensor[(32, 1, 1024), float16] /* ty=Tensor[(32, 1, 1024), float16] */, %p2122: Tensor[(1, 50, 1024), float16] /* ty=Tensor[(1, 50, 1024), float16] */, Primitive=1) -> Tensor[(32, 50, 1024), float16] {
    %921 = layout_transform(%p0532, src_layout="NHWC", dst_layout="NCHW") /* ty=Tensor[(32, 1024, 7, 7), float16] */;
    %922 = reshape(%921, newshape=[32, 1024, 49]) /* ty=Tensor[(32, 1024, 49), float16] */;
    %923 = transpose(%922, axes=[0, 2, 1]) /* ty=Tensor[(32, 49, 1024), float16] */;
    %924 = (%p1363, %923) /* ty=(Tensor[(32, 1, 1024), float16], Tensor[(32, 49, 1024), float16]) span=/Concat_2:0:0 */;
    %925 = concatenate(%924, axis=1) /* ty=Tensor[(32, 50, 1024), float16] */;
    add(%925, %p2122) /* ty=Tensor[(32, 50, 1024), float16] */
  } /* ty=fn (Tensor[(32, 7, 7, 1024), float16], Tensor[(32, 1, 1024), float16], Tensor[(1, 50, 1024), float16]) -> Tensor[(32, 50, 1024), float16] */;
  %932 = %931(%930, meta[relay.Constant][2] /* ty=Tensor[(32, 1, 1024), float16] span=/Expand:0:0 */, meta[relay.Constant][3] /* ty=Tensor[(1, 50, 1024), float16] span=/encoder/Add.encoder.pos_embedding:0:0 */) /* ty=Tensor[(32, 50, 1024), float16] */;
  %933 = fn (%p0531: Tensor[(32, 50, 1024), float16] /* ty=Tensor[(32, 50, 1024), float16] */, Primitive=1) -> Tensor[(32, 50, 1024), float32] {
    cast(%p0531, dtype="float32") /* ty=Tensor[(32, 50, 1024), float32] */
  } /* ty=fn (Tensor[(32, 50, 1024), float16]) -> Tensor[(32, 50, 1024), float32] */;
  %934 = %933(%932) /* ty=Tensor[(32, 50, 1024), float32] */;
  %935 = fn (%p0535: Tensor[(32, 50, 1024), float32] /* ty=Tensor[(32, 50, 1024), float32] */, Primitive=1) -> Tensor[(32, 50, 1), float32] {
    mean(%p0535, axis=[-1], keepdims=True) /* ty=Tensor[(32, 50, 1), float32] */
  } /* ty=fn (Tensor[(32, 50, 1024), float32]) -> Tensor[(32, 50, 1), float32] */;
  %936 = %935(%934) /* ty=Tensor[(32, 50, 1), float32] */;
  %937 = fn (%p0530: Tensor[(32, 50, 1024), float32] /* ty=Tensor[(32, 50, 1024), float32] */, %p1362: Tensor[(32, 50, 1), float32] /* ty=Tensor[(32, 50, 1), float32] */, Primitive=1) -> Tensor[(32, 50, 1024), float32] {
    subtract(%p0530, %p1362) /* ty=Tensor[(32, 50, 1024), float32] */
  } /* ty=fn (Tensor[(32, 50, 1024), float32], Tensor[(32, 50, 1), float32]) -> Tensor[(32, 50, 1024), float32] */;
  %938 = %937(%934, %936) /* ty=Tensor[(32, 50, 1024), float32] */;
  %939 = fn (%p0529: Tensor[(32, 50, 1024), float32] /* ty=Tensor[(32, 50, 1024), float32] */, Primitive=1) -> Tensor[(32, 50, 1), float32] {
    %920 = power(%p0529, 2f /* ty=float32 */) /* ty=Tensor[(32, 50, 1024), float32] */;
    mean(%920, axis=[-1], keepdims=True) /* ty=Tensor[(32, 50, 1), float32] */
  } /* ty=fn (Tensor[(32, 50, 1024), float32]) -> Tensor[(32, 50, 1), float32] */;
  %940 = %939(%938) /* ty=Tensor[(32, 50, 1), float32] */;
  %941 = fn (%p0528: Tensor[(32, 50, 1), float32] /* ty=Tensor[(32, 50, 1), float32] */, %p1361: Tensor[(32, 50, 1024), float32] /* ty=Tensor[(32, 50, 1024), float32] */, %p2121: Tensor[(1024), float32] /* ty=Tensor[(1024), float32] */, %p348: Tensor[(1024), float32] /* ty=Tensor[(1024), float32] */, Primitive=1) -> Tensor[(1600, 1024), float16] {
    %913 = add(%p0528, 1.01328e-06f /* ty=float32 */) /* ty=Tensor[(32, 50, 1), float32] */;
    %914 = rsqrt(%913) /* ty=Tensor[(32, 50, 1), float32] */;
    %915 = multiply(%p1361, %914) /* ty=Tensor[(32, 50, 1024), float32] */;
    %916 = multiply(%915, %p2121) /* ty=Tensor[(32, 50, 1024), float32] */;
    %917 = add(%916, %p348) /* ty=Tensor[(32, 50, 1024), float32] */;
    %918 = transpose(%917, axes=[1, 0, 2]) /* ty=Tensor[(50, 32, 1024), float32] */;
    %919 = reshape(%918, newshape=[-1, 1024]) /* ty=Tensor[(1600, 1024), float32] */;
    cast(%919, dtype="float16") /* ty=Tensor[(1600, 1024), float16] */
  } /* ty=fn (Tensor[(32, 50, 1), float32], Tensor[(32, 50, 1024), float32], Tensor[(1024), float32], Tensor[(1024), float32]) -> Tensor[(1600, 1024), float16] */;
  %942 = %941(%940, %938, meta[relay.Constant][4] /* ty=Tensor[(1024), float32] */, meta[relay.Constant][5] /* ty=Tensor[(1024), float32] */) /* ty=Tensor[(1600, 1024), float16] */;
  %943 = fn (%p0527: Tensor[(1600, 1024), float16] /* ty=Tensor[(1600, 1024), float16] */, %p1360: Tensor[(3072, 1024), float16] /* ty=Tensor[(3072, 1024), float16] */, Primitive=1) -> Tensor[(1600, 3072), float16] {
    nn.dense(%p0527, %p1360, units=None, out_dtype="float16") /* ty=Tensor[(1600, 3072), float16] */
  } /* ty=fn (Tensor[(1600, 1024), float16], Tensor[(3072, 1024), float16]) -> Tensor[(1600, 3072), float16] */;
  %944 = %943(%942, meta[relay.Constant][6] /* ty=Tensor[(3072, 1024), float16] span=/encoder/layers/encoder_layer_0/self_attention/MatMul:0:0 */) /* ty=Tensor[(1600, 3072), float16] */;
  %945 = fn (%p0526: Tensor[(1600, 3072), float16] /* ty=Tensor[(1600, 3072), float16] */, %p1359: Tensor[(3072), float16] /* ty=Tensor[(3072), float16] */, Primitive=1) -> Tensor[(50, 32, 3072), float16] {
    %912 = reshape(%p0526, newshape=[50, 32, 3072]) /* ty=Tensor[(50, 32, 3072), float16] */;
    add(%p1359, %912) /* ty=Tensor[(50, 32, 3072), float16] */
  } /* ty=fn (Tensor[(1600, 3072), float16], Tensor[(3072), float16]) -> Tensor[(50, 32, 3072), float16] */;
  %946 = %945(%944, meta[relay.Constant][7] /* ty=Tensor[(3072), float16] span=Identity_5.encoder.layers.encoder_layer_0.self_attention.in_proj_bias:0:0 */) /* ty=Tensor[(50, 32, 3072), float16] */;
  %947 = fn (%p0525: Tensor[(50, 32, 3072), float16] /* ty=Tensor[(50, 32, 3072), float16] */, %p1358: float16 /* ty=float16 */, Primitive=1) -> Tensor[(512, 50, 64), float16] {
    %909 = strided_slice(%p0525, begin=[0i64], end=[1024i64], strides=[1i64], axes=[2i64]) /* ty=Tensor[(50, 32, 1024), float16] */;
    %910 = reshape(%909, newshape=[50, 512, 64]) /* ty=Tensor[(50, 512, 64), float16] */;
    %911 = transpose(%910, axes=[1, 0, 2]) /* ty=Tensor[(512, 50, 64), float16] */;
    divide(%911, %p1358) /* ty=Tensor[(512, 50, 64), float16] */
  } /* ty=fn (Tensor[(50, 32, 3072), float16], float16) -> Tensor[(512, 50, 64), float16] */;
  %950 = fn (%p0536: Tensor[(50, 32, 3072), float16] /* ty=Tensor[(50, 32, 3072), float16] */, Primitive=1) -> Tensor[(512, 50, 64), float16] {
    %948 = strided_slice(%p0536, begin=[1024i64], end=[2048i64], strides=[1i64], axes=[2i64]) /* ty=Tensor[(50, 32, 1024), float16] */;
    %949 = reshape(%948, newshape=[50, 512, 64]) /* ty=Tensor[(50, 512, 64), float16] */;
    transpose(%949, axes=[1, 0, 2]) /* ty=Tensor[(512, 50, 64), float16] */
  } /* ty=fn (Tensor[(50, 32, 3072), float16]) -> Tensor[(512, 50, 64), float16] */;
  %951 = %947(%946, 8f16 /* ty=float16 span=/encoder/layers/encoder_layer_0/self_attention/Constant_14:0:0 */) /* ty=Tensor[(512, 50, 64), float16] */;
  %952 = %950(%946) /* ty=Tensor[(512, 50, 64), float16] */;
  %953 = fn (%p0524: Tensor[(512, 50, 64), float16] /* ty=Tensor[(512, 50, 64), float16] */, %p1357: Tensor[(512, 50, 64), float16] /* ty=Tensor[(512, 50, 64), float16] */, Primitive=1) -> Tensor[(512, 50, 50), float16] {
    nn.batch_matmul(%p0524, %p1357, out_dtype="float16", transpose_b=True) /* ty=Tensor[(512, 50, 50), float16] */
  } /* ty=fn (Tensor[(512, 50, 64), float16], Tensor[(512, 50, 64), float16]) -> Tensor[(512, 50, 50), float16] */;
  %954 = %953(%951, %952) /* ty=Tensor[(512, 50, 50), float16] */;
  %955 = fn (%p0523: Tensor[(512, 50, 50), float16] /* ty=Tensor[(512, 50, 50), float16] */, Primitive=1) -> Tensor[(512, 50, 50), float32] {
    %908 = reshape(%p0523, newshape=[512, 50, 50]) /* ty=Tensor[(512, 50, 50), float16] */;
    cast(%908, dtype="float32") /* ty=Tensor[(512, 50, 50), float32] */
  } /* ty=fn (Tensor[(512, 50, 50), float16]) -> Tensor[(512, 50, 50), float32] */;
  %956 = %955(%954) /* ty=Tensor[(512, 50, 50), float32] */;
  %957 = fn (%p0522: Tensor[(512, 50, 50), float32] /* ty=Tensor[(512, 50, 50), float32] */, Primitive=1) -> Tensor[(512, 50, 50), float16] {
    %907 = nn.softmax(%p0522, axis=2) /* ty=Tensor[(512, 50, 50), float32] */;
    cast(%907, dtype="float16") /* ty=Tensor[(512, 50, 50), float16] */
  } /* ty=fn (Tensor[(512, 50, 50), float32]) -> Tensor[(512, 50, 50), float16] */;
  %960 = fn (%p0537: Tensor[(50, 32, 3072), float16] /* ty=Tensor[(50, 32, 3072), float16] */, Primitive=1) -> Tensor[(512, 64, 50), float16] {
    %958 = strided_slice(%p0537, begin=[2048i64], end=[3072i64], strides=[1i64], axes=[2i64]) /* ty=Tensor[(50, 32, 1024), float16] */;
    %959 = reshape(%958, newshape=[50, 512, 64]) /* ty=Tensor[(50, 512, 64), float16] */;
    transpose(%959, axes=[1, 2, 0]) /* ty=Tensor[(512, 64, 50), float16] */
  } /* ty=fn (Tensor[(50, 32, 3072), float16]) -> Tensor[(512, 64, 50), float16] */;
  %961 = %957(%956) /* ty=Tensor[(512, 50, 50), float16] */;
  %962 = %960(%946) /* ty=Tensor[(512, 64, 50), float16] */;
  %963 = fn (%p0521: Tensor[(512, 50, 50), float16] /* ty=Tensor[(512, 50, 50), float16] */, %p1356: Tensor[(512, 64, 50), float16] /* ty=Tensor[(512, 64, 50), float16] */, Primitive=1) -> Tensor[(512, 50, 64), float16] {
    nn.batch_matmul(%p0521, %p1356, out_dtype="float16", transpose_b=True) /* ty=Tensor[(512, 50, 64), float16] */
  } /* ty=fn (Tensor[(512, 50, 50), float16], Tensor[(512, 64, 50), float16]) -> Tensor[(512, 50, 64), float16] */;
  %964 = %963(%961, %962) /* ty=Tensor[(512, 50, 64), float16] */;
  %965 = fn (%p0520: Tensor[(512, 50, 64), float16] /* ty=Tensor[(512, 50, 64), float16] */, Primitive=1) -> Tensor[(1600, 1024), float16] {
    %905 = reshape(%p0520, newshape=[512, 50, 64]) /* ty=Tensor[(512, 50, 64), float16] */;
    %906 = transpose(%905, axes=[1, 0, 2]) /* ty=Tensor[(50, 512, 64), float16] */;
    reshape(%906, newshape=[1600, 1024]) /* ty=Tensor[(1600, 1024), float16] */
  } /* ty=fn (Tensor[(512, 50, 64), float16]) -> Tensor[(1600, 1024), float16] */;
  %966 = %965(%964) /* ty=Tensor[(1600, 1024), float16] */;
  %967 = fn (%p0519: Tensor[(1600, 1024), float16] /* ty=Tensor[(1600, 1024), float16] */, %p1355: Tensor[(1024, 1024), float16] /* ty=Tensor[(1024, 1024), float16] */, %p2120: Tensor[(1, 1024), float16] /* ty=Tensor[(1, 1024), float16] */, Primitive=1) -> Tensor[(1600, 1024), float16] {
    %904 = nn.dense(%p0519, %p1355, units=1024, out_dtype="float16") /* ty=Tensor[(1600, 1024), float16] */;
    add(%904, %p2120) /* ty=Tensor[(1600, 1024), float16] */
  } /* ty=fn (Tensor[(1600, 1024), float16], Tensor[(1024, 1024), float16], Tensor[(1, 1024), float16]) -> Tensor[(1600, 1024), float16] */;
  %968 = %967(%966, meta[relay.Constant][8] /* ty=Tensor[(1024, 1024), float16] span=/encoder/layers/encoder_layer_0/self_attention/Gemm.encoder.layers.encoder_layer_0.self_attention.out_proj.weight:0:0 */, meta[relay.Constant][9] /* ty=Tensor[(1, 1024), float16] */) /* ty=Tensor[(1600, 1024), float16] */;
  %969 = fn (%p0518: Tensor[(1600, 1024), float16] /* ty=Tensor[(1600, 1024), float16] */, %p1354: Tensor[(32, 50, 1024), float16] /* ty=Tensor[(32, 50, 1024), float16] */, Primitive=1) -> Tensor[(32, 50, 1024), float16] {
    %902 = reshape(%p0518, newshape=[50, 32, 1024]) /* ty=Tensor[(50, 32, 1024), float16] */;
    %903 = transpose(%902, axes=[1, 0, 2]) /* ty=Tensor[(32, 50, 1024), float16] */;
    add(%903, %p1354) /* ty=Tensor[(32, 50, 1024), float16] */
  } /* ty=fn (Tensor[(1600, 1024), float16], Tensor[(32, 50, 1024), float16]) -> Tensor[(32, 50, 1024), float16] */;
  %970 = %969(%968, %932) /* ty=Tensor[(32, 50, 1024), float16] */;
  %971 = fn (%p0517: Tensor[(32, 50, 1024), float16] /* ty=Tensor[(32, 50, 1024), float16] */, Primitive=1) -> Tensor[(32, 50, 1024), float32] {
    cast(%p0517, dtype="float32") /* ty=Tensor[(32, 50, 1024), float32] */
  } /* ty=fn (Tensor[(32, 50, 1024), float16]) -> Tensor[(32, 50, 1024), float32] */;
  %972 = %971(%970) /* ty=Tensor[(32, 50, 1024), float32] */;
  %973 = fn (%p0538: Tensor[(32, 50, 1024), float32] /* ty=Tensor[(32, 50, 1024), float32] */, Primitive=1) -> Tensor[(32, 50, 1), float32] {
    mean(%p0538, axis=[-1], keepdims=True) /* ty=Tensor[(32, 50, 1), float32] */
  } /* ty=fn (Tensor[(32, 50, 1024), float32]) -> Tensor[(32, 50, 1), float32] */;
  %974 = %973(%972) /* ty=Tensor[(32, 50, 1), float32] */;
  %975 = fn (%p0516: Tensor[(32, 50, 1024), float32] /* ty=Tensor[(32, 50, 1024), float32] */, %p1353: Tensor[(32, 50, 1), float32] /* ty=Tensor[(32, 50, 1), float32] */, Primitive=1) -> Tensor[(32, 50, 1024), float32] {
    subtract(%p0516, %p1353) /* ty=Tensor[(32, 50, 1024), float32] */
  } /* ty=fn (Tensor[(32, 50, 1024), float32], Tensor[(32, 50, 1), float32]) -> Tensor[(32, 50, 1024), float32] */;
  %976 = %975(%972, %974) /* ty=Tensor[(32, 50, 1024), float32] */;
  %977 = fn (%p0515: Tensor[(32, 50, 1024), float32] /* ty=Tensor[(32, 50, 1024), float32] */, Primitive=1) -> Tensor[(32, 50, 1), float32] {
    %901 = power(%p0515, 2f /* ty=float32 */) /* ty=Tensor[(32, 50, 1024), float32] */;
    mean(%901, axis=[-1], keepdims=True) /* ty=Tensor[(32, 50, 1), float32] */
  } /* ty=fn (Tensor[(32, 50, 1024), float32]) -> Tensor[(32, 50, 1), float32] */;
  %978 = %977(%976) /* ty=Tensor[(32, 50, 1), float32] */;
  %979 = fn (%p0514: Tensor[(32, 50, 1), float32] /* ty=Tensor[(32, 50, 1), float32] */, %p1352: Tensor[(32, 50, 1024), float32] /* ty=Tensor[(32, 50, 1024), float32] */, %p2119: Tensor[(1024), float32] /* ty=Tensor[(1024), float32] */, %p347: Tensor[(1024), float32] /* ty=Tensor[(1024), float32] */, Primitive=1) -> Tensor[(1600, 1024), float16] {
    %895 = add(%p0514, 1.01328e-06f /* ty=float32 */) /* ty=Tensor[(32, 50, 1), float32] */;
    %896 = rsqrt(%895) /* ty=Tensor[(32, 50, 1), float32] */;
    %897 = multiply(%p1352, %896) /* ty=Tensor[(32, 50, 1024), float32] */;
    %898 = multiply(%897, %p2119) /* ty=Tensor[(32, 50, 1024), float32] */;
    %899 = add(%898, %p347) /* ty=Tensor[(32, 50, 1024), float32] */;
    %900 = reshape(%899, newshape=[-1, 1024]) /* ty=Tensor[(1600, 1024), float32] */;
    cast(%900, dtype="float16") /* ty=Tensor[(1600, 1024), float16] */
  } /* ty=fn (Tensor[(32, 50, 1), float32], Tensor[(32, 50, 1024), float32], Tensor[(1024), float32], Tensor[(1024), float32]) -> Tensor[(1600, 1024), float16] */;
  %980 = %979(%978, %976, meta[relay.Constant][10] /* ty=Tensor[(1024), float32] */, meta[relay.Constant][11] /* ty=Tensor[(1024), float32] */) /* ty=Tensor[(1600, 1024), float16] */;
  %981 = fn (%p0513: Tensor[(1600, 1024), float16] /* ty=Tensor[(1600, 1024), float16] */, %p1351: Tensor[(4096, 1024), float16] /* ty=Tensor[(4096, 1024), float16] */, Primitive=1) -> Tensor[(1600, 4096), float16] {
    nn.dense(%p0513, %p1351, units=None, out_dtype="float16") /* ty=Tensor[(1600, 4096), float16] */
  } /* ty=fn (Tensor[(1600, 1024), float16], Tensor[(4096, 1024), float16]) -> Tensor[(1600, 4096), float16] */;
  %982 = %981(%980, meta[relay.Constant][12] /* ty=Tensor[(4096, 1024), float16] span=/encoder/layers/encoder_layer_0/mlp/mlp.0/MatMul:0:0 */) /* ty=Tensor[(1600, 4096), float16] */;
  %983 = fn (%p0512: Tensor[(1600, 4096), float16] /* ty=Tensor[(1600, 4096), float16] */, %p1350: Tensor[(4096), float16] /* ty=Tensor[(4096), float16] */, %p2118: float16 /* ty=float16 */, Primitive=1) -> Tensor[(1600, 4096), float16] {
    %885 = reshape(%p0512, newshape=[32, 50, 4096]) /* ty=Tensor[(32, 50, 4096), float16] */;
    %886 = add(%p1350, %885) /* ty=Tensor[(32, 50, 4096), float16] */;
    %887 = divide(%886, %p2118) /* ty=Tensor[(32, 50, 4096), float16] */;
    %888 = cast(%887, dtype="float32") /* ty=Tensor[(32, 50, 4096), float32] */;
    %889 = erf(%888) /* ty=Tensor[(32, 50, 4096), float32] */;
    %890 = cast(%886, dtype="float32") /* ty=Tensor[(32, 50, 4096), float32] */;
    %891 = add(%889, 1f /* ty=float32 */) /* ty=Tensor[(32, 50, 4096), float32] */;
    %892 = multiply(%890, %891) /* ty=Tensor[(32, 50, 4096), float32] */;
    %893 = multiply(%892, 0.5f /* ty=float32 */) /* ty=Tensor[(32, 50, 4096), float32] */;
    %894 = reshape(%893, newshape=[-1, 4096]) /* ty=Tensor[(1600, 4096), float32] */;
    cast(%894, dtype="float16") /* ty=Tensor[(1600, 4096), float16] */
  } /* ty=fn (Tensor[(1600, 4096), float16], Tensor[(4096), float16], float16) -> Tensor[(1600, 4096), float16] */;
  %984 = %983(%982, meta[relay.Constant][13] /* ty=Tensor[(4096), float16] span=/encoder/layers/encoder_layer_0/mlp/mlp.0/Add.encoder.layers.encoder_layer_0.mlp.0.bias:0:0 */, 1.41406f16 /* ty=float16 span=/encoder/layers/encoder_layer_0/mlp/mlp.1/Constant:0:0 */) /* ty=Tensor[(1600, 4096), float16] */;
  %985 = fn (%p0511: Tensor[(1600, 4096), float16] /* ty=Tensor[(1600, 4096), float16] */, %p1349: Tensor[(1024, 4096), float16] /* ty=Tensor[(1024, 4096), float16] */, Primitive=1) -> Tensor[(1600, 1024), float16] {
    nn.dense(%p0511, %p1349, units=None, out_dtype="float16") /* ty=Tensor[(1600, 1024), float16] */
  } /* ty=fn (Tensor[(1600, 4096), float16], Tensor[(1024, 4096), float16]) -> Tensor[(1600, 1024), float16] */;
  %986 = %985(%984, meta[relay.Constant][14] /* ty=Tensor[(1024, 4096), float16] span=/encoder/layers/encoder_layer_0/mlp/mlp.3/MatMul:0:0 */) /* ty=Tensor[(1600, 1024), float16] */;
  %987 = fn (%p0510: Tensor[(1600, 1024), float16] /* ty=Tensor[(1600, 1024), float16] */, %p1348: Tensor[(1024), float16] /* ty=Tensor[(1024), float16] */, %p2117: Tensor[(32, 50, 1024), float16] /* ty=Tensor[(32, 50, 1024), float16] */, Primitive=1) -> Tensor[(32, 50, 1024), float16] {
    %883 = reshape(%p0510, newshape=[32, 50, 1024]) /* ty=Tensor[(32, 50, 1024), float16] */;
    %884 = add(%p1348, %883) /* ty=Tensor[(32, 50, 1024), float16] */;
    add(%p2117, %884) /* ty=Tensor[(32, 50, 1024), float16] */
  } /* ty=fn (Tensor[(1600, 1024), float16], Tensor[(1024), float16], Tensor[(32, 50, 1024), float16]) -> Tensor[(32, 50, 1024), float16] */;
  %988 = %987(%986, meta[relay.Constant][15] /* ty=Tensor[(1024), float16] span=/encoder/layers/encoder_layer_0/mlp/mlp.3/Add.encoder.layers.encoder_layer_0.mlp.3.bias:0:0 */, %970) /* ty=Tensor[(32, 50, 1024), float16] */;
  %989 = fn (%p0509: Tensor[(32, 50, 1024), float16] /* ty=Tensor[(32, 50, 1024), float16] */, Primitive=1) -> Tensor[(32, 50, 1024), float32] {
    cast(%p0509, dtype="float32") /* ty=Tensor[(32, 50, 1024), float32] */
  } /* ty=fn (Tensor[(32, 50, 1024), float16]) -> Tensor[(32, 50, 1024), float32] */;
  %990 = %989(%988) /* ty=Tensor[(32, 50, 1024), float32] */;
  %991 = fn (%p0539: Tensor[(32, 50, 1024), float32] /* ty=Tensor[(32, 50, 1024), float32] */, Primitive=1) -> Tensor[(32, 50, 1), float32] {
    mean(%p0539, axis=[-1], keepdims=True) /* ty=Tensor[(32, 50, 1), float32] */
  } /* ty=fn (Tensor[(32, 50, 1024), float32]) -> Tensor[(32, 50, 1), float32] */;
  %992 = %991(%990) /* ty=Tensor[(32, 50, 1), float32] */;
  %993 = fn (%p0508: Tensor[(32, 50, 1024), float32] /* ty=Tensor[(32, 50, 1024), float32] */, %p1347: Tensor[(32, 50, 1), float32] /* ty=Tensor[(32, 50, 1), float32] */, Primitive=1) -> Tensor[(32, 50, 1024), float32] {
    subtract(%p0508, %p1347) /* ty=Tensor[(32, 50, 1024), float32] */
  } /* ty=fn (Tensor[(32, 50, 1024), float32], Tensor[(32, 50, 1), float32]) -> Tensor[(32, 50, 1024), float32] */;
  %994 = %993(%990, %992) /* ty=Tensor[(32, 50, 1024), float32] */;
  %995 = fn (%p0507: Tensor[(32, 50, 1024), float32] /* ty=Tensor[(32, 50, 1024), float32] */, Primitive=1) -> Tensor[(32, 50, 1), float32] {
    %882 = power(%p0507, 2f /* ty=float32 */) /* ty=Tensor[(32, 50, 1024), float32] */;
    mean(%882, axis=[-1], keepdims=True) /* ty=Tensor[(32, 50, 1), float32] */
  } /* ty=fn (Tensor[(32, 50, 1024), float32]) -> Tensor[(32, 50, 1), float32] */;
  %996 = %995(%994) /* ty=Tensor[(32, 50, 1), float32] */;
  %997 = fn (%p0506: Tensor[(32, 50, 1), float32] /* ty=Tensor[(32, 50, 1), float32] */, %p1346: Tensor[(32, 50, 1024), float32] /* ty=Tensor[(32, 50, 1024), float32] */, %p2116: Tensor[(1024), float32] /* ty=Tensor[(1024), float32] */, %p346: Tensor[(1024), float32] /* ty=Tensor[(1024), float32] */, Primitive=1) -> Tensor[(1600, 1024), float16] {
    %875 = add(%p0506, 1.01328e-06f /* ty=float32 */) /* ty=Tensor[(32, 50, 1), float32] */;
    %876 = rsqrt(%875) /* ty=Tensor[(32, 50, 1), float32] */;
    %877 = multiply(%p1346, %876) /* ty=Tensor[(32, 50, 1024), float32] */;
    %878 = multiply(%877, %p2116) /* ty=Tensor[(32, 50, 1024), float32] */;
    %879 = add(%878, %p346) /* ty=Tensor[(32, 50, 1024), float32] */;
    %880 = transpose(%879, axes=[1, 0, 2]) /* ty=Tensor[(50, 32, 1024), float32] */;
    %881 = reshape(%880, newshape=[-1, 1024]) /* ty=Tensor[(1600, 1024), float32] */;
    cast(%881, dtype="float16") /* ty=Tensor[(1600, 1024), float16] */
  } /* ty=fn (Tensor[(32, 50, 1), float32], Tensor[(32, 50, 1024), float32], Tensor[(1024), float32], Tensor[(1024), float32]) -> Tensor[(1600, 1024), float16] */;
  %998 = %997(%996, %994, meta[relay.Constant][16] /* ty=Tensor[(1024), float32] */, meta[relay.Constant][17] /* ty=Tensor[(1024), float32] */) /* ty=Tensor[(1600, 1024), float16] */;
  %999 = fn (%p0505: Tensor[(1600, 1024), float16] /* ty=Tensor[(1600, 1024), float16] */, %p1345: Tensor[(3072, 1024), float16] /* ty=Tensor[(3072, 1024), float16] */, Primitive=1) -> Tensor[(1600, 3072), float16] {
    nn.dense(%p0505, %p1345, units=None, out_dtype="float16") /* ty=Tensor[(1600, 3072), float16] */
  } /* ty=fn (Tensor[(1600, 1024), float16], Tensor[(3072, 1024), float16]) -> Tensor[(1600, 3072), float16] */;
  %1000 = %999(%998, meta[relay.Constant][18] /* ty=Tensor[(3072, 1024), float16] span=/encoder/layers/encoder_layer_1/self_attention/MatMul:0:0 */) /* ty=Tensor[(1600, 3072), float16] */;
  %1001 = fn (%p0504: Tensor[(1600, 3072), float16] /* ty=Tensor[(1600, 3072), float16] */, %p1344: Tensor[(3072), float16] /* ty=Tensor[(3072), float16] */, Primitive=1) -> Tensor[(50, 32, 3072), float16] {
    %874 = reshape(%p0504, newshape=[50, 32, 3072]) /* ty=Tensor[(50, 32, 3072), float16] */;
    add(%p1344, %874) /* ty=Tensor[(50, 32, 3072), float16] */
  } /* ty=fn (Tensor[(1600, 3072), float16], Tensor[(3072), float16]) -> Tensor[(50, 32, 3072), float16] */;
  %1002 = %1001(%1000, meta[relay.Constant][19] /* ty=Tensor[(3072), float16] span=Identity_137:0:0 */) /* ty=Tensor[(50, 32, 3072), float16] */;
  %1003 = fn (%p0503: Tensor[(50, 32, 3072), float16] /* ty=Tensor[(50, 32, 3072), float16] */, %p1343: float16 /* ty=float16 */, Primitive=1) -> Tensor[(512, 50, 64), float16] {
    %871 = strided_slice(%p0503, begin=[0i64], end=[1024i64], strides=[1i64], axes=[2i64]) /* ty=Tensor[(50, 32, 1024), float16] */;
    %872 = reshape(%871, newshape=[50, 512, 64]) /* ty=Tensor[(50, 512, 64), float16] */;
    %873 = transpose(%872, axes=[1, 0, 2]) /* ty=Tensor[(512, 50, 64), float16] */;
    divide(%873, %p1343) /* ty=Tensor[(512, 50, 64), float16] */
  } /* ty=fn (Tensor[(50, 32, 3072), float16], float16) -> Tensor[(512, 50, 64), float16] */;
  %1006 = fn (%p0540: Tensor[(50, 32, 3072), float16] /* ty=Tensor[(50, 32, 3072), float16] */, Primitive=1) -> Tensor[(512, 50, 64), float16] {
    %1004 = strided_slice(%p0540, begin=[1024i64], end=[2048i64], strides=[1i64], axes=[2i64]) /* ty=Tensor[(50, 32, 1024), float16] */;
    %1005 = reshape(%1004, newshape=[50, 512, 64]) /* ty=Tensor[(50, 512, 64), float16] */;
    transpose(%1005, axes=[1, 0, 2]) /* ty=Tensor[(512, 50, 64), float16] */
  } /* ty=fn (Tensor[(50, 32, 3072), float16]) -> Tensor[(512, 50, 64), float16] */;
  %1007 = %1003(%1002, 8f16 /* ty=float16 span=/encoder/layers/encoder_layer_1/self_attention/Constant_14:0:0 */) /* ty=Tensor[(512, 50, 64), float16] */;
  %1008 = %1006(%1002) /* ty=Tensor[(512, 50, 64), float16] */;
  %1009 = fn (%p0502: Tensor[(512, 50, 64), float16] /* ty=Tensor[(512, 50, 64), float16] */, %p1342: Tensor[(512, 50, 64), float16] /* ty=Tensor[(512, 50, 64), float16] */, Primitive=1) -> Tensor[(512, 50, 50), float16] {
    nn.batch_matmul(%p0502, %p1342, out_dtype="float16", transpose_b=True) /* ty=Tensor[(512, 50, 50), float16] */
  } /* ty=fn (Tensor[(512, 50, 64), float16], Tensor[(512, 50, 64), float16]) -> Tensor[(512, 50, 50), float16] */;
  %1010 = %1009(%1007, %1008) /* ty=Tensor[(512, 50, 50), float16] */;
  %1011 = fn (%p0501: Tensor[(512, 50, 50), float16] /* ty=Tensor[(512, 50, 50), float16] */, Primitive=1) -> Tensor[(512, 50, 50), float32] {
    %870 = reshape(%p0501, newshape=[512, 50, 50]) /* ty=Tensor[(512, 50, 50), float16] */;
    cast(%870, dtype="float32") /* ty=Tensor[(512, 50, 50), float32] */
  } /* ty=fn (Tensor[(512, 50, 50), float16]) -> Tensor[(512, 50, 50), float32] */;
  %1012 = %1011(%1010) /* ty=Tensor[(512, 50, 50), float32] */;
  %1013 = fn (%p0500: Tensor[(512, 50, 50), float32] /* ty=Tensor[(512, 50, 50), float32] */, Primitive=1) -> Tensor[(512, 50, 50), float16] {
    %869 = nn.softmax(%p0500, axis=2) /* ty=Tensor[(512, 50, 50), float32] */;
    cast(%869, dtype="float16") /* ty=Tensor[(512, 50, 50), float16] */
  } /* ty=fn (Tensor[(512, 50, 50), float32]) -> Tensor[(512, 50, 50), float16] */;
  %1016 = fn (%p0541: Tensor[(50, 32, 3072), float16] /* ty=Tensor[(50, 32, 3072), float16] */, Primitive=1) -> Tensor[(512, 64, 50), float16] {
    %1014 = strided_slice(%p0541, begin=[2048i64], end=[3072i64], strides=[1i64], axes=[2i64]) /* ty=Tensor[(50, 32, 1024), float16] */;
    %1015 = reshape(%1014, newshape=[50, 512, 64]) /* ty=Tensor[(50, 512, 64), float16] */;
    transpose(%1015, axes=[1, 2, 0]) /* ty=Tensor[(512, 64, 50), float16] */
  } /* ty=fn (Tensor[(50, 32, 3072), float16]) -> Tensor[(512, 64, 50), float16] */;
  %1017 = %1013(%1012) /* ty=Tensor[(512, 50, 50), float16] */;
  %1018 = %1016(%1002) /* ty=Tensor[(512, 64, 50), float16] */;
  %1019 = fn (%p0499: Tensor[(512, 50, 50), float16] /* ty=Tensor[(512, 50, 50), float16] */, %p1341: Tensor[(512, 64, 50), float16] /* ty=Tensor[(512, 64, 50), float16] */, Primitive=1) -> Tensor[(512, 50, 64), float16] {
    nn.batch_matmul(%p0499, %p1341, out_dtype="float16", transpose_b=True) /* ty=Tensor[(512, 50, 64), float16] */
  } /* ty=fn (Tensor[(512, 50, 50), float16], Tensor[(512, 64, 50), float16]) -> Tensor[(512, 50, 64), float16] */;
  %1020 = %1019(%1017, %1018) /* ty=Tensor[(512, 50, 64), float16] */;
  %1021 = fn (%p0498: Tensor[(512, 50, 64), float16] /* ty=Tensor[(512, 50, 64), float16] */, Primitive=1) -> Tensor[(1600, 1024), float16] {
    %867 = reshape(%p0498, newshape=[512, 50, 64]) /* ty=Tensor[(512, 50, 64), float16] */;
    %868 = transpose(%867, axes=[1, 0, 2]) /* ty=Tensor[(50, 512, 64), float16] */;
    reshape(%868, newshape=[1600, 1024]) /* ty=Tensor[(1600, 1024), float16] */
  } /* ty=fn (Tensor[(512, 50, 64), float16]) -> Tensor[(1600, 1024), float16] */;
  %1022 = %1021(%1020) /* ty=Tensor[(1600, 1024), float16] */;
  %1023 = fn (%p0497: Tensor[(1600, 1024), float16] /* ty=Tensor[(1600, 1024), float16] */, %p1340: Tensor[(1024, 1024), float16] /* ty=Tensor[(1024, 1024), float16] */, %p2115: Tensor[(1, 1024), float16] /* ty=Tensor[(1, 1024), float16] */, Primitive=1) -> Tensor[(1600, 1024), float16] {
    %866 = nn.dense(%p0497, %p1340, units=1024, out_dtype="float16") /* ty=Tensor[(1600, 1024), float16] */;
    add(%866, %p2115) /* ty=Tensor[(1600, 1024), float16] */
  } /* ty=fn (Tensor[(1600, 1024), float16], Tensor[(1024, 1024), float16], Tensor[(1, 1024), float16]) -> Tensor[(1600, 1024), float16] */;
  %1024 = %1023(%1022, meta[relay.Constant][20] /* ty=Tensor[(1024, 1024), float16] span=/encoder/layers/encoder_layer_1/self_attention/Gemm.encoder.layers.encoder_layer_1.self_attention.out_proj.weight:0:0 */, meta[relay.Constant][21] /* ty=Tensor[(1, 1024), float16] */) /* ty=Tensor[(1600, 1024), float16] */;
  %1025 = fn (%p0496: Tensor[(1600, 1024), float16] /* ty=Tensor[(1600, 1024), float16] */, %p1339: Tensor[(32, 50, 1024), float16] /* ty=Tensor[(32, 50, 1024), float16] */, Primitive=1) -> Tensor[(32, 50, 1024), float16] {
    %864 = reshape(%p0496, newshape=[50, 32, 1024]) /* ty=Tensor[(50, 32, 1024), float16] */;
    %865 = transpose(%864, axes=[1, 0, 2]) /* ty=Tensor[(32, 50, 1024), float16] */;
    add(%865, %p1339) /* ty=Tensor[(32, 50, 1024), float16] */
  } /* ty=fn (Tensor[(1600, 1024), float16], Tensor[(32, 50, 1024), float16]) -> Tensor[(32, 50, 1024), float16] */;
  %1026 = %1025(%1024, %988) /* ty=Tensor[(32, 50, 1024), float16] */;
  %1027 = fn (%p0495: Tensor[(32, 50, 1024), float16] /* ty=Tensor[(32, 50, 1024), float16] */, Primitive=1) -> Tensor[(32, 50, 1024), float32] {
    cast(%p0495, dtype="float32") /* ty=Tensor[(32, 50, 1024), float32] */
  } /* ty=fn (Tensor[(32, 50, 1024), float16]) -> Tensor[(32, 50, 1024), float32] */;
  %1028 = %1027(%1026) /* ty=Tensor[(32, 50, 1024), float32] */;
  %1029 = fn (%p0542: Tensor[(32, 50, 1024), float32] /* ty=Tensor[(32, 50, 1024), float32] */, Primitive=1) -> Tensor[(32, 50, 1), float32] {
    mean(%p0542, axis=[-1], keepdims=True) /* ty=Tensor[(32, 50, 1), float32] */
  } /* ty=fn (Tensor[(32, 50, 1024), float32]) -> Tensor[(32, 50, 1), float32] */;
  %1030 = %1029(%1028) /* ty=Tensor[(32, 50, 1), float32] */;
  %1031 = fn (%p0494: Tensor[(32, 50, 1024), float32] /* ty=Tensor[(32, 50, 1024), float32] */, %p1338: Tensor[(32, 50, 1), float32] /* ty=Tensor[(32, 50, 1), float32] */, Primitive=1) -> Tensor[(32, 50, 1024), float32] {
    subtract(%p0494, %p1338) /* ty=Tensor[(32, 50, 1024), float32] */
  } /* ty=fn (Tensor[(32, 50, 1024), float32], Tensor[(32, 50, 1), float32]) -> Tensor[(32, 50, 1024), float32] */;
  %1032 = %1031(%1028, %1030) /* ty=Tensor[(32, 50, 1024), float32] */;
  %1033 = fn (%p0493: Tensor[(32, 50, 1024), float32] /* ty=Tensor[(32, 50, 1024), float32] */, Primitive=1) -> Tensor[(32, 50, 1), float32] {
    %863 = power(%p0493, 2f /* ty=float32 */) /* ty=Tensor[(32, 50, 1024), float32] */;
    mean(%863, axis=[-1], keepdims=True) /* ty=Tensor[(32, 50, 1), float32] */
  } /* ty=fn (Tensor[(32, 50, 1024), float32]) -> Tensor[(32, 50, 1), float32] */;
  %1034 = %1033(%1032) /* ty=Tensor[(32, 50, 1), float32] */;
  %1035 = fn (%p0492: Tensor[(32, 50, 1), float32] /* ty=Tensor[(32, 50, 1), float32] */, %p1337: Tensor[(32, 50, 1024), float32] /* ty=Tensor[(32, 50, 1024), float32] */, %p2114: Tensor[(1024), float32] /* ty=Tensor[(1024), float32] */, %p345: Tensor[(1024), float32] /* ty=Tensor[(1024), float32] */, Primitive=1) -> Tensor[(1600, 1024), float16] {
    %857 = add(%p0492, 1.01328e-06f /* ty=float32 */) /* ty=Tensor[(32, 50, 1), float32] */;
    %858 = rsqrt(%857) /* ty=Tensor[(32, 50, 1), float32] */;
    %859 = multiply(%p1337, %858) /* ty=Tensor[(32, 50, 1024), float32] */;
    %860 = multiply(%859, %p2114) /* ty=Tensor[(32, 50, 1024), float32] */;
    %861 = add(%860, %p345) /* ty=Tensor[(32, 50, 1024), float32] */;
    %862 = reshape(%861, newshape=[-1, 1024]) /* ty=Tensor[(1600, 1024), float32] */;
    cast(%862, dtype="float16") /* ty=Tensor[(1600, 1024), float16] */
  } /* ty=fn (Tensor[(32, 50, 1), float32], Tensor[(32, 50, 1024), float32], Tensor[(1024), float32], Tensor[(1024), float32]) -> Tensor[(1600, 1024), float16] */;
  %1036 = %1035(%1034, %1032, meta[relay.Constant][22] /* ty=Tensor[(1024), float32] */, meta[relay.Constant][23] /* ty=Tensor[(1024), float32] */) /* ty=Tensor[(1600, 1024), float16] */;
  %1037 = fn (%p0491: Tensor[(1600, 1024), float16] /* ty=Tensor[(1600, 1024), float16] */, %p1336: Tensor[(4096, 1024), float16] /* ty=Tensor[(4096, 1024), float16] */, Primitive=1) -> Tensor[(1600, 4096), float16] {
    nn.dense(%p0491, %p1336, units=None, out_dtype="float16") /* ty=Tensor[(1600, 4096), float16] */
  } /* ty=fn (Tensor[(1600, 1024), float16], Tensor[(4096, 1024), float16]) -> Tensor[(1600, 4096), float16] */;
  %1038 = %1037(%1036, meta[relay.Constant][24] /* ty=Tensor[(4096, 1024), float16] span=/encoder/layers/encoder_layer_1/mlp/mlp.0/MatMul:0:0 */) /* ty=Tensor[(1600, 4096), float16] */;
  %1039 = fn (%p0490: Tensor[(1600, 4096), float16] /* ty=Tensor[(1600, 4096), float16] */, %p1335: Tensor[(4096), float16] /* ty=Tensor[(4096), float16] */, %p2113: float16 /* ty=float16 */, Primitive=1) -> Tensor[(1600, 4096), float16] {
    %847 = reshape(%p0490, newshape=[32, 50, 4096]) /* ty=Tensor[(32, 50, 4096), float16] */;
    %848 = add(%p1335, %847) /* ty=Tensor[(32, 50, 4096), float16] */;
    %849 = divide(%848, %p2113) /* ty=Tensor[(32, 50, 4096), float16] */;
    %850 = cast(%849, dtype="float32") /* ty=Tensor[(32, 50, 4096), float32] */;
    %851 = erf(%850) /* ty=Tensor[(32, 50, 4096), float32] */;
    %852 = cast(%848, dtype="float32") /* ty=Tensor[(32, 50, 4096), float32] */;
    %853 = add(%851, 1f /* ty=float32 */) /* ty=Tensor[(32, 50, 4096), float32] */;
    %854 = multiply(%852, %853) /* ty=Tensor[(32, 50, 4096), float32] */;
    %855 = multiply(%854, 0.5f /* ty=float32 */) /* ty=Tensor[(32, 50, 4096), float32] */;
    %856 = reshape(%855, newshape=[-1, 4096]) /* ty=Tensor[(1600, 4096), float32] */;
    cast(%856, dtype="float16") /* ty=Tensor[(1600, 4096), float16] */
  } /* ty=fn (Tensor[(1600, 4096), float16], Tensor[(4096), float16], float16) -> Tensor[(1600, 4096), float16] */;
  %1040 = %1039(%1038, meta[relay.Constant][25] /* ty=Tensor[(4096), float16] span=/encoder/layers/encoder_layer_1/mlp/mlp.0/Add.encoder.layers.encoder_layer_1.mlp.0.bias:0:0 */, 1.41406f16 /* ty=float16 span=/encoder/layers/encoder_layer_1/mlp/mlp.1/Constant:0:0 */) /* ty=Tensor[(1600, 4096), float16] */;
  %1041 = fn (%p0489: Tensor[(1600, 4096), float16] /* ty=Tensor[(1600, 4096), float16] */, %p1334: Tensor[(1024, 4096), float16] /* ty=Tensor[(1024, 4096), float16] */, Primitive=1) -> Tensor[(1600, 1024), float16] {
    nn.dense(%p0489, %p1334, units=None, out_dtype="float16") /* ty=Tensor[(1600, 1024), float16] */
  } /* ty=fn (Tensor[(1600, 4096), float16], Tensor[(1024, 4096), float16]) -> Tensor[(1600, 1024), float16] */;
  %1042 = %1041(%1040, meta[relay.Constant][26] /* ty=Tensor[(1024, 4096), float16] span=/encoder/layers/encoder_layer_1/mlp/mlp.3/MatMul:0:0 */) /* ty=Tensor[(1600, 1024), float16] */;
  %1043 = fn (%p0488: Tensor[(1600, 1024), float16] /* ty=Tensor[(1600, 1024), float16] */, %p1333: Tensor[(1024), float16] /* ty=Tensor[(1024), float16] */, %p2112: Tensor[(32, 50, 1024), float16] /* ty=Tensor[(32, 50, 1024), float16] */, Primitive=1) -> Tensor[(32, 50, 1024), float16] {
    %845 = reshape(%p0488, newshape=[32, 50, 1024]) /* ty=Tensor[(32, 50, 1024), float16] */;
    %846 = add(%p1333, %845) /* ty=Tensor[(32, 50, 1024), float16] */;
    add(%p2112, %846) /* ty=Tensor[(32, 50, 1024), float16] */
  } /* ty=fn (Tensor[(1600, 1024), float16], Tensor[(1024), float16], Tensor[(32, 50, 1024), float16]) -> Tensor[(32, 50, 1024), float16] */;
  %1044 = %1043(%1042, meta[relay.Constant][27] /* ty=Tensor[(1024), float16] span=/encoder/layers/encoder_layer_1/mlp/mlp.3/Add.encoder.layers.encoder_layer_1.mlp.3.bias:0:0 */, %1026) /* ty=Tensor[(32, 50, 1024), float16] */;
  %1045 = fn (%p0487: Tensor[(32, 50, 1024), float16] /* ty=Tensor[(32, 50, 1024), float16] */, Primitive=1) -> Tensor[(32, 50, 1024), float32] {
    cast(%p0487, dtype="float32") /* ty=Tensor[(32, 50, 1024), float32] */
  } /* ty=fn (Tensor[(32, 50, 1024), float16]) -> Tensor[(32, 50, 1024), float32] */;
  %1046 = %1045(%1044) /* ty=Tensor[(32, 50, 1024), float32] */;
  %1047 = fn (%p0543: Tensor[(32, 50, 1024), float32] /* ty=Tensor[(32, 50, 1024), float32] */, Primitive=1) -> Tensor[(32, 50, 1), float32] {
    mean(%p0543, axis=[-1], keepdims=True) /* ty=Tensor[(32, 50, 1), float32] */
  } /* ty=fn (Tensor[(32, 50, 1024), float32]) -> Tensor[(32, 50, 1), float32] */;
  %1048 = %1047(%1046) /* ty=Tensor[(32, 50, 1), float32] */;
  %1049 = fn (%p0486: Tensor[(32, 50, 1024), float32] /* ty=Tensor[(32, 50, 1024), float32] */, %p1332: Tensor[(32, 50, 1), float32] /* ty=Tensor[(32, 50, 1), float32] */, Primitive=1) -> Tensor[(32, 50, 1024), float32] {
    subtract(%p0486, %p1332) /* ty=Tensor[(32, 50, 1024), float32] */
  } /* ty=fn (Tensor[(32, 50, 1024), float32], Tensor[(32, 50, 1), float32]) -> Tensor[(32, 50, 1024), float32] */;
  %1050 = %1049(%1046, %1048) /* ty=Tensor[(32, 50, 1024), float32] */;
  %1051 = fn (%p0485: Tensor[(32, 50, 1024), float32] /* ty=Tensor[(32, 50, 1024), float32] */, Primitive=1) -> Tensor[(32, 50, 1), float32] {
    %844 = power(%p0485, 2f /* ty=float32 */) /* ty=Tensor[(32, 50, 1024), float32] */;
    mean(%844, axis=[-1], keepdims=True) /* ty=Tensor[(32, 50, 1), float32] */
  } /* ty=fn (Tensor[(32, 50, 1024), float32]) -> Tensor[(32, 50, 1), float32] */;
  %1052 = %1051(%1050) /* ty=Tensor[(32, 50, 1), float32] */;
  %1053 = fn (%p0484: Tensor[(32, 50, 1), float32] /* ty=Tensor[(32, 50, 1), float32] */, %p1331: Tensor[(32, 50, 1024), float32] /* ty=Tensor[(32, 50, 1024), float32] */, %p2111: Tensor[(1024), float32] /* ty=Tensor[(1024), float32] */, %p344: Tensor[(1024), float32] /* ty=Tensor[(1024), float32] */, Primitive=1) -> Tensor[(1600, 1024), float16] {
    %837 = add(%p0484, 1.01328e-06f /* ty=float32 */) /* ty=Tensor[(32, 50, 1), float32] */;
    %838 = rsqrt(%837) /* ty=Tensor[(32, 50, 1), float32] */;
    %839 = multiply(%p1331, %838) /* ty=Tensor[(32, 50, 1024), float32] */;
    %840 = multiply(%839, %p2111) /* ty=Tensor[(32, 50, 1024), float32] */;
    %841 = add(%840, %p344) /* ty=Tensor[(32, 50, 1024), float32] */;
    %842 = transpose(%841, axes=[1, 0, 2]) /* ty=Tensor[(50, 32, 1024), float32] */;
    %843 = reshape(%842, newshape=[-1, 1024]) /* ty=Tensor[(1600, 1024), float32] */;
    cast(%843, dtype="float16") /* ty=Tensor[(1600, 1024), float16] */
  } /* ty=fn (Tensor[(32, 50, 1), float32], Tensor[(32, 50, 1024), float32], Tensor[(1024), float32], Tensor[(1024), float32]) -> Tensor[(1600, 1024), float16] */;
  %1054 = %1053(%1052, %1050, meta[relay.Constant][28] /* ty=Tensor[(1024), float32] */, meta[relay.Constant][29] /* ty=Tensor[(1024), float32] */) /* ty=Tensor[(1600, 1024), float16] */;
  %1055 = fn (%p0483: Tensor[(1600, 1024), float16] /* ty=Tensor[(1600, 1024), float16] */, %p1330: Tensor[(3072, 1024), float16] /* ty=Tensor[(3072, 1024), float16] */, Primitive=1) -> Tensor[(1600, 3072), float16] {
    nn.dense(%p0483, %p1330, units=None, out_dtype="float16") /* ty=Tensor[(1600, 3072), float16] */
  } /* ty=fn (Tensor[(1600, 1024), float16], Tensor[(3072, 1024), float16]) -> Tensor[(1600, 3072), float16] */;
  %1056 = %1055(%1054, meta[relay.Constant][30] /* ty=Tensor[(3072, 1024), float16] span=/encoder/layers/encoder_layer_2/self_attention/MatMul:0:0 */) /* ty=Tensor[(1600, 3072), float16] */;
  %1057 = fn (%p0482: Tensor[(1600, 3072), float16] /* ty=Tensor[(1600, 3072), float16] */, %p1329: Tensor[(3072), float16] /* ty=Tensor[(3072), float16] */, Primitive=1) -> Tensor[(50, 32, 3072), float16] {
    %836 = reshape(%p0482, newshape=[50, 32, 3072]) /* ty=Tensor[(50, 32, 3072), float16] */;
    add(%p1329, %836) /* ty=Tensor[(50, 32, 3072), float16] */
  } /* ty=fn (Tensor[(1600, 3072), float16], Tensor[(3072), float16]) -> Tensor[(50, 32, 3072), float16] */;
  %1058 = %1057(%1056, meta[relay.Constant][31] /* ty=Tensor[(3072), float16] span=Identity_131:0:0 */) /* ty=Tensor[(50, 32, 3072), float16] */;
  %1059 = fn (%p0481: Tensor[(50, 32, 3072), float16] /* ty=Tensor[(50, 32, 3072), float16] */, %p1328: float16 /* ty=float16 */, Primitive=1) -> Tensor[(512, 50, 64), float16] {
    %833 = strided_slice(%p0481, begin=[0i64], end=[1024i64], strides=[1i64], axes=[2i64]) /* ty=Tensor[(50, 32, 1024), float16] */;
    %834 = reshape(%833, newshape=[50, 512, 64]) /* ty=Tensor[(50, 512, 64), float16] */;
    %835 = transpose(%834, axes=[1, 0, 2]) /* ty=Tensor[(512, 50, 64), float16] */;
    divide(%835, %p1328) /* ty=Tensor[(512, 50, 64), float16] */
  } /* ty=fn (Tensor[(50, 32, 3072), float16], float16) -> Tensor[(512, 50, 64), float16] */;
  %1062 = fn (%p0544: Tensor[(50, 32, 3072), float16] /* ty=Tensor[(50, 32, 3072), float16] */, Primitive=1) -> Tensor[(512, 50, 64), float16] {
    %1060 = strided_slice(%p0544, begin=[1024i64], end=[2048i64], strides=[1i64], axes=[2i64]) /* ty=Tensor[(50, 32, 1024), float16] */;
    %1061 = reshape(%1060, newshape=[50, 512, 64]) /* ty=Tensor[(50, 512, 64), float16] */;
    transpose(%1061, axes=[1, 0, 2]) /* ty=Tensor[(512, 50, 64), float16] */
  } /* ty=fn (Tensor[(50, 32, 3072), float16]) -> Tensor[(512, 50, 64), float16] */;
  %1063 = %1059(%1058, 8f16 /* ty=float16 span=/encoder/layers/encoder_layer_2/self_attention/Constant_14:0:0 */) /* ty=Tensor[(512, 50, 64), float16] */;
  %1064 = %1062(%1058) /* ty=Tensor[(512, 50, 64), float16] */;
  %1065 = fn (%p0480: Tensor[(512, 50, 64), float16] /* ty=Tensor[(512, 50, 64), float16] */, %p1327: Tensor[(512, 50, 64), float16] /* ty=Tensor[(512, 50, 64), float16] */, Primitive=1) -> Tensor[(512, 50, 50), float16] {
    nn.batch_matmul(%p0480, %p1327, out_dtype="float16", transpose_b=True) /* ty=Tensor[(512, 50, 50), float16] */
  } /* ty=fn (Tensor[(512, 50, 64), float16], Tensor[(512, 50, 64), float16]) -> Tensor[(512, 50, 50), float16] */;
  %1066 = %1065(%1063, %1064) /* ty=Tensor[(512, 50, 50), float16] */;
  %1067 = fn (%p0479: Tensor[(512, 50, 50), float16] /* ty=Tensor[(512, 50, 50), float16] */, Primitive=1) -> Tensor[(512, 50, 50), float32] {
    %832 = reshape(%p0479, newshape=[512, 50, 50]) /* ty=Tensor[(512, 50, 50), float16] */;
    cast(%832, dtype="float32") /* ty=Tensor[(512, 50, 50), float32] */
  } /* ty=fn (Tensor[(512, 50, 50), float16]) -> Tensor[(512, 50, 50), float32] */;
  %1068 = %1067(%1066) /* ty=Tensor[(512, 50, 50), float32] */;
  %1069 = fn (%p0478: Tensor[(512, 50, 50), float32] /* ty=Tensor[(512, 50, 50), float32] */, Primitive=1) -> Tensor[(512, 50, 50), float16] {
    %831 = nn.softmax(%p0478, axis=2) /* ty=Tensor[(512, 50, 50), float32] */;
    cast(%831, dtype="float16") /* ty=Tensor[(512, 50, 50), float16] */
  } /* ty=fn (Tensor[(512, 50, 50), float32]) -> Tensor[(512, 50, 50), float16] */;
  %1072 = fn (%p0545: Tensor[(50, 32, 3072), float16] /* ty=Tensor[(50, 32, 3072), float16] */, Primitive=1) -> Tensor[(512, 64, 50), float16] {
    %1070 = strided_slice(%p0545, begin=[2048i64], end=[3072i64], strides=[1i64], axes=[2i64]) /* ty=Tensor[(50, 32, 1024), float16] */;
    %1071 = reshape(%1070, newshape=[50, 512, 64]) /* ty=Tensor[(50, 512, 64), float16] */;
    transpose(%1071, axes=[1, 2, 0]) /* ty=Tensor[(512, 64, 50), float16] */
  } /* ty=fn (Tensor[(50, 32, 3072), float16]) -> Tensor[(512, 64, 50), float16] */;
  %1073 = %1069(%1068) /* ty=Tensor[(512, 50, 50), float16] */;
  %1074 = %1072(%1058) /* ty=Tensor[(512, 64, 50), float16] */;
  %1075 = fn (%p0477: Tensor[(512, 50, 50), float16] /* ty=Tensor[(512, 50, 50), float16] */, %p1326: Tensor[(512, 64, 50), float16] /* ty=Tensor[(512, 64, 50), float16] */, Primitive=1) -> Tensor[(512, 50, 64), float16] {
    nn.batch_matmul(%p0477, %p1326, out_dtype="float16", transpose_b=True) /* ty=Tensor[(512, 50, 64), float16] */
  } /* ty=fn (Tensor[(512, 50, 50), float16], Tensor[(512, 64, 50), float16]) -> Tensor[(512, 50, 64), float16] */;
  %1076 = %1075(%1073, %1074) /* ty=Tensor[(512, 50, 64), float16] */;
  %1077 = fn (%p0476: Tensor[(512, 50, 64), float16] /* ty=Tensor[(512, 50, 64), float16] */, Primitive=1) -> Tensor[(1600, 1024), float16] {
    %829 = reshape(%p0476, newshape=[512, 50, 64]) /* ty=Tensor[(512, 50, 64), float16] */;
    %830 = transpose(%829, axes=[1, 0, 2]) /* ty=Tensor[(50, 512, 64), float16] */;
    reshape(%830, newshape=[1600, 1024]) /* ty=Tensor[(1600, 1024), float16] */
  } /* ty=fn (Tensor[(512, 50, 64), float16]) -> Tensor[(1600, 1024), float16] */;
  %1078 = %1077(%1076) /* ty=Tensor[(1600, 1024), float16] */;
  %1079 = fn (%p0475: Tensor[(1600, 1024), float16] /* ty=Tensor[(1600, 1024), float16] */, %p1325: Tensor[(1024, 1024), float16] /* ty=Tensor[(1024, 1024), float16] */, %p2110: Tensor[(1, 1024), float16] /* ty=Tensor[(1, 1024), float16] */, Primitive=1) -> Tensor[(1600, 1024), float16] {
    %828 = nn.dense(%p0475, %p1325, units=1024, out_dtype="float16") /* ty=Tensor[(1600, 1024), float16] */;
    add(%828, %p2110) /* ty=Tensor[(1600, 1024), float16] */
  } /* ty=fn (Tensor[(1600, 1024), float16], Tensor[(1024, 1024), float16], Tensor[(1, 1024), float16]) -> Tensor[(1600, 1024), float16] */;
  %1080 = %1079(%1078, meta[relay.Constant][32] /* ty=Tensor[(1024, 1024), float16] span=/encoder/layers/encoder_layer_2/self_attention/Gemm.encoder.layers.encoder_layer_2.self_attention.out_proj.weight:0:0 */, meta[relay.Constant][33] /* ty=Tensor[(1, 1024), float16] */) /* ty=Tensor[(1600, 1024), float16] */;
  %1081 = fn (%p0474: Tensor[(1600, 1024), float16] /* ty=Tensor[(1600, 1024), float16] */, %p1324: Tensor[(32, 50, 1024), float16] /* ty=Tensor[(32, 50, 1024), float16] */, Primitive=1) -> Tensor[(32, 50, 1024), float16] {
    %826 = reshape(%p0474, newshape=[50, 32, 1024]) /* ty=Tensor[(50, 32, 1024), float16] */;
    %827 = transpose(%826, axes=[1, 0, 2]) /* ty=Tensor[(32, 50, 1024), float16] */;
    add(%827, %p1324) /* ty=Tensor[(32, 50, 1024), float16] */
  } /* ty=fn (Tensor[(1600, 1024), float16], Tensor[(32, 50, 1024), float16]) -> Tensor[(32, 50, 1024), float16] */;
  %1082 = %1081(%1080, %1044) /* ty=Tensor[(32, 50, 1024), float16] */;
  %1083 = fn (%p0473: Tensor[(32, 50, 1024), float16] /* ty=Tensor[(32, 50, 1024), float16] */, Primitive=1) -> Tensor[(32, 50, 1024), float32] {
    cast(%p0473, dtype="float32") /* ty=Tensor[(32, 50, 1024), float32] */
  } /* ty=fn (Tensor[(32, 50, 1024), float16]) -> Tensor[(32, 50, 1024), float32] */;
  %1084 = %1083(%1082) /* ty=Tensor[(32, 50, 1024), float32] */;
  %1085 = fn (%p0546: Tensor[(32, 50, 1024), float32] /* ty=Tensor[(32, 50, 1024), float32] */, Primitive=1) -> Tensor[(32, 50, 1), float32] {
    mean(%p0546, axis=[-1], keepdims=True) /* ty=Tensor[(32, 50, 1), float32] */
  } /* ty=fn (Tensor[(32, 50, 1024), float32]) -> Tensor[(32, 50, 1), float32] */;
  %1086 = %1085(%1084) /* ty=Tensor[(32, 50, 1), float32] */;
  %1087 = fn (%p0472: Tensor[(32, 50, 1024), float32] /* ty=Tensor[(32, 50, 1024), float32] */, %p1323: Tensor[(32, 50, 1), float32] /* ty=Tensor[(32, 50, 1), float32] */, Primitive=1) -> Tensor[(32, 50, 1024), float32] {
    subtract(%p0472, %p1323) /* ty=Tensor[(32, 50, 1024), float32] */
  } /* ty=fn (Tensor[(32, 50, 1024), float32], Tensor[(32, 50, 1), float32]) -> Tensor[(32, 50, 1024), float32] */;
  %1088 = %1087(%1084, %1086) /* ty=Tensor[(32, 50, 1024), float32] */;
  %1089 = fn (%p0471: Tensor[(32, 50, 1024), float32] /* ty=Tensor[(32, 50, 1024), float32] */, Primitive=1) -> Tensor[(32, 50, 1), float32] {
    %825 = power(%p0471, 2f /* ty=float32 */) /* ty=Tensor[(32, 50, 1024), float32] */;
    mean(%825, axis=[-1], keepdims=True) /* ty=Tensor[(32, 50, 1), float32] */
  } /* ty=fn (Tensor[(32, 50, 1024), float32]) -> Tensor[(32, 50, 1), float32] */;
  %1090 = %1089(%1088) /* ty=Tensor[(32, 50, 1), float32] */;
  %1091 = fn (%p0470: Tensor[(32, 50, 1), float32] /* ty=Tensor[(32, 50, 1), float32] */, %p1322: Tensor[(32, 50, 1024), float32] /* ty=Tensor[(32, 50, 1024), float32] */, %p2109: Tensor[(1024), float32] /* ty=Tensor[(1024), float32] */, %p343: Tensor[(1024), float32] /* ty=Tensor[(1024), float32] */, Primitive=1) -> Tensor[(1600, 1024), float16] {
    %819 = add(%p0470, 1.01328e-06f /* ty=float32 */) /* ty=Tensor[(32, 50, 1), float32] */;
    %820 = rsqrt(%819) /* ty=Tensor[(32, 50, 1), float32] */;
    %821 = multiply(%p1322, %820) /* ty=Tensor[(32, 50, 1024), float32] */;
    %822 = multiply(%821, %p2109) /* ty=Tensor[(32, 50, 1024), float32] */;
    %823 = add(%822, %p343) /* ty=Tensor[(32, 50, 1024), float32] */;
    %824 = reshape(%823, newshape=[-1, 1024]) /* ty=Tensor[(1600, 1024), float32] */;
    cast(%824, dtype="float16") /* ty=Tensor[(1600, 1024), float16] */
  } /* ty=fn (Tensor[(32, 50, 1), float32], Tensor[(32, 50, 1024), float32], Tensor[(1024), float32], Tensor[(1024), float32]) -> Tensor[(1600, 1024), float16] */;
  %1092 = %1091(%1090, %1088, meta[relay.Constant][34] /* ty=Tensor[(1024), float32] */, meta[relay.Constant][35] /* ty=Tensor[(1024), float32] */) /* ty=Tensor[(1600, 1024), float16] */;
  %1093 = fn (%p0469: Tensor[(1600, 1024), float16] /* ty=Tensor[(1600, 1024), float16] */, %p1321: Tensor[(4096, 1024), float16] /* ty=Tensor[(4096, 1024), float16] */, Primitive=1) -> Tensor[(1600, 4096), float16] {
    nn.dense(%p0469, %p1321, units=None, out_dtype="float16") /* ty=Tensor[(1600, 4096), float16] */
  } /* ty=fn (Tensor[(1600, 1024), float16], Tensor[(4096, 1024), float16]) -> Tensor[(1600, 4096), float16] */;
  %1094 = %1093(%1092, meta[relay.Constant][36] /* ty=Tensor[(4096, 1024), float16] span=/encoder/layers/encoder_layer_2/mlp/mlp.0/MatMul:0:0 */) /* ty=Tensor[(1600, 4096), float16] */;
  %1095 = fn (%p0468: Tensor[(1600, 4096), float16] /* ty=Tensor[(1600, 4096), float16] */, %p1320: Tensor[(4096), float16] /* ty=Tensor[(4096), float16] */, %p2108: float16 /* ty=float16 */, Primitive=1) -> Tensor[(1600, 4096), float16] {
    %809 = reshape(%p0468, newshape=[32, 50, 4096]) /* ty=Tensor[(32, 50, 4096), float16] */;
    %810 = add(%p1320, %809) /* ty=Tensor[(32, 50, 4096), float16] */;
    %811 = divide(%810, %p2108) /* ty=Tensor[(32, 50, 4096), float16] */;
    %812 = cast(%811, dtype="float32") /* ty=Tensor[(32, 50, 4096), float32] */;
    %813 = erf(%812) /* ty=Tensor[(32, 50, 4096), float32] */;
    %814 = cast(%810, dtype="float32") /* ty=Tensor[(32, 50, 4096), float32] */;
    %815 = add(%813, 1f /* ty=float32 */) /* ty=Tensor[(32, 50, 4096), float32] */;
    %816 = multiply(%814, %815) /* ty=Tensor[(32, 50, 4096), float32] */;
    %817 = multiply(%816, 0.5f /* ty=float32 */) /* ty=Tensor[(32, 50, 4096), float32] */;
    %818 = reshape(%817, newshape=[-1, 4096]) /* ty=Tensor[(1600, 4096), float32] */;
    cast(%818, dtype="float16") /* ty=Tensor[(1600, 4096), float16] */
  } /* ty=fn (Tensor[(1600, 4096), float16], Tensor[(4096), float16], float16) -> Tensor[(1600, 4096), float16] */;
  %1096 = %1095(%1094, meta[relay.Constant][37] /* ty=Tensor[(4096), float16] span=/encoder/layers/encoder_layer_2/mlp/mlp.0/Add.encoder.layers.encoder_layer_2.mlp.0.bias:0:0 */, 1.41406f16 /* ty=float16 span=/encoder/layers/encoder_layer_2/mlp/mlp.1/Constant:0:0 */) /* ty=Tensor[(1600, 4096), float16] */;
  %1097 = fn (%p0467: Tensor[(1600, 4096), float16] /* ty=Tensor[(1600, 4096), float16] */, %p1319: Tensor[(1024, 4096), float16] /* ty=Tensor[(1024, 4096), float16] */, Primitive=1) -> Tensor[(1600, 1024), float16] {
    nn.dense(%p0467, %p1319, units=None, out_dtype="float16") /* ty=Tensor[(1600, 1024), float16] */
  } /* ty=fn (Tensor[(1600, 4096), float16], Tensor[(1024, 4096), float16]) -> Tensor[(1600, 1024), float16] */;
  %1098 = %1097(%1096, meta[relay.Constant][38] /* ty=Tensor[(1024, 4096), float16] span=/encoder/layers/encoder_layer_2/mlp/mlp.3/MatMul:0:0 */) /* ty=Tensor[(1600, 1024), float16] */;
  %1099 = fn (%p0466: Tensor[(1600, 1024), float16] /* ty=Tensor[(1600, 1024), float16] */, %p1318: Tensor[(1024), float16] /* ty=Tensor[(1024), float16] */, %p2107: Tensor[(32, 50, 1024), float16] /* ty=Tensor[(32, 50, 1024), float16] */, Primitive=1) -> Tensor[(32, 50, 1024), float16] {
    %807 = reshape(%p0466, newshape=[32, 50, 1024]) /* ty=Tensor[(32, 50, 1024), float16] */;
    %808 = add(%p1318, %807) /* ty=Tensor[(32, 50, 1024), float16] */;
    add(%p2107, %808) /* ty=Tensor[(32, 50, 1024), float16] */
  } /* ty=fn (Tensor[(1600, 1024), float16], Tensor[(1024), float16], Tensor[(32, 50, 1024), float16]) -> Tensor[(32, 50, 1024), float16] */;
  %1100 = %1099(%1098, meta[relay.Constant][39] /* ty=Tensor[(1024), float16] span=/encoder/layers/encoder_layer_2/mlp/mlp.3/Add.encoder.layers.encoder_layer_2.mlp.3.bias:0:0 */, %1082) /* ty=Tensor[(32, 50, 1024), float16] */;
  %1101 = fn (%p0465: Tensor[(32, 50, 1024), float16] /* ty=Tensor[(32, 50, 1024), float16] */, Primitive=1) -> Tensor[(32, 50, 1024), float32] {
    cast(%p0465, dtype="float32") /* ty=Tensor[(32, 50, 1024), float32] */
  } /* ty=fn (Tensor[(32, 50, 1024), float16]) -> Tensor[(32, 50, 1024), float32] */;
  %1102 = %1101(%1100) /* ty=Tensor[(32, 50, 1024), float32] */;
  %1103 = fn (%p0547: Tensor[(32, 50, 1024), float32] /* ty=Tensor[(32, 50, 1024), float32] */, Primitive=1) -> Tensor[(32, 50, 1), float32] {
    mean(%p0547, axis=[-1], keepdims=True) /* ty=Tensor[(32, 50, 1), float32] */
  } /* ty=fn (Tensor[(32, 50, 1024), float32]) -> Tensor[(32, 50, 1), float32] */;
  %1104 = %1103(%1102) /* ty=Tensor[(32, 50, 1), float32] */;
  %1105 = fn (%p0464: Tensor[(32, 50, 1024), float32] /* ty=Tensor[(32, 50, 1024), float32] */, %p1317: Tensor[(32, 50, 1), float32] /* ty=Tensor[(32, 50, 1), float32] */, Primitive=1) -> Tensor[(32, 50, 1024), float32] {
    subtract(%p0464, %p1317) /* ty=Tensor[(32, 50, 1024), float32] */
  } /* ty=fn (Tensor[(32, 50, 1024), float32], Tensor[(32, 50, 1), float32]) -> Tensor[(32, 50, 1024), float32] */;
  %1106 = %1105(%1102, %1104) /* ty=Tensor[(32, 50, 1024), float32] */;
  %1107 = fn (%p0463: Tensor[(32, 50, 1024), float32] /* ty=Tensor[(32, 50, 1024), float32] */, Primitive=1) -> Tensor[(32, 50, 1), float32] {
    %806 = power(%p0463, 2f /* ty=float32 */) /* ty=Tensor[(32, 50, 1024), float32] */;
    mean(%806, axis=[-1], keepdims=True) /* ty=Tensor[(32, 50, 1), float32] */
  } /* ty=fn (Tensor[(32, 50, 1024), float32]) -> Tensor[(32, 50, 1), float32] */;
  %1108 = %1107(%1106) /* ty=Tensor[(32, 50, 1), float32] */;
  %1109 = fn (%p0462: Tensor[(32, 50, 1), float32] /* ty=Tensor[(32, 50, 1), float32] */, %p1316: Tensor[(32, 50, 1024), float32] /* ty=Tensor[(32, 50, 1024), float32] */, %p2106: Tensor[(1024), float32] /* ty=Tensor[(1024), float32] */, %p342: Tensor[(1024), float32] /* ty=Tensor[(1024), float32] */, Primitive=1) -> Tensor[(1600, 1024), float16] {
    %799 = add(%p0462, 1.01328e-06f /* ty=float32 */) /* ty=Tensor[(32, 50, 1), float32] */;
    %800 = rsqrt(%799) /* ty=Tensor[(32, 50, 1), float32] */;
    %801 = multiply(%p1316, %800) /* ty=Tensor[(32, 50, 1024), float32] */;
    %802 = multiply(%801, %p2106) /* ty=Tensor[(32, 50, 1024), float32] */;
    %803 = add(%802, %p342) /* ty=Tensor[(32, 50, 1024), float32] */;
    %804 = transpose(%803, axes=[1, 0, 2]) /* ty=Tensor[(50, 32, 1024), float32] */;
    %805 = reshape(%804, newshape=[-1, 1024]) /* ty=Tensor[(1600, 1024), float32] */;
    cast(%805, dtype="float16") /* ty=Tensor[(1600, 1024), float16] */
  } /* ty=fn (Tensor[(32, 50, 1), float32], Tensor[(32, 50, 1024), float32], Tensor[(1024), float32], Tensor[(1024), float32]) -> Tensor[(1600, 1024), float16] */;
  %1110 = %1109(%1108, %1106, meta[relay.Constant][40] /* ty=Tensor[(1024), float32] */, meta[relay.Constant][41] /* ty=Tensor[(1024), float32] */) /* ty=Tensor[(1600, 1024), float16] */;
  %1111 = fn (%p0461: Tensor[(1600, 1024), float16] /* ty=Tensor[(1600, 1024), float16] */, %p1315: Tensor[(3072, 1024), float16] /* ty=Tensor[(3072, 1024), float16] */, Primitive=1) -> Tensor[(1600, 3072), float16] {
    nn.dense(%p0461, %p1315, units=None, out_dtype="float16") /* ty=Tensor[(1600, 3072), float16] */
  } /* ty=fn (Tensor[(1600, 1024), float16], Tensor[(3072, 1024), float16]) -> Tensor[(1600, 3072), float16] */;
  %1112 = %1111(%1110, meta[relay.Constant][42] /* ty=Tensor[(3072, 1024), float16] span=/encoder/layers/encoder_layer_3/self_attention/MatMul:0:0 */) /* ty=Tensor[(1600, 3072), float16] */;
  %1113 = fn (%p0460: Tensor[(1600, 3072), float16] /* ty=Tensor[(1600, 3072), float16] */, %p1314: Tensor[(3072), float16] /* ty=Tensor[(3072), float16] */, Primitive=1) -> Tensor[(50, 32, 3072), float16] {
    %798 = reshape(%p0460, newshape=[50, 32, 3072]) /* ty=Tensor[(50, 32, 3072), float16] */;
    add(%p1314, %798) /* ty=Tensor[(50, 32, 3072), float16] */
  } /* ty=fn (Tensor[(1600, 3072), float16], Tensor[(3072), float16]) -> Tensor[(50, 32, 3072), float16] */;
  %1114 = %1113(%1112, meta[relay.Constant][43] /* ty=Tensor[(3072), float16] span=Identity_125:0:0 */) /* ty=Tensor[(50, 32, 3072), float16] */;
  %1115 = fn (%p0459: Tensor[(50, 32, 3072), float16] /* ty=Tensor[(50, 32, 3072), float16] */, %p1313: float16 /* ty=float16 */, Primitive=1) -> Tensor[(512, 50, 64), float16] {
    %795 = strided_slice(%p0459, begin=[0i64], end=[1024i64], strides=[1i64], axes=[2i64]) /* ty=Tensor[(50, 32, 1024), float16] */;
    %796 = reshape(%795, newshape=[50, 512, 64]) /* ty=Tensor[(50, 512, 64), float16] */;
    %797 = transpose(%796, axes=[1, 0, 2]) /* ty=Tensor[(512, 50, 64), float16] */;
    divide(%797, %p1313) /* ty=Tensor[(512, 50, 64), float16] */
  } /* ty=fn (Tensor[(50, 32, 3072), float16], float16) -> Tensor[(512, 50, 64), float16] */;
  %1118 = fn (%p0548: Tensor[(50, 32, 3072), float16] /* ty=Tensor[(50, 32, 3072), float16] */, Primitive=1) -> Tensor[(512, 50, 64), float16] {
    %1116 = strided_slice(%p0548, begin=[1024i64], end=[2048i64], strides=[1i64], axes=[2i64]) /* ty=Tensor[(50, 32, 1024), float16] */;
    %1117 = reshape(%1116, newshape=[50, 512, 64]) /* ty=Tensor[(50, 512, 64), float16] */;
    transpose(%1117, axes=[1, 0, 2]) /* ty=Tensor[(512, 50, 64), float16] */
  } /* ty=fn (Tensor[(50, 32, 3072), float16]) -> Tensor[(512, 50, 64), float16] */;
  %1119 = %1115(%1114, 8f16 /* ty=float16 span=/encoder/layers/encoder_layer_3/self_attention/Constant_14:0:0 */) /* ty=Tensor[(512, 50, 64), float16] */;
  %1120 = %1118(%1114) /* ty=Tensor[(512, 50, 64), float16] */;
  %1121 = fn (%p0458: Tensor[(512, 50, 64), float16] /* ty=Tensor[(512, 50, 64), float16] */, %p1312: Tensor[(512, 50, 64), float16] /* ty=Tensor[(512, 50, 64), float16] */, Primitive=1) -> Tensor[(512, 50, 50), float16] {
    nn.batch_matmul(%p0458, %p1312, out_dtype="float16", transpose_b=True) /* ty=Tensor[(512, 50, 50), float16] */
  } /* ty=fn (Tensor[(512, 50, 64), float16], Tensor[(512, 50, 64), float16]) -> Tensor[(512, 50, 50), float16] */;
  %1122 = %1121(%1119, %1120) /* ty=Tensor[(512, 50, 50), float16] */;
  %1123 = fn (%p0457: Tensor[(512, 50, 50), float16] /* ty=Tensor[(512, 50, 50), float16] */, Primitive=1) -> Tensor[(512, 50, 50), float32] {
    %794 = reshape(%p0457, newshape=[512, 50, 50]) /* ty=Tensor[(512, 50, 50), float16] */;
    cast(%794, dtype="float32") /* ty=Tensor[(512, 50, 50), float32] */
  } /* ty=fn (Tensor[(512, 50, 50), float16]) -> Tensor[(512, 50, 50), float32] */;
  %1124 = %1123(%1122) /* ty=Tensor[(512, 50, 50), float32] */;
  %1125 = fn (%p0456: Tensor[(512, 50, 50), float32] /* ty=Tensor[(512, 50, 50), float32] */, Primitive=1) -> Tensor[(512, 50, 50), float16] {
    %793 = nn.softmax(%p0456, axis=2) /* ty=Tensor[(512, 50, 50), float32] */;
    cast(%793, dtype="float16") /* ty=Tensor[(512, 50, 50), float16] */
  } /* ty=fn (Tensor[(512, 50, 50), float32]) -> Tensor[(512, 50, 50), float16] */;
  %1128 = fn (%p0549: Tensor[(50, 32, 3072), float16] /* ty=Tensor[(50, 32, 3072), float16] */, Primitive=1) -> Tensor[(512, 64, 50), float16] {
    %1126 = strided_slice(%p0549, begin=[2048i64], end=[3072i64], strides=[1i64], axes=[2i64]) /* ty=Tensor[(50, 32, 1024), float16] */;
    %1127 = reshape(%1126, newshape=[50, 512, 64]) /* ty=Tensor[(50, 512, 64), float16] */;
    transpose(%1127, axes=[1, 2, 0]) /* ty=Tensor[(512, 64, 50), float16] */
  } /* ty=fn (Tensor[(50, 32, 3072), float16]) -> Tensor[(512, 64, 50), float16] */;
  %1129 = %1125(%1124) /* ty=Tensor[(512, 50, 50), float16] */;
  %1130 = %1128(%1114) /* ty=Tensor[(512, 64, 50), float16] */;
  %1131 = fn (%p0455: Tensor[(512, 50, 50), float16] /* ty=Tensor[(512, 50, 50), float16] */, %p1311: Tensor[(512, 64, 50), float16] /* ty=Tensor[(512, 64, 50), float16] */, Primitive=1) -> Tensor[(512, 50, 64), float16] {
    nn.batch_matmul(%p0455, %p1311, out_dtype="float16", transpose_b=True) /* ty=Tensor[(512, 50, 64), float16] */
  } /* ty=fn (Tensor[(512, 50, 50), float16], Tensor[(512, 64, 50), float16]) -> Tensor[(512, 50, 64), float16] */;
  %1132 = %1131(%1129, %1130) /* ty=Tensor[(512, 50, 64), float16] */;
  %1133 = fn (%p0454: Tensor[(512, 50, 64), float16] /* ty=Tensor[(512, 50, 64), float16] */, Primitive=1) -> Tensor[(1600, 1024), float16] {
    %791 = reshape(%p0454, newshape=[512, 50, 64]) /* ty=Tensor[(512, 50, 64), float16] */;
    %792 = transpose(%791, axes=[1, 0, 2]) /* ty=Tensor[(50, 512, 64), float16] */;
    reshape(%792, newshape=[1600, 1024]) /* ty=Tensor[(1600, 1024), float16] */
  } /* ty=fn (Tensor[(512, 50, 64), float16]) -> Tensor[(1600, 1024), float16] */;
  %1134 = %1133(%1132) /* ty=Tensor[(1600, 1024), float16] */;
  %1135 = fn (%p0453: Tensor[(1600, 1024), float16] /* ty=Tensor[(1600, 1024), float16] */, %p1310: Tensor[(1024, 1024), float16] /* ty=Tensor[(1024, 1024), float16] */, %p2105: Tensor[(1, 1024), float16] /* ty=Tensor[(1, 1024), float16] */, Primitive=1) -> Tensor[(1600, 1024), float16] {
    %790 = nn.dense(%p0453, %p1310, units=1024, out_dtype="float16") /* ty=Tensor[(1600, 1024), float16] */;
    add(%790, %p2105) /* ty=Tensor[(1600, 1024), float16] */
  } /* ty=fn (Tensor[(1600, 1024), float16], Tensor[(1024, 1024), float16], Tensor[(1, 1024), float16]) -> Tensor[(1600, 1024), float16] */;
  %1136 = %1135(%1134, meta[relay.Constant][44] /* ty=Tensor[(1024, 1024), float16] span=/encoder/layers/encoder_layer_3/self_attention/Gemm.encoder.layers.encoder_layer_3.self_attention.out_proj.weight:0:0 */, meta[relay.Constant][45] /* ty=Tensor[(1, 1024), float16] */) /* ty=Tensor[(1600, 1024), float16] */;
  %1137 = fn (%p0452: Tensor[(1600, 1024), float16] /* ty=Tensor[(1600, 1024), float16] */, %p1309: Tensor[(32, 50, 1024), float16] /* ty=Tensor[(32, 50, 1024), float16] */, Primitive=1) -> Tensor[(32, 50, 1024), float16] {
    %788 = reshape(%p0452, newshape=[50, 32, 1024]) /* ty=Tensor[(50, 32, 1024), float16] */;
    %789 = transpose(%788, axes=[1, 0, 2]) /* ty=Tensor[(32, 50, 1024), float16] */;
    add(%789, %p1309) /* ty=Tensor[(32, 50, 1024), float16] */
  } /* ty=fn (Tensor[(1600, 1024), float16], Tensor[(32, 50, 1024), float16]) -> Tensor[(32, 50, 1024), float16] */;
  %1138 = %1137(%1136, %1100) /* ty=Tensor[(32, 50, 1024), float16] */;
  %1139 = fn (%p0451: Tensor[(32, 50, 1024), float16] /* ty=Tensor[(32, 50, 1024), float16] */, Primitive=1) -> Tensor[(32, 50, 1024), float32] {
    cast(%p0451, dtype="float32") /* ty=Tensor[(32, 50, 1024), float32] */
  } /* ty=fn (Tensor[(32, 50, 1024), float16]) -> Tensor[(32, 50, 1024), float32] */;
  %1140 = %1139(%1138) /* ty=Tensor[(32, 50, 1024), float32] */;
  %1141 = fn (%p0550: Tensor[(32, 50, 1024), float32] /* ty=Tensor[(32, 50, 1024), float32] */, Primitive=1) -> Tensor[(32, 50, 1), float32] {
    mean(%p0550, axis=[-1], keepdims=True) /* ty=Tensor[(32, 50, 1), float32] */
  } /* ty=fn (Tensor[(32, 50, 1024), float32]) -> Tensor[(32, 50, 1), float32] */;
  %1142 = %1141(%1140) /* ty=Tensor[(32, 50, 1), float32] */;
  %1143 = fn (%p0450: Tensor[(32, 50, 1024), float32] /* ty=Tensor[(32, 50, 1024), float32] */, %p1308: Tensor[(32, 50, 1), float32] /* ty=Tensor[(32, 50, 1), float32] */, Primitive=1) -> Tensor[(32, 50, 1024), float32] {
    subtract(%p0450, %p1308) /* ty=Tensor[(32, 50, 1024), float32] */
  } /* ty=fn (Tensor[(32, 50, 1024), float32], Tensor[(32, 50, 1), float32]) -> Tensor[(32, 50, 1024), float32] */;
  %1144 = %1143(%1140, %1142) /* ty=Tensor[(32, 50, 1024), float32] */;
  %1145 = fn (%p0449: Tensor[(32, 50, 1024), float32] /* ty=Tensor[(32, 50, 1024), float32] */, Primitive=1) -> Tensor[(32, 50, 1), float32] {
    %787 = power(%p0449, 2f /* ty=float32 */) /* ty=Tensor[(32, 50, 1024), float32] */;
    mean(%787, axis=[-1], keepdims=True) /* ty=Tensor[(32, 50, 1), float32] */
  } /* ty=fn (Tensor[(32, 50, 1024), float32]) -> Tensor[(32, 50, 1), float32] */;
  %1146 = %1145(%1144) /* ty=Tensor[(32, 50, 1), float32] */;
  %1147 = fn (%p0448: Tensor[(32, 50, 1), float32] /* ty=Tensor[(32, 50, 1), float32] */, %p1307: Tensor[(32, 50, 1024), float32] /* ty=Tensor[(32, 50, 1024), float32] */, %p2104: Tensor[(1024), float32] /* ty=Tensor[(1024), float32] */, %p341: Tensor[(1024), float32] /* ty=Tensor[(1024), float32] */, Primitive=1) -> Tensor[(1600, 1024), float16] {
    %781 = add(%p0448, 1.01328e-06f /* ty=float32 */) /* ty=Tensor[(32, 50, 1), float32] */;
    %782 = rsqrt(%781) /* ty=Tensor[(32, 50, 1), float32] */;
    %783 = multiply(%p1307, %782) /* ty=Tensor[(32, 50, 1024), float32] */;
    %784 = multiply(%783, %p2104) /* ty=Tensor[(32, 50, 1024), float32] */;
    %785 = add(%784, %p341) /* ty=Tensor[(32, 50, 1024), float32] */;
    %786 = reshape(%785, newshape=[-1, 1024]) /* ty=Tensor[(1600, 1024), float32] */;
    cast(%786, dtype="float16") /* ty=Tensor[(1600, 1024), float16] */
  } /* ty=fn (Tensor[(32, 50, 1), float32], Tensor[(32, 50, 1024), float32], Tensor[(1024), float32], Tensor[(1024), float32]) -> Tensor[(1600, 1024), float16] */;
  %1148 = %1147(%1146, %1144, meta[relay.Constant][46] /* ty=Tensor[(1024), float32] */, meta[relay.Constant][47] /* ty=Tensor[(1024), float32] */) /* ty=Tensor[(1600, 1024), float16] */;
  %1149 = fn (%p0447: Tensor[(1600, 1024), float16] /* ty=Tensor[(1600, 1024), float16] */, %p1306: Tensor[(4096, 1024), float16] /* ty=Tensor[(4096, 1024), float16] */, Primitive=1) -> Tensor[(1600, 4096), float16] {
    nn.dense(%p0447, %p1306, units=None, out_dtype="float16") /* ty=Tensor[(1600, 4096), float16] */
  } /* ty=fn (Tensor[(1600, 1024), float16], Tensor[(4096, 1024), float16]) -> Tensor[(1600, 4096), float16] */;
  %1150 = %1149(%1148, meta[relay.Constant][48] /* ty=Tensor[(4096, 1024), float16] span=/encoder/layers/encoder_layer_3/mlp/mlp.0/MatMul:0:0 */) /* ty=Tensor[(1600, 4096), float16] */;
  %1151 = fn (%p0446: Tensor[(1600, 4096), float16] /* ty=Tensor[(1600, 4096), float16] */, %p1305: Tensor[(4096), float16] /* ty=Tensor[(4096), float16] */, %p2103: float16 /* ty=float16 */, Primitive=1) -> Tensor[(1600, 4096), float16] {
    %771 = reshape(%p0446, newshape=[32, 50, 4096]) /* ty=Tensor[(32, 50, 4096), float16] */;
    %772 = add(%p1305, %771) /* ty=Tensor[(32, 50, 4096), float16] */;
    %773 = divide(%772, %p2103) /* ty=Tensor[(32, 50, 4096), float16] */;
    %774 = cast(%773, dtype="float32") /* ty=Tensor[(32, 50, 4096), float32] */;
    %775 = erf(%774) /* ty=Tensor[(32, 50, 4096), float32] */;
    %776 = cast(%772, dtype="float32") /* ty=Tensor[(32, 50, 4096), float32] */;
    %777 = add(%775, 1f /* ty=float32 */) /* ty=Tensor[(32, 50, 4096), float32] */;
    %778 = multiply(%776, %777) /* ty=Tensor[(32, 50, 4096), float32] */;
    %779 = multiply(%778, 0.5f /* ty=float32 */) /* ty=Tensor[(32, 50, 4096), float32] */;
    %780 = reshape(%779, newshape=[-1, 4096]) /* ty=Tensor[(1600, 4096), float32] */;
    cast(%780, dtype="float16") /* ty=Tensor[(1600, 4096), float16] */
  } /* ty=fn (Tensor[(1600, 4096), float16], Tensor[(4096), float16], float16) -> Tensor[(1600, 4096), float16] */;
  %1152 = %1151(%1150, meta[relay.Constant][49] /* ty=Tensor[(4096), float16] span=/encoder/layers/encoder_layer_3/mlp/mlp.0/Add.encoder.layers.encoder_layer_3.mlp.0.bias:0:0 */, 1.41406f16 /* ty=float16 span=/encoder/layers/encoder_layer_3/mlp/mlp.1/Constant:0:0 */) /* ty=Tensor[(1600, 4096), float16] */;
  %1153 = fn (%p0445: Tensor[(1600, 4096), float16] /* ty=Tensor[(1600, 4096), float16] */, %p1304: Tensor[(1024, 4096), float16] /* ty=Tensor[(1024, 4096), float16] */, Primitive=1) -> Tensor[(1600, 1024), float16] {
    nn.dense(%p0445, %p1304, units=None, out_dtype="float16") /* ty=Tensor[(1600, 1024), float16] */
  } /* ty=fn (Tensor[(1600, 4096), float16], Tensor[(1024, 4096), float16]) -> Tensor[(1600, 1024), float16] */;
  %1154 = %1153(%1152, meta[relay.Constant][50] /* ty=Tensor[(1024, 4096), float16] span=/encoder/layers/encoder_layer_3/mlp/mlp.3/MatMul:0:0 */) /* ty=Tensor[(1600, 1024), float16] */;
  %1155 = fn (%p0444: Tensor[(1600, 1024), float16] /* ty=Tensor[(1600, 1024), float16] */, %p1303: Tensor[(1024), float16] /* ty=Tensor[(1024), float16] */, %p2102: Tensor[(32, 50, 1024), float16] /* ty=Tensor[(32, 50, 1024), float16] */, Primitive=1) -> Tensor[(32, 50, 1024), float16] {
    %769 = reshape(%p0444, newshape=[32, 50, 1024]) /* ty=Tensor[(32, 50, 1024), float16] */;
    %770 = add(%p1303, %769) /* ty=Tensor[(32, 50, 1024), float16] */;
    add(%p2102, %770) /* ty=Tensor[(32, 50, 1024), float16] */
  } /* ty=fn (Tensor[(1600, 1024), float16], Tensor[(1024), float16], Tensor[(32, 50, 1024), float16]) -> Tensor[(32, 50, 1024), float16] */;
  %1156 = %1155(%1154, meta[relay.Constant][51] /* ty=Tensor[(1024), float16] span=/encoder/layers/encoder_layer_3/mlp/mlp.3/Add.encoder.layers.encoder_layer_3.mlp.3.bias:0:0 */, %1138) /* ty=Tensor[(32, 50, 1024), float16] */;
  %1157 = fn (%p0443: Tensor[(32, 50, 1024), float16] /* ty=Tensor[(32, 50, 1024), float16] */, Primitive=1) -> Tensor[(32, 50, 1024), float32] {
    cast(%p0443, dtype="float32") /* ty=Tensor[(32, 50, 1024), float32] */
  } /* ty=fn (Tensor[(32, 50, 1024), float16]) -> Tensor[(32, 50, 1024), float32] */;
  %1158 = %1157(%1156) /* ty=Tensor[(32, 50, 1024), float32] */;
  %1159 = fn (%p0551: Tensor[(32, 50, 1024), float32] /* ty=Tensor[(32, 50, 1024), float32] */, Primitive=1) -> Tensor[(32, 50, 1), float32] {
    mean(%p0551, axis=[-1], keepdims=True) /* ty=Tensor[(32, 50, 1), float32] */
  } /* ty=fn (Tensor[(32, 50, 1024), float32]) -> Tensor[(32, 50, 1), float32] */;
  %1160 = %1159(%1158) /* ty=Tensor[(32, 50, 1), float32] */;
  %1161 = fn (%p0442: Tensor[(32, 50, 1024), float32] /* ty=Tensor[(32, 50, 1024), float32] */, %p1302: Tensor[(32, 50, 1), float32] /* ty=Tensor[(32, 50, 1), float32] */, Primitive=1) -> Tensor[(32, 50, 1024), float32] {
    subtract(%p0442, %p1302) /* ty=Tensor[(32, 50, 1024), float32] */
  } /* ty=fn (Tensor[(32, 50, 1024), float32], Tensor[(32, 50, 1), float32]) -> Tensor[(32, 50, 1024), float32] */;
  %1162 = %1161(%1158, %1160) /* ty=Tensor[(32, 50, 1024), float32] */;
  %1163 = fn (%p0441: Tensor[(32, 50, 1024), float32] /* ty=Tensor[(32, 50, 1024), float32] */, Primitive=1) -> Tensor[(32, 50, 1), float32] {
    %768 = power(%p0441, 2f /* ty=float32 */) /* ty=Tensor[(32, 50, 1024), float32] */;
    mean(%768, axis=[-1], keepdims=True) /* ty=Tensor[(32, 50, 1), float32] */
  } /* ty=fn (Tensor[(32, 50, 1024), float32]) -> Tensor[(32, 50, 1), float32] */;
  %1164 = %1163(%1162) /* ty=Tensor[(32, 50, 1), float32] */;
  %1165 = fn (%p0440: Tensor[(32, 50, 1), float32] /* ty=Tensor[(32, 50, 1), float32] */, %p1301: Tensor[(32, 50, 1024), float32] /* ty=Tensor[(32, 50, 1024), float32] */, %p2101: Tensor[(1024), float32] /* ty=Tensor[(1024), float32] */, %p340: Tensor[(1024), float32] /* ty=Tensor[(1024), float32] */, Primitive=1) -> Tensor[(1600, 1024), float16] {
    %761 = add(%p0440, 1.01328e-06f /* ty=float32 */) /* ty=Tensor[(32, 50, 1), float32] */;
    %762 = rsqrt(%761) /* ty=Tensor[(32, 50, 1), float32] */;
    %763 = multiply(%p1301, %762) /* ty=Tensor[(32, 50, 1024), float32] */;
    %764 = multiply(%763, %p2101) /* ty=Tensor[(32, 50, 1024), float32] */;
    %765 = add(%764, %p340) /* ty=Tensor[(32, 50, 1024), float32] */;
    %766 = transpose(%765, axes=[1, 0, 2]) /* ty=Tensor[(50, 32, 1024), float32] */;
    %767 = reshape(%766, newshape=[-1, 1024]) /* ty=Tensor[(1600, 1024), float32] */;
    cast(%767, dtype="float16") /* ty=Tensor[(1600, 1024), float16] */
  } /* ty=fn (Tensor[(32, 50, 1), float32], Tensor[(32, 50, 1024), float32], Tensor[(1024), float32], Tensor[(1024), float32]) -> Tensor[(1600, 1024), float16] */;
  %1166 = %1165(%1164, %1162, meta[relay.Constant][52] /* ty=Tensor[(1024), float32] */, meta[relay.Constant][53] /* ty=Tensor[(1024), float32] */) /* ty=Tensor[(1600, 1024), float16] */;
  %1167 = fn (%p0439: Tensor[(1600, 1024), float16] /* ty=Tensor[(1600, 1024), float16] */, %p1300: Tensor[(3072, 1024), float16] /* ty=Tensor[(3072, 1024), float16] */, Primitive=1) -> Tensor[(1600, 3072), float16] {
    nn.dense(%p0439, %p1300, units=None, out_dtype="float16") /* ty=Tensor[(1600, 3072), float16] */
  } /* ty=fn (Tensor[(1600, 1024), float16], Tensor[(3072, 1024), float16]) -> Tensor[(1600, 3072), float16] */;
  %1168 = %1167(%1166, meta[relay.Constant][54] /* ty=Tensor[(3072, 1024), float16] span=/encoder/layers/encoder_layer_4/self_attention/MatMul:0:0 */) /* ty=Tensor[(1600, 3072), float16] */;
  %1169 = fn (%p0438: Tensor[(1600, 3072), float16] /* ty=Tensor[(1600, 3072), float16] */, %p1299: Tensor[(3072), float16] /* ty=Tensor[(3072), float16] */, Primitive=1) -> Tensor[(50, 32, 3072), float16] {
    %760 = reshape(%p0438, newshape=[50, 32, 3072]) /* ty=Tensor[(50, 32, 3072), float16] */;
    add(%p1299, %760) /* ty=Tensor[(50, 32, 3072), float16] */
  } /* ty=fn (Tensor[(1600, 3072), float16], Tensor[(3072), float16]) -> Tensor[(50, 32, 3072), float16] */;
  %1170 = %1169(%1168, meta[relay.Constant][55] /* ty=Tensor[(3072), float16] span=Identity_119:0:0 */) /* ty=Tensor[(50, 32, 3072), float16] */;
  %1171 = fn (%p0437: Tensor[(50, 32, 3072), float16] /* ty=Tensor[(50, 32, 3072), float16] */, %p1298: float16 /* ty=float16 */, Primitive=1) -> Tensor[(512, 50, 64), float16] {
    %757 = strided_slice(%p0437, begin=[0i64], end=[1024i64], strides=[1i64], axes=[2i64]) /* ty=Tensor[(50, 32, 1024), float16] */;
    %758 = reshape(%757, newshape=[50, 512, 64]) /* ty=Tensor[(50, 512, 64), float16] */;
    %759 = transpose(%758, axes=[1, 0, 2]) /* ty=Tensor[(512, 50, 64), float16] */;
    divide(%759, %p1298) /* ty=Tensor[(512, 50, 64), float16] */
  } /* ty=fn (Tensor[(50, 32, 3072), float16], float16) -> Tensor[(512, 50, 64), float16] */;
  %1174 = fn (%p0552: Tensor[(50, 32, 3072), float16] /* ty=Tensor[(50, 32, 3072), float16] */, Primitive=1) -> Tensor[(512, 50, 64), float16] {
    %1172 = strided_slice(%p0552, begin=[1024i64], end=[2048i64], strides=[1i64], axes=[2i64]) /* ty=Tensor[(50, 32, 1024), float16] */;
    %1173 = reshape(%1172, newshape=[50, 512, 64]) /* ty=Tensor[(50, 512, 64), float16] */;
    transpose(%1173, axes=[1, 0, 2]) /* ty=Tensor[(512, 50, 64), float16] */
  } /* ty=fn (Tensor[(50, 32, 3072), float16]) -> Tensor[(512, 50, 64), float16] */;
  %1175 = %1171(%1170, 8f16 /* ty=float16 span=/encoder/layers/encoder_layer_4/self_attention/Constant_14:0:0 */) /* ty=Tensor[(512, 50, 64), float16] */;
  %1176 = %1174(%1170) /* ty=Tensor[(512, 50, 64), float16] */;
  %1177 = fn (%p0436: Tensor[(512, 50, 64), float16] /* ty=Tensor[(512, 50, 64), float16] */, %p1297: Tensor[(512, 50, 64), float16] /* ty=Tensor[(512, 50, 64), float16] */, Primitive=1) -> Tensor[(512, 50, 50), float16] {
    nn.batch_matmul(%p0436, %p1297, out_dtype="float16", transpose_b=True) /* ty=Tensor[(512, 50, 50), float16] */
  } /* ty=fn (Tensor[(512, 50, 64), float16], Tensor[(512, 50, 64), float16]) -> Tensor[(512, 50, 50), float16] */;
  %1178 = %1177(%1175, %1176) /* ty=Tensor[(512, 50, 50), float16] */;
  %1179 = fn (%p0435: Tensor[(512, 50, 50), float16] /* ty=Tensor[(512, 50, 50), float16] */, Primitive=1) -> Tensor[(512, 50, 50), float32] {
    %756 = reshape(%p0435, newshape=[512, 50, 50]) /* ty=Tensor[(512, 50, 50), float16] */;
    cast(%756, dtype="float32") /* ty=Tensor[(512, 50, 50), float32] */
  } /* ty=fn (Tensor[(512, 50, 50), float16]) -> Tensor[(512, 50, 50), float32] */;
  %1180 = %1179(%1178) /* ty=Tensor[(512, 50, 50), float32] */;
  %1181 = fn (%p0434: Tensor[(512, 50, 50), float32] /* ty=Tensor[(512, 50, 50), float32] */, Primitive=1) -> Tensor[(512, 50, 50), float16] {
    %755 = nn.softmax(%p0434, axis=2) /* ty=Tensor[(512, 50, 50), float32] */;
    cast(%755, dtype="float16") /* ty=Tensor[(512, 50, 50), float16] */
  } /* ty=fn (Tensor[(512, 50, 50), float32]) -> Tensor[(512, 50, 50), float16] */;
  %1184 = fn (%p0553: Tensor[(50, 32, 3072), float16] /* ty=Tensor[(50, 32, 3072), float16] */, Primitive=1) -> Tensor[(512, 64, 50), float16] {
    %1182 = strided_slice(%p0553, begin=[2048i64], end=[3072i64], strides=[1i64], axes=[2i64]) /* ty=Tensor[(50, 32, 1024), float16] */;
    %1183 = reshape(%1182, newshape=[50, 512, 64]) /* ty=Tensor[(50, 512, 64), float16] */;
    transpose(%1183, axes=[1, 2, 0]) /* ty=Tensor[(512, 64, 50), float16] */
  } /* ty=fn (Tensor[(50, 32, 3072), float16]) -> Tensor[(512, 64, 50), float16] */;
  %1185 = %1181(%1180) /* ty=Tensor[(512, 50, 50), float16] */;
  %1186 = %1184(%1170) /* ty=Tensor[(512, 64, 50), float16] */;
  %1187 = fn (%p0433: Tensor[(512, 50, 50), float16] /* ty=Tensor[(512, 50, 50), float16] */, %p1296: Tensor[(512, 64, 50), float16] /* ty=Tensor[(512, 64, 50), float16] */, Primitive=1) -> Tensor[(512, 50, 64), float16] {
    nn.batch_matmul(%p0433, %p1296, out_dtype="float16", transpose_b=True) /* ty=Tensor[(512, 50, 64), float16] */
  } /* ty=fn (Tensor[(512, 50, 50), float16], Tensor[(512, 64, 50), float16]) -> Tensor[(512, 50, 64), float16] */;
  %1188 = %1187(%1185, %1186) /* ty=Tensor[(512, 50, 64), float16] */;
  %1189 = fn (%p0432: Tensor[(512, 50, 64), float16] /* ty=Tensor[(512, 50, 64), float16] */, Primitive=1) -> Tensor[(1600, 1024), float16] {
    %753 = reshape(%p0432, newshape=[512, 50, 64]) /* ty=Tensor[(512, 50, 64), float16] */;
    %754 = transpose(%753, axes=[1, 0, 2]) /* ty=Tensor[(50, 512, 64), float16] */;
    reshape(%754, newshape=[1600, 1024]) /* ty=Tensor[(1600, 1024), float16] */
  } /* ty=fn (Tensor[(512, 50, 64), float16]) -> Tensor[(1600, 1024), float16] */;
  %1190 = %1189(%1188) /* ty=Tensor[(1600, 1024), float16] */;
  %1191 = fn (%p0431: Tensor[(1600, 1024), float16] /* ty=Tensor[(1600, 1024), float16] */, %p1295: Tensor[(1024, 1024), float16] /* ty=Tensor[(1024, 1024), float16] */, %p2100: Tensor[(1, 1024), float16] /* ty=Tensor[(1, 1024), float16] */, Primitive=1) -> Tensor[(1600, 1024), float16] {
    %752 = nn.dense(%p0431, %p1295, units=1024, out_dtype="float16") /* ty=Tensor[(1600, 1024), float16] */;
    add(%752, %p2100) /* ty=Tensor[(1600, 1024), float16] */
  } /* ty=fn (Tensor[(1600, 1024), float16], Tensor[(1024, 1024), float16], Tensor[(1, 1024), float16]) -> Tensor[(1600, 1024), float16] */;
  %1192 = %1191(%1190, meta[relay.Constant][56] /* ty=Tensor[(1024, 1024), float16] span=/encoder/layers/encoder_layer_4/self_attention/Gemm.encoder.layers.encoder_layer_4.self_attention.out_proj.weight:0:0 */, meta[relay.Constant][57] /* ty=Tensor[(1, 1024), float16] */) /* ty=Tensor[(1600, 1024), float16] */;
  %1193 = fn (%p0430: Tensor[(1600, 1024), float16] /* ty=Tensor[(1600, 1024), float16] */, %p1294: Tensor[(32, 50, 1024), float16] /* ty=Tensor[(32, 50, 1024), float16] */, Primitive=1) -> Tensor[(32, 50, 1024), float16] {
    %750 = reshape(%p0430, newshape=[50, 32, 1024]) /* ty=Tensor[(50, 32, 1024), float16] */;
    %751 = transpose(%750, axes=[1, 0, 2]) /* ty=Tensor[(32, 50, 1024), float16] */;
    add(%751, %p1294) /* ty=Tensor[(32, 50, 1024), float16] */
  } /* ty=fn (Tensor[(1600, 1024), float16], Tensor[(32, 50, 1024), float16]) -> Tensor[(32, 50, 1024), float16] */;
  %1194 = %1193(%1192, %1156) /* ty=Tensor[(32, 50, 1024), float16] */;
  %1195 = fn (%p0429: Tensor[(32, 50, 1024), float16] /* ty=Tensor[(32, 50, 1024), float16] */, Primitive=1) -> Tensor[(32, 50, 1024), float32] {
    cast(%p0429, dtype="float32") /* ty=Tensor[(32, 50, 1024), float32] */
  } /* ty=fn (Tensor[(32, 50, 1024), float16]) -> Tensor[(32, 50, 1024), float32] */;
  %1196 = %1195(%1194) /* ty=Tensor[(32, 50, 1024), float32] */;
  %1197 = fn (%p0554: Tensor[(32, 50, 1024), float32] /* ty=Tensor[(32, 50, 1024), float32] */, Primitive=1) -> Tensor[(32, 50, 1), float32] {
    mean(%p0554, axis=[-1], keepdims=True) /* ty=Tensor[(32, 50, 1), float32] */
  } /* ty=fn (Tensor[(32, 50, 1024), float32]) -> Tensor[(32, 50, 1), float32] */;
  %1198 = %1197(%1196) /* ty=Tensor[(32, 50, 1), float32] */;
  %1199 = fn (%p0428: Tensor[(32, 50, 1024), float32] /* ty=Tensor[(32, 50, 1024), float32] */, %p1293: Tensor[(32, 50, 1), float32] /* ty=Tensor[(32, 50, 1), float32] */, Primitive=1) -> Tensor[(32, 50, 1024), float32] {
    subtract(%p0428, %p1293) /* ty=Tensor[(32, 50, 1024), float32] */
  } /* ty=fn (Tensor[(32, 50, 1024), float32], Tensor[(32, 50, 1), float32]) -> Tensor[(32, 50, 1024), float32] */;
  %1200 = %1199(%1196, %1198) /* ty=Tensor[(32, 50, 1024), float32] */;
  %1201 = fn (%p0427: Tensor[(32, 50, 1024), float32] /* ty=Tensor[(32, 50, 1024), float32] */, Primitive=1) -> Tensor[(32, 50, 1), float32] {
    %749 = power(%p0427, 2f /* ty=float32 */) /* ty=Tensor[(32, 50, 1024), float32] */;
    mean(%749, axis=[-1], keepdims=True) /* ty=Tensor[(32, 50, 1), float32] */
  } /* ty=fn (Tensor[(32, 50, 1024), float32]) -> Tensor[(32, 50, 1), float32] */;
  %1202 = %1201(%1200) /* ty=Tensor[(32, 50, 1), float32] */;
  %1203 = fn (%p0426: Tensor[(32, 50, 1), float32] /* ty=Tensor[(32, 50, 1), float32] */, %p1292: Tensor[(32, 50, 1024), float32] /* ty=Tensor[(32, 50, 1024), float32] */, %p299: Tensor[(1024), float32] /* ty=Tensor[(1024), float32] */, %p339: Tensor[(1024), float32] /* ty=Tensor[(1024), float32] */, Primitive=1) -> Tensor[(1600, 1024), float16] {
    %743 = add(%p0426, 1.01328e-06f /* ty=float32 */) /* ty=Tensor[(32, 50, 1), float32] */;
    %744 = rsqrt(%743) /* ty=Tensor[(32, 50, 1), float32] */;
    %745 = multiply(%p1292, %744) /* ty=Tensor[(32, 50, 1024), float32] */;
    %746 = multiply(%745, %p299) /* ty=Tensor[(32, 50, 1024), float32] */;
    %747 = add(%746, %p339) /* ty=Tensor[(32, 50, 1024), float32] */;
    %748 = reshape(%747, newshape=[-1, 1024]) /* ty=Tensor[(1600, 1024), float32] */;
    cast(%748, dtype="float16") /* ty=Tensor[(1600, 1024), float16] */
  } /* ty=fn (Tensor[(32, 50, 1), float32], Tensor[(32, 50, 1024), float32], Tensor[(1024), float32], Tensor[(1024), float32]) -> Tensor[(1600, 1024), float16] */;
  %1204 = %1203(%1202, %1200, meta[relay.Constant][58] /* ty=Tensor[(1024), float32] */, meta[relay.Constant][59] /* ty=Tensor[(1024), float32] */) /* ty=Tensor[(1600, 1024), float16] */;
  %1205 = fn (%p0425: Tensor[(1600, 1024), float16] /* ty=Tensor[(1600, 1024), float16] */, %p1291: Tensor[(4096, 1024), float16] /* ty=Tensor[(4096, 1024), float16] */, Primitive=1) -> Tensor[(1600, 4096), float16] {
    nn.dense(%p0425, %p1291, units=None, out_dtype="float16") /* ty=Tensor[(1600, 4096), float16] */
  } /* ty=fn (Tensor[(1600, 1024), float16], Tensor[(4096, 1024), float16]) -> Tensor[(1600, 4096), float16] */;
  %1206 = %1205(%1204, meta[relay.Constant][60] /* ty=Tensor[(4096, 1024), float16] span=/encoder/layers/encoder_layer_4/mlp/mlp.0/MatMul:0:0 */) /* ty=Tensor[(1600, 4096), float16] */;
  %1207 = fn (%p0424: Tensor[(1600, 4096), float16] /* ty=Tensor[(1600, 4096), float16] */, %p1290: Tensor[(4096), float16] /* ty=Tensor[(4096), float16] */, %p298: float16 /* ty=float16 */, Primitive=1) -> Tensor[(1600, 4096), float16] {
    %733 = reshape(%p0424, newshape=[32, 50, 4096]) /* ty=Tensor[(32, 50, 4096), float16] */;
    %734 = add(%p1290, %733) /* ty=Tensor[(32, 50, 4096), float16] */;
    %735 = divide(%734, %p298) /* ty=Tensor[(32, 50, 4096), float16] */;
    %736 = cast(%735, dtype="float32") /* ty=Tensor[(32, 50, 4096), float32] */;
    %737 = erf(%736) /* ty=Tensor[(32, 50, 4096), float32] */;
    %738 = cast(%734, dtype="float32") /* ty=Tensor[(32, 50, 4096), float32] */;
    %739 = add(%737, 1f /* ty=float32 */) /* ty=Tensor[(32, 50, 4096), float32] */;
    %740 = multiply(%738, %739) /* ty=Tensor[(32, 50, 4096), float32] */;
    %741 = multiply(%740, 0.5f /* ty=float32 */) /* ty=Tensor[(32, 50, 4096), float32] */;
    %742 = reshape(%741, newshape=[-1, 4096]) /* ty=Tensor[(1600, 4096), float32] */;
    cast(%742, dtype="float16") /* ty=Tensor[(1600, 4096), float16] */
  } /* ty=fn (Tensor[(1600, 4096), float16], Tensor[(4096), float16], float16) -> Tensor[(1600, 4096), float16] */;
  %1208 = %1207(%1206, meta[relay.Constant][61] /* ty=Tensor[(4096), float16] span=/encoder/layers/encoder_layer_4/mlp/mlp.0/Add.encoder.layers.encoder_layer_4.mlp.0.bias:0:0 */, 1.41406f16 /* ty=float16 span=/encoder/layers/encoder_layer_4/mlp/mlp.1/Constant:0:0 */) /* ty=Tensor[(1600, 4096), float16] */;
  %1209 = fn (%p0423: Tensor[(1600, 4096), float16] /* ty=Tensor[(1600, 4096), float16] */, %p1289: Tensor[(1024, 4096), float16] /* ty=Tensor[(1024, 4096), float16] */, Primitive=1) -> Tensor[(1600, 1024), float16] {
    nn.dense(%p0423, %p1289, units=None, out_dtype="float16") /* ty=Tensor[(1600, 1024), float16] */
  } /* ty=fn (Tensor[(1600, 4096), float16], Tensor[(1024, 4096), float16]) -> Tensor[(1600, 1024), float16] */;
  %1210 = %1209(%1208, meta[relay.Constant][62] /* ty=Tensor[(1024, 4096), float16] span=/encoder/layers/encoder_layer_4/mlp/mlp.3/MatMul:0:0 */) /* ty=Tensor[(1600, 1024), float16] */;
  %1211 = fn (%p0422: Tensor[(1600, 1024), float16] /* ty=Tensor[(1600, 1024), float16] */, %p1288: Tensor[(1024), float16] /* ty=Tensor[(1024), float16] */, %p297: Tensor[(32, 50, 1024), float16] /* ty=Tensor[(32, 50, 1024), float16] */, Primitive=1) -> Tensor[(32, 50, 1024), float16] {
    %731 = reshape(%p0422, newshape=[32, 50, 1024]) /* ty=Tensor[(32, 50, 1024), float16] */;
    %732 = add(%p1288, %731) /* ty=Tensor[(32, 50, 1024), float16] */;
    add(%p297, %732) /* ty=Tensor[(32, 50, 1024), float16] */
  } /* ty=fn (Tensor[(1600, 1024), float16], Tensor[(1024), float16], Tensor[(32, 50, 1024), float16]) -> Tensor[(32, 50, 1024), float16] */;
  %1212 = %1211(%1210, meta[relay.Constant][63] /* ty=Tensor[(1024), float16] span=/encoder/layers/encoder_layer_4/mlp/mlp.3/Add.encoder.layers.encoder_layer_4.mlp.3.bias:0:0 */, %1194) /* ty=Tensor[(32, 50, 1024), float16] */;
  %1213 = fn (%p0421: Tensor[(32, 50, 1024), float16] /* ty=Tensor[(32, 50, 1024), float16] */, Primitive=1) -> Tensor[(32, 50, 1024), float32] {
    cast(%p0421, dtype="float32") /* ty=Tensor[(32, 50, 1024), float32] */
  } /* ty=fn (Tensor[(32, 50, 1024), float16]) -> Tensor[(32, 50, 1024), float32] */;
  %1214 = %1213(%1212) /* ty=Tensor[(32, 50, 1024), float32] */;
  %1215 = fn (%p0555: Tensor[(32, 50, 1024), float32] /* ty=Tensor[(32, 50, 1024), float32] */, Primitive=1) -> Tensor[(32, 50, 1), float32] {
    mean(%p0555, axis=[-1], keepdims=True) /* ty=Tensor[(32, 50, 1), float32] */
  } /* ty=fn (Tensor[(32, 50, 1024), float32]) -> Tensor[(32, 50, 1), float32] */;
  %1216 = %1215(%1214) /* ty=Tensor[(32, 50, 1), float32] */;
  %1217 = fn (%p0420: Tensor[(32, 50, 1024), float32] /* ty=Tensor[(32, 50, 1024), float32] */, %p1287: Tensor[(32, 50, 1), float32] /* ty=Tensor[(32, 50, 1), float32] */, Primitive=1) -> Tensor[(32, 50, 1024), float32] {
    subtract(%p0420, %p1287) /* ty=Tensor[(32, 50, 1024), float32] */
  } /* ty=fn (Tensor[(32, 50, 1024), float32], Tensor[(32, 50, 1), float32]) -> Tensor[(32, 50, 1024), float32] */;
  %1218 = %1217(%1214, %1216) /* ty=Tensor[(32, 50, 1024), float32] */;
  %1219 = fn (%p0419: Tensor[(32, 50, 1024), float32] /* ty=Tensor[(32, 50, 1024), float32] */, Primitive=1) -> Tensor[(32, 50, 1), float32] {
    %730 = power(%p0419, 2f /* ty=float32 */) /* ty=Tensor[(32, 50, 1024), float32] */;
    mean(%730, axis=[-1], keepdims=True) /* ty=Tensor[(32, 50, 1), float32] */
  } /* ty=fn (Tensor[(32, 50, 1024), float32]) -> Tensor[(32, 50, 1), float32] */;
  %1220 = %1219(%1218) /* ty=Tensor[(32, 50, 1), float32] */;
  %1221 = fn (%p0418: Tensor[(32, 50, 1), float32] /* ty=Tensor[(32, 50, 1), float32] */, %p1286: Tensor[(32, 50, 1024), float32] /* ty=Tensor[(32, 50, 1024), float32] */, %p296: Tensor[(1024), float32] /* ty=Tensor[(1024), float32] */, %p338: Tensor[(1024), float32] /* ty=Tensor[(1024), float32] */, Primitive=1) -> Tensor[(1600, 1024), float16] {
    %723 = add(%p0418, 1.01328e-06f /* ty=float32 */) /* ty=Tensor[(32, 50, 1), float32] */;
    %724 = rsqrt(%723) /* ty=Tensor[(32, 50, 1), float32] */;
    %725 = multiply(%p1286, %724) /* ty=Tensor[(32, 50, 1024), float32] */;
    %726 = multiply(%725, %p296) /* ty=Tensor[(32, 50, 1024), float32] */;
    %727 = add(%726, %p338) /* ty=Tensor[(32, 50, 1024), float32] */;
    %728 = transpose(%727, axes=[1, 0, 2]) /* ty=Tensor[(50, 32, 1024), float32] */;
    %729 = reshape(%728, newshape=[-1, 1024]) /* ty=Tensor[(1600, 1024), float32] */;
    cast(%729, dtype="float16") /* ty=Tensor[(1600, 1024), float16] */
  } /* ty=fn (Tensor[(32, 50, 1), float32], Tensor[(32, 50, 1024), float32], Tensor[(1024), float32], Tensor[(1024), float32]) -> Tensor[(1600, 1024), float16] */;
  %1222 = %1221(%1220, %1218, meta[relay.Constant][64] /* ty=Tensor[(1024), float32] */, meta[relay.Constant][65] /* ty=Tensor[(1024), float32] */) /* ty=Tensor[(1600, 1024), float16] */;
  %1223 = fn (%p0417: Tensor[(1600, 1024), float16] /* ty=Tensor[(1600, 1024), float16] */, %p1285: Tensor[(3072, 1024), float16] /* ty=Tensor[(3072, 1024), float16] */, Primitive=1) -> Tensor[(1600, 3072), float16] {
    nn.dense(%p0417, %p1285, units=None, out_dtype="float16") /* ty=Tensor[(1600, 3072), float16] */
  } /* ty=fn (Tensor[(1600, 1024), float16], Tensor[(3072, 1024), float16]) -> Tensor[(1600, 3072), float16] */;
  %1224 = %1223(%1222, meta[relay.Constant][66] /* ty=Tensor[(3072, 1024), float16] span=/encoder/layers/encoder_layer_5/self_attention/MatMul:0:0 */) /* ty=Tensor[(1600, 3072), float16] */;
  %1225 = fn (%p0416: Tensor[(1600, 3072), float16] /* ty=Tensor[(1600, 3072), float16] */, %p1284: Tensor[(3072), float16] /* ty=Tensor[(3072), float16] */, Primitive=1) -> Tensor[(50, 32, 3072), float16] {
    %722 = reshape(%p0416, newshape=[50, 32, 3072]) /* ty=Tensor[(50, 32, 3072), float16] */;
    add(%p1284, %722) /* ty=Tensor[(50, 32, 3072), float16] */
  } /* ty=fn (Tensor[(1600, 3072), float16], Tensor[(3072), float16]) -> Tensor[(50, 32, 3072), float16] */;
  %1226 = %1225(%1224, meta[relay.Constant][67] /* ty=Tensor[(3072), float16] span=Identity_113:0:0 */) /* ty=Tensor[(50, 32, 3072), float16] */;
  %1227 = fn (%p0415: Tensor[(50, 32, 3072), float16] /* ty=Tensor[(50, 32, 3072), float16] */, %p1283: float16 /* ty=float16 */, Primitive=1) -> Tensor[(512, 50, 64), float16] {
    %719 = strided_slice(%p0415, begin=[0i64], end=[1024i64], strides=[1i64], axes=[2i64]) /* ty=Tensor[(50, 32, 1024), float16] */;
    %720 = reshape(%719, newshape=[50, 512, 64]) /* ty=Tensor[(50, 512, 64), float16] */;
    %721 = transpose(%720, axes=[1, 0, 2]) /* ty=Tensor[(512, 50, 64), float16] */;
    divide(%721, %p1283) /* ty=Tensor[(512, 50, 64), float16] */
  } /* ty=fn (Tensor[(50, 32, 3072), float16], float16) -> Tensor[(512, 50, 64), float16] */;
  %1230 = fn (%p0556: Tensor[(50, 32, 3072), float16] /* ty=Tensor[(50, 32, 3072), float16] */, Primitive=1) -> Tensor[(512, 50, 64), float16] {
    %1228 = strided_slice(%p0556, begin=[1024i64], end=[2048i64], strides=[1i64], axes=[2i64]) /* ty=Tensor[(50, 32, 1024), float16] */;
    %1229 = reshape(%1228, newshape=[50, 512, 64]) /* ty=Tensor[(50, 512, 64), float16] */;
    transpose(%1229, axes=[1, 0, 2]) /* ty=Tensor[(512, 50, 64), float16] */
  } /* ty=fn (Tensor[(50, 32, 3072), float16]) -> Tensor[(512, 50, 64), float16] */;
  %1231 = %1227(%1226, 8f16 /* ty=float16 span=/encoder/layers/encoder_layer_5/self_attention/Constant_14:0:0 */) /* ty=Tensor[(512, 50, 64), float16] */;
  %1232 = %1230(%1226) /* ty=Tensor[(512, 50, 64), float16] */;
  %1233 = fn (%p0414: Tensor[(512, 50, 64), float16] /* ty=Tensor[(512, 50, 64), float16] */, %p1282: Tensor[(512, 50, 64), float16] /* ty=Tensor[(512, 50, 64), float16] */, Primitive=1) -> Tensor[(512, 50, 50), float16] {
    nn.batch_matmul(%p0414, %p1282, out_dtype="float16", transpose_b=True) /* ty=Tensor[(512, 50, 50), float16] */
  } /* ty=fn (Tensor[(512, 50, 64), float16], Tensor[(512, 50, 64), float16]) -> Tensor[(512, 50, 50), float16] */;
  %1234 = %1233(%1231, %1232) /* ty=Tensor[(512, 50, 50), float16] */;
  %1235 = fn (%p0413: Tensor[(512, 50, 50), float16] /* ty=Tensor[(512, 50, 50), float16] */, Primitive=1) -> Tensor[(512, 50, 50), float32] {
    %718 = reshape(%p0413, newshape=[512, 50, 50]) /* ty=Tensor[(512, 50, 50), float16] */;
    cast(%718, dtype="float32") /* ty=Tensor[(512, 50, 50), float32] */
  } /* ty=fn (Tensor[(512, 50, 50), float16]) -> Tensor[(512, 50, 50), float32] */;
  %1236 = %1235(%1234) /* ty=Tensor[(512, 50, 50), float32] */;
  %1237 = fn (%p0412: Tensor[(512, 50, 50), float32] /* ty=Tensor[(512, 50, 50), float32] */, Primitive=1) -> Tensor[(512, 50, 50), float16] {
    %717 = nn.softmax(%p0412, axis=2) /* ty=Tensor[(512, 50, 50), float32] */;
    cast(%717, dtype="float16") /* ty=Tensor[(512, 50, 50), float16] */
  } /* ty=fn (Tensor[(512, 50, 50), float32]) -> Tensor[(512, 50, 50), float16] */;
  %1240 = fn (%p0557: Tensor[(50, 32, 3072), float16] /* ty=Tensor[(50, 32, 3072), float16] */, Primitive=1) -> Tensor[(512, 64, 50), float16] {
    %1238 = strided_slice(%p0557, begin=[2048i64], end=[3072i64], strides=[1i64], axes=[2i64]) /* ty=Tensor[(50, 32, 1024), float16] */;
    %1239 = reshape(%1238, newshape=[50, 512, 64]) /* ty=Tensor[(50, 512, 64), float16] */;
    transpose(%1239, axes=[1, 2, 0]) /* ty=Tensor[(512, 64, 50), float16] */
  } /* ty=fn (Tensor[(50, 32, 3072), float16]) -> Tensor[(512, 64, 50), float16] */;
  %1241 = %1237(%1236) /* ty=Tensor[(512, 50, 50), float16] */;
  %1242 = %1240(%1226) /* ty=Tensor[(512, 64, 50), float16] */;
  %1243 = fn (%p0411: Tensor[(512, 50, 50), float16] /* ty=Tensor[(512, 50, 50), float16] */, %p1281: Tensor[(512, 64, 50), float16] /* ty=Tensor[(512, 64, 50), float16] */, Primitive=1) -> Tensor[(512, 50, 64), float16] {
    nn.batch_matmul(%p0411, %p1281, out_dtype="float16", transpose_b=True) /* ty=Tensor[(512, 50, 64), float16] */
  } /* ty=fn (Tensor[(512, 50, 50), float16], Tensor[(512, 64, 50), float16]) -> Tensor[(512, 50, 64), float16] */;
  %1244 = %1243(%1241, %1242) /* ty=Tensor[(512, 50, 64), float16] */;
  %1245 = fn (%p0410: Tensor[(512, 50, 64), float16] /* ty=Tensor[(512, 50, 64), float16] */, Primitive=1) -> Tensor[(1600, 1024), float16] {
    %715 = reshape(%p0410, newshape=[512, 50, 64]) /* ty=Tensor[(512, 50, 64), float16] */;
    %716 = transpose(%715, axes=[1, 0, 2]) /* ty=Tensor[(50, 512, 64), float16] */;
    reshape(%716, newshape=[1600, 1024]) /* ty=Tensor[(1600, 1024), float16] */
  } /* ty=fn (Tensor[(512, 50, 64), float16]) -> Tensor[(1600, 1024), float16] */;
  %1246 = %1245(%1244) /* ty=Tensor[(1600, 1024), float16] */;
  %1247 = fn (%p0409: Tensor[(1600, 1024), float16] /* ty=Tensor[(1600, 1024), float16] */, %p1280: Tensor[(1024, 1024), float16] /* ty=Tensor[(1024, 1024), float16] */, %p295: Tensor[(1, 1024), float16] /* ty=Tensor[(1, 1024), float16] */, Primitive=1) -> Tensor[(1600, 1024), float16] {
    %714 = nn.dense(%p0409, %p1280, units=1024, out_dtype="float16") /* ty=Tensor[(1600, 1024), float16] */;
    add(%714, %p295) /* ty=Tensor[(1600, 1024), float16] */
  } /* ty=fn (Tensor[(1600, 1024), float16], Tensor[(1024, 1024), float16], Tensor[(1, 1024), float16]) -> Tensor[(1600, 1024), float16] */;
  %1248 = %1247(%1246, meta[relay.Constant][68] /* ty=Tensor[(1024, 1024), float16] span=/encoder/layers/encoder_layer_5/self_attention/Gemm.encoder.layers.encoder_layer_5.self_attention.out_proj.weight:0:0 */, meta[relay.Constant][69] /* ty=Tensor[(1, 1024), float16] */) /* ty=Tensor[(1600, 1024), float16] */;
  %1249 = fn (%p0408: Tensor[(1600, 1024), float16] /* ty=Tensor[(1600, 1024), float16] */, %p1279: Tensor[(32, 50, 1024), float16] /* ty=Tensor[(32, 50, 1024), float16] */, Primitive=1) -> Tensor[(32, 50, 1024), float16] {
    %712 = reshape(%p0408, newshape=[50, 32, 1024]) /* ty=Tensor[(50, 32, 1024), float16] */;
    %713 = transpose(%712, axes=[1, 0, 2]) /* ty=Tensor[(32, 50, 1024), float16] */;
    add(%713, %p1279) /* ty=Tensor[(32, 50, 1024), float16] */
  } /* ty=fn (Tensor[(1600, 1024), float16], Tensor[(32, 50, 1024), float16]) -> Tensor[(32, 50, 1024), float16] */;
  %1250 = %1249(%1248, %1212) /* ty=Tensor[(32, 50, 1024), float16] */;
  %1251 = fn (%p0407: Tensor[(32, 50, 1024), float16] /* ty=Tensor[(32, 50, 1024), float16] */, Primitive=1) -> Tensor[(32, 50, 1024), float32] {
    cast(%p0407, dtype="float32") /* ty=Tensor[(32, 50, 1024), float32] */
  } /* ty=fn (Tensor[(32, 50, 1024), float16]) -> Tensor[(32, 50, 1024), float32] */;
  %1252 = %1251(%1250) /* ty=Tensor[(32, 50, 1024), float32] */;
  %1253 = fn (%p0558: Tensor[(32, 50, 1024), float32] /* ty=Tensor[(32, 50, 1024), float32] */, Primitive=1) -> Tensor[(32, 50, 1), float32] {
    mean(%p0558, axis=[-1], keepdims=True) /* ty=Tensor[(32, 50, 1), float32] */
  } /* ty=fn (Tensor[(32, 50, 1024), float32]) -> Tensor[(32, 50, 1), float32] */;
  %1254 = %1253(%1252) /* ty=Tensor[(32, 50, 1), float32] */;
  %1255 = fn (%p0406: Tensor[(32, 50, 1024), float32] /* ty=Tensor[(32, 50, 1024), float32] */, %p1278: Tensor[(32, 50, 1), float32] /* ty=Tensor[(32, 50, 1), float32] */, Primitive=1) -> Tensor[(32, 50, 1024), float32] {
    subtract(%p0406, %p1278) /* ty=Tensor[(32, 50, 1024), float32] */
  } /* ty=fn (Tensor[(32, 50, 1024), float32], Tensor[(32, 50, 1), float32]) -> Tensor[(32, 50, 1024), float32] */;
  %1256 = %1255(%1252, %1254) /* ty=Tensor[(32, 50, 1024), float32] */;
  %1257 = fn (%p0405: Tensor[(32, 50, 1024), float32] /* ty=Tensor[(32, 50, 1024), float32] */, Primitive=1) -> Tensor[(32, 50, 1), float32] {
    %711 = power(%p0405, 2f /* ty=float32 */) /* ty=Tensor[(32, 50, 1024), float32] */;
    mean(%711, axis=[-1], keepdims=True) /* ty=Tensor[(32, 50, 1), float32] */
  } /* ty=fn (Tensor[(32, 50, 1024), float32]) -> Tensor[(32, 50, 1), float32] */;
  %1258 = %1257(%1256) /* ty=Tensor[(32, 50, 1), float32] */;
  %1259 = fn (%p0404: Tensor[(32, 50, 1), float32] /* ty=Tensor[(32, 50, 1), float32] */, %p1277: Tensor[(32, 50, 1024), float32] /* ty=Tensor[(32, 50, 1024), float32] */, %p294: Tensor[(1024), float32] /* ty=Tensor[(1024), float32] */, %p337: Tensor[(1024), float32] /* ty=Tensor[(1024), float32] */, Primitive=1) -> Tensor[(1600, 1024), float16] {
    %705 = add(%p0404, 1.01328e-06f /* ty=float32 */) /* ty=Tensor[(32, 50, 1), float32] */;
    %706 = rsqrt(%705) /* ty=Tensor[(32, 50, 1), float32] */;
    %707 = multiply(%p1277, %706) /* ty=Tensor[(32, 50, 1024), float32] */;
    %708 = multiply(%707, %p294) /* ty=Tensor[(32, 50, 1024), float32] */;
    %709 = add(%708, %p337) /* ty=Tensor[(32, 50, 1024), float32] */;
    %710 = reshape(%709, newshape=[-1, 1024]) /* ty=Tensor[(1600, 1024), float32] */;
    cast(%710, dtype="float16") /* ty=Tensor[(1600, 1024), float16] */
  } /* ty=fn (Tensor[(32, 50, 1), float32], Tensor[(32, 50, 1024), float32], Tensor[(1024), float32], Tensor[(1024), float32]) -> Tensor[(1600, 1024), float16] */;
  %1260 = %1259(%1258, %1256, meta[relay.Constant][70] /* ty=Tensor[(1024), float32] */, meta[relay.Constant][71] /* ty=Tensor[(1024), float32] */) /* ty=Tensor[(1600, 1024), float16] */;
  %1261 = fn (%p0403: Tensor[(1600, 1024), float16] /* ty=Tensor[(1600, 1024), float16] */, %p1276: Tensor[(4096, 1024), float16] /* ty=Tensor[(4096, 1024), float16] */, Primitive=1) -> Tensor[(1600, 4096), float16] {
    nn.dense(%p0403, %p1276, units=None, out_dtype="float16") /* ty=Tensor[(1600, 4096), float16] */
  } /* ty=fn (Tensor[(1600, 1024), float16], Tensor[(4096, 1024), float16]) -> Tensor[(1600, 4096), float16] */;
  %1262 = %1261(%1260, meta[relay.Constant][72] /* ty=Tensor[(4096, 1024), float16] span=/encoder/layers/encoder_layer_5/mlp/mlp.0/MatMul:0:0 */) /* ty=Tensor[(1600, 4096), float16] */;
  %1263 = fn (%p0402: Tensor[(1600, 4096), float16] /* ty=Tensor[(1600, 4096), float16] */, %p1275: Tensor[(4096), float16] /* ty=Tensor[(4096), float16] */, %p293: float16 /* ty=float16 */, Primitive=1) -> Tensor[(1600, 4096), float16] {
    %695 = reshape(%p0402, newshape=[32, 50, 4096]) /* ty=Tensor[(32, 50, 4096), float16] */;
    %696 = add(%p1275, %695) /* ty=Tensor[(32, 50, 4096), float16] */;
    %697 = divide(%696, %p293) /* ty=Tensor[(32, 50, 4096), float16] */;
    %698 = cast(%697, dtype="float32") /* ty=Tensor[(32, 50, 4096), float32] */;
    %699 = erf(%698) /* ty=Tensor[(32, 50, 4096), float32] */;
    %700 = cast(%696, dtype="float32") /* ty=Tensor[(32, 50, 4096), float32] */;
    %701 = add(%699, 1f /* ty=float32 */) /* ty=Tensor[(32, 50, 4096), float32] */;
    %702 = multiply(%700, %701) /* ty=Tensor[(32, 50, 4096), float32] */;
    %703 = multiply(%702, 0.5f /* ty=float32 */) /* ty=Tensor[(32, 50, 4096), float32] */;
    %704 = reshape(%703, newshape=[-1, 4096]) /* ty=Tensor[(1600, 4096), float32] */;
    cast(%704, dtype="float16") /* ty=Tensor[(1600, 4096), float16] */
  } /* ty=fn (Tensor[(1600, 4096), float16], Tensor[(4096), float16], float16) -> Tensor[(1600, 4096), float16] */;
  %1264 = %1263(%1262, meta[relay.Constant][73] /* ty=Tensor[(4096), float16] span=/encoder/layers/encoder_layer_5/mlp/mlp.0/Add.encoder.layers.encoder_layer_5.mlp.0.bias:0:0 */, 1.41406f16 /* ty=float16 span=/encoder/layers/encoder_layer_5/mlp/mlp.1/Constant:0:0 */) /* ty=Tensor[(1600, 4096), float16] */;
  %1265 = fn (%p0401: Tensor[(1600, 4096), float16] /* ty=Tensor[(1600, 4096), float16] */, %p1274: Tensor[(1024, 4096), float16] /* ty=Tensor[(1024, 4096), float16] */, Primitive=1) -> Tensor[(1600, 1024), float16] {
    nn.dense(%p0401, %p1274, units=None, out_dtype="float16") /* ty=Tensor[(1600, 1024), float16] */
  } /* ty=fn (Tensor[(1600, 4096), float16], Tensor[(1024, 4096), float16]) -> Tensor[(1600, 1024), float16] */;
  %1266 = %1265(%1264, meta[relay.Constant][74] /* ty=Tensor[(1024, 4096), float16] span=/encoder/layers/encoder_layer_5/mlp/mlp.3/MatMul:0:0 */) /* ty=Tensor[(1600, 1024), float16] */;
  %1267 = fn (%p0400: Tensor[(1600, 1024), float16] /* ty=Tensor[(1600, 1024), float16] */, %p1273: Tensor[(1024), float16] /* ty=Tensor[(1024), float16] */, %p292: Tensor[(32, 50, 1024), float16] /* ty=Tensor[(32, 50, 1024), float16] */, Primitive=1) -> Tensor[(32, 50, 1024), float16] {
    %693 = reshape(%p0400, newshape=[32, 50, 1024]) /* ty=Tensor[(32, 50, 1024), float16] */;
    %694 = add(%p1273, %693) /* ty=Tensor[(32, 50, 1024), float16] */;
    add(%p292, %694) /* ty=Tensor[(32, 50, 1024), float16] */
  } /* ty=fn (Tensor[(1600, 1024), float16], Tensor[(1024), float16], Tensor[(32, 50, 1024), float16]) -> Tensor[(32, 50, 1024), float16] */;
  %1268 = %1267(%1266, meta[relay.Constant][75] /* ty=Tensor[(1024), float16] span=/encoder/layers/encoder_layer_5/mlp/mlp.3/Add.encoder.layers.encoder_layer_5.mlp.3.bias:0:0 */, %1250) /* ty=Tensor[(32, 50, 1024), float16] */;
  %1269 = fn (%p0399: Tensor[(32, 50, 1024), float16] /* ty=Tensor[(32, 50, 1024), float16] */, Primitive=1) -> Tensor[(32, 50, 1024), float32] {
    cast(%p0399, dtype="float32") /* ty=Tensor[(32, 50, 1024), float32] */
  } /* ty=fn (Tensor[(32, 50, 1024), float16]) -> Tensor[(32, 50, 1024), float32] */;
  %1270 = %1269(%1268) /* ty=Tensor[(32, 50, 1024), float32] */;
  %1271 = fn (%p0559: Tensor[(32, 50, 1024), float32] /* ty=Tensor[(32, 50, 1024), float32] */, Primitive=1) -> Tensor[(32, 50, 1), float32] {
    mean(%p0559, axis=[-1], keepdims=True) /* ty=Tensor[(32, 50, 1), float32] */
  } /* ty=fn (Tensor[(32, 50, 1024), float32]) -> Tensor[(32, 50, 1), float32] */;
  %1272 = %1271(%1270) /* ty=Tensor[(32, 50, 1), float32] */;
  %1273 = fn (%p0398: Tensor[(32, 50, 1024), float32] /* ty=Tensor[(32, 50, 1024), float32] */, %p1272: Tensor[(32, 50, 1), float32] /* ty=Tensor[(32, 50, 1), float32] */, Primitive=1) -> Tensor[(32, 50, 1024), float32] {
    subtract(%p0398, %p1272) /* ty=Tensor[(32, 50, 1024), float32] */
  } /* ty=fn (Tensor[(32, 50, 1024), float32], Tensor[(32, 50, 1), float32]) -> Tensor[(32, 50, 1024), float32] */;
  %1274 = %1273(%1270, %1272) /* ty=Tensor[(32, 50, 1024), float32] */;
  %1275 = fn (%p0397: Tensor[(32, 50, 1024), float32] /* ty=Tensor[(32, 50, 1024), float32] */, Primitive=1) -> Tensor[(32, 50, 1), float32] {
    %692 = power(%p0397, 2f /* ty=float32 */) /* ty=Tensor[(32, 50, 1024), float32] */;
    mean(%692, axis=[-1], keepdims=True) /* ty=Tensor[(32, 50, 1), float32] */
  } /* ty=fn (Tensor[(32, 50, 1024), float32]) -> Tensor[(32, 50, 1), float32] */;
  %1276 = %1275(%1274) /* ty=Tensor[(32, 50, 1), float32] */;
  %1277 = fn (%p0396: Tensor[(32, 50, 1), float32] /* ty=Tensor[(32, 50, 1), float32] */, %p1271: Tensor[(32, 50, 1024), float32] /* ty=Tensor[(32, 50, 1024), float32] */, %p291: Tensor[(1024), float32] /* ty=Tensor[(1024), float32] */, %p336: Tensor[(1024), float32] /* ty=Tensor[(1024), float32] */, Primitive=1) -> Tensor[(1600, 1024), float16] {
    %685 = add(%p0396, 1.01328e-06f /* ty=float32 */) /* ty=Tensor[(32, 50, 1), float32] */;
    %686 = rsqrt(%685) /* ty=Tensor[(32, 50, 1), float32] */;
    %687 = multiply(%p1271, %686) /* ty=Tensor[(32, 50, 1024), float32] */;
    %688 = multiply(%687, %p291) /* ty=Tensor[(32, 50, 1024), float32] */;
    %689 = add(%688, %p336) /* ty=Tensor[(32, 50, 1024), float32] */;
    %690 = transpose(%689, axes=[1, 0, 2]) /* ty=Tensor[(50, 32, 1024), float32] */;
    %691 = reshape(%690, newshape=[-1, 1024]) /* ty=Tensor[(1600, 1024), float32] */;
    cast(%691, dtype="float16") /* ty=Tensor[(1600, 1024), float16] */
  } /* ty=fn (Tensor[(32, 50, 1), float32], Tensor[(32, 50, 1024), float32], Tensor[(1024), float32], Tensor[(1024), float32]) -> Tensor[(1600, 1024), float16] */;
  %1278 = %1277(%1276, %1274, meta[relay.Constant][76] /* ty=Tensor[(1024), float32] */, meta[relay.Constant][77] /* ty=Tensor[(1024), float32] */) /* ty=Tensor[(1600, 1024), float16] */;
  %1279 = fn (%p0395: Tensor[(1600, 1024), float16] /* ty=Tensor[(1600, 1024), float16] */, %p1270: Tensor[(3072, 1024), float16] /* ty=Tensor[(3072, 1024), float16] */, Primitive=1) -> Tensor[(1600, 3072), float16] {
    nn.dense(%p0395, %p1270, units=None, out_dtype="float16") /* ty=Tensor[(1600, 3072), float16] */
  } /* ty=fn (Tensor[(1600, 1024), float16], Tensor[(3072, 1024), float16]) -> Tensor[(1600, 3072), float16] */;
  %1280 = %1279(%1278, meta[relay.Constant][78] /* ty=Tensor[(3072, 1024), float16] span=/encoder/layers/encoder_layer_6/self_attention/MatMul:0:0 */) /* ty=Tensor[(1600, 3072), float16] */;
  %1281 = fn (%p0394: Tensor[(1600, 3072), float16] /* ty=Tensor[(1600, 3072), float16] */, %p1269: Tensor[(3072), float16] /* ty=Tensor[(3072), float16] */, Primitive=1) -> Tensor[(50, 32, 3072), float16] {
    %684 = reshape(%p0394, newshape=[50, 32, 3072]) /* ty=Tensor[(50, 32, 3072), float16] */;
    add(%p1269, %684) /* ty=Tensor[(50, 32, 3072), float16] */
  } /* ty=fn (Tensor[(1600, 3072), float16], Tensor[(3072), float16]) -> Tensor[(50, 32, 3072), float16] */;
  %1282 = %1281(%1280, meta[relay.Constant][79] /* ty=Tensor[(3072), float16] span=Identity_107:0:0 */) /* ty=Tensor[(50, 32, 3072), float16] */;
  %1283 = fn (%p0393: Tensor[(50, 32, 3072), float16] /* ty=Tensor[(50, 32, 3072), float16] */, %p1268: float16 /* ty=float16 */, Primitive=1) -> Tensor[(512, 50, 64), float16] {
    %681 = strided_slice(%p0393, begin=[0i64], end=[1024i64], strides=[1i64], axes=[2i64]) /* ty=Tensor[(50, 32, 1024), float16] */;
    %682 = reshape(%681, newshape=[50, 512, 64]) /* ty=Tensor[(50, 512, 64), float16] */;
    %683 = transpose(%682, axes=[1, 0, 2]) /* ty=Tensor[(512, 50, 64), float16] */;
    divide(%683, %p1268) /* ty=Tensor[(512, 50, 64), float16] */
  } /* ty=fn (Tensor[(50, 32, 3072), float16], float16) -> Tensor[(512, 50, 64), float16] */;
  %1286 = fn (%p0560: Tensor[(50, 32, 3072), float16] /* ty=Tensor[(50, 32, 3072), float16] */, Primitive=1) -> Tensor[(512, 50, 64), float16] {
    %1284 = strided_slice(%p0560, begin=[1024i64], end=[2048i64], strides=[1i64], axes=[2i64]) /* ty=Tensor[(50, 32, 1024), float16] */;
    %1285 = reshape(%1284, newshape=[50, 512, 64]) /* ty=Tensor[(50, 512, 64), float16] */;
    transpose(%1285, axes=[1, 0, 2]) /* ty=Tensor[(512, 50, 64), float16] */
  } /* ty=fn (Tensor[(50, 32, 3072), float16]) -> Tensor[(512, 50, 64), float16] */;
  %1287 = %1283(%1282, 8f16 /* ty=float16 span=/encoder/layers/encoder_layer_6/self_attention/Constant_14:0:0 */) /* ty=Tensor[(512, 50, 64), float16] */;
  %1288 = %1286(%1282) /* ty=Tensor[(512, 50, 64), float16] */;
  %1289 = fn (%p0392: Tensor[(512, 50, 64), float16] /* ty=Tensor[(512, 50, 64), float16] */, %p1267: Tensor[(512, 50, 64), float16] /* ty=Tensor[(512, 50, 64), float16] */, Primitive=1) -> Tensor[(512, 50, 50), float16] {
    nn.batch_matmul(%p0392, %p1267, out_dtype="float16", transpose_b=True) /* ty=Tensor[(512, 50, 50), float16] */
  } /* ty=fn (Tensor[(512, 50, 64), float16], Tensor[(512, 50, 64), float16]) -> Tensor[(512, 50, 50), float16] */;
  %1290 = %1289(%1287, %1288) /* ty=Tensor[(512, 50, 50), float16] */;
  %1291 = fn (%p0391: Tensor[(512, 50, 50), float16] /* ty=Tensor[(512, 50, 50), float16] */, Primitive=1) -> Tensor[(512, 50, 50), float32] {
    %680 = reshape(%p0391, newshape=[512, 50, 50]) /* ty=Tensor[(512, 50, 50), float16] */;
    cast(%680, dtype="float32") /* ty=Tensor[(512, 50, 50), float32] */
  } /* ty=fn (Tensor[(512, 50, 50), float16]) -> Tensor[(512, 50, 50), float32] */;
  %1292 = %1291(%1290) /* ty=Tensor[(512, 50, 50), float32] */;
  %1293 = fn (%p0390: Tensor[(512, 50, 50), float32] /* ty=Tensor[(512, 50, 50), float32] */, Primitive=1) -> Tensor[(512, 50, 50), float16] {
    %679 = nn.softmax(%p0390, axis=2) /* ty=Tensor[(512, 50, 50), float32] */;
    cast(%679, dtype="float16") /* ty=Tensor[(512, 50, 50), float16] */
  } /* ty=fn (Tensor[(512, 50, 50), float32]) -> Tensor[(512, 50, 50), float16] */;
  %1296 = fn (%p0561: Tensor[(50, 32, 3072), float16] /* ty=Tensor[(50, 32, 3072), float16] */, Primitive=1) -> Tensor[(512, 64, 50), float16] {
    %1294 = strided_slice(%p0561, begin=[2048i64], end=[3072i64], strides=[1i64], axes=[2i64]) /* ty=Tensor[(50, 32, 1024), float16] */;
    %1295 = reshape(%1294, newshape=[50, 512, 64]) /* ty=Tensor[(50, 512, 64), float16] */;
    transpose(%1295, axes=[1, 2, 0]) /* ty=Tensor[(512, 64, 50), float16] */
  } /* ty=fn (Tensor[(50, 32, 3072), float16]) -> Tensor[(512, 64, 50), float16] */;
  %1297 = %1293(%1292) /* ty=Tensor[(512, 50, 50), float16] */;
  %1298 = %1296(%1282) /* ty=Tensor[(512, 64, 50), float16] */;
  %1299 = fn (%p0389: Tensor[(512, 50, 50), float16] /* ty=Tensor[(512, 50, 50), float16] */, %p1266: Tensor[(512, 64, 50), float16] /* ty=Tensor[(512, 64, 50), float16] */, Primitive=1) -> Tensor[(512, 50, 64), float16] {
    nn.batch_matmul(%p0389, %p1266, out_dtype="float16", transpose_b=True) /* ty=Tensor[(512, 50, 64), float16] */
  } /* ty=fn (Tensor[(512, 50, 50), float16], Tensor[(512, 64, 50), float16]) -> Tensor[(512, 50, 64), float16] */;
  %1300 = %1299(%1297, %1298) /* ty=Tensor[(512, 50, 64), float16] */;
  %1301 = fn (%p0388: Tensor[(512, 50, 64), float16] /* ty=Tensor[(512, 50, 64), float16] */, Primitive=1) -> Tensor[(1600, 1024), float16] {
    %677 = reshape(%p0388, newshape=[512, 50, 64]) /* ty=Tensor[(512, 50, 64), float16] */;
    %678 = transpose(%677, axes=[1, 0, 2]) /* ty=Tensor[(50, 512, 64), float16] */;
    reshape(%678, newshape=[1600, 1024]) /* ty=Tensor[(1600, 1024), float16] */
  } /* ty=fn (Tensor[(512, 50, 64), float16]) -> Tensor[(1600, 1024), float16] */;
  %1302 = %1301(%1300) /* ty=Tensor[(1600, 1024), float16] */;
  %1303 = fn (%p0387: Tensor[(1600, 1024), float16] /* ty=Tensor[(1600, 1024), float16] */, %p1265: Tensor[(1024, 1024), float16] /* ty=Tensor[(1024, 1024), float16] */, %p290: Tensor[(1, 1024), float16] /* ty=Tensor[(1, 1024), float16] */, Primitive=1) -> Tensor[(1600, 1024), float16] {
    %676 = nn.dense(%p0387, %p1265, units=1024, out_dtype="float16") /* ty=Tensor[(1600, 1024), float16] */;
    add(%676, %p290) /* ty=Tensor[(1600, 1024), float16] */
  } /* ty=fn (Tensor[(1600, 1024), float16], Tensor[(1024, 1024), float16], Tensor[(1, 1024), float16]) -> Tensor[(1600, 1024), float16] */;
  %1304 = %1303(%1302, meta[relay.Constant][80] /* ty=Tensor[(1024, 1024), float16] span=/encoder/layers/encoder_layer_6/self_attention/Gemm.encoder.layers.encoder_layer_6.self_attention.out_proj.weight:0:0 */, meta[relay.Constant][81] /* ty=Tensor[(1, 1024), float16] */) /* ty=Tensor[(1600, 1024), float16] */;
  %1305 = fn (%p0386: Tensor[(1600, 1024), float16] /* ty=Tensor[(1600, 1024), float16] */, %p1264: Tensor[(32, 50, 1024), float16] /* ty=Tensor[(32, 50, 1024), float16] */, Primitive=1) -> Tensor[(32, 50, 1024), float16] {
    %674 = reshape(%p0386, newshape=[50, 32, 1024]) /* ty=Tensor[(50, 32, 1024), float16] */;
    %675 = transpose(%674, axes=[1, 0, 2]) /* ty=Tensor[(32, 50, 1024), float16] */;
    add(%675, %p1264) /* ty=Tensor[(32, 50, 1024), float16] */
  } /* ty=fn (Tensor[(1600, 1024), float16], Tensor[(32, 50, 1024), float16]) -> Tensor[(32, 50, 1024), float16] */;
  %1306 = %1305(%1304, %1268) /* ty=Tensor[(32, 50, 1024), float16] */;
  %1307 = fn (%p0385: Tensor[(32, 50, 1024), float16] /* ty=Tensor[(32, 50, 1024), float16] */, Primitive=1) -> Tensor[(32, 50, 1024), float32] {
    cast(%p0385, dtype="float32") /* ty=Tensor[(32, 50, 1024), float32] */
  } /* ty=fn (Tensor[(32, 50, 1024), float16]) -> Tensor[(32, 50, 1024), float32] */;
  %1308 = %1307(%1306) /* ty=Tensor[(32, 50, 1024), float32] */;
  %1309 = fn (%p0562: Tensor[(32, 50, 1024), float32] /* ty=Tensor[(32, 50, 1024), float32] */, Primitive=1) -> Tensor[(32, 50, 1), float32] {
    mean(%p0562, axis=[-1], keepdims=True) /* ty=Tensor[(32, 50, 1), float32] */
  } /* ty=fn (Tensor[(32, 50, 1024), float32]) -> Tensor[(32, 50, 1), float32] */;
  %1310 = %1309(%1308) /* ty=Tensor[(32, 50, 1), float32] */;
  %1311 = fn (%p0384: Tensor[(32, 50, 1024), float32] /* ty=Tensor[(32, 50, 1024), float32] */, %p1263: Tensor[(32, 50, 1), float32] /* ty=Tensor[(32, 50, 1), float32] */, Primitive=1) -> Tensor[(32, 50, 1024), float32] {
    subtract(%p0384, %p1263) /* ty=Tensor[(32, 50, 1024), float32] */
  } /* ty=fn (Tensor[(32, 50, 1024), float32], Tensor[(32, 50, 1), float32]) -> Tensor[(32, 50, 1024), float32] */;
  %1312 = %1311(%1308, %1310) /* ty=Tensor[(32, 50, 1024), float32] */;
  %1313 = fn (%p0383: Tensor[(32, 50, 1024), float32] /* ty=Tensor[(32, 50, 1024), float32] */, Primitive=1) -> Tensor[(32, 50, 1), float32] {
    %673 = power(%p0383, 2f /* ty=float32 */) /* ty=Tensor[(32, 50, 1024), float32] */;
    mean(%673, axis=[-1], keepdims=True) /* ty=Tensor[(32, 50, 1), float32] */
  } /* ty=fn (Tensor[(32, 50, 1024), float32]) -> Tensor[(32, 50, 1), float32] */;
  %1314 = %1313(%1312) /* ty=Tensor[(32, 50, 1), float32] */;
  %1315 = fn (%p0382: Tensor[(32, 50, 1), float32] /* ty=Tensor[(32, 50, 1), float32] */, %p1262: Tensor[(32, 50, 1024), float32] /* ty=Tensor[(32, 50, 1024), float32] */, %p289: Tensor[(1024), float32] /* ty=Tensor[(1024), float32] */, %p335: Tensor[(1024), float32] /* ty=Tensor[(1024), float32] */, Primitive=1) -> Tensor[(1600, 1024), float16] {
    %667 = add(%p0382, 1.01328e-06f /* ty=float32 */) /* ty=Tensor[(32, 50, 1), float32] */;
    %668 = rsqrt(%667) /* ty=Tensor[(32, 50, 1), float32] */;
    %669 = multiply(%p1262, %668) /* ty=Tensor[(32, 50, 1024), float32] */;
    %670 = multiply(%669, %p289) /* ty=Tensor[(32, 50, 1024), float32] */;
    %671 = add(%670, %p335) /* ty=Tensor[(32, 50, 1024), float32] */;
    %672 = reshape(%671, newshape=[-1, 1024]) /* ty=Tensor[(1600, 1024), float32] */;
    cast(%672, dtype="float16") /* ty=Tensor[(1600, 1024), float16] */
  } /* ty=fn (Tensor[(32, 50, 1), float32], Tensor[(32, 50, 1024), float32], Tensor[(1024), float32], Tensor[(1024), float32]) -> Tensor[(1600, 1024), float16] */;
  %1316 = %1315(%1314, %1312, meta[relay.Constant][82] /* ty=Tensor[(1024), float32] */, meta[relay.Constant][83] /* ty=Tensor[(1024), float32] */) /* ty=Tensor[(1600, 1024), float16] */;
  %1317 = fn (%p0381: Tensor[(1600, 1024), float16] /* ty=Tensor[(1600, 1024), float16] */, %p1261: Tensor[(4096, 1024), float16] /* ty=Tensor[(4096, 1024), float16] */, Primitive=1) -> Tensor[(1600, 4096), float16] {
    nn.dense(%p0381, %p1261, units=None, out_dtype="float16") /* ty=Tensor[(1600, 4096), float16] */
  } /* ty=fn (Tensor[(1600, 1024), float16], Tensor[(4096, 1024), float16]) -> Tensor[(1600, 4096), float16] */;
  %1318 = %1317(%1316, meta[relay.Constant][84] /* ty=Tensor[(4096, 1024), float16] span=/encoder/layers/encoder_layer_6/mlp/mlp.0/MatMul:0:0 */) /* ty=Tensor[(1600, 4096), float16] */;
  %1319 = fn (%p0380: Tensor[(1600, 4096), float16] /* ty=Tensor[(1600, 4096), float16] */, %p1260: Tensor[(4096), float16] /* ty=Tensor[(4096), float16] */, %p288: float16 /* ty=float16 */, Primitive=1) -> Tensor[(1600, 4096), float16] {
    %657 = reshape(%p0380, newshape=[32, 50, 4096]) /* ty=Tensor[(32, 50, 4096), float16] */;
    %658 = add(%p1260, %657) /* ty=Tensor[(32, 50, 4096), float16] */;
    %659 = divide(%658, %p288) /* ty=Tensor[(32, 50, 4096), float16] */;
    %660 = cast(%659, dtype="float32") /* ty=Tensor[(32, 50, 4096), float32] */;
    %661 = erf(%660) /* ty=Tensor[(32, 50, 4096), float32] */;
    %662 = cast(%658, dtype="float32") /* ty=Tensor[(32, 50, 4096), float32] */;
    %663 = add(%661, 1f /* ty=float32 */) /* ty=Tensor[(32, 50, 4096), float32] */;
    %664 = multiply(%662, %663) /* ty=Tensor[(32, 50, 4096), float32] */;
    %665 = multiply(%664, 0.5f /* ty=float32 */) /* ty=Tensor[(32, 50, 4096), float32] */;
    %666 = reshape(%665, newshape=[-1, 4096]) /* ty=Tensor[(1600, 4096), float32] */;
    cast(%666, dtype="float16") /* ty=Tensor[(1600, 4096), float16] */
  } /* ty=fn (Tensor[(1600, 4096), float16], Tensor[(4096), float16], float16) -> Tensor[(1600, 4096), float16] */;
  %1320 = %1319(%1318, meta[relay.Constant][85] /* ty=Tensor[(4096), float16] span=/encoder/layers/encoder_layer_6/mlp/mlp.0/Add.encoder.layers.encoder_layer_6.mlp.0.bias:0:0 */, 1.41406f16 /* ty=float16 span=/encoder/layers/encoder_layer_6/mlp/mlp.1/Constant:0:0 */) /* ty=Tensor[(1600, 4096), float16] */;
  %1321 = fn (%p0379: Tensor[(1600, 4096), float16] /* ty=Tensor[(1600, 4096), float16] */, %p1259: Tensor[(1024, 4096), float16] /* ty=Tensor[(1024, 4096), float16] */, Primitive=1) -> Tensor[(1600, 1024), float16] {
    nn.dense(%p0379, %p1259, units=None, out_dtype="float16") /* ty=Tensor[(1600, 1024), float16] */
  } /* ty=fn (Tensor[(1600, 4096), float16], Tensor[(1024, 4096), float16]) -> Tensor[(1600, 1024), float16] */;
  %1322 = %1321(%1320, meta[relay.Constant][86] /* ty=Tensor[(1024, 4096), float16] span=/encoder/layers/encoder_layer_6/mlp/mlp.3/MatMul:0:0 */) /* ty=Tensor[(1600, 1024), float16] */;
  %1323 = fn (%p0378: Tensor[(1600, 1024), float16] /* ty=Tensor[(1600, 1024), float16] */, %p1258: Tensor[(1024), float16] /* ty=Tensor[(1024), float16] */, %p287: Tensor[(32, 50, 1024), float16] /* ty=Tensor[(32, 50, 1024), float16] */, Primitive=1) -> Tensor[(32, 50, 1024), float16] {
    %655 = reshape(%p0378, newshape=[32, 50, 1024]) /* ty=Tensor[(32, 50, 1024), float16] */;
    %656 = add(%p1258, %655) /* ty=Tensor[(32, 50, 1024), float16] */;
    add(%p287, %656) /* ty=Tensor[(32, 50, 1024), float16] */
  } /* ty=fn (Tensor[(1600, 1024), float16], Tensor[(1024), float16], Tensor[(32, 50, 1024), float16]) -> Tensor[(32, 50, 1024), float16] */;
  %1324 = %1323(%1322, meta[relay.Constant][87] /* ty=Tensor[(1024), float16] span=/encoder/layers/encoder_layer_6/mlp/mlp.3/Add.encoder.layers.encoder_layer_6.mlp.3.bias:0:0 */, %1306) /* ty=Tensor[(32, 50, 1024), float16] */;
  %1325 = fn (%p0377: Tensor[(32, 50, 1024), float16] /* ty=Tensor[(32, 50, 1024), float16] */, Primitive=1) -> Tensor[(32, 50, 1024), float32] {
    cast(%p0377, dtype="float32") /* ty=Tensor[(32, 50, 1024), float32] */
  } /* ty=fn (Tensor[(32, 50, 1024), float16]) -> Tensor[(32, 50, 1024), float32] */;
  %1326 = %1325(%1324) /* ty=Tensor[(32, 50, 1024), float32] */;
  %1327 = fn (%p0563: Tensor[(32, 50, 1024), float32] /* ty=Tensor[(32, 50, 1024), float32] */, Primitive=1) -> Tensor[(32, 50, 1), float32] {
    mean(%p0563, axis=[-1], keepdims=True) /* ty=Tensor[(32, 50, 1), float32] */
  } /* ty=fn (Tensor[(32, 50, 1024), float32]) -> Tensor[(32, 50, 1), float32] */;
  %1328 = %1327(%1326) /* ty=Tensor[(32, 50, 1), float32] */;
  %1329 = fn (%p0376: Tensor[(32, 50, 1024), float32] /* ty=Tensor[(32, 50, 1024), float32] */, %p1257: Tensor[(32, 50, 1), float32] /* ty=Tensor[(32, 50, 1), float32] */, Primitive=1) -> Tensor[(32, 50, 1024), float32] {
    subtract(%p0376, %p1257) /* ty=Tensor[(32, 50, 1024), float32] */
  } /* ty=fn (Tensor[(32, 50, 1024), float32], Tensor[(32, 50, 1), float32]) -> Tensor[(32, 50, 1024), float32] */;
  %1330 = %1329(%1326, %1328) /* ty=Tensor[(32, 50, 1024), float32] */;
  %1331 = fn (%p0375: Tensor[(32, 50, 1024), float32] /* ty=Tensor[(32, 50, 1024), float32] */, Primitive=1) -> Tensor[(32, 50, 1), float32] {
    %654 = power(%p0375, 2f /* ty=float32 */) /* ty=Tensor[(32, 50, 1024), float32] */;
    mean(%654, axis=[-1], keepdims=True) /* ty=Tensor[(32, 50, 1), float32] */
  } /* ty=fn (Tensor[(32, 50, 1024), float32]) -> Tensor[(32, 50, 1), float32] */;
  %1332 = %1331(%1330) /* ty=Tensor[(32, 50, 1), float32] */;
  %1333 = fn (%p0374: Tensor[(32, 50, 1), float32] /* ty=Tensor[(32, 50, 1), float32] */, %p1256: Tensor[(32, 50, 1024), float32] /* ty=Tensor[(32, 50, 1024), float32] */, %p286: Tensor[(1024), float32] /* ty=Tensor[(1024), float32] */, %p334: Tensor[(1024), float32] /* ty=Tensor[(1024), float32] */, Primitive=1) -> Tensor[(1600, 1024), float16] {
    %647 = add(%p0374, 1.01328e-06f /* ty=float32 */) /* ty=Tensor[(32, 50, 1), float32] */;
    %648 = rsqrt(%647) /* ty=Tensor[(32, 50, 1), float32] */;
    %649 = multiply(%p1256, %648) /* ty=Tensor[(32, 50, 1024), float32] */;
    %650 = multiply(%649, %p286) /* ty=Tensor[(32, 50, 1024), float32] */;
    %651 = add(%650, %p334) /* ty=Tensor[(32, 50, 1024), float32] */;
    %652 = transpose(%651, axes=[1, 0, 2]) /* ty=Tensor[(50, 32, 1024), float32] */;
    %653 = reshape(%652, newshape=[-1, 1024]) /* ty=Tensor[(1600, 1024), float32] */;
    cast(%653, dtype="float16") /* ty=Tensor[(1600, 1024), float16] */
  } /* ty=fn (Tensor[(32, 50, 1), float32], Tensor[(32, 50, 1024), float32], Tensor[(1024), float32], Tensor[(1024), float32]) -> Tensor[(1600, 1024), float16] */;
  %1334 = %1333(%1332, %1330, meta[relay.Constant][88] /* ty=Tensor[(1024), float32] */, meta[relay.Constant][89] /* ty=Tensor[(1024), float32] */) /* ty=Tensor[(1600, 1024), float16] */;
  %1335 = fn (%p0373: Tensor[(1600, 1024), float16] /* ty=Tensor[(1600, 1024), float16] */, %p1255: Tensor[(3072, 1024), float16] /* ty=Tensor[(3072, 1024), float16] */, Primitive=1) -> Tensor[(1600, 3072), float16] {
    nn.dense(%p0373, %p1255, units=None, out_dtype="float16") /* ty=Tensor[(1600, 3072), float16] */
  } /* ty=fn (Tensor[(1600, 1024), float16], Tensor[(3072, 1024), float16]) -> Tensor[(1600, 3072), float16] */;
  %1336 = %1335(%1334, meta[relay.Constant][90] /* ty=Tensor[(3072, 1024), float16] span=/encoder/layers/encoder_layer_7/self_attention/MatMul:0:0 */) /* ty=Tensor[(1600, 3072), float16] */;
  %1337 = fn (%p0372: Tensor[(1600, 3072), float16] /* ty=Tensor[(1600, 3072), float16] */, %p1254: Tensor[(3072), float16] /* ty=Tensor[(3072), float16] */, Primitive=1) -> Tensor[(50, 32, 3072), float16] {
    %646 = reshape(%p0372, newshape=[50, 32, 3072]) /* ty=Tensor[(50, 32, 3072), float16] */;
    add(%p1254, %646) /* ty=Tensor[(50, 32, 3072), float16] */
  } /* ty=fn (Tensor[(1600, 3072), float16], Tensor[(3072), float16]) -> Tensor[(50, 32, 3072), float16] */;
  %1338 = %1337(%1336, meta[relay.Constant][91] /* ty=Tensor[(3072), float16] span=Identity_101:0:0 */) /* ty=Tensor[(50, 32, 3072), float16] */;
  %1339 = fn (%p0371: Tensor[(50, 32, 3072), float16] /* ty=Tensor[(50, 32, 3072), float16] */, %p1253: float16 /* ty=float16 */, Primitive=1) -> Tensor[(512, 50, 64), float16] {
    %643 = strided_slice(%p0371, begin=[0i64], end=[1024i64], strides=[1i64], axes=[2i64]) /* ty=Tensor[(50, 32, 1024), float16] */;
    %644 = reshape(%643, newshape=[50, 512, 64]) /* ty=Tensor[(50, 512, 64), float16] */;
    %645 = transpose(%644, axes=[1, 0, 2]) /* ty=Tensor[(512, 50, 64), float16] */;
    divide(%645, %p1253) /* ty=Tensor[(512, 50, 64), float16] */
  } /* ty=fn (Tensor[(50, 32, 3072), float16], float16) -> Tensor[(512, 50, 64), float16] */;
  %1342 = fn (%p0564: Tensor[(50, 32, 3072), float16] /* ty=Tensor[(50, 32, 3072), float16] */, Primitive=1) -> Tensor[(512, 50, 64), float16] {
    %1340 = strided_slice(%p0564, begin=[1024i64], end=[2048i64], strides=[1i64], axes=[2i64]) /* ty=Tensor[(50, 32, 1024), float16] */;
    %1341 = reshape(%1340, newshape=[50, 512, 64]) /* ty=Tensor[(50, 512, 64), float16] */;
    transpose(%1341, axes=[1, 0, 2]) /* ty=Tensor[(512, 50, 64), float16] */
  } /* ty=fn (Tensor[(50, 32, 3072), float16]) -> Tensor[(512, 50, 64), float16] */;
  %1343 = %1339(%1338, 8f16 /* ty=float16 span=/encoder/layers/encoder_layer_7/self_attention/Constant_14:0:0 */) /* ty=Tensor[(512, 50, 64), float16] */;
  %1344 = %1342(%1338) /* ty=Tensor[(512, 50, 64), float16] */;
  %1345 = fn (%p0370: Tensor[(512, 50, 64), float16] /* ty=Tensor[(512, 50, 64), float16] */, %p1252: Tensor[(512, 50, 64), float16] /* ty=Tensor[(512, 50, 64), float16] */, Primitive=1) -> Tensor[(512, 50, 50), float16] {
    nn.batch_matmul(%p0370, %p1252, out_dtype="float16", transpose_b=True) /* ty=Tensor[(512, 50, 50), float16] */
  } /* ty=fn (Tensor[(512, 50, 64), float16], Tensor[(512, 50, 64), float16]) -> Tensor[(512, 50, 50), float16] */;
  %1346 = %1345(%1343, %1344) /* ty=Tensor[(512, 50, 50), float16] */;
  %1347 = fn (%p0369: Tensor[(512, 50, 50), float16] /* ty=Tensor[(512, 50, 50), float16] */, Primitive=1) -> Tensor[(512, 50, 50), float32] {
    %642 = reshape(%p0369, newshape=[512, 50, 50]) /* ty=Tensor[(512, 50, 50), float16] */;
    cast(%642, dtype="float32") /* ty=Tensor[(512, 50, 50), float32] */
  } /* ty=fn (Tensor[(512, 50, 50), float16]) -> Tensor[(512, 50, 50), float32] */;
  %1348 = %1347(%1346) /* ty=Tensor[(512, 50, 50), float32] */;
  %1349 = fn (%p0368: Tensor[(512, 50, 50), float32] /* ty=Tensor[(512, 50, 50), float32] */, Primitive=1) -> Tensor[(512, 50, 50), float16] {
    %641 = nn.softmax(%p0368, axis=2) /* ty=Tensor[(512, 50, 50), float32] */;
    cast(%641, dtype="float16") /* ty=Tensor[(512, 50, 50), float16] */
  } /* ty=fn (Tensor[(512, 50, 50), float32]) -> Tensor[(512, 50, 50), float16] */;
  %1352 = fn (%p0565: Tensor[(50, 32, 3072), float16] /* ty=Tensor[(50, 32, 3072), float16] */, Primitive=1) -> Tensor[(512, 64, 50), float16] {
    %1350 = strided_slice(%p0565, begin=[2048i64], end=[3072i64], strides=[1i64], axes=[2i64]) /* ty=Tensor[(50, 32, 1024), float16] */;
    %1351 = reshape(%1350, newshape=[50, 512, 64]) /* ty=Tensor[(50, 512, 64), float16] */;
    transpose(%1351, axes=[1, 2, 0]) /* ty=Tensor[(512, 64, 50), float16] */
  } /* ty=fn (Tensor[(50, 32, 3072), float16]) -> Tensor[(512, 64, 50), float16] */;
  %1353 = %1349(%1348) /* ty=Tensor[(512, 50, 50), float16] */;
  %1354 = %1352(%1338) /* ty=Tensor[(512, 64, 50), float16] */;
  %1355 = fn (%p0367: Tensor[(512, 50, 50), float16] /* ty=Tensor[(512, 50, 50), float16] */, %p1251: Tensor[(512, 64, 50), float16] /* ty=Tensor[(512, 64, 50), float16] */, Primitive=1) -> Tensor[(512, 50, 64), float16] {
    nn.batch_matmul(%p0367, %p1251, out_dtype="float16", transpose_b=True) /* ty=Tensor[(512, 50, 64), float16] */
  } /* ty=fn (Tensor[(512, 50, 50), float16], Tensor[(512, 64, 50), float16]) -> Tensor[(512, 50, 64), float16] */;
  %1356 = %1355(%1353, %1354) /* ty=Tensor[(512, 50, 64), float16] */;
  %1357 = fn (%p0366: Tensor[(512, 50, 64), float16] /* ty=Tensor[(512, 50, 64), float16] */, Primitive=1) -> Tensor[(1600, 1024), float16] {
    %639 = reshape(%p0366, newshape=[512, 50, 64]) /* ty=Tensor[(512, 50, 64), float16] */;
    %640 = transpose(%639, axes=[1, 0, 2]) /* ty=Tensor[(50, 512, 64), float16] */;
    reshape(%640, newshape=[1600, 1024]) /* ty=Tensor[(1600, 1024), float16] */
  } /* ty=fn (Tensor[(512, 50, 64), float16]) -> Tensor[(1600, 1024), float16] */;
  %1358 = %1357(%1356) /* ty=Tensor[(1600, 1024), float16] */;
  %1359 = fn (%p0365: Tensor[(1600, 1024), float16] /* ty=Tensor[(1600, 1024), float16] */, %p1250: Tensor[(1024, 1024), float16] /* ty=Tensor[(1024, 1024), float16] */, %p285: Tensor[(1, 1024), float16] /* ty=Tensor[(1, 1024), float16] */, Primitive=1) -> Tensor[(1600, 1024), float16] {
    %638 = nn.dense(%p0365, %p1250, units=1024, out_dtype="float16") /* ty=Tensor[(1600, 1024), float16] */;
    add(%638, %p285) /* ty=Tensor[(1600, 1024), float16] */
  } /* ty=fn (Tensor[(1600, 1024), float16], Tensor[(1024, 1024), float16], Tensor[(1, 1024), float16]) -> Tensor[(1600, 1024), float16] */;
  %1360 = %1359(%1358, meta[relay.Constant][92] /* ty=Tensor[(1024, 1024), float16] span=/encoder/layers/encoder_layer_7/self_attention/Gemm.encoder.layers.encoder_layer_7.self_attention.out_proj.weight:0:0 */, meta[relay.Constant][93] /* ty=Tensor[(1, 1024), float16] */) /* ty=Tensor[(1600, 1024), float16] */;
  %1361 = fn (%p0364: Tensor[(1600, 1024), float16] /* ty=Tensor[(1600, 1024), float16] */, %p1249: Tensor[(32, 50, 1024), float16] /* ty=Tensor[(32, 50, 1024), float16] */, Primitive=1) -> Tensor[(32, 50, 1024), float16] {
    %636 = reshape(%p0364, newshape=[50, 32, 1024]) /* ty=Tensor[(50, 32, 1024), float16] */;
    %637 = transpose(%636, axes=[1, 0, 2]) /* ty=Tensor[(32, 50, 1024), float16] */;
    add(%637, %p1249) /* ty=Tensor[(32, 50, 1024), float16] */
  } /* ty=fn (Tensor[(1600, 1024), float16], Tensor[(32, 50, 1024), float16]) -> Tensor[(32, 50, 1024), float16] */;
  %1362 = %1361(%1360, %1324) /* ty=Tensor[(32, 50, 1024), float16] */;
  %1363 = fn (%p0363: Tensor[(32, 50, 1024), float16] /* ty=Tensor[(32, 50, 1024), float16] */, Primitive=1) -> Tensor[(32, 50, 1024), float32] {
    cast(%p0363, dtype="float32") /* ty=Tensor[(32, 50, 1024), float32] */
  } /* ty=fn (Tensor[(32, 50, 1024), float16]) -> Tensor[(32, 50, 1024), float32] */;
  %1364 = %1363(%1362) /* ty=Tensor[(32, 50, 1024), float32] */;
  %1365 = fn (%p0566: Tensor[(32, 50, 1024), float32] /* ty=Tensor[(32, 50, 1024), float32] */, Primitive=1) -> Tensor[(32, 50, 1), float32] {
    mean(%p0566, axis=[-1], keepdims=True) /* ty=Tensor[(32, 50, 1), float32] */
  } /* ty=fn (Tensor[(32, 50, 1024), float32]) -> Tensor[(32, 50, 1), float32] */;
  %1366 = %1365(%1364) /* ty=Tensor[(32, 50, 1), float32] */;
  %1367 = fn (%p0362: Tensor[(32, 50, 1024), float32] /* ty=Tensor[(32, 50, 1024), float32] */, %p1248: Tensor[(32, 50, 1), float32] /* ty=Tensor[(32, 50, 1), float32] */, Primitive=1) -> Tensor[(32, 50, 1024), float32] {
    subtract(%p0362, %p1248) /* ty=Tensor[(32, 50, 1024), float32] */
  } /* ty=fn (Tensor[(32, 50, 1024), float32], Tensor[(32, 50, 1), float32]) -> Tensor[(32, 50, 1024), float32] */;
  %1368 = %1367(%1364, %1366) /* ty=Tensor[(32, 50, 1024), float32] */;
  %1369 = fn (%p0361: Tensor[(32, 50, 1024), float32] /* ty=Tensor[(32, 50, 1024), float32] */, Primitive=1) -> Tensor[(32, 50, 1), float32] {
    %635 = power(%p0361, 2f /* ty=float32 */) /* ty=Tensor[(32, 50, 1024), float32] */;
    mean(%635, axis=[-1], keepdims=True) /* ty=Tensor[(32, 50, 1), float32] */
  } /* ty=fn (Tensor[(32, 50, 1024), float32]) -> Tensor[(32, 50, 1), float32] */;
  %1370 = %1369(%1368) /* ty=Tensor[(32, 50, 1), float32] */;
  %1371 = fn (%p0360: Tensor[(32, 50, 1), float32] /* ty=Tensor[(32, 50, 1), float32] */, %p1247: Tensor[(32, 50, 1024), float32] /* ty=Tensor[(32, 50, 1024), float32] */, %p284: Tensor[(1024), float32] /* ty=Tensor[(1024), float32] */, %p333: Tensor[(1024), float32] /* ty=Tensor[(1024), float32] */, Primitive=1) -> Tensor[(1600, 1024), float16] {
    %629 = add(%p0360, 1.01328e-06f /* ty=float32 */) /* ty=Tensor[(32, 50, 1), float32] */;
    %630 = rsqrt(%629) /* ty=Tensor[(32, 50, 1), float32] */;
    %631 = multiply(%p1247, %630) /* ty=Tensor[(32, 50, 1024), float32] */;
    %632 = multiply(%631, %p284) /* ty=Tensor[(32, 50, 1024), float32] */;
    %633 = add(%632, %p333) /* ty=Tensor[(32, 50, 1024), float32] */;
    %634 = reshape(%633, newshape=[-1, 1024]) /* ty=Tensor[(1600, 1024), float32] */;
    cast(%634, dtype="float16") /* ty=Tensor[(1600, 1024), float16] */
  } /* ty=fn (Tensor[(32, 50, 1), float32], Tensor[(32, 50, 1024), float32], Tensor[(1024), float32], Tensor[(1024), float32]) -> Tensor[(1600, 1024), float16] */;
  %1372 = %1371(%1370, %1368, meta[relay.Constant][94] /* ty=Tensor[(1024), float32] */, meta[relay.Constant][95] /* ty=Tensor[(1024), float32] */) /* ty=Tensor[(1600, 1024), float16] */;
  %1373 = fn (%p0359: Tensor[(1600, 1024), float16] /* ty=Tensor[(1600, 1024), float16] */, %p1246: Tensor[(4096, 1024), float16] /* ty=Tensor[(4096, 1024), float16] */, Primitive=1) -> Tensor[(1600, 4096), float16] {
    nn.dense(%p0359, %p1246, units=None, out_dtype="float16") /* ty=Tensor[(1600, 4096), float16] */
  } /* ty=fn (Tensor[(1600, 1024), float16], Tensor[(4096, 1024), float16]) -> Tensor[(1600, 4096), float16] */;
  %1374 = %1373(%1372, meta[relay.Constant][96] /* ty=Tensor[(4096, 1024), float16] span=/encoder/layers/encoder_layer_7/mlp/mlp.0/MatMul:0:0 */) /* ty=Tensor[(1600, 4096), float16] */;
  %1375 = fn (%p0358: Tensor[(1600, 4096), float16] /* ty=Tensor[(1600, 4096), float16] */, %p1245: Tensor[(4096), float16] /* ty=Tensor[(4096), float16] */, %p283: float16 /* ty=float16 */, Primitive=1) -> Tensor[(1600, 4096), float16] {
    %619 = reshape(%p0358, newshape=[32, 50, 4096]) /* ty=Tensor[(32, 50, 4096), float16] */;
    %620 = add(%p1245, %619) /* ty=Tensor[(32, 50, 4096), float16] */;
    %621 = divide(%620, %p283) /* ty=Tensor[(32, 50, 4096), float16] */;
    %622 = cast(%621, dtype="float32") /* ty=Tensor[(32, 50, 4096), float32] */;
    %623 = erf(%622) /* ty=Tensor[(32, 50, 4096), float32] */;
    %624 = cast(%620, dtype="float32") /* ty=Tensor[(32, 50, 4096), float32] */;
    %625 = add(%623, 1f /* ty=float32 */) /* ty=Tensor[(32, 50, 4096), float32] */;
    %626 = multiply(%624, %625) /* ty=Tensor[(32, 50, 4096), float32] */;
    %627 = multiply(%626, 0.5f /* ty=float32 */) /* ty=Tensor[(32, 50, 4096), float32] */;
    %628 = reshape(%627, newshape=[-1, 4096]) /* ty=Tensor[(1600, 4096), float32] */;
    cast(%628, dtype="float16") /* ty=Tensor[(1600, 4096), float16] */
  } /* ty=fn (Tensor[(1600, 4096), float16], Tensor[(4096), float16], float16) -> Tensor[(1600, 4096), float16] */;
  %1376 = %1375(%1374, meta[relay.Constant][97] /* ty=Tensor[(4096), float16] span=/encoder/layers/encoder_layer_7/mlp/mlp.0/Add.encoder.layers.encoder_layer_7.mlp.0.bias:0:0 */, 1.41406f16 /* ty=float16 span=/encoder/layers/encoder_layer_7/mlp/mlp.1/Constant:0:0 */) /* ty=Tensor[(1600, 4096), float16] */;
  %1377 = fn (%p0357: Tensor[(1600, 4096), float16] /* ty=Tensor[(1600, 4096), float16] */, %p1244: Tensor[(1024, 4096), float16] /* ty=Tensor[(1024, 4096), float16] */, Primitive=1) -> Tensor[(1600, 1024), float16] {
    nn.dense(%p0357, %p1244, units=None, out_dtype="float16") /* ty=Tensor[(1600, 1024), float16] */
  } /* ty=fn (Tensor[(1600, 4096), float16], Tensor[(1024, 4096), float16]) -> Tensor[(1600, 1024), float16] */;
  %1378 = %1377(%1376, meta[relay.Constant][98] /* ty=Tensor[(1024, 4096), float16] span=/encoder/layers/encoder_layer_7/mlp/mlp.3/MatMul:0:0 */) /* ty=Tensor[(1600, 1024), float16] */;
  %1379 = fn (%p0356: Tensor[(1600, 1024), float16] /* ty=Tensor[(1600, 1024), float16] */, %p1243: Tensor[(1024), float16] /* ty=Tensor[(1024), float16] */, %p282: Tensor[(32, 50, 1024), float16] /* ty=Tensor[(32, 50, 1024), float16] */, Primitive=1) -> Tensor[(32, 50, 1024), float16] {
    %617 = reshape(%p0356, newshape=[32, 50, 1024]) /* ty=Tensor[(32, 50, 1024), float16] */;
    %618 = add(%p1243, %617) /* ty=Tensor[(32, 50, 1024), float16] */;
    add(%p282, %618) /* ty=Tensor[(32, 50, 1024), float16] */
  } /* ty=fn (Tensor[(1600, 1024), float16], Tensor[(1024), float16], Tensor[(32, 50, 1024), float16]) -> Tensor[(32, 50, 1024), float16] */;
  %1380 = %1379(%1378, meta[relay.Constant][99] /* ty=Tensor[(1024), float16] span=/encoder/layers/encoder_layer_7/mlp/mlp.3/Add.encoder.layers.encoder_layer_7.mlp.3.bias:0:0 */, %1362) /* ty=Tensor[(32, 50, 1024), float16] */;
  %1381 = fn (%p0355: Tensor[(32, 50, 1024), float16] /* ty=Tensor[(32, 50, 1024), float16] */, Primitive=1) -> Tensor[(32, 50, 1024), float32] {
    cast(%p0355, dtype="float32") /* ty=Tensor[(32, 50, 1024), float32] */
  } /* ty=fn (Tensor[(32, 50, 1024), float16]) -> Tensor[(32, 50, 1024), float32] */;
  %1382 = %1381(%1380) /* ty=Tensor[(32, 50, 1024), float32] */;
  %1383 = fn (%p0567: Tensor[(32, 50, 1024), float32] /* ty=Tensor[(32, 50, 1024), float32] */, Primitive=1) -> Tensor[(32, 50, 1), float32] {
    mean(%p0567, axis=[-1], keepdims=True) /* ty=Tensor[(32, 50, 1), float32] */
  } /* ty=fn (Tensor[(32, 50, 1024), float32]) -> Tensor[(32, 50, 1), float32] */;
  %1384 = %1383(%1382) /* ty=Tensor[(32, 50, 1), float32] */;
  %1385 = fn (%p0354: Tensor[(32, 50, 1024), float32] /* ty=Tensor[(32, 50, 1024), float32] */, %p1242: Tensor[(32, 50, 1), float32] /* ty=Tensor[(32, 50, 1), float32] */, Primitive=1) -> Tensor[(32, 50, 1024), float32] {
    subtract(%p0354, %p1242) /* ty=Tensor[(32, 50, 1024), float32] */
  } /* ty=fn (Tensor[(32, 50, 1024), float32], Tensor[(32, 50, 1), float32]) -> Tensor[(32, 50, 1024), float32] */;
  %1386 = %1385(%1382, %1384) /* ty=Tensor[(32, 50, 1024), float32] */;
  %1387 = fn (%p0353: Tensor[(32, 50, 1024), float32] /* ty=Tensor[(32, 50, 1024), float32] */, Primitive=1) -> Tensor[(32, 50, 1), float32] {
    %616 = power(%p0353, 2f /* ty=float32 */) /* ty=Tensor[(32, 50, 1024), float32] */;
    mean(%616, axis=[-1], keepdims=True) /* ty=Tensor[(32, 50, 1), float32] */
  } /* ty=fn (Tensor[(32, 50, 1024), float32]) -> Tensor[(32, 50, 1), float32] */;
  %1388 = %1387(%1386) /* ty=Tensor[(32, 50, 1), float32] */;
  %1389 = fn (%p0352: Tensor[(32, 50, 1), float32] /* ty=Tensor[(32, 50, 1), float32] */, %p1241: Tensor[(32, 50, 1024), float32] /* ty=Tensor[(32, 50, 1024), float32] */, %p281: Tensor[(1024), float32] /* ty=Tensor[(1024), float32] */, %p332: Tensor[(1024), float32] /* ty=Tensor[(1024), float32] */, Primitive=1) -> Tensor[(1600, 1024), float16] {
    %609 = add(%p0352, 1.01328e-06f /* ty=float32 */) /* ty=Tensor[(32, 50, 1), float32] */;
    %610 = rsqrt(%609) /* ty=Tensor[(32, 50, 1), float32] */;
    %611 = multiply(%p1241, %610) /* ty=Tensor[(32, 50, 1024), float32] */;
    %612 = multiply(%611, %p281) /* ty=Tensor[(32, 50, 1024), float32] */;
    %613 = add(%612, %p332) /* ty=Tensor[(32, 50, 1024), float32] */;
    %614 = transpose(%613, axes=[1, 0, 2]) /* ty=Tensor[(50, 32, 1024), float32] */;
    %615 = reshape(%614, newshape=[-1, 1024]) /* ty=Tensor[(1600, 1024), float32] */;
    cast(%615, dtype="float16") /* ty=Tensor[(1600, 1024), float16] */
  } /* ty=fn (Tensor[(32, 50, 1), float32], Tensor[(32, 50, 1024), float32], Tensor[(1024), float32], Tensor[(1024), float32]) -> Tensor[(1600, 1024), float16] */;
  %1390 = %1389(%1388, %1386, meta[relay.Constant][100] /* ty=Tensor[(1024), float32] */, meta[relay.Constant][101] /* ty=Tensor[(1024), float32] */) /* ty=Tensor[(1600, 1024), float16] */;
  %1391 = fn (%p0351: Tensor[(1600, 1024), float16] /* ty=Tensor[(1600, 1024), float16] */, %p1240: Tensor[(3072, 1024), float16] /* ty=Tensor[(3072, 1024), float16] */, Primitive=1) -> Tensor[(1600, 3072), float16] {
    nn.dense(%p0351, %p1240, units=None, out_dtype="float16") /* ty=Tensor[(1600, 3072), float16] */
  } /* ty=fn (Tensor[(1600, 1024), float16], Tensor[(3072, 1024), float16]) -> Tensor[(1600, 3072), float16] */;
  %1392 = %1391(%1390, meta[relay.Constant][102] /* ty=Tensor[(3072, 1024), float16] span=/encoder/layers/encoder_layer_8/self_attention/MatMul:0:0 */) /* ty=Tensor[(1600, 3072), float16] */;
  %1393 = fn (%p0350: Tensor[(1600, 3072), float16] /* ty=Tensor[(1600, 3072), float16] */, %p1239: Tensor[(3072), float16] /* ty=Tensor[(3072), float16] */, Primitive=1) -> Tensor[(50, 32, 3072), float16] {
    %608 = reshape(%p0350, newshape=[50, 32, 3072]) /* ty=Tensor[(50, 32, 3072), float16] */;
    add(%p1239, %608) /* ty=Tensor[(50, 32, 3072), float16] */
  } /* ty=fn (Tensor[(1600, 3072), float16], Tensor[(3072), float16]) -> Tensor[(50, 32, 3072), float16] */;
  %1394 = %1393(%1392, meta[relay.Constant][103] /* ty=Tensor[(3072), float16] span=Identity_95:0:0 */) /* ty=Tensor[(50, 32, 3072), float16] */;
  %1395 = fn (%p0349: Tensor[(50, 32, 3072), float16] /* ty=Tensor[(50, 32, 3072), float16] */, %p1238: float16 /* ty=float16 */, Primitive=1) -> Tensor[(512, 50, 64), float16] {
    %605 = strided_slice(%p0349, begin=[0i64], end=[1024i64], strides=[1i64], axes=[2i64]) /* ty=Tensor[(50, 32, 1024), float16] */;
    %606 = reshape(%605, newshape=[50, 512, 64]) /* ty=Tensor[(50, 512, 64), float16] */;
    %607 = transpose(%606, axes=[1, 0, 2]) /* ty=Tensor[(512, 50, 64), float16] */;
    divide(%607, %p1238) /* ty=Tensor[(512, 50, 64), float16] */
  } /* ty=fn (Tensor[(50, 32, 3072), float16], float16) -> Tensor[(512, 50, 64), float16] */;
  %1398 = fn (%p0568: Tensor[(50, 32, 3072), float16] /* ty=Tensor[(50, 32, 3072), float16] */, Primitive=1) -> Tensor[(512, 50, 64), float16] {
    %1396 = strided_slice(%p0568, begin=[1024i64], end=[2048i64], strides=[1i64], axes=[2i64]) /* ty=Tensor[(50, 32, 1024), float16] */;
    %1397 = reshape(%1396, newshape=[50, 512, 64]) /* ty=Tensor[(50, 512, 64), float16] */;
    transpose(%1397, axes=[1, 0, 2]) /* ty=Tensor[(512, 50, 64), float16] */
  } /* ty=fn (Tensor[(50, 32, 3072), float16]) -> Tensor[(512, 50, 64), float16] */;
  %1399 = %1395(%1394, 8f16 /* ty=float16 span=/encoder/layers/encoder_layer_8/self_attention/Constant_14:0:0 */) /* ty=Tensor[(512, 50, 64), float16] */;
  %1400 = %1398(%1394) /* ty=Tensor[(512, 50, 64), float16] */;
  %1401 = fn (%p0348: Tensor[(512, 50, 64), float16] /* ty=Tensor[(512, 50, 64), float16] */, %p1237: Tensor[(512, 50, 64), float16] /* ty=Tensor[(512, 50, 64), float16] */, Primitive=1) -> Tensor[(512, 50, 50), float16] {
    nn.batch_matmul(%p0348, %p1237, out_dtype="float16", transpose_b=True) /* ty=Tensor[(512, 50, 50), float16] */
  } /* ty=fn (Tensor[(512, 50, 64), float16], Tensor[(512, 50, 64), float16]) -> Tensor[(512, 50, 50), float16] */;
  %1402 = %1401(%1399, %1400) /* ty=Tensor[(512, 50, 50), float16] */;
  %1403 = fn (%p0347: Tensor[(512, 50, 50), float16] /* ty=Tensor[(512, 50, 50), float16] */, Primitive=1) -> Tensor[(512, 50, 50), float32] {
    %604 = reshape(%p0347, newshape=[512, 50, 50]) /* ty=Tensor[(512, 50, 50), float16] */;
    cast(%604, dtype="float32") /* ty=Tensor[(512, 50, 50), float32] */
  } /* ty=fn (Tensor[(512, 50, 50), float16]) -> Tensor[(512, 50, 50), float32] */;
  %1404 = %1403(%1402) /* ty=Tensor[(512, 50, 50), float32] */;
  %1405 = fn (%p0346: Tensor[(512, 50, 50), float32] /* ty=Tensor[(512, 50, 50), float32] */, Primitive=1) -> Tensor[(512, 50, 50), float16] {
    %603 = nn.softmax(%p0346, axis=2) /* ty=Tensor[(512, 50, 50), float32] */;
    cast(%603, dtype="float16") /* ty=Tensor[(512, 50, 50), float16] */
  } /* ty=fn (Tensor[(512, 50, 50), float32]) -> Tensor[(512, 50, 50), float16] */;
  %1408 = fn (%p0569: Tensor[(50, 32, 3072), float16] /* ty=Tensor[(50, 32, 3072), float16] */, Primitive=1) -> Tensor[(512, 64, 50), float16] {
    %1406 = strided_slice(%p0569, begin=[2048i64], end=[3072i64], strides=[1i64], axes=[2i64]) /* ty=Tensor[(50, 32, 1024), float16] */;
    %1407 = reshape(%1406, newshape=[50, 512, 64]) /* ty=Tensor[(50, 512, 64), float16] */;
    transpose(%1407, axes=[1, 2, 0]) /* ty=Tensor[(512, 64, 50), float16] */
  } /* ty=fn (Tensor[(50, 32, 3072), float16]) -> Tensor[(512, 64, 50), float16] */;
  %1409 = %1405(%1404) /* ty=Tensor[(512, 50, 50), float16] */;
  %1410 = %1408(%1394) /* ty=Tensor[(512, 64, 50), float16] */;
  %1411 = fn (%p0345: Tensor[(512, 50, 50), float16] /* ty=Tensor[(512, 50, 50), float16] */, %p1236: Tensor[(512, 64, 50), float16] /* ty=Tensor[(512, 64, 50), float16] */, Primitive=1) -> Tensor[(512, 50, 64), float16] {
    nn.batch_matmul(%p0345, %p1236, out_dtype="float16", transpose_b=True) /* ty=Tensor[(512, 50, 64), float16] */
  } /* ty=fn (Tensor[(512, 50, 50), float16], Tensor[(512, 64, 50), float16]) -> Tensor[(512, 50, 64), float16] */;
  %1412 = %1411(%1409, %1410) /* ty=Tensor[(512, 50, 64), float16] */;
  %1413 = fn (%p0344: Tensor[(512, 50, 64), float16] /* ty=Tensor[(512, 50, 64), float16] */, Primitive=1) -> Tensor[(1600, 1024), float16] {
    %601 = reshape(%p0344, newshape=[512, 50, 64]) /* ty=Tensor[(512, 50, 64), float16] */;
    %602 = transpose(%601, axes=[1, 0, 2]) /* ty=Tensor[(50, 512, 64), float16] */;
    reshape(%602, newshape=[1600, 1024]) /* ty=Tensor[(1600, 1024), float16] */
  } /* ty=fn (Tensor[(512, 50, 64), float16]) -> Tensor[(1600, 1024), float16] */;
  %1414 = %1413(%1412) /* ty=Tensor[(1600, 1024), float16] */;
  %1415 = fn (%p0343: Tensor[(1600, 1024), float16] /* ty=Tensor[(1600, 1024), float16] */, %p1235: Tensor[(1024, 1024), float16] /* ty=Tensor[(1024, 1024), float16] */, %p280: Tensor[(1, 1024), float16] /* ty=Tensor[(1, 1024), float16] */, Primitive=1) -> Tensor[(1600, 1024), float16] {
    %600 = nn.dense(%p0343, %p1235, units=1024, out_dtype="float16") /* ty=Tensor[(1600, 1024), float16] */;
    add(%600, %p280) /* ty=Tensor[(1600, 1024), float16] */
  } /* ty=fn (Tensor[(1600, 1024), float16], Tensor[(1024, 1024), float16], Tensor[(1, 1024), float16]) -> Tensor[(1600, 1024), float16] */;
  %1416 = %1415(%1414, meta[relay.Constant][104] /* ty=Tensor[(1024, 1024), float16] span=/encoder/layers/encoder_layer_8/self_attention/Gemm.encoder.layers.encoder_layer_8.self_attention.out_proj.weight:0:0 */, meta[relay.Constant][105] /* ty=Tensor[(1, 1024), float16] */) /* ty=Tensor[(1600, 1024), float16] */;
  %1417 = fn (%p0342: Tensor[(1600, 1024), float16] /* ty=Tensor[(1600, 1024), float16] */, %p1234: Tensor[(32, 50, 1024), float16] /* ty=Tensor[(32, 50, 1024), float16] */, Primitive=1) -> Tensor[(32, 50, 1024), float16] {
    %598 = reshape(%p0342, newshape=[50, 32, 1024]) /* ty=Tensor[(50, 32, 1024), float16] */;
    %599 = transpose(%598, axes=[1, 0, 2]) /* ty=Tensor[(32, 50, 1024), float16] */;
    add(%599, %p1234) /* ty=Tensor[(32, 50, 1024), float16] */
  } /* ty=fn (Tensor[(1600, 1024), float16], Tensor[(32, 50, 1024), float16]) -> Tensor[(32, 50, 1024), float16] */;
  %1418 = %1417(%1416, %1380) /* ty=Tensor[(32, 50, 1024), float16] */;
  %1419 = fn (%p0341: Tensor[(32, 50, 1024), float16] /* ty=Tensor[(32, 50, 1024), float16] */, Primitive=1) -> Tensor[(32, 50, 1024), float32] {
    cast(%p0341, dtype="float32") /* ty=Tensor[(32, 50, 1024), float32] */
  } /* ty=fn (Tensor[(32, 50, 1024), float16]) -> Tensor[(32, 50, 1024), float32] */;
  %1420 = %1419(%1418) /* ty=Tensor[(32, 50, 1024), float32] */;
  %1421 = fn (%p0570: Tensor[(32, 50, 1024), float32] /* ty=Tensor[(32, 50, 1024), float32] */, Primitive=1) -> Tensor[(32, 50, 1), float32] {
    mean(%p0570, axis=[-1], keepdims=True) /* ty=Tensor[(32, 50, 1), float32] */
  } /* ty=fn (Tensor[(32, 50, 1024), float32]) -> Tensor[(32, 50, 1), float32] */;
  %1422 = %1421(%1420) /* ty=Tensor[(32, 50, 1), float32] */;
  %1423 = fn (%p0340: Tensor[(32, 50, 1024), float32] /* ty=Tensor[(32, 50, 1024), float32] */, %p1233: Tensor[(32, 50, 1), float32] /* ty=Tensor[(32, 50, 1), float32] */, Primitive=1) -> Tensor[(32, 50, 1024), float32] {
    subtract(%p0340, %p1233) /* ty=Tensor[(32, 50, 1024), float32] */
  } /* ty=fn (Tensor[(32, 50, 1024), float32], Tensor[(32, 50, 1), float32]) -> Tensor[(32, 50, 1024), float32] */;
  %1424 = %1423(%1420, %1422) /* ty=Tensor[(32, 50, 1024), float32] */;
  %1425 = fn (%p0339: Tensor[(32, 50, 1024), float32] /* ty=Tensor[(32, 50, 1024), float32] */, Primitive=1) -> Tensor[(32, 50, 1), float32] {
    %597 = power(%p0339, 2f /* ty=float32 */) /* ty=Tensor[(32, 50, 1024), float32] */;
    mean(%597, axis=[-1], keepdims=True) /* ty=Tensor[(32, 50, 1), float32] */
  } /* ty=fn (Tensor[(32, 50, 1024), float32]) -> Tensor[(32, 50, 1), float32] */;
  %1426 = %1425(%1424) /* ty=Tensor[(32, 50, 1), float32] */;
  %1427 = fn (%p0338: Tensor[(32, 50, 1), float32] /* ty=Tensor[(32, 50, 1), float32] */, %p1232: Tensor[(32, 50, 1024), float32] /* ty=Tensor[(32, 50, 1024), float32] */, %p279: Tensor[(1024), float32] /* ty=Tensor[(1024), float32] */, %p331: Tensor[(1024), float32] /* ty=Tensor[(1024), float32] */, Primitive=1) -> Tensor[(1600, 1024), float…
  %2120 = %2119(%2118, meta[relay.Constant][258] /* ty=Tensor[(3072, 1024), float16] span=/encoder/layers/encoder_layer_21/self_attention/MatMul:0:0 */) /* ty=Tensor[(1600, 3072), float16] */;
  %2121 = fn (%p064: Tensor[(1600, 3072), float16] /* ty=Tensor[(1600, 3072), float16] */, %p144: Tensor[(3072), float16] /* ty=Tensor[(3072), float16] */, Primitive=1) -> Tensor[(50, 32, 3072), float16] {
    %114 = reshape(%p064, newshape=[50, 32, 3072]) /* ty=Tensor[(50, 32, 3072), float16] */;
    add(%p144, %114) /* ty=Tensor[(50, 32, 3072), float16] */
  } /* ty=fn (Tensor[(1600, 3072), float16], Tensor[(3072), float16]) -> Tensor[(50, 32, 3072), float16] */;
  %2122 = %2121(%2120, meta[relay.Constant][259] /* ty=Tensor[(3072), float16] span=Identity_17:0:0 */) /* ty=Tensor[(50, 32, 3072), float16] */;
  %2123 = fn (%p063: Tensor[(50, 32, 3072), float16] /* ty=Tensor[(50, 32, 3072), float16] */, %p143: float16 /* ty=float16 */, Primitive=1) -> Tensor[(512, 50, 64), float16] {
    %111 = strided_slice(%p063, begin=[0i64], end=[1024i64], strides=[1i64], axes=[2i64]) /* ty=Tensor[(50, 32, 1024), float16] */;
    %112 = reshape(%111, newshape=[50, 512, 64]) /* ty=Tensor[(50, 512, 64), float16] */;
    %113 = transpose(%112, axes=[1, 0, 2]) /* ty=Tensor[(512, 50, 64), float16] */;
    divide(%113, %p143) /* ty=Tensor[(512, 50, 64), float16] */
  } /* ty=fn (Tensor[(50, 32, 3072), float16], float16) -> Tensor[(512, 50, 64), float16] */;
  %2126 = fn (%p0620: Tensor[(50, 32, 3072), float16] /* ty=Tensor[(50, 32, 3072), float16] */, Primitive=1) -> Tensor[(512, 50, 64), float16] {
    %2124 = strided_slice(%p0620, begin=[1024i64], end=[2048i64], strides=[1i64], axes=[2i64]) /* ty=Tensor[(50, 32, 1024), float16] */;
    %2125 = reshape(%2124, newshape=[50, 512, 64]) /* ty=Tensor[(50, 512, 64), float16] */;
    transpose(%2125, axes=[1, 0, 2]) /* ty=Tensor[(512, 50, 64), float16] */
  } /* ty=fn (Tensor[(50, 32, 3072), float16]) -> Tensor[(512, 50, 64), float16] */;
  %2127 = %2123(%2122, 8f16 /* ty=float16 span=/encoder/layers/encoder_layer_21/self_attention/Constant_14:0:0 */) /* ty=Tensor[(512, 50, 64), float16] */;
  %2128 = %2126(%2122) /* ty=Tensor[(512, 50, 64), float16] */;
  %2129 = fn (%p062: Tensor[(512, 50, 64), float16] /* ty=Tensor[(512, 50, 64), float16] */, %p142: Tensor[(512, 50, 64), float16] /* ty=Tensor[(512, 50, 64), float16] */, Primitive=1) -> Tensor[(512, 50, 50), float16] {
    nn.batch_matmul(%p062, %p142, out_dtype="float16", transpose_b=True) /* ty=Tensor[(512, 50, 50), float16] */
  } /* ty=fn (Tensor[(512, 50, 64), float16], Tensor[(512, 50, 64), float16]) -> Tensor[(512, 50, 50), float16] */;
  %2130 = %2129(%2127, %2128) /* ty=Tensor[(512, 50, 50), float16] */;
  %2131 = fn (%p061: Tensor[(512, 50, 50), float16] /* ty=Tensor[(512, 50, 50), float16] */, Primitive=1) -> Tensor[(512, 50, 50), float32] {
    %110 = reshape(%p061, newshape=[512, 50, 50]) /* ty=Tensor[(512, 50, 50), float16] */;
    cast(%110, dtype="float32") /* ty=Tensor[(512, 50, 50), float32] */
  } /* ty=fn (Tensor[(512, 50, 50), float16]) -> Tensor[(512, 50, 50), float32] */;
  %2132 = %2131(%2130) /* ty=Tensor[(512, 50, 50), float32] */;
  %2133 = fn (%p060: Tensor[(512, 50, 50), float32] /* ty=Tensor[(512, 50, 50), float32] */, Primitive=1) -> Tensor[(512, 50, 50), float16] {
    %109 = nn.softmax(%p060, axis=2) /* ty=Tensor[(512, 50, 50), float32] */;
    cast(%109, dtype="float16") /* ty=Tensor[(512, 50, 50), float16] */
  } /* ty=fn (Tensor[(512, 50, 50), float32]) -> Tensor[(512, 50, 50), float16] */;
  %2136 = fn (%p0621: Tensor[(50, 32, 3072), float16] /* ty=Tensor[(50, 32, 3072), float16] */, Primitive=1) -> Tensor[(512, 64, 50), float16] {
    %2134 = strided_slice(%p0621, begin=[2048i64], end=[3072i64], strides=[1i64], axes=[2i64]) /* ty=Tensor[(50, 32, 1024), float16] */;
    %2135 = reshape(%2134, newshape=[50, 512, 64]) /* ty=Tensor[(50, 512, 64), float16] */;
    transpose(%2135, axes=[1, 2, 0]) /* ty=Tensor[(512, 64, 50), float16] */
  } /* ty=fn (Tensor[(50, 32, 3072), float16]) -> Tensor[(512, 64, 50), float16] */;
  %2137 = %2133(%2132) /* ty=Tensor[(512, 50, 50), float16] */;
  %2138 = %2136(%2122) /* ty=Tensor[(512, 64, 50), float16] */;
  %2139 = fn (%p059: Tensor[(512, 50, 50), float16] /* ty=Tensor[(512, 50, 50), float16] */, %p141: Tensor[(512, 64, 50), float16] /* ty=Tensor[(512, 64, 50), float16] */, Primitive=1) -> Tensor[(512, 50, 64), float16] {
    nn.batch_matmul(%p059, %p141, out_dtype="float16", transpose_b=True) /* ty=Tensor[(512, 50, 64), float16] */
  } /* ty=fn (Tensor[(512, 50, 50), float16], Tensor[(512, 64, 50), float16]) -> Tensor[(512, 50, 64), float16] */;
  %2140 = %2139(%2137, %2138) /* ty=Tensor[(512, 50, 64), float16] */;
  %2141 = fn (%p058: Tensor[(512, 50, 64), float16] /* ty=Tensor[(512, 50, 64), float16] */, Primitive=1) -> Tensor[(1600, 1024), float16] {
    %107 = reshape(%p058, newshape=[512, 50, 64]) /* ty=Tensor[(512, 50, 64), float16] */;
    %108 = transpose(%107, axes=[1, 0, 2]) /* ty=Tensor[(50, 512, 64), float16] */;
    reshape(%108, newshape=[1600, 1024]) /* ty=Tensor[(1600, 1024), float16] */
  } /* ty=fn (Tensor[(512, 50, 64), float16]) -> Tensor[(1600, 1024), float16] */;
  %2142 = %2141(%2140) /* ty=Tensor[(1600, 1024), float16] */;
  %2143 = fn (%p057: Tensor[(1600, 1024), float16] /* ty=Tensor[(1600, 1024), float16] */, %p140: Tensor[(1024, 1024), float16] /* ty=Tensor[(1024, 1024), float16] */, %p215: Tensor[(1, 1024), float16] /* ty=Tensor[(1, 1024), float16] */, Primitive=1) -> Tensor[(1600, 1024), float16] {
    %106 = nn.dense(%p057, %p140, units=1024, out_dtype="float16") /* ty=Tensor[(1600, 1024), float16] */;
    add(%106, %p215) /* ty=Tensor[(1600, 1024), float16] */
  } /* ty=fn (Tensor[(1600, 1024), float16], Tensor[(1024, 1024), float16], Tensor[(1, 1024), float16]) -> Tensor[(1600, 1024), float16] */;
  %2144 = %2143(%2142, meta[relay.Constant][260] /* ty=Tensor[(1024, 1024), float16] span=/encoder/layers/encoder_layer_21/self_attention/Gemm.encoder.layers.encoder_layer_21.self_attention.out_proj.weight:0:0 */, meta[relay.Constant][261] /* ty=Tensor[(1, 1024), float16] */) /* ty=Tensor[(1600, 1024), float16] */;
  %2145 = fn (%p056: Tensor[(1600, 1024), float16] /* ty=Tensor[(1600, 1024), float16] */, %p139: Tensor[(32, 50, 1024), float16] /* ty=Tensor[(32, 50, 1024), float16] */, Primitive=1) -> Tensor[(32, 50, 1024), float16] {
    %104 = reshape(%p056, newshape=[50, 32, 1024]) /* ty=Tensor[(50, 32, 1024), float16] */;
    %105 = transpose(%104, axes=[1, 0, 2]) /* ty=Tensor[(32, 50, 1024), float16] */;
    add(%105, %p139) /* ty=Tensor[(32, 50, 1024), float16] */
  } /* ty=fn (Tensor[(1600, 1024), float16], Tensor[(32, 50, 1024), float16]) -> Tensor[(32, 50, 1024), float16] */;
  %2146 = %2145(%2144, %2108) /* ty=Tensor[(32, 50, 1024), float16] */;
  %2147 = fn (%p055: Tensor[(32, 50, 1024), float16] /* ty=Tensor[(32, 50, 1024), float16] */, Primitive=1) -> Tensor[(32, 50, 1024), float32] {
    cast(%p055, dtype="float32") /* ty=Tensor[(32, 50, 1024), float32] */
  } /* ty=fn (Tensor[(32, 50, 1024), float16]) -> Tensor[(32, 50, 1024), float32] */;
  %2148 = %2147(%2146) /* ty=Tensor[(32, 50, 1024), float32] */;
  %2149 = fn (%p0622: Tensor[(32, 50, 1024), float32] /* ty=Tensor[(32, 50, 1024), float32] */, Primitive=1) -> Tensor[(32, 50, 1), float32] {
    mean(%p0622, axis=[-1], keepdims=True) /* ty=Tensor[(32, 50, 1), float32] */
  } /* ty=fn (Tensor[(32, 50, 1024), float32]) -> Tensor[(32, 50, 1), float32] */;
  %2150 = %2149(%2148) /* ty=Tensor[(32, 50, 1), float32] */;
  %2151 = fn (%p054: Tensor[(32, 50, 1024), float32] /* ty=Tensor[(32, 50, 1024), float32] */, %p138: Tensor[(32, 50, 1), float32] /* ty=Tensor[(32, 50, 1), float32] */, Primitive=1) -> Tensor[(32, 50, 1024), float32] {
    subtract(%p054, %p138) /* ty=Tensor[(32, 50, 1024), float32] */
  } /* ty=fn (Tensor[(32, 50, 1024), float32], Tensor[(32, 50, 1), float32]) -> Tensor[(32, 50, 1024), float32] */;
  %2152 = %2151(%2148, %2150) /* ty=Tensor[(32, 50, 1024), float32] */;
  %2153 = fn (%p053: Tensor[(32, 50, 1024), float32] /* ty=Tensor[(32, 50, 1024), float32] */, Primitive=1) -> Tensor[(32, 50, 1), float32] {
    %103 = power(%p053, 2f /* ty=float32 */) /* ty=Tensor[(32, 50, 1024), float32] */;
    mean(%103, axis=[-1], keepdims=True) /* ty=Tensor[(32, 50, 1), float32] */
  } /* ty=fn (Tensor[(32, 50, 1024), float32]) -> Tensor[(32, 50, 1), float32] */;
  %2154 = %2153(%2152) /* ty=Tensor[(32, 50, 1), float32] */;
  %2155 = fn (%p052: Tensor[(32, 50, 1), float32] /* ty=Tensor[(32, 50, 1), float32] */, %p137: Tensor[(32, 50, 1024), float32] /* ty=Tensor[(32, 50, 1024), float32] */, %p214: Tensor[(1024), float32] /* ty=Tensor[(1024), float32] */, %p35: Tensor[(1024), float32] /* ty=Tensor[(1024), float32] */, Primitive=1) -> Tensor[(1600, 1024), float16] {
    %97 = add(%p052, 1.01328e-06f /* ty=float32 */) /* ty=Tensor[(32, 50, 1), float32] */;
    %98 = rsqrt(%97) /* ty=Tensor[(32, 50, 1), float32] */;
    %99 = multiply(%p137, %98) /* ty=Tensor[(32, 50, 1024), float32] */;
    %100 = multiply(%99, %p214) /* ty=Tensor[(32, 50, 1024), float32] */;
    %101 = add(%100, %p35) /* ty=Tensor[(32, 50, 1024), float32] */;
    %102 = reshape(%101, newshape=[-1, 1024]) /* ty=Tensor[(1600, 1024), float32] */;
    cast(%102, dtype="float16") /* ty=Tensor[(1600, 1024), float16] */
  } /* ty=fn (Tensor[(32, 50, 1), float32], Tensor[(32, 50, 1024), float32], Tensor[(1024), float32], Tensor[(1024), float32]) -> Tensor[(1600, 1024), float16] */;
  %2156 = %2155(%2154, %2152, meta[relay.Constant][262] /* ty=Tensor[(1024), float32] */, meta[relay.Constant][263] /* ty=Tensor[(1024), float32] */) /* ty=Tensor[(1600, 1024), float16] */;
  %2157 = fn (%p051: Tensor[(1600, 1024), float16] /* ty=Tensor[(1600, 1024), float16] */, %p136: Tensor[(4096, 1024), float16] /* ty=Tensor[(4096, 1024), float16] */, Primitive=1) -> Tensor[(1600, 4096), float16] {
    nn.dense(%p051, %p136, units=None, out_dtype="float16") /* ty=Tensor[(1600, 4096), float16] */
  } /* ty=fn (Tensor[(1600, 1024), float16], Tensor[(4096, 1024), float16]) -> Tensor[(1600, 4096), float16] */;
  %2158 = %2157(%2156, meta[relay.Constant][264] /* ty=Tensor[(4096, 1024), float16] span=/encoder/layers/encoder_layer_21/mlp/mlp.0/MatMul:0:0 */) /* ty=Tensor[(1600, 4096), float16] */;
  %2159 = fn (%p050: Tensor[(1600, 4096), float16] /* ty=Tensor[(1600, 4096), float16] */, %p135: Tensor[(4096), float16] /* ty=Tensor[(4096), float16] */, %p213: float16 /* ty=float16 */, Primitive=1) -> Tensor[(1600, 4096), float16] {
    %87 = reshape(%p050, newshape=[32, 50, 4096]) /* ty=Tensor[(32, 50, 4096), float16] */;
    %88 = add(%p135, %87) /* ty=Tensor[(32, 50, 4096), float16] */;
    %89 = divide(%88, %p213) /* ty=Tensor[(32, 50, 4096), float16] */;
    %90 = cast(%89, dtype="float32") /* ty=Tensor[(32, 50, 4096), float32] */;
    %91 = erf(%90) /* ty=Tensor[(32, 50, 4096), float32] */;
    %92 = cast(%88, dtype="float32") /* ty=Tensor[(32, 50, 4096), float32] */;
    %93 = add(%91, 1f /* ty=float32 */) /* ty=Tensor[(32, 50, 4096), float32] */;
    %94 = multiply(%92, %93) /* ty=Tensor[(32, 50, 4096), float32] */;
    %95 = multiply(%94, 0.5f /* ty=float32 */) /* ty=Tensor[(32, 50, 4096), float32] */;
    %96 = reshape(%95, newshape=[-1, 4096]) /* ty=Tensor[(1600, 4096), float32] */;
    cast(%96, dtype="float16") /* ty=Tensor[(1600, 4096), float16] */
  } /* ty=fn (Tensor[(1600, 4096), float16], Tensor[(4096), float16], float16) -> Tensor[(1600, 4096), float16] */;
  %2160 = %2159(%2158, meta[relay.Constant][265] /* ty=Tensor[(4096), float16] span=/encoder/layers/encoder_layer_21/mlp/mlp.0/Add.encoder.layers.encoder_layer_21.mlp.0.bias:0:0 */, 1.41406f16 /* ty=float16 span=/encoder/layers/encoder_layer_21/mlp/mlp.1/Constant:0:0 */) /* ty=Tensor[(1600, 4096), float16] */;
  %2161 = fn (%p049: Tensor[(1600, 4096), float16] /* ty=Tensor[(1600, 4096), float16] */, %p134: Tensor[(1024, 4096), float16] /* ty=Tensor[(1024, 4096), float16] */, Primitive=1) -> Tensor[(1600, 1024), float16] {
    nn.dense(%p049, %p134, units=None, out_dtype="float16") /* ty=Tensor[(1600, 1024), float16] */
  } /* ty=fn (Tensor[(1600, 4096), float16], Tensor[(1024, 4096), float16]) -> Tensor[(1600, 1024), float16] */;
  %2162 = %2161(%2160, meta[relay.Constant][266] /* ty=Tensor[(1024, 4096), float16] span=/encoder/layers/encoder_layer_21/mlp/mlp.3/MatMul:0:0 */) /* ty=Tensor[(1600, 1024), float16] */;
  %2163 = fn (%p048: Tensor[(1600, 1024), float16] /* ty=Tensor[(1600, 1024), float16] */, %p133: Tensor[(1024), float16] /* ty=Tensor[(1024), float16] */, %p212: Tensor[(32, 50, 1024), float16] /* ty=Tensor[(32, 50, 1024), float16] */, Primitive=1) -> Tensor[(32, 50, 1024), float16] {
    %85 = reshape(%p048, newshape=[32, 50, 1024]) /* ty=Tensor[(32, 50, 1024), float16] */;
    %86 = add(%p133, %85) /* ty=Tensor[(32, 50, 1024), float16] */;
    add(%p212, %86) /* ty=Tensor[(32, 50, 1024), float16] */
  } /* ty=fn (Tensor[(1600, 1024), float16], Tensor[(1024), float16], Tensor[(32, 50, 1024), float16]) -> Tensor[(32, 50, 1024), float16] */;
  %2164 = %2163(%2162, meta[relay.Constant][267] /* ty=Tensor[(1024), float16] span=/encoder/layers/encoder_layer_21/mlp/mlp.3/Add.encoder.layers.encoder_layer_21.mlp.3.bias:0:0 */, %2146) /* ty=Tensor[(32, 50, 1024), float16] */;
  %2165 = fn (%p047: Tensor[(32, 50, 1024), float16] /* ty=Tensor[(32, 50, 1024), float16] */, Primitive=1) -> Tensor[(32, 50, 1024), float32] {
    cast(%p047, dtype="float32") /* ty=Tensor[(32, 50, 1024), float32] */
  } /* ty=fn (Tensor[(32, 50, 1024), float16]) -> Tensor[(32, 50, 1024), float32] */;
  %2166 = %2165(%2164) /* ty=Tensor[(32, 50, 1024), float32] */;
  %2167 = fn (%p0623: Tensor[(32, 50, 1024), float32] /* ty=Tensor[(32, 50, 1024), float32] */, Primitive=1) -> Tensor[(32, 50, 1), float32] {
    mean(%p0623, axis=[-1], keepdims=True) /* ty=Tensor[(32, 50, 1), float32] */
  } /* ty=fn (Tensor[(32, 50, 1024), float32]) -> Tensor[(32, 50, 1), float32] */;
  %2168 = %2167(%2166) /* ty=Tensor[(32, 50, 1), float32] */;
  %2169 = fn (%p046: Tensor[(32, 50, 1024), float32] /* ty=Tensor[(32, 50, 1024), float32] */, %p132: Tensor[(32, 50, 1), float32] /* ty=Tensor[(32, 50, 1), float32] */, Primitive=1) -> Tensor[(32, 50, 1024), float32] {
    subtract(%p046, %p132) /* ty=Tensor[(32, 50, 1024), float32] */
  } /* ty=fn (Tensor[(32, 50, 1024), float32], Tensor[(32, 50, 1), float32]) -> Tensor[(32, 50, 1024), float32] */;
  %2170 = %2169(%2166, %2168) /* ty=Tensor[(32, 50, 1024), float32] */;
  %2171 = fn (%p045: Tensor[(32, 50, 1024), float32] /* ty=Tensor[(32, 50, 1024), float32] */, Primitive=1) -> Tensor[(32, 50, 1), float32] {
    %84 = power(%p045, 2f /* ty=float32 */) /* ty=Tensor[(32, 50, 1024), float32] */;
    mean(%84, axis=[-1], keepdims=True) /* ty=Tensor[(32, 50, 1), float32] */
  } /* ty=fn (Tensor[(32, 50, 1024), float32]) -> Tensor[(32, 50, 1), float32] */;
  %2172 = %2171(%2170) /* ty=Tensor[(32, 50, 1), float32] */;
  %2173 = fn (%p044: Tensor[(32, 50, 1), float32] /* ty=Tensor[(32, 50, 1), float32] */, %p131: Tensor[(32, 50, 1024), float32] /* ty=Tensor[(32, 50, 1024), float32] */, %p211: Tensor[(1024), float32] /* ty=Tensor[(1024), float32] */, %p34: Tensor[(1024), float32] /* ty=Tensor[(1024), float32] */, Primitive=1) -> Tensor[(1600, 1024), float16] {
    %77 = add(%p044, 1.01328e-06f /* ty=float32 */) /* ty=Tensor[(32, 50, 1), float32] */;
    %78 = rsqrt(%77) /* ty=Tensor[(32, 50, 1), float32] */;
    %79 = multiply(%p131, %78) /* ty=Tensor[(32, 50, 1024), float32] */;
    %80 = multiply(%79, %p211) /* ty=Tensor[(32, 50, 1024), float32] */;
    %81 = add(%80, %p34) /* ty=Tensor[(32, 50, 1024), float32] */;
    %82 = transpose(%81, axes=[1, 0, 2]) /* ty=Tensor[(50, 32, 1024), float32] */;
    %83 = reshape(%82, newshape=[-1, 1024]) /* ty=Tensor[(1600, 1024), float32] */;
    cast(%83, dtype="float16") /* ty=Tensor[(1600, 1024), float16] */
  } /* ty=fn (Tensor[(32, 50, 1), float32], Tensor[(32, 50, 1024), float32], Tensor[(1024), float32], Tensor[(1024), float32]) -> Tensor[(1600, 1024), float16] */;
  %2174 = %2173(%2172, %2170, meta[relay.Constant][268] /* ty=Tensor[(1024), float32] */, meta[relay.Constant][269] /* ty=Tensor[(1024), float32] */) /* ty=Tensor[(1600, 1024), float16] */;
  %2175 = fn (%p043: Tensor[(1600, 1024), float16] /* ty=Tensor[(1600, 1024), float16] */, %p130: Tensor[(3072, 1024), float16] /* ty=Tensor[(3072, 1024), float16] */, Primitive=1) -> Tensor[(1600, 3072), float16] {
    nn.dense(%p043, %p130, units=None, out_dtype="float16") /* ty=Tensor[(1600, 3072), float16] */
  } /* ty=fn (Tensor[(1600, 1024), float16], Tensor[(3072, 1024), float16]) -> Tensor[(1600, 3072), float16] */;
  %2176 = %2175(%2174, meta[relay.Constant][270] /* ty=Tensor[(3072, 1024), float16] span=/encoder/layers/encoder_layer_22/self_attention/MatMul:0:0 */) /* ty=Tensor[(1600, 3072), float16] */;
  %2177 = fn (%p042: Tensor[(1600, 3072), float16] /* ty=Tensor[(1600, 3072), float16] */, %p129: Tensor[(3072), float16] /* ty=Tensor[(3072), float16] */, Primitive=1) -> Tensor[(50, 32, 3072), float16] {
    %76 = reshape(%p042, newshape=[50, 32, 3072]) /* ty=Tensor[(50, 32, 3072), float16] */;
    add(%p129, %76) /* ty=Tensor[(50, 32, 3072), float16] */
  } /* ty=fn (Tensor[(1600, 3072), float16], Tensor[(3072), float16]) -> Tensor[(50, 32, 3072), float16] */;
  %2178 = %2177(%2176, meta[relay.Constant][271] /* ty=Tensor[(3072), float16] span=Identity_11:0:0 */) /* ty=Tensor[(50, 32, 3072), float16] */;
  %2179 = fn (%p041: Tensor[(50, 32, 3072), float16] /* ty=Tensor[(50, 32, 3072), float16] */, %p128: float16 /* ty=float16 */, Primitive=1) -> Tensor[(512, 50, 64), float16] {
    %73 = strided_slice(%p041, begin=[0i64], end=[1024i64], strides=[1i64], axes=[2i64]) /* ty=Tensor[(50, 32, 1024), float16] */;
    %74 = reshape(%73, newshape=[50, 512, 64]) /* ty=Tensor[(50, 512, 64), float16] */;
    %75 = transpose(%74, axes=[1, 0, 2]) /* ty=Tensor[(512, 50, 64), float16] */;
    divide(%75, %p128) /* ty=Tensor[(512, 50, 64), float16] */
  } /* ty=fn (Tensor[(50, 32, 3072), float16], float16) -> Tensor[(512, 50, 64), float16] */;
  %2182 = fn (%p0624: Tensor[(50, 32, 3072), float16] /* ty=Tensor[(50, 32, 3072), float16] */, Primitive=1) -> Tensor[(512, 50, 64), float16] {
    %2180 = strided_slice(%p0624, begin=[1024i64], end=[2048i64], strides=[1i64], axes=[2i64]) /* ty=Tensor[(50, 32, 1024), float16] */;
    %2181 = reshape(%2180, newshape=[50, 512, 64]) /* ty=Tensor[(50, 512, 64), float16] */;
    transpose(%2181, axes=[1, 0, 2]) /* ty=Tensor[(512, 50, 64), float16] */
  } /* ty=fn (Tensor[(50, 32, 3072), float16]) -> Tensor[(512, 50, 64), float16] */;
  %2183 = %2179(%2178, 8f16 /* ty=float16 span=/encoder/layers/encoder_layer_22/self_attention/Constant_14:0:0 */) /* ty=Tensor[(512, 50, 64), float16] */;
  %2184 = %2182(%2178) /* ty=Tensor[(512, 50, 64), float16] */;
  %2185 = fn (%p040: Tensor[(512, 50, 64), float16] /* ty=Tensor[(512, 50, 64), float16] */, %p127: Tensor[(512, 50, 64), float16] /* ty=Tensor[(512, 50, 64), float16] */, Primitive=1) -> Tensor[(512, 50, 50), float16] {
    nn.batch_matmul(%p040, %p127, out_dtype="float16", transpose_b=True) /* ty=Tensor[(512, 50, 50), float16] */
  } /* ty=fn (Tensor[(512, 50, 64), float16], Tensor[(512, 50, 64), float16]) -> Tensor[(512, 50, 50), float16] */;
  %2186 = %2185(%2183, %2184) /* ty=Tensor[(512, 50, 50), float16] */;
  %2187 = fn (%p039: Tensor[(512, 50, 50), float16] /* ty=Tensor[(512, 50, 50), float16] */, Primitive=1) -> Tensor[(512, 50, 50), float32] {
    %72 = reshape(%p039, newshape=[512, 50, 50]) /* ty=Tensor[(512, 50, 50), float16] */;
    cast(%72, dtype="float32") /* ty=Tensor[(512, 50, 50), float32] */
  } /* ty=fn (Tensor[(512, 50, 50), float16]) -> Tensor[(512, 50, 50), float32] */;
  %2188 = %2187(%2186) /* ty=Tensor[(512, 50, 50), float32] */;
  %2189 = fn (%p038: Tensor[(512, 50, 50), float32] /* ty=Tensor[(512, 50, 50), float32] */, Primitive=1) -> Tensor[(512, 50, 50), float16] {
    %71 = nn.softmax(%p038, axis=2) /* ty=Tensor[(512, 50, 50), float32] */;
    cast(%71, dtype="float16") /* ty=Tensor[(512, 50, 50), float16] */
  } /* ty=fn (Tensor[(512, 50, 50), float32]) -> Tensor[(512, 50, 50), float16] */;
  %2192 = fn (%p0625: Tensor[(50, 32, 3072), float16] /* ty=Tensor[(50, 32, 3072), float16] */, Primitive=1) -> Tensor[(512, 64, 50), float16] {
    %2190 = strided_slice(%p0625, begin=[2048i64], end=[3072i64], strides=[1i64], axes=[2i64]) /* ty=Tensor[(50, 32, 1024), float16] */;
    %2191 = reshape(%2190, newshape=[50, 512, 64]) /* ty=Tensor[(50, 512, 64), float16] */;
    transpose(%2191, axes=[1, 2, 0]) /* ty=Tensor[(512, 64, 50), float16] */
  } /* ty=fn (Tensor[(50, 32, 3072), float16]) -> Tensor[(512, 64, 50), float16] */;
  %2193 = %2189(%2188) /* ty=Tensor[(512, 50, 50), float16] */;
  %2194 = %2192(%2178) /* ty=Tensor[(512, 64, 50), float16] */;
  %2195 = fn (%p037: Tensor[(512, 50, 50), float16] /* ty=Tensor[(512, 50, 50), float16] */, %p126: Tensor[(512, 64, 50), float16] /* ty=Tensor[(512, 64, 50), float16] */, Primitive=1) -> Tensor[(512, 50, 64), float16] {
    nn.batch_matmul(%p037, %p126, out_dtype="float16", transpose_b=True) /* ty=Tensor[(512, 50, 64), float16] */
  } /* ty=fn (Tensor[(512, 50, 50), float16], Tensor[(512, 64, 50), float16]) -> Tensor[(512, 50, 64), float16] */;
  %2196 = %2195(%2193, %2194) /* ty=Tensor[(512, 50, 64), float16] */;
  %2197 = fn (%p036: Tensor[(512, 50, 64), float16] /* ty=Tensor[(512, 50, 64), float16] */, Primitive=1) -> Tensor[(1600, 1024), float16] {
    %69 = reshape(%p036, newshape=[512, 50, 64]) /* ty=Tensor[(512, 50, 64), float16] */;
    %70 = transpose(%69, axes=[1, 0, 2]) /* ty=Tensor[(50, 512, 64), float16] */;
    reshape(%70, newshape=[1600, 1024]) /* ty=Tensor[(1600, 1024), float16] */
  } /* ty=fn (Tensor[(512, 50, 64), float16]) -> Tensor[(1600, 1024), float16] */;
  %2198 = %2197(%2196) /* ty=Tensor[(1600, 1024), float16] */;
  %2199 = fn (%p035: Tensor[(1600, 1024), float16] /* ty=Tensor[(1600, 1024), float16] */, %p125: Tensor[(1024, 1024), float16] /* ty=Tensor[(1024, 1024), float16] */, %p210: Tensor[(1, 1024), float16] /* ty=Tensor[(1, 1024), float16] */, Primitive=1) -> Tensor[(1600, 1024), float16] {
    %68 = nn.dense(%p035, %p125, units=1024, out_dtype="float16") /* ty=Tensor[(1600, 1024), float16] */;
    add(%68, %p210) /* ty=Tensor[(1600, 1024), float16] */
  } /* ty=fn (Tensor[(1600, 1024), float16], Tensor[(1024, 1024), float16], Tensor[(1, 1024), float16]) -> Tensor[(1600, 1024), float16] */;
  %2200 = %2199(%2198, meta[relay.Constant][272] /* ty=Tensor[(1024, 1024), float16] span=/encoder/layers/encoder_layer_22/self_attention/Gemm.encoder.layers.encoder_layer_22.self_attention.out_proj.weight:0:0 */, meta[relay.Constant][273] /* ty=Tensor[(1, 1024), float16] */) /* ty=Tensor[(1600, 1024), float16] */;
  %2201 = fn (%p034: Tensor[(1600, 1024), float16] /* ty=Tensor[(1600, 1024), float16] */, %p124: Tensor[(32, 50, 1024), float16] /* ty=Tensor[(32, 50, 1024), float16] */, Primitive=1) -> Tensor[(32, 50, 1024), float16] {
    %66 = reshape(%p034, newshape=[50, 32, 1024]) /* ty=Tensor[(50, 32, 1024), float16] */;
    %67 = transpose(%66, axes=[1, 0, 2]) /* ty=Tensor[(32, 50, 1024), float16] */;
    add(%67, %p124) /* ty=Tensor[(32, 50, 1024), float16] */
  } /* ty=fn (Tensor[(1600, 1024), float16], Tensor[(32, 50, 1024), float16]) -> Tensor[(32, 50, 1024), float16] */;
  %2202 = %2201(%2200, %2164) /* ty=Tensor[(32, 50, 1024), float16] */;
  %2203 = fn (%p033: Tensor[(32, 50, 1024), float16] /* ty=Tensor[(32, 50, 1024), float16] */, Primitive=1) -> Tensor[(32, 50, 1024), float32] {
    cast(%p033, dtype="float32") /* ty=Tensor[(32, 50, 1024), float32] */
  } /* ty=fn (Tensor[(32, 50, 1024), float16]) -> Tensor[(32, 50, 1024), float32] */;
  %2204 = %2203(%2202) /* ty=Tensor[(32, 50, 1024), float32] */;
  %2205 = fn (%p0626: Tensor[(32, 50, 1024), float32] /* ty=Tensor[(32, 50, 1024), float32] */, Primitive=1) -> Tensor[(32, 50, 1), float32] {
    mean(%p0626, axis=[-1], keepdims=True) /* ty=Tensor[(32, 50, 1), float32] */
  } /* ty=fn (Tensor[(32, 50, 1024), float32]) -> Tensor[(32, 50, 1), float32] */;
  %2206 = %2205(%2204) /* ty=Tensor[(32, 50, 1), float32] */;
  %2207 = fn (%p032: Tensor[(32, 50, 1024), float32] /* ty=Tensor[(32, 50, 1024), float32] */, %p123: Tensor[(32, 50, 1), float32] /* ty=Tensor[(32, 50, 1), float32] */, Primitive=1) -> Tensor[(32, 50, 1024), float32] {
    subtract(%p032, %p123) /* ty=Tensor[(32, 50, 1024), float32] */
  } /* ty=fn (Tensor[(32, 50, 1024), float32], Tensor[(32, 50, 1), float32]) -> Tensor[(32, 50, 1024), float32] */;
  %2208 = %2207(%2204, %2206) /* ty=Tensor[(32, 50, 1024), float32] */;
  %2209 = fn (%p031: Tensor[(32, 50, 1024), float32] /* ty=Tensor[(32, 50, 1024), float32] */, Primitive=1) -> Tensor[(32, 50, 1), float32] {
    %65 = power(%p031, 2f /* ty=float32 */) /* ty=Tensor[(32, 50, 1024), float32] */;
    mean(%65, axis=[-1], keepdims=True) /* ty=Tensor[(32, 50, 1), float32] */
  } /* ty=fn (Tensor[(32, 50, 1024), float32]) -> Tensor[(32, 50, 1), float32] */;
  %2210 = %2209(%2208) /* ty=Tensor[(32, 50, 1), float32] */;
  %2211 = fn (%p030: Tensor[(32, 50, 1), float32] /* ty=Tensor[(32, 50, 1), float32] */, %p122: Tensor[(32, 50, 1024), float32] /* ty=Tensor[(32, 50, 1024), float32] */, %p29: Tensor[(1024), float32] /* ty=Tensor[(1024), float32] */, %p33: Tensor[(1024), float32] /* ty=Tensor[(1024), float32] */, Primitive=1) -> Tensor[(1600, 1024), float16] {
    %59 = add(%p030, 1.01328e-06f /* ty=float32 */) /* ty=Tensor[(32, 50, 1), float32] */;
    %60 = rsqrt(%59) /* ty=Tensor[(32, 50, 1), float32] */;
    %61 = multiply(%p122, %60) /* ty=Tensor[(32, 50, 1024), float32] */;
    %62 = multiply(%61, %p29) /* ty=Tensor[(32, 50, 1024), float32] */;
    %63 = add(%62, %p33) /* ty=Tensor[(32, 50, 1024), float32] */;
    %64 = reshape(%63, newshape=[-1, 1024]) /* ty=Tensor[(1600, 1024), float32] */;
    cast(%64, dtype="float16") /* ty=Tensor[(1600, 1024), float16] */
  } /* ty=fn (Tensor[(32, 50, 1), float32], Tensor[(32, 50, 1024), float32], Tensor[(1024), float32], Tensor[(1024), float32]) -> Tensor[(1600, 1024), float16] */;
  %2212 = %2211(%2210, %2208, meta[relay.Constant][274] /* ty=Tensor[(1024), float32] */, meta[relay.Constant][275] /* ty=Tensor[(1024), float32] */) /* ty=Tensor[(1600, 1024), float16] */;
  %2213 = fn (%p029: Tensor[(1600, 1024), float16] /* ty=Tensor[(1600, 1024), float16] */, %p121: Tensor[(4096, 1024), float16] /* ty=Tensor[(4096, 1024), float16] */, Primitive=1) -> Tensor[(1600, 4096), float16] {
    nn.dense(%p029, %p121, units=None, out_dtype="float16") /* ty=Tensor[(1600, 4096), float16] */
  } /* ty=fn (Tensor[(1600, 1024), float16], Tensor[(4096, 1024), float16]) -> Tensor[(1600, 4096), float16] */;
  %2214 = %2213(%2212, meta[relay.Constant][276] /* ty=Tensor[(4096, 1024), float16] span=/encoder/layers/encoder_layer_22/mlp/mlp.0/MatMul:0:0 */) /* ty=Tensor[(1600, 4096), float16] */;
  %2215 = fn (%p028: Tensor[(1600, 4096), float16] /* ty=Tensor[(1600, 4096), float16] */, %p120: Tensor[(4096), float16] /* ty=Tensor[(4096), float16] */, %p28: float16 /* ty=float16 */, Primitive=1) -> Tensor[(1600, 4096), float16] {
    %49 = reshape(%p028, newshape=[32, 50, 4096]) /* ty=Tensor[(32, 50, 4096), float16] */;
    %50 = add(%p120, %49) /* ty=Tensor[(32, 50, 4096), float16] */;
    %51 = divide(%50, %p28) /* ty=Tensor[(32, 50, 4096), float16] */;
    %52 = cast(%51, dtype="float32") /* ty=Tensor[(32, 50, 4096), float32] */;
    %53 = erf(%52) /* ty=Tensor[(32, 50, 4096), float32] */;
    %54 = cast(%50, dtype="float32") /* ty=Tensor[(32, 50, 4096), float32] */;
    %55 = add(%53, 1f /* ty=float32 */) /* ty=Tensor[(32, 50, 4096), float32] */;
    %56 = multiply(%54, %55) /* ty=Tensor[(32, 50, 4096), float32] */;
    %57 = multiply(%56, 0.5f /* ty=float32 */) /* ty=Tensor[(32, 50, 4096), float32] */;
    %58 = reshape(%57, newshape=[-1, 4096]) /* ty=Tensor[(1600, 4096), float32] */;
    cast(%58, dtype="float16") /* ty=Tensor[(1600, 4096), float16] */
  } /* ty=fn (Tensor[(1600, 4096), float16], Tensor[(4096), float16], float16) -> Tensor[(1600, 4096), float16] */;
  %2216 = %2215(%2214, meta[relay.Constant][277] /* ty=Tensor[(4096), float16] span=/encoder/layers/encoder_layer_22/mlp/mlp.0/Add.encoder.layers.encoder_layer_22.mlp.0.bias:0:0 */, 1.41406f16 /* ty=float16 span=/encoder/layers/encoder_layer_22/mlp/mlp.1/Constant:0:0 */) /* ty=Tensor[(1600, 4096), float16] */;
  %2217 = fn (%p027: Tensor[(1600, 4096), float16] /* ty=Tensor[(1600, 4096), float16] */, %p119: Tensor[(1024, 4096), float16] /* ty=Tensor[(1024, 4096), float16] */, Primitive=1) -> Tensor[(1600, 1024), float16] {
    nn.dense(%p027, %p119, units=None, out_dtype="float16") /* ty=Tensor[(1600, 1024), float16] */
  } /* ty=fn (Tensor[(1600, 4096), float16], Tensor[(1024, 4096), float16]) -> Tensor[(1600, 1024), float16] */;
  %2218 = %2217(%2216, meta[relay.Constant][278] /* ty=Tensor[(1024, 4096), float16] span=/encoder/layers/encoder_layer_22/mlp/mlp.3/MatMul:0:0 */) /* ty=Tensor[(1600, 1024), float16] */;
  %2219 = fn (%p026: Tensor[(1600, 1024), float16] /* ty=Tensor[(1600, 1024), float16] */, %p118: Tensor[(1024), float16] /* ty=Tensor[(1024), float16] */, %p27: Tensor[(32, 50, 1024), float16] /* ty=Tensor[(32, 50, 1024), float16] */, Primitive=1) -> Tensor[(32, 50, 1024), float16] {
    %47 = reshape(%p026, newshape=[32, 50, 1024]) /* ty=Tensor[(32, 50, 1024), float16] */;
    %48 = add(%p118, %47) /* ty=Tensor[(32, 50, 1024), float16] */;
    add(%p27, %48) /* ty=Tensor[(32, 50, 1024), float16] */
  } /* ty=fn (Tensor[(1600, 1024), float16], Tensor[(1024), float16], Tensor[(32, 50, 1024), float16]) -> Tensor[(32, 50, 1024), float16] */;
  %2220 = %2219(%2218, meta[relay.Constant][279] /* ty=Tensor[(1024), float16] span=/encoder/layers/encoder_layer_22/mlp/mlp.3/Add.encoder.layers.encoder_layer_22.mlp.3.bias:0:0 */, %2202) /* ty=Tensor[(32, 50, 1024), float16] */;
  %2221 = fn (%p025: Tensor[(32, 50, 1024), float16] /* ty=Tensor[(32, 50, 1024), float16] */, Primitive=1) -> Tensor[(32, 50, 1024), float32] {
    cast(%p025, dtype="float32") /* ty=Tensor[(32, 50, 1024), float32] */
  } /* ty=fn (Tensor[(32, 50, 1024), float16]) -> Tensor[(32, 50, 1024), float32] */;
  %2222 = %2221(%2220) /* ty=Tensor[(32, 50, 1024), float32] */;
  %2223 = fn (%p0627: Tensor[(32, 50, 1024), float32] /* ty=Tensor[(32, 50, 1024), float32] */, Primitive=1) -> Tensor[(32, 50, 1), float32] {
    mean(%p0627, axis=[-1], keepdims=True) /* ty=Tensor[(32, 50, 1), float32] */
  } /* ty=fn (Tensor[(32, 50, 1024), float32]) -> Tensor[(32, 50, 1), float32] */;
  %2224 = %2223(%2222) /* ty=Tensor[(32, 50, 1), float32] */;
  %2225 = fn (%p024: Tensor[(32, 50, 1024), float32] /* ty=Tensor[(32, 50, 1024), float32] */, %p117: Tensor[(32, 50, 1), float32] /* ty=Tensor[(32, 50, 1), float32] */, Primitive=1) -> Tensor[(32, 50, 1024), float32] {
    subtract(%p024, %p117) /* ty=Tensor[(32, 50, 1024), float32] */
  } /* ty=fn (Tensor[(32, 50, 1024), float32], Tensor[(32, 50, 1), float32]) -> Tensor[(32, 50, 1024), float32] */;
  %2226 = %2225(%2222, %2224) /* ty=Tensor[(32, 50, 1024), float32] */;
  %2227 = fn (%p023: Tensor[(32, 50, 1024), float32] /* ty=Tensor[(32, 50, 1024), float32] */, Primitive=1) -> Tensor[(32, 50, 1), float32] {
    %46 = power(%p023, 2f /* ty=float32 */) /* ty=Tensor[(32, 50, 1024), float32] */;
    mean(%46, axis=[-1], keepdims=True) /* ty=Tensor[(32, 50, 1), float32] */
  } /* ty=fn (Tensor[(32, 50, 1024), float32]) -> Tensor[(32, 50, 1), float32] */;
  %2228 = %2227(%2226) /* ty=Tensor[(32, 50, 1), float32] */;
  %2229 = fn (%p022: Tensor[(32, 50, 1), float32] /* ty=Tensor[(32, 50, 1), float32] */, %p116: Tensor[(32, 50, 1024), float32] /* ty=Tensor[(32, 50, 1024), float32] */, %p26: Tensor[(1024), float32] /* ty=Tensor[(1024), float32] */, %p32: Tensor[(1024), float32] /* ty=Tensor[(1024), float32] */, Primitive=1) -> Tensor[(1600, 1024), float16] {
    %39 = add(%p022, 1.01328e-06f /* ty=float32 */) /* ty=Tensor[(32, 50, 1), float32] */;
    %40 = rsqrt(%39) /* ty=Tensor[(32, 50, 1), float32] */;
    %41 = multiply(%p116, %40) /* ty=Tensor[(32, 50, 1024), float32] */;
    %42 = multiply(%41, %p26) /* ty=Tensor[(32, 50, 1024), float32] */;
    %43 = add(%42, %p32) /* ty=Tensor[(32, 50, 1024), float32] */;
    %44 = transpose(%43, axes=[1, 0, 2]) /* ty=Tensor[(50, 32, 1024), float32] */;
    %45 = reshape(%44, newshape=[-1, 1024]) /* ty=Tensor[(1600, 1024), float32] */;
    cast(%45, dtype="float16") /* ty=Tensor[(1600, 1024), float16] */
  } /* ty=fn (Tensor[(32, 50, 1), float32], Tensor[(32, 50, 1024), float32], Tensor[(1024), float32], Tensor[(1024), float32]) -> Tensor[(1600, 1024), float16] */;
  %2230 = %2229(%2228, %2226, meta[relay.Constant][280] /* ty=Tensor[(1024), float32] */, meta[relay.Constant][281] /* ty=Tensor[(1024), float32] */) /* ty=Tensor[(1600, 1024), float16] */;
  %2231 = fn (%p021: Tensor[(1600, 1024), float16] /* ty=Tensor[(1600, 1024), float16] */, %p115: Tensor[(3072, 1024), float16] /* ty=Tensor[(3072, 1024), float16] */, Primitive=1) -> Tensor[(1600, 3072), float16] {
    nn.dense(%p021, %p115, units=None, out_dtype="float16") /* ty=Tensor[(1600, 3072), float16] */
  } /* ty=fn (Tensor[(1600, 1024), float16], Tensor[(3072, 1024), float16]) -> Tensor[(1600, 3072), float16] */;
  %2232 = %2231(%2230, meta[relay.Constant][282] /* ty=Tensor[(3072, 1024), float16] span=/encoder/layers/encoder_layer_23/self_attention/MatMul:0:0 */) /* ty=Tensor[(1600, 3072), float16] */;
  %2233 = fn (%p020: Tensor[(1600, 3072), float16] /* ty=Tensor[(1600, 3072), float16] */, %p114: Tensor[(3072), float16] /* ty=Tensor[(3072), float16] */, Primitive=1) -> Tensor[(50, 32, 3072), float16] {
    %38 = reshape(%p020, newshape=[50, 32, 3072]) /* ty=Tensor[(50, 32, 3072), float16] */;
    add(%p114, %38) /* ty=Tensor[(50, 32, 3072), float16] */
  } /* ty=fn (Tensor[(1600, 3072), float16], Tensor[(3072), float16]) -> Tensor[(50, 32, 3072), float16] */;
  %2234 = %2233(%2232, meta[relay.Constant][283] /* ty=Tensor[(3072), float16] span=Identity_5:0:0 */) /* ty=Tensor[(50, 32, 3072), float16] */;
  %2235 = fn (%p019: Tensor[(50, 32, 3072), float16] /* ty=Tensor[(50, 32, 3072), float16] */, %p113: float16 /* ty=float16 */, Primitive=1) -> Tensor[(512, 50, 64), float16] {
    %35 = strided_slice(%p019, begin=[0i64], end=[1024i64], strides=[1i64], axes=[2i64]) /* ty=Tensor[(50, 32, 1024), float16] */;
    %36 = reshape(%35, newshape=[50, 512, 64]) /* ty=Tensor[(50, 512, 64), float16] */;
    %37 = transpose(%36, axes=[1, 0, 2]) /* ty=Tensor[(512, 50, 64), float16] */;
    divide(%37, %p113) /* ty=Tensor[(512, 50, 64), float16] */
  } /* ty=fn (Tensor[(50, 32, 3072), float16], float16) -> Tensor[(512, 50, 64), float16] */;
  %2238 = fn (%p0628: Tensor[(50, 32, 3072), float16] /* ty=Tensor[(50, 32, 3072), float16] */, Primitive=1) -> Tensor[(512, 50, 64), float16] {
    %2236 = strided_slice(%p0628, begin=[1024i64], end=[2048i64], strides=[1i64], axes=[2i64]) /* ty=Tensor[(50, 32, 1024), float16] */;
    %2237 = reshape(%2236, newshape=[50, 512, 64]) /* ty=Tensor[(50, 512, 64), float16] */;
    transpose(%2237, axes=[1, 0, 2]) /* ty=Tensor[(512, 50, 64), float16] */
  } /* ty=fn (Tensor[(50, 32, 3072), float16]) -> Tensor[(512, 50, 64), float16] */;
  %2239 = %2235(%2234, 8f16 /* ty=float16 span=/encoder/layers/encoder_layer_23/self_attention/Constant_14:0:0 */) /* ty=Tensor[(512, 50, 64), float16] */;
  %2240 = %2238(%2234) /* ty=Tensor[(512, 50, 64), float16] */;
  %2241 = fn (%p018: Tensor[(512, 50, 64), float16] /* ty=Tensor[(512, 50, 64), float16] */, %p112: Tensor[(512, 50, 64), float16] /* ty=Tensor[(512, 50, 64), float16] */, Primitive=1) -> Tensor[(512, 50, 50), float16] {
    nn.batch_matmul(%p018, %p112, out_dtype="float16", transpose_b=True) /* ty=Tensor[(512, 50, 50), float16] */
  } /* ty=fn (Tensor[(512, 50, 64), float16], Tensor[(512, 50, 64), float16]) -> Tensor[(512, 50, 50), float16] */;
  %2242 = %2241(%2239, %2240) /* ty=Tensor[(512, 50, 50), float16] */;
  %2243 = fn (%p017: Tensor[(512, 50, 50), float16] /* ty=Tensor[(512, 50, 50), float16] */, Primitive=1) -> Tensor[(512, 50, 50), float32] {
    %34 = reshape(%p017, newshape=[512, 50, 50]) /* ty=Tensor[(512, 50, 50), float16] */;
    cast(%34, dtype="float32") /* ty=Tensor[(512, 50, 50), float32] */
  } /* ty=fn (Tensor[(512, 50, 50), float16]) -> Tensor[(512, 50, 50), float32] */;
  %2244 = %2243(%2242) /* ty=Tensor[(512, 50, 50), float32] */;
  %2245 = fn (%p016: Tensor[(512, 50, 50), float32] /* ty=Tensor[(512, 50, 50), float32] */, Primitive=1) -> Tensor[(512, 50, 50), float16] {
    %33 = nn.softmax(%p016, axis=2) /* ty=Tensor[(512, 50, 50), float32] */;
    cast(%33, dtype="float16") /* ty=Tensor[(512, 50, 50), float16] */
  } /* ty=fn (Tensor[(512, 50, 50), float32]) -> Tensor[(512, 50, 50), float16] */;
  %2248 = fn (%p0629: Tensor[(50, 32, 3072), float16] /* ty=Tensor[(50, 32, 3072), float16] */, Primitive=1) -> Tensor[(512, 64, 50), float16] {
    %2246 = strided_slice(%p0629, begin=[2048i64], end=[3072i64], strides=[1i64], axes=[2i64]) /* ty=Tensor[(50, 32, 1024), float16] */;
    %2247 = reshape(%2246, newshape=[50, 512, 64]) /* ty=Tensor[(50, 512, 64), float16] */;
    transpose(%2247, axes=[1, 2, 0]) /* ty=Tensor[(512, 64, 50), float16] */
  } /* ty=fn (Tensor[(50, 32, 3072), float16]) -> Tensor[(512, 64, 50), float16] */;
  %2249 = %2245(%2244) /* ty=Tensor[(512, 50, 50), float16] */;
  %2250 = %2248(%2234) /* ty=Tensor[(512, 64, 50), float16] */;
  %2251 = fn (%p015: Tensor[(512, 50, 50), float16] /* ty=Tensor[(512, 50, 50), float16] */, %p111: Tensor[(512, 64, 50), float16] /* ty=Tensor[(512, 64, 50), float16] */, Primitive=1) -> Tensor[(512, 50, 64), float16] {
    nn.batch_matmul(%p015, %p111, out_dtype="float16", transpose_b=True) /* ty=Tensor[(512, 50, 64), float16] */
  } /* ty=fn (Tensor[(512, 50, 50), float16], Tensor[(512, 64, 50), float16]) -> Tensor[(512, 50, 64), float16] */;
  %2252 = %2251(%2249, %2250) /* ty=Tensor[(512, 50, 64), float16] */;
  %2253 = fn (%p014: Tensor[(512, 50, 64), float16] /* ty=Tensor[(512, 50, 64), float16] */, Primitive=1) -> Tensor[(1600, 1024), float16] {
    %31 = reshape(%p014, newshape=[512, 50, 64]) /* ty=Tensor[(512, 50, 64), float16] */;
    %32 = transpose(%31, axes=[1, 0, 2]) /* ty=Tensor[(50, 512, 64), float16] */;
    reshape(%32, newshape=[1600, 1024]) /* ty=Tensor[(1600, 1024), float16] */
  } /* ty=fn (Tensor[(512, 50, 64), float16]) -> Tensor[(1600, 1024), float16] */;
  %2254 = %2253(%2252) /* ty=Tensor[(1600, 1024), float16] */;
  %2255 = fn (%p013: Tensor[(1600, 1024), float16] /* ty=Tensor[(1600, 1024), float16] */, %p110: Tensor[(1024, 1024), float16] /* ty=Tensor[(1024, 1024), float16] */, %p25: Tensor[(1, 1024), float16] /* ty=Tensor[(1, 1024), float16] */, Primitive=1) -> Tensor[(1600, 1024), float16] {
    %30 = nn.dense(%p013, %p110, units=1024, out_dtype="float16") /* ty=Tensor[(1600, 1024), float16] */;
    add(%30, %p25) /* ty=Tensor[(1600, 1024), float16] */
  } /* ty=fn (Tensor[(1600, 1024), float16], Tensor[(1024, 1024), float16], Tensor[(1, 1024), float16]) -> Tensor[(1600, 1024), float16] */;
  %2256 = %2255(%2254, meta[relay.Constant][284] /* ty=Tensor[(1024, 1024), float16] span=/encoder/layers/encoder_layer_23/self_attention/Gemm.encoder.layers.encoder_layer_23.self_attention.out_proj.weight:0:0 */, meta[relay.Constant][285] /* ty=Tensor[(1, 1024), float16] */) /* ty=Tensor[(1600, 1024), float16] */;
  %2257 = fn (%p012: Tensor[(1600, 1024), float16] /* ty=Tensor[(1600, 1024), float16] */, %p19: Tensor[(32, 50, 1024), float16] /* ty=Tensor[(32, 50, 1024), float16] */, Primitive=1) -> Tensor[(32, 50, 1024), float16] {
    %28 = reshape(%p012, newshape=[50, 32, 1024]) /* ty=Tensor[(50, 32, 1024), float16] */;
    %29 = transpose(%28, axes=[1, 0, 2]) /* ty=Tensor[(32, 50, 1024), float16] */;
    add(%29, %p19) /* ty=Tensor[(32, 50, 1024), float16] */
  } /* ty=fn (Tensor[(1600, 1024), float16], Tensor[(32, 50, 1024), float16]) -> Tensor[(32, 50, 1024), float16] */;
  %2258 = %2257(%2256, %2220) /* ty=Tensor[(32, 50, 1024), float16] */;
  %2259 = fn (%p011: Tensor[(32, 50, 1024), float16] /* ty=Tensor[(32, 50, 1024), float16] */, Primitive=1) -> Tensor[(32, 50, 1024), float32] {
    cast(%p011, dtype="float32") /* ty=Tensor[(32, 50, 1024), float32] */
  } /* ty=fn (Tensor[(32, 50, 1024), float16]) -> Tensor[(32, 50, 1024), float32] */;
  %2260 = %2259(%2258) /* ty=Tensor[(32, 50, 1024), float32] */;
  %2261 = fn (%p0630: Tensor[(32, 50, 1024), float32] /* ty=Tensor[(32, 50, 1024), float32] */, Primitive=1) -> Tensor[(32, 50, 1), float32] {
    mean(%p0630, axis=[-1], keepdims=True) /* ty=Tensor[(32, 50, 1), float32] */
  } /* ty=fn (Tensor[(32, 50, 1024), float32]) -> Tensor[(32, 50, 1), float32] */;
  %2262 = %2261(%2260) /* ty=Tensor[(32, 50, 1), float32] */;
  %2263 = fn (%p010: Tensor[(32, 50, 1024), float32] /* ty=Tensor[(32, 50, 1024), float32] */, %p18: Tensor[(32, 50, 1), float32] /* ty=Tensor[(32, 50, 1), float32] */, Primitive=1) -> Tensor[(32, 50, 1024), float32] {
    subtract(%p010, %p18) /* ty=Tensor[(32, 50, 1024), float32] */
  } /* ty=fn (Tensor[(32, 50, 1024), float32], Tensor[(32, 50, 1), float32]) -> Tensor[(32, 50, 1024), float32] */;
  %2264 = %2263(%2260, %2262) /* ty=Tensor[(32, 50, 1024), float32] */;
  %2265 = fn (%p09: Tensor[(32, 50, 1024), float32] /* ty=Tensor[(32, 50, 1024), float32] */, Primitive=1) -> Tensor[(32, 50, 1), float32] {
    %27 = power(%p09, 2f /* ty=float32 */) /* ty=Tensor[(32, 50, 1024), float32] */;
    mean(%27, axis=[-1], keepdims=True) /* ty=Tensor[(32, 50, 1), float32] */
  } /* ty=fn (Tensor[(32, 50, 1024), float32]) -> Tensor[(32, 50, 1), float32] */;
  %2266 = %2265(%2264) /* ty=Tensor[(32, 50, 1), float32] */;
  %2267 = fn (%p08: Tensor[(32, 50, 1), float32] /* ty=Tensor[(32, 50, 1), float32] */, %p17: Tensor[(32, 50, 1024), float32] /* ty=Tensor[(32, 50, 1024), float32] */, %p24: Tensor[(1024), float32] /* ty=Tensor[(1024), float32] */, %p31: Tensor[(1024), float32] /* ty=Tensor[(1024), float32] */, Primitive=1) -> Tensor[(1600, 1024), float16] {
    %21 = add(%p08, 1.01328e-06f /* ty=float32 */) /* ty=Tensor[(32, 50, 1), float32] */;
    %22 = rsqrt(%21) /* ty=Tensor[(32, 50, 1), float32] */;
    %23 = multiply(%p17, %22) /* ty=Tensor[(32, 50, 1024), float32] */;
    %24 = multiply(%23, %p24) /* ty=Tensor[(32, 50, 1024), float32] */;
    %25 = add(%24, %p31) /* ty=Tensor[(32, 50, 1024), float32] */;
    %26 = reshape(%25, newshape=[-1, 1024]) /* ty=Tensor[(1600, 1024), float32] */;
    cast(%26, dtype="float16") /* ty=Tensor[(1600, 1024), float16] */
  } /* ty=fn (Tensor[(32, 50, 1), float32], Tensor[(32, 50, 1024), float32], Tensor[(1024), float32], Tensor[(1024), float32]) -> Tensor[(1600, 1024), float16] */;
  %2268 = %2267(%2266, %2264, meta[relay.Constant][286] /* ty=Tensor[(1024), float32] */, meta[relay.Constant][287] /* ty=Tensor[(1024), float32] */) /* ty=Tensor[(1600, 1024), float16] */;
  %2269 = fn (%p07: Tensor[(1600, 1024), float16] /* ty=Tensor[(1600, 1024), float16] */, %p16: Tensor[(4096, 1024), float16] /* ty=Tensor[(4096, 1024), float16] */, Primitive=1) -> Tensor[(1600, 4096), float16] {
    nn.dense(%p07, %p16, units=None, out_dtype="float16") /* ty=Tensor[(1600, 4096), float16] */
  } /* ty=fn (Tensor[(1600, 1024), float16], Tensor[(4096, 1024), float16]) -> Tensor[(1600, 4096), float16] */;
  %2270 = %2269(%2268, meta[relay.Constant][288] /* ty=Tensor[(4096, 1024), float16] span=/encoder/layers/encoder_layer_23/mlp/mlp.0/MatMul:0:0 */) /* ty=Tensor[(1600, 4096), float16] */;
  %2271 = fn (%p06: Tensor[(1600, 4096), float16] /* ty=Tensor[(1600, 4096), float16] */, %p15: Tensor[(4096), float16] /* ty=Tensor[(4096), float16] */, %p23: float16 /* ty=float16 */, Primitive=1) -> Tensor[(1600, 4096), float16] {
    %11 = reshape(%p06, newshape=[32, 50, 4096]) /* ty=Tensor[(32, 50, 4096), float16] */;
    %12 = add(%p15, %11) /* ty=Tensor[(32, 50, 4096), float16] */;
    %13 = divide(%12, %p23) /* ty=Tensor[(32, 50, 4096), float16] */;
    %14 = cast(%13, dtype="float32") /* ty=Tensor[(32, 50, 4096), float32] */;
    %15 = erf(%14) /* ty=Tensor[(32, 50, 4096), float32] */;
    %16 = cast(%12, dtype="float32") /* ty=Tensor[(32, 50, 4096), float32] */;
    %17 = add(%15, 1f /* ty=float32 */) /* ty=Tensor[(32, 50, 4096), float32] */;
    %18 = multiply(%16, %17) /* ty=Tensor[(32, 50, 4096), float32] */;
    %19 = multiply(%18, 0.5f /* ty=float32 */) /* ty=Tensor[(32, 50, 4096), float32] */;
    %20 = reshape(%19, newshape=[-1, 4096]) /* ty=Tensor[(1600, 4096), float32] */;
    cast(%20, dtype="float16") /* ty=Tensor[(1600, 4096), float16] */
  } /* ty=fn (Tensor[(1600, 4096), float16], Tensor[(4096), float16], float16) -> Tensor[(1600, 4096), float16] */;
  %2272 = %2271(%2270, meta[relay.Constant][289] /* ty=Tensor[(4096), float16] span=/encoder/layers/encoder_layer_23/mlp/mlp.0/Add.encoder.layers.encoder_layer_23.mlp.0.bias:0:0 */, 1.41406f16 /* ty=float16 span=/encoder/layers/encoder_layer_23/mlp/mlp.1/Constant:0:0 */) /* ty=Tensor[(1600, 4096), float16] */;
  %2273 = fn (%p05: Tensor[(1600, 4096), float16] /* ty=Tensor[(1600, 4096), float16] */, %p14: Tensor[(1024, 4096), float16] /* ty=Tensor[(1024, 4096), float16] */, Primitive=1) -> Tensor[(1600, 1024), float16] {
    nn.dense(%p05, %p14, units=None, out_dtype="float16") /* ty=Tensor[(1600, 1024), float16] */
  } /* ty=fn (Tensor[(1600, 4096), float16], Tensor[(1024, 4096), float16]) -> Tensor[(1600, 1024), float16] */;
  %2274 = %2273(%2272, meta[relay.Constant][290] /* ty=Tensor[(1024, 4096), float16] span=/encoder/layers/encoder_layer_23/mlp/mlp.3/MatMul:0:0 */) /* ty=Tensor[(1600, 1024), float16] */;
  %2275 = fn (%p04: Tensor[(1600, 1024), float16] /* ty=Tensor[(1600, 1024), float16] */, %p13: Tensor[(1024), float16] /* ty=Tensor[(1024), float16] */, %p22: Tensor[(32, 50, 1024), float16] /* ty=Tensor[(32, 50, 1024), float16] */, Primitive=1) -> Tensor[(32, 50, 1024), float32] {
    %8 = reshape(%p04, newshape=[32, 50, 1024]) /* ty=Tensor[(32, 50, 1024), float16] */;
    %9 = add(%p13, %8) /* ty=Tensor[(32, 50, 1024), float16] */;
    %10 = add(%p22, %9) /* ty=Tensor[(32, 50, 1024), float16] */;
    cast(%10, dtype="float32") /* ty=Tensor[(32, 50, 1024), float32] */
  } /* ty=fn (Tensor[(1600, 1024), float16], Tensor[(1024), float16], Tensor[(32, 50, 1024), float16]) -> Tensor[(32, 50, 1024), float32] */;
  %2276 = %2275(%2274, meta[relay.Constant][291] /* ty=Tensor[(1024), float16] span=/encoder/layers/encoder_layer_23/mlp/mlp.3/Add.encoder.layers.encoder_layer_23.mlp.3.bias:0:0 */, %2258) /* ty=Tensor[(32, 50, 1024), float32] */;
  %2277 = fn (%p0631: Tensor[(32, 50, 1024), float32] /* ty=Tensor[(32, 50, 1024), float32] */, Primitive=1) -> Tensor[(32, 50, 1), float32] {
    mean(%p0631, axis=[-1], keepdims=True) /* ty=Tensor[(32, 50, 1), float32] */
  } /* ty=fn (Tensor[(32, 50, 1024), float32]) -> Tensor[(32, 50, 1), float32] */;
  %2278 = %2277(%2276) /* ty=Tensor[(32, 50, 1), float32] */;
  %2279 = fn (%p03: Tensor[(32, 50, 1024), float32] /* ty=Tensor[(32, 50, 1024), float32] */, %p12: Tensor[(32, 50, 1), float32] /* ty=Tensor[(32, 50, 1), float32] */, Primitive=1) -> Tensor[(32, 50, 1024), float32] {
    subtract(%p03, %p12) /* ty=Tensor[(32, 50, 1024), float32] */
  } /* ty=fn (Tensor[(32, 50, 1024), float32], Tensor[(32, 50, 1), float32]) -> Tensor[(32, 50, 1024), float32] */;
  %2280 = %2279(%2276, %2278) /* ty=Tensor[(32, 50, 1024), float32] */;
  %2281 = fn (%p02: Tensor[(32, 50, 1024), float32] /* ty=Tensor[(32, 50, 1024), float32] */, Primitive=1) -> Tensor[(32, 50, 1), float32] {
    %7 = power(%p02, 2f /* ty=float32 */) /* ty=Tensor[(32, 50, 1024), float32] */;
    mean(%7, axis=[-1], keepdims=True) /* ty=Tensor[(32, 50, 1), float32] */
  } /* ty=fn (Tensor[(32, 50, 1024), float32]) -> Tensor[(32, 50, 1), float32] */;
  %2282 = %2281(%2280) /* ty=Tensor[(32, 50, 1), float32] */;
  %2283 = fn (%p01: Tensor[(32, 50, 1), float32] /* ty=Tensor[(32, 50, 1), float32] */, %p11: Tensor[(32, 50, 1024), float32] /* ty=Tensor[(32, 50, 1024), float32] */, %p21: Tensor[(1024), float32] /* ty=Tensor[(1024), float32] */, %p3: Tensor[(1024), float32] /* ty=Tensor[(1024), float32] */, Primitive=1) -> Tensor[(32, 1024), float16] {
    %1 = add(%p01, 1.01328e-06f /* ty=float32 */) /* ty=Tensor[(32, 50, 1), float32] */;
    %2 = rsqrt(%1) /* ty=Tensor[(32, 50, 1), float32] */;
    %3 = multiply(%p11, %2) /* ty=Tensor[(32, 50, 1024), float32] */;
    %4 = multiply(%3, %p21) /* ty=Tensor[(32, 50, 1024), float32] */;
    %5 = add(%4, %p3) /* ty=Tensor[(32, 50, 1024), float32] */;
    %6 = take(%5, 0i64 /* ty=int64 span=/Constant:0:0 */, axis=1) /* ty=Tensor[(32, 1024), float32] */;
    cast(%6, dtype="float16") /* ty=Tensor[(32, 1024), float16] */
  } /* ty=fn (Tensor[(32, 50, 1), float32], Tensor[(32, 50, 1024), float32], Tensor[(1024), float32], Tensor[(1024), float32]) -> Tensor[(32, 1024), float16] */;
  %2284 = %2283(%2282, %2280, meta[relay.Constant][292] /* ty=Tensor[(1024), float32] */, meta[relay.Constant][293] /* ty=Tensor[(1024), float32] */) /* ty=Tensor[(32, 1024), float16] */;
  %2285 = fn (%p0: Tensor[(32, 1024), float16] /* ty=Tensor[(32, 1024), float16] */, %p1: Tensor[(1000, 1024), float16] /* ty=Tensor[(1000, 1024), float16] */, %p2: Tensor[(1, 1000), float16] /* ty=Tensor[(1, 1000), float16] */, Primitive=1) -> Tensor[(32, 1000), float16] {
    %0 = nn.dense(%p0, %p1, units=1000, out_dtype="float16") /* ty=Tensor[(32, 1000), float16] */;
    add(%0, %p2) /* ty=Tensor[(32, 1000), float16] */
  } /* ty=fn (Tensor[(32, 1024), float16], Tensor[(1000, 1024), float16], Tensor[(1, 1000), float16]) -> Tensor[(32, 1000), float16] */;
  %2285(%2284, meta[relay.Constant][294] /* ty=Tensor[(1000, 1024), float16] span=/heads/head/Gemm.heads.head.weight:0:0 */, meta[relay.Constant][295] /* ty=Tensor[(1, 1000), float16] */) /* ty=Tensor[(32, 1000), float16] */
}


