def @main(%input0: Tensor[(32, 3, 224, 224), float16] /* ty=Tensor[(32, 3, 224, 224), float16] span=/features/features.0/features.0.0/Conv.input0:0:0 */) -> Tensor[(32, 1000), float16] {
  %881 = fn (%p0380: Tensor[(32, 3, 224, 224), float16] /* ty=Tensor[(32, 3, 224, 224), float16] */, Primitive=1) -> Tensor[(32, 224, 224, 3), float16] {
    layout_transform(%p0380, src_layout="NCHW", dst_layout="NHWC") /* ty=Tensor[(32, 224, 224, 3), float16] */
  } /* ty=fn (Tensor[(32, 3, 224, 224), float16]) -> Tensor[(32, 224, 224, 3), float16] */;
  %882 = %881(%input0) /* ty=Tensor[(32, 224, 224, 3), float16] */;
  %883 = fn (%p0379: Tensor[(32, 224, 224, 3), float16] /* ty=Tensor[(32, 224, 224, 3), float16] */, %p1266: Tensor[(128, 4, 4, 3), float16] /* ty=Tensor[(128, 4, 4, 3), float16] */, %p2153: Tensor[(1, 1, 1, 128), float16] /* ty=Tensor[(1, 1, 1, 128), float16] */, Primitive=1) -> Tensor[(32, 56, 56, 128), float16] {
    %880 = nn.conv2d(%p0379, %p1266, strides=[4, 4], padding=[0, 0, 0, 0], channels=128, kernel_size=[4, 4], data_layout="NHWC", kernel_layout="OHWI", out_dtype="float16") /* ty=Tensor[(32, 56, 56, 128), float16] */;
    add(%880, %p2153) /* ty=Tensor[(32, 56, 56, 128), float16] */
  } /* ty=fn (Tensor[(32, 224, 224, 3), float16], Tensor[(128, 4, 4, 3), float16], Tensor[(1, 1, 1, 128), float16]) -> Tensor[(32, 56, 56, 128), float16] */;
  %884 = %883(%882, meta[relay.Constant][0] /* ty=Tensor[(128, 4, 4, 3), float16] */, meta[relay.Constant][1] /* ty=Tensor[(1, 1, 1, 128), float16] */) /* ty=Tensor[(32, 56, 56, 128), float16] */;
  %885 = fn (%p0378: Tensor[(32, 56, 56, 128), float16] /* ty=Tensor[(32, 56, 56, 128), float16] */, Primitive=1) -> Tensor[(32, 56, 56, 128), float32] {
    %879 = transpose(%p0378, axes=[0, 1, 2, 3]) /* ty=Tensor[(32, 56, 56, 128), float16] */;
    cast(%879, dtype="float32") /* ty=Tensor[(32, 56, 56, 128), float32] */
  } /* ty=fn (Tensor[(32, 56, 56, 128), float16]) -> Tensor[(32, 56, 56, 128), float32] */;
  %886 = %885(%884) /* ty=Tensor[(32, 56, 56, 128), float32] */;
  %887 = fn (%p0381: Tensor[(32, 56, 56, 128), float32] /* ty=Tensor[(32, 56, 56, 128), float32] */, Primitive=1) -> Tensor[(32, 56, 56, 1), float32] {
    mean(%p0381, axis=[3], keepdims=True) /* ty=Tensor[(32, 56, 56, 1), float32] */
  } /* ty=fn (Tensor[(32, 56, 56, 128), float32]) -> Tensor[(32, 56, 56, 1), float32] */;
  %888 = %887(%886) /* ty=Tensor[(32, 56, 56, 1), float32] */;
  %889 = fn (%p0377: Tensor[(32, 56, 56, 128), float32] /* ty=Tensor[(32, 56, 56, 128), float32] */, %p1265: Tensor[(32, 56, 56, 1), float32] /* ty=Tensor[(32, 56, 56, 1), float32] */, Primitive=1) -> Tensor[(32, 56, 56, 128), float32] {
    subtract(%p0377, %p1265) /* ty=Tensor[(32, 56, 56, 128), float32] */
  } /* ty=fn (Tensor[(32, 56, 56, 128), float32], Tensor[(32, 56, 56, 1), float32]) -> Tensor[(32, 56, 56, 128), float32] */;
  %890 = %889(%886, %888) /* ty=Tensor[(32, 56, 56, 128), float32] */;
  %891 = fn (%p0376: Tensor[(32, 56, 56, 128), float32] /* ty=Tensor[(32, 56, 56, 128), float32] */, Primitive=1) -> Tensor[(32, 56, 56, 1), float32] {
    %878 = power(%p0376, 2f /* ty=float32 */) /* ty=Tensor[(32, 56, 56, 128), float32] */;
    mean(%878, axis=[3], keepdims=True) /* ty=Tensor[(32, 56, 56, 1), float32] */
  } /* ty=fn (Tensor[(32, 56, 56, 128), float32]) -> Tensor[(32, 56, 56, 1), float32] */;
  %892 = %891(%890) /* ty=Tensor[(32, 56, 56, 1), float32] */;
  %893 = fn (%p0375: Tensor[(32, 56, 56, 1), float32] /* ty=Tensor[(32, 56, 56, 1), float32] */, %p1264: Tensor[(32, 56, 56, 128), float32] /* ty=Tensor[(32, 56, 56, 128), float32] */, %p2152: Tensor[(1, 1, 1, 128), float32] /* ty=Tensor[(1, 1, 1, 128), float32] */, %p376: Tensor[(1, 1, 1, 128), float32] /* ty=Tensor[(1, 1, 1, 128), float32] */, Primitive=1) -> Tensor[(32, 128, 56, 56), float32] {
    %873 = add(%p0375, 1.01328e-06f /* ty=float32 */) /* ty=Tensor[(32, 56, 56, 1), float32] */;
    %874 = rsqrt(%873) /* ty=Tensor[(32, 56, 56, 1), float32] */;
    %875 = multiply(%p1264, %874) /* ty=Tensor[(32, 56, 56, 128), float32] */;
    %876 = multiply(%875, %p2152) /* ty=Tensor[(32, 56, 56, 128), float32] */;
    %877 = add(%876, %p376) /* ty=Tensor[(32, 56, 56, 128), float32] */;
    transpose(%877, axes=[0, 3, 1, 2]) /* ty=Tensor[(32, 128, 56, 56), float32] */
  } /* ty=fn (Tensor[(32, 56, 56, 1), float32], Tensor[(32, 56, 56, 128), float32], Tensor[(1, 1, 1, 128), float32], Tensor[(1, 1, 1, 128), float32]) -> Tensor[(32, 128, 56, 56), float32] */;
  %894 = %893(%892, %890, meta[relay.Constant][2] /* ty=Tensor[(1, 1, 1, 128), float32] */, meta[relay.Constant][3] /* ty=Tensor[(1, 1, 1, 128), float32] */) /* ty=Tensor[(32, 128, 56, 56), float32] */;
  %895 = fn (%p0374: Tensor[(32, 128, 56, 56), float32] /* ty=Tensor[(32, 128, 56, 56), float32] */, Primitive=1) -> Tensor[(32, 56, 56, 128), float16] {
    %872 = layout_transform(%p0374, src_layout="NCHW", dst_layout="NHWC") /* ty=Tensor[(32, 56, 56, 128), float32] */;
    cast(%872, dtype="float16") /* ty=Tensor[(32, 56, 56, 128), float16] */
  } /* ty=fn (Tensor[(32, 128, 56, 56), float32]) -> Tensor[(32, 56, 56, 128), float16] */;
  %896 = %895(%894) /* ty=Tensor[(32, 56, 56, 128), float16] */;
  %897 = fn (%p0373: Tensor[(32, 56, 56, 128), float16] /* ty=Tensor[(32, 56, 56, 128), float16] */, %p1263: Tensor[(128, 7, 7, 1), float16] /* ty=Tensor[(128, 7, 7, 1), float16] */, %p2151: Tensor[(1, 1, 1, 128), float16] /* ty=Tensor[(1, 1, 1, 128), float16] */, Primitive=1) -> Tensor[(32, 56, 56, 128), float16] {
    %871 = nn.conv2d(%p0373, %p1263, padding=[3, 3, 3, 3], groups=128, channels=128, kernel_size=[7, 7], data_layout="NHWC", kernel_layout="OHWI", out_dtype="float16") /* ty=Tensor[(32, 56, 56, 128), float16] */;
    add(%871, %p2151) /* ty=Tensor[(32, 56, 56, 128), float16] */
  } /* ty=fn (Tensor[(32, 56, 56, 128), float16], Tensor[(128, 7, 7, 1), float16], Tensor[(1, 1, 1, 128), float16]) -> Tensor[(32, 56, 56, 128), float16] */;
  %898 = %897(%896, meta[relay.Constant][4] /* ty=Tensor[(128, 7, 7, 1), float16] */, meta[relay.Constant][5] /* ty=Tensor[(1, 1, 1, 128), float16] */) /* ty=Tensor[(32, 56, 56, 128), float16] */;
  %899 = fn (%p0372: Tensor[(32, 56, 56, 128), float16] /* ty=Tensor[(32, 56, 56, 128), float16] */, Primitive=1) -> Tensor[(32, 56, 56, 128), float32] {
    %870 = transpose(%p0372, axes=[0, 1, 2, 3]) /* ty=Tensor[(32, 56, 56, 128), float16] */;
    cast(%870, dtype="float32") /* ty=Tensor[(32, 56, 56, 128), float32] */
  } /* ty=fn (Tensor[(32, 56, 56, 128), float16]) -> Tensor[(32, 56, 56, 128), float32] */;
  %900 = %899(%898) /* ty=Tensor[(32, 56, 56, 128), float32] */;
  %901 = fn (%p0382: Tensor[(32, 56, 56, 128), float32] /* ty=Tensor[(32, 56, 56, 128), float32] */, Primitive=1) -> Tensor[(32, 56, 56, 1), float32] {
    mean(%p0382, axis=[3], keepdims=True) /* ty=Tensor[(32, 56, 56, 1), float32] */
  } /* ty=fn (Tensor[(32, 56, 56, 128), float32]) -> Tensor[(32, 56, 56, 1), float32] */;
  %902 = %901(%900) /* ty=Tensor[(32, 56, 56, 1), float32] */;
  %903 = fn (%p0371: Tensor[(32, 56, 56, 128), float32] /* ty=Tensor[(32, 56, 56, 128), float32] */, %p1262: Tensor[(32, 56, 56, 1), float32] /* ty=Tensor[(32, 56, 56, 1), float32] */, Primitive=1) -> Tensor[(32, 56, 56, 128), float32] {
    subtract(%p0371, %p1262) /* ty=Tensor[(32, 56, 56, 128), float32] */
  } /* ty=fn (Tensor[(32, 56, 56, 128), float32], Tensor[(32, 56, 56, 1), float32]) -> Tensor[(32, 56, 56, 128), float32] */;
  %904 = %903(%900, %902) /* ty=Tensor[(32, 56, 56, 128), float32] */;
  %905 = fn (%p0370: Tensor[(32, 56, 56, 128), float32] /* ty=Tensor[(32, 56, 56, 128), float32] */, Primitive=1) -> Tensor[(32, 56, 56, 1), float32] {
    %869 = power(%p0370, 2f /* ty=float32 */) /* ty=Tensor[(32, 56, 56, 128), float32] */;
    mean(%869, axis=[3], keepdims=True) /* ty=Tensor[(32, 56, 56, 1), float32] */
  } /* ty=fn (Tensor[(32, 56, 56, 128), float32]) -> Tensor[(32, 56, 56, 1), float32] */;
  %906 = %905(%904) /* ty=Tensor[(32, 56, 56, 1), float32] */;
  %907 = fn (%p0369: Tensor[(32, 56, 56, 1), float32] /* ty=Tensor[(32, 56, 56, 1), float32] */, %p1261: Tensor[(32, 56, 56, 128), float32] /* ty=Tensor[(32, 56, 56, 128), float32] */, %p2150: Tensor[(1, 1, 1, 128), float32] /* ty=Tensor[(1, 1, 1, 128), float32] */, %p375: Tensor[(1, 1, 1, 128), float32] /* ty=Tensor[(1, 1, 1, 128), float32] */, Primitive=1) -> Tensor[(100352, 128), float16] {
    %863 = add(%p0369, 1.01328e-06f /* ty=float32 */) /* ty=Tensor[(32, 56, 56, 1), float32] */;
    %864 = rsqrt(%863) /* ty=Tensor[(32, 56, 56, 1), float32] */;
    %865 = multiply(%p1261, %864) /* ty=Tensor[(32, 56, 56, 128), float32] */;
    %866 = multiply(%865, %p2150) /* ty=Tensor[(32, 56, 56, 128), float32] */;
    %867 = add(%866, %p375) /* ty=Tensor[(32, 56, 56, 128), float32] */;
    %868 = reshape(%867, newshape=[-1, 128]) /* ty=Tensor[(100352, 128), float32] */;
    cast(%868, dtype="float16") /* ty=Tensor[(100352, 128), float16] */
  } /* ty=fn (Tensor[(32, 56, 56, 1), float32], Tensor[(32, 56, 56, 128), float32], Tensor[(1, 1, 1, 128), float32], Tensor[(1, 1, 1, 128), float32]) -> Tensor[(100352, 128), float16] */;
  %908 = %907(%906, %904, meta[relay.Constant][6] /* ty=Tensor[(1, 1, 1, 128), float32] */, meta[relay.Constant][7] /* ty=Tensor[(1, 1, 1, 128), float32] */) /* ty=Tensor[(100352, 128), float16] */;
  %909 = fn (%p0368: Tensor[(100352, 128), float16] /* ty=Tensor[(100352, 128), float16] */, %p1260: Tensor[(512, 128), float16] /* ty=Tensor[(512, 128), float16] */, Primitive=1) -> Tensor[(100352, 512), float16] {
    nn.dense(%p0368, %p1260, units=None, out_dtype="float16") /* ty=Tensor[(100352, 512), float16] */
  } /* ty=fn (Tensor[(100352, 128), float16], Tensor[(512, 128), float16]) -> Tensor[(100352, 512), float16] */;
  %910 = %909(%908, meta[relay.Constant][8] /* ty=Tensor[(512, 128), float16] span=/features/features.1/features.1.0/block/block.3/MatMul:0:0 */) /* ty=Tensor[(100352, 512), float16] */;
  %911 = fn (%p0367: Tensor[(100352, 512), float16] /* ty=Tensor[(100352, 512), float16] */, %p1259: Tensor[(512), float16] /* ty=Tensor[(512), float16] */, %p2149: float16 /* ty=float16 */, Primitive=1) -> Tensor[(100352, 512), float16] {
    %853 = reshape(%p0367, newshape=[32, 56, 56, 512]) /* ty=Tensor[(32, 56, 56, 512), float16] */;
    %854 = add(%p1259, %853) /* ty=Tensor[(32, 56, 56, 512), float16] */;
    %855 = divide(%854, %p2149) /* ty=Tensor[(32, 56, 56, 512), float16] */;
    %856 = cast(%855, dtype="float32") /* ty=Tensor[(32, 56, 56, 512), float32] */;
    %857 = erf(%856) /* ty=Tensor[(32, 56, 56, 512), float32] */;
    %858 = cast(%854, dtype="float32") /* ty=Tensor[(32, 56, 56, 512), float32] */;
    %859 = add(%857, 1f /* ty=float32 */) /* ty=Tensor[(32, 56, 56, 512), float32] */;
    %860 = multiply(%858, %859) /* ty=Tensor[(32, 56, 56, 512), float32] */;
    %861 = multiply(%860, 0.5f /* ty=float32 */) /* ty=Tensor[(32, 56, 56, 512), float32] */;
    %862 = reshape(%861, newshape=[-1, 512]) /* ty=Tensor[(100352, 512), float32] */;
    cast(%862, dtype="float16") /* ty=Tensor[(100352, 512), float16] */
  } /* ty=fn (Tensor[(100352, 512), float16], Tensor[(512), float16], float16) -> Tensor[(100352, 512), float16] */;
  %912 = %911(%910, meta[relay.Constant][9] /* ty=Tensor[(512), float16] span=Identity_18.features.1.0.block.3.bias:0:0 */, 1.41406f16 /* ty=float16 span=/features/features.1/features.1.0/block/block.4/Constant:0:0 */) /* ty=Tensor[(100352, 512), float16] */;
  %913 = fn (%p0366: Tensor[(100352, 512), float16] /* ty=Tensor[(100352, 512), float16] */, %p1258: Tensor[(128, 512), float16] /* ty=Tensor[(128, 512), float16] */, Primitive=1) -> Tensor[(100352, 128), float16] {
    nn.dense(%p0366, %p1258, units=None, out_dtype="float16") /* ty=Tensor[(100352, 128), float16] */
  } /* ty=fn (Tensor[(100352, 512), float16], Tensor[(128, 512), float16]) -> Tensor[(100352, 128), float16] */;
  %914 = %913(%912, meta[relay.Constant][10] /* ty=Tensor[(128, 512), float16] span=/features/features.1/features.1.0/block/block.5/MatMul:0:0 */) /* ty=Tensor[(100352, 128), float16] */;
  %915 = fn (%p0365: Tensor[(100352, 128), float16] /* ty=Tensor[(100352, 128), float16] */, %p1257: Tensor[(128), float16] /* ty=Tensor[(128), float16] */, %p2148: Tensor[(128, 1, 1), float16] /* ty=Tensor[(128, 1, 1), float16] */, %p374: Tensor[(32, 128, 56, 56), float32] /* ty=Tensor[(32, 128, 56, 56), float32] */, Primitive=1) -> Tensor[(32, 128, 56, 56), float32] {
    %848 = reshape(%p0365, newshape=[32, 56, 56, 128]) /* ty=Tensor[(32, 56, 56, 128), float16] */;
    %849 = add(%p1257, %848) /* ty=Tensor[(32, 56, 56, 128), float16] */;
    %850 = transpose(%849, axes=[0, 3, 1, 2]) /* ty=Tensor[(32, 128, 56, 56), float16] */;
    %851 = multiply(%p2148, %850) /* ty=Tensor[(32, 128, 56, 56), float16] */;
    %852 = cast(%851, dtype="float32") /* ty=Tensor[(32, 128, 56, 56), float32] */;
    add(%852, %p374) /* ty=Tensor[(32, 128, 56, 56), float32] */
  } /* ty=fn (Tensor[(100352, 128), float16], Tensor[(128), float16], Tensor[(128, 1, 1), float16], Tensor[(32, 128, 56, 56), float32]) -> Tensor[(32, 128, 56, 56), float32] */;
  %916 = %915(%914, meta[relay.Constant][11] /* ty=Tensor[(128), float16] span=Identity_211:0:0 */, meta[relay.Constant][12] /* ty=Tensor[(128, 1, 1), float16] span=Identity_204.features.1.0.layer_scale:0:0 */, %894) /* ty=Tensor[(32, 128, 56, 56), float32] */;
  %917 = fn (%p0364: Tensor[(32, 128, 56, 56), float32] /* ty=Tensor[(32, 128, 56, 56), float32] */, Primitive=1) -> Tensor[(32, 56, 56, 128), float16] {
    %847 = layout_transform(%p0364, src_layout="NCHW", dst_layout="NHWC") /* ty=Tensor[(32, 56, 56, 128), float32] */;
    cast(%847, dtype="float16") /* ty=Tensor[(32, 56, 56, 128), float16] */
  } /* ty=fn (Tensor[(32, 128, 56, 56), float32]) -> Tensor[(32, 56, 56, 128), float16] */;
  %918 = %917(%916) /* ty=Tensor[(32, 56, 56, 128), float16] */;
  %919 = fn (%p0363: Tensor[(32, 56, 56, 128), float16] /* ty=Tensor[(32, 56, 56, 128), float16] */, %p1256: Tensor[(128, 7, 7, 1), float16] /* ty=Tensor[(128, 7, 7, 1), float16] */, %p2147: Tensor[(1, 1, 1, 128), float16] /* ty=Tensor[(1, 1, 1, 128), float16] */, Primitive=1) -> Tensor[(32, 56, 56, 128), float16] {
    %846 = nn.conv2d(%p0363, %p1256, padding=[3, 3, 3, 3], groups=128, channels=128, kernel_size=[7, 7], data_layout="NHWC", kernel_layout="OHWI", out_dtype="float16") /* ty=Tensor[(32, 56, 56, 128), float16] */;
    add(%846, %p2147) /* ty=Tensor[(32, 56, 56, 128), float16] */
  } /* ty=fn (Tensor[(32, 56, 56, 128), float16], Tensor[(128, 7, 7, 1), float16], Tensor[(1, 1, 1, 128), float16]) -> Tensor[(32, 56, 56, 128), float16] */;
  %920 = %919(%918, meta[relay.Constant][13] /* ty=Tensor[(128, 7, 7, 1), float16] */, meta[relay.Constant][14] /* ty=Tensor[(1, 1, 1, 128), float16] */) /* ty=Tensor[(32, 56, 56, 128), float16] */;
  %921 = fn (%p0362: Tensor[(32, 56, 56, 128), float16] /* ty=Tensor[(32, 56, 56, 128), float16] */, Primitive=1) -> Tensor[(32, 56, 56, 128), float32] {
    %845 = transpose(%p0362, axes=[0, 1, 2, 3]) /* ty=Tensor[(32, 56, 56, 128), float16] */;
    cast(%845, dtype="float32") /* ty=Tensor[(32, 56, 56, 128), float32] */
  } /* ty=fn (Tensor[(32, 56, 56, 128), float16]) -> Tensor[(32, 56, 56, 128), float32] */;
  %922 = %921(%920) /* ty=Tensor[(32, 56, 56, 128), float32] */;
  %923 = fn (%p0383: Tensor[(32, 56, 56, 128), float32] /* ty=Tensor[(32, 56, 56, 128), float32] */, Primitive=1) -> Tensor[(32, 56, 56, 1), float32] {
    mean(%p0383, axis=[3], keepdims=True) /* ty=Tensor[(32, 56, 56, 1), float32] */
  } /* ty=fn (Tensor[(32, 56, 56, 128), float32]) -> Tensor[(32, 56, 56, 1), float32] */;
  %924 = %923(%922) /* ty=Tensor[(32, 56, 56, 1), float32] */;
  %925 = fn (%p0361: Tensor[(32, 56, 56, 128), float32] /* ty=Tensor[(32, 56, 56, 128), float32] */, %p1255: Tensor[(32, 56, 56, 1), float32] /* ty=Tensor[(32, 56, 56, 1), float32] */, Primitive=1) -> Tensor[(32, 56, 56, 128), float32] {
    subtract(%p0361, %p1255) /* ty=Tensor[(32, 56, 56, 128), float32] */
  } /* ty=fn (Tensor[(32, 56, 56, 128), float32], Tensor[(32, 56, 56, 1), float32]) -> Tensor[(32, 56, 56, 128), float32] */;
  %926 = %925(%922, %924) /* ty=Tensor[(32, 56, 56, 128), float32] */;
  %927 = fn (%p0360: Tensor[(32, 56, 56, 128), float32] /* ty=Tensor[(32, 56, 56, 128), float32] */, Primitive=1) -> Tensor[(32, 56, 56, 1), float32] {
    %844 = power(%p0360, 2f /* ty=float32 */) /* ty=Tensor[(32, 56, 56, 128), float32] */;
    mean(%844, axis=[3], keepdims=True) /* ty=Tensor[(32, 56, 56, 1), float32] */
  } /* ty=fn (Tensor[(32, 56, 56, 128), float32]) -> Tensor[(32, 56, 56, 1), float32] */;
  %928 = %927(%926) /* ty=Tensor[(32, 56, 56, 1), float32] */;
  %929 = fn (%p0359: Tensor[(32, 56, 56, 1), float32] /* ty=Tensor[(32, 56, 56, 1), float32] */, %p1254: Tensor[(32, 56, 56, 128), float32] /* ty=Tensor[(32, 56, 56, 128), float32] */, %p2146: Tensor[(1, 1, 1, 128), float32] /* ty=Tensor[(1, 1, 1, 128), float32] */, %p373: Tensor[(1, 1, 1, 128), float32] /* ty=Tensor[(1, 1, 1, 128), float32] */, Primitive=1) -> Tensor[(100352, 128), float16] {
    %838 = add(%p0359, 1.01328e-06f /* ty=float32 */) /* ty=Tensor[(32, 56, 56, 1), float32] */;
    %839 = rsqrt(%838) /* ty=Tensor[(32, 56, 56, 1), float32] */;
    %840 = multiply(%p1254, %839) /* ty=Tensor[(32, 56, 56, 128), float32] */;
    %841 = multiply(%840, %p2146) /* ty=Tensor[(32, 56, 56, 128), float32] */;
    %842 = add(%841, %p373) /* ty=Tensor[(32, 56, 56, 128), float32] */;
    %843 = reshape(%842, newshape=[-1, 128]) /* ty=Tensor[(100352, 128), float32] */;
    cast(%843, dtype="float16") /* ty=Tensor[(100352, 128), float16] */
  } /* ty=fn (Tensor[(32, 56, 56, 1), float32], Tensor[(32, 56, 56, 128), float32], Tensor[(1, 1, 1, 128), float32], Tensor[(1, 1, 1, 128), float32]) -> Tensor[(100352, 128), float16] */;
  %930 = %929(%928, %926, meta[relay.Constant][15] /* ty=Tensor[(1, 1, 1, 128), float32] */, meta[relay.Constant][16] /* ty=Tensor[(1, 1, 1, 128), float32] */) /* ty=Tensor[(100352, 128), float16] */;
  %931 = fn (%p0358: Tensor[(100352, 128), float16] /* ty=Tensor[(100352, 128), float16] */, %p1253: Tensor[(512, 128), float16] /* ty=Tensor[(512, 128), float16] */, Primitive=1) -> Tensor[(100352, 512), float16] {
    nn.dense(%p0358, %p1253, units=None, out_dtype="float16") /* ty=Tensor[(100352, 512), float16] */
  } /* ty=fn (Tensor[(100352, 128), float16], Tensor[(512, 128), float16]) -> Tensor[(100352, 512), float16] */;
  %932 = %931(%930, meta[relay.Constant][17] /* ty=Tensor[(512, 128), float16] span=/features/features.1/features.1.1/block/block.3/MatMul:0:0 */) /* ty=Tensor[(100352, 512), float16] */;
  %933 = fn (%p0357: Tensor[(100352, 512), float16] /* ty=Tensor[(100352, 512), float16] */, %p1252: Tensor[(512), float16] /* ty=Tensor[(512), float16] */, %p2145: float16 /* ty=float16 */, Primitive=1) -> Tensor[(100352, 512), float16] {
    %828 = reshape(%p0357, newshape=[32, 56, 56, 512]) /* ty=Tensor[(32, 56, 56, 512), float16] */;
    %829 = add(%p1252, %828) /* ty=Tensor[(32, 56, 56, 512), float16] */;
    %830 = divide(%829, %p2145) /* ty=Tensor[(32, 56, 56, 512), float16] */;
    %831 = cast(%830, dtype="float32") /* ty=Tensor[(32, 56, 56, 512), float32] */;
    %832 = erf(%831) /* ty=Tensor[(32, 56, 56, 512), float32] */;
    %833 = cast(%829, dtype="float32") /* ty=Tensor[(32, 56, 56, 512), float32] */;
    %834 = add(%832, 1f /* ty=float32 */) /* ty=Tensor[(32, 56, 56, 512), float32] */;
    %835 = multiply(%833, %834) /* ty=Tensor[(32, 56, 56, 512), float32] */;
    %836 = multiply(%835, 0.5f /* ty=float32 */) /* ty=Tensor[(32, 56, 56, 512), float32] */;
    %837 = reshape(%836, newshape=[-1, 512]) /* ty=Tensor[(100352, 512), float32] */;
    cast(%837, dtype="float16") /* ty=Tensor[(100352, 512), float16] */
  } /* ty=fn (Tensor[(100352, 512), float16], Tensor[(512), float16], float16) -> Tensor[(100352, 512), float16] */;
  %934 = %933(%932, meta[relay.Constant][18] /* ty=Tensor[(512), float16] span=Identity_206:0:0 */, 1.41406f16 /* ty=float16 span=/features/features.1/features.1.1/block/block.4/Constant:0:0 */) /* ty=Tensor[(100352, 512), float16] */;
  %935 = fn (%p0356: Tensor[(100352, 512), float16] /* ty=Tensor[(100352, 512), float16] */, %p1251: Tensor[(128, 512), float16] /* ty=Tensor[(128, 512), float16] */, Primitive=1) -> Tensor[(100352, 128), float16] {
    nn.dense(%p0356, %p1251, units=None, out_dtype="float16") /* ty=Tensor[(100352, 128), float16] */
  } /* ty=fn (Tensor[(100352, 512), float16], Tensor[(128, 512), float16]) -> Tensor[(100352, 128), float16] */;
  %936 = %935(%934, meta[relay.Constant][19] /* ty=Tensor[(128, 512), float16] span=/features/features.1/features.1.1/block/block.5/MatMul:0:0 */) /* ty=Tensor[(100352, 128), float16] */;
  %937 = fn (%p0355: Tensor[(100352, 128), float16] /* ty=Tensor[(100352, 128), float16] */, %p1250: Tensor[(128), float16] /* ty=Tensor[(128), float16] */, %p2144: Tensor[(128, 1, 1), float16] /* ty=Tensor[(128, 1, 1), float16] */, %p372: Tensor[(32, 128, 56, 56), float32] /* ty=Tensor[(32, 128, 56, 56), float32] */, Primitive=1) -> Tensor[(32, 128, 56, 56), float32] {
    %823 = reshape(%p0355, newshape=[32, 56, 56, 128]) /* ty=Tensor[(32, 56, 56, 128), float16] */;
    %824 = add(%p1250, %823) /* ty=Tensor[(32, 56, 56, 128), float16] */;
    %825 = transpose(%824, axes=[0, 3, 1, 2]) /* ty=Tensor[(32, 128, 56, 56), float16] */;
    %826 = multiply(%p2144, %825) /* ty=Tensor[(32, 128, 56, 56), float16] */;
    %827 = cast(%826, dtype="float32") /* ty=Tensor[(32, 128, 56, 56), float32] */;
    add(%827, %p372) /* ty=Tensor[(32, 128, 56, 56), float32] */
  } /* ty=fn (Tensor[(100352, 128), float16], Tensor[(128), float16], Tensor[(128, 1, 1), float16], Tensor[(32, 128, 56, 56), float32]) -> Tensor[(32, 128, 56, 56), float32] */;
  %938 = %937(%936, meta[relay.Constant][20] /* ty=Tensor[(128), float16] span=Identity_205:0:0 */, meta[relay.Constant][21] /* ty=Tensor[(128, 1, 1), float16] span=Identity_210:0:0 */, %916) /* ty=Tensor[(32, 128, 56, 56), float32] */;
  %939 = fn (%p0354: Tensor[(32, 128, 56, 56), float32] /* ty=Tensor[(32, 128, 56, 56), float32] */, Primitive=1) -> Tensor[(32, 56, 56, 128), float16] {
    %822 = layout_transform(%p0354, src_layout="NCHW", dst_layout="NHWC") /* ty=Tensor[(32, 56, 56, 128), float32] */;
    cast(%822, dtype="float16") /* ty=Tensor[(32, 56, 56, 128), float16] */
  } /* ty=fn (Tensor[(32, 128, 56, 56), float32]) -> Tensor[(32, 56, 56, 128), float16] */;
  %940 = %939(%938) /* ty=Tensor[(32, 56, 56, 128), float16] */;
  %941 = fn (%p0353: Tensor[(32, 56, 56, 128), float16] /* ty=Tensor[(32, 56, 56, 128), float16] */, %p1249: Tensor[(128, 7, 7, 1), float16] /* ty=Tensor[(128, 7, 7, 1), float16] */, %p2143: Tensor[(1, 1, 1, 128), float16] /* ty=Tensor[(1, 1, 1, 128), float16] */, Primitive=1) -> Tensor[(32, 56, 56, 128), float16] {
    %821 = nn.conv2d(%p0353, %p1249, padding=[3, 3, 3, 3], groups=128, channels=128, kernel_size=[7, 7], data_layout="NHWC", kernel_layout="OHWI", out_dtype="float16") /* ty=Tensor[(32, 56, 56, 128), float16] */;
    add(%821, %p2143) /* ty=Tensor[(32, 56, 56, 128), float16] */
  } /* ty=fn (Tensor[(32, 56, 56, 128), float16], Tensor[(128, 7, 7, 1), float16], Tensor[(1, 1, 1, 128), float16]) -> Tensor[(32, 56, 56, 128), float16] */;
  %942 = %941(%940, meta[relay.Constant][22] /* ty=Tensor[(128, 7, 7, 1), float16] */, meta[relay.Constant][23] /* ty=Tensor[(1, 1, 1, 128), float16] */) /* ty=Tensor[(32, 56, 56, 128), float16] */;
  %943 = fn (%p0352: Tensor[(32, 56, 56, 128), float16] /* ty=Tensor[(32, 56, 56, 128), float16] */, Primitive=1) -> Tensor[(32, 56, 56, 128), float32] {
    %820 = transpose(%p0352, axes=[0, 1, 2, 3]) /* ty=Tensor[(32, 56, 56, 128), float16] */;
    cast(%820, dtype="float32") /* ty=Tensor[(32, 56, 56, 128), float32] */
  } /* ty=fn (Tensor[(32, 56, 56, 128), float16]) -> Tensor[(32, 56, 56, 128), float32] */;
  %944 = %943(%942) /* ty=Tensor[(32, 56, 56, 128), float32] */;
  %945 = fn (%p0384: Tensor[(32, 56, 56, 128), float32] /* ty=Tensor[(32, 56, 56, 128), float32] */, Primitive=1) -> Tensor[(32, 56, 56, 1), float32] {
    mean(%p0384, axis=[3], keepdims=True) /* ty=Tensor[(32, 56, 56, 1), float32] */
  } /* ty=fn (Tensor[(32, 56, 56, 128), float32]) -> Tensor[(32, 56, 56, 1), float32] */;
  %946 = %945(%944) /* ty=Tensor[(32, 56, 56, 1), float32] */;
  %947 = fn (%p0351: Tensor[(32, 56, 56, 128), float32] /* ty=Tensor[(32, 56, 56, 128), float32] */, %p1248: Tensor[(32, 56, 56, 1), float32] /* ty=Tensor[(32, 56, 56, 1), float32] */, Primitive=1) -> Tensor[(32, 56, 56, 128), float32] {
    subtract(%p0351, %p1248) /* ty=Tensor[(32, 56, 56, 128), float32] */
  } /* ty=fn (Tensor[(32, 56, 56, 128), float32], Tensor[(32, 56, 56, 1), float32]) -> Tensor[(32, 56, 56, 128), float32] */;
  %948 = %947(%944, %946) /* ty=Tensor[(32, 56, 56, 128), float32] */;
  %949 = fn (%p0350: Tensor[(32, 56, 56, 128), float32] /* ty=Tensor[(32, 56, 56, 128), float32] */, Primitive=1) -> Tensor[(32, 56, 56, 1), float32] {
    %819 = power(%p0350, 2f /* ty=float32 */) /* ty=Tensor[(32, 56, 56, 128), float32] */;
    mean(%819, axis=[3], keepdims=True) /* ty=Tensor[(32, 56, 56, 1), float32] */
  } /* ty=fn (Tensor[(32, 56, 56, 128), float32]) -> Tensor[(32, 56, 56, 1), float32] */;
  %950 = %949(%948) /* ty=Tensor[(32, 56, 56, 1), float32] */;
  %951 = fn (%p0349: Tensor[(32, 56, 56, 1), float32] /* ty=Tensor[(32, 56, 56, 1), float32] */, %p1247: Tensor[(32, 56, 56, 128), float32] /* ty=Tensor[(32, 56, 56, 128), float32] */, %p2142: Tensor[(1, 1, 1, 128), float32] /* ty=Tensor[(1, 1, 1, 128), float32] */, %p371: Tensor[(1, 1, 1, 128), float32] /* ty=Tensor[(1, 1, 1, 128), float32] */, Primitive=1) -> Tensor[(100352, 128), float16] {
    %813 = add(%p0349, 1.01328e-06f /* ty=float32 */) /* ty=Tensor[(32, 56, 56, 1), float32] */;
    %814 = rsqrt(%813) /* ty=Tensor[(32, 56, 56, 1), float32] */;
    %815 = multiply(%p1247, %814) /* ty=Tensor[(32, 56, 56, 128), float32] */;
    %816 = multiply(%815, %p2142) /* ty=Tensor[(32, 56, 56, 128), float32] */;
    %817 = add(%816, %p371) /* ty=Tensor[(32, 56, 56, 128), float32] */;
    %818 = reshape(%817, newshape=[-1, 128]) /* ty=Tensor[(100352, 128), float32] */;
    cast(%818, dtype="float16") /* ty=Tensor[(100352, 128), float16] */
  } /* ty=fn (Tensor[(32, 56, 56, 1), float32], Tensor[(32, 56, 56, 128), float32], Tensor[(1, 1, 1, 128), float32], Tensor[(1, 1, 1, 128), float32]) -> Tensor[(100352, 128), float16] */;
  %952 = %951(%950, %948, meta[relay.Constant][24] /* ty=Tensor[(1, 1, 1, 128), float32] */, meta[relay.Constant][25] /* ty=Tensor[(1, 1, 1, 128), float32] */) /* ty=Tensor[(100352, 128), float16] */;
  %953 = fn (%p0348: Tensor[(100352, 128), float16] /* ty=Tensor[(100352, 128), float16] */, %p1246: Tensor[(512, 128), float16] /* ty=Tensor[(512, 128), float16] */, Primitive=1) -> Tensor[(100352, 512), float16] {
    nn.dense(%p0348, %p1246, units=None, out_dtype="float16") /* ty=Tensor[(100352, 512), float16] */
  } /* ty=fn (Tensor[(100352, 128), float16], Tensor[(512, 128), float16]) -> Tensor[(100352, 512), float16] */;
  %954 = %953(%952, meta[relay.Constant][26] /* ty=Tensor[(512, 128), float16] span=/features/features.1/features.1.2/block/block.3/MatMul:0:0 */) /* ty=Tensor[(100352, 512), float16] */;
  %955 = fn (%p0347: Tensor[(100352, 512), float16] /* ty=Tensor[(100352, 512), float16] */, %p1245: Tensor[(512), float16] /* ty=Tensor[(512), float16] */, %p2141: float16 /* ty=float16 */, Primitive=1) -> Tensor[(100352, 512), float16] {
    %803 = reshape(%p0347, newshape=[32, 56, 56, 512]) /* ty=Tensor[(32, 56, 56, 512), float16] */;
    %804 = add(%p1245, %803) /* ty=Tensor[(32, 56, 56, 512), float16] */;
    %805 = divide(%804, %p2141) /* ty=Tensor[(32, 56, 56, 512), float16] */;
    %806 = cast(%805, dtype="float32") /* ty=Tensor[(32, 56, 56, 512), float32] */;
    %807 = erf(%806) /* ty=Tensor[(32, 56, 56, 512), float32] */;
    %808 = cast(%804, dtype="float32") /* ty=Tensor[(32, 56, 56, 512), float32] */;
    %809 = add(%807, 1f /* ty=float32 */) /* ty=Tensor[(32, 56, 56, 512), float32] */;
    %810 = multiply(%808, %809) /* ty=Tensor[(32, 56, 56, 512), float32] */;
    %811 = multiply(%810, 0.5f /* ty=float32 */) /* ty=Tensor[(32, 56, 56, 512), float32] */;
    %812 = reshape(%811, newshape=[-1, 512]) /* ty=Tensor[(100352, 512), float32] */;
    cast(%812, dtype="float16") /* ty=Tensor[(100352, 512), float16] */
  } /* ty=fn (Tensor[(100352, 512), float16], Tensor[(512), float16], float16) -> Tensor[(100352, 512), float16] */;
  %956 = %955(%954, meta[relay.Constant][27] /* ty=Tensor[(512), float16] span=Identity_200:0:0 */, 1.41406f16 /* ty=float16 span=/features/features.1/features.1.2/block/block.4/Constant:0:0 */) /* ty=Tensor[(100352, 512), float16] */;
  %957 = fn (%p0346: Tensor[(100352, 512), float16] /* ty=Tensor[(100352, 512), float16] */, %p1244: Tensor[(128, 512), float16] /* ty=Tensor[(128, 512), float16] */, Primitive=1) -> Tensor[(100352, 128), float16] {
    nn.dense(%p0346, %p1244, units=None, out_dtype="float16") /* ty=Tensor[(100352, 128), float16] */
  } /* ty=fn (Tensor[(100352, 512), float16], Tensor[(128, 512), float16]) -> Tensor[(100352, 128), float16] */;
  %958 = %957(%956, meta[relay.Constant][28] /* ty=Tensor[(128, 512), float16] span=/features/features.1/features.1.2/block/block.5/MatMul:0:0 */) /* ty=Tensor[(100352, 128), float16] */;
  %959 = fn (%p0345: Tensor[(100352, 128), float16] /* ty=Tensor[(100352, 128), float16] */, %p1243: Tensor[(128), float16] /* ty=Tensor[(128), float16] */, %p2140: Tensor[(128, 1, 1), float16] /* ty=Tensor[(128, 1, 1), float16] */, %p370: Tensor[(32, 128, 56, 56), float32] /* ty=Tensor[(32, 128, 56, 56), float32] */, Primitive=1) -> Tensor[(32, 56, 56, 128), float32] {
    %797 = reshape(%p0345, newshape=[32, 56, 56, 128]) /* ty=Tensor[(32, 56, 56, 128), float16] */;
    %798 = add(%p1243, %797) /* ty=Tensor[(32, 56, 56, 128), float16] */;
    %799 = transpose(%798, axes=[0, 3, 1, 2]) /* ty=Tensor[(32, 128, 56, 56), float16] */;
    %800 = multiply(%p2140, %799) /* ty=Tensor[(32, 128, 56, 56), float16] */;
    %801 = cast(%800, dtype="float32") /* ty=Tensor[(32, 128, 56, 56), float32] */;
    %802 = add(%801, %p370) /* ty=Tensor[(32, 128, 56, 56), float32] */;
    transpose(%802, axes=[0, 2, 3, 1]) /* ty=Tensor[(32, 56, 56, 128), float32] */
  } /* ty=fn (Tensor[(100352, 128), float16], Tensor[(128), float16], Tensor[(128, 1, 1), float16], Tensor[(32, 128, 56, 56), float32]) -> Tensor[(32, 56, 56, 128), float32] */;
  %960 = %959(%958, meta[relay.Constant][29] /* ty=Tensor[(128), float16] span=Identity_199:0:0 */, meta[relay.Constant][30] /* ty=Tensor[(128, 1, 1), float16] span=Identity_204:0:0 */, %938) /* ty=Tensor[(32, 56, 56, 128), float32] */;
  %961 = fn (%p0385: Tensor[(32, 56, 56, 128), float32] /* ty=Tensor[(32, 56, 56, 128), float32] */, Primitive=1) -> Tensor[(32, 56, 56, 1), float32] {
    mean(%p0385, axis=[3], keepdims=True) /* ty=Tensor[(32, 56, 56, 1), float32] */
  } /* ty=fn (Tensor[(32, 56, 56, 128), float32]) -> Tensor[(32, 56, 56, 1), float32] */;
  %962 = %961(%960) /* ty=Tensor[(32, 56, 56, 1), float32] */;
  %963 = fn (%p0344: Tensor[(32, 56, 56, 128), float32] /* ty=Tensor[(32, 56, 56, 128), float32] */, %p1242: Tensor[(32, 56, 56, 1), float32] /* ty=Tensor[(32, 56, 56, 1), float32] */, Primitive=1) -> Tensor[(32, 56, 56, 128), float32] {
    subtract(%p0344, %p1242) /* ty=Tensor[(32, 56, 56, 128), float32] */
  } /* ty=fn (Tensor[(32, 56, 56, 128), float32], Tensor[(32, 56, 56, 1), float32]) -> Tensor[(32, 56, 56, 128), float32] */;
  %964 = %963(%960, %962) /* ty=Tensor[(32, 56, 56, 128), float32] */;
  %965 = fn (%p0343: Tensor[(32, 56, 56, 128), float32] /* ty=Tensor[(32, 56, 56, 128), float32] */, Primitive=1) -> Tensor[(32, 56, 56, 1), float32] {
    %796 = power(%p0343, 2f /* ty=float32 */) /* ty=Tensor[(32, 56, 56, 128), float32] */;
    mean(%796, axis=[3], keepdims=True) /* ty=Tensor[(32, 56, 56, 1), float32] */
  } /* ty=fn (Tensor[(32, 56, 56, 128), float32]) -> Tensor[(32, 56, 56, 1), float32] */;
  %966 = %965(%964) /* ty=Tensor[(32, 56, 56, 1), float32] */;
  %967 = fn (%p0342: Tensor[(32, 56, 56, 1), float32] /* ty=Tensor[(32, 56, 56, 1), float32] */, %p1241: Tensor[(32, 56, 56, 128), float32] /* ty=Tensor[(32, 56, 56, 128), float32] */, %p2139: Tensor[(1, 1, 1, 128), float32] /* ty=Tensor[(1, 1, 1, 128), float32] */, %p369: Tensor[(1, 1, 1, 128), float32] /* ty=Tensor[(1, 1, 1, 128), float32] */, Primitive=1) -> Tensor[(32, 56, 56, 128), float16] {
    %791 = add(%p0342, 1.01328e-06f /* ty=float32 */) /* ty=Tensor[(32, 56, 56, 1), float32] */;
    %792 = rsqrt(%791) /* ty=Tensor[(32, 56, 56, 1), float32] */;
    %793 = multiply(%p1241, %792) /* ty=Tensor[(32, 56, 56, 128), float32] */;
    %794 = multiply(%793, %p2139) /* ty=Tensor[(32, 56, 56, 128), float32] */;
    %795 = add(%794, %p369) /* ty=Tensor[(32, 56, 56, 128), float32] */;
    cast(%795, dtype="float16") /* ty=Tensor[(32, 56, 56, 128), float16] */
  } /* ty=fn (Tensor[(32, 56, 56, 1), float32], Tensor[(32, 56, 56, 128), float32], Tensor[(1, 1, 1, 128), float32], Tensor[(1, 1, 1, 128), float32]) -> Tensor[(32, 56, 56, 128), float16] */;
  %968 = %967(%966, %964, meta[relay.Constant][31] /* ty=Tensor[(1, 1, 1, 128), float32] */, meta[relay.Constant][32] /* ty=Tensor[(1, 1, 1, 128), float32] */) /* ty=Tensor[(32, 56, 56, 128), float16] */;
  %969 = fn (%p0341: Tensor[(32, 56, 56, 128), float16] /* ty=Tensor[(32, 56, 56, 128), float16] */, %p1240: Tensor[(256, 2, 2, 128), float16] /* ty=Tensor[(256, 2, 2, 128), float16] */, %p2138: Tensor[(1, 1, 1, 256), float16] /* ty=Tensor[(1, 1, 1, 256), float16] */, Primitive=1) -> Tensor[(32, 28, 28, 256), float16] {
    %790 = nn.conv2d(%p0341, %p1240, strides=[2, 2], padding=[0, 0, 0, 0], channels=256, kernel_size=[2, 2], data_layout="NHWC", kernel_layout="OHWI", out_dtype="float16") /* ty=Tensor[(32, 28, 28, 256), float16] */;
    add(%790, %p2138) /* ty=Tensor[(32, 28, 28, 256), float16] */
  } /* ty=fn (Tensor[(32, 56, 56, 128), float16], Tensor[(256, 2, 2, 128), float16], Tensor[(1, 1, 1, 256), float16]) -> Tensor[(32, 28, 28, 256), float16] */;
  %970 = %969(%968, meta[relay.Constant][33] /* ty=Tensor[(256, 2, 2, 128), float16] */, meta[relay.Constant][34] /* ty=Tensor[(1, 1, 1, 256), float16] */) /* ty=Tensor[(32, 28, 28, 256), float16] */;
  %971 = fn (%p0340: Tensor[(32, 28, 28, 256), float16] /* ty=Tensor[(32, 28, 28, 256), float16] */, %p1239: Tensor[(256, 7, 7, 1), float16] /* ty=Tensor[(256, 7, 7, 1), float16] */, %p2137: Tensor[(1, 1, 1, 256), float16] /* ty=Tensor[(1, 1, 1, 256), float16] */, Primitive=1) -> Tensor[(32, 28, 28, 256), float16] {
    %789 = nn.conv2d(%p0340, %p1239, padding=[3, 3, 3, 3], groups=256, channels=256, kernel_size=[7, 7], data_layout="NHWC", kernel_layout="OHWI", out_dtype="float16") /* ty=Tensor[(32, 28, 28, 256), float16] */;
    add(%789, %p2137) /* ty=Tensor[(32, 28, 28, 256), float16] */
  } /* ty=fn (Tensor[(32, 28, 28, 256), float16], Tensor[(256, 7, 7, 1), float16], Tensor[(1, 1, 1, 256), float16]) -> Tensor[(32, 28, 28, 256), float16] */;
  %972 = %971(%970, meta[relay.Constant][35] /* ty=Tensor[(256, 7, 7, 1), float16] */, meta[relay.Constant][36] /* ty=Tensor[(1, 1, 1, 256), float16] */) /* ty=Tensor[(32, 28, 28, 256), float16] */;
  %973 = fn (%p0339: Tensor[(32, 28, 28, 256), float16] /* ty=Tensor[(32, 28, 28, 256), float16] */, Primitive=1) -> Tensor[(32, 28, 28, 256), float32] {
    %788 = transpose(%p0339, axes=[0, 1, 2, 3]) /* ty=Tensor[(32, 28, 28, 256), float16] */;
    cast(%788, dtype="float32") /* ty=Tensor[(32, 28, 28, 256), float32] */
  } /* ty=fn (Tensor[(32, 28, 28, 256), float16]) -> Tensor[(32, 28, 28, 256), float32] */;
  %974 = %973(%972) /* ty=Tensor[(32, 28, 28, 256), float32] */;
  %975 = fn (%p0386: Tensor[(32, 28, 28, 256), float32] /* ty=Tensor[(32, 28, 28, 256), float32] */, Primitive=1) -> Tensor[(32, 28, 28, 1), float32] {
    mean(%p0386, axis=[3], keepdims=True) /* ty=Tensor[(32, 28, 28, 1), float32] */
  } /* ty=fn (Tensor[(32, 28, 28, 256), float32]) -> Tensor[(32, 28, 28, 1), float32] */;
  %976 = %975(%974) /* ty=Tensor[(32, 28, 28, 1), float32] */;
  %977 = fn (%p0338: Tensor[(32, 28, 28, 256), float32] /* ty=Tensor[(32, 28, 28, 256), float32] */, %p1238: Tensor[(32, 28, 28, 1), float32] /* ty=Tensor[(32, 28, 28, 1), float32] */, Primitive=1) -> Tensor[(32, 28, 28, 256), float32] {
    subtract(%p0338, %p1238) /* ty=Tensor[(32, 28, 28, 256), float32] */
  } /* ty=fn (Tensor[(32, 28, 28, 256), float32], Tensor[(32, 28, 28, 1), float32]) -> Tensor[(32, 28, 28, 256), float32] */;
  %978 = %977(%974, %976) /* ty=Tensor[(32, 28, 28, 256), float32] */;
  %979 = fn (%p0337: Tensor[(32, 28, 28, 256), float32] /* ty=Tensor[(32, 28, 28, 256), float32] */, Primitive=1) -> Tensor[(32, 28, 28, 1), float32] {
    %787 = power(%p0337, 2f /* ty=float32 */) /* ty=Tensor[(32, 28, 28, 256), float32] */;
    mean(%787, axis=[3], keepdims=True) /* ty=Tensor[(32, 28, 28, 1), float32] */
  } /* ty=fn (Tensor[(32, 28, 28, 256), float32]) -> Tensor[(32, 28, 28, 1), float32] */;
  %980 = %979(%978) /* ty=Tensor[(32, 28, 28, 1), float32] */;
  %981 = fn (%p0336: Tensor[(32, 28, 28, 1), float32] /* ty=Tensor[(32, 28, 28, 1), float32] */, %p1237: Tensor[(32, 28, 28, 256), float32] /* ty=Tensor[(32, 28, 28, 256), float32] */, %p2136: Tensor[(1, 1, 1, 256), float32] /* ty=Tensor[(1, 1, 1, 256), float32] */, %p368: Tensor[(1, 1, 1, 256), float32] /* ty=Tensor[(1, 1, 1, 256), float32] */, Primitive=1) -> Tensor[(25088, 256), float16] {
    %781 = add(%p0336, 1.01328e-06f /* ty=float32 */) /* ty=Tensor[(32, 28, 28, 1), float32] */;
    %782 = rsqrt(%781) /* ty=Tensor[(32, 28, 28, 1), float32] */;
    %783 = multiply(%p1237, %782) /* ty=Tensor[(32, 28, 28, 256), float32] */;
    %784 = multiply(%783, %p2136) /* ty=Tensor[(32, 28, 28, 256), float32] */;
    %785 = add(%784, %p368) /* ty=Tensor[(32, 28, 28, 256), float32] */;
    %786 = reshape(%785, newshape=[-1, 256]) /* ty=Tensor[(25088, 256), float32] */;
    cast(%786, dtype="float16") /* ty=Tensor[(25088, 256), float16] */
  } /* ty=fn (Tensor[(32, 28, 28, 1), float32], Tensor[(32, 28, 28, 256), float32], Tensor[(1, 1, 1, 256), float32], Tensor[(1, 1, 1, 256), float32]) -> Tensor[(25088, 256), float16] */;
  %982 = %981(%980, %978, meta[relay.Constant][37] /* ty=Tensor[(1, 1, 1, 256), float32] */, meta[relay.Constant][38] /* ty=Tensor[(1, 1, 1, 256), float32] */) /* ty=Tensor[(25088, 256), float16] */;
  %983 = fn (%p0335: Tensor[(25088, 256), float16] /* ty=Tensor[(25088, 256), float16] */, %p1236: Tensor[(1024, 256), float16] /* ty=Tensor[(1024, 256), float16] */, Primitive=1) -> Tensor[(25088, 1024), float16] {
    nn.dense(%p0335, %p1236, units=None, out_dtype="float16") /* ty=Tensor[(25088, 1024), float16] */
  } /* ty=fn (Tensor[(25088, 256), float16], Tensor[(1024, 256), float16]) -> Tensor[(25088, 1024), float16] */;
  %984 = %983(%982, meta[relay.Constant][39] /* ty=Tensor[(1024, 256), float16] span=/features/features.3/features.3.0/block/block.3/MatMul:0:0 */) /* ty=Tensor[(25088, 1024), float16] */;
  %985 = fn (%p0334: Tensor[(25088, 1024), float16] /* ty=Tensor[(25088, 1024), float16] */, %p1235: Tensor[(1024), float16] /* ty=Tensor[(1024), float16] */, %p2135: float16 /* ty=float16 */, Primitive=1) -> Tensor[(25088, 1024), float16] {
    %771 = reshape(%p0334, newshape=[32, 28, 28, 1024]) /* ty=Tensor[(32, 28, 28, 1024), float16] */;
    %772 = add(%p1235, %771) /* ty=Tensor[(32, 28, 28, 1024), float16] */;
    %773 = divide(%772, %p2135) /* ty=Tensor[(32, 28, 28, 1024), float16] */;
    %774 = cast(%773, dtype="float32") /* ty=Tensor[(32, 28, 28, 1024), float32] */;
    %775 = erf(%774) /* ty=Tensor[(32, 28, 28, 1024), float32] */;
    %776 = cast(%772, dtype="float32") /* ty=Tensor[(32, 28, 28, 1024), float32] */;
    %777 = add(%775, 1f /* ty=float32 */) /* ty=Tensor[(32, 28, 28, 1024), float32] */;
    %778 = multiply(%776, %777) /* ty=Tensor[(32, 28, 28, 1024), float32] */;
    %779 = multiply(%778, 0.5f /* ty=float32 */) /* ty=Tensor[(32, 28, 28, 1024), float32] */;
    %780 = reshape(%779, newshape=[-1, 1024]) /* ty=Tensor[(25088, 1024), float32] */;
    cast(%780, dtype="float16") /* ty=Tensor[(25088, 1024), float16] */
  } /* ty=fn (Tensor[(25088, 1024), float16], Tensor[(1024), float16], float16) -> Tensor[(25088, 1024), float16] */;
  %986 = %985(%984, meta[relay.Constant][40] /* ty=Tensor[(1024), float16] span=Identity_0.features.3.0.block.3.bias:0:0 */, 1.41406f16 /* ty=float16 span=/features/features.3/features.3.0/block/block.4/Constant:0:0 */) /* ty=Tensor[(25088, 1024), float16] */;
  %987 = fn (%p0333: Tensor[(25088, 1024), float16] /* ty=Tensor[(25088, 1024), float16] */, %p1234: Tensor[(256, 1024), float16] /* ty=Tensor[(256, 1024), float16] */, Primitive=1) -> Tensor[(25088, 256), float16] {
    nn.dense(%p0333, %p1234, units=None, out_dtype="float16") /* ty=Tensor[(25088, 256), float16] */
  } /* ty=fn (Tensor[(25088, 1024), float16], Tensor[(256, 1024), float16]) -> Tensor[(25088, 256), float16] */;
  %988 = %987(%986, meta[relay.Constant][41] /* ty=Tensor[(256, 1024), float16] span=/features/features.3/features.3.0/block/block.5/MatMul:0:0 */) /* ty=Tensor[(25088, 256), float16] */;
  %989 = fn (%p0332: Tensor[(25088, 256), float16] /* ty=Tensor[(25088, 256), float16] */, %p1233: Tensor[(256), float16] /* ty=Tensor[(256), float16] */, %p2134: Tensor[(256, 1, 1), float16] /* ty=Tensor[(256, 1, 1), float16] */, %p367: Tensor[(32, 28, 28, 256), float16] /* ty=Tensor[(32, 28, 28, 256), float16] */, Primitive=1) -> Tensor[(32, 256, 28, 28), float16] {
    %766 = reshape(%p0332, newshape=[32, 28, 28, 256]) /* ty=Tensor[(32, 28, 28, 256), float16] */;
    %767 = add(%p1233, %766) /* ty=Tensor[(32, 28, 28, 256), float16] */;
    %768 = transpose(%767, axes=[0, 3, 1, 2]) /* ty=Tensor[(32, 256, 28, 28), float16] */;
    %769 = multiply(%p2134, %768) /* ty=Tensor[(32, 256, 28, 28), float16] */;
    %770 = layout_transform(%p367, src_layout="NHWC", dst_layout="NCHW") /* ty=Tensor[(32, 256, 28, 28), float16] */;
    add(%769, %770) /* ty=Tensor[(32, 256, 28, 28), float16] */
  } /* ty=fn (Tensor[(25088, 256), float16], Tensor[(256), float16], Tensor[(256, 1, 1), float16], Tensor[(32, 28, 28, 256), float16]) -> Tensor[(32, 256, 28, 28), float16] */;
  %990 = %989(%988, meta[relay.Constant][42] /* ty=Tensor[(256), float16] span=Identity_194:0:0 */, meta[relay.Constant][43] /* ty=Tensor[(256, 1, 1), float16] span=Identity_187.features.3.0.layer_scale:0:0 */, %970) /* ty=Tensor[(32, 256, 28, 28), float16] */;
  %991 = fn (%p0331: Tensor[(32, 256, 28, 28), float16] /* ty=Tensor[(32, 256, 28, 28), float16] */, Primitive=1) -> Tensor[(32, 28, 28, 256), float16] {
    layout_transform(%p0331, src_layout="NCHW", dst_layout="NHWC") /* ty=Tensor[(32, 28, 28, 256), float16] */
  } /* ty=fn (Tensor[(32, 256, 28, 28), float16]) -> Tensor[(32, 28, 28, 256), float16] */;
  %992 = %991(%990) /* ty=Tensor[(32, 28, 28, 256), float16] */;
  %993 = fn (%p0330: Tensor[(32, 28, 28, 256), float16] /* ty=Tensor[(32, 28, 28, 256), float16] */, %p1232: Tensor[(256, 7, 7, 1), float16] /* ty=Tensor[(256, 7, 7, 1), float16] */, %p2133: Tensor[(1, 1, 1, 256), float16] /* ty=Tensor[(1, 1, 1, 256), float16] */, Primitive=1) -> Tensor[(32, 28, 28, 256), float16] {
    %765 = nn.conv2d(%p0330, %p1232, padding=[3, 3, 3, 3], groups=256, channels=256, kernel_size=[7, 7], data_layout="NHWC", kernel_layout="OHWI", out_dtype="float16") /* ty=Tensor[(32, 28, 28, 256), float16] */;
    add(%765, %p2133) /* ty=Tensor[(32, 28, 28, 256), float16] */
  } /* ty=fn (Tensor[(32, 28, 28, 256), float16], Tensor[(256, 7, 7, 1), float16], Tensor[(1, 1, 1, 256), float16]) -> Tensor[(32, 28, 28, 256), float16] */;
  %994 = %993(%992, meta[relay.Constant][44] /* ty=Tensor[(256, 7, 7, 1), float16] */, meta[relay.Constant][45] /* ty=Tensor[(1, 1, 1, 256), float16] */) /* ty=Tensor[(32, 28, 28, 256), float16] */;
  %995 = fn (%p0329: Tensor[(32, 28, 28, 256), float16] /* ty=Tensor[(32, 28, 28, 256), float16] */, Primitive=1) -> Tensor[(32, 28, 28, 256), float32] {
    %764 = transpose(%p0329, axes=[0, 1, 2, 3]) /* ty=Tensor[(32, 28, 28, 256), float16] */;
    cast(%764, dtype="float32") /* ty=Tensor[(32, 28, 28, 256), float32] */
  } /* ty=fn (Tensor[(32, 28, 28, 256), float16]) -> Tensor[(32, 28, 28, 256), float32] */;
  %996 = %995(%994) /* ty=Tensor[(32, 28, 28, 256), float32] */;
  %997 = fn (%p0387: Tensor[(32, 28, 28, 256), float32] /* ty=Tensor[(32, 28, 28, 256), float32] */, Primitive=1) -> Tensor[(32, 28, 28, 1), float32] {
    mean(%p0387, axis=[3], keepdims=True) /* ty=Tensor[(32, 28, 28, 1), float32] */
  } /* ty=fn (Tensor[(32, 28, 28, 256), float32]) -> Tensor[(32, 28, 28, 1), float32] */;
  %998 = %997(%996) /* ty=Tensor[(32, 28, 28, 1), float32] */;
  %999 = fn (%p0328: Tensor[(32, 28, 28, 256), float32] /* ty=Tensor[(32, 28, 28, 256), float32] */, %p1231: Tensor[(32, 28, 28, 1), float32] /* ty=Tensor[(32, 28, 28, 1), float32] */, Primitive=1) -> Tensor[(32, 28, 28, 256), float32] {
    subtract(%p0328, %p1231) /* ty=Tensor[(32, 28, 28, 256), float32] */
  } /* ty=fn (Tensor[(32, 28, 28, 256), float32], Tensor[(32, 28, 28, 1), float32]) -> Tensor[(32, 28, 28, 256), float32] */;
  %1000 = %999(%996, %998) /* ty=Tensor[(32, 28, 28, 256), float32] */;
  %1001 = fn (%p0327: Tensor[(32, 28, 28, 256), float32] /* ty=Tensor[(32, 28, 28, 256), float32] */, Primitive=1) -> Tensor[(32, 28, 28, 1), float32] {
    %763 = power(%p0327, 2f /* ty=float32 */) /* ty=Tensor[(32, 28, 28, 256), float32] */;
    mean(%763, axis=[3], keepdims=True) /* ty=Tensor[(32, 28, 28, 1), float32] */
  } /* ty=fn (Tensor[(32, 28, 28, 256), float32]) -> Tensor[(32, 28, 28, 1), float32] */;
  %1002 = %1001(%1000) /* ty=Tensor[(32, 28, 28, 1), float32] */;
  %1003 = fn (%p0326: Tensor[(32, 28, 28, 1), float32] /* ty=Tensor[(32, 28, 28, 1), float32] */, %p1230: Tensor[(32, 28, 28, 256), float32] /* ty=Tensor[(32, 28, 28, 256), float32] */, %p2132: Tensor[(1, 1, 1, 256), float32] /* ty=Tensor[(1, 1, 1, 256), float32] */, %p366: Tensor[(1, 1, 1, 256), float32] /* ty=Tensor[(1, 1, 1, 256), float32] */, Primitive=1) -> Tensor[(25088, 256), float16] {
    %757 = add(%p0326, 1.01328e-06f /* ty=float32 */) /* ty=Tensor[(32, 28, 28, 1), float32] */;
    %758 = rsqrt(%757) /* ty=Tensor[(32, 28, 28, 1), float32] */;
    %759 = multiply(%p1230, %758) /* ty=Tensor[(32, 28, 28, 256), float32] */;
    %760 = multiply(%759, %p2132) /* ty=Tensor[(32, 28, 28, 256), float32] */;
    %761 = add(%760, %p366) /* ty=Tensor[(32, 28, 28, 256), float32] */;
    %762 = reshape(%761, newshape=[-1, 256]) /* ty=Tensor[(25088, 256), float32] */;
    cast(%762, dtype="float16") /* ty=Tensor[(25088, 256), float16] */
  } /* ty=fn (Tensor[(32, 28, 28, 1), float32], Tensor[(32, 28, 28, 256), float32], Tensor[(1, 1, 1, 256), float32], Tensor[(1, 1, 1, 256), float32]) -> Tensor[(25088, 256), float16] */;
  %1004 = %1003(%1002, %1000, meta[relay.Constant][46] /* ty=Tensor[(1, 1, 1, 256), float32] */, meta[relay.Constant][47] /* ty=Tensor[(1, 1, 1, 256), float32] */) /* ty=Tensor[(25088, 256), float16] */;
  %1005 = fn (%p0325: Tensor[(25088, 256), float16] /* ty=Tensor[(25088, 256), float16] */, %p1229: Tensor[(1024, 256), float16] /* ty=Tensor[(1024, 256), float16] */, Primitive=1) -> Tensor[(25088, 1024), float16] {
    nn.dense(%p0325, %p1229, units=None, out_dtype="float16") /* ty=Tensor[(25088, 1024), float16] */
  } /* ty=fn (Tensor[(25088, 256), float16], Tensor[(1024, 256), float16]) -> Tensor[(25088, 1024), float16] */;
  %1006 = %1005(%1004, meta[relay.Constant][48] /* ty=Tensor[(1024, 256), float16] span=/features/features.3/features.3.1/block/block.3/MatMul:0:0 */) /* ty=Tensor[(25088, 1024), float16] */;
  %1007 = fn (%p0324: Tensor[(25088, 1024), float16] /* ty=Tensor[(25088, 1024), float16] */, %p1228: Tensor[(1024), float16] /* ty=Tensor[(1024), float16] */, %p2131: float16 /* ty=float16 */, Primitive=1) -> Tensor[(25088, 1024), float16] {
    %747 = reshape(%p0324, newshape=[32, 28, 28, 1024]) /* ty=Tensor[(32, 28, 28, 1024), float16] */;
    %748 = add(%p1228, %747) /* ty=Tensor[(32, 28, 28, 1024), float16] */;
    %749 = divide(%748, %p2131) /* ty=Tensor[(32, 28, 28, 1024), float16] */;
    %750 = cast(%749, dtype="float32") /* ty=Tensor[(32, 28, 28, 1024), float32] */;
    %751 = erf(%750) /* ty=Tensor[(32, 28, 28, 1024), float32] */;
    %752 = cast(%748, dtype="float32") /* ty=Tensor[(32, 28, 28, 1024), float32] */;
    %753 = add(%751, 1f /* ty=float32 */) /* ty=Tensor[(32, 28, 28, 1024), float32] */;
    %754 = multiply(%752, %753) /* ty=Tensor[(32, 28, 28, 1024), float32] */;
    %755 = multiply(%754, 0.5f /* ty=float32 */) /* ty=Tensor[(32, 28, 28, 1024), float32] */;
    %756 = reshape(%755, newshape=[-1, 1024]) /* ty=Tensor[(25088, 1024), float32] */;
    cast(%756, dtype="float16") /* ty=Tensor[(25088, 1024), float16] */
  } /* ty=fn (Tensor[(25088, 1024), float16], Tensor[(1024), float16], float16) -> Tensor[(25088, 1024), float16] */;
  %1008 = %1007(%1006, meta[relay.Constant][49] /* ty=Tensor[(1024), float16] span=Identity_189:0:0 */, 1.41406f16 /* ty=float16 span=/features/features.3/features.3.1/block/block.4/Constant:0:0 */) /* ty=Tensor[(25088, 1024), float16] */;
  %1009 = fn (%p0323: Tensor[(25088, 1024), float16] /* ty=Tensor[(25088, 1024), float16] */, %p1227: Tensor[(256, 1024), float16] /* ty=Tensor[(256, 1024), float16] */, Primitive=1) -> Tensor[(25088, 256), float16] {
    nn.dense(%p0323, %p1227, units=None, out_dtype="float16") /* ty=Tensor[(25088, 256), float16] */
  } /* ty=fn (Tensor[(25088, 1024), float16], Tensor[(256, 1024), float16]) -> Tensor[(25088, 256), float16] */;
  %1010 = %1009(%1008, meta[relay.Constant][50] /* ty=Tensor[(256, 1024), float16] span=/features/features.3/features.3.1/block/block.5/MatMul:0:0 */) /* ty=Tensor[(25088, 256), float16] */;
  %1011 = fn (%p0322: Tensor[(25088, 256), float16] /* ty=Tensor[(25088, 256), float16] */, %p1226: Tensor[(256), float16] /* ty=Tensor[(256), float16] */, %p2130: Tensor[(256, 1, 1), float16] /* ty=Tensor[(256, 1, 1), float16] */, %p365: Tensor[(32, 256, 28, 28), float16] /* ty=Tensor[(32, 256, 28, 28), float16] */, Primitive=1) -> Tensor[(32, 256, 28, 28), float16] {
    %743 = reshape(%p0322, newshape=[32, 28, 28, 256]) /* ty=Tensor[(32, 28, 28, 256), float16] */;
    %744 = add(%p1226, %743) /* ty=Tensor[(32, 28, 28, 256), float16] */;
    %745 = transpose(%744, axes=[0, 3, 1, 2]) /* ty=Tensor[(32, 256, 28, 28), float16] */;
    %746 = multiply(%p2130, %745) /* ty=Tensor[(32, 256, 28, 28), float16] */;
    add(%746, %p365) /* ty=Tensor[(32, 256, 28, 28), float16] */
  } /* ty=fn (Tensor[(25088, 256), float16], Tensor[(256), float16], Tensor[(256, 1, 1), float16], Tensor[(32, 256, 28, 28), float16]) -> Tensor[(32, 256, 28, 28), float16] */;
  %1012 = %1011(%1010, meta[relay.Constant][51] /* ty=Tensor[(256), float16] span=Identity_188:0:0 */, meta[relay.Constant][52] /* ty=Tensor[(256, 1, 1), float16] span=Identity_193:0:0 */, %990) /* ty=Tensor[(32, 256, 28, 28), float16] */;
  %1013 = fn (%p0321: Tensor[(32, 256, 28, 28), float16] /* ty=Tensor[(32, 256, 28, 28), float16] */, Primitive=1) -> Tensor[(32, 28, 28, 256), float16] {
    layout_transform(%p0321, src_layout="NCHW", dst_layout="NHWC") /* ty=Tensor[(32, 28, 28, 256), float16] */
  } /* ty=fn (Tensor[(32, 256, 28, 28), float16]) -> Tensor[(32, 28, 28, 256), float16] */;
  %1014 = %1013(%1012) /* ty=Tensor[(32, 28, 28, 256), float16] */;
  %1015 = fn (%p0320: Tensor[(32, 28, 28, 256), float16] /* ty=Tensor[(32, 28, 28, 256), float16] */, %p1225: Tensor[(256, 7, 7, 1), float16] /* ty=Tensor[(256, 7, 7, 1), float16] */, %p2129: Tensor[(1, 1, 1, 256), float16] /* ty=Tensor[(1, 1, 1, 256), float16] */, Primitive=1) -> Tensor[(32, 28, 28, 256), float16] {
    %742 = nn.conv2d(%p0320, %p1225, padding=[3, 3, 3, 3], groups=256, channels=256, kernel_size=[7, 7], data_layout="NHWC", kernel_layout="OHWI", out_dtype="float16") /* ty=Tensor[(32, 28, 28, 256), float16] */;
    add(%742, %p2129) /* ty=Tensor[(32, 28, 28, 256), float16] */
  } /* ty=fn (Tensor[(32, 28, 28, 256), float16], Tensor[(256, 7, 7, 1), float16], Tensor[(1, 1, 1, 256), float16]) -> Tensor[(32, 28, 28, 256), float16] */;
  %1016 = %1015(%1014, meta[relay.Constant][53] /* ty=Tensor[(256, 7, 7, 1), float16] */, meta[relay.Constant][54] /* ty=Tensor[(1, 1, 1, 256), float16] */) /* ty=Tensor[(32, 28, 28, 256), float16] */;
  %1017 = fn (%p0319: Tensor[(32, 28, 28, 256), float16] /* ty=Tensor[(32, 28, 28, 256), float16] */, Primitive=1) -> Tensor[(32, 28, 28, 256), float32] {
    %741 = transpose(%p0319, axes=[0, 1, 2, 3]) /* ty=Tensor[(32, 28, 28, 256), float16] */;
    cast(%741, dtype="float32") /* ty=Tensor[(32, 28, 28, 256), float32] */
  } /* ty=fn (Tensor[(32, 28, 28, 256), float16]) -> Tensor[(32, 28, 28, 256), float32] */;
  %1018 = %1017(%1016) /* ty=Tensor[(32, 28, 28, 256), float32] */;
  %1019 = fn (%p0388: Tensor[(32, 28, 28, 256), float32] /* ty=Tensor[(32, 28, 28, 256), float32] */, Primitive=1) -> Tensor[(32, 28, 28, 1), float32] {
    mean(%p0388, axis=[3], keepdims=True) /* ty=Tensor[(32, 28, 28, 1), float32] */
  } /* ty=fn (Tensor[(32, 28, 28, 256), float32]) -> Tensor[(32, 28, 28, 1), float32] */;
  %1020 = %1019(%1018) /* ty=Tensor[(32, 28, 28, 1), float32] */;
  %1021 = fn (%p0318: Tensor[(32, 28, 28, 256), float32] /* ty=Tensor[(32, 28, 28, 256), float32] */, %p1224: Tensor[(32, 28, 28, 1), float32] /* ty=Tensor[(32, 28, 28, 1), float32] */, Primitive=1) -> Tensor[(32, 28, 28, 256), float32] {
    subtract(%p0318, %p1224) /* ty=Tensor[(32, 28, 28, 256), float32] */
  } /* ty=fn (Tensor[(32, 28, 28, 256), float32], Tensor[(32, 28, 28, 1), float32]) -> Tensor[(32, 28, 28, 256), float32] */;
  %1022 = %1021(%1018, %1020) /* ty=Tensor[(32, 28, 28, 256), float32] */;
  %1023 = fn (%p0317: Tensor[(32, 28, 28, 256), float32] /* ty=Tensor[(32, 28, 28, 256), float32] */, Primitive=1) -> Tensor[(32, 28, 28, 1), float32] {
    %740 = power(%p0317, 2f /* ty=float32 */) /* ty=Tensor[(32, 28, 28, 256), float32] */;
    mean(%740, axis=[3], keepdims=True) /* ty=Tensor[(32, 28, 28, 1), float32] */
  } /* ty=fn (Tensor[(32, 28, 28, 256), float32]) -> Tensor[(32, 28, 28, 1), float32] */;
  %1024 = %1023(%1022) /* ty=Tensor[(32, 28, 28, 1), float32] */;
  %1025 = fn (%p0316: Tensor[(32, 28, 28, 1), float32] /* ty=Tensor[(32, 28, 28, 1), float32] */, %p1223: Tensor[(32, 28, 28, 256), float32] /* ty=Tensor[(32, 28, 28, 256), float32] */, %p2128: Tensor[(1, 1, 1, 256), float32] /* ty=Tensor[(1, 1, 1, 256), float32] */, %p364: Tensor[(1, 1, 1, 256), float32] /* ty=Tensor[(1, 1, 1, 256), float32] */, Primitive=1) -> Tensor[(25088, 256), float16] {
    %734 = add(%p0316, 1.01328e-06f /* ty=float32 */) /* ty=Tensor[(32, 28, 28, 1), float32] */;
    %735 = rsqrt(%734) /* ty=Tensor[(32, 28, 28, 1), float32] */;
    %736 = multiply(%p1223, %735) /* ty=Tensor[(32, 28, 28, 256), float32] */;
    %737 = multiply(%736, %p2128) /* ty=Tensor[(32, 28, 28, 256), float32] */;
    %738 = add(%737, %p364) /* ty=Tensor[(32, 28, 28, 256), float32] */;
    %739 = reshape(%738, newshape=[-1, 256]) /* ty=Tensor[(25088, 256), float32] */;
    cast(%739, dtype="float16") /* ty=Tensor[(25088, 256), float16] */
  } /* ty=fn (Tensor[(32, 28, 28, 1), float32], Tensor[(32, 28, 28, 256), float32], Tensor[(1, 1, 1, 256), float32], Tensor[(1, 1, 1, 256), float32]) -> Tensor[(25088, 256), float16] */;
  %1026 = %1025(%1024, %1022, meta[relay.Constant][55] /* ty=Tensor[(1, 1, 1, 256), float32] */, meta[relay.Constant][56] /* ty=Tensor[(1, 1, 1, 256), float32] */) /* ty=Tensor[(25088, 256), float16] */;
  %1027 = fn (%p0315: Tensor[(25088, 256), float16] /* ty=Tensor[(25088, 256), float16] */, %p1222: Tensor[(1024, 256), float16] /* ty=Tensor[(1024, 256), float16] */, Primitive=1) -> Tensor[(25088, 1024), float16] {
    nn.dense(%p0315, %p1222, units=None, out_dtype="float16") /* ty=Tensor[(25088, 1024), float16] */
  } /* ty=fn (Tensor[(25088, 256), float16], Tensor[(1024, 256), float16]) -> Tensor[(25088, 1024), float16] */;
  %1028 = %1027(%1026, meta[relay.Constant][57] /* ty=Tensor[(1024, 256), float16] span=/features/features.3/features.3.2/block/block.3/MatMul:0:0 */) /* ty=Tensor[(25088, 1024), float16] */;
  %1029 = fn (%p0314: Tensor[(25088, 1024), float16] /* ty=Tensor[(25088, 1024), float16] */, %p1221: Tensor[(1024), float16] /* ty=Tensor[(1024), float16] */, %p2127: float16 /* ty=float16 */, Primitive=1) -> Tensor[(25088, 1024), float16] {
    %724 = reshape(%p0314, newshape=[32, 28, 28, 1024]) /* ty=Tensor[(32, 28, 28, 1024), float16] */;
    %725 = add(%p1221, %724) /* ty=Tensor[(32, 28, 28, 1024), float16] */;
    %726 = divide(%725, %p2127) /* ty=Tensor[(32, 28, 28, 1024), float16] */;
    %727 = cast(%726, dtype="float32") /* ty=Tensor[(32, 28, 28, 1024), float32] */;
    %728 = erf(%727) /* ty=Tensor[(32, 28, 28, 1024), float32] */;
    %729 = cast(%725, dtype="float32") /* ty=Tensor[(32, 28, 28, 1024), float32] */;
    %730 = add(%728, 1f /* ty=float32 */) /* ty=Tensor[(32, 28, 28, 1024), float32] */;
    %731 = multiply(%729, %730) /* ty=Tensor[(32, 28, 28, 1024), float32] */;
    %732 = multiply(%731, 0.5f /* ty=float32 */) /* ty=Tensor[(32, 28, 28, 1024), float32] */;
    %733 = reshape(%732, newshape=[-1, 1024]) /* ty=Tensor[(25088, 1024), float32] */;
    cast(%733, dtype="float16") /* ty=Tensor[(25088, 1024), float16] */
  } /* ty=fn (Tensor[(25088, 1024), float16], Tensor[(1024), float16], float16) -> Tensor[(25088, 1024), float16] */;
  %1030 = %1029(%1028, meta[relay.Constant][58] /* ty=Tensor[(1024), float16] span=Identity_183:0:0 */, 1.41406f16 /* ty=float16 span=/features/features.3/features.3.2/block/block.4/Constant:0:0 */) /* ty=Tensor[(25088, 1024), float16] */;
  %1031 = fn (%p0313: Tensor[(25088, 1024), float16] /* ty=Tensor[(25088, 1024), float16] */, %p1220: Tensor[(256, 1024), float16] /* ty=Tensor[(256, 1024), float16] */, Primitive=1) -> Tensor[(25088, 256), float16] {
    nn.dense(%p0313, %p1220, units=None, out_dtype="float16") /* ty=Tensor[(25088, 256), float16] */
  } /* ty=fn (Tensor[(25088, 1024), float16], Tensor[(256, 1024), float16]) -> Tensor[(25088, 256), float16] */;
  %1032 = %1031(%1030, meta[relay.Constant][59] /* ty=Tensor[(256, 1024), float16] span=/features/features.3/features.3.2/block/block.5/MatMul:0:0 */) /* ty=Tensor[(25088, 256), float16] */;
  %1033 = fn (%p0312: Tensor[(25088, 256), float16] /* ty=Tensor[(25088, 256), float16] */, %p1219: Tensor[(256), float16] /* ty=Tensor[(256), float16] */, %p2126: Tensor[(256, 1, 1), float16] /* ty=Tensor[(256, 1, 1), float16] */, %p363: Tensor[(32, 256, 28, 28), float16] /* ty=Tensor[(32, 256, 28, 28), float16] */, Primitive=1) -> Tensor[(32, 28, 28, 256), float32] {
    %718 = reshape(%p0312, newshape=[32, 28, 28, 256]) /* ty=Tensor[(32, 28, 28, 256), float16] */;
    %719 = add(%p1219, %718) /* ty=Tensor[(32, 28, 28, 256), float16] */;
    %720 = transpose(%719, axes=[0, 3, 1, 2]) /* ty=Tensor[(32, 256, 28, 28), float16] */;
    %721 = multiply(%p2126, %720) /* ty=Tensor[(32, 256, 28, 28), float16] */;
    %722 = add(%721, %p363) /* ty=Tensor[(32, 256, 28, 28), float16] */;
    %723 = transpose(%722, axes=[0, 2, 3, 1]) /* ty=Tensor[(32, 28, 28, 256), float16] */;
    cast(%723, dtype="float32") /* ty=Tensor[(32, 28, 28, 256), float32] */
  } /* ty=fn (Tensor[(25088, 256), float16], Tensor[(256), float16], Tensor[(256, 1, 1), float16], Tensor[(32, 256, 28, 28), float16]) -> Tensor[(32, 28, 28, 256), float32] */;
  %1034 = %1033(%1032, meta[relay.Constant][60] /* ty=Tensor[(256), float16] span=Identity_182:0:0 */, meta[relay.Constant][61] /* ty=Tensor[(256, 1, 1), float16] span=Identity_187:0:0 */, %1012) /* ty=Tensor[(32, 28, 28, 256), float32] */;
  %1035 = fn (%p0389: Tensor[(32, 28, 28, 256), float32] /* ty=Tensor[(32, 28, 28, 256), float32] */, Primitive=1) -> Tensor[(32, 28, 28, 1), float32] {
    mean(%p0389, axis=[3], keepdims=True) /* ty=Tensor[(32, 28, 28, 1), float32] */
  } /* ty=fn (Tensor[(32, 28, 28, 256), float32]) -> Tensor[(32, 28, 28, 1), float32] */;
  %1036 = %1035(%1034) /* ty=Tensor[(32, 28, 28, 1), float32] */;
  %1037 = fn (%p0311: Tensor[(32, 28, 28, 256), float32] /* ty=Tensor[(32, 28, 28, 256), float32] */, %p1218: Tensor[(32, 28, 28, 1), float32] /* ty=Tensor[(32, 28, 28, 1), float32] */, Primitive=1) -> Tensor[(32, 28, 28, 256), float32] {
    subtract(%p0311, %p1218) /* ty=Tensor[(32, 28, 28, 256), float32] */
  } /* ty=fn (Tensor[(32, 28, 28, 256), float32], Tensor[(32, 28, 28, 1), float32]) -> Tensor[(32, 28, 28, 256), float32] */;
  %1038 = %1037(%1034, %1036) /* ty=Tensor[(32, 28, 28, 256), float32] */;
  %1039 = fn (%p0310: Tensor[(32, 28, 28, 256), float32] /* ty=Tensor[(32, 28, 28, 256), float32] */, Primitive=1) -> Tensor[(32, 28, 28, 1), float32] {
    %717 = power(%p0310, 2f /* ty=float32 */) /* ty=Tensor[(32, 28, 28, 256), float32] */;
    mean(%717, axis=[3], keepdims=True) /* ty=Tensor[(32, 28, 28, 1), float32] */
  } /* ty=fn (Tensor[(32, 28, 28, 256), float32]) -> Tensor[(32, 28, 28, 1), float32] */;
  %1040 = %1039(%1038) /* ty=Tensor[(32, 28, 28, 1), float32] */;
  %1041 = fn (%p0309: Tensor[(32, 28, 28, 1), float32] /* ty=Tensor[(32, 28, 28, 1), float32] */, %p1217: Tensor[(32, 28, 28, 256), float32] /* ty=Tensor[(32, 28, 28, 256), float32] */, %p2125: Tensor[(1, 1, 1, 256), float32] /* ty=Tensor[(1, 1, 1, 256), float32] */, %p362: Tensor[(1, 1, 1, 256), float32] /* ty=Tensor[(1, 1, 1, 256), float32] */, Primitive=1) -> Tensor[(32, 28, 28, 256), float16] {
    %712 = add(%p0309, 1.01328e-06f /* ty=float32 */) /* ty=Tensor[(32, 28, 28, 1), float32] */;
    %713 = rsqrt(%712) /* ty=Tensor[(32, 28, 28, 1), float32] */;
    %714 = multiply(%p1217, %713) /* ty=Tensor[(32, 28, 28, 256), float32] */;
    %715 = multiply(%714, %p2125) /* ty=Tensor[(32, 28, 28, 256), float32] */;
    %716 = add(%715, %p362) /* ty=Tensor[(32, 28, 28, 256), float32] */;
    cast(%716, dtype="float16") /* ty=Tensor[(32, 28, 28, 256), float16] */
  } /* ty=fn (Tensor[(32, 28, 28, 1), float32], Tensor[(32, 28, 28, 256), float32], Tensor[(1, 1, 1, 256), float32], Tensor[(1, 1, 1, 256), float32]) -> Tensor[(32, 28, 28, 256), float16] */;
  %1042 = %1041(%1040, %1038, meta[relay.Constant][62] /* ty=Tensor[(1, 1, 1, 256), float32] */, meta[relay.Constant][63] /* ty=Tensor[(1, 1, 1, 256), float32] */) /* ty=Tensor[(32, 28, 28, 256), float16] */;
  %1043 = fn (%p0308: Tensor[(32, 28, 28, 256), float16] /* ty=Tensor[(32, 28, 28, 256), float16] */, %p1216: Tensor[(512, 2, 2, 256), float16] /* ty=Tensor[(512, 2, 2, 256), float16] */, %p2124: Tensor[(1, 1, 1, 512), float16] /* ty=Tensor[(1, 1, 1, 512), float16] */, Primitive=1) -> Tensor[(32, 14, 14, 512), float16] {
    %711 = nn.conv2d(%p0308, %p1216, strides=[2, 2], padding=[0, 0, 0, 0], channels=512, kernel_size=[2, 2], data_layout="NHWC", kernel_layout="OHWI", out_dtype="float16") /* ty=Tensor[(32, 14, 14, 512), float16] */;
    add(%711, %p2124) /* ty=Tensor[(32, 14, 14, 512), float16] */
  } /* ty=fn (Tensor[(32, 28, 28, 256), float16], Tensor[(512, 2, 2, 256), float16], Tensor[(1, 1, 1, 512), float16]) -> Tensor[(32, 14, 14, 512), float16] */;
  %1044 = %1043(%1042, meta[relay.Constant][64] /* ty=Tensor[(512, 2, 2, 256), float16] */, meta[relay.Constant][65] /* ty=Tensor[(1, 1, 1, 512), float16] */) /* ty=Tensor[(32, 14, 14, 512), float16] */;
  %1045 = fn (%p0307: Tensor[(32, 14, 14, 512), float16] /* ty=Tensor[(32, 14, 14, 512), float16] */, %p1215: Tensor[(512, 7, 7, 1), float16] /* ty=Tensor[(512, 7, 7, 1), float16] */, %p2123: Tensor[(1, 1, 1, 512), float16] /* ty=Tensor[(1, 1, 1, 512), float16] */, Primitive=1) -> Tensor[(32, 14, 14, 512), float16] {
    %710 = nn.conv2d(%p0307, %p1215, padding=[3, 3, 3, 3], groups=512, channels=512, kernel_size=[7, 7], data_layout="NHWC", kernel_layout="OHWI", out_dtype="float16") /* ty=Tensor[(32, 14, 14, 512), float16] */;
    add(%710, %p2123) /* ty=Tensor[(32, 14, 14, 512), float16] */
  } /* ty=fn (Tensor[(32, 14, 14, 512), float16], Tensor[(512, 7, 7, 1), float16], Tensor[(1, 1, 1, 512), float16]) -> Tensor[(32, 14, 14, 512), float16] */;
  %1046 = %1045(%1044, meta[relay.Constant][66] /* ty=Tensor[(512, 7, 7, 1), float16] */, meta[relay.Constant][67] /* ty=Tensor[(1, 1, 1, 512), float16] */) /* ty=Tensor[(32, 14, 14, 512), float16] */;
  %1047 = fn (%p0306: Tensor[(32, 14, 14, 512), float16] /* ty=Tensor[(32, 14, 14, 512), float16] */, Primitive=1) -> Tensor[(32, 14, 14, 512), float32] {
    %709 = transpose(%p0306, axes=[0, 1, 2, 3]) /* ty=Tensor[(32, 14, 14, 512), float16] */;
    cast(%709, dtype="float32") /* ty=Tensor[(32, 14, 14, 512), float32] */
  } /* ty=fn (Tensor[(32, 14, 14, 512), float16]) -> Tensor[(32, 14, 14, 512), float32] */;
  %1048 = %1047(%1046) /* ty=Tensor[(32, 14, 14, 512), float32] */;
  %1049 = fn (%p0390: Tensor[(32, 14, 14, 512), float32] /* ty=Tensor[(32, 14, 14, 512), float32] */, Primitive=1) -> Tensor[(32, 14, 14, 1), float32] {
    mean(%p0390, axis=[3], keepdims=True) /* ty=Tensor[(32, 14, 14, 1), float32] */
  } /* ty=fn (Tensor[(32, 14, 14, 512), float32]) -> Tensor[(32, 14, 14, 1), float32] */;
  %1050 = %1049(%1048) /* ty=Tensor[(32, 14, 14, 1), float32] */;
  %1051 = fn (%p0305: Tensor[(32, 14, 14, 512), float32] /* ty=Tensor[(32, 14, 14, 512), float32] */, %p1214: Tensor[(32, 14, 14, 1), float32] /* ty=Tensor[(32, 14, 14, 1), float32] */, Primitive=1) -> Tensor[(32, 14, 14, 512), float32] {
    subtract(%p0305, %p1214) /* ty=Tensor[(32, 14, 14, 512), float32] */
  } /* ty=fn (Tensor[(32, 14, 14, 512), float32], Tensor[(32, 14, 14, 1), float32]) -> Tensor[(32, 14, 14, 512), float32] */;
  %1052 = %1051(%1048, %1050) /* ty=Tensor[(32, 14, 14, 512), float32] */;
  %1053 = fn (%p0304: Tensor[(32, 14, 14, 512), float32] /* ty=Tensor[(32, 14, 14, 512), float32] */, Primitive=1) -> Tensor[(32, 14, 14, 1), float32] {
    %708 = power(%p0304, 2f /* ty=float32 */) /* ty=Tensor[(32, 14, 14, 512), float32] */;
    mean(%708, axis=[3], keepdims=True) /* ty=Tensor[(32, 14, 14, 1), float32] */
  } /* ty=fn (Tensor[(32, 14, 14, 512), float32]) -> Tensor[(32, 14, 14, 1), float32] */;
  %1054 = %1053(%1052) /* ty=Tensor[(32, 14, 14, 1), float32] */;
  %1055 = fn (%p0303: Tensor[(32, 14, 14, 1), float32] /* ty=Tensor[(32, 14, 14, 1), float32] */, %p1213: Tensor[(32, 14, 14, 512), float32] /* ty=Tensor[(32, 14, 14, 512), float32] */, %p2122: Tensor[(1, 1, 1, 512), float32] /* ty=Tensor[(1, 1, 1, 512), float32] */, %p361: Tensor[(1, 1, 1, 512), float32] /* ty=Tensor[(1, 1, 1, 512), float32] */, Primitive=1) -> Tensor[(6272, 512), float16] {
    %702 = add(%p0303, 1.01328e-06f /* ty=float32 */) /* ty=Tensor[(32, 14, 14, 1), float32] */;
    %703 = rsqrt(%702) /* ty=Tensor[(32, 14, 14, 1), float32] */;
    %704 = multiply(%p1213, %703) /* ty=Tensor[(32, 14, 14, 512), float32] */;
    %705 = multiply(%704, %p2122) /* ty=Tensor[(32, 14, 14, 512), float32] */;
    %706 = add(%705, %p361) /* ty=Tensor[(32, 14, 14, 512), float32] */;
    %707 = reshape(%706, newshape=[-1, 512]) /* ty=Tensor[(6272, 512), float32] */;
    cast(%707, dtype="float16") /* ty=Tensor[(6272, 512), float16] */
  } /* ty=fn (Tensor[(32, 14, 14, 1), float32], Tensor[(32, 14, 14, 512), float32], Tensor[(1, 1, 1, 512), float32], Tensor[(1, 1, 1, 512), float32]) -> Tensor[(6272, 512), float16] */;
  %1056 = %1055(%1054, %1052, meta[relay.Constant][68] /* ty=Tensor[(1, 1, 1, 512), float32] */, meta[relay.Constant][69] /* ty=Tensor[(1, 1, 1, 512), float32] */) /* ty=Tensor[(6272, 512), float16] */;
  %1057 = fn (%p0302: Tensor[(6272, 512), float16] /* ty=Tensor[(6272, 512), float16] */, %p1212: Tensor[(2048, 512), float16] /* ty=Tensor[(2048, 512), float16] */, Primitive=1) -> Tensor[(6272, 2048), float16] {
    nn.dense(%p0302, %p1212, units=None, out_dtype="float16") /* ty=Tensor[(6272, 2048), float16] */
  } /* ty=fn (Tensor[(6272, 512), float16], Tensor[(2048, 512), float16]) -> Tensor[(6272, 2048), float16] */;
  %1058 = %1057(%1056, meta[relay.Constant][70] /* ty=Tensor[(2048, 512), float16] span=/features/features.5/features.5.0/block/block.3/MatMul:0:0 */) /* ty=Tensor[(6272, 2048), float16] */;
  %1059 = fn (%p0301: Tensor[(6272, 2048), float16] /* ty=Tensor[(6272, 2048), float16] */, %p1211: Tensor[(2048), float16] /* ty=Tensor[(2048), float16] */, %p2121: float16 /* ty=float16 */, Primitive=1) -> Tensor[(6272, 2048), float16] {
    %692 = reshape(%p0301, newshape=[32, 14, 14, 2048]) /* ty=Tensor[(32, 14, 14, 2048), float16] */;
    %693 = add(%p1211, %692) /* ty=Tensor[(32, 14, 14, 2048), float16] */;
    %694 = divide(%693, %p2121) /* ty=Tensor[(32, 14, 14, 2048), float16] */;
    %695 = cast(%694, dtype="float32") /* ty=Tensor[(32, 14, 14, 2048), float32] */;
    %696 = erf(%695) /* ty=Tensor[(32, 14, 14, 2048), float32] */;
    %697 = cast(%693, dtype="float32") /* ty=Tensor[(32, 14, 14, 2048), float32] */;
    %698 = add(%696, 1f /* ty=float32 */) /* ty=Tensor[(32, 14, 14, 2048), float32] */;
    %699 = multiply(%697, %698) /* ty=Tensor[(32, 14, 14, 2048), float32] */;
    %700 = multiply(%699, 0.5f /* ty=float32 */) /* ty=Tensor[(32, 14, 14, 2048), float32] */;
    %701 = reshape(%700, newshape=[-1, 2048]) /* ty=Tensor[(6272, 2048), float32] */;
    cast(%701, dtype="float16") /* ty=Tensor[(6272, 2048), float16] */
  } /* ty=fn (Tensor[(6272, 2048), float16], Tensor[(2048), float16], float16) -> Tensor[(6272, 2048), float16] */;
  %1060 = %1059(%1058, meta[relay.Constant][71] /* ty=Tensor[(2048), float16] span=Identity_21.features.5.0.block.3.bias:0:0 */, 1.41406f16 /* ty=float16 span=/features/features.5/features.5.0/block/block.4/Constant:0:0 */) /* ty=Tensor[(6272, 2048), float16] */;
  %1061 = fn (%p0300: Tensor[(6272, 2048), float16] /* ty=Tensor[(6272, 2048), float16] */, %p1210: Tensor[(512, 2048), float16] /* ty=Tensor[(512, 2048), float16] */, Primitive=1) -> Tensor[(6272, 512), float16] {
    nn.dense(%p0300, %p1210, units=None, out_dtype="float16") /* ty=Tensor[(6272, 512), float16] */
  } /* ty=fn (Tensor[(6272, 2048), float16], Tensor[(512, 2048), float16]) -> Tensor[(6272, 512), float16] */;
  %1062 = %1061(%1060, meta[relay.Constant][72] /* ty=Tensor[(512, 2048), float16] span=/features/features.5/features.5.0/block/block.5/MatMul:0:0 */) /* ty=Tensor[(6272, 512), float16] */;
  %1063 = fn (%p0299: Tensor[(6272, 512), float16] /* ty=Tensor[(6272, 512), float16] */, %p1209: Tensor[(512), float16] /* ty=Tensor[(512), float16] */, %p2120: Tensor[(512, 1, 1), float16] /* ty=Tensor[(512, 1, 1), float16] */, %p360: Tensor[(32, 14, 14, 512), float16] /* ty=Tensor[(32, 14, 14, 512), float16] */, Primitive=1) -> Tensor[(32, 512, 14, 14), float16] {
    %687 = reshape(%p0299, newshape=[32, 14, 14, 512]) /* ty=Tensor[(32, 14, 14, 512), float16] */;
    %688 = add(%p1209, %687) /* ty=Tensor[(32, 14, 14, 512), float16] */;
    %689 = transpose(%688, axes=[0, 3, 1, 2]) /* ty=Tensor[(32, 512, 14, 14), float16] */;
    %690 = multiply(%p2120, %689) /* ty=Tensor[(32, 512, 14, 14), float16] */;
    %691 = layout_transform(%p360, src_layout="NHWC", dst_layout="NCHW") /* ty=Tensor[(32, 512, 14, 14), float16] */;
    add(%690, %691) /* ty=Tensor[(32, 512, 14, 14), float16] */
  } /* ty=fn (Tensor[(6272, 512), float16], Tensor[(512), float16], Tensor[(512, 1, 1), float16], Tensor[(32, 14, 14, 512), float16]) -> Tensor[(32, 512, 14, 14), float16] */;
  %1064 = %1063(%1062, meta[relay.Constant][73] /* ty=Tensor[(512), float16] span=Identity_176:0:0 */, meta[relay.Constant][74] /* ty=Tensor[(512, 1, 1), float16] span=Identity_25.features.5.0.layer_scale:0:0 */, %1044) /* ty=Tensor[(32, 512, 14, 14), float16] */;
  %1065 = fn (%p0298: Tensor[(32, 512, 14, 14), float16] /* ty=Tensor[(32, 512, 14, 14), float16] */, Primitive=1) -> Tensor[(32, 14, 14, 512), float16] {
    layout_transform(%p0298, src_layout="NCHW", dst_layout="NHWC") /* ty=Tensor[(32, 14, 14, 512), float16] */
  } /* ty=fn (Tensor[(32, 512, 14, 14), float16]) -> Tensor[(32, 14, 14, 512), float16] */;
  %1066 = %1065(%1064) /* ty=Tensor[(32, 14, 14, 512), float16] */;
  %1067 = fn (%p0297: Tensor[(32, 14, 14, 512), float16] /* ty=Tensor[(32, 14, 14, 512), float16] */, %p1208: Tensor[(512, 7, 7, 1), float16] /* ty=Tensor[(512, 7, 7, 1), float16] */, %p2119: Tensor[(1, 1, 1, 512), float16] /* ty=Tensor[(1, 1, 1, 512), float16] */, Primitive=1) -> Tensor[(32, 14, 14, 512), float16] {
    %686 = nn.conv2d(%p0297, %p1208, padding=[3, 3, 3, 3], groups=512, channels=512, kernel_size=[7, 7], data_layout="NHWC", kernel_layout="OHWI", out_dtype="float16") /* ty=Tensor[(32, 14, 14, 512), float16] */;
    add(%686, %p2119) /* ty=Tensor[(32, 14, 14, 512), float16] */
  } /* ty=fn (Tensor[(32, 14, 14, 512), float16], Tensor[(512, 7, 7, 1), float16], Tensor[(1, 1, 1, 512), float16]) -> Tensor[(32, 14, 14, 512), float16] */;
  %1068 = %1067(%1066, meta[relay.Constant][75] /* ty=Tensor[(512, 7, 7, 1), float16] */, meta[relay.Constant][76] /* ty=Tensor[(1, 1, 1, 512), float16] */) /* ty=Tensor[(32, 14, 14, 512), float16] */;
  %1069 = fn (%p0296: Tensor[(32, 14, 14, 512), float16] /* ty=Tensor[(32, 14, 14, 512), float16] */, Primitive=1) -> Tensor[(32, 14, 14, 512), float32] {
    %685 = transpose(%p0296, axes=[0, 1, 2, 3]) /* ty=Tensor[(32, 14, 14, 512), float16] */;
    cast(%685, dtype="float32") /* ty=Tensor[(32, 14, 14, 512), float32] */
  } /* ty=fn (Tensor[(32, 14, 14, 512), float16]) -> Tensor[(32, 14, 14, 512), float32] */;
  %1070 = %1069(%1068) /* ty=Tensor[(32, 14, 14, 512), float32] */;
  %1071 = fn (%p0391: Tensor[(32, 14, 14, 512), float32] /* ty=Tensor[(32, 14, 14, 512), float32] */, Primitive=1) -> Tensor[(32, 14, 14, 1), float32] {
    mean(%p0391, axis=[3], keepdims=True) /* ty=Tensor[(32, 14, 14, 1), float32] */
  } /* ty=fn (Tensor[(32, 14, 14, 512), float32]) -> Tensor[(32, 14, 14, 1), float32] */;
  %1072 = %1071(%1070) /* ty=Tensor[(32, 14, 14, 1), float32] */;
  %1073 = fn (%p0295: Tensor[(32, 14, 14, 512), float32] /* ty=Tensor[(32, 14, 14, 512), float32] */, %p1207: Tensor[(32, 14, 14, 1), float32] /* ty=Tensor[(32, 14, 14, 1), float32] */, Primitive=1) -> Tensor[(32, 14, 14, 512), float32] {
    subtract(%p0295, %p1207) /* ty=Tensor[(32, 14, 14, 512), float32] */
  } /* ty=fn (Tensor[(32, 14, 14, 512), float32], Tensor[(32, 14, 14, 1), float32]) -> Tensor[(32, 14, 14, 512), float32] */;
  %1074 = %1073(%1070, %1072) /* ty=Tensor[(32, 14, 14, 512), float32] */;
  %1075 = fn (%p0294: Tensor[(32, 14, 14, 512), float32] /* ty=Tensor[(32, 14, 14, 512), float32] */, Primitive=1) -> Tensor[(32, 14, 14, 1), float32] {
    %684 = power(%p0294, 2f /* ty=float32 */) /* ty=Tensor[(32, 14, 14, 512), float32] */;
    mean(%684, axis=[3], keepdims=True) /* ty=Tensor[(32, 14, 14, 1), float32] */
  } /* ty=fn (Tensor[(32, 14, 14, 512), float32]) -> Tensor[(32, 14, 14, 1), float32] */;
  %1076 = %1075(%1074) /* ty=Tensor[(32, 14, 14, 1), float32] */;
  %1077 = fn (%p0293: Tensor[(32, 14, 14, 1), float32] /* ty=Tensor[(32, 14, 14, 1), float32] */, %p1206: Tensor[(32, 14, 14, 512), float32] /* ty=Tensor[(32, 14, 14, 512), float32] */, %p2118: Tensor[(1, 1, 1, 512), float32] /* ty=Tensor[(1, 1, 1, 512), float32] */, %p359: Tensor[(1, 1, 1, 512), float32] /* ty=Tensor[(1, 1, 1, 512), float32] */, Primitive=1) -> Tensor[(6272, 512), float16] {
    %678 = add(%p0293, 1.01328e-06f /* ty=float32 */) /* ty=Tensor[(32, 14, 14, 1), float32] */;
    %679 = rsqrt(%678) /* ty=Tensor[(32, 14, 14, 1), float32] */;
    %680 = multiply(%p1206, %679) /* ty=Tensor[(32, 14, 14, 512), float32] */;
    %681 = multiply(%680, %p2118) /* ty=Tensor[(32, 14, 14, 512), float32] */;
    %682 = add(%681, %p359) /* ty=Tensor[(32, 14, 14, 512), float32] */;
    %683 = reshape(%682, newshape=[-1, 512]) /* ty=Tensor[(6272, 512), float32] */;
    cast(%683, dtype="float16") /* ty=Tensor[(6272, 512), float16] */
  } /* ty=fn (Tensor[(32, 14, 14, 1), float32], Tensor[(32, 14, 14, 512), float32], Tensor[(1, 1, 1, 512), float32], Tensor[(1, 1, 1, 512), float32]) -> Tensor[(6272, 512), float16] */;
  %1078 = %1077(%1076, %1074, meta[relay.Constant][77] /* ty=Tensor[(1, 1, 1, 512), float32] */, meta[relay.Constant][78] /* ty=Tensor[(1, 1, 1, 512), float32] */) /* ty=Tensor[(6272, 512), float16] */;
  %1079 = fn (%p0292: Tensor[(6272, 512), float16] /* ty=Tensor[(6272, 512), float16] */, %p1205: Tensor[(2048, 512), float16] /* ty=Tensor[(2048, 512), float16] */, Primitive=1) -> Tensor[(6272, 2048), float16] {
    nn.dense(%p0292, %p1205, units=None, out_dtype="float16") /* ty=Tensor[(6272, 2048), float16] */
  } /* ty=fn (Tensor[(6272, 512), float16], Tensor[(2048, 512), float16]) -> Tensor[(6272, 2048), float16] */;
  %1080 = %1079(%1078, meta[relay.Constant][79] /* ty=Tensor[(2048, 512), float16] span=/features/features.5/features.5.1/block/block.3/MatMul:0:0 */) /* ty=Tensor[(6272, 2048), float16] */;
  %1081 = fn (%p0291: Tensor[(6272, 2048), float16] /* ty=Tensor[(6272, 2048), float16] */, %p1204: Tensor[(2048), float16] /* ty=Tensor[(2048), float16] */, %p2117: float16 /* ty=float16 */, Primitive=1) -> Tensor[(6272, 2048), float16] {
    %668 = reshape(%p0291, newshape=[32, 14, 14, 2048]) /* ty=Tensor[(32, 14, 14, 2048), float16] */;
    %669 = add(%p1204, %668) /* ty=Tensor[(32, 14, 14, 2048), float16] */;
    %670 = divide(%669, %p2117) /* ty=Tensor[(32, 14, 14, 2048), float16] */;
    %671 = cast(%670, dtype="float32") /* ty=Tensor[(32, 14, 14, 2048), float32] */;
    %672 = erf(%671) /* ty=Tensor[(32, 14, 14, 2048), float32] */;
    %673 = cast(%669, dtype="float32") /* ty=Tensor[(32, 14, 14, 2048), float32] */;
    %674 = add(%672, 1f /* ty=float32 */) /* ty=Tensor[(32, 14, 14, 2048), float32] */;
    %675 = multiply(%673, %674) /* ty=Tensor[(32, 14, 14, 2048), float32] */;
    %676 = multiply(%675, 0.5f /* ty=float32 */) /* ty=Tensor[(32, 14, 14, 2048), float32] */;
    %677 = reshape(%676, newshape=[-1, 2048]) /* ty=Tensor[(6272, 2048), float32] */;
    cast(%677, dtype="float16") /* ty=Tensor[(6272, 2048), float16] */
  } /* ty=fn (Tensor[(6272, 2048), float16], Tensor[(2048), float16], float16) -> Tensor[(6272, 2048), float16] */;
  %1082 = %1081(%1080, meta[relay.Constant][80] /* ty=Tensor[(2048), float16] span=Identity_171:0:0 */, 1.41406f16 /* ty=float16 span=/features/features.5/features.5.1/block/block.4/Constant:0:0 */) /* ty=Tensor[(6272, 2048), float16] */;
  %1083 = fn (%p0290: Tensor[(6272, 2048), float16] /* ty=Tensor[(6272, 2048), float16] */, %p1203: Tensor[(512, 2048), float16] /* ty=Tensor[(512, 2048), float16] */, Primitive=1) -> Tensor[(6272, 512), float16] {
    nn.dense(%p0290, %p1203, units=None, out_dtype="float16") /* ty=Tensor[(6272, 512), float16] */
  } /* ty=fn (Tensor[(6272, 2048), float16], Tensor[(512, 2048), float16]) -> Tensor[(6272, 512), float16] */;
  %1084 = %1083(%1082, meta[relay.Constant][81] /* ty=Tensor[(512, 2048), float16] span=/features/features.5/features.5.1/block/block.5/MatMul:0:0 */) /* ty=Tensor[(6272, 512), float16] */;
  %1085 = fn (%p0289: Tensor[(6272, 512), float16] /* ty=Tensor[(6272, 512), float16] */, %p1202: Tensor[(512), float16] /* ty=Tensor[(512), float16] */, %p2116: Tensor[(512, 1, 1), float16] /* ty=Tensor[(512, 1, 1), float16] */, %p358: Tensor[(32, 512, 14, 14), float16] /* ty=Tensor[(32, 512, 14, 14), float16] */, Primitive=1) -> Tensor[(32, 512, 14, 14), float16] {
    %664 = reshape(%p0289, newshape=[32, 14, 14, 512]) /* ty=Tensor[(32, 14, 14, 512), float16] */;
    %665 = add(%p1202, %664) /* ty=Tensor[(32, 14, 14, 512), float16] */;
    %666 = transpose(%665, axes=[0, 3, 1, 2]) /* ty=Tensor[(32, 512, 14, 14), float16] */;
    %667 = multiply(%p2116, %666) /* ty=Tensor[(32, 512, 14, 14), float16] */;
    add(%667, %p358) /* ty=Tensor[(32, 512, 14, 14), float16] */
  } /* ty=fn (Tensor[(6272, 512), float16], Tensor[(512), float16], Tensor[(512, 1, 1), float16], Tensor[(32, 512, 14, 14), float16]) -> Tensor[(32, 512, 14, 14), float16] */;
  %1086 = %1085(%1084, meta[relay.Constant][82] /* ty=Tensor[(512), float16] span=Identity_170:0:0 */, meta[relay.Constant][83] /* ty=Tensor[(512, 1, 1), float16] span=Identity_175:0:0 */, %1064) /* ty=Tensor[(32, 512, 14, 14), float16] */;
  %1087 = fn (%p0288: Tensor[(32, 512, 14, 14), float16] /* ty=Tensor[(32, 512, 14, 14), float16] */, Primitive=1) -> Tensor[(32, 14, 14, 512), float16] {
    layout_transform(%p0288, src_layout="NCHW", dst_layout="NHWC") /* ty=Tensor[(32, 14, 14, 512), float16] */
  } /* ty=fn (Tensor[(32, 512, 14, 14), float16]) -> Tensor[(32, 14, 14, 512), float16] */;
  %1088 = %1087(%1086) /* ty=Tensor[(32, 14, 14, 512), float16] */;
  %1089 = fn (%p0287: Tensor[(32, 14, 14, 512), float16] /* ty=Tensor[(32, 14, 14, 512), float16] */, %p1201: Tensor[(512, 7, 7, 1), float16] /* ty=Tensor[(512, 7, 7, 1), float16] */, %p2115: Tensor[(1, 1, 1, 512), float16] /* ty=Tensor[(1, 1, 1, 512), float16] */, Primitive=1) -> Tensor[(32, 14, 14, 512), float16] {
    %663 = nn.conv2d(%p0287, %p1201, padding=[3, 3, 3, 3], groups=512, channels=512, kernel_size=[7, 7], data_layout="NHWC", kernel_layout="OHWI", out_dtype="float16") /* ty=Tensor[(32, 14, 14, 512), float16] */;
    add(%663, %p2115) /* ty=Tensor[(32, 14, 14, 512), float16] */
  } /* ty=fn (Tensor[(32, 14, 14, 512), float16], Tensor[(512, 7, 7, 1), float16], Tensor[(1, 1, 1, 512), float16]) -> Tensor[(32, 14, 14, 512), float16] */;
  %1090 = %1089(%1088, meta[relay.Constant][84] /* ty=Tensor[(512, 7, 7, 1), float16] */, meta[relay.Constant][85] /* ty=Tensor[(1, 1, 1, 512), float16] */) /* ty=Tensor[(32, 14, 14, 512), float16] */;
  %1091 = fn (%p0286: Tensor[(32, 14, 14, 512), float16] /* ty=Tensor[(32, 14, 14, 512), float16] */, Primitive=1) -> Tensor[(32, 14, 14, 512), float32] {
    %662 = transpose(%p0286, axes=[0, 1, 2, 3]) /* ty=Tensor[(32, 14, 14, 512), float16] */;
    cast(%662, dtype="float32") /* ty=Tensor[(32, 14, 14, 512), float32] */
  } /* ty=fn (Tensor[(32, 14, 14, 512), float16]) -> Tensor[(32, 14, 14, 512), float32] */;
  %1092 = %1091(%1090) /* ty=Tensor[(32, 14, 14, 512), float32] */;
  %1093 = fn (%p0392: Tensor[(32, 14, 14, 512), float32] /* ty=Tensor[(32, 14, 14, 512), float32] */, Primitive=1) -> Tensor[(32, 14, 14, 1), float32] {
    mean(%p0392, axis=[3], keepdims=True) /* ty=Tensor[(32, 14, 14, 1), float32] */
  } /* ty=fn (Tensor[(32, 14, 14, 512), float32]) -> Tensor[(32, 14, 14, 1), float32] */;
  %1094 = %1093(%1092) /* ty=Tensor[(32, 14, 14, 1), float32] */;
  %1095 = fn (%p0285: Tensor[(32, 14, 14, 512), float32] /* ty=Tensor[(32, 14, 14, 512), float32] */, %p1200: Tensor[(32, 14, 14, 1), float32] /* ty=Tensor[(32, 14, 14, 1), float32] */, Primitive=1) -> Tensor[(32, 14, 14, 512), float32] {
    subtract(%p0285, %p1200) /* ty=Tensor[(32, 14, 14, 512), float32] */
  } /* ty=fn (Tensor[(32, 14, 14, 512), float32], Tensor[(32, 14, 14, 1), float32]) -> Tensor[(32, 14, 14, 512), float32] */;
  %1096 = %1095(%1092, %1094) /* ty=Tensor[(32, 14, 14, 512), float32] */;
  %1097 = fn (%p0284: Tensor[(32, 14, 14, 512), float32] /* ty=Tensor[(32, 14, 14, 512), float32] */, Primitive=1) -> Tensor[(32, 14, 14, 1), float32] {
    %661 = power(%p0284, 2f /* ty=float32 */) /* ty=Tensor[(32, 14, 14, 512), float32] */;
    mean(%661, axis=[3], keepdims=True) /* ty=Tensor[(32, 14, 14, 1), float32] */
  } /* ty=fn (Tensor[(32, 14, 14, 512), float32]) -> Tensor[(32, 14, 14, 1), float32] */;
  %1098 = %1097(%1096) /* ty=Tensor[(32, 14, 14, 1), float32] */;
  %1099 = fn (%p0283: Tensor[(32, 14, 14, 1), float32] /* ty=Tensor[(32, 14, 14, 1), float32] */, %p1199: Tensor[(32, 14, 14, 512), float32] /* ty=Tensor[(32, 14, 14, 512), float32] */, %p2114: Tensor[(1, 1, 1, 512), float32] /* ty=Tensor[(1, 1, 1, 512), float32] */, %p357: Tensor[(1, 1, 1, 512), float32] /* ty=Tensor[(1, 1, 1, 512), float32] */, Primitive=1) -> Tensor[(6272, 512), float16] {
    %655 = add(%p0283, 1.01328e-06f /* ty=float32 */) /* ty=Tensor[(32, 14, 14, 1), float32] */;
    %656 = rsqrt(%655) /* ty=Tensor[(32, 14, 14, 1), float32] */;
    %657 = multiply(%p1199, %656) /* ty=Tensor[(32, 14, 14, 512), float32] */;
    %658 = multiply(%657, %p2114) /* ty=Tensor[(32, 14, 14, 512), float32] */;
    %659 = add(%658, %p357) /* ty=Tensor[(32, 14, 14, 512), float32] */;
    %660 = reshape(%659, newshape=[-1, 512]) /* ty=Tensor[(6272, 512), float32] */;
    cast(%660, dtype="float16") /* ty=Tensor[(6272, 512), float16] */
  } /* ty=fn (Tensor[(32, 14, 14, 1), float32], Tensor[(32, 14, 14, 512), float32], Tensor[(1, 1, 1, 512), float32], Tensor[(1, 1, 1, 512), float32]) -> Tensor[(6272, 512), float16] */;
  %1100 = %1099(%1098, %1096, meta[relay.Constant][86] /* ty=Tensor[(1, 1, 1, 512), float32] */, meta[relay.Constant][87] /* ty=Tensor[(1, 1, 1, 512), float32] */) /* ty=Tensor[(6272, 512), float16] */;
  %1101 = fn (%p0282: Tensor[(6272, 512), float16] /* ty=Tensor[(6272, 512), float16] */, %p1198: Tensor[(2048, 512), float16] /* ty=Tensor[(2048, 512), float16] */, Primitive=1) -> Tensor[(6272, 2048), float16] {
    nn.dense(%p0282, %p1198, units=None, out_dtype="float16") /* ty=Tensor[(6272, 2048), float16] */
  } /* ty=fn (Tensor[(6272, 512), float16], Tensor[(2048, 512), float16]) -> Tensor[(6272, 2048), float16] */;
  %1102 = %1101(%1100, meta[relay.Constant][88] /* ty=Tensor[(2048, 512), float16] span=/features/features.5/features.5.2/block/block.3/MatMul:0:0 */) /* ty=Tensor[(6272, 2048), float16] */;
  %1103 = fn (%p0281: Tensor[(6272, 2048), float16] /* ty=Tensor[(6272, 2048), float16] */, %p1197: Tensor[(2048), float16] /* ty=Tensor[(2048), float16] */, %p2113: float16 /* ty=float16 */, Primitive=1) -> Tensor[(6272, 2048), float16] {
    %645 = reshape(%p0281, newshape=[32, 14, 14, 2048]) /* ty=Tensor[(32, 14, 14, 2048), float16] */;
    %646 = add(%p1197, %645) /* ty=Tensor[(32, 14, 14, 2048), float16] */;
    %647 = divide(%646, %p2113) /* ty=Tensor[(32, 14, 14, 2048), float16] */;
    %648 = cast(%647, dtype="float32") /* ty=Tensor[(32, 14, 14, 2048), float32] */;
    %649 = erf(%648) /* ty=Tensor[(32, 14, 14, 2048), float32] */;
    %650 = cast(%646, dtype="float32") /* ty=Tensor[(32, 14, 14, 2048), float32] */;
    %651 = add(%649, 1f /* ty=float32 */) /* ty=Tensor[(32, 14, 14, 2048), float32] */;
    %652 = multiply(%650, %651) /* ty=Tensor[(32, 14, 14, 2048), float32] */;
    %653 = multiply(%652, 0.5f /* ty=float32 */) /* ty=Tensor[(32, 14, 14, 2048), float32] */;
    %654 = reshape(%653, newshape=[-1, 2048]) /* ty=Tensor[(6272, 2048), float32] */;
    cast(%654, dtype="float16") /* ty=Tensor[(6272, 2048), float16] */
  } /* ty=fn (Tensor[(6272, 2048), float16], Tensor[(2048), float16], float16) -> Tensor[(6272, 2048), float16] */;
  %1104 = %1103(%1102, meta[relay.Constant][89] /* ty=Tensor[(2048), float16] span=Identity_165:0:0 */, 1.41406f16 /* ty=float16 span=/features/features.5/features.5.2/block/block.4/Constant:0:0 */) /* ty=Tensor[(6272, 2048), float16] */;
  %1105 = fn (%p0280: Tensor[(6272, 2048), float16] /* ty=Tensor[(6272, 2048), float16] */, %p1196: Tensor[(512, 2048), float16] /* ty=Tensor[(512, 2048), float16] */, Primitive=1) -> Tensor[(6272, 512), float16] {
    nn.dense(%p0280, %p1196, units=None, out_dtype="float16") /* ty=Tensor[(6272, 512), float16] */
  } /* ty=fn (Tensor[(6272, 2048), float16], Tensor[(512, 2048), float16]) -> Tensor[(6272, 512), float16] */;
  %1106 = %1105(%1104, meta[relay.Constant][90] /* ty=Tensor[(512, 2048), float16] span=/features/features.5/features.5.2/block/block.5/MatMul:0:0 */) /* ty=Tensor[(6272, 512), float16] */;
  %1107 = fn (%p0279: Tensor[(6272, 512), float16] /* ty=Tensor[(6272, 512), float16] */, %p1195: Tensor[(512), float16] /* ty=Tensor[(512), float16] */, %p2112: Tensor[(512, 1, 1), float16] /* ty=Tensor[(512, 1, 1), float16] */, %p356: Tensor[(32, 512, 14, 14), float16] /* ty=Tensor[(32, 512, 14, 14), float16] */, Primitive=1) -> Tensor[(32, 512, 14, 14), float16] {
    %641 = reshape(%p0279, newshape=[32, 14, 14, 512]) /* ty=Tensor[(32, 14, 14, 512), float16] */;
    %642 = add(%p1195, %641) /* ty=Tensor[(32, 14, 14, 512), float16] */;
    %643 = transpose(%642, axes=[0, 3, 1, 2]) /* ty=Tensor[(32, 512, 14, 14), float16] */;
    %644 = multiply(%p2112, %643) /* ty=Tensor[(32, 512, 14, 14), float16] */;
    add(%644, %p356) /* ty=Tensor[(32, 512, 14, 14), float16] */
  } /* ty=fn (Tensor[(6272, 512), float16], Tensor[(512), float16], Tensor[(512, 1, 1), float16], Tensor[(32, 512, 14, 14), float16]) -> Tensor[(32, 512, 14, 14), float16] */;
  %1108 = %1107(%1106, meta[relay.Constant][91] /* ty=Tensor[(512), float16] span=Identity_164:0:0 */, meta[relay.Constant][92] /* ty=Tensor[(512, 1, 1), float16] span=Identity_169:0:0 */, %1086) /* ty=Tensor[(32, 512, 14, 14), float16] */;
  %1109 = fn (%p0278: Tensor[(32, 512, 14, 14), float16] /* ty=Tensor[(32, 512, 14, 14), float16] */, Primitive=1) -> Tensor[(32, 14, 14, 512), float16] {
    layout_transform(%p0278, src_layout="NCHW", dst_layout="NHWC") /* ty=Tensor[(32, 14, 14, 512), float16] */
  } /* ty=fn (Tensor[(32, 512, 14, 14), float16]) -> Tensor[(32, 14, 14, 512), float16] */;
  %1110 = %1109(%1108) /* ty=Tensor[(32, 14, 14, 512), float16] */;
  %1111 = fn (%p0277: Tensor[(32, 14, 14, 512), float16] /* ty=Tensor[(32, 14, 14, 512), float16] */, %p1194: Tensor[(512, 7, 7, 1), float16] /* ty=Tensor[(512, 7, 7, 1), float16] */, %p2111: Tensor[(1, 1, 1, 512), float16] /* ty=Tensor[(1, 1, 1, 512), float16] */, Primitive=1) -> Tensor[(32, 14, 14, 512), float16] {
    %640 = nn.conv2d(%p0277, %p1194, padding=[3, 3, 3, 3], groups=512, channels=512, kernel_size=[7, 7], data_layout="NHWC", kernel_layout="OHWI", out_dtype="float16") /* ty=Tensor[(32, 14, 14, 512), float16] */;
    add(%640, %p2111) /* ty=Tensor[(32, 14, 14, 512), float16] */
  } /* ty=fn (Tensor[(32, 14, 14, 512), float16], Tensor[(512, 7, 7, 1), float16], Tensor[(1, 1, 1, 512), float16]) -> Tensor[(32, 14, 14, 512), float16] */;
  %1112 = %1111(%1110, meta[relay.Constant][93] /* ty=Tensor[(512, 7, 7, 1), float16] */, meta[relay.Constant][94] /* ty=Tensor[(1, 1, 1, 512), float16] */) /* ty=Tensor[(32, 14, 14, 512), float16] */;
  %1113 = fn (%p0276: Tensor[(32, 14, 14, 512), float16] /* ty=Tensor[(32, 14, 14, 512), float16] */, Primitive=1) -> Tensor[(32, 14, 14, 512), float32] {
    %639 = transpose(%p0276, axes=[0, 1, 2, 3]) /* ty=Tensor[(32, 14, 14, 512), float16] */;
    cast(%639, dtype="float32") /* ty=Tensor[(32, 14, 14, 512), float32] */
  } /* ty=fn (Tensor[(32, 14, 14, 512), float16]) -> Tensor[(32, 14, 14, 512), float32] */;
  %1114 = %1113(%1112) /* ty=Tensor[(32, 14, 14, 512), float32] */;
  %1115 = fn (%p0393: Tensor[(32, 14, 14, 512), float32] /* ty=Tensor[(32, 14, 14, 512), float32] */, Primitive=1) -> Tensor[(32, 14, 14, 1), float32] {
    mean(%p0393, axis=[3], keepdims=True) /* ty=Tensor[(32, 14, 14, 1), float32] */
  } /* ty=fn (Tensor[(32, 14, 14, 512), float32]) -> Tensor[(32, 14, 14, 1), float32] */;
  %1116 = %1115(%1114) /* ty=Tensor[(32, 14, 14, 1), float32] */;
  %1117 = fn (%p0275: Tensor[(32, 14, 14, 512), float32] /* ty=Tensor[(32, 14, 14, 512), float32] */, %p1193: Tensor[(32, 14, 14, 1), float32] /* ty=Tensor[(32, 14, 14, 1), float32] */, Primitive=1) -> Tensor[(32, 14, 14, 512), float32] {
    subtract(%p0275, %p1193) /* ty=Tensor[(32, 14, 14, 512), float32] */
  } /* ty=fn (Tensor[(32, 14, 14, 512), float32], Tensor[(32, 14, 14, 1), float32]) -> Tensor[(32, 14, 14, 512), float32] */;
  %1118 = %1117(%1114, %1116) /* ty=Tensor[(32, 14, 14, 512), float32] */;
  %1119 = fn (%p0274: Tensor[(32, 14, 14, 512), float32] /* ty=Tensor[(32, 14, 14, 512), float32] */, Primitive=1) -> Tensor[(32, 14, 14, 1), float32] {
    %638 = power(%p0274, 2f /* ty=float32 */) /* ty=Tensor[(32, 14, 14, 512), float32] */;
    mean(%638, axis=[3], keepdims=True) /* ty=Tensor[(32, 14, 14, 1), float32] */
  } /* ty=fn (Tensor[(32, 14, 14, 512), float32]) -> Tensor[(32, 14, 14, 1), float32] */;
  %1120 = %1119(%1118) /* ty=Tensor[(32, 14, 14, 1), float32] */;
  %1121 = fn (%p0273: Tensor[(32, 14, 14, 1), float32] /* ty=Tensor[(32, 14, 14, 1), float32] */, %p1192: Tensor[(32, 14, 14, 512), float32] /* ty=Tensor[(32, 14, 14, 512), float32] */, %p2110: Tensor[(1, 1, 1, 512), float32] /* ty=Tensor[(1, 1, 1, 512), float32] */, %p355: Tensor[(1, 1, 1, 512), float32] /* ty=Tensor[(1, 1, 1, 512), float32] */, Primitive=1) -> Tensor[(6272, 512), float16] {
    %632 = add(%p0273, 1.01328e-06f /* ty=float32 */) /* ty=Tensor[(32, 14, 14, 1), float32] */;
    %633 = rsqrt(%632) /* ty=Tensor[(32, 14, 14, 1), float32] */;
    %634 = multiply(%p1192, %633) /* ty=Tensor[(32, 14, 14, 512), float32] */;
    %635 = multiply(%634, %p2110) /* ty=Tensor[(32, 14, 14, 512), float32] */;
    %636 = add(%635, %p355) /* ty=Tensor[(32, 14, 14, 512), float32] */;
    %637 = reshape(%636, newshape=[-1, 512]) /* ty=Tensor[(6272, 512), float32] */;
    cast(%637, dtype="float16") /* ty=Tensor[(6272, 512), float16] */
  } /* ty=fn (Tensor[(32, 14, 14, 1), float32], Tensor[(32, 14, 14, 512), float32], Tensor[(1, 1, 1, 512), float32], Tensor[(1, 1, 1, 512), float32]) -> Tensor[(6272, 512), float16] */;
  %1122 = %1121(%1120, %1118, meta[relay.Constant][95] /* ty=Tensor[(1, 1, 1, 512), float32] */, meta[relay.Constant][96] /* ty=Tensor[(1, 1, 1, 512), float32] */) /* ty=Tensor[(6272, 512), float16] */;
  %1123 = fn (%p0272: Tensor[(6272, 512), float16] /* ty=Tensor[(6272, 512), float16] */, %p1191: Tensor[(2048, 512), float16] /* ty=Tensor[(2048, 512), float16] */, Primitive=1) -> Tensor[(6272, 2048), float16] {
    nn.dense(%p0272, %p1191, units=None, out_dtype="float16") /* ty=Tensor[(6272, 2048), float16] */
  } /* ty=fn (Tensor[(6272, 512), float16], Tensor[(2048, 512), float16]) -> Tensor[(6272, 2048), float16] */;
  %1124 = %1123(%1122, meta[relay.Constant][97] /* ty=Tensor[(2048, 512), float16] span=/features/features.5/features.5.3/block/block.3/MatMul:0:0 */) /* ty=Tensor[(6272, 2048), float16] */;
  %1125 = fn (%p0271: Tensor[(6272, 2048), float16] /* ty=Tensor[(6272, 2048), float16] */, %p1190: Tensor[(2048), float16] /* ty=Tensor[(2048), float16] */, %p2109: float16 /* ty=float16 */, Primitive=1) -> Tensor[(6272, 2048), float16] {
    %622 = reshape(%p0271, newshape=[32, 14, 14, 2048]) /* ty=Tensor[(32, 14, 14, 2048), float16] */;
    %623 = add(%p1190, %622) /* ty=Tensor[(32, 14, 14, 2048), float16] */;
    %624 = divide(%623, %p2109) /* ty=Tensor[(32, 14, 14, 2048), float16] */;
    %625 = cast(%624, dtype="float32") /* ty=Tensor[(32, 14, 14, 2048), float32] */;
    %626 = erf(%625) /* ty=Tensor[(32, 14, 14, 2048), float32] */;
    %627 = cast(%623, dtype="float32") /* ty=Tensor[(32, 14, 14, 2048), float32] */;
    %628 = add(%626, 1f /* ty=float32 */) /* ty=Tensor[(32, 14, 14, 2048), float32] */;
    %629 = multiply(%627, %628) /* ty=Tensor[(32, 14, 14, 2048), float32] */;
    %630 = multiply(%629, 0.5f /* ty=float32 */) /* ty=Tensor[(32, 14, 14, 2048), float32] */;
    %631 = reshape(%630, newshape=[-1, 2048]) /* ty=Tensor[(6272, 2048), float32] */;
    cast(%631, dtype="float16") /* ty=Tensor[(6272, 2048), float16] */
  } /* ty=fn (Tensor[(6272, 2048), float16], Tensor[(2048), float16], float16) -> Tensor[(6272, 2048), float16] */;
  %1126 = %1125(%1124, meta[relay.Constant][98] /* ty=Tensor[(2048), float16] span=Identity_159:0:0 */, 1.41406f16 /* ty=float16 span=/features/features.5/features.5.3/block/block.4/Constant:0:0 */) /* ty=Tensor[(6272, 2048), float16] */;
  %1127 = fn (%p0270: Tensor[(6272, 2048), float16] /* ty=Tensor[(6272, 2048), float16] */, %p1189: Tensor[(512, 2048), float16] /* ty=Tensor[(512, 2048), float16] */, Primitive=1) -> Tensor[(6272, 512), float16] {
    nn.dense(%p0270, %p1189, units=None, out_dtype="float16") /* ty=Tensor[(6272, 512), float16] */
  } /* ty=fn (Tensor[(6272, 2048), float16], Tensor[(512, 2048), float16]) -> Tensor[(6272, 512), float16] */;
  %1128 = %1127(%1126, meta[relay.Constant][99] /* ty=Tensor[(512, 2048), float16] span=/features/features.5/features.5.3/block/block.5/MatMul:0:0 */) /* ty=Tensor[(6272, 512), float16] */;
  %1129 = fn (%p0269: Tensor[(6272, 512), float16] /* ty=Tensor[(6272, 512), float16] */, %p1188: Tensor[(512), float16] /* ty=Tensor[(512), float16] */, %p2108: Tensor[(512, 1, 1), float16] /* ty=Tensor[(512, 1, 1), float16] */, %p354: Tensor[(32, 512, 14, 14), float16] /* ty=Tensor[(32, 512, 14, 14), float16] */, Primitive=1) -> Tensor[(32, 512, 14, 14), float16] {
    %618 = reshape(%p0269, newshape=[32, 14, 14, 512]) /* ty=Tensor[(32, 14, 14, 512), float16] */;
    %619 = add(%p1188, %618) /* ty=Tensor[(32, 14, 14, 512), float16] */;
    %620 = transpose(%619, axes=[0, 3, 1, 2]) /* ty=Tensor[(32, 512, 14, 14), float16] */;
    %621 = multiply(%p2108, %620) /* ty=Tensor[(32, 512, 14, 14), float16] */;
    add(%621, %p354) /* ty=Tensor[(32, 512, 14, 14), float16] */
  } /* ty=fn (Tensor[(6272, 512), float16], Tensor[(512), float16], Tensor[(512, 1, 1), float16], Tensor[(32, 512, 14, 14), float16]) -> Tensor[(32, 512, 14, 14), float16] */;
  %1130 = %1129(%1128, meta[relay.Constant][100] /* ty=Tensor[(512), float16] span=Identity_158:0:0 */, meta[relay.Constant][101] /* ty=Tensor[(512, 1, 1), float16] span=Identity_163:0:0 */, %1108) /* ty=Tensor[(32, 512, 14, 14), float16] */;
  %1131 = fn (%p0268: Tensor[(32, 512, 14, 14), float16] /* ty=Tensor[(32, 512, 14, 14), float16] */, Primitive=1) -> Tensor[(32, 14, 14, 512), float16] {
    layout_transform(%p0268, src_layout="NCHW", dst_layout="NHWC") /* ty=Tensor[(32, 14, 14, 512), float16] */
  } /* ty=fn (Tensor[(32, 512, 14, 14), float16]) -> Tensor[(32, 14, 14, 512), float16] */;
  %1132 = %1131(%1130) /* ty=Tensor[(32, 14, 14, 512), float16] */;
  %1133 = fn (%p0267: Tensor[(32, 14, 14, 512), float16] /* ty=Tensor[(32, 14, 14, 512), float16] */, %p1187: Tensor[(512, 7, 7, 1), float16] /* ty=Tensor[(512, 7, 7, 1), float16] */, %p2107: Tensor[(1, 1, 1, 512), float16] /* ty=Tensor[(1, 1, 1, 512), float16] */, Primitive=1) -> Tensor[(32, 14, 14, 512), float16] {
    %617 = nn.conv2d(%p0267, %p1187, padding=[3, 3, 3, 3], groups=512, channels=512, kernel_size=[7, 7], data_layout="NHWC", kernel_layout="OHWI", out_dtype="float16") /* ty=Tensor[(32, 14, 14, 512), float16] */;
    add(%617, %p2107) /* ty=Tensor[(32, 14, 14, 512), float16] */
  } /* ty=fn (Tensor[(32, 14, 14, 512), float16], Tensor[(512, 7, 7, 1), float16], Tensor[(1, 1, 1, 512), float16]) -> Tensor[(32, 14, 14, 512), float16] */;
  %1134 = %1133(%1132, meta[relay.Constant][102] /* ty=Tensor[(512, 7, 7, 1), float16] */, meta[relay.Constant][103] /* ty=Tensor[(1, 1, 1, 512), float16] */) /* ty=Tensor[(32, 14, 14, 512), float16] */;
  %1135 = fn (%p0266: Tensor[(32, 14, 14, 512), float16] /* ty=Tensor[(32, 14, 14, 512), float16] */, Primitive=1) -> Tensor[(32, 14, 14, 512), float32] {
    %616 = transpose(%p0266, axes=[0, 1, 2, 3]) /* ty=Tensor[(32, 14, 14, 512), float16] */;
    cast(%616, dtype="float32") /* ty=Tensor[(32, 14, 14, 512), float32] */
  } /* ty=fn (Tensor[(32, 14, 14, 512), float16]) -> Tensor[(32, 14, 14, 512), float32] */;
  %1136 = %1135(%1134) /* ty=Tensor[(32, 14, 14, 512), float32] */;
  %1137 = fn (%p0394: Tensor[(32, 14, 14, 512), float32] /* ty=Tensor[(32, 14, 14, 512), float32] */, Primitive=1) -> Tensor[(32, 14, 14, 1), float32] {
    mean(%p0394, axis=[3], keepdims=True) /* ty=Tensor[(32, 14, 14, 1), float32] */
  } /* ty=fn (Tensor[(32, 14, 14, 512), float32]) -> Tensor[(32, 14, 14, 1), float32] */;
  %1138 = %1137(%1136) /* ty=Tensor[(32, 14, 14, 1), float32] */;
  %1139 = fn (%p0265: Tensor[(32, 14, 14, 512), float32] /* ty=Tensor[(32, 14, 14, 512), float32] */, %p1186: Tensor[(32, 14, 14, 1), float32] /* ty=Tensor[(32, 14, 14, 1), float32] */, Primitive=1) -> Tensor[(32, 14, 14, 512), float32] {
    subtract(%p0265, %p1186) /* ty=Tensor[(32, 14, 14, 512), float32] */
  } /* ty=fn (Tensor[(32, 14, 14, 512), float32], Tensor[(32, 14, 14, 1), float32]) -> Tensor[(32, 14, 14, 512), float32] */;
  %1140 = %1139(%1136, %1138) /* ty=Tensor[(32, 14, 14, 512), float32] */;
  %1141 = fn (%p0264: Tensor[(32, 14, 14, 512), float32] /* ty=Tensor[(32, 14, 14, 512), float32] */, Primitive=1) -> Tensor[(32, 14, 14, 1), float32] {
    %615 = power(%p0264, 2f /* ty=float32 */) /* ty=Tensor[(32, 14, 14, 512), float32] */;
    mean(%615, axis=[3], keepdims=True) /* ty=Tensor[(32, 14, 14, 1), float32] */
  } /* ty=fn (Tensor[(32, 14, 14, 512), float32]) -> Tensor[(32, 14, 14, 1), float32] */;
  %1142 = %1141(%1140) /* ty=Tensor[(32, 14, 14, 1), float32] */;
  %1143 = fn (%p0263: Tensor[(32, 14, 14, 1), float32] /* ty=Tensor[(32, 14, 14, 1), float32] */, %p1185: Tensor[(32, 14, 14, 512), float32] /* ty=Tensor[(32, 14, 14, 512), float32] */, %p2106: Tensor[(1, 1, 1, 512), float32] /* ty=Tensor[(1, 1, 1, 512), float32] */, %p353: Tensor[(1, 1, 1, 512), float32] /* ty=Tensor[(1, 1, 1, 512), float32] */, Primitive=1) -> Tensor[(6272, 512), float16] {
    %609 = add(%p0263, 1.01328e-06f /* ty=float32 */) /* ty=Tensor[(32, 14, 14, 1), float32] */;
    %610 = rsqrt(%609) /* ty=Tensor[(32, 14, 14, 1), float32] */;
    %611 = multiply(%p1185, %610) /* ty=Tensor[(32, 14, 14, 512), float32] */;
    %612 = multiply(%611, %p2106) /* ty=Tensor[(32, 14, 14, 512), float32] */;
    %613 = add(%612, %p353) /* ty=Tensor[(32, 14, 14, 512), float32] */;
    %614 = reshape(%613, newshape=[-1, 512]) /* ty=Tensor[(6272, 512), float32] */;
    cast(%614, dtype="float16") /* ty=Tensor[(6272, 512), float16] */
  } /* ty=fn (Tensor[(32, 14, 14, 1), float32], Tensor[(32, 14, 14, 512), float32], Tensor[(1, 1, 1, 512), float32], Tensor[(1, 1, 1, 512), float32]) -> Tensor[(6272, 512), float16] */;
  %1144 = %1143(%1142, %1140, meta[relay.Constant][104] /* ty=Tensor[(1, 1, 1, 512), float32] */, meta[relay.Constant][105] /* ty=Tensor[(1, 1, 1, 512), float32] */) /* ty=Tensor[(6272, 512), float16] */;
  %1145 = fn (%p0262: Tensor[(6272, 512), float16] /* ty=Tensor[(6272, 512), float16] */, %p1184: Tensor[(2048, 512), float16] /* ty=Tensor[(2048, 512), float16] */, Primitive=1) -> Tensor[(6272, 2048), float16] {
    nn.dense(%p0262, %p1184, units=None, out_dtype="float16") /* ty=Tensor[(6272, 2048), float16] */
  } /* ty=fn (Tensor[(6272, 512), float16], Tensor[(2048, 512), float16]) -> Tensor[(6272, 2048), float16] */;
  %1146 = %1145(%1144, meta[relay.Constant][106] /* ty=Tensor[(2048, 512), float16] span=/features/features.5/features.5.4/block/block.3/MatMul:0:0 */) /* ty=Tensor[(6272, 2048), float16] */;
  %1147 = fn (%p0261: Tensor[(6272, 2048), float16] /* ty=Tensor[(6272, 2048), float16] */, %p1183: Tensor[(2048), float16] /* ty=Tensor[(2048), float16] */, %p2105: float16 /* ty=float16 */, Primitive=1) -> Tensor[(6272, 2048), float16] {
    %599 = reshape(%p0261, newshape=[32, 14, 14, 2048]) /* ty=Tensor[(32, 14, 14, 2048), float16] */;
    %600 = add(%p1183, %599) /* ty=Tensor[(32, 14, 14, 2048), float16] */;
    %601 = divide(%600, %p2105) /* ty=Tensor[(32, 14, 14, 2048), float16] */;
    %602 = cast(%601, dtype="float32") /* ty=Tensor[(32, 14, 14, 2048), float32] */;
    %603 = erf(%602) /* ty=Tensor[(32, 14, 14, 2048), float32] */;
    %604 = cast(%600, dtype="float32") /* ty=Tensor[(32, 14, 14, 2048), float32] */;
    %605 = add(%603, 1f /* ty=float32 */) /* ty=Tensor[(32, 14, 14, 2048), float32] */;
    %606 = multiply(%604, %605) /* ty=Tensor[(32, 14, 14, 2048), float32] */;
    %607 = multiply(%606, 0.5f /* ty=float32 */) /* ty=Tensor[(32, 14, 14, 2048), float32] */;
    %608 = reshape(%607, newshape=[-1, 2048]) /* ty=Tensor[(6272, 2048), float32] */;
    cast(%608, dtype="float16") /* ty=Tensor[(6272, 2048), float16] */
  } /* ty=fn (Tensor[(6272, 2048), float16], Tensor[(2048), float16], float16) -> Tensor[(6272, 2048), float16] */;
  %1148 = %1147(%1146, meta[relay.Constant][107] /* ty=Tensor[(2048), float16] span=Identity_153:0:0 */, 1.41406f16 /* ty=float16 span=/features/features.5/features.5.4/block/block.4/Constant:0:0 */) /* ty=Tensor[(6272, 2048), float16] */;
  %1149 = fn (%p0260: Tensor[(6272, 2048), float16] /* ty=Tensor[(6272, 2048), float16] */, %p1182: Tensor[(512, 2048), float16] /* ty=Tensor[(512, 2048), float16] */, Primitive=1) -> Tensor[(6272, 512), float16] {
    nn.dense(%p0260, %p1182, units=None, out_dtype="float16") /* ty=Tensor[(6272, 512), float16] */
  } /* ty=fn (Tensor[(6272, 2048), float16], Tensor[(512, 2048), float16]) -> Tensor[(6272, 512), float16] */;
  %1150 = %1149(%1148, meta[relay.Constant][108] /* ty=Tensor[(512, 2048), float16] span=/features/features.5/features.5.4/block/block.5/MatMul:0:0 */) /* ty=Tensor[(6272, 512), float16] */;
  %1151 = fn (%p0259: Tensor[(6272, 512), float16] /* ty=Tensor[(6272, 512), float16] */, %p1181: Tensor[(512), float16] /* ty=Tensor[(512), float16] */, %p2104: Tensor[(512, 1, 1), float16] /* ty=Tensor[(512, 1, 1), float16] */, %p352: Tensor[(32, 512, 14, 14), float16] /* ty=Tensor[(32, 512, 14, 14), float16] */, Primitive=1) -> Tensor[(32, 512, 14, 14), float16] {
    %595 = reshape(%p0259, newshape=[32, 14, 14, 512]) /* ty=Tensor[(32, 14, 14, 512), float16] */;
    %596 = add(%p1181, %595) /* ty=Tensor[(32, 14, 14, 512), float16] */;
    %597 = transpose(%596, axes=[0, 3, 1, 2]) /* ty=Tensor[(32, 512, 14, 14), float16] */;
    %598 = multiply(%p2104, %597) /* ty=Tensor[(32, 512, 14, 14), float16] */;
    add(%598, %p352) /* ty=Tensor[(32, 512, 14, 14), float16] */
  } /* ty=fn (Tensor[(6272, 512), float16], Tensor[(512), float16], Tensor[(512, 1, 1), float16], Tensor[(32, 512, 14, 14), float16]) -> Tensor[(32, 512, 14, 14), float16] */;
  %1152 = %1151(%1150, meta[relay.Constant][109] /* ty=Tensor[(512), float16] span=Identity_152:0:0 */, meta[relay.Constant][110] /* ty=Tensor[(512, 1, 1), float16] span=Identity_157:0:0 */, %1130) /* ty=Tensor[(32, 512, 14, 14), float16] */;
  %1153 = fn (%p0258: Tensor[(32, 512, 14, 14), float16] /* ty=Tensor[(32, 512, 14, 14), float16] */, Primitive=1) -> Tensor[(32, 14, 14, 512), float16] {
    layout_transform(%p0258, src_layout="NCHW", dst_layout="NHWC") /* ty=Tensor[(32, 14, 14, 512), float16] */
  } /* ty=fn (Tensor[(32, 512, 14, 14), float16]) -> Tensor[(32, 14, 14, 512), float16] */;
  %1154 = %1153(%1152) /* ty=Tensor[(32, 14, 14, 512), float16] */;
  %1155 = fn (%p0257: Tensor[(32, 14, 14, 512), float16] /* ty=Tensor[(32, 14, 14, 512), float16] */, %p1180: Tensor[(512, 7, 7, 1), float16] /* ty=Tensor[(512, 7, 7, 1), float16] */, %p2103: Tensor[(1, 1, 1, 512), float16] /* ty=Tensor[(1, 1, 1, 512), float16] */, Primitive=1) -> Tensor[(32, 14, 14, 512), float16] {
    %594 = nn.conv2d(%p0257, %p1180, padding=[3, 3, 3, 3], groups=512, channels=512, kernel_size=[7, 7], data_layout="NHWC", kernel_layout="OHWI", out_dtype="float16") /* ty=Tensor[(32, 14, 14, 512), float16] */;
    add(%594, %p2103) /* ty=Tensor[(32, 14, 14, 512), float16] */
  } /* ty=fn (Tensor[(32, 14, 14, 512), float16], Tensor[(512, 7, 7, 1), float16], Tensor[(1, 1, 1, 512), float16]) -> Tensor[(32, 14, 14, 512), float16] */;
  %1156 = %1155(%1154, meta[relay.Constant][111] /* ty=Tensor[(512, 7, 7, 1), float16] */, meta[relay.Constant][112] /* ty=Tensor[(1, 1, 1, 512), float16] */) /* ty=Tensor[(32, 14, 14, 512), float16] */;
  %1157 = fn (%p0256: Tensor[(32, 14, 14, 512), float16] /* ty=Tensor[(32, 14, 14, 512), float16] */, Primitive=1) -> Tensor[(32, 14, 14, 512), float32] {
    %593 = transpose(%p0256, axes=[0, 1, 2, 3]) /* ty=Tensor[(32, 14, 14, 512), float16] */;
    cast(%593, dtype="float32") /* ty=Tensor[(32, 14, 14, 512), float32] */
  } /* ty=fn (Tensor[(32, 14, 14, 512), float16]) -> Tensor[(32, 14, 14, 512), float32] */;
  %1158 = %1157(%1156) /* ty=Tensor[(32, 14, 14, 512), float32] */;
  %1159 = fn (%p0395: Tensor[(32, 14, 14, 512), float32] /* ty=Tensor[(32, 14, 14, 512), float32] */, Primitive=1) -> Tensor[(32, 14, 14, 1), float32] {
    mean(%p0395, axis=[3], keepdims=True) /* ty=Tensor[(32, 14, 14, 1), float32] */
  } /* ty=fn (Tensor[(32, 14, 14, 512), float32]) -> Tensor[(32, 14, 14, 1), float32] */;
  %1160 = %1159(%1158) /* ty=Tensor[(32, 14, 14, 1), float32] */;
  %1161 = fn (%p0255: Tensor[(32, 14, 14, 512), float32] /* ty=Tensor[(32, 14, 14, 512), float32] */, %p1179: Tensor[(32, 14, 14, 1), float32] /* ty=Tensor[(32, 14, 14, 1), float32] */, Primitive=1) -> Tensor[(32, 14, 14, 512), float32] {
    subtract(%p0255, %p1179) /* ty=Tensor[(32, 14, 14, 512), float32] */
  } /* ty=fn (Tensor[(32, 14, 14, 512), float32], Tensor[(32, 14, 14, 1), float32]) -> Tensor[(32, 14, 14, 512), float32] */;
  %1162 = %1161(%1158, %1160) /* ty=Tensor[(32, 14, 14, 512), float32] */;
  %1163 = fn (%p0254: Tensor[(32, 14, 14, 512), float32] /* ty=Tensor[(32, 14, 14, 512), float32] */, Primitive=1) -> Tensor[(32, 14, 14, 1), float32] {
    %592 = power(%p0254, 2f /* ty=float32 */) /* ty=Tensor[(32, 14, 14, 512), float32] */;
    mean(%592, axis=[3], keepdims=True) /* ty=Tensor[(32, 14, 14, 1), float32] */
  } /* ty=fn (Tensor[(32, 14, 14, 512), float32]) -> Tensor[(32, 14, 14, 1), float32] */;
  %1164 = %1163(%1162) /* ty=Tensor[(32, 14, 14, 1), float32] */;
  %1165 = fn (%p0253: Tensor[(32, 14, 14, 1), float32] /* ty=Tensor[(32, 14, 14, 1), float32] */, %p1178: Tensor[(32, 14, 14, 512), float32] /* ty=Tensor[(32, 14, 14, 512), float32] */, %p2102: Tensor[(1, 1, 1, 512), float32] /* ty=Tensor[(1, 1, 1, 512), float32] */, %p351: Tensor[(1, 1, 1, 512), float32] /* ty=Tensor[(1, 1, 1, 512), float32] */, Primitive=1) -> Tensor[(6272, 512), float16] {
    %586 = add(%p0253, 1.01328e-06f /* ty=float32 */) /* ty=Tensor[(32, 14, 14, 1), float32] */;
    %587 = rsqrt(%586) /* ty=Tensor[(32, 14, 14, 1), float32] */;
    %588 = multiply(%p1178, %587) /* ty=Tensor[(32, 14, 14, 512), float32] */;
    %589 = multiply(%588, %p2102) /* ty=Tensor[(32, 14, 14, 512), float32] */;
    %590 = add(%589, %p351) /* ty=Tensor[(32, 14, 14, 512), float32] */;
    %591 = reshape(%590, newshape=[-1, 512]) /* ty=Tensor[(6272, 512), float32] */;
    cast(%591, dtype="float16") /* ty=Tensor[(6272, 512), float16] */
  } /* ty=fn (Tensor[(32, 14, 14, 1), float32], Tensor[(32, 14, 14, 512), float32], Tensor[(1, 1, 1, 512), float32], Tensor[(1, 1, 1, 512), float32]) -> Tensor[(6272, 512), float16] */;
  %1166 = %1165(%1164, %1162, meta[relay.Constant][113] /* ty=Tensor[(1, 1, 1, 512), float32] */, meta[relay.Constant][114] /* ty=Tensor[(1, 1, 1, 512), float32] */) /* ty=Tensor[(6272, 512), float16] */;
  %1167 = fn (%p0252: Tensor[(6272, 512), float16] /* ty=Tensor[(6272, 512), float16] */, %p1177: Tensor[(2048, 512), float16] /* ty=Tensor[(2048, 512), float16] */, Primitive=1) -> Tensor[(6272, 2048), float16] {
    nn.dense(%p0252, %p1177, units=None, out_dtype="float16") /* ty=Tensor[(6272, 2048), float16] */
  } /* ty=fn (Tensor[(6272, 512), float16], Tensor[(2048, 512), float16]) -> Tensor[(6272, 2048), float16] */;
  %1168 = %1167(%1166, meta[relay.Constant][115] /* ty=Tensor[(2048, 512), float16] span=/features/features.5/features.5.5/block/block.3/MatMul:0:0 */) /* ty=Tensor[(6272, 2048), float16] */;
  %1169 = fn (%p0251: Tensor[(6272, 2048), float16] /* ty=Tensor[(6272, 2048), float16] */, %p1176: Tensor[(2048), float16] /* ty=Tensor[(2048), float16] */, %p2101: float16 /* ty=float16 */, Primitive=1) -> Tensor[(6272, 2048), float16] {
    %576 = reshape(%p0251, newshape=[32, 14, 14, 2048]) /* ty=Tensor[(32, 14, 14, 2048), float16] */;
    %577 = add(%p1176, %576) /* ty=Tensor[(32, 14, 14, 2048), float16] */;
    %578 = divide(%577, %p2101) /* ty=Tensor[(32, 14, 14, 2048), float16] */;
    %579 = cast(%578, dtype="float32") /* ty=Tensor[(32, 14, 14, 2048), float32] */;
    %580 = erf(%579) /* ty=Tensor[(32, 14, 14, 2048), float32] */;
    %581 = cast(%577, dtype="float32") /* ty=Tensor[(32, 14, 14, 2048), float32] */;
    %582 = add(%580, 1f /* ty=float32 */) /* ty=Tensor[(32, 14, 14, 2048), float32] */;
    %583 = multiply(%581, %582) /* ty=Tensor[(32, 14, 14, 2048), float32] */;
    %584 = multiply(%583, 0.5f /* ty=float32 */) /* ty=Tensor[(32, 14, 14, 2048), float32] */;
    %585 = reshape(%584, newshape=[-1, 2048]) /* ty=Tensor[(6272, 2048), float32] */;
    cast(%585, dtype="float16") /* ty=Tensor[(6272, 2048), float16] */
  } /* ty=fn (Tensor[(6272, 2048), float16], Tensor[(2048), float16], float16) -> Tensor[(6272, 2048), float16] */;
  %1170 = %1169(%1168, meta[relay.Constant][116] /* ty=Tensor[(2048), float16] span=Identity_147:0:0 */, 1.41406f16 /* ty=float16 span=/features/features.5/features.5.5/block/block.4/Constant:0:0 */) /* ty=Tensor[(6272, 2048), float16] */;
  %1171 = fn (%p0250: Tensor[(6272, 2048), float16] /* ty=Tensor[(6272, 2048), float16] */, %p1175: Tensor[(512, 2048), float16] /* ty=Tensor[(512, 2048), float16] */, Primitive=1) -> Tensor[(6272, 512), float16] {
    nn.dense(%p0250, %p1175, units=None, out_dtype="float16") /* ty=Tensor[(6272, 512), float16] */
  } /* ty=fn (Tensor[(6272, 2048), float16], Tensor[(512, 2048), float16]) -> Tensor[(6272, 512), float16] */;
  %1172 = %1171(%1170, meta[relay.Constant][117] /* ty=Tensor[(512, 2048), float16] span=/features/features.5/features.5.5/block/block.5/MatMul:0:0 */) /* ty=Tensor[(6272, 512), float16] */;
  %1173 = fn (%p0249: Tensor[(6272, 512), float16] /* ty=Tensor[(6272, 512), float16] */, %p1174: Tensor[(512), float16] /* ty=Tensor[(512), float16] */, %p2100: Tensor[(512, 1, 1), float16] /* ty=Tensor[(512, 1, 1), float16] */, %p350: Tensor[(32, 512, 14, 14), float16] /* ty=Tensor[(32, 512, 14, 14), float16] */, Primitive=1) -> Tensor[(32, 512, 14, 14), float16] {
    %572 = reshape(%p0249, newshape=[32, 14, 14, 512]) /* ty=Tensor[(32, 14, 14, 512), float16] */;
    %573 = add(%p1174, %572) /* ty=Tensor[(32, 14, 14, 512), float16] */;
    %574 = transpose(%573, axes=[0, 3, 1, 2]) /* ty=Tensor[(32, 512, 14, 14), float16] */;
    %575 = multiply(%p2100, %574) /* ty=Tensor[(32, 512, 14, 14), float16] */;
    add(%575, %p350) /* ty=Tensor[(32, 512, 14, 14), float16] */
  } /* ty=fn (Tensor[(6272, 512), float16], Tensor[(512), float16], Tensor[(512, 1, 1), float16], Tensor[(32, 512, 14, 14), float16]) -> Tensor[(32, 512, 14, 14), float16] */;
  %1174 = %1173(%1172, meta[relay.Constant][118] /* ty=Tensor[(512), float16] span=Identity_146:0:0 */, meta[relay.Constant][119] /* ty=Tensor[(512, 1, 1), float16] span=Identity_151:0:0 */, %1152) /* ty=Tensor[(32, 512, 14, 14), float16] */;
  %1175 = fn (%p0248: Tensor[(32, 512, 14, 14), float16] /* ty=Tensor[(32, 512, 14, 14), float16] */, Primitive=1) -> Tensor[(32, 14, 14, 512), float16] {
    layout_transform(%p0248, src_layout="NCHW", dst_layout="NHWC") /* ty=Tensor[(32, 14, 14, 512), float16] */
  } /* ty=fn (Tensor[(32, 512, 14, 14), float16]) -> Tensor[(32, 14, 14, 512), float16] */;
  %1176 = %1175(%1174) /* ty=Tensor[(32, 14, 14, 512), float16] */;
  %1177 = fn (%p0247: Tensor[(32, 14, 14, 512), float16] /* ty=Tensor[(32, 14, 14, 512), float16] */, %p1173: Tensor[(512, 7, 7, 1), float16] /* ty=Tensor[(512, 7, 7, 1), float16] */, %p299: Tensor[(1, 1, 1, 512), float16] /* ty=Tensor[(1, 1, 1, 512), float16] */, Primitive=1) -> Tensor[(32, 14, 14, 512), float16] {
    %571 = nn.conv2d(%p0247, %p1173, padding=[3, 3, 3, 3], groups=512, channels=512, kernel_size=[7, 7], data_layout="NHWC", kernel_layout="OHWI", out_dtype="float16") /* ty=Tensor[(32, 14, 14, 512), float16] */;
    add(%571, %p299) /* ty=Tensor[(32, 14, 14, 512), float16] */
  } /* ty=fn (Tensor[(32, 14, 14, 512), float16], Tensor[(512, 7, 7, 1), float16], Tensor[(1, 1, 1, 512), float16]) -> Tensor[(32, 14, 14, 512), float16] */;
  %1178 = %1177(%1176, meta[relay.Constant][120] /* ty=Tensor[(512, 7, 7, 1), float16] */, meta[relay.Constant][121] /* ty=Tensor[(1, 1, 1, 512), float16] */) /* ty=Tensor[(32, 14, 14, 512), float16] */;
  %1179 = fn (%p0246: Tensor[(32, 14, 14, 512), float16] /* ty=Tensor[(32, 14, 14, 512), float16] */, Primitive=1) -> Tensor[(32, 14, 14, 512), float32] {
    %570 = transpose(%p0246, axes=[0, 1, 2, 3]) /* ty=Tensor[(32, 14, 14, 512), float16] */;
    cast(%570, dtype="float32") /* ty=Tensor[(32, 14, 14, 512), float32] */
  } /* ty=fn (Tensor[(32, 14, 14, 512), float16]) -> Tensor[(32, 14, 14, 512), float32] */;
  %1180 = %1179(%1178) /* ty=Tensor[(32, 14, 14, 512), float32] */;
  %1181 = fn (%p0396: Tensor[(32, 14, 14, 512), float32] /* ty=Tensor[(32, 14, 14, 512), float32] */, Primitive=1) -> Tensor[(32, 14, 14, 1), float32] {
    mean(%p0396, axis=[3], keepdims=True) /* ty=Tensor[(32, 14, 14, 1), float32] */
  } /* ty=fn (Tensor[(32, 14, 14, 512), float32]) -> Tensor[(32, 14, 14, 1), float32] */;
  %1182 = %1181(%1180) /* ty=Tensor[(32, 14, 14, 1), float32] */;
  %1183 = fn (%p0245: Tensor[(32, 14, 14, 512), float32] /* ty=Tensor[(32, 14, 14, 512), float32] */, %p1172: Tensor[(32, 14, 14, 1), float32] /* ty=Tensor[(32, 14, 14, 1), float32] */, Primitive=1) -> Tensor[(32, 14, 14, 512), float32] {
    subtract(%p0245, %p1172) /* ty=Tensor[(32, 14, 14, 512), float32] */
  } /* ty=fn (Tensor[(32, 14, 14, 512), float32], Tensor[(32, 14, 14, 1), float32]) -> Tensor[(32, 14, 14, 512), float32] */;
  %1184 = %1183(%1180, %1182) /* ty=Tensor[(32, 14, 14, 512), float32] */;
  %1185 = fn (%p0244: Tensor[(32, 14, 14, 512), float32] /* ty=Tensor[(32, 14, 14, 512), float32] */, Primitive=1) -> Tensor[(32, 14, 14, 1), float32] {
    %569 = power(%p0244, 2f /* ty=float32 */) /* ty=Tensor[(32, 14, 14, 512), float32] */;
    mean(%569, axis=[3], keepdims=True) /* ty=Tensor[(32, 14, 14, 1), float32] */
  } /* ty=fn (Tensor[(32, 14, 14, 512), float32]) -> Tensor[(32, 14, 14, 1), float32] */;
  %1186 = %1185(%1184) /* ty=Tensor[(32, 14, 14, 1), float32] */;
  %1187 = fn (%p0243: Tensor[(32, 14, 14, 1), float32] /* ty=Tensor[(32, 14, 14, 1), float32] */, %p1171: Tensor[(32, 14, 14, 512), float32] /* ty=Tensor[(32, 14, 14, 512), float32] */, %p298: Tensor[(1, 1, 1, 512), float32] /* ty=Tensor[(1, 1, 1, 512), float32] */, %p349: Tensor[(1, 1, 1, 512), float32] /* ty=Tensor[(1, 1, 1, 512), float32] */, Primitive=1) -> Tensor[(6272, 512), float16] {
    %563 = add(%p0243, 1.01328e-06f /* ty=float32 */) /* ty=Tensor[(32, 14, 14, 1), float32] */;
    %564 = rsqrt(%563) /* ty=Tensor[(32, 14, 14, 1), float32] */;
    %565 = multiply(%p1171, %564) /* ty=Tensor[(32, 14, 14, 512), float32] */;
    %566 = multiply(%565, %p298) /* ty=Tensor[(32, 14, 14, 512), float32] */;
    %567 = add(%566, %p349) /* ty=Tensor[(32, 14, 14, 512), float32] */;
    %568 = reshape(%567, newshape=[-1, 512]) /* ty=Tensor[(6272, 512), float32] */;
    cast(%568, dtype="float16") /* ty=Tensor[(6272, 512), float16] */
  } /* ty=fn (Tensor[(32, 14, 14, 1), float32], Tensor[(32, 14, 14, 512), float32], Tensor[(1, 1, 1, 512), float32], Tensor[(1, 1, 1, 512), float32]) -> Tensor[(6272, 512), float16] */;
  %1188 = %1187(%1186, %1184, meta[relay.Constant][122] /* ty=Tensor[(1, 1, 1, 512), float32] */, meta[relay.Constant][123] /* ty=Tensor[(1, 1, 1, 512), float32] */) /* ty=Tensor[(6272, 512), float16] */;
  %1189 = fn (%p0242: Tensor[(6272, 512), float16] /* ty=Tensor[(6272, 512), float16] */, %p1170: Tensor[(2048, 512), float16] /* ty=Tensor[(2048, 512), float16] */, Primitive=1) -> Tensor[(6272, 2048), float16] {
    nn.dense(%p0242, %p1170, units=None, out_dtype="float16") /* ty=Tensor[(6272, 2048), float16] */
  } /* ty=fn (Tensor[(6272, 512), float16], Tensor[(2048, 512), float16]) -> Tensor[(6272, 2048), float16] */;
  %1190 = %1189(%1188, meta[relay.Constant][124] /* ty=Tensor[(2048, 512), float16] span=/features/features.5/features.5.6/block/block.3/MatMul:0:0 */) /* ty=Tensor[(6272, 2048), float16] */;
  %1191 = fn (%p0241: Tensor[(6272, 2048), float16] /* ty=Tensor[(6272, 2048), float16] */, %p1169: Tensor[(2048), float16] /* ty=Tensor[(2048), float16] */, %p297: float16 /* ty=float16 */, Primitive=1) -> Tensor[(6272, 2048), float16] {
    %553 = reshape(%p0241, newshape=[32, 14, 14, 2048]) /* ty=Tensor[(32, 14, 14, 2048), float16] */;
    %554 = add(%p1169, %553) /* ty=Tensor[(32, 14, 14, 2048), float16] */;
    %555 = divide(%554, %p297) /* ty=Tensor[(32, 14, 14, 2048), float16] */;
    %556 = cast(%555, dtype="float32") /* ty=Tensor[(32, 14, 14, 2048), float32] */;
    %557 = erf(%556) /* ty=Tensor[(32, 14, 14, 2048), float32] */;
    %558 = cast(%554, dtype="float32") /* ty=Tensor[(32, 14, 14, 2048), float32] */;
    %559 = add(%557, 1f /* ty=float32 */) /* ty=Tensor[(32, 14, 14, 2048), float32] */;
    %560 = multiply(%558, %559) /* ty=Tensor[(32, 14, 14, 2048), float32] */;
    %561 = multiply(%560, 0.5f /* ty=float32 */) /* ty=Tensor[(32, 14, 14, 2048), float32] */;
    %562 = reshape(%561, newshape=[-1, 2048]) /* ty=Tensor[(6272, 2048), float32] */;
    cast(%562, dtype="float16") /* ty=Tensor[(6272, 2048), float16] */
  } /* ty=fn (Tensor[(6272, 2048), float16], Tensor[(2048), float16], float16) -> Tensor[(6272, 2048), float16] */;
  %1192 = %1191(%1190, meta[relay.Constant][125] /* ty=Tensor[(2048), float16] span=Identity_141:0:0 */, 1.41406f16 /* ty=float16 span=/features/features.5/features.5.6/block/block.4/Constant:0:0 */) /* ty=Tensor[(6272, 2048), float16] */;
  %1193 = fn (%p0240: Tensor[(6272, 2048), float16] /* ty=Tensor[(6272, 2048), float16] */, %p1168: Tensor[(512, 2048), float16] /* ty=Tensor[(512, 2048), float16] */, Primitive=1) -> Tensor[(6272, 512), float16] {
    nn.dense(%p0240, %p1168, units=None, out_dtype="float16") /* ty=Tensor[(6272, 512), float16] */
  } /* ty=fn (Tensor[(6272, 2048), float16], Tensor[(512, 2048), float16]) -> Tensor[(6272, 512), float16] */;
  %1194 = %1193(%1192, meta[relay.Constant][126] /* ty=Tensor[(512, 2048), float16] span=/features/features.5/features.5.6/block/block.5/MatMul:0:0 */) /* ty=Tensor[(6272, 512), float16] */;
  %1195 = fn (%p0239: Tensor[(6272, 512), float16] /* ty=Tensor[(6272, 512), float16] */, %p1167: Tensor[(512), float16] /* ty=Tensor[(512), float16] */, %p296: Tensor[(512, 1, 1), float16] /* ty=Tensor[(512, 1, 1), float16] */, %p348: Tensor[(32, 512, 14, 14), float16] /* ty=Tensor[(32, 512, 14, 14), float16] */, Primitive=1) -> Tensor[(32, 512, 14, 14), float16] {
    %549 = reshape(%p0239, newshape=[32, 14, 14, 512]) /* ty=Tensor[(32, 14, 14, 512), float16] */;
    %550 = add(%p1167, %549) /* ty=Tensor[(32, 14, 14, 512), float16] */;
    %551 = transpose(%550, axes=[0, 3, 1, 2]) /* ty=Tensor[(32, 512, 14, 14), float16] */;
    %552 = multiply(%p296, %551) /* ty=Tensor[(32, 512, 14, 14), float16] */;
    add(%552, %p348) /* ty=Tensor[(32, 512, 14, 14), float16] */
  } /* ty=fn (Tensor[(6272, 512), float16], Tensor[(512), float16], Tensor[(512, 1, 1), float16], Tensor[(32, 512, 14, 14), float16]) -> Tensor[(32, 512, 14, 14), float16] */;
  %1196 = %1195(%1194, meta[relay.Constant][127] /* ty=Tensor[(512), float16] span=Identity_140:0:0 */, meta[relay.Constant][128] /* ty=Tensor[(512, 1, 1), float16] span=Identity_145:0:0 */, %1174) /* ty=Tensor[(32, 512, 14, 14), float16] */;
  %1197 = fn (%p0238: Tensor[(32, 512, 14, 14), float16] /* ty=Tensor[(32, 512, 14, 14), float16] */, Primitive=1) -> Tensor[(32, 14, 14, 512), float16] {
    layout_transform(%p0238, src_layout="NCHW", dst_layout="NHWC") /* ty=Tensor[(32, 14, 14, 512), float16] */
  } /* ty=fn (Tensor[(32, 512, 14, 14), float16]) -> Tensor[(32, 14, 14, 512), float16] */;
  %1198 = %1197(%1196) /* ty=Tensor[(32, 14, 14, 512), float16] */;
  %1199 = fn (%p0237: Tensor[(32, 14, 14, 512), float16] /* ty=Tensor[(32, 14, 14, 512), float16] */, %p1166: Tensor[(512, 7, 7, 1), float16] /* ty=Tensor[(512, 7, 7, 1), float16] */, %p295: Tensor[(1, 1, 1, 512), float16] /* ty=Tensor[(1, 1, 1, 512), float16] */, Primitive=1) -> Tensor[(32, 14, 14, 512), float16] {
    %548 = nn.conv2d(%p0237, %p1166, padding=[3, 3, 3, 3], groups=512, channels=512, kernel_size=[7, 7], data_layout="NHWC", kernel_layout="OHWI", out_dtype="float16") /* ty=Tensor[(32, 14, 14, 512), float16] */;
    add(%548, %p295) /* ty=Tensor[(32, 14, 14, 512), float16] */
  } /* ty=fn (Tensor[(32, 14, 14, 512), float16], Tensor[(512, 7, 7, 1), float16], Tensor[(1, 1, 1, 512), float16]) -> Tensor[(32, 14, 14, 512), float16] */;
  %1200 = %1199(%1198, meta[relay.Constant][129] /* ty=Tensor[(512, 7, 7, 1), float16] */, meta[relay.Constant][130] /* ty=Tensor[(1, 1, 1, 512), float16] */) /* ty=Tensor[(32, 14, 14, 512), float16] */;
  %1201 = fn (%p0236: Tensor[(32, 14, 14, 512), float16] /* ty=Tensor[(32, 14, 14, 512), float16] */, Primitive=1) -> Tensor[(32, 14, 14, 512), float32] {
    %547 = transpose(%p0236, axes=[0, 1, 2, 3]) /* ty=Tensor[(32, 14, 14, 512), float16] */;
    cast(%547, dtype="float32") /* ty=Tensor[(32, 14, 14, 512), float32] */
  } /* ty=fn (Tensor[(32, 14, 14, 512), float16]) -> Tensor[(32, 14, 14, 512), float32] */;
  %1202 = %1201(%1200) /* ty=Tensor[(32, 14, 14, 512), float32] */;
  %1203 = fn (%p0397: Tensor[(32, 14, 14, 512), float32] /* ty=Tensor[(32, 14, 14, 512), float32] */, Primitive=1) -> Tensor[(32, 14, 14, 1), float32] {
    mean(%p0397, axis=[3], keepdims=True) /* ty=Tensor[(32, 14, 14, 1), float32] */
  } /* ty=fn (Tensor[(32, 14, 14, 512), float32]) -> Tensor[(32, 14, 14, 1), float32] */;
  %1204 = %1203(%1202) /* ty=Tensor[(32, 14, 14, 1), float32] */;
  %1205 = fn (%p0235: Tensor[(32, 14, 14, 512), float32] /* ty=Tensor[(32, 14, 14, 512), float32] */, %p1165: Tensor[(32, 14, 14, 1), float32] /* ty=Tensor[(32, 14, 14, 1), float32] */, Primitive=1) -> Tensor[(32, 14, 14, 512), float32] {
    subtract(%p0235, %p1165) /* ty=Tensor[(32, 14, 14, 512), float32] */
  } /* ty=fn (Tensor[(32, 14, 14, 512), float32], Tensor[(32, 14, 14, 1), float32]) -> Tensor[(32, 14, 14, 512), float32] */;
  %1206 = %1205(%1202, %1204) /* ty=Tensor[(32, 14, 14, 512), float32] */;
  %1207 = fn (%p0234: Tensor[(32, 14, 14, 512), float32] /* ty=Tensor[(32, 14, 14, 512), float32] */, Primitive=1) -> Tensor[(32, 14, 14, 1), float32] {
    %546 = power(%p0234, 2f /* ty=float32 */) /* ty=Tensor[(32, 14, 14, 512), float32] */;
    mean(%546, axis=[3], keepdims=True) /* ty=Tensor[(32, 14, 14, 1), float32] */
  } /* ty=fn (Tensor[(32, 14, 14, 512), float32]) -> Tensor[(32, 14, 14, 1), float32] */;
  %1208 = %1207(%1206) /* ty=Tensor[(32, 14, 14, 1), float32] */;
  %1209 = fn (%p0233: Tensor[(32, 14, 14, 1), float32] /* ty=Tensor[(32, 14, 14, 1), float32] */, %p1164: Tensor[(32, 14, 14, 512), float32] /* ty=Tensor[(32, 14, 14, 512), float32] */, %p294: Tensor[(1, 1, 1, 512), float32] /* ty=Tensor[(1, 1, 1, 512), float32] */, %p347: Tensor[(1, 1, 1, 512), float32] /* ty=Tensor[(1, 1, 1, 512), float32] */, Primitive=1) -> Tensor[(6272, 512), float16] {
    %540 = add(%p0233, 1.01328e-06f /* ty=float32 */) /* ty=Tensor[(32, 14, 14, 1), float32] */;
    %541 = rsqrt(%540) /* ty=Tensor[(32, 14, 14, 1), float32] */;
    %542 = multiply(%p1164, %541) /* ty=Tensor[(32, 14, 14, 512), float32] */;
    %543 = multiply(%542, %p294) /* ty=Tensor[(32, 14, 14, 512), float32] */;
    %544 = add(%543, %p347) /* ty=Tensor[(32, 14, 14, 512), float32] */;
    %545 = reshape(%544, newshape=[-1, 512]) /* ty=Tensor[(6272, 512), float32] */;
    cast(%545, dtype="float16") /* ty=Tensor[(6272, 512), float16] */
  } /* ty=fn (Tensor[(32, 14, 14, 1), float32], Tensor[(32, 14, 14, 512), float32], Tensor[(1, 1, 1, 512), float32], Tensor[(1, 1, 1, 512), float32]) -> Tensor[(6272, 512), float16] */;
  %1210 = %1209(%1208, %1206, meta[relay.Constant][131] /* ty=Tensor[(1, 1, 1, 512), float32] */, meta[relay.Constant][132] /* ty=Tensor[(1, 1, 1, 512), float32] */) /* ty=Tensor[(6272, 512), float16] */;
  %1211 = fn (%p0232: Tensor[(6272, 512), float16] /* ty=Tensor[(6272, 512), float16] */, %p1163: Tensor[(2048, 512), float16] /* ty=Tensor[(2048, 512), float16] */, Primitive=1) -> Tensor[(6272, 2048), float16] {
    nn.dense(%p0232, %p1163, units=None, out_dtype="float16") /* ty=Tensor[(6272, 2048), float16] */
  } /* ty=fn (Tensor[(6272, 512), float16], Tensor[(2048, 512), float16]) -> Tensor[(6272, 2048), float16] */;
  %1212 = %1211(%1210, meta[relay.Constant][133] /* ty=Tensor[(2048, 512), float16] span=/features/features.5/features.5.7/block/block.3/MatMul:0:0 */) /* ty=Tensor[(6272, 2048), float16] */;
  %1213 = fn (%p0231: Tensor[(6272, 2048), float16] /* ty=Tensor[(6272, 2048), float16] */, %p1162: Tensor[(2048), float16] /* ty=Tensor[(2048), float16] */, %p293: float16 /* ty=float16 */, Primitive=1) -> Tensor[(6272, 2048), float16] {
    %530 = reshape(%p0231, newshape=[32, 14, 14, 2048]) /* ty=Tensor[(32, 14, 14, 2048), float16] */;
    %531 = add(%p1162, %530) /* ty=Tensor[(32, 14, 14, 2048), float16] */;
    %532 = divide(%531, %p293) /* ty=Tensor[(32, 14, 14, 2048), float16] */;
    %533 = cast(%532, dtype="float32") /* ty=Tensor[(32, 14, 14, 2048), float32] */;
    %534 = erf(%533) /* ty=Tensor[(32, 14, 14, 2048), float32] */;
    %535 = cast(%531, dtype="float32") /* ty=Tensor[(32, 14, 14, 2048), float32] */;
    %536 = add(%534, 1f /* ty=float32 */) /* ty=Tensor[(32, 14, 14, 2048), float32] */;
    %537 = multiply(%535, %536) /* ty=Tensor[(32, 14, 14, 2048), float32] */;
    %538 = multiply(%537, 0.5f /* ty=float32 */) /* ty=Tensor[(32, 14, 14, 2048), float32] */;
    %539 = reshape(%538, newshape=[-1, 2048]) /* ty=Tensor[(6272, 2048), float32] */;
    cast(%539, dtype="float16") /* ty=Tensor[(6272, 2048), float16] */
  } /* ty=fn (Tensor[(6272, 2048), float16], Tensor[(2048), float16], float16) -> Tensor[(6272, 2048), float16] */;
  %1214 = %1213(%1212, meta[relay.Constant][134] /* ty=Tensor[(2048), float16] span=Identity_135:0:0 */, 1.41406f16 /* ty=float16 span=/features/features.5/features.5.7/block/block.4/Constant:0:0 */) /* ty=Tensor[(6272, 2048), float16] */;
  %1215 = fn (%p0230: Tensor[(6272, 2048), float16] /* ty=Tensor[(6272, 2048), float16] */, %p1161: Tensor[(512, 2048), float16] /* ty=Tensor[(512, 2048), float16] */, Primitive=1) -> Tensor[(6272, 512), float16] {
    nn.dense(%p0230, %p1161, units=None, out_dtype="float16") /* ty=Tensor[(6272, 512), float16] */
  } /* ty=fn (Tensor[(6272, 2048), float16], Tensor[(512, 2048), float16]) -> Tensor[(6272, 512), float16] */;
  %1216 = %1215(%1214, meta[relay.Constant][135] /* ty=Tensor[(512, 2048), float16] span=/features/features.5/features.5.7/block/block.5/MatMul:0:0 */) /* ty=Tensor[(6272, 512), float16] */;
  %1217 = fn (%p0229: Tensor[(6272, 512), float16] /* ty=Tensor[(6272, 512), float16] */, %p1160: Tensor[(512), float16] /* ty=Tensor[(512), float16] */, %p292: Tensor[(512, 1, 1), float16] /* ty=Tensor[(512, 1, 1), float16] */, %p346: Tensor[(32, 512, 14, 14), float16] /* ty=Tensor[(32, 512, 14, 14), float16] */, Primitive=1) -> Tensor[(32, 512, 14, 14), float16] {
    %526 = reshape(%p0229, newshape=[32, 14, 14, 512]) /* ty=Tensor[(32, 14, 14, 512), float16] */;
    %527 = add(%p1160, %526) /* ty=Tensor[(32, 14, 14, 512), float16] */;
    %528 = transpose(%527, axes=[0, 3, 1, 2]) /* ty=Tensor[(32, 512, 14, 14), float16] */;
    %529 = multiply(%p292, %528) /* ty=Tensor[(32, 512, 14, 14), float16] */;
    add(%529, %p346) /* ty=Tensor[(32, 512, 14, 14), float16] */
  } /* ty=fn (Tensor[(6272, 512), float16], Tensor[(512), float16], Tensor[(512, 1, 1), float16], Tensor[(32, 512, 14, 14), float16]) -> Tensor[(32, 512, 14, 14), float16] */;
  %1218 = %1217(%1216, meta[relay.Constant][136] /* ty=Tensor[(512), float16] span=Identity_134:0:0 */, meta[relay.Constant][137] /* ty=Tensor[(512, 1, 1), float16] span=Identity_139:0:0 */, %1196) /* ty=Tensor[(32, 512, 14, 14), float16] */;
  %1219 = fn (%p0228: Tensor[(32, 512, 14, 14), float16] /* ty=Tensor[(32, 512, 14, 14), float16] */, Primitive=1) -> Tensor[(32, 14, 14, 512), float16] {
    layout_transform(%p0228, src_layout="NCHW", dst_layout="NHWC") /* ty=Tensor[(32, 14, 14, 512), float16] */
  } /* ty=fn (Tensor[(32, 512, 14, 14), float16]) -> Tensor[(32, 14, 14, 512), float16] */;
  %1220 = %1219(%1218) /* ty=Tensor[(32, 14, 14, 512), float16] */;
  %1221 = fn (%p0227: Tensor[(32, 14, 14, 512), float16] /* ty=Tensor[(32, 14, 14, 512), float16] */, %p1159: Tensor[(512, 7, 7, 1), float16] /* ty=Tensor[(512, 7, 7, 1), float16] */, %p291: Tensor[(1, 1, 1, 512), float16] /* ty=Tensor[(1, 1, 1, 512), float16] */, Primitive=1) -> Tensor[(32, 14, 14, 512), float16] {
    %525 = nn.conv2d(%p0227, %p1159, padding=[3, 3, 3, 3], groups=512, channels=512, kernel_size=[7, 7], data_layout="NHWC", kernel_layout="OHWI", out_dtype="float16") /* ty=Tensor[(32, 14, 14, 512), float16] */;
    add(%525, %p291) /* ty=Tensor[(32, 14, 14, 512), float16] */
  } /* ty=fn (Tensor[(32, 14, 14, 512), float16], Tensor[(512, 7, 7, 1), float16], Tensor[(1, 1, 1, 512), float16]) -> Tensor[(32, 14, 14, 512), float16] */;
  %1222 = %1221(%1220, meta[relay.Constant][138] /* ty=Tensor[(512, 7, 7, 1), float16] */, meta[relay.Constant][139] /* ty=Tensor[(1, 1, 1, 512), float16] */) /* ty=Tensor[(32, 14, 14, 512), float16] */;
  %1223 = fn (%p0226: Tensor[(32, 14, 14, 512), float16] /* ty=Tensor[(32, 14, 14, 512), float16] */, Primitive=1) -> Tensor[(32, 14, 14, 512), float32] {
    %524 = transpose(%p0226, axes=[0, 1, 2, 3]) /* ty=Tensor[(32, 14, 14, 512), float16] */;
    cast(%524, dtype="float32") /* ty=Tensor[(32, 14, 14, 512), float32] */
  } /* ty=fn (Tensor[(32, 14, 14, 512), float16]) -> Tensor[(32, 14, 14, 512), float32] */;
  %1224 = %1223(%1222) /* ty=Tensor[(32, 14, 14, 512), float32] */;
  %1225 = fn (%p0398: Tensor[(32, 14, 14, 512), float32] /* ty=Tensor[(32, 14, 14, 512), float32] */, Primitive=1) -> Tensor[(32, 14, 14, 1), float32] {
    mean(%p0398, axis=[3], keepdims=True) /* ty=Tensor[(32, 14, 14, 1), float32] */
  } /* ty=fn (Tensor[(32, 14, 14, 512), float32]) -> Tensor[(32, 14, 14, 1), float32] */;
  %1226 = %1225(%1224) /* ty=Tensor[(32, 14, 14, 1), float32] */;
  %1227 = fn (%p0225: Tensor[(32, 14, 14, 512), float32] /* ty=Tensor[(32, 14, 14, 512), float32] */, %p1158: Tensor[(32, 14, 14, 1), float32] /* ty=Tensor[(32, 14, 14, 1), float32] */, Primitive=1) -> Tensor[(32, 14, 14, 512), float32] {
    subtract(%p0225, %p1158) /* ty=Tensor[(32, 14, 14, 512), float32] */
  } /* ty=fn (Tensor[(32, 14, 14, 512), float32], Tensor[(32, 14, 14, 1), float32]) -> Tensor[(32, 14, 14, 512), float32] */;
  %1228 = %1227(%1224, %1226) /* ty=Tensor[(32, 14, 14, 512), float32] */;
  %1229 = fn (%p0224: Tensor[(32, 14, 14, 512), float32] /* ty=Tensor[(32, 14, 14, 512), float32] */, Primitive=1) -> Tensor[(32, 14, 14, 1), float32] {
    %523 = power(%p0224, 2f /* ty=float32 */) /* ty=Tensor[(32, 14, 14, 512), float32] */;
    mean(%523, axis=[3], keepdims=True) /* ty=Tensor[(32, 14, 14, 1), float32] */
  } /* ty=fn (Tensor[(32, 14, 14, 512), float32]) -> Tensor[(32, 14, 14, 1), float32] */;
  %1230 = %1229(%1228) /* ty=Tensor[(32, 14, 14, 1), float32] */;
  %1231 = fn (%p0223: Tensor[(32, 14, 14, 1), float32] /* ty=Tensor[(32, 14, 14, 1), float32] */, %p1157: Tensor[(32, 14, 14, 512), float32] /* ty=Tensor[(32, 14, 14, 512), float32] */, %p290: Tensor[(1, 1, 1, 512), float32] /* ty=Tensor[(1, 1, 1, 512), float32] */, %p345: Tensor[(1, 1, 1, 512), float32] /* ty=Tensor[(1, 1, 1, 512), float32] */, Primitive=1) -> Tensor[(6272, 512), float16] {
    %517 = add(%p0223, 1.01328e-06f /* ty=float32 */) /* ty=Tensor[(32, 14, 14, 1), float32] */;
    %518 = rsqrt(%517) /* ty=Tensor[(32, 14, 14, 1), float32] */;
    %519 = multiply(%p1157, %518) /* ty=Tensor[(32, 14, 14, 512), float32] */;
    %520 = multiply(%519, %p290) /* ty=Tensor[(32, 14, 14, 512), float32] */;
    %521 = add(%520, %p345) /* ty=Tensor[(32, 14, 14, 512), float32] */;
    %522 = reshape(%521, newshape=[-1, 512]) /* ty=Tensor[(6272, 512), float32] */;
    cast(%522, dtype="float16") /* ty=Tensor[(6272, 512), float16] */
  } /* ty=fn (Tensor[(32, 14, 14, 1), float32], Tensor[(32, 14, 14, 512), float32], Tensor[(1, 1, 1, 512), float32], Tensor[(1, 1, 1, 512), float32]) -> Tensor[(6272, 512), float16] */;
  %1232 = %1231(%1230, %1228, meta[relay.Constant][140] /* ty=Tensor[(1, 1, 1, 512), float32] */, meta[relay.Constant][141] /* ty=Tensor[(1, 1, 1, 512), float32] */) /* ty=Tensor[(6272, 512), float16] */;
  %1233 = fn (%p0222: Tensor[(6272, 512), float16] /* ty=Tensor[(6272, 512), float16] */, %p1156: Tensor[(2048, 512), float16] /* ty=Tensor[(2048, 512), float16] */, Primitive=1) -> Tensor[(6272, 2048), float16] {
    nn.dense(%p0222, %p1156, units=None, out_dtype="float16") /* ty=Tensor[(6272, 2048), float16] */
  } /* ty=fn (Tensor[(6272, 512), float16], Tensor[(2048, 512), float16]) -> Tensor[(6272, 2048), float16] */;
  %1234 = %1233(%1232, meta[relay.Constant][142] /* ty=Tensor[(2048, 512), float16] span=/features/features.5/features.5.8/block/block.3/MatMul:0:0 */) /* ty=Tensor[(6272, 2048), float16] */;
  %1235 = fn (%p0221: Tensor[(6272, 2048), float16] /* ty=Tensor[(6272, 2048), float16] */, %p1155: Tensor[(2048), float16] /* ty=Tensor[(2048), float16] */, %p289: float16 /* ty=float16 */, Primitive=1) -> Tensor[(6272, 2048), float16] {
    %507 = reshape(%p0221, newshape=[32, 14, 14, 2048]) /* ty=Tensor[(32, 14, 14, 2048), float16] */;
    %508 = add(%p1155, %507) /* ty=Tensor[(32, 14, 14, 2048), float16] */;
    %509 = divide(%508, %p289) /* ty=Tensor[(32, 14, 14, 2048), float16] */;
    %510 = cast(%509, dtype="float32") /* ty=Tensor[(32, 14, 14, 2048), float32] */;
    %511 = erf(%510) /* ty=Tensor[(32, 14, 14, 2048), float32] */;
    %512 = cast(%508, dtype="float32") /* ty=Tensor[(32, 14, 14, 2048), float32] */;
    %513 = add(%511, 1f /* ty=float32 */) /* ty=Tensor[(32, 14, 14, 2048), float32] */;
    %514 = multiply(%512, %513) /* ty=Tensor[(32, 14, 14, 2048), float32] */;
    %515 = multiply(%514, 0.5f /* ty=float32 */) /* ty=Tensor[(32, 14, 14, 2048), float32] */;
    %516 = reshape(%515, newshape=[-1, 2048]) /* ty=Tensor[(6272, 2048), float32] */;
    cast(%516, dtype="float16") /* ty=Tensor[(6272, 2048), float16] */
  } /* ty=fn (Tensor[(6272, 2048), float16], Tensor[(2048), float16], float16) -> Tensor[(6272, 2048), float16] */;
  %1236 = %1235(%1234, meta[relay.Constant][143] /* ty=Tensor[(2048), float16] span=Identity_129:0:0 */, 1.41406f16 /* ty=float16 span=/features/features.5/features.5.8/block/block.4/Constant:0:0 */) /* ty=Tensor[(6272, 2048), float16] */;
  %1237 = fn (%p0220: Tensor[(6272, 2048), float16] /* ty=Tensor[(6272, 2048), float16] */, %p1154: Tensor[(512, 2048), float16] /* ty=Tensor[(512, 2048), float16] */, Primitive=1) -> Tensor[(6272, 512), float16] {
    nn.dense(%p0220, %p1154, units=None, out_dtype="float16") /* ty=Tensor[(6272, 512), float16] */
  } /* ty=fn (Tensor[(6272, 2048), float16], Tensor[(512, 2048), float16]) -> Tensor[(6272, 512), float16] */;
  %1238 = %1237(%1236, meta[relay.Constant][144] /* ty=Tensor[(512, 2048), float16] span=/features/features.5/features.5.8/block/block.5/MatMul:0:0 */) /* ty=Tensor[(6272, 512), float16] */;
  %1239 = fn (%p0219: Tensor[(6272, 512), float16] /* ty=Tensor[(6272, 512), float16] */, %p1153: Tensor[(512), float16] /* ty=Tensor[(512), float16] */, %p288: Tensor[(512, 1, 1), float16] /* ty=Tensor[(512, 1, 1), float16] */, %p344: Tensor[(32, 512, 14, 14), float16] /* ty=Tensor[(32, 512, 14, 14), float16] */, Primitive=1) -> Tensor[(32, 512, 14, 14), float16] {
    %503 = reshape(%p0219, newshape=[32, 14, 14, 512]) /* ty=Tensor[(32, 14, 14, 512), float16] */;
    %504 = add(%p1153, %503) /* ty=Tensor[(32, 14, 14, 512), float16] */;
    %505 = transpose(%504, axes=[0, 3, 1, 2]) /* ty=Tensor[(32, 512, 14, 14), float16] */;
    %506 = multiply(%p288, %505) /* ty=Tensor[(32, 512, 14, 14), float16] */;
    add(%506, %p344) /* ty=Tensor[(32, 512, 14, 14), float16] */
  } /* ty=fn (Tensor[(6272, 512), float16], Tensor[(512), float16], Tensor[(512, 1, 1), float16], Tensor[(32, 512, 14, 14), float16]) -> Tensor[(32, 512, 14, 14), float16] */;
  %1240 = %1239(%1238, meta[relay.Constant][145] /* ty=Tensor[(512), float16] span=Identity_128:0:0 */, meta[relay.Constant][146] /* ty=Tensor[(512, 1, 1), float16] span=Identity_133:0:0 */, %1218) /* ty=Tensor[(32, 512, 14, 14), float16] */;
  %1241 = fn (%p0218: Tensor[(32, 512, 14, 14), float16] /* ty=Tensor[(32, 512, 14, 14), float16] */, Primitive=1) -> Tensor[(32, 14, 14, 512), float16] {
    layout_transform(%p0218, src_layout="NCHW", dst_layout="NHWC") /* ty=Tensor[(32, 14, 14, 512), float16] */
  } /* ty=fn (Tensor[(32, 512, 14, 14), float16]) -> Tensor[(32, 14, 14, 512), float16] */;
  %1242 = %1241(%1240) /* ty=Tensor[(32, 14, 14, 512), float16] */;
  %1243 = fn (%p0217: Tensor[(32, 14, 14, 512), float16] /* ty=Tensor[(32, 14, 14, 512), float16] */, %p1152: Tensor[(512, 7, 7, 1), float16] /* ty=Tensor[(512, 7, 7, 1), float16] */, %p287: Tensor[(1, 1, 1, 512), float16] /* ty=Tensor[(1, 1, 1, 512), float16] */, Primitive=1) -> Tensor[(32, 14, 14, 512), float16] {
    %502 = nn.conv2d(%p0217, %p1152, padding=[3, 3, 3, 3], groups=512, channels=512, kernel_size=[7, 7], data_layout="NHWC", kernel_layout="OHWI", out_dtype="float16") /* ty=Tensor[(32, 14, 14, 512), float16] */;
    add(%502, %p287) /* ty=Tensor[(32, 14, 14, 512), float16] */
  } /* ty=fn (Tensor[(32, 14, 14, 512), float16], Tensor[(512, 7, 7, 1), float16], Tensor[(1, 1, 1, 512), float16]) -> Tensor[(32, 14, 14, 512), float16] */;
  %1244 = %1243(%1242, meta[relay.Constant][147] /* ty=Tensor[(512, 7, 7, 1), float16] */, meta[relay.Constant][148] /* ty=Tensor[(1, 1, 1, 512), float16] */) /* ty=Tensor[(32, 14, 14, 512), float16] */;
  %1245 = fn (%p0216: Tensor[(32, 14, 14, 512), float16] /* ty=Tensor[(32, 14, 14, 512), float16] */, Primitive=1) -> Tensor[(32, 14, 14, 512), float32] {
    %501 = transpose(%p0216, axes=[0, 1, 2, 3]) /* ty=Tensor[(32, 14, 14, 512), float16] */;
    cast(%501, dtype="float32") /* ty=Tensor[(32, 14, 14, 512), float32] */
  } /* ty=fn (Tensor[(32, 14, 14, 512), float16]) -> Tensor[(32, 14, 14, 512), float32] */;
  %1246 = %1245(%1244) /* ty=Tensor[(32, 14, 14, 512), float32] */;
  %1247 = fn (%p0399: Tensor[(32, 14, 14, 512), float32] /* ty=Tensor[(32, 14, 14, 512), float32] */, Primitive=1) -> Tensor[(32, 14, 14, 1), float32] {
    mean(%p0399, axis=[3], keepdims=True) /* ty=Tensor[(32, 14, 14, 1), float32] */
  } /* ty=fn (Tensor[(32, 14, 14, 512), float32]) -> Tensor[(32, 14, 14, 1), float32] */;
  %1248 = %1247(%1246) /* ty=Tensor[(32, 14, 14, 1), float32] */;
  %1249 = fn (%p0215: Tensor[(32, 14, 14, 512), float32] /* ty=Tensor[(32, 14, 14, 512), float32] */, %p1151: Tensor[(32, 14, 14, 1), float32] /* ty=Tensor[(32, 14, 14, 1), float32] */, Primitive=1) -> Tensor[(32, 14, 14, 512), float32] {
    subtract(%p0215, %p1151) /* ty=Tensor[(32, 14, 14, 512), float32] */
  } /* ty=fn (Tensor[(32, 14, 14, 512), float32], Tensor[(32, 14, 14, 1), float32]) -> Tensor[(32, 14, 14, 512), float32] */;
  %1250 = %1249(%1246, %1248) /* ty=Tensor[(32, 14, 14, 512), float32] */;
  %1251 = fn (%p0214: Tensor[(32, 14, 14, 512), float32] /* ty=Tensor[(32, 14, 14, 512), float32] */, Primitive=1) -> Tensor[(32, 14, 14, 1), float32] {
    %500 = power(%p0214, 2f /* ty=float32 */) /* ty=Tensor[(32, 14, 14, 512), float32] */;
    mean(%500, axis=[3], keepdims=True) /* ty=Tensor[(32, 14, 14, 1), float32] */
  } /* ty=fn (Tensor[(32, 14, 14, 512), float32]) -> Tensor[(32, 14, 14, 1), float32] */;
  %1252 = %1251(%1250) /* ty=Tensor[(32, 14, 14, 1), float32] */;
  %1253 = fn (%p0213: Tensor[(32, 14, 14, 1), float32] /* ty=Tensor[(32, 14, 14, 1), float32] */, %p1150: Tensor[(32, 14, 14, 512), float32] /* ty=Tensor[(32, 14, 14, 512), float32] */, %p286: Tensor[(1, 1, 1, 512), float32] /* ty=Tensor[(1, 1, 1, 512), float32] */, %p343: Tensor[(1, 1, 1, 512), float32] /* ty=Tensor[(1, 1, 1, 512), float32] */, Primitive=1) -> Tensor[(6272, 512), float16] {
    %494 = add(%p0213, 1.01328e-06f /* ty=float32 */) /* ty=Tensor[(32, 14, 14, 1), float32] */;
    %495 = rsqrt(%494) /* ty=Tensor[(32, 14, 14, 1), float32] */;
    %496 = multiply(%p1150, %495) /* ty=Tensor[(32, 14, 14, 512), float32] */;
    %497 = multiply(%496, %p286) /* ty=Tensor[(32, 14, 14, 512), float32] */;
    %498 = add(%497, %p343) /* ty=Tensor[(32, 14, 14, 512), float32] */;
    %499 = reshape(%498, newshape=[-1, 512]) /* ty=Tensor[(6272, 512), float32] */;
    cast(%499, dtype="float16") /* ty=Tensor[(6272, 512), float16] */
  } /* ty=fn (Tensor[(32, 14, 14, 1), float32], Tensor[(32, 14, 14, 512), float32], Tensor[(1, 1, 1, 512), float32], Tensor[(1, 1, 1, 512), float32]) -> Tensor[(6272, 512), float16] */;
  %1254 = %1253(%1252, %1250, meta[relay.Constant][149] /* ty=Tensor[(1, 1, 1, 512), float32] */, meta[relay.Constant][150] /* ty=Tensor[(1, 1, 1, 512), float32] */) /* ty=Tensor[(6272, 512), float16] */;
  %1255 = fn (%p0212: Tensor[(6272, 512), float16] /* ty=Tensor[(6272, 512), float16] */, %p1149: Tensor[(2048, 512), float16] /* ty=Tensor[(2048, 512), float16] */, Primitive=1) -> Tensor[(6272, 2048), float16] {
    nn.dense(%p0212, %p1149, units=None, out_dtype="float16") /* ty=Tensor[(6272, 2048), float16] */
  } /* ty=fn (Tensor[(6272, 512), float16], Tensor[(2048, 512), float16]) -> Tensor[(6272, 2048), float16] */;
  %1256 = %1255(%1254, meta[relay.Constant][151] /* ty=Tensor[(2048, 512), float16] span=/features/features.5/features.5.9/block/block.3/MatMul:0:0 */) /* ty=Tensor[(6272, 2048), float16] */;
  %1257 = fn (%p0211: Tensor[(6272, 2048), float16] /* ty=Tensor[(6272, 2048), float16] */, %p1148: Tensor[(2048), float16] /* ty=Tensor[(2048), float16] */, %p285: float16 /* ty=float16 */, Primitive=1) -> Tensor[(6272, 2048), float16] {
    %484 = reshape(%p0211, newshape=[32, 14, 14, 2048]) /* ty=Tensor[(32, 14, 14, 2048), float16] */;
    %485 = add(%p1148, %484) /* ty=Tensor[(32, 14, 14, 2048), float16] */;
    %486 = divide(%485, %p285) /* ty=Tensor[(32, 14, 14, 2048), float16] */;
    %487 = cast(%486, dtype="float32") /* ty=Tensor[(32, 14, 14, 2048), float32] */;
    %488 = erf(%487) /* ty=Tensor[(32, 14, 14, 2048), float32] */;
    %489 = cast(%485, dtype="float32") /* ty=Tensor[(32, 14, 14, 2048), float32] */;
    %490 = add(%488, 1f /* ty=float32 */) /* ty=Tensor[(32, 14, 14, 2048), float32] */;
    %491 = multiply(%489, %490) /* ty=Tensor[(32, 14, 14, 2048), float32] */;
    %492 = multiply(%491, 0.5f /* ty=float32 */) /* ty=Tensor[(32, 14, 14, 2048), float32] */;
    %493 = reshape(%492, newshape=[-1, 2048]) /* ty=Tensor[(6272, 2048), float32] */;
    cast(%493, dtype="float16") /* ty=Tensor[(6272, 2048), float16] */
  } /* ty=fn (Tensor[(6272, 2048), float16], Tensor[(2048), float16], float16) -> Tensor[(6272, 2048), float16] */;
  %1258 = %1257(%1256, meta[relay.Constant][152] /* ty=Tensor[(2048), float16] span=Identity_123:0:0 */, 1.41406f16 /* ty=float16 span=/features/features.5/features.5.9/block/block.4/Constant:0:0 */) /* ty=Tensor[(6272, 2048), float16] */;
  %1259 = fn (%p0210: Tensor[(6272, 2048), float16] /* ty=Tensor[(6272, 2048), float16] */, %p1147: Tensor[(512, 2048), float16] /* ty=Tensor[(512, 2048), float16] */, Primitive=1) -> Tensor[(6272, 512), float16] {
    nn.dense(%p0210, %p1147, units=None, out_dtype="float16") /* ty=Tensor[(6272, 512), float16] */
  } /* ty=fn (Tensor[(6272, 2048), float16], Tensor[(512, 2048), float16]) -> Tensor[(6272, 512), float16] */;
  %1260 = %1259(%1258, meta[relay.Constant][153] /* ty=Tensor[(512, 2048), float16] span=/features/features.5/features.5.9/block/block.5/MatMul:0:0 */) /* ty=Tensor[(6272, 512), float16] */;
  %1261 = fn (%p0209: Tensor[(6272, 512), float16] /* ty=Tensor[(6272, 512), float16] */, %p1146: Tensor[(512), float16] /* ty=Tensor[(512), float16] */, %p284: Tensor[(512, 1, 1), float16] /* ty=Tensor[(512, 1, 1), float16] */, %p342: Tensor[(32, 512, 14, 14), float16] /* ty=Tensor[(32, 512, 14, 14), float16] */, Primitive=1) -> Tensor[(32, 512, 14, 14), float16] {
    %480 = reshape(%p0209, newshape=[32, 14, 14, 512]) /* ty=Tensor[(32, 14, 14, 512), float16] */;
    %481 = add(%p1146, %480) /* ty=Tensor[(32, 14, 14, 512), float16] */;
    %482 = transpose(%481, axes=[0, 3, 1, 2]) /* ty=Tensor[(32, 512, 14, 14), float16] */;
    %483 = multiply(%p284, %482) /* ty=Tensor[(32, 512, 14, 14), float16] */;
    add(%483, %p342) /* ty=Tensor[(32, 512, 14, 14), float16] */
  } /* ty=fn (Tensor[(6272, 512), float16], Tensor[(512), float16], Tensor[(512, 1, 1), float16], Tensor[(32, 512, 14, 14), float16]) -> Tensor[(32, 512, 14, 14), float16] */;
  %1262 = %1261(%1260, meta[relay.Constant][154] /* ty=Tensor[(512), float16] span=Identity_122:0:0 */, meta[relay.Constant][155] /* ty=Tensor[(512, 1, 1), float16] span=Identity_127:0:0 */, %1240) /* ty=Tensor[(32, 512, 14, 14), float16] */;
  %1263 = fn (%p0208: Tensor[(32, 512, 14, 14), float16] /* ty=Tensor[(32, 512, 14, 14), float16] */, Primitive=1) -> Tensor[(32, 14, 14, 512), float16] {
    layout_transform(%p0208, src_layout="NCHW", dst_layout="NHWC") /* ty=Tensor[(32, 14, 14, 512), float16] */
  } /* ty=fn (Tensor[(32, 512, 14, 14), float16]) -> Tensor[(32, 14, 14, 512), float16] */;
  %1264 = %1263(%1262) /* ty=Tensor[(32, 14, 14, 512), float16] */;
  %1265 = fn (%p0207: Tensor[(32, 14, 14, 512), float16] /* ty=Tensor[(32, 14, 14, 512), float16] */, %p1145: Tensor[(512, 7, 7, 1), float16] /* ty=Tensor[(512, 7, 7, 1), float16] */, %p283: Tensor[(1, 1, 1, 512), float16] /* ty=Tensor[(1, 1, 1, 512), float16] */, Primitive=1) -> Tensor[(32, 14, 14, 512), float16] {
    %479 = nn.conv2d(%p0207, %p1145, padding=[3, 3, 3, 3], groups=512, channels=512, kernel_size=[7, 7], data_layout="NHWC", kernel_layout="OHWI", out_dtype="float16") /* ty=Tensor[(32, 14, 14, 512), float16] */;
    add(%479, %p283) /* ty=Tensor[(32, 14, 14, 512), float16] */
  } /* ty=fn (Tensor[(32, 14, 14, 512), float16], Tensor[(512, 7, 7, 1), float16], Tensor[(1, 1, 1, 512), float16]) -> Tensor[(32, 14, 14, 512), float16] */;
  %1266 = %1265(%1264, meta[relay.Constant][156] /* ty=Tensor[(512, 7, 7, 1), float16] */, meta[relay.Constant][157] /* ty=Tensor[(1, 1, 1, 512), float16] */) /* ty=Tensor[(32, 14, 14, 512), float16] */;
…
  %1592 = %1591(%1590, meta[relay.Constant][289] /* ty=Tensor[(512), float16] span=Identity_32:0:0 */, meta[relay.Constant][290] /* ty=Tensor[(512, 1, 1), float16] span=Identity_37:0:0 */, %1570) /* ty=Tensor[(32, 512, 14, 14), float16] */;
  %1593 = fn (%p058: Tensor[(32, 512, 14, 14), float16] /* ty=Tensor[(32, 512, 14, 14), float16] */, Primitive=1) -> Tensor[(32, 14, 14, 512), float16] {
    layout_transform(%p058, src_layout="NCHW", dst_layout="NHWC") /* ty=Tensor[(32, 14, 14, 512), float16] */
  } /* ty=fn (Tensor[(32, 512, 14, 14), float16]) -> Tensor[(32, 14, 14, 512), float16] */;
  %1594 = %1593(%1592) /* ty=Tensor[(32, 14, 14, 512), float16] */;
  %1595 = fn (%p057: Tensor[(32, 14, 14, 512), float16] /* ty=Tensor[(32, 14, 14, 512), float16] */, %p140: Tensor[(512, 7, 7, 1), float16] /* ty=Tensor[(512, 7, 7, 1), float16] */, %p223: Tensor[(1, 1, 1, 512), float16] /* ty=Tensor[(1, 1, 1, 512), float16] */, Primitive=1) -> Tensor[(32, 14, 14, 512), float16] {
    %134 = nn.conv2d(%p057, %p140, padding=[3, 3, 3, 3], groups=512, channels=512, kernel_size=[7, 7], data_layout="NHWC", kernel_layout="OHWI", out_dtype="float16") /* ty=Tensor[(32, 14, 14, 512), float16] */;
    add(%134, %p223) /* ty=Tensor[(32, 14, 14, 512), float16] */
  } /* ty=fn (Tensor[(32, 14, 14, 512), float16], Tensor[(512, 7, 7, 1), float16], Tensor[(1, 1, 1, 512), float16]) -> Tensor[(32, 14, 14, 512), float16] */;
  %1596 = %1595(%1594, meta[relay.Constant][291] /* ty=Tensor[(512, 7, 7, 1), float16] */, meta[relay.Constant][292] /* ty=Tensor[(1, 1, 1, 512), float16] */) /* ty=Tensor[(32, 14, 14, 512), float16] */;
  %1597 = fn (%p056: Tensor[(32, 14, 14, 512), float16] /* ty=Tensor[(32, 14, 14, 512), float16] */, Primitive=1) -> Tensor[(32, 14, 14, 512), float32] {
    %133 = transpose(%p056, axes=[0, 1, 2, 3]) /* ty=Tensor[(32, 14, 14, 512), float16] */;
    cast(%133, dtype="float32") /* ty=Tensor[(32, 14, 14, 512), float32] */
  } /* ty=fn (Tensor[(32, 14, 14, 512), float16]) -> Tensor[(32, 14, 14, 512), float32] */;
  %1598 = %1597(%1596) /* ty=Tensor[(32, 14, 14, 512), float32] */;
  %1599 = fn (%p0415: Tensor[(32, 14, 14, 512), float32] /* ty=Tensor[(32, 14, 14, 512), float32] */, Primitive=1) -> Tensor[(32, 14, 14, 1), float32] {
    mean(%p0415, axis=[3], keepdims=True) /* ty=Tensor[(32, 14, 14, 1), float32] */
  } /* ty=fn (Tensor[(32, 14, 14, 512), float32]) -> Tensor[(32, 14, 14, 1), float32] */;
  %1600 = %1599(%1598) /* ty=Tensor[(32, 14, 14, 1), float32] */;
  %1601 = fn (%p055: Tensor[(32, 14, 14, 512), float32] /* ty=Tensor[(32, 14, 14, 512), float32] */, %p139: Tensor[(32, 14, 14, 1), float32] /* ty=Tensor[(32, 14, 14, 1), float32] */, Primitive=1) -> Tensor[(32, 14, 14, 512), float32] {
    subtract(%p055, %p139) /* ty=Tensor[(32, 14, 14, 512), float32] */
  } /* ty=fn (Tensor[(32, 14, 14, 512), float32], Tensor[(32, 14, 14, 1), float32]) -> Tensor[(32, 14, 14, 512), float32] */;
  %1602 = %1601(%1598, %1600) /* ty=Tensor[(32, 14, 14, 512), float32] */;
  %1603 = fn (%p054: Tensor[(32, 14, 14, 512), float32] /* ty=Tensor[(32, 14, 14, 512), float32] */, Primitive=1) -> Tensor[(32, 14, 14, 1), float32] {
    %132 = power(%p054, 2f /* ty=float32 */) /* ty=Tensor[(32, 14, 14, 512), float32] */;
    mean(%132, axis=[3], keepdims=True) /* ty=Tensor[(32, 14, 14, 1), float32] */
  } /* ty=fn (Tensor[(32, 14, 14, 512), float32]) -> Tensor[(32, 14, 14, 1), float32] */;
  %1604 = %1603(%1602) /* ty=Tensor[(32, 14, 14, 1), float32] */;
  %1605 = fn (%p053: Tensor[(32, 14, 14, 1), float32] /* ty=Tensor[(32, 14, 14, 1), float32] */, %p138: Tensor[(32, 14, 14, 512), float32] /* ty=Tensor[(32, 14, 14, 512), float32] */, %p222: Tensor[(1, 1, 1, 512), float32] /* ty=Tensor[(1, 1, 1, 512), float32] */, %p311: Tensor[(1, 1, 1, 512), float32] /* ty=Tensor[(1, 1, 1, 512), float32] */, Primitive=1) -> Tensor[(6272, 512), float16] {
    %126 = add(%p053, 1.01328e-06f /* ty=float32 */) /* ty=Tensor[(32, 14, 14, 1), float32] */;
    %127 = rsqrt(%126) /* ty=Tensor[(32, 14, 14, 1), float32] */;
    %128 = multiply(%p138, %127) /* ty=Tensor[(32, 14, 14, 512), float32] */;
    %129 = multiply(%128, %p222) /* ty=Tensor[(32, 14, 14, 512), float32] */;
    %130 = add(%129, %p311) /* ty=Tensor[(32, 14, 14, 512), float32] */;
    %131 = reshape(%130, newshape=[-1, 512]) /* ty=Tensor[(6272, 512), float32] */;
    cast(%131, dtype="float16") /* ty=Tensor[(6272, 512), float16] */
  } /* ty=fn (Tensor[(32, 14, 14, 1), float32], Tensor[(32, 14, 14, 512), float32], Tensor[(1, 1, 1, 512), float32], Tensor[(1, 1, 1, 512), float32]) -> Tensor[(6272, 512), float16] */;
  %1606 = %1605(%1604, %1602, meta[relay.Constant][293] /* ty=Tensor[(1, 1, 1, 512), float32] */, meta[relay.Constant][294] /* ty=Tensor[(1, 1, 1, 512), float32] */) /* ty=Tensor[(6272, 512), float16] */;
  %1607 = fn (%p052: Tensor[(6272, 512), float16] /* ty=Tensor[(6272, 512), float16] */, %p137: Tensor[(2048, 512), float16] /* ty=Tensor[(2048, 512), float16] */, Primitive=1) -> Tensor[(6272, 2048), float16] {
    nn.dense(%p052, %p137, units=None, out_dtype="float16") /* ty=Tensor[(6272, 2048), float16] */
  } /* ty=fn (Tensor[(6272, 512), float16], Tensor[(2048, 512), float16]) -> Tensor[(6272, 2048), float16] */;
  %1608 = %1607(%1606, meta[relay.Constant][295] /* ty=Tensor[(2048, 512), float16] span=/features/features.5/features.5.25/block/block.3/MatMul:0:0 */) /* ty=Tensor[(6272, 2048), float16] */;
  %1609 = fn (%p051: Tensor[(6272, 2048), float16] /* ty=Tensor[(6272, 2048), float16] */, %p136: Tensor[(2048), float16] /* ty=Tensor[(2048), float16] */, %p221: float16 /* ty=float16 */, Primitive=1) -> Tensor[(6272, 2048), float16] {
    %116 = reshape(%p051, newshape=[32, 14, 14, 2048]) /* ty=Tensor[(32, 14, 14, 2048), float16] */;
    %117 = add(%p136, %116) /* ty=Tensor[(32, 14, 14, 2048), float16] */;
    %118 = divide(%117, %p221) /* ty=Tensor[(32, 14, 14, 2048), float16] */;
    %119 = cast(%118, dtype="float32") /* ty=Tensor[(32, 14, 14, 2048), float32] */;
    %120 = erf(%119) /* ty=Tensor[(32, 14, 14, 2048), float32] */;
    %121 = cast(%117, dtype="float32") /* ty=Tensor[(32, 14, 14, 2048), float32] */;
    %122 = add(%120, 1f /* ty=float32 */) /* ty=Tensor[(32, 14, 14, 2048), float32] */;
    %123 = multiply(%121, %122) /* ty=Tensor[(32, 14, 14, 2048), float32] */;
    %124 = multiply(%123, 0.5f /* ty=float32 */) /* ty=Tensor[(32, 14, 14, 2048), float32] */;
    %125 = reshape(%124, newshape=[-1, 2048]) /* ty=Tensor[(6272, 2048), float32] */;
    cast(%125, dtype="float16") /* ty=Tensor[(6272, 2048), float16] */
  } /* ty=fn (Tensor[(6272, 2048), float16], Tensor[(2048), float16], float16) -> Tensor[(6272, 2048), float16] */;
  %1610 = %1609(%1608, meta[relay.Constant][296] /* ty=Tensor[(2048), float16] span=Identity_27:0:0 */, 1.41406f16 /* ty=float16 span=/features/features.5/features.5.25/block/block.4/Constant:0:0 */) /* ty=Tensor[(6272, 2048), float16] */;
  %1611 = fn (%p050: Tensor[(6272, 2048), float16] /* ty=Tensor[(6272, 2048), float16] */, %p135: Tensor[(512, 2048), float16] /* ty=Tensor[(512, 2048), float16] */, Primitive=1) -> Tensor[(6272, 512), float16] {
    nn.dense(%p050, %p135, units=None, out_dtype="float16") /* ty=Tensor[(6272, 512), float16] */
  } /* ty=fn (Tensor[(6272, 2048), float16], Tensor[(512, 2048), float16]) -> Tensor[(6272, 512), float16] */;
  %1612 = %1611(%1610, meta[relay.Constant][297] /* ty=Tensor[(512, 2048), float16] span=/features/features.5/features.5.25/block/block.5/MatMul:0:0 */) /* ty=Tensor[(6272, 512), float16] */;
  %1613 = fn (%p049: Tensor[(6272, 512), float16] /* ty=Tensor[(6272, 512), float16] */, %p134: Tensor[(512), float16] /* ty=Tensor[(512), float16] */, %p220: Tensor[(512, 1, 1), float16] /* ty=Tensor[(512, 1, 1), float16] */, %p310: Tensor[(32, 512, 14, 14), float16] /* ty=Tensor[(32, 512, 14, 14), float16] */, Primitive=1) -> Tensor[(32, 512, 14, 14), float16] {
    %112 = reshape(%p049, newshape=[32, 14, 14, 512]) /* ty=Tensor[(32, 14, 14, 512), float16] */;
    %113 = add(%p134, %112) /* ty=Tensor[(32, 14, 14, 512), float16] */;
    %114 = transpose(%113, axes=[0, 3, 1, 2]) /* ty=Tensor[(32, 512, 14, 14), float16] */;
    %115 = multiply(%p220, %114) /* ty=Tensor[(32, 512, 14, 14), float16] */;
    add(%115, %p310) /* ty=Tensor[(32, 512, 14, 14), float16] */
  } /* ty=fn (Tensor[(6272, 512), float16], Tensor[(512), float16], Tensor[(512, 1, 1), float16], Tensor[(32, 512, 14, 14), float16]) -> Tensor[(32, 512, 14, 14), float16] */;
  %1614 = %1613(%1612, meta[relay.Constant][298] /* ty=Tensor[(512), float16] span=Identity_26:0:0 */, meta[relay.Constant][299] /* ty=Tensor[(512, 1, 1), float16] span=Identity_31:0:0 */, %1592) /* ty=Tensor[(32, 512, 14, 14), float16] */;
  %1615 = fn (%p048: Tensor[(32, 512, 14, 14), float16] /* ty=Tensor[(32, 512, 14, 14), float16] */, Primitive=1) -> Tensor[(32, 14, 14, 512), float16] {
    layout_transform(%p048, src_layout="NCHW", dst_layout="NHWC") /* ty=Tensor[(32, 14, 14, 512), float16] */
  } /* ty=fn (Tensor[(32, 512, 14, 14), float16]) -> Tensor[(32, 14, 14, 512), float16] */;
  %1616 = %1615(%1614) /* ty=Tensor[(32, 14, 14, 512), float16] */;
  %1617 = fn (%p047: Tensor[(32, 14, 14, 512), float16] /* ty=Tensor[(32, 14, 14, 512), float16] */, %p133: Tensor[(512, 7, 7, 1), float16] /* ty=Tensor[(512, 7, 7, 1), float16] */, %p219: Tensor[(1, 1, 1, 512), float16] /* ty=Tensor[(1, 1, 1, 512), float16] */, Primitive=1) -> Tensor[(32, 14, 14, 512), float16] {
    %111 = nn.conv2d(%p047, %p133, padding=[3, 3, 3, 3], groups=512, channels=512, kernel_size=[7, 7], data_layout="NHWC", kernel_layout="OHWI", out_dtype="float16") /* ty=Tensor[(32, 14, 14, 512), float16] */;
    add(%111, %p219) /* ty=Tensor[(32, 14, 14, 512), float16] */
  } /* ty=fn (Tensor[(32, 14, 14, 512), float16], Tensor[(512, 7, 7, 1), float16], Tensor[(1, 1, 1, 512), float16]) -> Tensor[(32, 14, 14, 512), float16] */;
  %1618 = %1617(%1616, meta[relay.Constant][300] /* ty=Tensor[(512, 7, 7, 1), float16] */, meta[relay.Constant][301] /* ty=Tensor[(1, 1, 1, 512), float16] */) /* ty=Tensor[(32, 14, 14, 512), float16] */;
  %1619 = fn (%p046: Tensor[(32, 14, 14, 512), float16] /* ty=Tensor[(32, 14, 14, 512), float16] */, Primitive=1) -> Tensor[(32, 14, 14, 512), float32] {
    %110 = transpose(%p046, axes=[0, 1, 2, 3]) /* ty=Tensor[(32, 14, 14, 512), float16] */;
    cast(%110, dtype="float32") /* ty=Tensor[(32, 14, 14, 512), float32] */
  } /* ty=fn (Tensor[(32, 14, 14, 512), float16]) -> Tensor[(32, 14, 14, 512), float32] */;
  %1620 = %1619(%1618) /* ty=Tensor[(32, 14, 14, 512), float32] */;
  %1621 = fn (%p0416: Tensor[(32, 14, 14, 512), float32] /* ty=Tensor[(32, 14, 14, 512), float32] */, Primitive=1) -> Tensor[(32, 14, 14, 1), float32] {
    mean(%p0416, axis=[3], keepdims=True) /* ty=Tensor[(32, 14, 14, 1), float32] */
  } /* ty=fn (Tensor[(32, 14, 14, 512), float32]) -> Tensor[(32, 14, 14, 1), float32] */;
  %1622 = %1621(%1620) /* ty=Tensor[(32, 14, 14, 1), float32] */;
  %1623 = fn (%p045: Tensor[(32, 14, 14, 512), float32] /* ty=Tensor[(32, 14, 14, 512), float32] */, %p132: Tensor[(32, 14, 14, 1), float32] /* ty=Tensor[(32, 14, 14, 1), float32] */, Primitive=1) -> Tensor[(32, 14, 14, 512), float32] {
    subtract(%p045, %p132) /* ty=Tensor[(32, 14, 14, 512), float32] */
  } /* ty=fn (Tensor[(32, 14, 14, 512), float32], Tensor[(32, 14, 14, 1), float32]) -> Tensor[(32, 14, 14, 512), float32] */;
  %1624 = %1623(%1620, %1622) /* ty=Tensor[(32, 14, 14, 512), float32] */;
  %1625 = fn (%p044: Tensor[(32, 14, 14, 512), float32] /* ty=Tensor[(32, 14, 14, 512), float32] */, Primitive=1) -> Tensor[(32, 14, 14, 1), float32] {
    %109 = power(%p044, 2f /* ty=float32 */) /* ty=Tensor[(32, 14, 14, 512), float32] */;
    mean(%109, axis=[3], keepdims=True) /* ty=Tensor[(32, 14, 14, 1), float32] */
  } /* ty=fn (Tensor[(32, 14, 14, 512), float32]) -> Tensor[(32, 14, 14, 1), float32] */;
  %1626 = %1625(%1624) /* ty=Tensor[(32, 14, 14, 1), float32] */;
  %1627 = fn (%p043: Tensor[(32, 14, 14, 1), float32] /* ty=Tensor[(32, 14, 14, 1), float32] */, %p131: Tensor[(32, 14, 14, 512), float32] /* ty=Tensor[(32, 14, 14, 512), float32] */, %p218: Tensor[(1, 1, 1, 512), float32] /* ty=Tensor[(1, 1, 1, 512), float32] */, %p39: Tensor[(1, 1, 1, 512), float32] /* ty=Tensor[(1, 1, 1, 512), float32] */, Primitive=1) -> Tensor[(6272, 512), float16] {
    %103 = add(%p043, 1.01328e-06f /* ty=float32 */) /* ty=Tensor[(32, 14, 14, 1), float32] */;
    %104 = rsqrt(%103) /* ty=Tensor[(32, 14, 14, 1), float32] */;
    %105 = multiply(%p131, %104) /* ty=Tensor[(32, 14, 14, 512), float32] */;
    %106 = multiply(%105, %p218) /* ty=Tensor[(32, 14, 14, 512), float32] */;
    %107 = add(%106, %p39) /* ty=Tensor[(32, 14, 14, 512), float32] */;
    %108 = reshape(%107, newshape=[-1, 512]) /* ty=Tensor[(6272, 512), float32] */;
    cast(%108, dtype="float16") /* ty=Tensor[(6272, 512), float16] */
  } /* ty=fn (Tensor[(32, 14, 14, 1), float32], Tensor[(32, 14, 14, 512), float32], Tensor[(1, 1, 1, 512), float32], Tensor[(1, 1, 1, 512), float32]) -> Tensor[(6272, 512), float16] */;
  %1628 = %1627(%1626, %1624, meta[relay.Constant][302] /* ty=Tensor[(1, 1, 1, 512), float32] */, meta[relay.Constant][303] /* ty=Tensor[(1, 1, 1, 512), float32] */) /* ty=Tensor[(6272, 512), float16] */;
  %1629 = fn (%p042: Tensor[(6272, 512), float16] /* ty=Tensor[(6272, 512), float16] */, %p130: Tensor[(2048, 512), float16] /* ty=Tensor[(2048, 512), float16] */, Primitive=1) -> Tensor[(6272, 2048), float16] {
    nn.dense(%p042, %p130, units=None, out_dtype="float16") /* ty=Tensor[(6272, 2048), float16] */
  } /* ty=fn (Tensor[(6272, 512), float16], Tensor[(2048, 512), float16]) -> Tensor[(6272, 2048), float16] */;
  %1630 = %1629(%1628, meta[relay.Constant][304] /* ty=Tensor[(2048, 512), float16] span=/features/features.5/features.5.26/block/block.3/MatMul:0:0 */) /* ty=Tensor[(6272, 2048), float16] */;
  %1631 = fn (%p041: Tensor[(6272, 2048), float16] /* ty=Tensor[(6272, 2048), float16] */, %p129: Tensor[(2048), float16] /* ty=Tensor[(2048), float16] */, %p217: float16 /* ty=float16 */, Primitive=1) -> Tensor[(6272, 2048), float16] {
    %93 = reshape(%p041, newshape=[32, 14, 14, 2048]) /* ty=Tensor[(32, 14, 14, 2048), float16] */;
    %94 = add(%p129, %93) /* ty=Tensor[(32, 14, 14, 2048), float16] */;
    %95 = divide(%94, %p217) /* ty=Tensor[(32, 14, 14, 2048), float16] */;
    %96 = cast(%95, dtype="float32") /* ty=Tensor[(32, 14, 14, 2048), float32] */;
    %97 = erf(%96) /* ty=Tensor[(32, 14, 14, 2048), float32] */;
    %98 = cast(%94, dtype="float32") /* ty=Tensor[(32, 14, 14, 2048), float32] */;
    %99 = add(%97, 1f /* ty=float32 */) /* ty=Tensor[(32, 14, 14, 2048), float32] */;
    %100 = multiply(%98, %99) /* ty=Tensor[(32, 14, 14, 2048), float32] */;
    %101 = multiply(%100, 0.5f /* ty=float32 */) /* ty=Tensor[(32, 14, 14, 2048), float32] */;
    %102 = reshape(%101, newshape=[-1, 2048]) /* ty=Tensor[(6272, 2048), float32] */;
    cast(%102, dtype="float16") /* ty=Tensor[(6272, 2048), float16] */
  } /* ty=fn (Tensor[(6272, 2048), float16], Tensor[(2048), float16], float16) -> Tensor[(6272, 2048), float16] */;
  %1632 = %1631(%1630, meta[relay.Constant][305] /* ty=Tensor[(2048), float16] span=Identity_21:0:0 */, 1.41406f16 /* ty=float16 span=/features/features.5/features.5.26/block/block.4/Constant:0:0 */) /* ty=Tensor[(6272, 2048), float16] */;
  %1633 = fn (%p040: Tensor[(6272, 2048), float16] /* ty=Tensor[(6272, 2048), float16] */, %p128: Tensor[(512, 2048), float16] /* ty=Tensor[(512, 2048), float16] */, Primitive=1) -> Tensor[(6272, 512), float16] {
    nn.dense(%p040, %p128, units=None, out_dtype="float16") /* ty=Tensor[(6272, 512), float16] */
  } /* ty=fn (Tensor[(6272, 2048), float16], Tensor[(512, 2048), float16]) -> Tensor[(6272, 512), float16] */;
  %1634 = %1633(%1632, meta[relay.Constant][306] /* ty=Tensor[(512, 2048), float16] span=/features/features.5/features.5.26/block/block.5/MatMul:0:0 */) /* ty=Tensor[(6272, 512), float16] */;
  %1635 = fn (%p039: Tensor[(6272, 512), float16] /* ty=Tensor[(6272, 512), float16] */, %p127: Tensor[(512), float16] /* ty=Tensor[(512), float16] */, %p216: Tensor[(512, 1, 1), float16] /* ty=Tensor[(512, 1, 1), float16] */, %p38: Tensor[(32, 512, 14, 14), float16] /* ty=Tensor[(32, 512, 14, 14), float16] */, Primitive=1) -> Tensor[(32, 14, 14, 512), float32] {
    %87 = reshape(%p039, newshape=[32, 14, 14, 512]) /* ty=Tensor[(32, 14, 14, 512), float16] */;
    %88 = add(%p127, %87) /* ty=Tensor[(32, 14, 14, 512), float16] */;
    %89 = transpose(%88, axes=[0, 3, 1, 2]) /* ty=Tensor[(32, 512, 14, 14), float16] */;
    %90 = multiply(%p216, %89) /* ty=Tensor[(32, 512, 14, 14), float16] */;
    %91 = add(%90, %p38) /* ty=Tensor[(32, 512, 14, 14), float16] */;
    %92 = transpose(%91, axes=[0, 2, 3, 1]) /* ty=Tensor[(32, 14, 14, 512), float16] */;
    cast(%92, dtype="float32") /* ty=Tensor[(32, 14, 14, 512), float32] */
  } /* ty=fn (Tensor[(6272, 512), float16], Tensor[(512), float16], Tensor[(512, 1, 1), float16], Tensor[(32, 512, 14, 14), float16]) -> Tensor[(32, 14, 14, 512), float32] */;
  %1636 = %1635(%1634, meta[relay.Constant][307] /* ty=Tensor[(512), float16] span=Identity_20:0:0 */, meta[relay.Constant][308] /* ty=Tensor[(512, 1, 1), float16] span=Identity_25:0:0 */, %1614) /* ty=Tensor[(32, 14, 14, 512), float32] */;
  %1637 = fn (%p0417: Tensor[(32, 14, 14, 512), float32] /* ty=Tensor[(32, 14, 14, 512), float32] */, Primitive=1) -> Tensor[(32, 14, 14, 1), float32] {
    mean(%p0417, axis=[3], keepdims=True) /* ty=Tensor[(32, 14, 14, 1), float32] */
  } /* ty=fn (Tensor[(32, 14, 14, 512), float32]) -> Tensor[(32, 14, 14, 1), float32] */;
  %1638 = %1637(%1636) /* ty=Tensor[(32, 14, 14, 1), float32] */;
  %1639 = fn (%p038: Tensor[(32, 14, 14, 512), float32] /* ty=Tensor[(32, 14, 14, 512), float32] */, %p126: Tensor[(32, 14, 14, 1), float32] /* ty=Tensor[(32, 14, 14, 1), float32] */, Primitive=1) -> Tensor[(32, 14, 14, 512), float32] {
    subtract(%p038, %p126) /* ty=Tensor[(32, 14, 14, 512), float32] */
  } /* ty=fn (Tensor[(32, 14, 14, 512), float32], Tensor[(32, 14, 14, 1), float32]) -> Tensor[(32, 14, 14, 512), float32] */;
  %1640 = %1639(%1636, %1638) /* ty=Tensor[(32, 14, 14, 512), float32] */;
  %1641 = fn (%p037: Tensor[(32, 14, 14, 512), float32] /* ty=Tensor[(32, 14, 14, 512), float32] */, Primitive=1) -> Tensor[(32, 14, 14, 1), float32] {
    %86 = power(%p037, 2f /* ty=float32 */) /* ty=Tensor[(32, 14, 14, 512), float32] */;
    mean(%86, axis=[3], keepdims=True) /* ty=Tensor[(32, 14, 14, 1), float32] */
  } /* ty=fn (Tensor[(32, 14, 14, 512), float32]) -> Tensor[(32, 14, 14, 1), float32] */;
  %1642 = %1641(%1640) /* ty=Tensor[(32, 14, 14, 1), float32] */;
  %1643 = fn (%p036: Tensor[(32, 14, 14, 1), float32] /* ty=Tensor[(32, 14, 14, 1), float32] */, %p125: Tensor[(32, 14, 14, 512), float32] /* ty=Tensor[(32, 14, 14, 512), float32] */, %p215: Tensor[(1, 1, 1, 512), float32] /* ty=Tensor[(1, 1, 1, 512), float32] */, %p37: Tensor[(1, 1, 1, 512), float32] /* ty=Tensor[(1, 1, 1, 512), float32] */, Primitive=1) -> Tensor[(32, 14, 14, 512), float16] {
    %81 = add(%p036, 1.01328e-06f /* ty=float32 */) /* ty=Tensor[(32, 14, 14, 1), float32] */;
    %82 = rsqrt(%81) /* ty=Tensor[(32, 14, 14, 1), float32] */;
    %83 = multiply(%p125, %82) /* ty=Tensor[(32, 14, 14, 512), float32] */;
    %84 = multiply(%83, %p215) /* ty=Tensor[(32, 14, 14, 512), float32] */;
    %85 = add(%84, %p37) /* ty=Tensor[(32, 14, 14, 512), float32] */;
    cast(%85, dtype="float16") /* ty=Tensor[(32, 14, 14, 512), float16] */
  } /* ty=fn (Tensor[(32, 14, 14, 1), float32], Tensor[(32, 14, 14, 512), float32], Tensor[(1, 1, 1, 512), float32], Tensor[(1, 1, 1, 512), float32]) -> Tensor[(32, 14, 14, 512), float16] */;
  %1644 = %1643(%1642, %1640, meta[relay.Constant][309] /* ty=Tensor[(1, 1, 1, 512), float32] */, meta[relay.Constant][310] /* ty=Tensor[(1, 1, 1, 512), float32] */) /* ty=Tensor[(32, 14, 14, 512), float16] */;
  %1645 = fn (%p035: Tensor[(32, 14, 14, 512), float16] /* ty=Tensor[(32, 14, 14, 512), float16] */, %p124: Tensor[(1024, 2, 2, 512), float16] /* ty=Tensor[(1024, 2, 2, 512), float16] */, %p214: Tensor[(1, 1, 1, 1024), float16] /* ty=Tensor[(1, 1, 1, 1024), float16] */, Primitive=1) -> Tensor[(32, 7, 7, 1024), float16] {
    %80 = nn.conv2d(%p035, %p124, strides=[2, 2], padding=[0, 0, 0, 0], channels=1024, kernel_size=[2, 2], data_layout="NHWC", kernel_layout="OHWI", out_dtype="float16") /* ty=Tensor[(32, 7, 7, 1024), float16] */;
    add(%80, %p214) /* ty=Tensor[(32, 7, 7, 1024), float16] */
  } /* ty=fn (Tensor[(32, 14, 14, 512), float16], Tensor[(1024, 2, 2, 512), float16], Tensor[(1, 1, 1, 1024), float16]) -> Tensor[(32, 7, 7, 1024), float16] */;
  %1646 = %1645(%1644, meta[relay.Constant][311] /* ty=Tensor[(1024, 2, 2, 512), float16] */, meta[relay.Constant][312] /* ty=Tensor[(1, 1, 1, 1024), float16] */) /* ty=Tensor[(32, 7, 7, 1024), float16] */;
  %1647 = fn (%p034: Tensor[(32, 7, 7, 1024), float16] /* ty=Tensor[(32, 7, 7, 1024), float16] */, %p123: Tensor[(1024, 7, 7, 1), float16] /* ty=Tensor[(1024, 7, 7, 1), float16] */, %p213: Tensor[(1, 1, 1, 1024), float16] /* ty=Tensor[(1, 1, 1, 1024), float16] */, Primitive=1) -> Tensor[(32, 7, 7, 1024), float16] {
    %79 = nn.conv2d(%p034, %p123, padding=[3, 3, 3, 3], groups=1024, channels=1024, kernel_size=[7, 7], data_layout="NHWC", kernel_layout="OHWI", out_dtype="float16") /* ty=Tensor[(32, 7, 7, 1024), float16] */;
    add(%79, %p213) /* ty=Tensor[(32, 7, 7, 1024), float16] */
  } /* ty=fn (Tensor[(32, 7, 7, 1024), float16], Tensor[(1024, 7, 7, 1), float16], Tensor[(1, 1, 1, 1024), float16]) -> Tensor[(32, 7, 7, 1024), float16] */;
  %1648 = %1647(%1646, meta[relay.Constant][313] /* ty=Tensor[(1024, 7, 7, 1), float16] */, meta[relay.Constant][314] /* ty=Tensor[(1, 1, 1, 1024), float16] */) /* ty=Tensor[(32, 7, 7, 1024), float16] */;
  %1649 = fn (%p033: Tensor[(32, 7, 7, 1024), float16] /* ty=Tensor[(32, 7, 7, 1024), float16] */, Primitive=1) -> Tensor[(32, 7, 7, 1024), float32] {
    %78 = transpose(%p033, axes=[0, 1, 2, 3]) /* ty=Tensor[(32, 7, 7, 1024), float16] */;
    cast(%78, dtype="float32") /* ty=Tensor[(32, 7, 7, 1024), float32] */
  } /* ty=fn (Tensor[(32, 7, 7, 1024), float16]) -> Tensor[(32, 7, 7, 1024), float32] */;
  %1650 = %1649(%1648) /* ty=Tensor[(32, 7, 7, 1024), float32] */;
  %1651 = fn (%p0418: Tensor[(32, 7, 7, 1024), float32] /* ty=Tensor[(32, 7, 7, 1024), float32] */, Primitive=1) -> Tensor[(32, 7, 7, 1), float32] {
    mean(%p0418, axis=[3], keepdims=True) /* ty=Tensor[(32, 7, 7, 1), float32] */
  } /* ty=fn (Tensor[(32, 7, 7, 1024), float32]) -> Tensor[(32, 7, 7, 1), float32] */;
  %1652 = %1651(%1650) /* ty=Tensor[(32, 7, 7, 1), float32] */;
  %1653 = fn (%p032: Tensor[(32, 7, 7, 1024), float32] /* ty=Tensor[(32, 7, 7, 1024), float32] */, %p122: Tensor[(32, 7, 7, 1), float32] /* ty=Tensor[(32, 7, 7, 1), float32] */, Primitive=1) -> Tensor[(32, 7, 7, 1024), float32] {
    subtract(%p032, %p122) /* ty=Tensor[(32, 7, 7, 1024), float32] */
  } /* ty=fn (Tensor[(32, 7, 7, 1024), float32], Tensor[(32, 7, 7, 1), float32]) -> Tensor[(32, 7, 7, 1024), float32] */;
  %1654 = %1653(%1650, %1652) /* ty=Tensor[(32, 7, 7, 1024), float32] */;
  %1655 = fn (%p031: Tensor[(32, 7, 7, 1024), float32] /* ty=Tensor[(32, 7, 7, 1024), float32] */, Primitive=1) -> Tensor[(32, 7, 7, 1), float32] {
    %77 = power(%p031, 2f /* ty=float32 */) /* ty=Tensor[(32, 7, 7, 1024), float32] */;
    mean(%77, axis=[3], keepdims=True) /* ty=Tensor[(32, 7, 7, 1), float32] */
  } /* ty=fn (Tensor[(32, 7, 7, 1024), float32]) -> Tensor[(32, 7, 7, 1), float32] */;
  %1656 = %1655(%1654) /* ty=Tensor[(32, 7, 7, 1), float32] */;
  %1657 = fn (%p030: Tensor[(32, 7, 7, 1), float32] /* ty=Tensor[(32, 7, 7, 1), float32] */, %p121: Tensor[(32, 7, 7, 1024), float32] /* ty=Tensor[(32, 7, 7, 1024), float32] */, %p212: Tensor[(1, 1, 1, 1024), float32] /* ty=Tensor[(1, 1, 1, 1024), float32] */, %p36: Tensor[(1, 1, 1, 1024), float32] /* ty=Tensor[(1, 1, 1, 1024), float32] */, Primitive=1) -> Tensor[(1568, 1024), float16] {
    %71 = add(%p030, 1.01328e-06f /* ty=float32 */) /* ty=Tensor[(32, 7, 7, 1), float32] */;
    %72 = rsqrt(%71) /* ty=Tensor[(32, 7, 7, 1), float32] */;
    %73 = multiply(%p121, %72) /* ty=Tensor[(32, 7, 7, 1024), float32] */;
    %74 = multiply(%73, %p212) /* ty=Tensor[(32, 7, 7, 1024), float32] */;
    %75 = add(%74, %p36) /* ty=Tensor[(32, 7, 7, 1024), float32] */;
    %76 = reshape(%75, newshape=[-1, 1024]) /* ty=Tensor[(1568, 1024), float32] */;
    cast(%76, dtype="float16") /* ty=Tensor[(1568, 1024), float16] */
  } /* ty=fn (Tensor[(32, 7, 7, 1), float32], Tensor[(32, 7, 7, 1024), float32], Tensor[(1, 1, 1, 1024), float32], Tensor[(1, 1, 1, 1024), float32]) -> Tensor[(1568, 1024), float16] */;
  %1658 = %1657(%1656, %1654, meta[relay.Constant][315] /* ty=Tensor[(1, 1, 1, 1024), float32] */, meta[relay.Constant][316] /* ty=Tensor[(1, 1, 1, 1024), float32] */) /* ty=Tensor[(1568, 1024), float16] */;
  %1659 = fn (%p029: Tensor[(1568, 1024), float16] /* ty=Tensor[(1568, 1024), float16] */, %p120: Tensor[(4096, 1024), float16] /* ty=Tensor[(4096, 1024), float16] */, Primitive=1) -> Tensor[(1568, 4096), float16] {
    nn.dense(%p029, %p120, units=None, out_dtype="float16") /* ty=Tensor[(1568, 4096), float16] */
  } /* ty=fn (Tensor[(1568, 1024), float16], Tensor[(4096, 1024), float16]) -> Tensor[(1568, 4096), float16] */;
  %1660 = %1659(%1658, meta[relay.Constant][317] /* ty=Tensor[(4096, 1024), float16] span=/features/features.7/features.7.0/block/block.3/MatMul:0:0 */) /* ty=Tensor[(1568, 4096), float16] */;
  %1661 = fn (%p028: Tensor[(1568, 4096), float16] /* ty=Tensor[(1568, 4096), float16] */, %p119: Tensor[(4096), float16] /* ty=Tensor[(4096), float16] */, %p211: float16 /* ty=float16 */, Primitive=1) -> Tensor[(1568, 4096), float16] {
    %61 = reshape(%p028, newshape=[32, 7, 7, 4096]) /* ty=Tensor[(32, 7, 7, 4096), float16] */;
    %62 = add(%p119, %61) /* ty=Tensor[(32, 7, 7, 4096), float16] */;
    %63 = divide(%62, %p211) /* ty=Tensor[(32, 7, 7, 4096), float16] */;
    %64 = cast(%63, dtype="float32") /* ty=Tensor[(32, 7, 7, 4096), float32] */;
    %65 = erf(%64) /* ty=Tensor[(32, 7, 7, 4096), float32] */;
    %66 = cast(%62, dtype="float32") /* ty=Tensor[(32, 7, 7, 4096), float32] */;
    %67 = add(%65, 1f /* ty=float32 */) /* ty=Tensor[(32, 7, 7, 4096), float32] */;
    %68 = multiply(%66, %67) /* ty=Tensor[(32, 7, 7, 4096), float32] */;
    %69 = multiply(%68, 0.5f /* ty=float32 */) /* ty=Tensor[(32, 7, 7, 4096), float32] */;
    %70 = reshape(%69, newshape=[-1, 4096]) /* ty=Tensor[(1568, 4096), float32] */;
    cast(%70, dtype="float16") /* ty=Tensor[(1568, 4096), float16] */
  } /* ty=fn (Tensor[(1568, 4096), float16], Tensor[(4096), float16], float16) -> Tensor[(1568, 4096), float16] */;
  %1662 = %1661(%1660, meta[relay.Constant][318] /* ty=Tensor[(4096), float16] span=Identity_3.features.7.0.block.3.bias:0:0 */, 1.41406f16 /* ty=float16 span=/features/features.7/features.7.0/block/block.4/Constant:0:0 */) /* ty=Tensor[(1568, 4096), float16] */;
  %1663 = fn (%p027: Tensor[(1568, 4096), float16] /* ty=Tensor[(1568, 4096), float16] */, %p118: Tensor[(1024, 4096), float16] /* ty=Tensor[(1024, 4096), float16] */, Primitive=1) -> Tensor[(1568, 1024), float16] {
    nn.dense(%p027, %p118, units=None, out_dtype="float16") /* ty=Tensor[(1568, 1024), float16] */
  } /* ty=fn (Tensor[(1568, 4096), float16], Tensor[(1024, 4096), float16]) -> Tensor[(1568, 1024), float16] */;
  %1664 = %1663(%1662, meta[relay.Constant][319] /* ty=Tensor[(1024, 4096), float16] span=/features/features.7/features.7.0/block/block.5/MatMul:0:0 */) /* ty=Tensor[(1568, 1024), float16] */;
  %1665 = fn (%p026: Tensor[(1568, 1024), float16] /* ty=Tensor[(1568, 1024), float16] */, %p117: Tensor[(1024), float16] /* ty=Tensor[(1024), float16] */, %p210: Tensor[(1024, 1, 1), float16] /* ty=Tensor[(1024, 1, 1), float16] */, %p35: Tensor[(32, 7, 7, 1024), float16] /* ty=Tensor[(32, 7, 7, 1024), float16] */, Primitive=1) -> Tensor[(32, 1024, 7, 7), float16] {
    %56 = reshape(%p026, newshape=[32, 7, 7, 1024]) /* ty=Tensor[(32, 7, 7, 1024), float16] */;
    %57 = add(%p117, %56) /* ty=Tensor[(32, 7, 7, 1024), float16] */;
    %58 = transpose(%57, axes=[0, 3, 1, 2]) /* ty=Tensor[(32, 1024, 7, 7), float16] */;
    %59 = multiply(%p210, %58) /* ty=Tensor[(32, 1024, 7, 7), float16] */;
    %60 = layout_transform(%p35, src_layout="NHWC", dst_layout="NCHW") /* ty=Tensor[(32, 1024, 7, 7), float16] */;
    add(%59, %60) /* ty=Tensor[(32, 1024, 7, 7), float16] */
  } /* ty=fn (Tensor[(1568, 1024), float16], Tensor[(1024), float16], Tensor[(1024, 1, 1), float16], Tensor[(32, 7, 7, 1024), float16]) -> Tensor[(32, 1024, 7, 7), float16] */;
  %1666 = %1665(%1664, meta[relay.Constant][320] /* ty=Tensor[(1024), float16] span=Identity_14:0:0 */, meta[relay.Constant][321] /* ty=Tensor[(1024, 1, 1), float16] span=Identity_7.features.7.0.layer_scale:0:0 */, %1646) /* ty=Tensor[(32, 1024, 7, 7), float16] */;
  %1667 = fn (%p025: Tensor[(32, 1024, 7, 7), float16] /* ty=Tensor[(32, 1024, 7, 7), float16] */, Primitive=1) -> Tensor[(32, 7, 7, 1024), float16] {
    layout_transform(%p025, src_layout="NCHW", dst_layout="NHWC") /* ty=Tensor[(32, 7, 7, 1024), float16] */
  } /* ty=fn (Tensor[(32, 1024, 7, 7), float16]) -> Tensor[(32, 7, 7, 1024), float16] */;
  %1668 = %1667(%1666) /* ty=Tensor[(32, 7, 7, 1024), float16] */;
  %1669 = fn (%p024: Tensor[(32, 7, 7, 1024), float16] /* ty=Tensor[(32, 7, 7, 1024), float16] */, %p116: Tensor[(1024, 7, 7, 1), float16] /* ty=Tensor[(1024, 7, 7, 1), float16] */, %p29: Tensor[(1, 1, 1, 1024), float16] /* ty=Tensor[(1, 1, 1, 1024), float16] */, Primitive=1) -> Tensor[(32, 7, 7, 1024), float16] {
    %55 = nn.conv2d(%p024, %p116, padding=[3, 3, 3, 3], groups=1024, channels=1024, kernel_size=[7, 7], data_layout="NHWC", kernel_layout="OHWI", out_dtype="float16") /* ty=Tensor[(32, 7, 7, 1024), float16] */;
    add(%55, %p29) /* ty=Tensor[(32, 7, 7, 1024), float16] */
  } /* ty=fn (Tensor[(32, 7, 7, 1024), float16], Tensor[(1024, 7, 7, 1), float16], Tensor[(1, 1, 1, 1024), float16]) -> Tensor[(32, 7, 7, 1024), float16] */;
  %1670 = %1669(%1668, meta[relay.Constant][322] /* ty=Tensor[(1024, 7, 7, 1), float16] */, meta[relay.Constant][323] /* ty=Tensor[(1, 1, 1, 1024), float16] */) /* ty=Tensor[(32, 7, 7, 1024), float16] */;
  %1671 = fn (%p023: Tensor[(32, 7, 7, 1024), float16] /* ty=Tensor[(32, 7, 7, 1024), float16] */, Primitive=1) -> Tensor[(32, 7, 7, 1024), float32] {
    %54 = transpose(%p023, axes=[0, 1, 2, 3]) /* ty=Tensor[(32, 7, 7, 1024), float16] */;
    cast(%54, dtype="float32") /* ty=Tensor[(32, 7, 7, 1024), float32] */
  } /* ty=fn (Tensor[(32, 7, 7, 1024), float16]) -> Tensor[(32, 7, 7, 1024), float32] */;
  %1672 = %1671(%1670) /* ty=Tensor[(32, 7, 7, 1024), float32] */;
  %1673 = fn (%p0419: Tensor[(32, 7, 7, 1024), float32] /* ty=Tensor[(32, 7, 7, 1024), float32] */, Primitive=1) -> Tensor[(32, 7, 7, 1), float32] {
    mean(%p0419, axis=[3], keepdims=True) /* ty=Tensor[(32, 7, 7, 1), float32] */
  } /* ty=fn (Tensor[(32, 7, 7, 1024), float32]) -> Tensor[(32, 7, 7, 1), float32] */;
  %1674 = %1673(%1672) /* ty=Tensor[(32, 7, 7, 1), float32] */;
  %1675 = fn (%p022: Tensor[(32, 7, 7, 1024), float32] /* ty=Tensor[(32, 7, 7, 1024), float32] */, %p115: Tensor[(32, 7, 7, 1), float32] /* ty=Tensor[(32, 7, 7, 1), float32] */, Primitive=1) -> Tensor[(32, 7, 7, 1024), float32] {
    subtract(%p022, %p115) /* ty=Tensor[(32, 7, 7, 1024), float32] */
  } /* ty=fn (Tensor[(32, 7, 7, 1024), float32], Tensor[(32, 7, 7, 1), float32]) -> Tensor[(32, 7, 7, 1024), float32] */;
  %1676 = %1675(%1672, %1674) /* ty=Tensor[(32, 7, 7, 1024), float32] */;
  %1677 = fn (%p021: Tensor[(32, 7, 7, 1024), float32] /* ty=Tensor[(32, 7, 7, 1024), float32] */, Primitive=1) -> Tensor[(32, 7, 7, 1), float32] {
    %53 = power(%p021, 2f /* ty=float32 */) /* ty=Tensor[(32, 7, 7, 1024), float32] */;
    mean(%53, axis=[3], keepdims=True) /* ty=Tensor[(32, 7, 7, 1), float32] */
  } /* ty=fn (Tensor[(32, 7, 7, 1024), float32]) -> Tensor[(32, 7, 7, 1), float32] */;
  %1678 = %1677(%1676) /* ty=Tensor[(32, 7, 7, 1), float32] */;
  %1679 = fn (%p020: Tensor[(32, 7, 7, 1), float32] /* ty=Tensor[(32, 7, 7, 1), float32] */, %p114: Tensor[(32, 7, 7, 1024), float32] /* ty=Tensor[(32, 7, 7, 1024), float32] */, %p28: Tensor[(1, 1, 1, 1024), float32] /* ty=Tensor[(1, 1, 1, 1024), float32] */, %p34: Tensor[(1, 1, 1, 1024), float32] /* ty=Tensor[(1, 1, 1, 1024), float32] */, Primitive=1) -> Tensor[(1568, 1024), float16] {
    %47 = add(%p020, 1.01328e-06f /* ty=float32 */) /* ty=Tensor[(32, 7, 7, 1), float32] */;
    %48 = rsqrt(%47) /* ty=Tensor[(32, 7, 7, 1), float32] */;
    %49 = multiply(%p114, %48) /* ty=Tensor[(32, 7, 7, 1024), float32] */;
    %50 = multiply(%49, %p28) /* ty=Tensor[(32, 7, 7, 1024), float32] */;
    %51 = add(%50, %p34) /* ty=Tensor[(32, 7, 7, 1024), float32] */;
    %52 = reshape(%51, newshape=[-1, 1024]) /* ty=Tensor[(1568, 1024), float32] */;
    cast(%52, dtype="float16") /* ty=Tensor[(1568, 1024), float16] */
  } /* ty=fn (Tensor[(32, 7, 7, 1), float32], Tensor[(32, 7, 7, 1024), float32], Tensor[(1, 1, 1, 1024), float32], Tensor[(1, 1, 1, 1024), float32]) -> Tensor[(1568, 1024), float16] */;
  %1680 = %1679(%1678, %1676, meta[relay.Constant][324] /* ty=Tensor[(1, 1, 1, 1024), float32] */, meta[relay.Constant][325] /* ty=Tensor[(1, 1, 1, 1024), float32] */) /* ty=Tensor[(1568, 1024), float16] */;
  %1681 = fn (%p019: Tensor[(1568, 1024), float16] /* ty=Tensor[(1568, 1024), float16] */, %p113: Tensor[(4096, 1024), float16] /* ty=Tensor[(4096, 1024), float16] */, Primitive=1) -> Tensor[(1568, 4096), float16] {
    nn.dense(%p019, %p113, units=None, out_dtype="float16") /* ty=Tensor[(1568, 4096), float16] */
  } /* ty=fn (Tensor[(1568, 1024), float16], Tensor[(4096, 1024), float16]) -> Tensor[(1568, 4096), float16] */;
  %1682 = %1681(%1680, meta[relay.Constant][326] /* ty=Tensor[(4096, 1024), float16] span=/features/features.7/features.7.1/block/block.3/MatMul:0:0 */) /* ty=Tensor[(1568, 4096), float16] */;
  %1683 = fn (%p018: Tensor[(1568, 4096), float16] /* ty=Tensor[(1568, 4096), float16] */, %p112: Tensor[(4096), float16] /* ty=Tensor[(4096), float16] */, %p27: float16 /* ty=float16 */, Primitive=1) -> Tensor[(1568, 4096), float16] {
    %37 = reshape(%p018, newshape=[32, 7, 7, 4096]) /* ty=Tensor[(32, 7, 7, 4096), float16] */;
    %38 = add(%p112, %37) /* ty=Tensor[(32, 7, 7, 4096), float16] */;
    %39 = divide(%38, %p27) /* ty=Tensor[(32, 7, 7, 4096), float16] */;
    %40 = cast(%39, dtype="float32") /* ty=Tensor[(32, 7, 7, 4096), float32] */;
    %41 = erf(%40) /* ty=Tensor[(32, 7, 7, 4096), float32] */;
    %42 = cast(%38, dtype="float32") /* ty=Tensor[(32, 7, 7, 4096), float32] */;
    %43 = add(%41, 1f /* ty=float32 */) /* ty=Tensor[(32, 7, 7, 4096), float32] */;
    %44 = multiply(%42, %43) /* ty=Tensor[(32, 7, 7, 4096), float32] */;
    %45 = multiply(%44, 0.5f /* ty=float32 */) /* ty=Tensor[(32, 7, 7, 4096), float32] */;
    %46 = reshape(%45, newshape=[-1, 4096]) /* ty=Tensor[(1568, 4096), float32] */;
    cast(%46, dtype="float16") /* ty=Tensor[(1568, 4096), float16] */
  } /* ty=fn (Tensor[(1568, 4096), float16], Tensor[(4096), float16], float16) -> Tensor[(1568, 4096), float16] */;
  %1684 = %1683(%1682, meta[relay.Constant][327] /* ty=Tensor[(4096), float16] span=Identity_9:0:0 */, 1.41406f16 /* ty=float16 span=/features/features.7/features.7.1/block/block.4/Constant:0:0 */) /* ty=Tensor[(1568, 4096), float16] */;
  %1685 = fn (%p017: Tensor[(1568, 4096), float16] /* ty=Tensor[(1568, 4096), float16] */, %p111: Tensor[(1024, 4096), float16] /* ty=Tensor[(1024, 4096), float16] */, Primitive=1) -> Tensor[(1568, 1024), float16] {
    nn.dense(%p017, %p111, units=None, out_dtype="float16") /* ty=Tensor[(1568, 1024), float16] */
  } /* ty=fn (Tensor[(1568, 4096), float16], Tensor[(1024, 4096), float16]) -> Tensor[(1568, 1024), float16] */;
  %1686 = %1685(%1684, meta[relay.Constant][328] /* ty=Tensor[(1024, 4096), float16] span=/features/features.7/features.7.1/block/block.5/MatMul:0:0 */) /* ty=Tensor[(1568, 1024), float16] */;
  %1687 = fn (%p016: Tensor[(1568, 1024), float16] /* ty=Tensor[(1568, 1024), float16] */, %p110: Tensor[(1024), float16] /* ty=Tensor[(1024), float16] */, %p26: Tensor[(1024, 1, 1), float16] /* ty=Tensor[(1024, 1, 1), float16] */, %p33: Tensor[(32, 1024, 7, 7), float16] /* ty=Tensor[(32, 1024, 7, 7), float16] */, Primitive=1) -> Tensor[(32, 1024, 7, 7), float16] {
    %33 = reshape(%p016, newshape=[32, 7, 7, 1024]) /* ty=Tensor[(32, 7, 7, 1024), float16] */;
    %34 = add(%p110, %33) /* ty=Tensor[(32, 7, 7, 1024), float16] */;
    %35 = transpose(%34, axes=[0, 3, 1, 2]) /* ty=Tensor[(32, 1024, 7, 7), float16] */;
    %36 = multiply(%p26, %35) /* ty=Tensor[(32, 1024, 7, 7), float16] */;
    add(%36, %p33) /* ty=Tensor[(32, 1024, 7, 7), float16] */
  } /* ty=fn (Tensor[(1568, 1024), float16], Tensor[(1024), float16], Tensor[(1024, 1, 1), float16], Tensor[(32, 1024, 7, 7), float16]) -> Tensor[(32, 1024, 7, 7), float16] */;
  %1688 = %1687(%1686, meta[relay.Constant][329] /* ty=Tensor[(1024), float16] span=Identity_8:0:0 */, meta[relay.Constant][330] /* ty=Tensor[(1024, 1, 1), float16] span=Identity_13:0:0 */, %1666) /* ty=Tensor[(32, 1024, 7, 7), float16] */;
  %1689 = fn (%p015: Tensor[(32, 1024, 7, 7), float16] /* ty=Tensor[(32, 1024, 7, 7), float16] */, Primitive=1) -> Tensor[(32, 7, 7, 1024), float16] {
    layout_transform(%p015, src_layout="NCHW", dst_layout="NHWC") /* ty=Tensor[(32, 7, 7, 1024), float16] */
  } /* ty=fn (Tensor[(32, 1024, 7, 7), float16]) -> Tensor[(32, 7, 7, 1024), float16] */;
  %1690 = %1689(%1688) /* ty=Tensor[(32, 7, 7, 1024), float16] */;
  %1691 = fn (%p014: Tensor[(32, 7, 7, 1024), float16] /* ty=Tensor[(32, 7, 7, 1024), float16] */, %p19: Tensor[(1024, 7, 7, 1), float16] /* ty=Tensor[(1024, 7, 7, 1), float16] */, %p25: Tensor[(1, 1, 1, 1024), float16] /* ty=Tensor[(1, 1, 1, 1024), float16] */, Primitive=1) -> Tensor[(32, 7, 7, 1024), float16] {
    %32 = nn.conv2d(%p014, %p19, padding=[3, 3, 3, 3], groups=1024, channels=1024, kernel_size=[7, 7], data_layout="NHWC", kernel_layout="OHWI", out_dtype="float16") /* ty=Tensor[(32, 7, 7, 1024), float16] */;
    add(%32, %p25) /* ty=Tensor[(32, 7, 7, 1024), float16] */
  } /* ty=fn (Tensor[(32, 7, 7, 1024), float16], Tensor[(1024, 7, 7, 1), float16], Tensor[(1, 1, 1, 1024), float16]) -> Tensor[(32, 7, 7, 1024), float16] */;
  %1692 = %1691(%1690, meta[relay.Constant][331] /* ty=Tensor[(1024, 7, 7, 1), float16] */, meta[relay.Constant][332] /* ty=Tensor[(1, 1, 1, 1024), float16] */) /* ty=Tensor[(32, 7, 7, 1024), float16] */;
  %1693 = fn (%p013: Tensor[(32, 7, 7, 1024), float16] /* ty=Tensor[(32, 7, 7, 1024), float16] */, Primitive=1) -> Tensor[(32, 7, 7, 1024), float32] {
    %31 = transpose(%p013, axes=[0, 1, 2, 3]) /* ty=Tensor[(32, 7, 7, 1024), float16] */;
    cast(%31, dtype="float32") /* ty=Tensor[(32, 7, 7, 1024), float32] */
  } /* ty=fn (Tensor[(32, 7, 7, 1024), float16]) -> Tensor[(32, 7, 7, 1024), float32] */;
  %1694 = %1693(%1692) /* ty=Tensor[(32, 7, 7, 1024), float32] */;
  %1695 = fn (%p0420: Tensor[(32, 7, 7, 1024), float32] /* ty=Tensor[(32, 7, 7, 1024), float32] */, Primitive=1) -> Tensor[(32, 7, 7, 1), float32] {
    mean(%p0420, axis=[3], keepdims=True) /* ty=Tensor[(32, 7, 7, 1), float32] */
  } /* ty=fn (Tensor[(32, 7, 7, 1024), float32]) -> Tensor[(32, 7, 7, 1), float32] */;
  %1696 = %1695(%1694) /* ty=Tensor[(32, 7, 7, 1), float32] */;
  %1697 = fn (%p012: Tensor[(32, 7, 7, 1024), float32] /* ty=Tensor[(32, 7, 7, 1024), float32] */, %p18: Tensor[(32, 7, 7, 1), float32] /* ty=Tensor[(32, 7, 7, 1), float32] */, Primitive=1) -> Tensor[(32, 7, 7, 1024), float32] {
    subtract(%p012, %p18) /* ty=Tensor[(32, 7, 7, 1024), float32] */
  } /* ty=fn (Tensor[(32, 7, 7, 1024), float32], Tensor[(32, 7, 7, 1), float32]) -> Tensor[(32, 7, 7, 1024), float32] */;
  %1698 = %1697(%1694, %1696) /* ty=Tensor[(32, 7, 7, 1024), float32] */;
  %1699 = fn (%p011: Tensor[(32, 7, 7, 1024), float32] /* ty=Tensor[(32, 7, 7, 1024), float32] */, Primitive=1) -> Tensor[(32, 7, 7, 1), float32] {
    %30 = power(%p011, 2f /* ty=float32 */) /* ty=Tensor[(32, 7, 7, 1024), float32] */;
    mean(%30, axis=[3], keepdims=True) /* ty=Tensor[(32, 7, 7, 1), float32] */
  } /* ty=fn (Tensor[(32, 7, 7, 1024), float32]) -> Tensor[(32, 7, 7, 1), float32] */;
  %1700 = %1699(%1698) /* ty=Tensor[(32, 7, 7, 1), float32] */;
  %1701 = fn (%p010: Tensor[(32, 7, 7, 1), float32] /* ty=Tensor[(32, 7, 7, 1), float32] */, %p17: Tensor[(32, 7, 7, 1024), float32] /* ty=Tensor[(32, 7, 7, 1024), float32] */, %p24: Tensor[(1, 1, 1, 1024), float32] /* ty=Tensor[(1, 1, 1, 1024), float32] */, %p32: Tensor[(1, 1, 1, 1024), float32] /* ty=Tensor[(1, 1, 1, 1024), float32] */, Primitive=1) -> Tensor[(1568, 1024), float16] {
    %24 = add(%p010, 1.01328e-06f /* ty=float32 */) /* ty=Tensor[(32, 7, 7, 1), float32] */;
    %25 = rsqrt(%24) /* ty=Tensor[(32, 7, 7, 1), float32] */;
    %26 = multiply(%p17, %25) /* ty=Tensor[(32, 7, 7, 1024), float32] */;
    %27 = multiply(%26, %p24) /* ty=Tensor[(32, 7, 7, 1024), float32] */;
    %28 = add(%27, %p32) /* ty=Tensor[(32, 7, 7, 1024), float32] */;
    %29 = reshape(%28, newshape=[-1, 1024]) /* ty=Tensor[(1568, 1024), float32] */;
    cast(%29, dtype="float16") /* ty=Tensor[(1568, 1024), float16] */
  } /* ty=fn (Tensor[(32, 7, 7, 1), float32], Tensor[(32, 7, 7, 1024), float32], Tensor[(1, 1, 1, 1024), float32], Tensor[(1, 1, 1, 1024), float32]) -> Tensor[(1568, 1024), float16] */;
  %1702 = %1701(%1700, %1698, meta[relay.Constant][333] /* ty=Tensor[(1, 1, 1, 1024), float32] */, meta[relay.Constant][334] /* ty=Tensor[(1, 1, 1, 1024), float32] */) /* ty=Tensor[(1568, 1024), float16] */;
  %1703 = fn (%p09: Tensor[(1568, 1024), float16] /* ty=Tensor[(1568, 1024), float16] */, %p16: Tensor[(4096, 1024), float16] /* ty=Tensor[(4096, 1024), float16] */, Primitive=1) -> Tensor[(1568, 4096), float16] {
    nn.dense(%p09, %p16, units=None, out_dtype="float16") /* ty=Tensor[(1568, 4096), float16] */
  } /* ty=fn (Tensor[(1568, 1024), float16], Tensor[(4096, 1024), float16]) -> Tensor[(1568, 4096), float16] */;
  %1704 = %1703(%1702, meta[relay.Constant][335] /* ty=Tensor[(4096, 1024), float16] span=/features/features.7/features.7.2/block/block.3/MatMul:0:0 */) /* ty=Tensor[(1568, 4096), float16] */;
  %1705 = fn (%p08: Tensor[(1568, 4096), float16] /* ty=Tensor[(1568, 4096), float16] */, %p15: Tensor[(4096), float16] /* ty=Tensor[(4096), float16] */, %p23: float16 /* ty=float16 */, Primitive=1) -> Tensor[(1568, 4096), float16] {
    %14 = reshape(%p08, newshape=[32, 7, 7, 4096]) /* ty=Tensor[(32, 7, 7, 4096), float16] */;
    %15 = add(%p15, %14) /* ty=Tensor[(32, 7, 7, 4096), float16] */;
    %16 = divide(%15, %p23) /* ty=Tensor[(32, 7, 7, 4096), float16] */;
    %17 = cast(%16, dtype="float32") /* ty=Tensor[(32, 7, 7, 4096), float32] */;
    %18 = erf(%17) /* ty=Tensor[(32, 7, 7, 4096), float32] */;
    %19 = cast(%15, dtype="float32") /* ty=Tensor[(32, 7, 7, 4096), float32] */;
    %20 = add(%18, 1f /* ty=float32 */) /* ty=Tensor[(32, 7, 7, 4096), float32] */;
    %21 = multiply(%19, %20) /* ty=Tensor[(32, 7, 7, 4096), float32] */;
    %22 = multiply(%21, 0.5f /* ty=float32 */) /* ty=Tensor[(32, 7, 7, 4096), float32] */;
    %23 = reshape(%22, newshape=[-1, 4096]) /* ty=Tensor[(1568, 4096), float32] */;
    cast(%23, dtype="float16") /* ty=Tensor[(1568, 4096), float16] */
  } /* ty=fn (Tensor[(1568, 4096), float16], Tensor[(4096), float16], float16) -> Tensor[(1568, 4096), float16] */;
  %1706 = %1705(%1704, meta[relay.Constant][336] /* ty=Tensor[(4096), float16] span=Identity_3:0:0 */, 1.41406f16 /* ty=float16 span=/features/features.7/features.7.2/block/block.4/Constant:0:0 */) /* ty=Tensor[(1568, 4096), float16] */;
  %1707 = fn (%p07: Tensor[(1568, 4096), float16] /* ty=Tensor[(1568, 4096), float16] */, %p14: Tensor[(1024, 4096), float16] /* ty=Tensor[(1024, 4096), float16] */, Primitive=1) -> Tensor[(1568, 1024), float16] {
    nn.dense(%p07, %p14, units=None, out_dtype="float16") /* ty=Tensor[(1568, 1024), float16] */
  } /* ty=fn (Tensor[(1568, 4096), float16], Tensor[(1024, 4096), float16]) -> Tensor[(1568, 1024), float16] */;
  %1708 = %1707(%1706, meta[relay.Constant][337] /* ty=Tensor[(1024, 4096), float16] span=/features/features.7/features.7.2/block/block.5/MatMul:0:0 */) /* ty=Tensor[(1568, 1024), float16] */;
  %1709 = fn (%p06: Tensor[(1568, 1024), float16] /* ty=Tensor[(1568, 1024), float16] */, %p13: Tensor[(1024), float16] /* ty=Tensor[(1024), float16] */, %p22: Tensor[(1024, 1, 1), float16] /* ty=Tensor[(1024, 1, 1), float16] */, %p31: Tensor[(32, 1024, 7, 7), float16] /* ty=Tensor[(32, 1024, 7, 7), float16] */, Primitive=1) -> Tensor[(32, 1024, 7, 7), float32] {
    %9 = reshape(%p06, newshape=[32, 7, 7, 1024]) /* ty=Tensor[(32, 7, 7, 1024), float16] */;
    %10 = add(%p13, %9) /* ty=Tensor[(32, 7, 7, 1024), float16] */;
    %11 = transpose(%10, axes=[0, 3, 1, 2]) /* ty=Tensor[(32, 1024, 7, 7), float16] */;
    %12 = multiply(%p22, %11) /* ty=Tensor[(32, 1024, 7, 7), float16] */;
    %13 = add(%12, %p31) /* ty=Tensor[(32, 1024, 7, 7), float16] */;
    cast(%13, dtype="float32") /* ty=Tensor[(32, 1024, 7, 7), float32] */
  } /* ty=fn (Tensor[(1568, 1024), float16], Tensor[(1024), float16], Tensor[(1024, 1, 1), float16], Tensor[(32, 1024, 7, 7), float16]) -> Tensor[(32, 1024, 7, 7), float32] */;
  %1710 = %1709(%1708, meta[relay.Constant][338] /* ty=Tensor[(1024), float16] span=Identity_2:0:0 */, meta[relay.Constant][339] /* ty=Tensor[(1024, 1, 1), float16] span=Identity_7:0:0 */, %1688) /* ty=Tensor[(32, 1024, 7, 7), float32] */;
  %1711 = fn (%p05: Tensor[(32, 1024, 7, 7), float32] /* ty=Tensor[(32, 1024, 7, 7), float32] */, Primitive=1) -> Tensor[(32, 1024, 1, 1), float32] {
    nn.global_avg_pool2d(%p05) /* ty=Tensor[(32, 1024, 1, 1), float32] */
  } /* ty=fn (Tensor[(32, 1024, 7, 7), float32]) -> Tensor[(32, 1024, 1, 1), float32] */;
  %1712 = %1711(%1710) /* ty=Tensor[(32, 1024, 1, 1), float32] */;
  %1713 = fn (%p04: Tensor[(32, 1024, 1, 1), float32] /* ty=Tensor[(32, 1024, 1, 1), float32] */, Primitive=1) -> Tensor[(32, 1, 1, 1024), float32] {
    transpose(%p04, axes=[0, 2, 3, 1]) /* ty=Tensor[(32, 1, 1, 1024), float32] */
  } /* ty=fn (Tensor[(32, 1024, 1, 1), float32]) -> Tensor[(32, 1, 1, 1024), float32] */;
  %1714 = %1713(%1712) /* ty=Tensor[(32, 1, 1, 1024), float32] */;
  %1715 = fn (%p0421: Tensor[(32, 1, 1, 1024), float32] /* ty=Tensor[(32, 1, 1, 1024), float32] */, Primitive=1) -> Tensor[(32, 1, 1, 1), float32] {
    mean(%p0421, axis=[3], keepdims=True) /* ty=Tensor[(32, 1, 1, 1), float32] */
  } /* ty=fn (Tensor[(32, 1, 1, 1024), float32]) -> Tensor[(32, 1, 1, 1), float32] */;
  %1716 = %1715(%1714) /* ty=Tensor[(32, 1, 1, 1), float32] */;
  %1717 = fn (%p03: Tensor[(32, 1, 1, 1024), float32] /* ty=Tensor[(32, 1, 1, 1024), float32] */, %p12: Tensor[(32, 1, 1, 1), float32] /* ty=Tensor[(32, 1, 1, 1), float32] */, Primitive=1) -> Tensor[(32, 1, 1, 1024), float32] {
    subtract(%p03, %p12) /* ty=Tensor[(32, 1, 1, 1024), float32] */
  } /* ty=fn (Tensor[(32, 1, 1, 1024), float32], Tensor[(32, 1, 1, 1), float32]) -> Tensor[(32, 1, 1, 1024), float32] */;
  %1718 = %1717(%1714, %1716) /* ty=Tensor[(32, 1, 1, 1024), float32] */;
  %1719 = fn (%p02: Tensor[(32, 1, 1, 1024), float32] /* ty=Tensor[(32, 1, 1, 1024), float32] */, Primitive=1) -> Tensor[(32, 1, 1, 1), float32] {
    %8 = power(%p02, 2f /* ty=float32 */) /* ty=Tensor[(32, 1, 1, 1024), float32] */;
    mean(%8, axis=[3], keepdims=True) /* ty=Tensor[(32, 1, 1, 1), float32] */
  } /* ty=fn (Tensor[(32, 1, 1, 1024), float32]) -> Tensor[(32, 1, 1, 1), float32] */;
  %1720 = %1719(%1718) /* ty=Tensor[(32, 1, 1, 1), float32] */;
  %1721 = fn (%p01: Tensor[(32, 1, 1, 1), float32] /* ty=Tensor[(32, 1, 1, 1), float32] */, %p11: Tensor[(32, 1, 1, 1024), float32] /* ty=Tensor[(32, 1, 1, 1024), float32] */, %p21: Tensor[(1, 1, 1, 1024), float32] /* ty=Tensor[(1, 1, 1, 1024), float32] */, %p3: Tensor[(1, 1, 1, 1024), float32] /* ty=Tensor[(1, 1, 1, 1024), float32] */, Primitive=1) -> Tensor[(32, 1024), float16] {
    %1 = add(%p01, 1.01328e-06f /* ty=float32 */) /* ty=Tensor[(32, 1, 1, 1), float32] */;
    %2 = rsqrt(%1) /* ty=Tensor[(32, 1, 1, 1), float32] */;
    %3 = multiply(%p11, %2) /* ty=Tensor[(32, 1, 1, 1024), float32] */;
    %4 = multiply(%3, %p21) /* ty=Tensor[(32, 1, 1, 1024), float32] */;
    %5 = add(%4, %p3) /* ty=Tensor[(32, 1, 1, 1024), float32] */;
    %6 = transpose(%5, axes=[0, 3, 1, 2]) /* ty=Tensor[(32, 1024, 1, 1), float32] */;
    %7 = nn.batch_flatten(%6) /* ty=Tensor[(32, 1024), float32] */;
    cast(%7, dtype="float16") /* ty=Tensor[(32, 1024), float16] */
  } /* ty=fn (Tensor[(32, 1, 1, 1), float32], Tensor[(32, 1, 1, 1024), float32], Tensor[(1, 1, 1, 1024), float32], Tensor[(1, 1, 1, 1024), float32]) -> Tensor[(32, 1024), float16] */;
  %1722 = %1721(%1720, %1718, meta[relay.Constant][340] /* ty=Tensor[(1, 1, 1, 1024), float32] */, meta[relay.Constant][341] /* ty=Tensor[(1, 1, 1, 1024), float32] */) /* ty=Tensor[(32, 1024), float16] */;
  %1723 = fn (%p0: Tensor[(32, 1024), float16] /* ty=Tensor[(32, 1024), float16] */, %p1: Tensor[(1000, 1024), float16] /* ty=Tensor[(1000, 1024), float16] */, %p2: Tensor[(1, 1000), float16] /* ty=Tensor[(1, 1000), float16] */, Primitive=1) -> Tensor[(32, 1000), float16] {
    %0 = nn.dense(%p0, %p1, units=1000, out_dtype="float16") /* ty=Tensor[(32, 1000), float16] */;
    add(%0, %p2) /* ty=Tensor[(32, 1000), float16] */
  } /* ty=fn (Tensor[(32, 1024), float16], Tensor[(1000, 1024), float16], Tensor[(1, 1000), float16]) -> Tensor[(32, 1000), float16] */;
  %1723(%1722, meta[relay.Constant][342] /* ty=Tensor[(1000, 1024), float16] span=/classifier/classifier.2/Gemm.classifier.2.weight:0:0 */, meta[relay.Constant][343] /* ty=Tensor[(1, 1000), float16] */) /* ty=Tensor[(32, 1000), float16] */
}


