type List[A] {
  Cons(A, List[A]),
  Nil,
}

type Option[A] {
  Some(A),
  None,
}

type Tree[A] {
  Rose(A, List[Tree[A]]),
}

type tensor_float16_t {
  tensor_nil_float16,
  tensor0_float16(float16),
  tensor1_float16(Tensor[(?), float16]),
  tensor2_float16(Tensor[(?, ?), float16]),
  tensor3_float16(Tensor[(?, ?, ?), float16]),
  tensor4_float16(Tensor[(?, ?, ?, ?), float16]),
  tensor5_float16(Tensor[(?, ?, ?, ?, ?), float16]),
  tensor6_float16(Tensor[(?, ?, ?, ?, ?, ?), float16]),
}

type tensor_float32_t {
  tensor_nil_float32,
  tensor0_float32(float32),
  tensor1_float32(Tensor[(?), float32]),
  tensor2_float32(Tensor[(?, ?), float32]),
  tensor3_float32(Tensor[(?, ?, ?), float32]),
  tensor4_float32(Tensor[(?, ?, ?, ?), float32]),
  tensor5_float32(Tensor[(?, ?, ?, ?, ?), float32]),
  tensor6_float32(Tensor[(?, ?, ?, ?, ?, ?), float32]),
}

type tensor_float64_t {
  tensor_nil_float64,
  tensor0_float64(float64),
  tensor1_float64(Tensor[(?), float64]),
  tensor2_float64(Tensor[(?, ?), float64]),
  tensor3_float64(Tensor[(?, ?, ?), float64]),
  tensor4_float64(Tensor[(?, ?, ?, ?), float64]),
  tensor5_float64(Tensor[(?, ?, ?, ?, ?), float64]),
  tensor6_float64(Tensor[(?, ?, ?, ?, ?, ?), float64]),
}

type tensor_int16_t {
  tensor_nil_int16,
  tensor0_int16(int16),
  tensor1_int16(Tensor[(?), int16]),
  tensor2_int16(Tensor[(?, ?), int16]),
  tensor3_int16(Tensor[(?, ?, ?), int16]),
  tensor4_int16(Tensor[(?, ?, ?, ?), int16]),
  tensor5_int16(Tensor[(?, ?, ?, ?, ?), int16]),
  tensor6_int16(Tensor[(?, ?, ?, ?, ?, ?), int16]),
}

type tensor_int32_t {
  tensor_nil_int32,
  tensor0_int32(int32),
  tensor1_int32(Tensor[(?), int32]),
  tensor2_int32(Tensor[(?, ?), int32]),
  tensor3_int32(Tensor[(?, ?, ?), int32]),
  tensor4_int32(Tensor[(?, ?, ?, ?), int32]),
  tensor5_int32(Tensor[(?, ?, ?, ?, ?), int32]),
  tensor6_int32(Tensor[(?, ?, ?, ?, ?, ?), int32]),
}

type tensor_int64_t {
  tensor_nil_int64,
  tensor0_int64(int64),
  tensor1_int64(Tensor[(?), int64]),
  tensor2_int64(Tensor[(?, ?), int64]),
  tensor3_int64(Tensor[(?, ?, ?), int64]),
  tensor4_int64(Tensor[(?, ?, ?, ?), int64]),
  tensor5_int64(Tensor[(?, ?, ?, ?, ?), int64]),
  tensor6_int64(Tensor[(?, ?, ?, ?, ?, ?), int64]),
}

type tensor_int8_t {
  tensor_nil_int8,
  tensor0_int8(int8),
  tensor1_int8(Tensor[(?), int8]),
  tensor2_int8(Tensor[(?, ?), int8]),
  tensor3_int8(Tensor[(?, ?, ?), int8]),
  tensor4_int8(Tensor[(?, ?, ?, ?), int8]),
  tensor5_int8(Tensor[(?, ?, ?, ?, ?), int8]),
  tensor6_int8(Tensor[(?, ?, ?, ?, ?, ?), int8]),
}

type tensor_uint16_t {
  tensor_nil_uint16,
  tensor0_uint16(uint16),
  tensor1_uint16(Tensor[(?), uint16]),
  tensor2_uint16(Tensor[(?, ?), uint16]),
  tensor3_uint16(Tensor[(?, ?, ?), uint16]),
  tensor4_uint16(Tensor[(?, ?, ?, ?), uint16]),
  tensor5_uint16(Tensor[(?, ?, ?, ?, ?), uint16]),
  tensor6_uint16(Tensor[(?, ?, ?, ?, ?, ?), uint16]),
}

type tensor_uint8_t {
  tensor_nil_uint8,
  tensor0_uint8(uint8),
  tensor1_uint8(Tensor[(?), uint8]),
  tensor2_uint8(Tensor[(?, ?), uint8]),
  tensor3_uint8(Tensor[(?, ?, ?), uint8]),
  tensor4_uint8(Tensor[(?, ?, ?, ?), uint8]),
  tensor5_uint8(Tensor[(?, ?, ?, ?, ?), uint8]),
  tensor6_uint8(Tensor[(?, ?, ?, ?, ?, ?), uint8]),
}

def @main(%input0: Tensor[(16, 3, 331, 331), float32] /* ty=Tensor[(16, 3, 331, 331), float32] span=aten::_convolution_0.input0:0:0 */) -> Tensor[(16, 1000), float16] {
  %54 = fn (%p049: Tensor[(16, 3, 331, 331), float32] /* ty=Tensor[(16, 3, 331, 331), float32] */, Primitive=1) -> Tensor[(16, 331, 331, 3), float16] {
    %53 = cast(%p049, dtype="float16") /* ty=Tensor[(16, 3, 331, 331), float16] */;
    layout_transform(%53, src_layout="NCHW", dst_layout="NHWC") /* ty=Tensor[(16, 331, 331, 3), float16] */
  } /* ty=fn (Tensor[(16, 3, 331, 331), float32]) -> Tensor[(16, 331, 331, 3), float16] */;
  %55 = %54(%input0) /* ty=Tensor[(16, 331, 331, 3), float16] */;
  %56 = fn (%p048: Tensor[(16, 331, 331, 3), float16] /* ty=Tensor[(16, 331, 331, 3), float16] */, %p135: Tensor[(96, 3, 3, 3), float16] /* ty=Tensor[(96, 3, 3, 3), float16] */, %p227: Tensor[(96), float16] /* ty=Tensor[(96), float16] */, %p326: Tensor[(96), float16] /* ty=Tensor[(96), float16] */, Primitive=1) -> Tensor[(16, 165, 165, 96), float16] {
    %51 = nn.conv2d(%p048, %p135, strides=[2, 2], padding=[0, 0, 0, 0], channels=96, kernel_size=[3, 3], data_layout="NHWC", kernel_layout="OHWI", out_dtype="float16") /* ty=Tensor[(16, 165, 165, 96), float16] */;
    %52 = multiply(%51, %p227) /* ty=Tensor[(16, 165, 165, 96), float16] */;
    add(%52, %p326) /* ty=Tensor[(16, 165, 165, 96), float16] */
  } /* ty=fn (Tensor[(16, 331, 331, 3), float16], Tensor[(96, 3, 3, 3), float16], Tensor[(96), float16], Tensor[(96), float16]) -> Tensor[(16, 165, 165, 96), float16] */;
  %57 = %56(%55, meta[relay.Constant][0] /* ty=Tensor[(96, 3, 3, 3), float16] */, meta[relay.Constant][1] /* ty=Tensor[(96), float16] */, meta[relay.Constant][2] /* ty=Tensor[(96), float16] */) /* ty=Tensor[(16, 165, 165, 96), float16] */;
  %58 = fn (%p047: Tensor[(16, 165, 165, 96), float16] /* ty=Tensor[(16, 165, 165, 96), float16] */, Primitive=1) -> Tensor[(16, 165, 165, 96), float16] {
    nn.relu(%p047) /* ty=Tensor[(16, 165, 165, 96), float16] */
  } /* ty=fn (Tensor[(16, 165, 165, 96), float16]) -> Tensor[(16, 165, 165, 96), float16] */;
  %59 = %58(%57) /* ty=Tensor[(16, 165, 165, 96), float16] */;
  %60 = fn (%p046: Tensor[(16, 165, 165, 96), float16] /* ty=Tensor[(16, 165, 165, 96), float16] */, %p134: Tensor[(42, 1, 1, 96), float16] /* ty=Tensor[(42, 1, 1, 96), float16] */, %p226: Tensor[(42), float16] /* ty=Tensor[(42), float16] */, %p325: Tensor[(42), float16] /* ty=Tensor[(42), float16] */, Primitive=1) -> Tensor[(16, 165, 165, 42), float16] {
    %49 = nn.conv2d(%p046, %p134, padding=[0, 0, 0, 0], channels=42, kernel_size=[1, 1], data_layout="NHWC", kernel_layout="OHWI", out_dtype="float16") /* ty=Tensor[(16, 165, 165, 42), float16] */;
    %50 = multiply(%49, %p226) /* ty=Tensor[(16, 165, 165, 42), float16] */;
    add(%50, %p325) /* ty=Tensor[(16, 165, 165, 42), float16] */
  } /* ty=fn (Tensor[(16, 165, 165, 96), float16], Tensor[(42, 1, 1, 96), float16], Tensor[(42), float16], Tensor[(42), float16]) -> Tensor[(16, 165, 165, 42), float16] */;
  %61 = %60(%59, meta[relay.Constant][3] /* ty=Tensor[(42, 1, 1, 96), float16] */, meta[relay.Constant][4] /* ty=Tensor[(42), float16] */, meta[relay.Constant][5] /* ty=Tensor[(42), float16] */) /* ty=Tensor[(16, 165, 165, 42), float16] */;
  %62 = fn (%p045: Tensor[(16, 165, 165, 42), float16] /* ty=Tensor[(16, 165, 165, 42), float16] */, %p133: float16 /* ty=float16 */, Primitive=1) -> Tensor[(16, 167, 167, 42), float16] {
    nn.pad(%p045, %p133, pad_width=[[0, 0], [1, 1], [1, 1], [0, 0]]) /* ty=Tensor[(16, 167, 167, 42), float16] */
  } /* ty=fn (Tensor[(16, 165, 165, 42), float16], float16) -> Tensor[(16, 167, 167, 42), float16] */;
  %69 = fn (%p054: Tensor[(16, 165, 165, 96), float16] /* ty=Tensor[(16, 165, 165, 96), float16] */, %p140: float16 /* ty=float16 */, Primitive=1) -> Tensor[(16, 171, 171, 96), float16] {
    %68 = nn.relu(%p054) /* ty=Tensor[(16, 165, 165, 96), float16] */;
    nn.pad(%68, %p140, pad_width=[[0, 0], [3, 3], [3, 3], [0, 0]]) /* ty=Tensor[(16, 171, 171, 96), float16] */
  } /* ty=fn (Tensor[(16, 165, 165, 96), float16], float16) -> Tensor[(16, 171, 171, 96), float16] */;
  %70 = %69(%57, 0f16 /* ty=float16 */) /* ty=Tensor[(16, 171, 171, 96), float16] */;
  %71 = fn (%p053: Tensor[(16, 171, 171, 96), float16] /* ty=Tensor[(16, 171, 171, 96), float16] */, %p139: Tensor[(96, 7, 7, 1), float16] /* ty=Tensor[(96, 7, 7, 1), float16] */, Primitive=1) -> Tensor[(16, 83, 83, 96), float16] {
    nn.conv2d(%p053, %p139, strides=[2, 2], padding=[0, 0, 0, 0], groups=96, channels=96, kernel_size=[7, 7], data_layout="NHWC", kernel_layout="OHWI", out_dtype="float16") /* ty=Tensor[(16, 83, 83, 96), float16] */
  } /* ty=fn (Tensor[(16, 171, 171, 96), float16], Tensor[(96, 7, 7, 1), float16]) -> Tensor[(16, 83, 83, 96), float16] */;
  %72 = %71(%70, meta[relay.Constant][6] /* ty=Tensor[(96, 7, 7, 1), float16] */) /* ty=Tensor[(16, 83, 83, 96), float16] */;
  %73 = fn (%p052: Tensor[(16, 83, 83, 96), float16] /* ty=Tensor[(16, 83, 83, 96), float16] */, %p138: Tensor[(42, 1, 1, 96), float16] /* ty=Tensor[(42, 1, 1, 96), float16] */, %p229: Tensor[(42), float16] /* ty=Tensor[(42), float16] */, %p328: Tensor[(42), float16] /* ty=Tensor[(42), float16] */, Primitive=1) -> Tensor[(16, 83, 83, 42), float16] {
    %65 = nn.conv2d(%p052, %p138, padding=[0, 0, 0, 0], channels=42, kernel_size=[1, 1], data_layout="NHWC", kernel_layout="OHWI", out_dtype="float16") /* ty=Tensor[(16, 83, 83, 42), float16] */;
    %66 = multiply(%65, %p229) /* ty=Tensor[(16, 83, 83, 42), float16] */;
    %67 = add(%66, %p328) /* ty=Tensor[(16, 83, 83, 42), float16] */;
    nn.relu(%67) /* ty=Tensor[(16, 83, 83, 42), float16] */
  } /* ty=fn (Tensor[(16, 83, 83, 96), float16], Tensor[(42, 1, 1, 96), float16], Tensor[(42), float16], Tensor[(42), float16]) -> Tensor[(16, 83, 83, 42), float16] */;
  %74 = %73(%72, meta[relay.Constant][7] /* ty=Tensor[(42, 1, 1, 96), float16] */, meta[relay.Constant][8] /* ty=Tensor[(42), float16] */, meta[relay.Constant][9] /* ty=Tensor[(42), float16] */) /* ty=Tensor[(16, 83, 83, 42), float16] */;
  %75 = fn (%p051: Tensor[(16, 83, 83, 42), float16] /* ty=Tensor[(16, 83, 83, 42), float16] */, %p137: Tensor[(42, 7, 7, 1), float16] /* ty=Tensor[(42, 7, 7, 1), float16] */, Primitive=1) -> Tensor[(16, 83, 83, 42), float16] {
    nn.conv2d(%p051, %p137, padding=[3, 3, 3, 3], groups=42, channels=42, kernel_size=[7, 7], data_layout="NHWC", kernel_layout="OHWI", out_dtype="float16") /* ty=Tensor[(16, 83, 83, 42), float16] */
  } /* ty=fn (Tensor[(16, 83, 83, 42), float16], Tensor[(42, 7, 7, 1), float16]) -> Tensor[(16, 83, 83, 42), float16] */;
  %76 = %75(%74, meta[relay.Constant][10] /* ty=Tensor[(42, 7, 7, 1), float16] */) /* ty=Tensor[(16, 83, 83, 42), float16] */;
  %77 = fn (%p050: Tensor[(16, 83, 83, 42), float16] /* ty=Tensor[(16, 83, 83, 42), float16] */, %p136: Tensor[(42, 1, 1, 42), float16] /* ty=Tensor[(42, 1, 1, 42), float16] */, %p228: Tensor[(42), float16] /* ty=Tensor[(42), float16] */, %p327: Tensor[(42), float16] /* ty=Tensor[(42), float16] */, Primitive=1) -> Tensor[(16, 83, 83, 42), float16] {
    %63 = nn.conv2d(%p050, %p136, padding=[0, 0, 0, 0], channels=42, kernel_size=[1, 1], data_layout="NHWC", kernel_layout="OHWI", out_dtype="float16") /* ty=Tensor[(16, 83, 83, 42), float16] */;
    %64 = multiply(%63, %p228) /* ty=Tensor[(16, 83, 83, 42), float16] */;
    add(%64, %p327) /* ty=Tensor[(16, 83, 83, 42), float16] */
  } /* ty=fn (Tensor[(16, 83, 83, 42), float16], Tensor[(42, 1, 1, 42), float16], Tensor[(42), float16], Tensor[(42), float16]) -> Tensor[(16, 83, 83, 42), float16] */;
  %78 = %62(%61, -inff16 /* ty=float16 */) /* ty=Tensor[(16, 167, 167, 42), float16] */;
  %79 = %77(%76, meta[relay.Constant][11] /* ty=Tensor[(42, 1, 1, 42), float16] */, meta[relay.Constant][12] /* ty=Tensor[(42), float16] */, meta[relay.Constant][13] /* ty=Tensor[(42), float16] */) /* ty=Tensor[(16, 83, 83, 42), float16] */;
  %80 = fn (%p044: Tensor[(16, 167, 167, 42), float16] /* ty=Tensor[(16, 167, 167, 42), float16] */, %p132: Tensor[(16, 83, 83, 42), float16] /* ty=Tensor[(16, 83, 83, 42), float16] */, Primitive=1) -> Tensor[(16, 83, 83, 42), float16] {
    %48 = nn.max_pool2d(%p044, pool_size=[3, 3], strides=[2, 2], padding=[0, 0, 0, 0], layout="NHWC", out_layout="NHWC") /* ty=Tensor[(16, 83, 83, 42), float16] */;
    add(%48, %p132) /* ty=Tensor[(16, 83, 83, 42), float16] */
  } /* ty=fn (Tensor[(16, 167, 167, 42), float16], Tensor[(16, 83, 83, 42), float16]) -> Tensor[(16, 83, 83, 42), float16] */;
  %82 = fn (%p056: Tensor[(16, 165, 165, 42), float16] /* ty=Tensor[(16, 165, 165, 42), float16] */, %p142: float16 /* ty=float16 */, Primitive=1) -> Tensor[(16, 167, 167, 42), float16] {
    nn.pad(%p056, %p142, pad_width=[[0, 0], [1, 1], [1, 1], [0, 0]]) /* ty=Tensor[(16, 167, 167, 42), float16] */
  } /* ty=fn (Tensor[(16, 165, 165, 42), float16], float16) -> Tensor[(16, 167, 167, 42), float16] */;
  %89 = fn (%p061: Tensor[(16, 165, 165, 96), float16] /* ty=Tensor[(16, 165, 165, 96), float16] */, %p147: float16 /* ty=float16 */, Primitive=1) -> Tensor[(16, 169, 169, 96), float16] {
    %88 = nn.relu(%p061) /* ty=Tensor[(16, 165, 165, 96), float16] */;
    nn.pad(%88, %p147, pad_width=[[0, 0], [2, 2], [2, 2], [0, 0]]) /* ty=Tensor[(16, 169, 169, 96), float16] */
  } /* ty=fn (Tensor[(16, 165, 165, 96), float16], float16) -> Tensor[(16, 169, 169, 96), float16] */;
  %90 = %89(%57, 0f16 /* ty=float16 */) /* ty=Tensor[(16, 169, 169, 96), float16] */;
  %91 = fn (%p060: Tensor[(16, 169, 169, 96), float16] /* ty=Tensor[(16, 169, 169, 96), float16] */, %p146: Tensor[(96, 5, 5, 1), float16] /* ty=Tensor[(96, 5, 5, 1), float16] */, Primitive=1) -> Tensor[(16, 83, 83, 96), float16] {
    nn.conv2d(%p060, %p146, strides=[2, 2], padding=[0, 0, 0, 0], groups=96, channels=96, kernel_size=[5, 5], data_layout="NHWC", kernel_layout="OHWI", out_dtype="float16") /* ty=Tensor[(16, 83, 83, 96), float16] */
  } /* ty=fn (Tensor[(16, 169, 169, 96), float16], Tensor[(96, 5, 5, 1), float16]) -> Tensor[(16, 83, 83, 96), float16] */;
  %92 = %91(%90, meta[relay.Constant][14] /* ty=Tensor[(96, 5, 5, 1), float16] */) /* ty=Tensor[(16, 83, 83, 96), float16] */;
  %93 = fn (%p059: Tensor[(16, 83, 83, 96), float16] /* ty=Tensor[(16, 83, 83, 96), float16] */, %p145: Tensor[(42, 1, 1, 96), float16] /* ty=Tensor[(42, 1, 1, 96), float16] */, %p231: Tensor[(42), float16] /* ty=Tensor[(42), float16] */, %p330: Tensor[(42), float16] /* ty=Tensor[(42), float16] */, Primitive=1) -> Tensor[(16, 83, 83, 42), float16] {
    %85 = nn.conv2d(%p059, %p145, padding=[0, 0, 0, 0], channels=42, kernel_size=[1, 1], data_layout="NHWC", kernel_layout="OHWI", out_dtype="float16") /* ty=Tensor[(16, 83, 83, 42), float16] */;
    %86 = multiply(%85, %p231) /* ty=Tensor[(16, 83, 83, 42), float16] */;
    %87 = add(%86, %p330) /* ty=Tensor[(16, 83, 83, 42), float16] */;
    nn.relu(%87) /* ty=Tensor[(16, 83, 83, 42), float16] */
  } /* ty=fn (Tensor[(16, 83, 83, 96), float16], Tensor[(42, 1, 1, 96), float16], Tensor[(42), float16], Tensor[(42), float16]) -> Tensor[(16, 83, 83, 42), float16] */;
  %94 = %93(%92, meta[relay.Constant][15] /* ty=Tensor[(42, 1, 1, 96), float16] */, meta[relay.Constant][16] /* ty=Tensor[(42), float16] */, meta[relay.Constant][17] /* ty=Tensor[(42), float16] */) /* ty=Tensor[(16, 83, 83, 42), float16] */;
  %95 = fn (%p058: Tensor[(16, 83, 83, 42), float16] /* ty=Tensor[(16, 83, 83, 42), float16] */, %p144: Tensor[(42, 5, 5, 1), float16] /* ty=Tensor[(42, 5, 5, 1), float16] */, Primitive=1) -> Tensor[(16, 83, 83, 42), float16] {
    nn.conv2d(%p058, %p144, padding=[2, 2, 2, 2], groups=42, channels=42, kernel_size=[5, 5], data_layout="NHWC", kernel_layout="OHWI", out_dtype="float16") /* ty=Tensor[(16, 83, 83, 42), float16] */
  } /* ty=fn (Tensor[(16, 83, 83, 42), float16], Tensor[(42, 5, 5, 1), float16]) -> Tensor[(16, 83, 83, 42), float16] */;
  %96 = %95(%94, meta[relay.Constant][18] /* ty=Tensor[(42, 5, 5, 1), float16] */) /* ty=Tensor[(16, 83, 83, 42), float16] */;
  %97 = fn (%p057: Tensor[(16, 83, 83, 42), float16] /* ty=Tensor[(16, 83, 83, 42), float16] */, %p143: Tensor[(42, 1, 1, 42), float16] /* ty=Tensor[(42, 1, 1, 42), float16] */, %p230: Tensor[(42), float16] /* ty=Tensor[(42), float16] */, %p329: Tensor[(42), float16] /* ty=Tensor[(42), float16] */, Primitive=1) -> Tensor[(16, 83, 83, 42), float16] {
    %83 = nn.conv2d(%p057, %p143, padding=[0, 0, 0, 0], channels=42, kernel_size=[1, 1], data_layout="NHWC", kernel_layout="OHWI", out_dtype="float16") /* ty=Tensor[(16, 83, 83, 42), float16] */;
    %84 = multiply(%83, %p230) /* ty=Tensor[(16, 83, 83, 42), float16] */;
    add(%84, %p329) /* ty=Tensor[(16, 83, 83, 42), float16] */
  } /* ty=fn (Tensor[(16, 83, 83, 42), float16], Tensor[(42, 1, 1, 42), float16], Tensor[(42), float16], Tensor[(42), float16]) -> Tensor[(16, 83, 83, 42), float16] */;
  %98 = %82(%61, 0f16 /* ty=float16 */) /* ty=Tensor[(16, 167, 167, 42), float16] */;
  %99 = %97(%96, meta[relay.Constant][19] /* ty=Tensor[(42, 1, 1, 42), float16] */, meta[relay.Constant][20] /* ty=Tensor[(42), float16] */, meta[relay.Constant][21] /* ty=Tensor[(42), float16] */) /* ty=Tensor[(16, 83, 83, 42), float16] */;
  %100 = fn (%p055: Tensor[(16, 167, 167, 42), float16] /* ty=Tensor[(16, 167, 167, 42), float16] */, %p141: Tensor[(16, 83, 83, 42), float16] /* ty=Tensor[(16, 83, 83, 42), float16] */, Primitive=1) -> Tensor[(16, 83, 83, 42), float16] {
    %81 = nn.avg_pool2d(%p055, pool_size=[3, 3], strides=[2, 2], padding=[0, 0, 0, 0], layout="NHWC", out_layout="NHWC") /* ty=Tensor[(16, 83, 83, 42), float16] */;
    add(%81, %p141) /* ty=Tensor[(16, 83, 83, 42), float16] */
  } /* ty=fn (Tensor[(16, 167, 167, 42), float16], Tensor[(16, 83, 83, 42), float16]) -> Tensor[(16, 83, 83, 42), float16] */;
  %109 = fn (%p067: Tensor[(16, 165, 165, 42), float16] /* ty=Tensor[(16, 165, 165, 42), float16] */, %p153: float16 /* ty=float16 */, Primitive=1) -> Tensor[(16, 169, 169, 42), float16] {
    %108 = nn.relu(%p067) /* ty=Tensor[(16, 165, 165, 42), float16] */;
    nn.pad(%108, %p153, pad_width=[[0, 0], [2, 2], [2, 2], [0, 0]]) /* ty=Tensor[(16, 169, 169, 42), float16] */
  } /* ty=fn (Tensor[(16, 165, 165, 42), float16], float16) -> Tensor[(16, 169, 169, 42), float16] */;
  %110 = %109(%61, 0f16 /* ty=float16 */) /* ty=Tensor[(16, 169, 169, 42), float16] */;
  %111 = fn (%p066: Tensor[(16, 169, 169, 42), float16] /* ty=Tensor[(16, 169, 169, 42), float16] */, %p152: Tensor[(42, 5, 5, 1), float16] /* ty=Tensor[(42, 5, 5, 1), float16] */, Primitive=1) -> Tensor[(16, 83, 83, 42), float16] {
    nn.conv2d(%p066, %p152, strides=[2, 2], padding=[0, 0, 0, 0], groups=42, channels=42, kernel_size=[5, 5], data_layout="NHWC", kernel_layout="OHWI", out_dtype="float16") /* ty=Tensor[(16, 83, 83, 42), float16] */
  } /* ty=fn (Tensor[(16, 169, 169, 42), float16], Tensor[(42, 5, 5, 1), float16]) -> Tensor[(16, 83, 83, 42), float16] */;
  %112 = %111(%110, meta[relay.Constant][22] /* ty=Tensor[(42, 5, 5, 1), float16] */) /* ty=Tensor[(16, 83, 83, 42), float16] */;
  %113 = fn (%p065: Tensor[(16, 83, 83, 42), float16] /* ty=Tensor[(16, 83, 83, 42), float16] */, %p151: Tensor[(42, 1, 1, 42), float16] /* ty=Tensor[(42, 1, 1, 42), float16] */, %p233: Tensor[(42), float16] /* ty=Tensor[(42), float16] */, %p332: Tensor[(42), float16] /* ty=Tensor[(42), float16] */, Primitive=1) -> Tensor[(16, 83, 83, 42), float16] {
    %105 = nn.conv2d(%p065, %p151, padding=[0, 0, 0, 0], channels=42, kernel_size=[1, 1], data_layout="NHWC", kernel_layout="OHWI", out_dtype="float16") /* ty=Tensor[(16, 83, 83, 42), float16] */;
    %106 = multiply(%105, %p233) /* ty=Tensor[(16, 83, 83, 42), float16] */;
    %107 = add(%106, %p332) /* ty=Tensor[(16, 83, 83, 42), float16] */;
    nn.relu(%107) /* ty=Tensor[(16, 83, 83, 42), float16] */
  } /* ty=fn (Tensor[(16, 83, 83, 42), float16], Tensor[(42, 1, 1, 42), float16], Tensor[(42), float16], Tensor[(42), float16]) -> Tensor[(16, 83, 83, 42), float16] */;
  %114 = %113(%112, meta[relay.Constant][23] /* ty=Tensor[(42, 1, 1, 42), float16] */, meta[relay.Constant][24] /* ty=Tensor[(42), float16] */, meta[relay.Constant][25] /* ty=Tensor[(42), float16] */) /* ty=Tensor[(16, 83, 83, 42), float16] */;
  %115 = fn (%p064: Tensor[(16, 83, 83, 42), float16] /* ty=Tensor[(16, 83, 83, 42), float16] */, %p150: Tensor[(42, 5, 5, 1), float16] /* ty=Tensor[(42, 5, 5, 1), float16] */, Primitive=1) -> Tensor[(16, 83, 83, 42), float16] {
    nn.conv2d(%p064, %p150, padding=[2, 2, 2, 2], groups=42, channels=42, kernel_size=[5, 5], data_layout="NHWC", kernel_layout="OHWI", out_dtype="float16") /* ty=Tensor[(16, 83, 83, 42), float16] */
  } /* ty=fn (Tensor[(16, 83, 83, 42), float16], Tensor[(42, 5, 5, 1), float16]) -> Tensor[(16, 83, 83, 42), float16] */;
  %122 = fn (%p072: Tensor[(16, 165, 165, 96), float16] /* ty=Tensor[(16, 165, 165, 96), float16] */, %p158: float16 /* ty=float16 */, Primitive=1) -> Tensor[(16, 171, 171, 96), float16] {
    %121 = nn.relu(%p072) /* ty=Tensor[(16, 165, 165, 96), float16] */;
    nn.pad(%121, %p158, pad_width=[[0, 0], [3, 3], [3, 3], [0, 0]]) /* ty=Tensor[(16, 171, 171, 96), float16] */
  } /* ty=fn (Tensor[(16, 165, 165, 96), float16], float16) -> Tensor[(16, 171, 171, 96), float16] */;
  %123 = %122(%57, 0f16 /* ty=float16 */) /* ty=Tensor[(16, 171, 171, 96), float16] */;
  %124 = fn (%p071: Tensor[(16, 171, 171, 96), float16] /* ty=Tensor[(16, 171, 171, 96), float16] */, %p157: Tensor[(96, 7, 7, 1), float16] /* ty=Tensor[(96, 7, 7, 1), float16] */, Primitive=1) -> Tensor[(16, 83, 83, 96), float16] {
    nn.conv2d(%p071, %p157, strides=[2, 2], padding=[0, 0, 0, 0], groups=96, channels=96, kernel_size=[7, 7], data_layout="NHWC", kernel_layout="OHWI", out_dtype="float16") /* ty=Tensor[(16, 83, 83, 96), float16] */
  } /* ty=fn (Tensor[(16, 171, 171, 96), float16], Tensor[(96, 7, 7, 1), float16]) -> Tensor[(16, 83, 83, 96), float16] */;
  %125 = %124(%123, meta[relay.Constant][30] /* ty=Tensor[(96, 7, 7, 1), float16] */) /* ty=Tensor[(16, 83, 83, 96), float16] */;
  %126 = fn (%p070: Tensor[(16, 83, 83, 96), float16] /* ty=Tensor[(16, 83, 83, 96), float16] */, %p156: Tensor[(42, 1, 1, 96), float16] /* ty=Tensor[(42, 1, 1, 96), float16] */, %p235: Tensor[(42), float16] /* ty=Tensor[(42), float16] */, %p334: Tensor[(42), float16] /* ty=Tensor[(42), float16] */, Primitive=1) -> Tensor[(16, 83, 83, 42), float16] {
    %118 = nn.conv2d(%p070, %p156, padding=[0, 0, 0, 0], channels=42, kernel_size=[1, 1], data_layout="NHWC", kernel_layout="OHWI", out_dtype="float16") /* ty=Tensor[(16, 83, 83, 42), float16] */;
    %119 = multiply(%118, %p235) /* ty=Tensor[(16, 83, 83, 42), float16] */;
    %120 = add(%119, %p334) /* ty=Tensor[(16, 83, 83, 42), float16] */;
    nn.relu(%120) /* ty=Tensor[(16, 83, 83, 42), float16] */
  } /* ty=fn (Tensor[(16, 83, 83, 96), float16], Tensor[(42, 1, 1, 96), float16], Tensor[(42), float16], Tensor[(42), float16]) -> Tensor[(16, 83, 83, 42), float16] */;
  %127 = %126(%125, meta[relay.Constant][31] /* ty=Tensor[(42, 1, 1, 96), float16] */, meta[relay.Constant][32] /* ty=Tensor[(42), float16] */, meta[relay.Constant][33] /* ty=Tensor[(42), float16] */) /* ty=Tensor[(16, 83, 83, 42), float16] */;
  %128 = fn (%p069: Tensor[(16, 83, 83, 42), float16] /* ty=Tensor[(16, 83, 83, 42), float16] */, %p155: Tensor[(42, 7, 7, 1), float16] /* ty=Tensor[(42, 7, 7, 1), float16] */, Primitive=1) -> Tensor[(16, 83, 83, 42), float16] {
    nn.conv2d(%p069, %p155, padding=[3, 3, 3, 3], groups=42, channels=42, kernel_size=[7, 7], data_layout="NHWC", kernel_layout="OHWI", out_dtype="float16") /* ty=Tensor[(16, 83, 83, 42), float16] */
  } /* ty=fn (Tensor[(16, 83, 83, 42), float16], Tensor[(42, 7, 7, 1), float16]) -> Tensor[(16, 83, 83, 42), float16] */;
  %129 = %128(%127, meta[relay.Constant][34] /* ty=Tensor[(42, 7, 7, 1), float16] */) /* ty=Tensor[(16, 83, 83, 42), float16] */;
  %130 = fn (%p068: Tensor[(16, 83, 83, 42), float16] /* ty=Tensor[(16, 83, 83, 42), float16] */, %p154: Tensor[(42, 1, 1, 42), float16] /* ty=Tensor[(42, 1, 1, 42), float16] */, %p234: Tensor[(42), float16] /* ty=Tensor[(42), float16] */, %p333: Tensor[(42), float16] /* ty=Tensor[(42), float16] */, Primitive=1) -> Tensor[(16, 83, 83, 42), float16] {
    %116 = nn.conv2d(%p068, %p154, padding=[0, 0, 0, 0], channels=42, kernel_size=[1, 1], data_layout="NHWC", kernel_layout="OHWI", out_dtype="float16") /* ty=Tensor[(16, 83, 83, 42), float16] */;
    %117 = multiply(%116, %p234) /* ty=Tensor[(16, 83, 83, 42), float16] */;
    add(%117, %p333) /* ty=Tensor[(16, 83, 83, 42), float16] */
  } /* ty=fn (Tensor[(16, 83, 83, 42), float16], Tensor[(42, 1, 1, 42), float16], Tensor[(42), float16], Tensor[(42), float16]) -> Tensor[(16, 83, 83, 42), float16] */;
  %131 = %115(%114, meta[relay.Constant][26] /* ty=Tensor[(42, 5, 5, 1), float16] */) /* ty=Tensor[(16, 83, 83, 42), float16] */;
  %132 = %130(%129, meta[relay.Constant][35] /* ty=Tensor[(42, 1, 1, 42), float16] */, meta[relay.Constant][36] /* ty=Tensor[(42), float16] */, meta[relay.Constant][37] /* ty=Tensor[(42), float16] */) /* ty=Tensor[(16, 83, 83, 42), float16] */;
  %133 = fn (%p063: Tensor[(16, 83, 83, 42), float16] /* ty=Tensor[(16, 83, 83, 42), float16] */, %p149: Tensor[(42, 1, 1, 42), float16] /* ty=Tensor[(42, 1, 1, 42), float16] */, %p232: Tensor[(42), float16] /* ty=Tensor[(42), float16] */, %p331: Tensor[(42), float16] /* ty=Tensor[(42), float16] */, %p49: Tensor[(16, 83, 83, 42), float16] /* ty=Tensor[(16, 83, 83, 42), float16] */, Primitive=1) -> Tensor[(16, 83, 83, 42), float16] {
    %102 = nn.conv2d(%p063, %p149, padding=[0, 0, 0, 0], channels=42, kernel_size=[1, 1], data_layout="NHWC", kernel_layout="OHWI", out_dtype="float16") /* ty=Tensor[(16, 83, 83, 42), float16] */;
    %103 = multiply(%102, %p232) /* ty=Tensor[(16, 83, 83, 42), float16] */;
    %104 = add(%103, %p331) /* ty=Tensor[(16, 83, 83, 42), float16] */;
    add(%104, %p49) /* ty=Tensor[(16, 83, 83, 42), float16] */
  } /* ty=fn (Tensor[(16, 83, 83, 42), float16], Tensor[(42, 1, 1, 42), float16], Tensor[(42), float16], Tensor[(42), float16], Tensor[(16, 83, 83, 42), float16]) -> Tensor[(16, 83, 83, 42), float16] */;
  %134 = %133(%131, meta[relay.Constant][27] /* ty=Tensor[(42, 1, 1, 42), float16] */, meta[relay.Constant][28] /* ty=Tensor[(42), float16] */, meta[relay.Constant][29] /* ty=Tensor[(42), float16] */, %132) /* ty=Tensor[(16, 83, 83, 42), float16] */;
  %135 = %80(%78, %79) /* ty=Tensor[(16, 83, 83, 42), float16] */;
  %136 = fn (%p062: Tensor[(16, 83, 83, 42), float16] /* ty=Tensor[(16, 83, 83, 42), float16] */, %p148: Tensor[(16, 83, 83, 42), float16] /* ty=Tensor[(16, 83, 83, 42), float16] */, Primitive=1) -> Tensor[(16, 83, 83, 42), float16] {
    %101 = nn.avg_pool2d(%p062, pool_size=[3, 3], padding=[1, 1, 1, 1], layout="NHWC", out_layout="NHWC") /* ty=Tensor[(16, 83, 83, 42), float16] */;
    add(%101, %p148) /* ty=Tensor[(16, 83, 83, 42), float16] */
  } /* ty=fn (Tensor[(16, 83, 83, 42), float16], Tensor[(16, 83, 83, 42), float16]) -> Tensor[(16, 83, 83, 42), float16] */;
  %143 = fn (%p077: Tensor[(16, 83, 83, 42), float16] /* ty=Tensor[(16, 83, 83, 42), float16] */, Primitive=1) -> Tensor[(16, 83, 83, 42), float16] {
    nn.relu(%p077) /* ty=Tensor[(16, 83, 83, 42), float16] */
  } /* ty=fn (Tensor[(16, 83, 83, 42), float16]) -> Tensor[(16, 83, 83, 42), float16] */;
  %144 = %143(%134) /* ty=Tensor[(16, 83, 83, 42), float16] */;
  %145 = fn (%p076: Tensor[(16, 83, 83, 42), float16] /* ty=Tensor[(16, 83, 83, 42), float16] */, %p162: Tensor[(42, 3, 3, 1), float16] /* ty=Tensor[(42, 3, 3, 1), float16] */, Primitive=1) -> Tensor[(16, 83, 83, 42), float16] {
    nn.conv2d(%p076, %p162, padding=[1, 1, 1, 1], groups=42, channels=42, kernel_size=[3, 3], data_layout="NHWC", kernel_layout="OHWI", out_dtype="float16") /* ty=Tensor[(16, 83, 83, 42), float16] */
  } /* ty=fn (Tensor[(16, 83, 83, 42), float16], Tensor[(42, 3, 3, 1), float16]) -> Tensor[(16, 83, 83, 42), float16] */;
  %146 = %145(%144, meta[relay.Constant][38] /* ty=Tensor[(42, 3, 3, 1), float16] */) /* ty=Tensor[(16, 83, 83, 42), float16] */;
  %147 = fn (%p075: Tensor[(16, 83, 83, 42), float16] /* ty=Tensor[(16, 83, 83, 42), float16] */, %p161: Tensor[(42, 1, 1, 42), float16] /* ty=Tensor[(42, 1, 1, 42), float16] */, %p237: Tensor[(42), float16] /* ty=Tensor[(42), float16] */, %p336: Tensor[(42), float16] /* ty=Tensor[(42), float16] */, Primitive=1) -> Tensor[(16, 83, 83, 42), float16] {
    %140 = nn.conv2d(%p075, %p161, padding=[0, 0, 0, 0], channels=42, kernel_size=[1, 1], data_layout="NHWC", kernel_layout="OHWI", out_dtype="float16") /* ty=Tensor[(16, 83, 83, 42), float16] */;
    %141 = multiply(%140, %p237) /* ty=Tensor[(16, 83, 83, 42), float16] */;
    %142 = add(%141, %p336) /* ty=Tensor[(16, 83, 83, 42), float16] */;
    nn.relu(%142) /* ty=Tensor[(16, 83, 83, 42), float16] */
  } /* ty=fn (Tensor[(16, 83, 83, 42), float16], Tensor[(42, 1, 1, 42), float16], Tensor[(42), float16], Tensor[(42), float16]) -> Tensor[(16, 83, 83, 42), float16] */;
  %148 = %147(%146, meta[relay.Constant][39] /* ty=Tensor[(42, 1, 1, 42), float16] */, meta[relay.Constant][40] /* ty=Tensor[(42), float16] */, meta[relay.Constant][41] /* ty=Tensor[(42), float16] */) /* ty=Tensor[(16, 83, 83, 42), float16] */;
  %149 = fn (%p074: Tensor[(16, 83, 83, 42), float16] /* ty=Tensor[(16, 83, 83, 42), float16] */, %p160: Tensor[(42, 3, 3, 1), float16] /* ty=Tensor[(42, 3, 3, 1), float16] */, Primitive=1) -> Tensor[(16, 83, 83, 42), float16] {
    nn.conv2d(%p074, %p160, padding=[1, 1, 1, 1], groups=42, channels=42, kernel_size=[3, 3], data_layout="NHWC", kernel_layout="OHWI", out_dtype="float16") /* ty=Tensor[(16, 83, 83, 42), float16] */
  } /* ty=fn (Tensor[(16, 83, 83, 42), float16], Tensor[(42, 3, 3, 1), float16]) -> Tensor[(16, 83, 83, 42), float16] */;
  %150 = fn (%p079: Tensor[(16, 165, 165, 42), float16] /* ty=Tensor[(16, 165, 165, 42), float16] */, %p163: float16 /* ty=float16 */, Primitive=1) -> Tensor[(16, 167, 167, 42), float16] {
    nn.pad(%p079, %p163, pad_width=[[0, 0], [1, 1], [1, 1], [0, 0]]) /* ty=Tensor[(16, 167, 167, 42), float16] */
  } /* ty=fn (Tensor[(16, 165, 165, 42), float16], float16) -> Tensor[(16, 167, 167, 42), float16] */;
  %151 = %150(%61, -inff16 /* ty=float16 */) /* ty=Tensor[(16, 167, 167, 42), float16] */;
  %152 = fn (%p078: Tensor[(16, 167, 167, 42), float16] /* ty=Tensor[(16, 167, 167, 42), float16] */, Primitive=1) -> Tensor[(16, 83, 83, 42), float16] {
    nn.max_pool2d(%p078, pool_size=[3, 3], strides=[2, 2], padding=[0, 0, 0, 0], layout="NHWC", out_layout="NHWC") /* ty=Tensor[(16, 83, 83, 42), float16] */
  } /* ty=fn (Tensor[(16, 167, 167, 42), float16]) -> Tensor[(16, 83, 83, 42), float16] */;
  %153 = %149(%148, meta[relay.Constant][42] /* ty=Tensor[(42, 3, 3, 1), float16] */) /* ty=Tensor[(16, 83, 83, 42), float16] */;
  %154 = %152(%151) /* ty=Tensor[(16, 83, 83, 42), float16] */;
  %155 = fn (%p073: Tensor[(16, 83, 83, 42), float16] /* ty=Tensor[(16, 83, 83, 42), float16] */, %p159: Tensor[(42, 1, 1, 42), float16] /* ty=Tensor[(42, 1, 1, 42), float16] */, %p236: Tensor[(42), float16] /* ty=Tensor[(42), float16] */, %p335: Tensor[(42), float16] /* ty=Tensor[(42), float16] */, %p410: Tensor[(16, 83, 83, 42), float16] /* ty=Tensor[(16, 83, 83, 42), float16] */, Primitive=1) -> Tensor[(16, 83, 83, 42), float16] {
    %137 = nn.conv2d(%p073, %p159, padding=[0, 0, 0, 0], channels=42, kernel_size=[1, 1], data_layout="NHWC", kernel_layout="OHWI", out_dtype="float16") /* ty=Tensor[(16, 83, 83, 42), float16] */;
    %138 = multiply(%137, %p236) /* ty=Tensor[(16, 83, 83, 42), float16] */;
    %139 = add(%138, %p335) /* ty=Tensor[(16, 83, 83, 42), float16] */;
    add(%139, %p410) /* ty=Tensor[(16, 83, 83, 42), float16] */
  } /* ty=fn (Tensor[(16, 83, 83, 42), float16], Tensor[(42, 1, 1, 42), float16], Tensor[(42), float16], Tensor[(42), float16], Tensor[(16, 83, 83, 42), float16]) -> Tensor[(16, 83, 83, 42), float16] */;
  %156 = %100(%98, %99) /* ty=Tensor[(16, 83, 83, 42), float16] */;
  %157 = %136(%134, %135) /* ty=Tensor[(16, 83, 83, 42), float16] */;
  %158 = %155(%153, meta[relay.Constant][43] /* ty=Tensor[(42, 1, 1, 42), float16] */, meta[relay.Constant][44] /* ty=Tensor[(42), float16] */, meta[relay.Constant][45] /* ty=Tensor[(42), float16] */, %154) /* ty=Tensor[(16, 83, 83, 42), float16] */;
  %159 = fn (%p043: Tensor[(16, 83, 83, 42), float16] /* ty=Tensor[(16, 83, 83, 42), float16] */, %p131: Tensor[(16, 83, 83, 42), float16] /* ty=Tensor[(16, 83, 83, 42), float16] */, %p225: Tensor[(16, 83, 83, 42), float16] /* ty=Tensor[(16, 83, 83, 42), float16] */, %p324: Tensor[(16, 83, 83, 42), float16] /* ty=Tensor[(16, 83, 83, 42), float16] */, Primitive=1) -> Tensor[(16, 83, 83, 168), float16] {
    %47 = (%p043, %p131, %p225, %p324) /* ty=(Tensor[(16, 83, 83, 42), float16], Tensor[(16, 83, 83, 42), float16], Tensor[(16, 83, 83, 42), float16], Tensor[(16, 83, 83, 42), float16]) span=aten::cat_0:0:0 */;
    concatenate(%47, axis=3) /* ty=Tensor[(16, 83, 83, 168), float16] */
  } /* ty=fn (Tensor[(16, 83, 83, 42), float16], Tensor[(16, 83, 83, 42), float16], Tensor[(16, 83, 83, 42), float16], Tensor[(16, 83, 83, 42), float16]) -> Tensor[(16, 83, 83, 168), float16] */;
  %160 = %159(%135, %156, %157, %158) /* ty=Tensor[(16, 83, 83, 168), float16] */;
  %161 = fn (%p042: Tensor[(16, 83, 83, 168), float16] /* ty=Tensor[(16, 83, 83, 168), float16] */, Primitive=1) -> Tensor[(16, 83, 83, 168), float16] {
    nn.relu(%p042) /* ty=Tensor[(16, 83, 83, 168), float16] */
  } /* ty=fn (Tensor[(16, 83, 83, 168), float16]) -> Tensor[(16, 83, 83, 168), float16] */;
  %162 = %161(%160) /* ty=Tensor[(16, 83, 83, 168), float16] */;
  %163 = fn (%p041: Tensor[(16, 83, 83, 168), float16] /* ty=Tensor[(16, 83, 83, 168), float16] */, %p130: Tensor[(84, 1, 1, 168), float16] /* ty=Tensor[(84, 1, 1, 168), float16] */, %p224: Tensor[(84), float16] /* ty=Tensor[(84), float16] */, %p323: Tensor[(84), float16] /* ty=Tensor[(84), float16] */, Primitive=1) -> Tensor[(16, 83, 83, 84), float16] {
    %45 = nn.conv2d(%p041, %p130, padding=[0, 0, 0, 0], channels=84, kernel_size=[1, 1], data_layout="NHWC", kernel_layout="OHWI", out_dtype="float16") /* ty=Tensor[(16, 83, 83, 84), float16] */;
    %46 = multiply(%45, %p224) /* ty=Tensor[(16, 83, 83, 84), float16] */;
    add(%46, %p323) /* ty=Tensor[(16, 83, 83, 84), float16] */
  } /* ty=fn (Tensor[(16, 83, 83, 168), float16], Tensor[(84, 1, 1, 168), float16], Tensor[(84), float16], Tensor[(84), float16]) -> Tensor[(16, 83, 83, 84), float16] */;
  %164 = %163(%162, meta[relay.Constant][46] /* ty=Tensor[(84, 1, 1, 168), float16] */, meta[relay.Constant][47] /* ty=Tensor[(84), float16] */, meta[relay.Constant][48] /* ty=Tensor[(84), float16] */) /* ty=Tensor[(16, 83, 83, 84), float16] */;
  %165 = fn (%p040: Tensor[(16, 83, 83, 84), float16] /* ty=Tensor[(16, 83, 83, 84), float16] */, %p129: float16 /* ty=float16 */, Primitive=1) -> Tensor[(16, 85, 85, 84), float16] {
    nn.pad(%p040, %p129, pad_width=[[0, 0], [1, 1], [1, 1], [0, 0]]) /* ty=Tensor[(16, 85, 85, 84), float16] */
  } /* ty=fn (Tensor[(16, 83, 83, 84), float16], float16) -> Tensor[(16, 85, 85, 84), float16] */;
  %175 = fn (%p088: Tensor[(16, 165, 165, 96), float16] /* ty=Tensor[(16, 165, 165, 96), float16] */, Primitive=1) -> Tensor[(16, 165, 165, 96), float16] {
    nn.relu(%p088) /* ty=Tensor[(16, 165, 165, 96), float16] */
  } /* ty=fn (Tensor[(16, 165, 165, 96), float16]) -> Tensor[(16, 165, 165, 96), float16] */;
  %176 = %175(%57) /* ty=Tensor[(16, 165, 165, 96), float16] */;
  %177 = fn (%p087: Tensor[(16, 165, 165, 96), float16] /* ty=Tensor[(16, 165, 165, 96), float16] */, Primitive=1) -> Tensor[(16, 83, 83, 96), float16] {
    nn.avg_pool2d(%p087, pool_size=[1, 1], strides=[2, 2], padding=[0, 0, 0, 0], layout="NHWC", out_layout="NHWC") /* ty=Tensor[(16, 83, 83, 96), float16] */
  } /* ty=fn (Tensor[(16, 165, 165, 96), float16]) -> Tensor[(16, 83, 83, 96), float16] */;
  %178 = %177(%176) /* ty=Tensor[(16, 83, 83, 96), float16] */;
  %179 = fn (%p086: Tensor[(16, 83, 83, 96), float16] /* ty=Tensor[(16, 83, 83, 96), float16] */, %p170: Tensor[(42, 1, 1, 96), float16] /* ty=Tensor[(42, 1, 1, 96), float16] */, Primitive=1) -> Tensor[(16, 83, 83, 42), float16] {
    nn.conv2d(%p086, %p170, padding=[0, 0, 0, 0], channels=42, kernel_size=[1, 1], data_layout="NHWC", kernel_layout="OHWI", out_dtype="float16") /* ty=Tensor[(16, 83, 83, 42), float16] */
  } /* ty=fn (Tensor[(16, 83, 83, 96), float16], Tensor[(42, 1, 1, 96), float16]) -> Tensor[(16, 83, 83, 42), float16] */;
  %180 = fn (%p091: Tensor[(16, 165, 165, 96), float16] /* ty=Tensor[(16, 165, 165, 96), float16] */, %p172: float16 /* ty=float16 */, Primitive=1) -> Tensor[(16, 165, 165, 96), float16] {
    nn.pad(%p091, %p172, pad_width=[[0, 0], [-1, 1], [-1, 1], [0, 0]]) /* ty=Tensor[(16, 165, 165, 96), float16] */
  } /* ty=fn (Tensor[(16, 165, 165, 96), float16], float16) -> Tensor[(16, 165, 165, 96), float16] */;
  %181 = %180(%176, 0f16 /* ty=float16 */) /* ty=Tensor[(16, 165, 165, 96), float16] */;
  %182 = fn (%p090: Tensor[(16, 165, 165, 96), float16] /* ty=Tensor[(16, 165, 165, 96), float16] */, Primitive=1) -> Tensor[(16, 83, 83, 96), float16] {
    nn.avg_pool2d(%p090, pool_size=[1, 1], strides=[2, 2], padding=[0, 0, 0, 0], layout="NHWC", out_layout="NHWC") /* ty=Tensor[(16, 83, 83, 96), float16] */
  } /* ty=fn (Tensor[(16, 165, 165, 96), float16]) -> Tensor[(16, 83, 83, 96), float16] */;
  %183 = %182(%181) /* ty=Tensor[(16, 83, 83, 96), float16] */;
  %184 = fn (%p089: Tensor[(16, 83, 83, 96), float16] /* ty=Tensor[(16, 83, 83, 96), float16] */, %p171: Tensor[(42, 1, 1, 96), float16] /* ty=Tensor[(42, 1, 1, 96), float16] */, Primitive=1) -> Tensor[(16, 83, 83, 42), float16] {
    nn.conv2d(%p089, %p171, padding=[0, 0, 0, 0], channels=42, kernel_size=[1, 1], data_layout="NHWC", kernel_layout="OHWI", out_dtype="float16") /* ty=Tensor[(16, 83, 83, 42), float16] */
  } /* ty=fn (Tensor[(16, 83, 83, 96), float16], Tensor[(42, 1, 1, 96), float16]) -> Tensor[(16, 83, 83, 42), float16] */;
  %185 = %179(%178, meta[relay.Constant][49] /* ty=Tensor[(42, 1, 1, 96), float16] */) /* ty=Tensor[(16, 83, 83, 42), float16] */;
  %186 = %184(%183, meta[relay.Constant][50] /* ty=Tensor[(42, 1, 1, 96), float16] */) /* ty=Tensor[(16, 83, 83, 42), float16] */;
  %187 = fn (%p085: Tensor[(16, 83, 83, 42), float16] /* ty=Tensor[(16, 83, 83, 42), float16] */, %p169: Tensor[(16, 83, 83, 42), float16] /* ty=Tensor[(16, 83, 83, 42), float16] */, %p240: Tensor[(84), float16] /* ty=Tensor[(84), float16] */, %p339: Tensor[(84), float16] /* ty=Tensor[(84), float16] */, Primitive=1) -> Tensor[(16, 83, 83, 84), float16] {
    %172 = (%p085, %p169) /* ty=(Tensor[(16, 83, 83, 42), float16], Tensor[(16, 83, 83, 42), float16]) span=aten::cat_1:0:0 */;
    %173 = concatenate(%172, axis=3) /* ty=Tensor[(16, 83, 83, 84), float16] */;
    %174 = multiply(%173, %p240) /* ty=Tensor[(16, 83, 83, 84), float16] */;
    add(%174, %p339) /* ty=Tensor[(16, 83, 83, 84), float16] */
  } /* ty=fn (Tensor[(16, 83, 83, 42), float16], Tensor[(16, 83, 83, 42), float16], Tensor[(84), float16], Tensor[(84), float16]) -> Tensor[(16, 83, 83, 84), float16] */;
  %188 = %187(%185, %186, meta[relay.Constant][51] /* ty=Tensor[(84), float16] */, meta[relay.Constant][52] /* ty=Tensor[(84), float16] */) /* ty=Tensor[(16, 83, 83, 84), float16] */;
  %189 = fn (%p084: Tensor[(16, 83, 83, 84), float16] /* ty=Tensor[(16, 83, 83, 84), float16] */, %p168: float16 /* ty=float16 */, Primitive=1) -> Tensor[(16, 89, 89, 84), float16] {
    %171 = nn.relu(%p084) /* ty=Tensor[(16, 83, 83, 84), float16] */;
    nn.pad(%171, %p168, pad_width=[[0, 0], [3, 3], [3, 3], [0, 0]]) /* ty=Tensor[(16, 89, 89, 84), float16] */
  } /* ty=fn (Tensor[(16, 83, 83, 84), float16], float16) -> Tensor[(16, 89, 89, 84), float16] */;
  %190 = %189(%188, 0f16 /* ty=float16 */) /* ty=Tensor[(16, 89, 89, 84), float16] */;
  %191 = fn (%p083: Tensor[(16, 89, 89, 84), float16] /* ty=Tensor[(16, 89, 89, 84), float16] */, %p167: Tensor[(84, 7, 7, 1), float16] /* ty=Tensor[(84, 7, 7, 1), float16] */, Primitive=1) -> Tensor[(16, 42, 42, 84), float16] {
    nn.conv2d(%p083, %p167, strides=[2, 2], padding=[0, 0, 0, 0], groups=84, channels=84, kernel_size=[7, 7], data_layout="NHWC", kernel_layout="OHWI", out_dtype="float16") /* ty=Tensor[(16, 42, 42, 84), float16] */
  } /* ty=fn (Tensor[(16, 89, 89, 84), float16], Tensor[(84, 7, 7, 1), float16]) -> Tensor[(16, 42, 42, 84), float16] */;
  %192 = %191(%190, meta[relay.Constant][53] /* ty=Tensor[(84, 7, 7, 1), float16] */) /* ty=Tensor[(16, 42, 42, 84), float16] */;
  %193 = fn (%p082: Tensor[(16, 42, 42, 84), float16] /* ty=Tensor[(16, 42, 42, 84), float16] */, %p166: Tensor[(84, 1, 1, 84), float16] /* ty=Tensor[(84, 1, 1, 84), float16] */, %p239: Tensor[(84), float16] /* ty=Tensor[(84), float16] */, %p338: Tensor[(84), float16] /* ty=Tensor[(84), float16] */, Primitive=1) -> Tensor[(16, 42, 42, 84), float16] {
    %168 = nn.conv2d(%p082, %p166, padding=[0, 0, 0, 0], channels=84, kernel_size=[1, 1], data_layout="NHWC", kernel_layout="OHWI", out_dtype="float16") /* ty=Tensor[(16, 42, 42, 84), float16] */;
    %169 = multiply(%168, %p239) /* ty=Tensor[(16, 42, 42, 84), float16] */;
    %170 = add(%169, %p338) /* ty=Tensor[(16, 42, 42, 84), float16] */;
    nn.relu(%170) /* ty=Tensor[(16, 42, 42, 84), float16] */
  } /* ty=fn (Tensor[(16, 42, 42, 84), float16], Tensor[(84, 1, 1, 84), float16], Tensor[(84), float16], Tensor[(84), float16]) -> Tensor[(16, 42, 42, 84), float16] */;
  %194 = %193(%192, meta[relay.Constant][54] /* ty=Tensor[(84, 1, 1, 84), float16] */, meta[relay.Constant][55] /* ty=Tensor[(84), float16] */, meta[relay.Constant][56] /* ty=Tensor[(84), float16] */) /* ty=Tensor[(16, 42, 42, 84), float16] */;
  %195 = fn (%p081: Tensor[(16, 42, 42, 84), float16] /* ty=Tensor[(16, 42, 42, 84), float16] */, %p165: Tensor[(84, 7, 7, 1), float16] /* ty=Tensor[(84, 7, 7, 1), float16] */, Primitive=1) -> Tensor[(16, 42, 42, 84), float16] {
    nn.conv2d(%p081, %p165, padding=[3, 3, 3, 3], groups=84, channels=84, kernel_size=[7, 7], data_layout="NHWC", kernel_layout="OHWI", out_dtype="float16") /* ty=Tensor[(16, 42, 42, 84), float16] */
  } /* ty=fn (Tensor[(16, 42, 42, 84), float16], Tensor[(84, 7, 7, 1), float16]) -> Tensor[(16, 42, 42, 84), float16] */;
  %196 = %195(%194, meta[relay.Constant][57] /* ty=Tensor[(84, 7, 7, 1), float16] */) /* ty=Tensor[(16, 42, 42, 84), float16] */;
  %197 = fn (%p080: Tensor[(16, 42, 42, 84), float16] /* ty=Tensor[(16, 42, 42, 84), float16] */, %p164: Tensor[(84, 1, 1, 84), float16] /* ty=Tensor[(84, 1, 1, 84), float16] */, %p238: Tensor[(84), float16] /* ty=Tensor[(84), float16] */, %p337: Tensor[(84), float16] /* ty=Tensor[(84), float16] */, Primitive=1) -> Tensor[(16, 42, 42, 84), float16] {
    %166 = nn.conv2d(%p080, %p164, padding=[0, 0, 0, 0], channels=84, kernel_size=[1, 1], data_layout="NHWC", kernel_layout="OHWI", out_dtype="float16") /* ty=Tensor[(16, 42, 42, 84), float16] */;
    %167 = multiply(%166, %p238) /* ty=Tensor[(16, 42, 42, 84), float16] */;
    add(%167, %p337) /* ty=Tensor[(16, 42, 42, 84), float16] */
  } /* ty=fn (Tensor[(16, 42, 42, 84), float16], Tensor[(84, 1, 1, 84), float16], Tensor[(84), float16], Tensor[(84), float16]) -> Tensor[(16, 42, 42, 84), float16] */;
  %198 = %165(%164, -inff16 /* ty=float16 */) /* ty=Tensor[(16, 85, 85, 84), float16] */;
  %199 = %197(%196, meta[relay.Constant][58] /* ty=Tensor[(84, 1, 1, 84), float16] */, meta[relay.Constant][59] /* ty=Tensor[(84), float16] */, meta[relay.Constant][60] /* ty=Tensor[(84), float16] */) /* ty=Tensor[(16, 42, 42, 84), float16] */;
  %200 = fn (%p039: Tensor[(16, 85, 85, 84), float16] /* ty=Tensor[(16, 85, 85, 84), float16] */, %p128: Tensor[(16, 42, 42, 84), float16] /* ty=Tensor[(16, 42, 42, 84), float16] */, Primitive=1) -> Tensor[(16, 42, 42, 84), float16] {
    %44 = nn.max_pool2d(%p039, pool_size=[3, 3], strides=[2, 2], padding=[0, 0, 0, 0], layout="NHWC", out_layout="NHWC") /* ty=Tensor[(16, 42, 42, 84), float16] */;
    add(%44, %p128) /* ty=Tensor[(16, 42, 42, 84), float16] */
  } /* ty=fn (Tensor[(16, 85, 85, 84), float16], Tensor[(16, 42, 42, 84), float16]) -> Tensor[(16, 42, 42, 84), float16] */;
  %202 = fn (%p093: Tensor[(16, 83, 83, 84), float16] /* ty=Tensor[(16, 83, 83, 84), float16] */, %p174: float16 /* ty=float16 */, Primitive=1) -> Tensor[(16, 85, 85, 84), float16] {
    nn.pad(%p093, %p174, pad_width=[[0, 0], [1, 1], [1, 1], [0, 0]]) /* ty=Tensor[(16, 85, 85, 84), float16] */
  } /* ty=fn (Tensor[(16, 83, 83, 84), float16], float16) -> Tensor[(16, 85, 85, 84), float16] */;
  %209 = fn (%p098: Tensor[(16, 83, 83, 84), float16] /* ty=Tensor[(16, 83, 83, 84), float16] */, %p179: float16 /* ty=float16 */, Primitive=1) -> Tensor[(16, 87, 87, 84), float16] {
    %208 = nn.relu(%p098) /* ty=Tensor[(16, 83, 83, 84), float16] */;
    nn.pad(%208, %p179, pad_width=[[0, 0], [2, 2], [2, 2], [0, 0]]) /* ty=Tensor[(16, 87, 87, 84), float16] */
  } /* ty=fn (Tensor[(16, 83, 83, 84), float16], float16) -> Tensor[(16, 87, 87, 84), float16] */;
  %210 = %209(%188, 0f16 /* ty=float16 */) /* ty=Tensor[(16, 87, 87, 84), float16] */;
  %211 = fn (%p097: Tensor[(16, 87, 87, 84), float16] /* ty=Tensor[(16, 87, 87, 84), float16] */, %p178: Tensor[(84, 5, 5, 1), float16] /* ty=Tensor[(84, 5, 5, 1), float16] */, Primitive=1) -> Tensor[(16, 42, 42, 84), float16] {
    nn.conv2d(%p097, %p178, strides=[2, 2], padding=[0, 0, 0, 0], groups=84, channels=84, kernel_size=[5, 5], data_layout="NHWC", kernel_layout="OHWI", out_dtype="float16") /* ty=Tensor[(16, 42, 42, 84), float16] */
  } /* ty=fn (Tensor[(16, 87, 87, 84), float16], Tensor[(84, 5, 5, 1), float16]) -> Tensor[(16, 42, 42, 84), float16] */;
  %212 = %211(%210, meta[relay.Constant][61] /* ty=Tensor[(84, 5, 5, 1), float16] */) /* ty=Tensor[(16, 42, 42, 84), float16] */;
  %213 = fn (%p096: Tensor[(16, 42, 42, 84), float16] /* ty=Tensor[(16, 42, 42, 84), float16] */, %p177: Tensor[(84, 1, 1, 84), float16] /* ty=Tensor[(84, 1, 1, 84), float16] */, %p242: Tensor[(84), float16] /* ty=Tensor[(84), float16] */, %p341: Tensor[(84), float16] /* ty=Tensor[(84), float16] */, Primitive=1) -> Tensor[(16, 42, 42, 84), float16] {
    %205 = nn.conv2d(%p096, %p177, padding=[0, 0, 0, 0], channels=84, kernel_size=[1, 1], data_layout="NHWC", kernel_layout="OHWI", out_dtype="float16") /* ty=Tensor[(16, 42, 42, 84), float16] */;
    %206 = multiply(%205, %p242) /* ty=Tensor[(16, 42, 42, 84), float16] */;
    %207 = add(%206, %p341) /* ty=Tensor[(16, 42, 42, 84), float16] */;
    nn.relu(%207) /* ty=Tensor[(16, 42, 42, 84), float16] */
  } /* ty=fn (Tensor[(16, 42, 42, 84), float16], Tensor[(84, 1, 1, 84), float16], Tensor[(84), float16], Tensor[(84), float16]) -> Tensor[(16, 42, 42, 84), float16] */;
  %214 = %213(%212, meta[relay.Constant][62] /* ty=Tensor[(84, 1, 1, 84), float16] */, meta[relay.Constant][63] /* ty=Tensor[(84), float16] */, meta[relay.Constant][64] /* ty=Tensor[(84), float16] */) /* ty=Tensor[(16, 42, 42, 84), float16] */;
  %215 = fn (%p095: Tensor[(16, 42, 42, 84), float16] /* ty=Tensor[(16, 42, 42, 84), float16] */, %p176: Tensor[(84, 5, 5, 1), float16] /* ty=Tensor[(84, 5, 5, 1), float16] */, Primitive=1) -> Tensor[(16, 42, 42, 84), float16] {
    nn.conv2d(%p095, %p176, padding=[2, 2, 2, 2], groups=84, channels=84, kernel_size=[5, 5], data_layout="NHWC", kernel_layout="OHWI", out_dtype="float16") /* ty=Tensor[(16, 42, 42, 84), float16] */
  } /* ty=fn (Tensor[(16, 42, 42, 84), float16], Tensor[(84, 5, 5, 1), float16]) -> Tensor[(16, 42, 42, 84), float16] */;
  %216 = %215(%214, meta[relay.Constant][65] /* ty=Tensor[(84, 5, 5, 1), float16] */) /* ty=Tensor[(16, 42, 42, 84), float16] */;
  %217 = fn (%p094: Tensor[(16, 42, 42, 84), float16] /* ty=Tensor[(16, 42, 42, 84), float16] */, %p175: Tensor[(84, 1, 1, 84), float16] /* ty=Tensor[(84, 1, 1, 84), float16] */, %p241: Tensor[(84), float16] /* ty=Tensor[(84), float16] */, %p340: Tensor[(84), float16] /* ty=Tensor[(84), float16] */, Primitive=1) -> Tensor[(16, 42, 42, 84), float16] {
    %203 = nn.conv2d(%p094, %p175, padding=[0, 0, 0, 0], channels=84, kernel_size=[1, 1], data_layout="NHWC", kernel_layout="OHWI", out_dtype="float16") /* ty=Tensor[(16, 42, 42, 84), float16] */;
    %204 = multiply(%203, %p241) /* ty=Tensor[(16, 42, 42, 84), float16] */;
    add(%204, %p340) /* ty=Tensor[(16, 42, 42, 84), float16] */
  } /* ty=fn (Tensor[(16, 42, 42, 84), float16], Tensor[(84, 1, 1, 84), float16], Tensor[(84), float16], Tensor[(84), float16]) -> Tensor[(16, 42, 42, 84), float16] */;
  %218 = %202(%164, 0f16 /* ty=float16 */) /* ty=Tensor[(16, 85, 85, 84), float16] */;
  %219 = %217(%216, meta[relay.Constant][66] /* ty=Tensor[(84, 1, 1, 84), float16] */, meta[relay.Constant][67] /* ty=Tensor[(84), float16] */, meta[relay.Constant][68] /* ty=Tensor[(84), float16] */) /* ty=Tensor[(16, 42, 42, 84), float16] */;
  %220 = fn (%p092: Tensor[(16, 85, 85, 84), float16] /* ty=Tensor[(16, 85, 85, 84), float16] */, %p173: Tensor[(16, 42, 42, 84), float16] /* ty=Tensor[(16, 42, 42, 84), float16] */, Primitive=1) -> Tensor[(16, 42, 42, 84), float16] {
    %201 = nn.avg_pool2d(%p092, pool_size=[3, 3], strides=[2, 2], padding=[0, 0, 0, 0], layout="NHWC", out_layout="NHWC") /* ty=Tensor[(16, 42, 42, 84), float16] */;
    add(%201, %p173) /* ty=Tensor[(16, 42, 42, 84), float16] */
  } /* ty=fn (Tensor[(16, 85, 85, 84), float16], Tensor[(16, 42, 42, 84), float16]) -> Tensor[(16, 42, 42, 84), float16] */;
  %229 = fn (%p0104: Tensor[(16, 83, 83, 84), float16] /* ty=Tensor[(16, 83, 83, 84), float16] */, %p185: float16 /* ty=float16 */, Primitive=1) -> Tensor[(16, 87, 87, 84), float16] {
    %228 = nn.relu(%p0104) /* ty=Tensor[(16, 83, 83, 84), float16] */;
    nn.pad(%228, %p185, pad_width=[[0, 0], [2, 2], [2, 2], [0, 0]]) /* ty=Tensor[(16, 87, 87, 84), float16] */
  } /* ty=fn (Tensor[(16, 83, 83, 84), float16], float16) -> Tensor[(16, 87, 87, 84), float16] */;
  %230 = %229(%164, 0f16 /* ty=float16 */) /* ty=Tensor[(16, 87, 87, 84), float16] */;
  %231 = fn (%p0103: Tensor[(16, 87, 87, 84), float16] /* ty=Tensor[(16, 87, 87, 84), float16] */, %p184: Tensor[(84, 5, 5, 1), float16] /* ty=Tensor[(84, 5, 5, 1), float16] */, Primitive=1) -> Tensor[(16, 42, 42, 84), float16] {
    nn.conv2d(%p0103, %p184, strides=[2, 2], padding=[0, 0, 0, 0], groups=84, channels=84, kernel_size=[5, 5], data_layout="NHWC", kernel_layout="OHWI", out_dtype="float16") /* ty=Tensor[(16, 42, 42, 84), float16] */
  } /* ty=fn (Tensor[(16, 87, 87, 84), float16], Tensor[(84, 5, 5, 1), float16]) -> Tensor[(16, 42, 42, 84), float16] */;
  %232 = %231(%230, meta[relay.Constant][69] /* ty=Tensor[(84, 5, 5, 1), float16] */) /* ty=Tensor[(16, 42, 42, 84), float16] */;
  %233 = fn (%p0102: Tensor[(16, 42, 42, 84), float16] /* ty=Tensor[(16, 42, 42, 84), float16] */, %p183: Tensor[(84, 1, 1, 84), float16] /* ty=Tensor[(84, 1, 1, 84), float16] */, %p244: Tensor[(84), float16] /* ty=Tensor[(84), float16] */, %p343: Tensor[(84), float16] /* ty=Tensor[(84), float16] */, Primitive=1) -> Tensor[(16, 42, 42, 84), float16] {
    %225 = nn.conv2d(%p0102, %p183, padding=[0, 0, 0, 0], channels=84, kernel_size=[1, 1], data_layout="NHWC", kernel_layout="OHWI", out_dtype="float16") /* ty=Tensor[(16, 42, 42, 84), float16] */;
    %226 = multiply(%225, %p244) /* ty=Tensor[(16, 42, 42, 84), float16] */;
    %227 = add(%226, %p343) /* ty=Tensor[(16, 42, 42, 84), float16] */;
    nn.relu(%227) /* ty=Tensor[(16, 42, 42, 84), float16] */
  } /* ty=fn (Tensor[(16, 42, 42, 84), float16], Tensor[(84, 1, 1, 84), float16], Tensor[(84), float16], Tensor[(84), float16]) -> Tensor[(16, 42, 42, 84), float16] */;
  %234 = %233(%232, meta[relay.Constant][70] /* ty=Tensor[(84, 1, 1, 84), float16] */, meta[relay.Constant][71] /* ty=Tensor[(84), float16] */, meta[relay.Constant][72] /* ty=Tensor[(84), float16] */) /* ty=Tensor[(16, 42, 42, 84), float16] */;
  %235 = fn (%p0101: Tensor[(16, 42, 42, 84), float16] /* ty=Tensor[(16, 42, 42, 84), float16] */, %p182: Tensor[(84, 5, 5, 1), float16] /* ty=Tensor[(84, 5, 5, 1), float16] */, Primitive=1) -> Tensor[(16, 42, 42, 84), float16] {
    nn.conv2d(%p0101, %p182, padding=[2, 2, 2, 2], groups=84, channels=84, kernel_size=[5, 5], data_layout="NHWC", kernel_layout="OHWI", out_dtype="float16") /* ty=Tensor[(16, 42, 42, 84), float16] */
  } /* ty=fn (Tensor[(16, 42, 42, 84), float16], Tensor[(84, 5, 5, 1), float16]) -> Tensor[(16, 42, 42, 84), float16] */;
  %242 = fn (%p0109: Tensor[(16, 83, 83, 84), float16] /* ty=Tensor[(16, 83, 83, 84), float16] */, %p190: float16 /* ty=float16 */, Primitive=1) -> Tensor[(16, 89, 89, 84), float16] {
    %241 = nn.relu(%p0109) /* ty=Tensor[(16, 83, 83, 84), float16] */;
    nn.pad(%241, %p190, pad_width=[[0, 0], [3, 3], [3, 3], [0, 0]]) /* ty=Tensor[(16, 89, 89, 84), float16] */
  } /* ty=fn (Tensor[(16, 83, 83, 84), float16], float16) -> Tensor[(16, 89, 89, 84), float16] */;
  %243 = %242(%188, 0f16 /* ty=float16 */) /* ty=Tensor[(16, 89, 89, 84), float16] */;
  %244 = fn (%p0108: Tensor[(16, 89, 89, 84), float16] /* ty=Tensor[(16, 89, 89, 84), float16] */, %p189: Tensor[(84, 7, 7, 1), float16] /* ty=Tensor[(84, 7, 7, 1), float16] */, Primitive=1) -> Tensor[(16, 42, 42, 84), float16] {
    nn.conv2d(%p0108, %p189, strides=[2, 2], padding=[0, 0, 0, 0], groups=84, channels=84, kernel_size=[7, 7], data_layout="NHWC", kernel_layout="OHWI", out_dtype="float16") /* ty=Tensor[(16, 42, 42, 84), float16] */
  } /* ty=fn (Tensor[(16, 89, 89, 84), float16], Tensor[(84, 7, 7, 1), float16]) -> Tensor[(16, 42, 42, 84), float16] */;
  %245 = %244(%243, meta[relay.Constant][77] /* ty=Tensor[(84, 7, 7, 1), float16] */) /* ty=Tensor[(16, 42, 42, 84), float16] */;
  %246 = fn (%p0107: Tensor[(16, 42, 42, 84), float16] /* ty=Tensor[(16, 42, 42, 84), float16] */, %p188: Tensor[(84, 1, 1, 84), float16] /* ty=Tensor[(84, 1, 1, 84), float16] */, %p246: Tensor[(84), float16] /* ty=Tensor[(84), float16] */, %p345: Tensor[(84), float16] /* ty=Tensor[(84), float16] */, Primitive=1) -> Tensor[(16, 42, 42, 84), float16] {
    %238 = nn.conv2d(%p0107, %p188, padding=[0, 0, 0, 0], channels=84, kernel_size=[1, 1], data_layout="NHWC", kernel_layout="OHWI", out_dtype="float16") /* ty=Tensor[(16, 42, 42, 84), float16] */;
    %239 = multiply(%238, %p246) /* ty=Tensor[(16, 42, 42, 84), float16] */;
    %240 = add(%239, %p345) /* ty=Tensor[(16, 42, 42, 84), float16] */;
    nn.relu(%240) /* ty=Tensor[(16, 42, 42, 84), float16] */
  } /* ty=fn (Tensor[(16, 42, 42, 84), float16], Tensor[(84, 1, 1, 84), float16], Tensor[(84), float16], Tensor[(84), float16]) -> Tensor[(16, 42, 42, 84), float16] */;
  %247 = %246(%245, meta[relay.Constant][78] /* ty=Tensor[(84, 1, 1, 84), float16] */, meta[relay.Constant][79] /* ty=Tensor[(84), float16] */, meta[relay.Constant][80] /* ty=Tensor[(84), float16] */) /* ty=Tensor[(16, 42, 42, 84), float16] */;
  %248 = fn (%p0106: Tensor[(16, 42, 42, 84), float16] /* ty=Tensor[(16, 42, 42, 84), float16] */, %p187: Tensor[(84, 7, 7, 1), float16] /* ty=Tensor[(84, 7, 7, 1), float16] */, Primitive=1) -> Tensor[(16, 42, 42, 84), float16] {
    nn.conv2d(%p0106, %p187, padding=[3, 3, 3, 3], groups=84, channels=84, kernel_size=[7, 7], data_layout="NHWC", kernel_layout="OHWI", out_dtype="float16") /* ty=Tensor[(16, 42, 42, 84), float16] */
  } /* ty=fn (Tensor[(16, 42, 42, 84), float16], Tensor[(84, 7, 7, 1), float16]) -> Tensor[(16, 42, 42, 84), float16] */;
  %249 = %248(%247, meta[relay.Constant][81] /* ty=Tensor[(84, 7, 7, 1), float16] */) /* ty=Tensor[(16, 42, 42, 84), float16] */;
  %250 = fn (%p0105: Tensor[(16, 42, 42, 84), float16] /* ty=Tensor[(16, 42, 42, 84), float16] */, %p186: Tensor[(84, 1, 1, 84), float16] /* ty=Tensor[(84, 1, 1, 84), float16] */, %p245: Tensor[(84), float16] /* ty=Tensor[(84), float16] */, %p344: Tensor[(84), float16] /* ty=Tensor[(84), float16] */, Primitive=1) -> Tensor[(16, 42, 42, 84), float16] {
    %236 = nn.conv2d(%p0105, %p186, padding=[0, 0, 0, 0], channels=84, kernel_size=[1, 1], data_layout="NHWC", kernel_layout="OHWI", out_dtype="float16") /* ty=Tensor[(16, 42, 42, 84), float16] */;
    %237 = multiply(%236, %p245) /* ty=Tensor[(16, 42, 42, 84), float16] */;
    add(%237, %p344) /* ty=Tensor[(16, 42, 42, 84), float16] */
  } /* ty=fn (Tensor[(16, 42, 42, 84), float16], Tensor[(84, 1, 1, 84), float16], Tensor[(84), float16], Tensor[(84), float16]) -> Tensor[(16, 42, 42, 84), float16] */;
  %251 = %235(%234, meta[relay.Constant][73] /* ty=Tensor[(84, 5, 5, 1), float16] */) /* ty=Tensor[(16, 42, 42, 84), float16] */;
  %252 = %250(%249, meta[relay.Constant][82] /* ty=Tensor[(84, 1, 1, 84), float16] */, meta[relay.Constant][83] /* ty=Tensor[(84), float16] */, meta[relay.Constant][84] /* ty=Tensor[(84), float16] */) /* ty=Tensor[(16, 42, 42, 84), float16] */;
  %253 = fn (%p0100: Tensor[(16, 42, 42, 84), float16] /* ty=Tensor[(16, 42, 42, 84), float16] */, %p181: Tensor[(84, 1, 1, 84), float16] /* ty=Tensor[(84, 1, 1, 84), float16] */, %p243: Tensor[(84), float16] /* ty=Tensor[(84), float16] */, %p342: Tensor[(84), float16] /* ty=Tensor[(84), float16] */, %p411: Tensor[(16, 42, 42, 84), float16] /* ty=Tensor[(16, 42, 42, 84), float16] */, Primitive=1) -> Tensor[(16, 42, 42, 84), float16] {
    %222 = nn.conv2d(%p0100, %p181, padding=[0, 0, 0, 0], channels=84, kernel_size=[1, 1], data_layout="NHWC", kernel_layout="OHWI", out_dtype="float16") /* ty=Tensor[(16, 42, 42, 84), float16] */;
    %223 = multiply(%222, %p243) /* ty=Tensor[(16, 42, 42, 84), float16] */;
    %224 = add(%223, %p342) /* ty=Tensor[(16, 42, 42, 84), float16] */;
    add(%224, %p411) /* ty=Tensor[(16, 42, 42, 84), float16] */
  } /* ty=fn (Tensor[(16, 42, 42, 84), float16], Tensor[(84, 1, 1, 84), float16], Tensor[(84), float16], Tensor[(84), float16], Tensor[(16, 42, 42, 84), float16]) -> Tensor[(16, 42, 42, 84), float16] */;
  %254 = %253(%251, meta[relay.Constant][74] /* ty=Tensor[(84, 1, 1, 84), float16] */, meta[relay.Constant][75] /* ty=Tensor[(84), float16] */, meta[relay.Constant][76] /* ty=Tensor[(84), float16] */, %252) /* ty=Tensor[(16, 42, 42, 84), float16] */;
  %255 = %200(%198, %199) /* ty=Tensor[(16, 42, 42, 84), float16] */;
  %256 = fn (%p099: Tensor[(16, 42, 42, 84), float16] /* ty=Tensor[(16, 42, 42, 84), float16] */, %p180: Tensor[(16, 42, 42, 84), float16] /* ty=Tensor[(16, 42, 42, 84), float16] */, Primitive=1) -> Tensor[(16, 42, 42, 84), float16] {
    %221 = nn.avg_pool2d(%p099, pool_size=[3, 3], padding=[1, 1, 1, 1], layout="NHWC", out_layout="NHWC") /* ty=Tensor[(16, 42, 42, 84), float16] */;
    add(%221, %p180) /* ty=Tensor[(16, 42, 42, 84), float16] */
  } /* ty=fn (Tensor[(16, 42, 42, 84), float16], Tensor[(16, 42, 42, 84), float16]) -> Tensor[(16, 42, 42, 84), float16] */;
  %263 = fn (%p0114: Tensor[(16, 42, 42, 84), float16] /* ty=Tensor[(16, 42, 42, 84), float16] */, Primitive=1) -> Tensor[(16, 42, 42, 84), float16] {
    nn.relu(%p0114) /* ty=Tensor[(16, 42, 42, 84), float16] */
  } /* ty=fn (Tensor[(16, 42, 42, 84), float16]) -> Tensor[(16, 42, 42, 84), float16] */;
  %264 = %263(%254) /* ty=Tensor[(16, 42, 42, 84), float16] */;
  %265 = fn (%p0113: Tensor[(16, 42, 42, 84), float16] /* ty=Tensor[(16, 42, 42, 84), float16] */, %p194: Tensor[(84, 3, 3, 1), float16] /* ty=Tensor[(84, 3, 3, 1), float16] */, Primitive=1) -> Tensor[(16, 42, 42, 84), float16] {
    nn.conv2d(%p0113, %p194, padding=[1, 1, 1, 1], groups=84, channels=84, kernel_size=[3, 3], data_layout="NHWC", kernel_layout="OHWI", out_dtype="float16") /* ty=Tensor[(16, 42, 42, 84), float16] */
  } /* ty=fn (Tensor[(16, 42, 42, 84), float16], Tensor[(84, 3, 3, 1), float16]) -> Tensor[(16, 42, 42, 84), float16] */;
  %266 = %265(%264, meta[relay.Constant][85] /* ty=Tensor[(84, 3, 3, 1), float16] */) /* ty=Tensor[(16, 42, 42, 84), float16] */;
  %267 = fn (%p0112: Tensor[(16, 42, 42, 84), float16] /* ty=Tensor[(16, 42, 42, 84), float16] */, %p193: Tensor[(84, 1, 1, 84), float16] /* ty=Tensor[(84, 1, 1, 84), float16] */, %p248: Tensor[(84), float16] /* ty=Tensor[(84), float16] */, %p347: Tensor[(84), float16] /* ty=Tensor[(84), float16] */, Primitive=1) -> Tensor[(16, 42, 42, 84), float16] {
    %260 = nn.conv2d(%p0112, %p193, padding=[0, 0, 0, 0], channels=84, kernel_size=[1, 1], data_layout="NHWC", kernel_layout="OHWI", out_dtype="float16") /* ty=Tensor[(16, 42, 42, 84), float16] */;
    %261 = multiply(%260, %p248) /* ty=Tensor[(16, 42, 42, 84), float16] */;
    %262 = add(%261, %p347) /* ty=Tensor[(16, 42, 42, 84), float16] */;
    nn.relu(%262) /* ty=Tensor[(16, 42, 42, 84), float16] */
  } /* ty=fn (Tensor[(16, 42, 42, 84), float16], Tensor[(84, 1, 1, 84), float16], Tensor[(84), float16], Tensor[(84), float16]) -> Tensor[(16, 42, 42, 84), float16] */;
  %268 = %267(%266, meta[relay.Constant][86] /* ty=Tensor[(84, 1, 1, 84), float16] */, meta[relay.Constant][87] /* ty=Tensor[(84), float16] */, meta[relay.Constant][88] /* ty=Tensor[(84), float16] */) /* ty=Tensor[(16, 42, 42, 84), float16] */;
  %269 = fn (%p0111: Tensor[(16, 42, 42, 84), float16] /* ty=Tensor[(16, 42, 42, 84), float16] */, %p192: Tensor[(84, 3, 3, 1), float16] /* ty=Tensor[(84, 3, 3, 1), float16] */, Primitive=1) -> Tensor[(16, 42, 42, 84), float16] {
    nn.conv2d(%p0111, %p192, padding=[1, 1, 1, 1], groups=84, channels=84, kernel_size=[3, 3], data_layout="NHWC", kernel_layout="OHWI", out_dtype="float16") /* ty=Tensor[(16, 42, 42, 84), float16] */
  } /* ty=fn (Tensor[(16, 42, 42, 84), float16], Tensor[(84, 3, 3, 1), float16]) -> Tensor[(16, 42, 42, 84), float16] */;
  %270 = fn (%p0116: Tensor[(16, 83, 83, 84), float16] /* ty=Tensor[(16, 83, 83, 84), float16] */, %p195: float16 /* ty=float16 */, Primitive=1) -> Tensor[(16, 85, 85, 84), float16] {
    nn.pad(%p0116, %p195, pad_width=[[0, 0], [1, 1], [1, 1], [0, 0]]) /* ty=Tensor[(16, 85, 85, 84), float16] */
  } /* ty=fn (Tensor[(16, 83, 83, 84), float16], float16) -> Tensor[(16, 85, 85, 84), float16] */;
  %271 = %270(%164, -inff16 /* ty=float16 */) /* ty=Tensor[(16, 85, 85, 84), float16] */;
  %272 = fn (%p0115: Tensor[(16, 85, 85, 84), float16] /* ty=Tensor[(16, 85, 85, 84), float16] */, Primitive=1) -> Tensor[(16, 42, 42, 84), float16] {
    nn.max_pool2d(%p0115, pool_size=[3, 3], strides=[2, 2], padding=[0, 0, 0, 0], layout="NHWC", out_layout="NHWC") /* ty=Tensor[(16, 42, 42, 84), float16] */
  } /* ty=fn (Tensor[(16, 85, 85, 84), float16]) -> Tensor[(16, 42, 42, 84), float16] */;
  %273 = %269(%268, meta[relay.Constant][89] /* ty=Tensor[(84, 3, 3, 1), float16] */) /* ty=Tensor[(16, 42, 42, 84), float16] */;
  %274 = %272(%271) /* ty=Tensor[(16, 42, 42, 84), float16] */;
  %275 = fn (%p0110: Tensor[(16, 42, 42, 84), float16] /* ty=Tensor[(16, 42, 42, 84), float16] */, %p191: Tensor[(84, 1, 1, 84), float16] /* ty=Tensor[(84, 1, 1, 84), float16] */, %p247: Tensor[(84), float16] /* ty=Tensor[(84), float16] */, %p346: Tensor[(84), float16] /* ty=Tensor[(84), float16] */, %p412: Tensor[(16, 42, 42, 84), float16] /* ty=Tensor[(16, 42, 42, 84), float16] */, Primitive=1) -> Tensor[(16, 42, 42, 84), float16] {
    %257 = nn.conv2d(%p0110, %p191, padding=[0, 0, 0, 0], channels=84, kernel_size=[1, 1], data_layout="NHWC", kernel_layout="OHWI", out_dtype="float16") /* ty=Tensor[(16, 42, 42, 84), float16] */;
    %258 = multiply(%257, %p247) /* ty=Tensor[(16, 42, 42, 84), float16] */;
    %259 = add(%258, %p346) /* ty=Tensor[(16, 42, 42, 84), float16] */;
    add(%259, %p412) /* ty=Tensor[(16, 42, 42, 84), float16] */
  } /* ty=fn (Tensor[(16, 42, 42, 84), float16], Tensor[(84, 1, 1, 84), float16], Tensor[(84), float16], Tensor[(84), float16], Tensor[(16, 42, 42, 84), float16]) -> Tensor[(16, 42, 42, 84), float16] */;
  %276 = %220(%218, %219) /* ty=Tensor[(16, 42, 42, 84), float16] */;
  %277 = %256(%254, %255) /* ty=Tensor[(16, 42, 42, 84), float16] */;
  %278 = %275(%273, meta[relay.Constant][90] /* ty=Tensor[(84, 1, 1, 84), float16] */, meta[relay.Constant][91] /* ty=Tensor[(84), float16] */, meta[relay.Constant][92] /* ty=Tensor[(84), float16] */, %274) /* ty=Tensor[(16, 42, 42, 84), float16] */;
  %279 = fn (%p038: Tensor[(16, 42, 42, 84), float16] /* ty=Tensor[(16, 42, 42, 84), float16] */, %p127: Tensor[(16, 42, 42, 84), float16] /* ty=Tensor[(16, 42, 42, 84), float16] */, %p223: Tensor[(16, 42, 42, 84), float16] /* ty=Tensor[(16, 42, 42, 84), float16] */, %p322: Tensor[(16, 42, 42, 84), float16] /* ty=Tensor[(16, 42, 42, 84), float16] */, Primitive=1) -> Tensor[(16, 42, 42, 336), float16] {
    %43 = (%p038, %p127, %p223, %p322) /* ty=(Tensor[(16, 42, 42, 84), float16], Tensor[(16, 42, 42, 84), float16], Tensor[(16, 42, 42, 84), float16], Tensor[(16, 42, 42, 84), float16]) span=aten::cat_2:0:0 */;
    concatenate(%43, axis=3) /* ty=Tensor[(16, 42, 42, 336), float16] */
  } /* ty=fn (Tensor[(16, 42, 42, 84), float16], Tensor[(16, 42, 42, 84), float16], Tensor[(16, 42, 42, 84), float16], Tensor[(16, 42, 42, 84), float16]) -> Tensor[(16, 42, 42, 336), float16] */;
  %280 = %279(%255, %276, %277, %278) /* ty=Tensor[(16, 42, 42, 336), float16] */;
  %281 = fn (%p037: Tensor[(16, 42, 42, 336), float16] /* ty=Tensor[(16, 42, 42, 336), float16] */, Primitive=1) -> Tensor[(16, 42, 42, 336), float16] {
    nn.relu(%p037) /* ty=Tensor[(16, 42, 42, 336), float16] */
  } /* ty=fn (Tensor[(16, 42, 42, 336), float16]) -> Tensor[(16, 42, 42, 336), float16] */;
  %282 = %281(%280) /* ty=Tensor[(16, 42, 42, 336), float16] */;
  %283 = fn (%p036: Tensor[(16, 42, 42, 336), float16] /* ty=Tensor[(16, 42, 42, 336), float16] */, %p126: Tensor[(168, 1, 1, 336), float16] /* ty=Tensor[(168, 1, 1, 336), float16] */, %p222: Tensor[(168), float16] /* ty=Tensor[(168), float16] */, %p321: Tensor[(168), float16] /* ty=Tensor[(168), float16] */, Primitive=1) -> Tensor[(16, 42, 42, 168), float16] {
    %41 = nn.conv2d(%p036, %p126, padding=[0, 0, 0, 0], channels=168, kernel_size=[1, 1], data_layout="NHWC", kernel_layout="OHWI", out_dtype="float16") /* ty=Tensor[(16, 42, 42, 168), float16] */;
    %42 = multiply(%41, %p222) /* ty=Tensor[(16, 42, 42, 168), float16] */;
    add(%42, %p321) /* ty=Tensor[(16, 42, 42, 168), float16] */
  } /* ty=fn (Tensor[(16, 42, 42, 336), float16], Tensor[(168, 1, 1, 336), float16], Tensor[(168), float16], Tensor[(168), float16]) -> Tensor[(16, 42, 42, 168), float16] */;
  %296 = fn (%p0128: Tensor[(16, 83, 83, 168), float16] /* ty=Tensor[(16, 83, 83, 168), float16] */, Primitive=1) -> Tensor[(16, 83, 83, 168), float16] {
    nn.relu(%p0128) /* ty=Tensor[(16, 83, 83, 168), float16] */
  } /* ty=fn (Tensor[(16, 83, 83, 168), float16]) -> Tensor[(16, 83, 83, 168), float16] */;
  %297 = %296(%160) /* ty=Tensor[(16, 83, 83, 168), float16] */;
  %298 = fn (%p0127: Tensor[(16, 83, 83, 168), float16] /* ty=Tensor[(16, 83, 83, 168), float16] */, Primitive=1) -> Tensor[(16, 42, 42, 168), float16] {
    nn.avg_pool2d(%p0127, pool_size=[1, 1], strides=[2, 2], padding=[0, 0, 0, 0], layout="NHWC", out_layout="NHWC") /* ty=Tensor[(16, 42, 42, 168), float16] */
  } /* ty=fn (Tensor[(16, 83, 83, 168), float16]) -> Tensor[(16, 42, 42, 168), float16] */;
  %299 = %298(%297) /* ty=Tensor[(16, 42, 42, 168), float16] */;
  %300 = fn (%p0126: Tensor[(16, 42, 42, 168), float16] /* ty=Tensor[(16, 42, 42, 168), float16] */, %p1103: Tensor[(84, 1, 1, 168), float16] /* ty=Tensor[(84, 1, 1, 168), float16] */, Primitive=1) -> Tensor[(16, 42, 42, 84), float16] {
    nn.conv2d(%p0126, %p1103, padding=[0, 0, 0, 0], channels=84, kernel_size=[1, 1], data_layout="NHWC", kernel_layout="OHWI", out_dtype="float16") /* ty=Tensor[(16, 42, 42, 84), float16] */
  } /* ty=fn (Tensor[(16, 42, 42, 168), float16], Tensor[(84, 1, 1, 168), float16]) -> Tensor[(16, 42, 42, 84), float16] */;
  %301 = fn (%p0131: Tensor[(16, 83, 83, 168), float16] /* ty=Tensor[(16, 83, 83, 168), float16] */, %p1105: float16 /* ty=float16 */, Primitive=1) -> Tensor[(16, 83, 83, 168), float16] {
    nn.pad(%p0131, %p1105, pad_width=[[0, 0], [-1, 1], [-1, 1], [0, 0]]) /* ty=Tensor[(16, 83, 83, 168), float16] */
  } /* ty=fn (Tensor[(16, 83, 83, 168), float16], float16) -> Tensor[(16, 83, 83, 168), float16] */;
  %302 = %301(%297, 0f16 /* ty=float16 */) /* ty=Tensor[(16, 83, 83, 168), float16] */;
  %303 = fn (%p0130: Tensor[(16, 83, 83, 168), float16] /* ty=Tensor[(16, 83, 83, 168), float16] */, Primitive=1) -> Tensor[(16, 42, 42, 168), float16] {
    nn.avg_pool2d(%p0130, pool_size=[1, 1], strides=[2, 2], padding=[0, 0, 0, 0], layout="NHWC", out_layout="NHWC") /* ty=Tensor[(16, 42, 42, 168), float16] */
  } /* ty=fn (Tensor[(16, 83, 83, 168), float16]) -> Tensor[(16, 42, 42, 168), float16] */;
  %304 = %303(%302) /* ty=Tensor[(16, 42, 42, 168), float16] */;
  %305 = fn (%p0129: Tensor[(16, 42, 42, 168), float16] /* ty=Tensor[(16, 42, 42, 168), float16] */, %p1104: Tensor[(84, 1, 1, 168), float16] /* ty=Tensor[(84, 1, 1, 168), float16] */, Primitive=1) -> Tensor[(16, 42, 42, 84), float16] {
    nn.conv2d(%p0129, %p1104, padding=[0, 0, 0, 0], channels=84, kernel_size=[1, 1], data_layout="NHWC", kernel_layout="OHWI", out_dtype="float16") /* ty=Tensor[(16, 42, 42, 84), float16] */
  } /* ty=fn (Tensor[(16, 42, 42, 168), float16], Tensor[(84, 1, 1, 168), float16]) -> Tensor[(16, 42, 42, 84), float16] */;
  %306 = %300(%299, meta[relay.Constant][96] /* ty=Tensor[(84, 1, 1, 168), float16] */) /* ty=Tensor[(16, 42, 42, 84), float16] */;
  %307 = %305(%304, meta[relay.Constant][97] /* ty=Tensor[(84, 1, 1, 168), float16] */) /* ty=Tensor[(16, 42, 42, 84), float16] */;
  %308 = fn (%p0125: Tensor[(16, 42, 42, 84), float16] /* ty=Tensor[(16, 42, 42, 84), float16] */, %p1102: Tensor[(16, 42, 42, 84), float16] /* ty=Tensor[(16, 42, 42, 84), float16] */, %p253: Tensor[(168), float16] /* ty=Tensor[(168), float16] */, %p352: Tensor[(168), float16] /* ty=Tensor[(168), float16] */, Primitive=1) -> Tensor[(16, 42, 42, 168), float16] {
    %293 = (%p0125, %p1102) /* ty=(Tensor[(16, 42, 42, 84), float16], Tensor[(16, 42, 42, 84), float16]) span=aten::cat_3:0:0 */;
    %294 = concatenate(%293, axis=3) /* ty=Tensor[(16, 42, 42, 168), float16] */;
    %295 = multiply(%294, %p253) /* ty=Tensor[(16, 42, 42, 168), float16] */;
    add(%295, %p352) /* ty=Tensor[(16, 42, 42, 168), float16] */
  } /* ty=fn (Tensor[(16, 42, 42, 84), float16], Tensor[(16, 42, 42, 84), float16], Tensor[(168), float16], Tensor[(168), float16]) -> Tensor[(16, 42, 42, 168), float16] */;
  %317 = fn (%p0138: Tensor[(16, 42, 42, 336), float16] /* ty=Tensor[(16, 42, 42, 336), float16] */, Primitive=1) -> Tensor[(16, 42, 42, 336), float16] {
    nn.relu(%p0138) /* ty=Tensor[(16, 42, 42, 336), float16] */
  } /* ty=fn (Tensor[(16, 42, 42, 336), float16]) -> Tensor[(16, 42, 42, 336), float16] */;
  %318 = %317(%280) /* ty=Tensor[(16, 42, 42, 336), float16] */;
  %319 = fn (%p0137: Tensor[(16, 42, 42, 336), float16] /* ty=Tensor[(16, 42, 42, 336), float16] */, %p1110: Tensor[(168, 1, 1, 336), float16] /* ty=Tensor[(168, 1, 1, 336), float16] */, %p256: Tensor[(168), float16] /* ty=Tensor[(168), float16] */, %p355: Tensor[(168), float16] /* ty=Tensor[(168), float16] */, Primitive=1) -> Tensor[(16, 42, 42, 168), float16] {
    %315 = nn.conv2d(%p0137, %p1110, padding=[0, 0, 0, 0], channels=168, kernel_size=[1, 1], data_layout="NHWC", kernel_layout="OHWI", out_dtype="float16") /* ty=Tensor[(16, 42, 42, 168), float16] */;
    %316 = multiply(%315, %p256) /* ty=Tensor[(16, 42, 42, 168), float16] */;
    add(%316, %p355) /* ty=Tensor[(16, 42, 42, 168), float16] */
  } /* ty=fn (Tensor[(16, 42, 42, 336), float16], Tensor[(168, 1, 1, 336), float16], Tensor[(168), float16], Tensor[(168), float16]) -> Tensor[(16, 42, 42, 168), float16] */;
  %320 = %319(%318, meta[relay.Constant][100] /* ty=Tensor[(168, 1, 1, 336), float16] */, meta[relay.Constant][101] /* ty=Tensor[(168), float16] */, meta[relay.Constant][102] /* ty=Tensor[(168), float16] */) /* ty=Tensor[(16, 42, 42, 168), float16] */;
  %321 = fn (%p0136: Tensor[(16, 42, 42, 168), float16] /* ty=Tensor[(16, 42, 42, 168), float16] */, Primitive=1) -> Tensor[(16, 42, 42, 168), float16] {
    nn.relu(%p0136) /* ty=Tensor[(16, 42, 42, 168), float16] */
  } /* ty=fn (Tensor[(16, 42, 42, 168), float16]) -> Tensor[(16, 42, 42, 168), float16] */;
  %322 = %321(%320) /* ty=Tensor[(16, 42, 42, 168), float16] */;
  %323 = fn (%p0135: Tensor[(16, 42, 42, 168), float16] /* ty=Tensor[(16, 42, 42, 168), float16] */, %p1109: Tensor[(168, 5, 5, 1), float16] /* ty=Tensor[(168, 5, 5, 1), float16] */, Primitive=1) -> Tensor[(16, 42, 42, 168), float16] {
    nn.conv2d(%p0135, %p1109, padding=[2, 2, 2, 2], groups=168, channels=168, kernel_size=[5, 5], data_layout="NHWC", kernel_layout="OHWI", out_dtype="float16") /* ty=Tensor[(16, 42, 42, 168), float16] */
  } /* ty=fn (Tensor[(16, 42, 42, 168), float16], Tensor[(168, 5, 5, 1), float16]) -> Tensor[(16, 42, 42, 168), float16] */;
  %324 = %323(%322, meta[relay.Constant][103] /* ty=Tensor[(168, 5, 5, 1), float16] */) /* ty=Tensor[(16, 42, 42, 168), float16] */;
  %325 = fn (%p0134: Tensor[(16, 42, 42, 168), float16] /* ty=Tensor[(16, 42, 42, 168), float16] */, %p1108: Tensor[(168, 1, 1, 168), float16] /* ty=Tensor[(168, 1, 1, 168), float16] */, %p255: Tensor[(168), float16] /* ty=Tensor[(168), float16] */, %p354: Tensor[(168), float16] /* ty=Tensor[(168), float16] */, Primitive=1) -> Tensor[(16, 42, 42, 168), float16] {
    %312 = nn.conv2d(%p0134, %p1108, padding=[0, 0, 0, 0], channels=168, kernel_size=[1, 1], data_layout="NHWC", kernel_layout="OHWI", out_dtype="float16") /* ty=Tensor[(16, 42, 42, 168), float16] */;
    %313 = multiply(%312, %p255) /* ty=Tensor[(16, 42, 42, 168), float16] */;
    %314 = add(%313, %p354) /* ty=Tensor[(16, 42, 42, 168), float16] */;
    nn.relu(%314) /* ty=Tensor[(16, 42, 42, 168), float16] */
  } /* ty=fn (Tensor[(16, 42, 42, 168), float16], Tensor[(168, 1, 1, 168), float16], Tensor[(168), float16], Tensor[(168), float16]) -> Tensor[(16, 42, 42, 168), float16] */;
  %326 = %325(%324, meta[relay.Constant][104] /* ty=Tensor[(168, 1, 1, 168), float16] */, meta[relay.Constant][105] /* ty=Tensor[(168), float16] */, meta[relay.Constant][106] /* ty=Tensor[(168), float16] */) /* ty=Tensor[(16, 42, 42, 168), float16] */;
  %327 = fn (%p0133: Tensor[(16, 42, 42, 168), float16] /* ty=Tensor[(16, 42, 42, 168), float16] */, %p1107: Tensor[(168, 5, 5, 1), float16] /* ty=Tensor[(168, 5, 5, 1), float16] */, Primitive=1) -> Tensor[(16, 42, 42, 168), float16] {
    nn.conv2d(%p0133, %p1107, padding=[2, 2, 2, 2], groups=168, channels=168, kernel_size=[5, 5], data_layout="NHWC", kernel_layout="OHWI", out_dtype="float16") /* ty=Tensor[(16, 42, 42, 168), float16] */
  } /* ty=fn (Tensor[(16, 42, 42, 168), float16], Tensor[(168, 5, 5, 1), float16]) -> Tensor[(16, 42, 42, 168), float16] */;
  %333 = %308(%306, %307, meta[relay.Constant][98] /* ty=Tensor[(168), float16] */, meta[relay.Constant][99] /* ty=Tensor[(168), float16] */) /* ty=Tensor[(16, 42, 42, 168), float16] */;
  %334 = fn (%p0143: Tensor[(16, 42, 42, 168), float16] /* ty=Tensor[(16, 42, 42, 168), float16] */, Primitive=1) -> Tensor[(16, 42, 42, 168), float16] {
    nn.relu(%p0143) /* ty=Tensor[(16, 42, 42, 168), float16] */
  } /* ty=fn (Tensor[(16, 42, 42, 168), float16]) -> Tensor[(16, 42, 42, 168), float16] */;
  %335 = %334(%333) /* ty=Tensor[(16, 42, 42, 168), float16] */;
  %336 = fn (%p0142: Tensor[(16, 42, 42, 168), float16] /* ty=Tensor[(16, 42, 42, 168), float16] */, %p1114: Tensor[(168, 3, 3, 1), float16] /* ty=Tensor[(168, 3, 3, 1), float16] */, Primitive=1) -> Tensor[(16, 42, 42, 168), float16] {
    nn.conv2d(%p0142, %p1114, padding=[1, 1, 1, 1], groups=168, channels=168, kernel_size=[3, 3], data_layout="NHWC", kernel_layout="OHWI", out_dtype="float16") /* ty=Tensor[(16, 42, 42, 168), float16] */
  } /* ty=fn (Tensor[(16, 42, 42, 168), float16], Tensor[(168, 3, 3, 1), float16]) -> Tensor[(16, 42, 42, 168), float16] */;
  %337 = %336(%335, meta[relay.Constant][111] /* ty=Tensor[(168, 3, 3, 1), float16] */) /* ty=Tensor[(16, 42, 42, 168), float16] */;
  %338 = fn (%p0141: Tensor[(16, 42, 42, 168), float16] /* ty=Tensor[(16, 42, 42, 168), float16] */, %p1113: Tensor[(168, 1, 1, 168), float16] /* ty=Tensor[(168, 1, 1, 168), float16] */, %p258: Tensor[(168), float16] /* ty=Tensor[(168), float16] */, %p357: Tensor[(168), float16] /* ty=Tensor[(168), float16] */, Primitive=1) -> Tensor[(16, 42, 42, 168), float16] {
    %330 = nn.conv2d(%p0141, %p1113, padding=[0, 0, 0, 0], channels=168, kernel_size=[1, 1], data_layout="NHWC", kernel_layout="OHWI", out_dtype="float16") /* ty=Tensor[(16, 42, 42, 168), float16] */;
    %331 = multiply(%330, %p258) /* ty=Tensor[(16, 42, 42, 168), float16] */;
    %332 = add(%331, %p357) /* ty=Tensor[(16, 42, 42, 168), float16] */;
    nn.relu(%332) /* ty=Tensor[(16, 42, 42, 168), float16] */
  } /* ty=fn (Tensor[(16, 42, 42, 168), float16], Tensor[(168, 1, 1, 168), float16], Tensor[(168), float16], Tensor[(168), float16]) -> Tensor[(16, 42, 42, 168), float16] */;
  %339 = %338(%337, meta[relay.Constant][112] /* ty=Tensor[(168, 1, 1, 168), float16] */, meta[relay.Constant][113] /* ty=Tensor[(168), float16] */, meta[relay.Constant][114] /* ty=Tensor[(168), float16] */) /* ty=Tensor[(16, 42, 42, 168), float16] */;
  %340 = fn (%p0140: Tensor[(16, 42, 42, 168), float16] /* ty=Tensor[(16, 42, 42, 168), float16] */, %p1112: Tensor[(168, 3, 3, 1), float16] /* ty=Tensor[(168, 3, 3, 1), float16] */, Primitive=1) -> Tensor[(16, 42, 42, 168), float16] {
    nn.conv2d(%p0140, %p1112, padding=[1, 1, 1, 1], groups=168, channels=168, kernel_size=[3, 3], data_layout="NHWC", kernel_layout="OHWI", out_dtype="float16") /* ty=Tensor[(16, 42, 42, 168), float16] */
  } /* ty=fn (Tensor[(16, 42, 42, 168), float16], Tensor[(168, 3, 3, 1), float16]) -> Tensor[(16, 42, 42, 168), float16] */;
  %341 = %340(%339, meta[relay.Constant][115] /* ty=Tensor[(168, 3, 3, 1), float16] */) /* ty=Tensor[(16, 42, 42, 168), float16] */;
  %342 = fn (%p0139: Tensor[(16, 42, 42, 168), float16] /* ty=Tensor[(16, 42, 42, 168), float16] */, %p1111: Tensor[(168, 1, 1, 168), float16] /* ty=Tensor[(168, 1, 1, 168), float16] */, %p257: Tensor[(168), float16] /* ty=Tensor[(168), float16] */, %p356: Tensor[(168), float16] /* ty=Tensor[(168), float16] */, Primitive=1) -> Tensor[(16, 42, 42, 168), float16] {
    %328 = nn.conv2d(%p0139, %p1111, padding=[0, 0, 0, 0], channels=168, kernel_size=[1, 1], data_layout="NHWC", kernel_layout="OHWI", out_dtype="float16") /* ty=Tensor[(16, 42, 42, 168), float16] */;
    %329 = multiply(%328, %p257) /* ty=Tensor[(16, 42, 42, 168), float16] */;
    add(%329, %p356) /* ty=Tensor[(16, 42, 42, 168), float16] */
  } /* ty=fn (Tensor[(16, 42, 42, 168), float16], Tensor[(168, 1, 1, 168), float16], Tensor[(168), float16], Tensor[(168), float16]) -> Tensor[(16, 42, 42, 168), float16] */;
  %343 = %327(%326, meta[relay.Constant][107] /* ty=Tensor[(168, 5, 5, 1), float16] */) /* ty=Tensor[(16, 42, 42, 168), float16] */;
  %344 = %342(%341, meta[relay.Constant][116] /* ty=Tensor[(168, 1, 1, 168), float16] */, meta[relay.Constant][117] /* ty=Tensor[(168), float16] */, meta[relay.Constant][118] /* ty=Tensor[(168), float16] */) /* ty=Tensor[(16, 42, 42, 168), float16] */;
  %345 = fn (%p0132: Tensor[(16, 42, 42, 168), float16] /* ty=Tensor[(16, 42, 42, 168), float16] */, %p1106: Tensor[(168, 1, 1, 168), float16] /* ty=Tensor[(168, 1, 1, 168), float16] */, %p254: Tensor[(168), float16] /* ty=Tensor[(168), float16] */, %p353: Tensor[(168), float16] /* ty=Tensor[(168), float16] */, %p415: Tensor[(16, 42, 42, 168), float16] /* ty=Tensor[(16, 42, 42, 168), float16] */, Primitive=1) -> Tensor[(16, 42, 42, 168), float16] {
    %309 = nn.conv2d(%p0132, %p1106, padding=[0, 0, 0, 0], channels=168, kernel_size=[1, 1], data_layout="NHWC", kernel_layout="OHWI", out_dtype="float16") /* ty=Tensor[(16, 42, 42, 168), float16] */;
    %310 = multiply(%309, %p254) /* ty=Tensor[(16, 42, 42, 168), float16] */;
    %311 = add(%310, %p353) /* ty=Tensor[(16, 42, 42, 168), float16] */;
    add(%311, %p415) /* ty=Tensor[(16, 42, 42, 168), float16] */
  } /* ty=fn (Tensor[(16, 42, 42, 168), float16], Tensor[(168, 1, 1, 168), float16], Tensor[(168), float16], Tensor[(168), float16], Tensor[(16, 42, 42, 168), float16]) -> Tensor[(16, 42, 42, 168), float16] */;
  %352 = fn (%p0148: Tensor[(16, 42, 42, 168), float16] /* ty=Tensor[(16, 42, 42, 168), float16] */, Primitive=1) -> Tensor[(16, 42, 42, 168), float16] {
    nn.relu(%p0148) /* ty=Tensor[(16, 42, 42, 168), float16] */
  } /* ty=fn (Tensor[(16, 42, 42, 168), float16]) -> Tensor[(16, 42, 42, 168), float16] */;
  %353 = %352(%333) /* ty=Tensor[(16, 42, 42, 168), float16] */;
  %354 = fn (%p0147: Tensor[(16, 42, 42, 168), float16] /* ty=Tensor[(16, 42, 42, 168), float16] */, %p1118: Tensor[(168, 5, 5, 1), float16] /* ty=Tensor[(168, 5, 5, 1), float16] */, Primitive=1) -> Tensor[(16, 42, 42, 168), float16] {
    nn.conv2d(%p0147, %p1118, padding=[2, 2, 2, 2], groups=168, channels=168, kernel_size=[5, 5], data_layout="NHWC", kernel_layout="OHWI", out_dtype="float16") /* ty=Tensor[(16, 42, 42, 168), float16] */
  } /* ty=fn (Tensor[(16, 42, 42, 168), float16], Tensor[(168, 5, 5, 1), float16]) -> Tensor[(16, 42, 42, 168), float16] */;
  %355 = %354(%353, meta[relay.Constant][119] /* ty=Tensor[(168, 5, 5, 1), float16] */) /* ty=Tensor[(16, 42, 42, 168), float16] */;
  %356 = fn (%p0146: Tensor[(16, 42, 42, 168), float16] /* ty=Tensor[(16, 42, 42, 168), float16] */, %p1117: Tensor[(168, 1, 1, 168), float16] /* ty=Tensor[(168, 1, 1, 168), float16] */, %p260: Tensor[(168), float16] /* ty=Tensor[(168), float16] */, %p359: Tensor[(168), float16] /* ty=Tensor[(168), float16] */, Primitive=1) -> Tensor[(16, 42, 42, 168), float16] {
    %349 = nn.conv2d(%p0146, %p1117, padding=[0, 0, 0, 0], channels=168, kernel_size=[1, 1], data_layout="NHWC", kernel_layout="OHWI", out_dtype="float16") /* ty=Tensor[(16, 42, 42, 168), float16] */;
    %350 = multiply(%349, %p260) /* ty=Tensor[(16, 42, 42, 168), float16] */;
    %351 = add(%350, %p359) /* ty=Tensor[(16, 42, 42, 168), float16] */;
    nn.relu(%351) /* ty=Tensor[(16, 42, 42, 168), float16] */
  } /* ty=fn (Tensor[(16, 42, 42, 168), float16], Tensor[(168, 1, 1, 168), float16], Tensor[(168), float16], Tensor[(168), float16]) -> Tensor[(16, 42, 42, 168), float16] */;
  %357 = %356(%355, meta[relay.Constant][120] /* ty=Tensor[(168, 1, 1, 168), float16] */, meta[relay.Constant][121] /* ty=Tensor[(168), float16] */, meta[relay.Constant][122] /* ty=Tensor[(168), float16] */) /* ty=Tensor[(16, 42, 42, 168), float16] */;
  %358 = fn (%p0145: Tensor[(16, 42, 42, 168), float16] /* ty=Tensor[(16, 42, 42, 168), float16] */, %p1116: Tensor[(168, 5, 5, 1), float16] /* ty=Tensor[(168, 5, 5, 1), float16] */, Primitive=1) -> Tensor[(16, 42, 42, 168), float16] {
    nn.conv2d(%p0145, %p1116, padding=[2, 2, 2, 2], groups=168, channels=168, kernel_size=[5, 5], data_layout="NHWC", kernel_layout="OHWI", out_dtype="float16") /* ty=Tensor[(16, 42, 42, 168), float16] */
  } /* ty=fn (Tensor[(16, 42, 42, 168), float16], Tensor[(168, 5, 5, 1), float16]) -> Tensor[(16, 42, 42, 168), float16] */;
  %364 = fn (%p0153: Tensor[(16, 42, 42, 168), float16] /* ty=Tensor[(16, 42, 42, 168), float16] */, Primitive=1) -> Tensor[(16, 42, 42, 168), float16] {
    nn.relu(%p0153) /* ty=Tensor[(16, 42, 42, 168), float16] */
  } /* ty=fn (Tensor[(16, 42, 42, 168), float16]) -> Tensor[(16, 42, 42, 168), float16] */;
  %365 = %364(%333) /* ty=Tensor[(16, 42, 42, 168), float16] */;
  %366 = fn (%p0152: Tensor[(16, 42, 42, 168), float16] /* ty=Tensor[(16, 42, 42, 168), float16] */, %p1122: Tensor[(168, 3, 3, 1), float16] /* ty=Tensor[(168, 3, 3, 1), float16] */, Primitive=1) -> Tensor[(16, 42, 42, 168), float16] {
    nn.conv2d(%p0152, %p1122, padding=[1, 1, 1, 1], groups=168, channels=168, kernel_size=[3, 3], data_layout="NHWC", kernel_layout="OHWI", out_dtype="float16") /* ty=Tensor[(16, 42, 42, 168), float16] */
  } /* ty=fn (Tensor[(16, 42, 42, 168), float16], Tensor[(168, 3, 3, 1), float16]) -> Tensor[(16, 42, 42, 168), float16] */;
  %367 = %366(%365, meta[relay.Constant][127] /* ty=Tensor[(168, 3, 3, 1), float16] */) /* ty=Tensor[(16, 42, 42, 168), float16] */;
  %368 = fn (%p0151: Tensor[(16, 42, 42, 168), float16] /* ty=Tensor[(16, 42, 42, 168), float16] */, %p1121: Tensor[(168, 1, 1, 168), float16] /* ty=Tensor[(168, 1, 1, 168), float16] */, %p262: Tensor[(168), float16] /* ty=Tensor[(168), float16] */, %p361: Tensor[(168), float16] /* ty=Tensor[(168), float16] */, Primitive=1) -> Tensor[(16, 42, 42, 168), float16] {
    %361 = nn.conv2d(%p0151, %p1121, padding=[0, 0, 0, 0], channels=168, kernel_size=[1, 1], data_layout="NHWC", kernel_layout="OHWI", out_dtype="float16") /* ty=Tensor[(16, 42, 42, 168), float16] */;
    %362 = multiply(%361, %p262) /* ty=Tensor[(16, 42, 42, 168), float16] */;
    %363 = add(%362, %p361) /* ty=Tensor[(16, 42, 42, 168), float16] */;
    nn.relu(%363) /* ty=Tensor[(16, 42, 42, 168), float16] */
  } /* ty=fn (Tensor[(16, 42, 42, 168), float16], Tensor[(168, 1, 1, 168), float16], Tensor[(168), float16], Tensor[(168), float16]) -> Tensor[(16, 42, 42, 168), float16] */;
  %369 = %368(%367, meta[relay.Constant][128] /* ty=Tensor[(168, 1, 1, 168), float16] */, meta[relay.Constant][129] /* ty=Tensor[(168), float16] */, meta[relay.Constant][130] /* ty=Tensor[(168), float16] */) /* ty=Tensor[(16, 42, 42, 168), float16] */;
  %370 = fn (%p0150: Tensor[(16, 42, 42, 168), float16] /* ty=Tensor[(16, 42, 42, 168), float16] */, %p1120: Tensor[(168, 3, 3, 1), float16] /* ty=Tensor[(168, 3, 3, 1), float16] */, Primitive=1) -> Tensor[(16, 42, 42, 168), float16] {
    nn.conv2d(%p0150, %p1120, padding=[1, 1, 1, 1], groups=168, channels=168, kernel_size=[3, 3], data_layout="NHWC", kernel_layout="OHWI", out_dtype="float16") /* ty=Tensor[(16, 42, 42, 168), float16] */
  } /* ty=fn (Tensor[(16, 42, 42, 168), float16], Tensor[(168, 3, 3, 1), float16]) -> Tensor[(16, 42, 42, 168), float16] */;
  %371 = %370(%369, meta[relay.Constant][131] /* ty=Tensor[(168, 3, 3, 1), float16] */) /* ty=Tensor[(16, 42, 42, 168), float16] */;
  %372 = fn (%p0149: Tensor[(16, 42, 42, 168), float16] /* ty=Tensor[(16, 42, 42, 168), float16] */, %p1119: Tensor[(168, 1, 1, 168), float16] /* ty=Tensor[(168, 1, 1, 168), float16] */, %p261: Tensor[(168), float16] /* ty=Tensor[(168), float16] */, %p360: Tensor[(168), float16] /* ty=Tensor[(168), float16] */, Primitive=1) -> Tensor[(16, 42, 42, 168), float16] {
    %359 = nn.conv2d(%p0149, %p1119, padding=[0, 0, 0, 0], channels=168, kernel_size=[1, 1], data_layout="NHWC", kernel_layout="OHWI", out_dtype="float16") /* ty=Tensor[(16, 42, 42, 168), float16] */;
    %360 = multiply(%359, %p261) /* ty=Tensor[(16, 42, 42, 168), float16] */;
    add(%360, %p360) /* ty=Tensor[(16, 42, 42, 168), float16] */
  } /* ty=fn (Tensor[(16, 42, 42, 168), float16], Tensor[(168, 1, 1, 168), float16], Tensor[(168), float16], Tensor[(168), float16]) -> Tensor[(16, 42, 42, 168), float16] */;
  %373 = %358(%357, meta[relay.Constant][123] /* ty=Tensor[(168, 5, 5, 1), float16] */) /* ty=Tensor[(16, 42, 42, 168), float16] */;
  %374 = %372(%371, meta[relay.Constant][132] /* ty=Tensor[(168, 1, 1, 168), float16] */, meta[relay.Constant][133] /* ty=Tensor[(168), float16] */, meta[relay.Constant][134] /* ty=Tensor[(168), float16] */) /* ty=Tensor[(16, 42, 42, 168), float16] */;
  %375 = fn (%p0144: Tensor[(16, 42, 42, 168), float16] /* ty=Tensor[(16, 42, 42, 168), float16] */, %p1115: Tensor[(168, 1, 1, 168), float16] /* ty=Tensor[(168, 1, 1, 168), float16] */, %p259: Tensor[(168), float16] /* ty=Tensor[(168), float16] */, %p358: Tensor[(168), float16] /* ty=Tensor[(168), float16] */, %p416: Tensor[(16, 42, 42, 168), float16] /* ty=Tensor[(16, 42, 42, 168), float16] */, Primitive=1) -> Tensor[(16, 42, 42, 168), float16] {
    %346 = nn.conv2d(%p0144, %p1115, padding=[0, 0, 0, 0], channels=168, kernel_size=[1, 1], data_layout="NHWC", kernel_layout="OHWI", out_dtype="float16") /* ty=Tensor[(16, 42, 42, 168), float16] */;
    %347 = multiply(%346, %p259) /* ty=Tensor[(16, 42, 42, 168), float16] */;
    %348 = add(%347, %p358) /* ty=Tensor[(16, 42, 42, 168), float16] */;
    add(%348, %p416) /* ty=Tensor[(16, 42, 42, 168), float16] */
  } /* ty=fn (Tensor[(16, 42, 42, 168), float16], Tensor[(168, 1, 1, 168), float16], Tensor[(168), float16], Tensor[(168), float16], Tensor[(16, 42, 42, 168), float16]) -> Tensor[(16, 42, 42, 168), float16] */;
  %377 = fn (%p0154: Tensor[(16, 42, 42, 168), float16] /* ty=Tensor[(16, 42, 42, 168), float16] */, %p1123: Tensor[(16, 42, 42, 168), float16] /* ty=Tensor[(16, 42, 42, 168), float16] */, Primitive=1) -> Tensor[(16, 42, 42, 168), float16] {
    %376 = nn.avg_pool2d(%p0154, pool_size=[3, 3], padding=[1, 1, 1, 1], layout="NHWC", out_layout="NHWC") /* ty=Tensor[(16, 42, 42, 168), float16] */;
    add(%376, %p1123) /* ty=Tensor[(16, 42, 42, 168), float16] */
  } /* ty=fn (Tensor[(16, 42, 42, 168), float16], Tensor[(16, 42, 42, 168), float16]) -> Tensor[(16, 42, 42, 168), float16] */;
  %379 = fn (%p0156: Tensor[(16, 42, 42, 168), float16] /* ty=Tensor[(16, 42, 42, 168), float16] */, Primitive=1) -> Tensor[(16, 42, 42, 168), float16] {
    nn.avg_pool2d(%p0156, pool_size=[3, 3], padding=[1, 1, 1, 1], layout="NHWC", out_layout="NHWC") /* ty=Tensor[(16, 42, 42, 168), float16] */
  } /* ty=fn (Tensor[(16, 42, 42, 168), float16]) -> Tensor[(16, 42, 42, 168), float16] */;
  %380 = %379(%333) /* ty=Tensor[(16, 42, 42, 168), float16] */;
  %381 = fn (%p0155: Tensor[(16, 42, 42, 168), float16] /* ty=Tensor[(16, 42, 42, 168), float16] */, %p1124: Tensor[(16, 42, 42, 168), float16] /* ty=Tensor[(16, 42, 42, 168), float16] */, Primitive=1) -> Tensor[(16, 42, 42, 168), float16] {
    %378 = nn.avg_pool2d(%p0155, pool_size=[3, 3], padding=[1, 1, 1, 1], layout="NHWC", out_layout="NHWC") /* ty=Tensor[(16, 42, 42, 168), float16] */;
    add(%378, %p1124) /* ty=Tensor[(16, 42, 42, 168), float16] */
  } /* ty=fn (Tensor[(16, 42, 42, 168), float16], Tensor[(16, 42, 42, 168), float16]) -> Tensor[(16, 42, 42, 168), float16] */;
  %388 = fn (%p0161: Tensor[(16, 42, 42, 168), float16] /* ty=Tensor[(16, 42, 42, 168), float16] */, Primitive=1) -> Tensor[(16, 42, 42, 168), float16] {
    nn.relu(%p0161) /* ty=Tensor[(16, 42, 42, 168), float16] */
  } /* ty=fn (Tensor[(16, 42, 42, 168), float16]) -> Tensor[(16, 42, 42, 168), float16] */;
  %389 = %388(%320) /* ty=Tensor[(16, 42, 42, 168), float16] */;
  %390 = fn (%p0160: Tensor[(16, 42, 42, 168), float16] /* ty=Tensor[(16, 42, 42, 168), float16] */, %p1128: Tensor[(168, 3, 3, 1), float16] /* ty=Tensor[(168, 3, 3, 1), float16] */, Primitive=1) -> Tensor[(16, 42, 42, 168), float16] {
    nn.conv2d(%p0160, %p1128, padding=[1, 1, 1, 1], groups=168, channels=168, kernel_size=[3, 3], data_layout="NHWC", kernel_layout="OHWI", out_dtype="float16") /* ty=Tensor[(16, 42, 42, 168), float16] */
  } /* ty=fn (Tensor[(16, 42, 42, 168), float16], Tensor[(168, 3, 3, 1), float16]) -> Tensor[(16, 42, 42, 168), float16] */;
  %391 = %390(%389, meta[relay.Constant][135] /* ty=Tensor[(168, 3, 3, 1), float16] */) /* ty=Tensor[(16, 42, 42, 168), float16] */;
  %392 = fn (%p0159: Tensor[(16, 42, 42, 168), float16] /* ty=Tensor[(16, 42, 42, 168), float16] */, %p1127: Tensor[(168, 1, 1, 168), float16] /* ty=Tensor[(168, 1, 1, 168), float16] */, %p264: Tensor[(168), float16] /* ty=Tensor[(168), float16] */, %p363: Tensor[(168), float16] /* ty=Tensor[(168), float16] */, Primitive=1) -> Tensor[(16, 42, 42, 168), float16] {
    %385 = nn.conv2d(%p0159, %p1127, padding=[0, 0, 0, 0], channels=168, kernel_size=[1, 1], data_layout="NHWC", kernel_layout="OHWI", out_dtype="float16") /* ty=Tensor[(16, 42, 42, 168), float16] */;
    %386 = multiply(%385, %p264) /* ty=Tensor[(16, 42, 42, 168), float16] */;
    %387 = add(%386, %p363) /* ty=Tensor[(16, 42, 42, 168), float16] */;
    nn.relu(%387) /* ty=Tensor[(16, 42, 42, 168), float16] */
  } /* ty=fn (Tensor[(16, 42, 42, 168), float16], Tensor[(168, 1, 1, 168), float16], Tensor[(168), float16], Tensor[(168), float16]) -> Tensor[(16, 42, 42, 168), float16] */;
  %393 = %392(%391, meta[relay.Constant][136] /* ty=Tensor[(168, 1, 1, 168), float16] */, meta[relay.Constant][137] /* ty=Tensor[(168), float16] */, meta[relay.Constant][138] /* ty=Tensor[(168), float16] */) /* ty=Tensor[(16, 42, 42, 168), float16] */;
  %394 = fn (%p0158: Tensor[(16, 42, 42, 168), float16] /* ty=Tensor[(16, 42, 42, 168), float16] */, %p1126: Tensor[(168, 3, 3, 1), float16] /* ty=Tensor[(168, 3, 3, 1), float16] */, Primitive=1) -> Tensor[(16, 42, 42, 168), float16] {
    nn.conv2d(%p0158, %p1126, padding=[1, 1, 1, 1], groups=168, channels=168, kernel_size=[3, 3], data_layout="NHWC", kernel_layout="OHWI", out_dtype="float16") /* ty=Tensor[(16, 42, 42, 168), float16] */
  } /* ty=fn (Tensor[(16, 42, 42, 168), float16], Tensor[(168, 3, 3, 1), float16]) -> Tensor[(16, 42, 42, 168), float16] */;
  %395 = %394(%393, meta[relay.Constant][139] /* ty=Tensor[(168, 3, 3, 1), float16] */) /* ty=Tensor[(16, 42, 42, 168), float16] */;
  %396 = fn (%p0157: Tensor[(16, 42, 42, 168), float16] /* ty=Tensor[(16, 42, 42, 168), float16] */, %p1125: Tensor[(168, 1, 1, 168), float16] /* ty=Tensor[(168, 1, 1, 168), float16] */, %p263: Tensor[(168), float16] /* ty=Tensor[(168), float16] */, %p362: Tensor[(168), float16] /* ty=Tensor[(168), float16] */, %p417: Tensor[(16, 42, 42, 168), float16] /* ty=Tensor[(16, 42, 42, 168), float16] */, Primitive=1) -> Tensor[(16, 42, 42, 168), float16] {
    %382 = nn.conv2d(%p0157, %p1125, padding=[0, 0, 0, 0], channels=168, kernel_size=[1, 1], data_layout="NHWC", kernel_layout="OHWI", out_dtype="float16") /* ty=Tensor[(16, 42, 42, 168), float16] */;
    %383 = multiply(%382, %p263) /* ty=Tensor[(16, 42, 42, 168), float16] */;
    %384 = add(%383, %p362) /* ty=Tensor[(16, 42, 42, 168), float16] */;
    add(%384, %p417) /* ty=Tensor[(16, 42, 42, 168), float16] */
  } /* ty=fn (Tensor[(16, 42, 42, 168), float16], Tensor[(168, 1, 1, 168), float16], Tensor[(168), float16], Tensor[(168), float16], Tensor[(16, 42, 42, 168), float16]) -> Tensor[(16, 42, 42, 168), float16] */;
  %397 = %345(%343, meta[relay.Constant][108] /* ty=Tensor[(168, 1, 1, 168), float16] */, meta[relay.Constant][109] /* ty=Tensor[(168), float16] */, meta[relay.Constant][110] /* ty=Tensor[(168), float16] */, %344) /* ty=Tensor[(16, 42, 42, 168), float16] */;
  %398 = %375(%373, meta[relay.Constant][124] /* ty=Tensor[(168, 1, 1, 168), float16] */, meta[relay.Constant][125] /* ty=Tensor[(168), float16] */, meta[relay.Constant][126] /* ty=Tensor[(168), float16] */, %374) /* ty=Tensor[(16, 42, 42, 168), float16] */;
  %399 = %377(%320, %333) /* ty=Tensor[(16, 42, 42, 168), float16] */;
  %400 = %381(%333, %380) /* ty=Tensor[(16, 42, 42, 168), float16] */;
  %401 = %396(%395, meta[relay.Constant][140] /* ty=Tensor[(168, 1, 1, 168), float16] */, meta[relay.Constant][141] /* ty=Tensor[(168), float16] */, meta[relay.Constant][142] /* ty=Tensor[(168), float16] */, %320) /* ty=Tensor[(16, 42, 42, 168), float16] */;
  %402 = fn (%p0124: Tensor[(16, 42, 42, 168), float16] /* ty=Tensor[(16, 42, 42, 168), float16] */, %p1101: Tensor[(16, 42, 42, 168), float16] /* ty=Tensor[(16, 42, 42, 168), float16] */, %p252: Tensor[(16, 42, 42, 168), float16] /* ty=Tensor[(16, 42, 42, 168), float16] */, %p351: Tensor[(16, 42, 42, 168), float16] /* ty=Tensor[(16, 42, 42, 168), float16] */, %p414: Tensor[(16, 42, 42, 168), float16] /* ty=Tensor[(16, 42, 42, 168), float16] */, %p59: Tensor[(16, 42, 42, 168), float16] /* ty=Tensor[(16, 42, 42, 168), float16] */, Primitive=1) -> Tensor[(16, 42, 42, 1008), float16] {
    %292 = (%p0124, %p1101, %p252, %p351, %p414, %p59) /* ty=(Tensor[(16, 42, 42, 168), float16], Tensor[(16, 42, 42, 168), float16], Tensor[(16, 42, 42, 168), float16], Tensor[(16, 42, 42, 168), float16], Tensor[(16, 42, 42, 168), float16], Tensor[(16, 42, 42, 168), float16]) span=aten::cat_4:0:0 */;
    concatenate(%292, axis=3) /* ty=Tensor[(16, 42, 42, 1008), float16] */
  } /* ty=fn (Tensor[(16, 42, 42, 168), float16], Tensor[(16, 42, 42, 168), float16], Tensor[(16, 42, 42, 168), float16], Tensor[(16, 42, 42, 168), float16], Tensor[(16, 42, 42, 168), float16], Tensor[(16, 42, 42, 168), float16]) -> Tensor[(16, 42, 42, 1008), float16] */;
  %403 = %402(%333, %397, %398, %399, %400, %401) /* ty=Tensor[(16, 42, 42, 1008), float16] */;
  %404 = fn (%p0123: Tensor[(16, 42, 42, 1008), float16] /* ty=Tensor[(16, 42, 42, 1008), float16] */, Primitive=1) -> Tensor[(16, 42, 42, 1008), float16] {
    nn.relu(%p0123) /* ty=Tensor[(16, 42, 42, 1008), float16] */
  } /* ty=fn (Tensor[(16, 42, 42, 1008), float16]) -> Tensor[(16, 42, 42, 1008), float16] */;
  %405 = %404(%403) /* ty=Tensor[(16, 42, 42, 1008), float16] */;
  %406 = fn (%p0122: Tensor[(16, 42, 42, 1008), float16] /* ty=Tensor[(16, 42, 42, 1008), float16] */, %p1100: Tensor[(168, 1, 1, 1008), float16] /* ty=Tensor[(168, 1, 1, 1008), float16] */, %p251: Tensor[(168), float16] /* ty=Tensor[(168), float16] */, %p350: Tensor[(168), float16] /* ty=Tensor[(168), float16] */, Primitive=1) -> Tensor[(16, 42, 42, 168), float16] {
    %290 = nn.conv2d(%p0122, %p1100, padding=[0, 0, 0, 0], channels=168, kernel_size=[1, 1], data_layout="NHWC", kernel_layout="OHWI", out_dtype="float16") /* ty=Tensor[(16, 42, 42, 168), float16] */;
    %291 = multiply(%290, %p251) /* ty=Tensor[(16, 42, 42, 168), float16] */;
    add(%291, %p350) /* ty=Tensor[(16, 42, 42, 168), float16] */
  } /* ty=fn (Tensor[(16, 42, 42, 1008), float16], Tensor[(168, 1, 1, 1008), float16], Tensor[(168), float16], Tensor[(168), float16]) -> Tensor[(16, 42, 42, 168), float16] */;
  %407 = %406(%405, meta[relay.Constant][143] /* ty=Tensor[(168, 1, 1, 1008), float16] */, meta[relay.Constant][144] /* ty=Tensor[(168), float16] */, meta[relay.Constant][145] /* ty=Tensor[(168), float16] */) /* ty=Tensor[(16, 42, 42, 168), float16] */;
  %408 = fn (%p0121: Tensor[(16, 42, 42, 168), float16] /* ty=Tensor[(16, 42, 42, 168), float16] */, Primitive=1) -> Tensor[(16, 42, 42, 168), float16] {
    nn.relu(%p0121) /* ty=Tensor[(16, 42, 42, 168), float16] */
  } /* ty=fn (Tensor[(16, 42, 42, 168), float16]) -> Tensor[(16, 42, 42, 168), float16] */;
  %409 = %408(%407) /* ty=Tensor[(16, 42, 42, 168), float16] */;
  %410 = fn (%p0120: Tensor[(16, 42, 42, 168), float16] /* ty=Tensor[(16, 42, 42, 168), float16] */, %p199: Tensor[(168, 5, 5, 1), float16] /* ty=Tensor[(168, 5, 5, 1), float16] */, Primitive=1) -> Tensor[(16, 42, 42, 168), float16] {
    nn.conv2d(%p0120, %p199, padding=[2, 2, 2, 2], groups=168, channels=168, kernel_size=[5, 5], data_layout="NHWC", kernel_layout="OHWI", out_dtype="float16") /* ty=Tensor[(16, 42, 42, 168), float16] */
  } /* ty=fn (Tensor[(16, 42, 42, 168), float16], Tensor[(168, 5, 5, 1), float16]) -> Tensor[(16, 42, 42, 168), float16] */;
  %411 = %410(%409, meta[relay.Constant][146] /* ty=Tensor[(168, 5, 5, 1), float16] */) /* ty=Tensor[(16, 42, 42, 168), float16] */;
  %412 = fn (%p0119: Tensor[(16, 42, 42, 168), float16] /* ty=Tensor[(16, 42, 42, 168), float16] */, %p198: Tensor[(168, 1, 1, 168), float16] /* ty=Tensor[(168, 1, 1, 168), float16] */, %p250: Tensor[(168), float16] /* ty=Tensor[(168), float16] */, %p349: Tensor[(168), float16] /* ty=Tensor[(168), float16] */, Primitive=1) -> Tensor[(16, 42, 42, 168), float16] {
    %287 = nn.conv2d(%p0119, %p198, padding=[0, 0, 0, 0], channels=168, kernel_size=[1, 1], data_layout="NHWC", kernel_layout="OHWI", out_dtype="float16") /* ty=Tensor[(16, 42, 42, 168), float16] */;
    %288 = multiply(%287, %p250) /* ty=Tensor[(16, 42, 42, 168), float16] */;
    %289 = add(%288, %p349) /* ty=Tensor[(16, 42, 42, 168), float16] */;
    nn.relu(%289) /* ty=Tensor[(16, 42, 42, 168), float16] */
  } /* ty=fn (Tensor[(16, 42, 42, 168), float16], Tensor[(168, 1, 1, 168), float16], Tensor[(168), float16], Tensor[(168), float16]) -> Tensor[(16, 42, 42, 168), float16] */;
  %413 = %412(%411, meta[relay.Constant][147] /* ty=Tensor[(168, 1, 1, 168), float16] */, meta[relay.Constant][148] /* ty=Tensor[(168), float16] */, meta[relay.Constant][149] /* ty=Tensor[(168), float16] */) /* ty=Tensor[(16, 42, 42, 168), float16] */;
  %414 = fn (%p0118: Tensor[(16, 42, 42, 168), float16] /* ty=Tensor[(16, 42, 42, 168), float16] */, %p197: Tensor[(168, 5, 5, 1), float16] /* ty=Tensor[(168, 5, 5, 1), float16] */, Primitive=1) -> Tensor[(16, 42, 42, 168), float16] {
    nn.conv2d(%p0118, %p197, padding=[2, 2, 2, 2], groups=168, channels=168, kernel_size=[5, 5], data_layout="NHWC", kernel_layout="OHWI", out_dtype="float16") /* ty=Tensor[(16, 42, 42, 168), float16] */
  } /* ty=fn (Tensor[(16, 42, 42, 168), float16], Tensor[(168, 5, 5, 1), float16]) -> Tensor[(16, 42, 42, 168), float16] */;
  %420 = %283(%282, meta[relay.Constant][93] /* ty=Tensor[(168, 1, 1, 336), float16] */, meta[relay.Constant][94] /* ty=Tensor[(168), float16] */, meta[relay.Constant][95] /* ty=Tensor[(168), float16] */) /* ty=Tensor[(16, 42, 42, 168), float16] */;
  %421 = fn (%p0166: Tensor[(16, 42, 42, 168), float16] /* ty=Tensor[(16, 42, 42, 168), float16] */, Primitive=1) -> Tensor[(16, 42, 42, 168), float16] {
    nn.relu(%p0166) /* ty=Tensor[(16, 42, 42, 168), float16] */
  } /* ty=fn (Tensor[(16, 42, 42, 168), float16]) -> Tensor[(16, 42, 42, 168), float16] */;
  %422 = %421(%420) /* ty=Tensor[(16, 42, 42, 168), float16] */;
  %423 = fn (%p0165: Tensor[(16, 42, 42, 168), float16] /* ty=Tensor[(16, 42, 42, 168), float16] */, %p1132: Tensor[(168, 3, 3, 1), float16] /* ty=Tensor[(168, 3, 3, 1), float16] */, Primitive=1) -> Tensor[(16, 42, 42, 168), float16] {
    nn.conv2d(%p0165, %p1132, padding=[1, 1, 1, 1], groups=168, channels=168, kernel_size=[3, 3], data_layout="NHWC", kernel_layout="OHWI", out_dtype="float16") /* ty=Tensor[(16, 42, 42, 168), float16] */
  } /* ty=fn (Tensor[(16, 42, 42, 168), float16], Tensor[(168, 3, 3, 1), float16]) -> Tensor[(16, 42, 42, 168), float16] */;
  %424 = %423(%422, meta[relay.Constant][154] /* ty=Tensor[(168, 3, 3, 1), float16] */) /* ty=Tensor[(16, 42, 42, 168), float16] */;
  %425 = fn (%p0164: Tensor[(16, 42, 42, 168), float16] /* ty=Tensor[(16, 42, 42, 168), float16] */, %p1131: Tensor[(168, 1, 1, 168), float16] /* ty=Tensor[(168, 1, 1, 168), float16] */, %p266: Tensor[(168), float16] /* ty=Tensor[(168), float16] */, %p365: Tensor[(168), float16] /* ty=Tensor[(168), float16] */, Primitive=1) -> Tensor[(16, 42, 42, 168), float16] {
    %417 = nn.conv2d(%p0164, %p1131, padding=[0, 0, 0, 0], channels=168, kernel_size=[1, 1], data_layout="NHWC", kernel_layout="OHWI", out_dtype="float16") /* ty=Tensor[(16, 42, 42, 168), float16] */;
    %418 = multiply(%417, %p266) /* ty=Tensor[(16, 42, 42, 168), float16] */;
    %419 = add(%418, %p365) /* ty=Tensor[(16, 42, 42, 168), float16] */;
    nn.relu(%419) /* ty=Tensor[(16, 42, 42, 168), float16] */
  } /* ty=fn (Tensor[(16, 42, 42, 168), float16], Tensor[(168, 1, 1, 168), float16], Tensor[(168), float16], Tensor[(168), float16]) -> Tensor[(16, 42, 42, 168), float16] */;
  %426 = %425(%424, meta[relay.Constant][155] /* ty=Tensor[(168, 1, 1, 168), float16] */, meta[relay.Constant][156] /* ty=Tensor[(168), float16] */, meta[relay.Constant][157] /* ty=Tensor[(168), float16] */) /* ty=Tensor[(16, 42, 42, 168), float16] */;
  %427 = fn (%p0163: Tensor[(16, 42, 42, 168), float16] /* ty=Tensor[(16, 42, 42, 168), float16] */, %p1130: Tensor[(168, 3, 3, 1), float16] /* ty=Tensor[(168, 3, 3, 1), float16] */, Primitive=1) -> Tensor[(16, 42, 42, 168), float16] {
    nn.conv2d(%p0163, %p1130, padding=[1, 1, 1, 1], groups=168, channels=168, kernel_size=[3, 3], data_layout="NHWC", kernel_layout="OHWI", out_dtype="float16") /* ty=Tensor[(16, 42, 42, 168), float16] */
  } /* ty=fn (Tensor[(16, 42, 42, 168), float16], Tensor[(168, 3, 3, 1), float16]) -> Tensor[(16, 42, 42, 168), float16] */;
  %428 = %427(%426, meta[relay.Constant][158] /* ty=Tensor[(168, 3, 3, 1), float16] */) /* ty=Tensor[(16, 42, 42, 168), float16] */;
  %429 = fn (%p0162: Tensor[(16, 42, 42, 168), float16] /* ty=Tensor[(16, 42, 42, 168), float16] */, %p1129: Tensor[(168, 1, 1, 168), float16] /* ty=Tensor[(168, 1, 1, 168), float16] */, %p265: Tensor[(168), float16] /* ty=Tensor[(168), float16] */, %p364: Tensor[(168), float16] /* ty=Tensor[(168), float16] */, Primitive=1) -> Tensor[(16, 42, 42, 168), float16] {
    %415 = nn.conv2d(%p0162, %p1129, padding=[0, 0, 0, 0], channels=168, kernel_size=[1, 1], data_layout="NHWC", kernel_layout="OHWI", out_dtype="float16") /* ty=Tensor[(16, 42, 42, 168), float16] */;
    %416 = multiply(%415, %p265) /* ty=Tensor[(16, 42, 42, 168), float16] */;
    add(%416, %p364) /* ty=Tensor[(16, 42, 42, 168), float16] */
  } /* ty=fn (Tensor[(16, 42, 42, 168), float16], Tensor[(168, 1, 1, 168), float16], Tensor[(168), float16], Tensor[(168), float16]) -> Tensor[(16, 42, 42, 168), float16] */;
  %430 = %414(%413, meta[relay.Constant][150] /* ty=Tensor[(168, 5, 5, 1), float16] */) /* ty=Tensor[(16, 42, 42, 168), float16] */;
  %431 = %429(%428, meta[relay.Constant][159] /* ty=Tensor[(168, 1, 1, 168), float16] */, meta[relay.Constant][160] /* ty=Tensor[(168), float16] */, meta[relay.Constant][161] /* ty=Tensor[(168), float16] */) /* ty=Tensor[(16, 42, 42, 168), float16] */;
  %432 = fn (%p0117: Tensor[(16, 42, 42, 168), float16] /* ty=Tensor[(16, 42, 42, 168), float16] */, %p196: Tensor[(168, 1, 1, 168), float16] /* ty=Tensor[(168, 1, 1, 168), float16] */, %p249: Tensor[(168), float16] /* ty=Tensor[(168), float16] */, %p348: Tensor[(168), float16] /* ty=Tensor[(168), float16] */, %p413: Tensor[(16, 42, 42, 168), float16] /* ty=Tensor[(16, 42, 42, 168), float16] */, Primitive=1) -> Tensor[(16, 42, 42, 168), float16] {
    %284 = nn.conv2d(%p0117, %p196, padding=[0, 0, 0, 0], channels=168, kernel_size=[1, 1], data_layout="NHWC", kernel_layout="OHWI", out_dtype="float16") /* ty=Tensor[(16, 42, 42, 168), float16] */;
    %285 = multiply(%284, %p249) /* ty=Tensor[(16, 42, 42, 168), float16] */;
    %286 = add(%285, %p348) /* ty=Tensor[(16, 42, 42, 168), float16] */;
    add(%286, %p413) /* ty=Tensor[(16, 42, 42, 168), float16] */
  } /* ty=fn (Tensor[(16, 42, 42, 168), float16], Tensor[(168, 1, 1, 168), float16], Tensor[(168), float16], Tensor[(168), float16], Tensor[(16, 42, 42, 168), float16]) -> Tensor[(16, 42, 42, 168), float16] */;
  %439 = fn (%p0171: Tensor[(16, 42, 42, 168), float16] /* ty=Tensor[(16, 42, 42, 168), float16] */, Primitive=1) -> Tensor[(16, 42, 42, 168), float16] {
    nn.relu(%p0171) /* ty=Tensor[(16, 42, 42, 168), float16] */
  } /* ty=fn (Tensor[(16, 42, 42, 168), float16]) -> Tensor[(16, 42, 42, 168), float16] */;
  %440 = %439(%420) /* ty=Tensor[(16, 42, 42, 168), float16] */;
  %441 = fn (%p0170: Tensor[(16, 42, 42, 168), float16] /* ty=Tensor[(16, 42, 42, 168), float16] */, %p1136: Tensor[(168, 5, 5, 1), float16] /* ty=Tensor[(168, 5, 5, 1), float16] */, Primitive=1) -> Tensor[(16, 42, 42, 168), float16] {
    nn.conv2d(%p0170, %p1136, padding=[2, 2, 2, 2], groups=168, channels=168, kernel_size=[5, 5], data_layout="NHWC", kernel_layout="OHWI", out_dtype="float16") /* ty=Tensor[(16, 42, 42, 168), float16] */
  } /* ty=fn (Tensor[(16, 42, 42, 168), float16], Tensor[(168, 5, 5, 1), float16]) -> Tensor[(16, 42, 42, 168), float16] */;
  %442 = %441(%440, meta[relay.Constant][162] /* ty=Tensor[(168, 5, 5, 1), float16] */) /* ty=Tensor[(16, 42, 42, 168), float16] */;
  %443 = fn (%p0169: Tensor[(16, 42, 42, 168), float16] /* ty=Tensor[(16, 42, 42, 168), float16] */, %p1135: Tensor[(168, 1, 1, 168), float16] /* ty=Tensor[(168, 1, 1, 168), float16] */, %p268: Tensor[(168), float16] /* ty=Tensor[(168), float16] */, %p367: Tensor[(168), float16] /* ty=Tensor[(168), float16] */, Primitive=1) -> Tensor[(16, 42, 42, 168), float16] {
    %436 = nn.conv2d(%p0169, %p1135, padding=[0, 0, 0, 0], channels=168, kernel_size=[1, 1], data_layout="NHWC", kernel_layout="OHWI", out_dtype="float16") /* ty=Tensor[(16, 42, 42, 168), float16] */;
    %437 = multiply(%436, %p268) /* ty=Tensor[(16, 42, 42, 168), float16] */;
    %438 = add(%437, %p367) /* ty=Tensor[(16, 42, 42, 168), float16] */;
    nn.relu(%438) /* ty=Tensor[(16, 42, 42, 168), float16] */
  } /* ty=fn (Tensor[(16, 42, 42, 168), float16], Tensor[(168, 1, 1, 168), float16], Tensor[(168), float16], Tensor[(168), float16]) -> Tensor[(16, 42, 42, 168), float16] */;
  %444 = %443(%442, meta[relay.Constant][163] /* ty=Tensor[(168, 1, 1, 168), float16] */, meta[relay.Constant][164] /* ty=Tensor[(168), float16] */, meta[relay.Constant][165] /* ty=Tensor[(168), float16] */) /* ty=Tensor[(16, 42, 42, 168), float16] */;
  %445 = fn (%p0168: Tensor[(16, 42, 42, 168), float16] /* ty=Tensor[(16, 42, 42, 168), float16] */, %p1134: Tensor[(168, 5, 5, 1), float16] /* ty=Tensor[(168, 5, 5, 1), float16] */, Primitive=1) -> Tensor[(16, 42, 42, 168), float16] {
    nn.conv2d(%p0168, %p1134, padding=[2, 2, 2, 2], groups=168, channels=168, kernel_size=[5, 5], data_layout="NHWC", kernel_layout="OHWI", out_dtype="float16") /* ty=Tensor[(16, 42, 42, 168), float16] */
  } /* ty=fn (Tensor[(16, 42, 42, 168), float16], Tensor[(168, 5, 5, 1), float16]) -> Tensor[(16, 42, 42, 168), float16] */;
  %451 = fn (%p0176: Tensor[(16, 42, 42, 168), float16] /* ty=Tensor[(16, 42, 42, 168), float16] */, Primitive=1) -> Tensor[(16, 42, 42, 168), float16] {
    nn.relu(%p0176) /* ty=Tensor[(16, 42, 42, 168), float16] */
  } /* ty=fn (Tensor[(16, 42, 42, 168), float16]) -> Tensor[(16, 42, 42, 168), float16] */;
  %452 = %451(%420) /* ty=Tensor[(16, 42, 42, 168), float16] */;
  %453 = fn (%p0175: Tensor[(16, 42, 42, 168), float16] /* ty=Tensor[(16, 42, 42, 168), float16] */, %p1140: Tensor[(168, 3, 3, 1), float16] /* ty=Tensor[(168, 3, 3, 1), float16] */, Primitive=1) -> Tensor[(16, 42, 42, 168), float16] {
    nn.conv2d(%p0175, %p1140, padding=[1, 1, 1, 1], groups=168, channels=168, kernel_size=[3, 3], data_layout="NHWC", kernel_layout="OHWI", out_dtype="float16") /* ty=Tensor[(16, 42, 42, 168), float16] */
  } /* ty=fn (Tensor[(16, 42, 42, 168), float16], Tensor[(168, 3, 3, 1), float16]) -> Tensor[(16, 42, 42, 168), float16] */;
  %454 = %453(%452, meta[relay.Constant][170] /* ty=Tensor[(168, 3, 3, 1), float16] */) /* ty=Tensor[(16, 42, 42, 168), float16] */;
  %455 = fn (%p0174: Tensor[(16, 42, 42, 168), float16] /* ty=Tensor[(16, 42, 42, 168), float16] */, %p1139: Tensor[(168, 1, 1, 168), float16] /* ty=Tensor[(168, 1, 1, 168), float16] */, %p270: Tensor[(168), float16] /* ty=Tensor[(168), float16] */, %p369: Tensor[(168), float16] /* ty=Tensor[(168), float16] */, Primitive=1) -> Tensor[(16, 42, 42, 168), float16] {
    %448 = nn.conv2d(%p0174, %p1139, padding=[0, 0, 0, 0], channels=168, kernel_size=[1, 1], data_layout="NHWC", kernel_layout="OHWI", out_dtype="float16") /* ty=Tensor[(16, 42, 42, 168), float16] */;
    %449 = multiply(%448, %p270) /* ty=Tensor[(16, 42, 42, 168), float16] */;
    %450 = add(%449, %p369) /* ty=Tensor[(16, 42, 42, 168), float16] */;
    nn.relu(%450) /* ty=Tensor[(16, 42, 42, 168), float16] */
  } /* ty=fn (Tensor[(16, 42, 42, 168), float16], Tensor[(168, 1, 1, 168), float16], Tensor[(168), float16], Tensor[(168), float16]) -> Tensor[(16, 42, 42, 168), float16] */;
  %456 = %455(%454, meta[relay.Constant][171] /* ty=Tensor[(168, 1, 1, 168), float16] */, meta[relay.Constant][172] /* ty=Tensor[(168), float16] */, meta[relay.Constant][173] /* ty=Tensor[(168), float16] */) /* ty=Tensor[(16, 42, 42, 168), float16] */;
  %457 = fn (%p0173: Tensor[(16, 42, 42, 168), float16] /* ty=Tensor[(16, 42, 42, 168), float16] */, %p1138: Tensor[(168, 3, 3, 1), float16] /* ty=Tensor[(168, 3, 3, 1), float16] */, Primitive=1) -> Tensor[(16, 42, 42, 168), float16] {
    nn.conv2d(%p0173, %p1138, padding=[1, 1, 1, 1], groups=168, channels=168, kernel_size=[3, 3], data_layout="NHWC", kernel_layout="OHWI", out_dtype="float16") /* ty=Tensor[(16, 42, 42, 168), float16] */
  } /* ty=fn (Tensor[(16, 42, 42, 168), float16], Tensor[(168, 3, 3, 1), float16]) -> Tensor[(16, 42, 42, 168), float16] */;
  %458 = %457(%456, meta[relay.Constant][174] /* ty=Tensor[(168, 3, 3, 1), float16] */) /* ty=Tensor[(16, 42, 42, 168), float16] */;
  %459 = fn (%p0172: Tensor[(16, 42, 42, 168), float16] /* ty=Tensor[(16, 42, 42, 168), float16] */, %p1137: Tensor[(168, 1, 1, 168), float16] /* ty=Tensor[(168, 1, 1, 168), float16] */, %p269: Tensor[(168), float16] /* ty=Tensor[(168), float16] */, %p368: Tensor[(168), float16] /* ty=Tensor[(168), float16] */, Primitive=1) -> Tensor[(16, 42, 42, 168), float16] {
    %446 = nn.conv2d(%p0172, %p1137, padding=[0, 0, 0, 0], channels=168, kernel_size=[1, 1], data_layout="NHWC", kernel_layout="OHWI", out_dtype="float16") /* ty=Tensor[(16, 42, 42, 168), float16] */;
    %447 = multiply(%446, %p269) /* ty=Tensor[(16, 42, 42, 168), float16] */;
    add(%447, %p368) /* ty=Tensor[(16, 42, 42, 168), float16] */
  } /* ty=fn (Tensor[(16, 42, 42, 168), float16], Tensor[(168, 1, 1, 168), float16], Tensor[(168), float16], Tensor[(168), float16]) -> Tensor[(16, 42, 42, 168), float16] */;
  %460 = %445(%444, meta[relay.Constant][166] /* ty=Tensor[(168, 5, 5, 1), float16] */) /* ty=Tensor[(16, 42, 42, 168), float16] */;
  %461 = %459(%458, meta[relay.Constant][175] /* ty=Tensor[(168, 1, 1, 168), float16] */, meta[relay.Constant][176] /* ty=Tensor[(168), float16] */, meta[relay.Constant][177] /* ty=Tensor[(168), float16] */) /* ty=Tensor[(16, 42, 42, 168), float16] */;
  %462 = fn (%p0167: Tensor[(16, 42, 42, 168), float16] /* ty=Tensor[(16, 42, 42, 168), float16] */, %p1133: Tensor[(168, 1, 1, 168), float16] /* ty=Tensor[(168, 1, 1, 168), float16] */, %p267: Tensor[(168), float16] /* ty=Tensor[(168), float16] */, %p366: Tensor[(168), float16] /* ty=Tensor[(168), float16] */, %p418: Tensor[(16, 42, 42, 168), float16] /* ty=Tensor[(16, 42, 42, 168), float16] */, Primitive=1) -> Tensor[(16, 42, 42, 168), float16] {
    %433 = nn.conv2d(%p0167, %p1133, padding=[0, 0, 0, 0], channels=168, kernel_size=[1, 1], data_layout="NHWC", kernel_layout="OHWI", out_dtype="float16") /* ty=Tensor[(16, 42, 42, 168), float16] */;
    %434 = multiply(%433, %p267) /* ty=Tensor[(16, 42, 42, 168), float16] */;
    %435 = add(%434, %p366) /* ty=Tensor[(16, 42, 42, 168), float16] */;
    add(%435, %p418) /* ty=Tensor[(16, 42, 42, 168), float16] */
  } /* ty=fn (Tensor[(16, 42, 42, 168), float16], Tensor[(168, 1, 1, 168), float16], Tensor[(168), float16], Tensor[(168), float16], Tensor[(16, 42, 42, 168), float16]) -> Tensor[(16, 42, 42, 168), float16] */;
  %464 = fn (%p0177: Tensor[(16, 42, 42, 168), float16] /* ty=Tensor[(16, 42, 42, 168), float16] */, %p1141: Tensor[(16, 42, 42, 168), float16] /* ty=Tensor[(16, 42, 42, 168), float16] */, Primitive=1) -> Tensor[(16, 42, 42, 168), float16] {
    %463 = nn.avg_pool2d(%p0177, pool_size=[3, 3], padding=[1, 1, 1, 1], layout="NHWC", out_layout="NHWC") /* ty=Tensor[(16, 42, 42, 168), float16] */;
    add(%463, %p1141) /* ty=Tensor[(16, 42, 42, 168), float16] */
  } /* ty=fn (Tensor[(16, 42, 42, 168), float16], Tensor[(16, 42, 42, 168), float16]) -> Tensor[(16, 42, 42, 168), float16] */;
  %466 = fn (%p0179: Tensor[(16, 42, 42, 168), float16] /* ty=Tensor[(16, 42, 42, 168), float16] */, Primitive=1) -> Tensor[(16, 42, 42, 168), float16] {
    nn.avg_pool2d(%p0179, pool_size=[3, 3], padding=[1, 1, 1, 1], layout="NHWC", out_layout="NHWC") /* ty=Tensor[(16, 42, 42, 168), float16] */
  } /* ty=fn (Tensor[(16, 42, 42, 168), float16]) -> Tensor[(16, 42, 42, 168), float16] */;
  %467 = %466(%420) /* ty=Tensor[(16, 42, 42, 168), float16] */;
  %468 = fn (%p0178: Tensor[(16, 42, 42, 168), float16] /* ty=Tensor[(16, 42, 42, 168), float16] */, %p1142: Tensor[(16, 42, 42, 168), float16] /* ty=Tensor[(16, 42, 42, 168), float16] */, Primitive=1) -> Tensor[(16, 42, 42, 168), float16] {
    %465 = nn.avg_pool2d(%p0178, pool_size=[3, 3], padding=[1, 1, 1, 1], layout="NHWC", out_layout="NHWC") /* ty=Tensor[(16, 42, 42, 168), float16] */;
    add(%465, %p1142) /* ty=Tensor[(16, 42, 42, 168), float16] */
  } /* ty=fn (Tensor[(16, 42, 42, 168), float16], Tensor[(16, 42, 42, 168), float16]) -> Tensor[(16, 42, 42, 168), float16] */;
  %475 = fn (%p0184: Tensor[(16, 42, 42, 168), float16] /* ty=Tensor[(16, 42, 42, 168), float16] */, Primitive=1) -> Tensor[(16, 42, 42, 168), float16] {
    nn.relu(%p0184) /* ty=Tensor[(16, 42, 42, 168), float16] */
  } /* ty=fn (Tensor[(16, 42, 42, 168), float16]) -> Tensor[(16, 42, 42, 168), float16] */;
  %476 = %475(%407) /* ty=Tensor[(16, 42, 42, 168), float16] */;
  %477 = fn (%p0183: Tensor[(16, 42, 42, 168), float16] /* ty=Tensor[(16, 42, 42, 168), float16] */, %p1146: Tensor[(168, 3, 3, 1), float16] /* ty=Tensor[(168, 3, 3, 1), float16] */, Primitive=1) -> Tensor[(16, 42, 42, 168), float16] {
    nn.conv2d(%p0183, %p1146, padding=[1, 1, 1, 1], groups=168, channels=168, kernel_size=[3, 3], data_layout="NHWC", kernel_layout="OHWI", out_dtype="float16") /* ty=Tensor[(16, 42, 42, 168), float16] */
  } /* ty=fn (Tensor[(16, 42, 42, 168), float16], Tensor[(168, 3, 3, 1), float16]) -> Tensor[(16, 42, 42, 168), float16] */;
  %478 = %477(%476, meta[relay.Constant][178] /* ty=Tensor[(168, 3, 3, 1), float16] */) /* ty=Tensor[(16, 42, 42, 168), float16] */;
  %479 = fn (%p0182: Tensor[(16, 42, 42, 168), float16] /* ty=Tensor[(16, 42, 42, 168), float16] */, %p1145: Tensor[(168, 1, 1, 168), float16] /* ty=Tensor[(168, 1, 1, 168), float16] */, %p272: Tensor[(168), float16] /* ty=Tensor[(168), float16] */, %p371: Tensor[(168), float16] /* ty=Tensor[(168), float16] */, Primitive=1) -> Tensor[(16, 42, 42, 168), float16] {
    %472 = nn.conv2d(%p0182, %p1145, padding=[0, 0, 0, 0], channels=168, kernel_size=[1, 1], data_layout="NHWC", kernel_layout="OHWI", out_dtype="float16") /* ty=Tensor[(16, 42, 42, 168), float16] */;
    %473 = multiply(%472, %p272) /* ty=Tensor[(16, 42, 42, 168), float16] */;
    %474 = add(%473, %p371) /* ty=Tensor[(16, 42, 42, 168), float16] */;
    nn.relu(%474) /* ty=Tensor[(16, 42, 42, 168), float16] */
  } /* ty=fn (Tensor[(16, 42, 42, 168), float16], Tensor[(168, 1, 1, 168), float16], Tensor[(168), float16], Tensor[(168), float16]) -> Tensor[(16, 42, 42, 168), float16] */;
  %480 = %479(%478, meta[relay.Constant][179] /* ty=Tensor[(168, 1, 1, 168), float16] */, meta[relay.Constant][180] /* ty=Tensor[(168), float16] */, meta[relay.Constant][181] /* ty=Tensor[(168), float16] */) /* ty=Tensor[(16, 42, 42, 168), float16] */;
  %481 = fn (%p0181: Tensor[(16, 42, 42, 168), float16] /* ty=Tensor[(16, 42, 42, 168), float16] */, %p1144: Tensor[(168, 3, 3, 1), float16] /* ty=Tensor[(168, 3, 3, 1), float16] */, Primitive=1) -> Tensor[(16, 42, 42, 168), float16] {
    nn.conv2d(%p0181, %p1144, padding=[1, 1, 1, 1], groups=168, channels=168, kernel_size=[3, 3], data_layout="NHWC", kernel_layout="OHWI", out_dtype="float16") /* ty=Tensor[(16, 42, 42, 168), float16] */
  } /* ty=fn (Tensor[(16, 42, 42, 168), float16], Tensor[(168, 3, 3, 1), float16]) -> Tensor[(16, 42, 42, 168), float16] */;
  %482 = %481(%480, meta[relay.Constant][182] /* ty=Tensor[(168, 3, 3, 1), float16] */) /* ty=Tensor[(16, 42, 42, 168), float16] */;
  %483 = fn (%p0180: Tensor[(16, 42, 42, 168), float16] /* ty=Tensor[(16, 42, 42, 168), float16] */, %p1143: Tensor[(168, 1, 1, 168), float16] /* ty=Tensor[(168, 1, 1, 168), float16] */, %p271: Tensor[(168), float16] /* ty=Tensor[(168), float16] */, %p370: Tensor[(168), float16] /* ty=Tensor[(168), float16] */, %p419: Tensor[(16, 42, 42, 168), float16] /* ty=Tensor[(16, 42, 42, 168), float16] */, Primitive=1) -> Tensor[(16, 42, 42, 168), float16] {
    %469 = nn.conv2d(%p0180, %p1143, padding=[0, 0, 0, 0], channels=168, kernel_size=[1, 1], data_layout="NHWC", kernel_layout="OHWI", out_dtype="float16") /* ty=Tensor[(16, 42, 42, 168), float16] */;
    %470 = multiply(%469, %p271) /* ty=Tensor[(16, 42, 42, 168), float16] */;
    %471 = add(%470, %p370) /* ty=Tensor[(16, 42, 42, 168), float16] */;
    add(%471, %p419) /* ty=Tensor[(16, 42, 42, 168), float16] */
  } /* ty=fn (Tensor[(16, 42, 42, 168), float16], Tensor[(168, 1, 1, 168), float16], Tensor[(168), float16], Tensor[(168), float16], Tensor[(16, 42, 42, 168), float16]) -> Tensor[(16, 42, 42, 168), float16] */;
  %484 = %432(%430, meta[relay.Constant][151] /* ty=Tensor[(168, 1, 1, 168), float16] */, meta[relay.Constant][152] /* ty=Tensor[(168), float16] */, meta[relay.Constant][153] /* ty=Tensor[(168), float16] */, %431) /* ty=Tensor[(16, 42, 42, 168), float16] */;
  %485 = %462(%460, meta[relay.Constant][167] /* ty=Tensor[(168, 1, 1, 168), float16] */, meta[relay.Constant][168] /* ty=Tensor[(168), float16] */, meta[relay.Constant][169] /* ty=Tensor[(168), float16] */, %461) /* ty=Tensor[(16, 42, 42, 168), float16] */;
  %486 = %464(%407, %420) /* ty=Tensor[(16, 42, 42, 168), float16] */;
  %487 = %468(%420, %467) /* ty=Tensor[(16, 42, 42, 168), float16] */;
  %488 = %483(%482, meta[relay.Constant][183] /* ty=Tensor[(168, 1, 1, 168), float16] */, meta[relay.Constant][184] /* ty=Tensor[(168), float16] */, meta[relay.Constant][185] /* ty=Tensor[(168), float16] */, %407) /* ty=Tensor[(16, 42, 42, 168), float16] */;
  %489 = fn (%p035: Tensor[(16, 42, 42, 168), float16] /* ty=Tensor[(16, 42, 42, 168), float16] */, %p125: Tensor[(16, 42, 42, 168), float16] /* ty=Tensor[(16, 42, 42, 168), float16] */, %p221: Tensor[(16, 42, 42, 168), float16] /* ty=Tensor[(16, 42, 42, 168), float16] */, %p320: Tensor[(16, 42, 42, 168), float16] /* ty=Tensor[(16, 42, 42, 168), float16] */, %p48: Tensor[(16, 42, 42, 168), float16] /* ty=Tensor[(16, 42, 42, 168), float16] */, %p58: Tensor[(16, 42, 42, 168), float16] /* ty=Tensor[(16, 42, 42, 168), float16] */, Primitive=1) -> Tensor[(16, 42, 42, 1008), float16] {
    %40 = (%p035, %p125, %p221, %p320, %p48, %p58) /* ty=(Tensor[(16, 42, 42, 168), float16], Tensor[(16, 42, 42, 168), float16], Tensor[(16, 42, 42, 168), float16], Tensor[(16, 42, 42, 168), float16], Tensor[(16, 42, 42, 168), float16], Tensor[(16, 42, 42, 168), float16]) span=aten::cat_5:0:0 */;
    concatenate(%40, axis=3) /* ty=Tensor[(16, 42, 42, 1008), float16] */
  } /* ty=fn (Tensor[(16, 42, 42, 168), float16], Tensor[(16, 42, 42, 168), float16], Tensor[(16, 42, 42, 168), float16], Tensor[(16, 42, 42, 168), float16], Tensor[(16, 42, 42, 168), float16], Tensor[(16, 42, 42, 168), float16]) -> Tensor[(16, 42, 42, 1008), float16] */;
  %490 = %489(%420, %484, %485, %486, %487, %488) /* ty=Tensor[(16, 42, 42, 1008), float16] */;
  %491 = fn (%p034: Tensor[(16, 42, 42, 1008), float16] /* ty=Tensor[(16, 42, 42, 1008), float16] */, Primitive=1) -> Tensor[(16, 42, 42, 1008), float16] {
    nn.relu(%p034) /* ty=Tensor[(16, 42, 42, 1008), float16] */
  } /* ty=fn (Tensor[(16, 42, 42, 1008), float16]) -> Tensor[(16, 42, 42, 1008), float16] */;
  %492 = %491(%490) /* ty=Tensor[(16, 42, 42, 1008), float16] */;
  %493 = fn (%p033: Tensor[(16, 42, 42, 1008), float16] /* ty=Tensor[(16, 42, 42, 1008), float16] */, %p124: Tensor[(168, 1, 1, 1008), float16] /* ty=Tensor[(168, 1, 1, 1008), float16] */, %p220: Tensor[(168), float16] /* ty=Tensor[(168), float16] */, %p319: Tensor[(168), float16] /* ty=Tensor[(168), float16] */, Primitive=1) -> Tensor[(16, 42, 42, 168), float16] {
    %38 = nn.conv2d(%p033, %p124, padding=[0, 0, 0, 0], channels=168, kernel_size=[1, 1], data_layout="NHWC", kernel_layout="OHWI", out_dtype="float16") /* ty=Tensor[(16, 42, 42, 168), float16] */;
    %39 = multiply(%38, %p220) /* ty=Tensor[(16, 42, 42, 168), float16] */;
    add(%39, %p319) /* ty=Tensor[(16, 42, 42, 168), float16] */
  } /* ty=fn (Tensor[(16, 42, 42, 1008), float16], Tensor[(168, 1, 1, 1008), float16], Tensor[(168), float16], Tensor[(168), float16]) -> Tensor[(16, 42, 42, 168), float16] */;
  %505 = fn (%p0194: Tensor[(16, 42, 42, 1008), float16] /* ty=Tensor[(16, 42, 42, 1008), float16] */, Primitive=1) -> Tensor[(16, 42, 42, 1008), float16] {
    nn.relu(%p0194) /* ty=Tensor[(16, 42, 42, 1008), float16] */
  } /* ty=fn (Tensor[(16, 42, 42, 1008), float16]) -> Tensor[(16, 42, 42, 1008), float16] */;
  %506 = %505(%403) /* ty=Tensor[(16, 42, 42, 1008), float16] */;
  %507 = fn (%p0193: Tensor[(16, 42, 42, 1008), float16] /* ty=Tensor[(16, 42, 42, 1008), float16] */, %p1153: Tensor[(168, 1, 1, 1008), float16] /* ty=Tensor[(168, 1, 1, 1008), float16] */, %p277: Tensor[(168), float16] /* ty=Tensor[(168), float16] */, %p376: Tensor[(168), float16] /* ty=Tensor[(168), float16] */, Primitive=1) -> Tensor[(16, 42, 42, 168), float16] {
    %503 = nn.conv2d(%p0193, %p1153, padding=[0, 0, 0, 0], channels=168, kernel_size=[1, 1], data_layout="NHWC", kernel_layout="OHWI", out_dtype="float16") /* ty=Tensor[(16, 42, 42, 168), float16] */;
    %504 = multiply(%503, %p277) /* ty=Tensor[(16, 42, 42, 168), float16] */;
    add(%504, %p376) /* ty=Tensor[(16, 42, 42, 168), float16] */
  } /* ty=fn (Tensor[(16, 42, 42, 1008), float16], Tensor[(168, 1, 1, 1008), float16], Tensor[(168), float16], Tensor[(168), float16]) -> Tensor[(16, 42, 42, 168), float16] */;
  %516 = fn (%p0201: Tensor[(16, 42, 42, 1008), float16] /* ty=Tensor[(16, 42, 42, 1008), float16] */, Primitive=1) -> Tensor[(16, 42, 42, 1008), float16] {
    nn.relu(%p0201) /* ty=Tensor[(16, 42, 42, 1008), float16] */
  } /* ty=fn (Tensor[(16, 42, 42, 1008), float16]) -> Tensor[(16, 42, 42, 1008), float16] */;
  %517 = %516(%490) /* ty=Tensor[(16, 42, 42, 1008), float16] */;
  %518 = fn (%p0200: Tensor[(16, 42, 42, 1008), float16] /* ty=Tensor[(16, 42, 42, 1008), float16] */, %p1158: Tensor[(168, 1, 1, 1008), float16] /* ty=Tensor[(168, 1, 1, 1008), float16] */, %p280: Tensor[(168), float16] /* ty=Tensor[(168), float16] */, %p379: Tensor[(168), float16] /* ty=Tensor[(168), float16] */, Primitive=1) -> Tensor[(16, 42, 42, 168), float16] {
    %514 = nn.conv2d(%p0200, %p1158, padding=[0, 0, 0, 0], channels=168, kernel_size=[1, 1], data_layout="NHWC", kernel_layout="OHWI", out_dtype="float16") /* ty=Tensor[(16, 42, 42, 168), float16] */;
    %515 = multiply(%514, %p280) /* ty=Tensor[(16, 42, 42, 168), float16] */;
    add(%515, %p379) /* ty=Tensor[(16, 42, 42, 168), float16] */
  } /* ty=fn (Tensor[(16, 42, 42, 1008), float16], Tensor[(168, 1, 1, 1008), float16], Tensor[(168), float16], Tensor[(168), float16]) -> Tensor[(16, 42, 42, 168), float16] */;
  %519 = %518(%517, meta[relay.Constant][192] /* ty=Tensor[(168, 1, 1, 1008), float16] */, meta[relay.Constant][193] /* ty=Tensor[(168), float16] */, meta[relay.Constant][194] /* ty=Tensor[(168), float16] */) /* ty=Tensor[(16, 42, 42, 168), float16] */;
  %520 = fn (%p0199: Tensor[(16, 42, 42, 168), float16] /* ty=Tensor[(16, 42, 42, 168), float16] */, Primitive=1) -> Tensor[(16, 42, 42, 168), float16] {
    nn.relu(%p0199) /* ty=Tensor[(16, 42, 42, 168), float16] */
  } /* ty=fn (Tensor[(16, 42, 42, 168), float16]) -> Tensor[(16, 42, 42, 168), float16] */;
  %521 = %520(%519) /* ty=Tensor[(16, 42, 42, 168), float16] */;
  %522 = fn (%p0198: Tensor[(16, 42, 42, 168), float16] /* ty=Tensor[(16, 42, 42, 168), float16] */, %p1157: Tensor[(168, 5, 5, 1), float16] /* ty=Tensor[(168, 5, 5, 1), float16] */, Primitive=1) -> Tensor[(16, 42, 42, 168), float16] {
    nn.conv2d(%p0198, %p1157, padding=[2, 2, 2, 2], groups=168, channels=168, kernel_size=[5, 5], data_layout="NHWC", kernel_layout="OHWI", out_dtype="float16") /* ty=Tensor[(16, 42, 42, 168), float16] */
  } /* ty=fn (Tensor[(16, 42, 42, 168), float16], Tensor[(168, 5, 5, 1), float16]) -> Tensor[(16, 42, 42, 168), float16] */;
  %523 = %522(%521, meta[relay.Constant][195] /* ty=Tensor[(168, 5, 5, 1), float16] */) /* ty=Tensor[(16, 42, 42, 168), float16] */;
  %524 = fn (%p0197: Tensor[(16, 42, 42, 168), float16] /* ty=Tensor[(16, 42, 42, 168), float16] */, %p1156: Tensor[(168, 1, 1, 168), float16] /* ty=Tensor[(168, 1, 1, 168), float16] */, %p279: Tensor[(168), float16] /* ty=Tensor[(168), float16] */, %p378: Tensor[(168), float16] /* ty=Tensor[(168), float16] */, Primitive=1) -> Tensor[(16, 42, 42, 168), float16] {
    %511 = nn.conv2d(%p0197, %p1156, padding=[0, 0, 0, 0], channels=168, kernel_size=[1, 1], data_layout="NHWC", kernel_layout="OHWI", out_dtype="float16") /* ty=Tensor[(16, 42, 42, 168), float16] */;
    %512 = multiply(%511, %p279) /* ty=Tensor[(16, 42, 42, 168), float16] */;
    %513 = add(%512, %p378) /* ty=Tensor[(16, 42, 42, 168), float16] */;
    nn.relu(%513) /* ty=Tensor[(16, 42, 42, 168), float16] */
  } /* ty=fn (Tensor[(16, 42, 42, 168), float16], Tensor[(168, 1, 1, 168), float16], Tensor[(168), float16], Tensor[(168), float16]) -> Tensor[(16, 42, 42, 168), float16] */;
  %525 = %524(%523, meta[relay.Constant][196] /* ty=Tensor[(168, 1, 1, 168), float16] */, meta[relay.Constant][197] /* ty=Tensor[(168), float16] */, meta[relay.Constant][198] /* ty=Tensor[(168), float16] */) /* ty=Tensor[(16, 42, 42, 168), float16] */;
  %526 = fn (%p0196: Tensor[(16, 42, 42, 168), float16] /* ty=Tensor[(16, 42, 42, 168), float16] */, %p1155: Tensor[(168, 5, 5, 1), float16] /* ty=Tensor[(168, 5, 5, 1), float16] */, Primitive=1) -> Tensor[(16, 42, 42, 168), float16] {
    nn.conv2d(%p0196, %p1155, padding=[2, 2, 2, 2], groups=168, channels=168, kernel_size=[5, 5], data_layout="NHWC", kernel_layout="OHWI", out_dtype="float16") /* ty=Tensor[(16, 42, 42, 168), float16] */
  } /* ty=fn (Tensor[(16, 42, 42, 168), float16], Tensor[(168, 5, 5, 1), float16]) -> Tensor[(16, 42, 42, 168), float16] */;
  %532 = %507(%506, meta[relay.Constant][189] /* ty=Tensor[(168, 1, 1, 1008), float16] */, meta[relay.Constant][190] /* ty=Tensor[(168), float16] */, meta[relay.Constant][191] /* ty=Tensor[(168), float16] */) /* ty=Tensor[(16, 42, 42, 168), float16] */;
  %533 = fn (%p0206: Tensor[(16, 42, 42, 168), float16] /* ty=Tensor[(16, 42, 42, 168), float16] */, Primitive=1) -> Tensor[(16, 42, 42, 168), float16] {
    nn.relu(%p0206) /* ty=Tensor[(16, 42, 42, 168), float16] */
  } /* ty=fn (Tensor[(16, 42, 42, 168), float16]) -> Tensor[(16, 42, 42, 168), float16] */;
  %534 = %533(%532) /* ty=Tensor[(16, 42, 42, 168), float16] */;
  %535 = fn (%p0205: Tensor[(16, 42, 42, 168), float16] /* ty=Tensor[(16, 42, 42, 168), float16] */, %p1162: Tensor[(168, 3, 3, 1), float16] /* ty=Tensor[(168, 3, 3, 1), float16] */, Primitive=1) -> Tensor[(16, 42, 42, 168), float16] {
    nn.conv2d(%p0205, %p1162, padding=[1, 1, 1, 1], groups=168, channels=168, kernel_size=[3, 3], data_layout="NHWC", kernel_layout="OHWI", out_dtype="float16") /* ty=Tensor[(16, 42, 42, 168), float16] */
  } /* ty=fn (Tensor[(16, 42, 42, 168), float16], Tensor[(168, 3, 3, 1), float16]) -> Tensor[(16, 42, 42, 168), float16] */;
  %536 = %535(%534, meta[relay.Constant][203] /* ty=Tensor[(168, 3, 3, 1), float16] */) /* ty=Tensor[(16, 42, 42, 168), float16] */;
  %537 = fn (%p0204: Tensor[(16, 42, 42, 168), float16] /* ty=Tensor[(16, 42, 42, 168), float16] */, %p1161: Tensor[(168, 1, 1, 168), float16] /* ty=Tensor[(168, 1, 1, 168), float16] */, %p282: Tensor[(168), float16] /* ty=Tensor[(168), float16] */, %p381: Tensor[(168), float16] /* ty=Tensor[(168), float16] */, Primitive=1) -> Tensor[(16, 42, 42, 168), float16] {
    %529 = nn.conv2d(%p0204, %p1161, padding=[0, 0, 0, 0], channels=168, kernel_size=[1, 1], data_layout="NHWC", kernel_layout="OHWI", out_dtype="float16") /* ty=Tensor[(16, 42, 42, 168), float16] */;
    %530 = multiply(%529, %p282) /* ty=Tensor[(16, 42, 42, 168), float16] */;
    %531 = add(%530, %p381) /* ty=Tensor[(16, 42, 42, 168), float16] */;
    nn.relu(%531) /* ty=Tensor[(16, 42, 42, 168), float16] */
  } /* ty=fn (Tensor[(16, 42, 42, 168), float16], Tensor[(168, 1, 1, 168), float16], Tensor[(168), float16], Tensor[(168), float16]) -> Tensor[(16, 42, 42, 168), float16] */;
  %538 = %537(%536, meta[relay.Constant][204] /* ty=Tensor[(168, 1, 1, 168), float16] */, meta[relay.Constant][205] /* ty=Tensor[(168), float16] */, meta[relay.Constant][206] /* ty=Tensor[(168), float16] */) /* ty=Tensor[(16, 42, 42, 168), float16] */;
  %539 = fn (%p0203: Tensor[(16, 42, 42, 168), float16] /* ty=Tensor[(16, 42, 42, 168), float16] */, %p1160: Tensor[(168, 3, 3, 1), float16] /* ty=Tensor[(168, 3, 3, 1), float16] */, Primitive=1) -> Tensor[(16, 42, 42, 168), float16] {
    nn.conv2d(%p0203, %p1160, padding=[1, 1, 1, 1], groups=168, channels=168, kernel_size=[3, 3], data_layout="NHWC", kernel_layout="OHWI", out_dtype="float16") /* ty=Tensor[(16, 42, 42, 168), float16] */
  } /* ty=fn (Tensor[(16, 42, 42, 168), float16], Tensor[(168, 3, 3, 1), float16]) -> Tensor[(16, 42, 42, 168), float16] */;
  %540 = %539(%538, meta[relay.Constant][207] /* ty=Tensor[(168, 3, 3, 1), float16] */) /* ty=Tensor[(16, 42, 42, 168), float16] */;
  %541 = fn (%p0202: Tensor[(16, 42, 42, 168), float16] /* ty=Tensor[(16, 42, 42, 168), float16] */, %p1159: Tensor[(168, 1, 1, 168), float16] /* ty=Tensor[(168, 1, 1, 168), float16] */, %p281: Tensor[(168), float16] /* ty=Tensor[(168), float16] */, %p380: Tensor[(168), float16] /* ty=Tensor[(168), float16] */, Primitive=1) -> Tensor[(16, 42, 42, 168), float16] {
    %527 = nn.conv2d(%p0202, %p1159, padding=[0, 0, 0, 0], channels=168, kernel_size=[1, 1], data_layout="NHWC", kernel_layout="OHWI", out_dtype="float16") /* ty=Tensor[(16, 42, 42, 168), float16] */;
    %528 = multiply(%527, %p281) /* ty=Tensor[(16, 42, 42, 168), float16] */;
    add(%528, %p380) /* ty=Tensor[(16, 42, 42, 168), float16] */
  } /* ty=fn (Tensor[(16, 42, 42, 168), float16], Tensor[(168, 1, 1, 168), float16], Tensor[(168), float16], Tensor[(168), float16]) -> Tensor[(16, 42, 42, 168), float16] */;
  %542 = %526(%525, meta[relay.Constant][199] /* ty=Tensor[(168, 5, 5, 1), float16] */) /* ty=Tensor[(16, 42, 42, 168), float16] */;
  %543 = %541(%540, meta[relay.Constant][208] /* ty=Tensor[(168, 1, 1, 168), float16] */, meta[relay.Constant][209] /* ty=Tensor[(168), float16] */, meta[relay.Constant][210] /* ty=Tensor[(168), float16] */) /* ty=Tensor[(16, 42, 42, 168), float16] */;
  %544 = fn (%p0195: Tensor[(16, 42, 42, 168), float16] /* ty=Tensor[(16, 42, 42, 168), float16] */, %p1154: Tensor[(168, 1, 1, 168), float16] /* ty=Tensor[(168, 1, 1, 168), float16] */, %p278: Tensor[(168), float16] /* ty=Tensor[(168), float16] */, %p377: Tensor[(168), float16] /* ty=Tensor[(168), float16] */, %p422: Tensor[(16, 42, 42, 168), float16] /* ty=Tensor[(16, 42, 42, 168), float16] */, Primitive=1) -> Tensor[(16, 42, 42, 168), float16] {
    %508 = nn.conv2d(%p0195, %p1154, padding=[0, 0, 0, 0], channels=168, kernel_size=[1, 1], data_layout="NHWC", kernel_layout="OHWI", out_dtype="float16") /* ty=Tensor[(16, 42, 42, 168), float16] */;
    %509 = multiply(%508, %p278) /* ty=Tensor[(16, 42, 42, 168), float16] */;
    %510 = add(%509, %p377) /* ty=Tensor[(16, 42, 42, 168), float16] */;
    add(%510, %p422) /* ty=Tensor[(16, 42, 42, 168), float16] */
  } /* ty=fn (Tensor[(16, 42, 42, 168), float16], Tensor[(168, 1, 1, 168), float16], Tensor[(168), float16], Tensor[(168), float16], Tensor[(16, 42, 42, 168), float16]) -> Tensor[(16, 42, 42, 168), float16] */;
  %551 = fn (%p0211: Tensor[(16, 42, 42, 168), float16] /* ty=Tensor[(16, 42, 42, 168), float16] */, Primitive=1) -> Tensor[(16, 42, 42, 168), float16] {
    nn.relu(%p0211) /* ty=Tensor[(16, 42, 42, 168), float16] */
  } /* ty=fn (Tensor[(16, 42, 42, 168), float16]) -> Tensor[(16, 42, 42, 168), float16] */;
  %552 = %551(%532) /* ty=Tensor[(16, 42, 42, 168), float16] */;
  %553 = fn (%p0210: Tensor[(16, 42, 42, 168), float16] /* ty=Tensor[(16, 42, 42, 168), float16] */, %p1166: Tensor[(168, 5, 5, 1), float16] /* ty=Tensor[(168, 5, 5, 1), float16] */, Primitive=1) -> Tensor[(16, 42, 42, 168), float16] {
    nn.conv2d(%p0210, %p1166, padding=[2, 2, 2, 2], groups=168, channels=168, kernel_size=[5, 5], data_layout="NHWC", kernel_layout="OHWI", out_dtype="float16") /* ty=Tensor[(16, 42, 42, 168), float16] */
  } /* ty=fn (Tensor[(16, 42, 42, 168), float16], Tensor[(168, 5, 5, 1), float16]) -> Tensor[(16, 42, 42, 168), float16] */;
  %554 = %553(%552, meta[relay.Constant][211] /* ty=Tensor[(168, 5, 5, 1), float16] */) /* ty=Tensor[(16, 42, 42, 168), float16] */;
  %555 = fn (%p0209: Tensor[(16, 42, 42, 168), float16] /* ty=Tensor[(16, 42, 42, 168), float16] */, %p1165: Tensor[(168, 1, 1, 168), float16] /* ty=Tensor[(168, 1, 1, 168), float16] */, %p284: Tensor[(168), float16] /* ty=Tensor[(168), float16] */, %p383: Tensor[(168), float16] /* ty=Tensor[(168), float16] */, Primitive=1) -> Tensor[(16, 42, 42, 168), float16] {
    %548 = nn.conv2d(%p0209, %p1165, padding=[0, 0, 0, 0], channels=168, kernel_size=[1, 1], data_layout="NHWC", kernel_layout="OHWI", out_dtype="float16") /* ty=Tensor[(16, 42, 42, 168), float16] */;
    %549 = multiply(%548, %p284) /* ty=Tensor[(16, 42, 42, 168), float16] */;
    %550 = add(%549, %p383) /* ty=Tensor[(16, 42, 42, 168), float16] */;
    nn.relu(%550) /* ty=Tensor[(16, 42, 42, 168), float16] */
  } /* ty=fn (Tensor[(16, 42, 42, 168), float16], Tensor[(168, 1, 1, 168), float16], Tensor[(168), float16], Tensor[(168), float16]) -> Tensor[(16, 42, 42, 168), float16] */;
  %556 = %555(%554, meta[relay.Constant][212] /* ty=Tensor[(168, 1, 1, 168), float16] */, meta[relay.Constant][213] /* ty=Tensor[(168), float16] */, meta[relay.Constant][214] /* ty=Tensor[(168), float16] */) /* ty=Tensor[(16, 42, 42, 168), float16] */;
  %557 = fn (%p0208: Tensor[(16, 42, 42, 168), float16] /* ty=Tensor[(16, 42, 42, 168), float16] */, %p1164: Tensor[(168, 5, 5, 1), float16] /* ty=Tensor[(168, 5, 5, 1), float16] */, Primitive=1) -> Tensor[(16, 42, 42, 168), float16] {
    nn.conv2d(%p0208, %p1164, padding=[2, 2, 2, 2], groups=168, channels=168, kernel_size=[5, 5], data_layout="NHWC", kernel_layout="OHWI", out_dtype="float16") /* ty=Tensor[(16, 42, 42, 168), float16] */
  } /* ty=fn (Tensor[(16, 42, 42, 168), float16], Tensor[(168, 5, 5, 1), float16]) -> Tensor[(16, 42, 42, 168), float16] */;
  %563 = fn (%p0216: Tensor[(16, 42, 42, 168), float16] /* ty=Tensor[(16, 42, 42, 168), float16] */, Primitive=1) -> Tensor[(16, 42, 42, 168), float16] {
    nn.relu(%p0216) /* ty=Tensor[(16, 42, 42, 168), float16] */
  } /* ty=fn (Tensor[(16, 42, 42, 168), float16]) -> Tensor[(16, 42, 42, 168), float16] */;
  %564 = %563(%532) /* ty=Tensor[(16, 42, 42, 168), float16] */;
  %565 = fn (%p0215: Tensor[(16, 42, 42, 168), float16] /* ty=Tensor[(16, 42, 42, 168), float16] */, %p1170: Tensor[(168, 3, 3, 1), float16] /* ty=Tensor[(168, 3, 3, 1), float16] */, Primitive=1) -> Tensor[(16, 42, 42, 168), float16] {
    nn.conv2d(%p0215, %p1170, padding=[1, 1, 1, 1], groups=168, channels=168, kernel_size=[3, 3], data_layout="NHWC", kernel_layout="OHWI", out_dtype="float16") /* ty=Tensor[(16, 42, 42, 168), float16] */
  } /* ty=fn (Tensor[(16, 42, 42, 168), float16], Tensor[(168, 3, 3, 1), float16]) -> Tensor[(16, 42, 42, 168), float16] */;
  %566 = %565(%564, meta[relay.Constant][219] /* ty=Tensor[(168, 3, 3, 1), float16] */) /* ty=Tensor[(16, 42, 42, 168), float16] */;
  %567 = fn (%p0214: Tensor[(16, 42, 42, 168), float16] /* ty=Tensor[(16, 42, 42, 168), float16] */, %p1169: Tensor[(168, 1, 1, 168), float16] /* ty=Tensor[(168, 1, 1, 168), float16] */, %p286: Tensor[(168), float16] /* ty=Tensor[(168), float16] */, %p385: Tensor[(168), float16] /* ty=Tensor[(168), float16] */, Primitive=1) -> Tensor[(16, 42, 42, 168), float16] {
    %560 = nn.conv2d(%p0214, %p1169, padding=[0, 0, 0, 0], channels=168, kernel_size=[1, 1], data_layout="NHWC", kernel_layout="OHWI", out_dtype="float16") /* ty=Tensor[(16, 42, 42, 168), float16] */;
    %561 = multiply(%560, %p286) /* ty=Tensor[(16, 42, 42, 168), float16] */;
    %562 = add(%561, %p385) /* ty=Tensor[(16, 42, 42, 168), float16] */;
    nn.relu(%562) /* ty=Tensor[(16, 42, 42, 168), float16] */
  } /* ty=fn (Tensor[(16, 42, 42, 168), float16], Tensor[(168, 1, 1, 168), float16], Tensor[(168), float16], Tensor[(168), float16]) -> Tensor[(16, 42, 42, 168), float16] */;
  %568 = %567(%566, meta[relay.Constant][220] /* ty=Tensor[(168, 1, 1, 168), float16] */, meta[relay.Constant][221] /* ty=Tensor[(168), float16] */, meta[relay.Constant][222] /* ty=Tensor[(168), float16] */) /* ty=Tensor[(16, 42, 42, 168), float16] */;
  %569 = fn (%p0213: Tensor[(16, 42, 42, 168), float16] /* ty=Tensor[(16, 42, 42, 168), float16] */, %p1168: Tensor[(168, 3, 3, 1), float16] /* ty=Tensor[(168, 3, 3, 1), float16] */, Primitive=1) -> Tensor[(16, 42, 42, 168), float16] {
    nn.conv2d(%p0213, %p1168, padding=[1, 1, 1, 1], groups=168, channels=168, kernel_size=[3, 3], data_layout="NHWC", kernel_layout="OHWI", out_dtype="float16") /* ty=Tensor[(16, 42, 42, 168), float16] */
  } /* ty=fn (Tensor[(16, 42, 42, 168), float16], Tensor[(168, 3, 3, 1), float16]) -> Tensor[(16, 42, 42, 168), float16] */;
  %570 = %569(%568, meta[relay.Constant][223] /* ty=Tensor[(168, 3, 3, 1), float16] */) /* ty=Tensor[(16, 42, 42, 168), float16] */;
  %571 = fn (%p0212: Tensor[(16, 42, 42, 168), float16] /* ty=Tensor[(16, 42, 42, 168), float16] */, %p1167: Tensor[(168, 1, 1, 168), float16] /* ty=Tensor[(168, 1, 1, 168), float16] */, %p285: Tensor[(168), float16] /* ty=Tensor[(168), float16] */, %p384: Tensor[(168), float16] /* ty=Tensor[(168), float16] */, Primitive=1) -> Tensor[(16, 42, 42, 168), float16] {
    %558 = nn.conv2d(%p0212, %p1167, padding=[0, 0, 0, 0], channels=168, kernel_size=[1, 1], data_layout="NHWC", kernel_layout="OHWI", out_dtype="float16") /* ty=Tensor[(16, 42, 42, 168), float16] */;
    %559 = multiply(%558, %p285) /* ty=Tensor[(16, 42, 42, 168), float16] */;
    add(%559, %p384) /* ty=Tensor[(16, 42, 42, 168), float16] */
  } /* ty=fn (Tensor[(16, 42, 42, 168), float16], Tensor[(168, 1, 1, 168), float16], Tensor[(168), float16], Tensor[(168), float16]) -> Tensor[(16, 42, 42, 168), float16] */;
  %572 = %557(%556, meta[relay.Constant][215] /* ty=Tensor[(168, 5, 5, 1), float16] */) /* ty=Tensor[(16, 42, 42, 168), float16] */;
  %573 = %571(%570, meta[relay.Constant][224] /* ty=Tensor[(168, 1, 1, 168), float16] */, meta[relay.Constant][225] /* ty=Tensor[(168), float16] */, meta[relay.Constant][226] /* ty=Tensor[(168), float16] */) /* ty=Tensor[(16, 42, 42, 168), float16] */;
  %574 = fn (%p0207: Tensor[(16, 42, 42, 168), float16] /* ty=Tensor[(16, 42, 42, 168), float16] */, %p1163: Tensor[(168, 1, 1, 168), float16] /* ty=Tensor[(168, 1, 1, 168), float16] */, %p283: Tensor[(168), float16] /* ty=Tensor[(168), float16] */, %p382: Tensor[(168), float16] /* ty=Tensor[(168), float16] */, %p423: Tensor[(16, 42, 42, 168), float16] /* ty=Tensor[(16, 42, 42, 168), float16] */, Primitive=1) -> Tensor[(16, 42, 42, 168), float16] {
    %545 = nn.conv2d(%p0207, %p1163, padding=[0, 0, 0, 0], channels=168, kernel_size=[1, 1], data_layout="NHWC", kernel_layout="OHWI", out_dtype="float16") /* ty=Tensor[(16, 42, 42, 168), float16] */;
    %546 = multiply(%545, %p283) /* ty=Tensor[(16, 42, 42, 168), float16] */;
    %547 = add(%546, %p382) /* ty=Tensor[(16, 42, 42, 168), float16] */;
    add(%547, %p423) /* ty=Tensor[(16, 42, 42, 168), float16] */
  } /* ty=fn (Tensor[(16, 42, 42, 168), float16], Tensor[(168, 1, 1, 168), float16], Tensor[(168), float16], Tensor[(168), float16], Tensor[(16, 42, 42, 168), float16]) -> Tensor[(16, 42, 42, 168), float16] */;
  %576 = fn (%p0217: Tensor[(16, 42, 42, 168), float16] /* ty=Tensor[(16, 42, 42, 168), float16] */, %p1171: Tensor[(16, 42, 42, 168), float16] /* ty=Tensor[(16, 42, 42, 168), float16] */, Primitive=1) -> Tensor[(16, 42, 42, 168), float16] {
    %575 = nn.avg_pool2d(%p0217, pool_size=[3, 3], padding=[1, 1, 1, 1], layout="NHWC", out_layout="NHWC") /* ty=Tensor[(16, 42, 42, 168), float16] */;
    add(%575, %p1171) /* ty=Tensor[(16, 42, 42, 168), float16] */
  } /* ty=fn (Tensor[(16, 42, 42, 168), float16], Tensor[(16, 42, 42, 168), float16]) -> Tensor[(16, 42, 42, 168), float16] */;
  %578 = fn (%p0219: Tensor[(16, 42, 42, 168), float16] /* ty=Tensor[(16, 42, 42, 168), float16] */, Primitive=1) -> Tensor[(16, 42, 42, 168), float16] {
    nn.avg_pool2d(%p0219, pool_size=[3, 3], padding=[1, 1, 1, 1], layout="NHWC", out_layout="NHWC") /* ty=Tensor[(16, 42, 42, 168), float16] */
  } /* ty=fn (Tensor[(16, 42, 42, 168), float16]) -> Tensor[(16, 42, 42, 168), float16] */;
  %579 = %578(%532) /* ty=Tensor[(16, 42, 42, 168), float16] */;
  %580 = fn (%p0218: Tensor[(16, 42, 42, 168), float16] /* ty=Tensor[(16, 42, 42, 168), float16] */, %p1172: Tensor[(16, 42, 42, 168), float16] /* ty=Tensor[(16, 42, 42, 168), float16] */, Primitive=1) -> Tensor[(16, 42, 42, 168), float16] {
    %577 = nn.avg_pool2d(%p0218, pool_size=[3, 3], padding=[1, 1, 1, 1], layout="NHWC", out_layout="NHWC") /* ty=Tensor[(16, 42, 42, 168), float16] */;
    add(%577, %p1172) /* ty=Tensor[(16, 42, 42, 168), float16] */
  } /* ty=fn (Tensor[(16, 42, 42, 168), float16], Tensor[(16, 42, 42, 168), float16]) -> Tensor[(16, 42, 42, 168), float16] */;
  %587 = fn (%p0224: Tensor[(16, 42, 42, 168), float16] /* ty=Tensor[(16, 42, 42, 168), float16] */, Primitive=1) -> Tensor[(16, 42, 42, 168), float16] {
    nn.relu(%p0224) /* ty=Tensor[(16, 42, 42, 168), float16] */
  } /* ty=fn (Tensor[(16, 42, 42, 168), float16]) -> Tensor[(16, 42, 42, 168), float16] */;
  %588 = %587(%519) /* ty=Tensor[(16, 42, 42, 168), float16] */;
  %589 = fn (%p0223: Tensor[(16, 42, 42, 168), float16] /* ty=Tensor[(16, 42, 42, 168), float16] */, %p1176: Tensor[(168, 3, 3, 1), float16] /* ty=Tensor[(168, 3, 3, 1), float16] */, Primitive=1) -> Tensor[(16, 42, 42, 168), float16] {
    nn.conv2d(%p0223, %p1176, padding=[1, 1, 1, 1], groups=168, channels=168, kernel_size=[3, 3], data_layout="NHWC", kernel_layout="OHWI", out_dtype="float16") /* ty=Tensor[(16, 42, 42, 168), float16] */
  } /* ty=fn (Tensor[(16, 42, 42, 168), float16], Tensor[(168, 3, 3, 1), float16]) -> Tensor[(16, 42, 42, 168), float16] */;
  %590 = %589(%588, meta[relay.Constant][227] /* ty=Tensor[(168, 3, 3, 1), float16] */) /* ty=Tensor[(16, 42, 42, 168), float16] */;
  %591 = fn (%p0222: Tensor[(16, 42, 42, 168), float16] /* ty=Tensor[(16, 42, 42, 168), float16] */, %p1175: Tensor[(168, 1, 1, 168), float16] /* ty=Tensor[(168, 1, 1, 168), float16] */, %p288: Tensor[(168), float16] /* ty=Tensor[(168), float16] */, %p387: Tensor[(168), float16] /* ty=Tensor[(168), float16] */, Primitive=1) -> Tensor[(16, 42, 42, 168), float16] {
    %584 = nn.conv2d(%p0222, %p1175, padding=[0, 0, 0, 0], channels=168, kernel_size=[1, 1], data_layout="NHWC", kernel_layout="OHWI", out_dtype="float16") /* ty=Tensor[(16, 42, 42, 168), float16] */;
    %585 = multiply(%584, %p288) /* ty=Tensor[(16, 42, 42, 168), float16] */;
    %586 = add(%585, %p387) /* ty=Tensor[(16, 42, 42, 168), float16] */;
    nn.relu(%586) /* ty=Tensor[(16, 42, 42, 168), float16] */
  } /* ty=fn (Tensor[(16, 42, 42, 168), float16], Tensor[(168, 1, 1, 168), float16], Tensor[(168), float16], Tensor[(168), float16]) -> Tensor[(16, 42, 42, 168), float16] */;
  %592 = %591(%590, meta[relay.Constant][228] /* ty=Tensor[(168, 1, 1, 168), float16] */, meta[relay.Constant][229] /* ty=Tensor[(168), float16] */, meta[relay.Constant][230] /* ty=Tensor[(168), float16] */) /* ty=Tensor[(16, 42, 42, 168), float16] */;
  %593 = fn (%p0221: Tensor[(16, 42, 42, 168), float16] /* ty=Tensor[(16, 42, 42, 168), float16] */, %p1174: Tensor[(168, 3, 3, 1), float16] /* ty=Tensor[(168, 3, 3, 1), float16] */, Primitive=1) -> Tensor[(16, 42, 42, 168), float16] {
    nn.conv2d(%p0221, %p1174, padding=[1, 1, 1, 1], groups=168, channels=168, kernel_size=[3, 3], data_layout="NHWC", kernel_layout="OHWI", out_dtype="float16") /* ty=Tensor[(16, 42, 42, 168), float16] */
  } /* ty=fn (Tensor[(16, 42, 42, 168), float16], Tensor[(168, 3, 3, 1), float16]) -> Tensor[(16, 42, 42, 168), float16] */;
  %594 = %593(%592, meta[relay.Constant][231] /* ty=Tensor[(168, 3, 3, 1), float16] */) /* ty=Tensor[(16, 42, 42, 168), float16] */;
  %595 = fn (%p0220: Tensor[(16, 42, 42, 168), float16] /* ty=Tensor[(16, 42, 42, 168), float16] */, %p1173: Tensor[(168, 1, 1, 168), float16] /* ty=Tensor[(168, 1, 1, 168), float16] */, %p287: Tensor[(168), float16] /* ty=Tensor[(168), float16] */, %p386: Tensor[(168), float16] /* ty=Tensor[(168), float16] */, %p424: Tensor[(16, 42, 42, 168), float16] /* ty=Tensor[(16, 42, 42, 168), float16] */, Primitive=1) -> Tensor[(16, 42, 42, 168), float16] {
    %581 = nn.conv2d(%p0220, %p1173, padding=[0, 0, 0, 0], channels=168, kernel_size=[1, 1], data_layout="NHWC", kernel_layout="OHWI", out_dtype="float16") /* ty=Tensor[(16, 42, 42, 168), float16] */;
    %582 = multiply(%581, %p287) /* ty=Tensor[(16, 42, 42, 168), float16] */;
    %583 = add(%582, %p386) /* ty=Tensor[(16, 42, 42, 168), float16] */;
    add(%583, %p424) /* ty=Tensor[(16, 42, 42, 168), float16] */
  } /* ty=fn (Tensor[(16, 42, 42, 168), float16], Tensor[(168, 1, 1, 168), float16], Tensor[(168), float16], Tensor[(168), float16], Tensor[(16, 42, 42, 168), float16]) -> Tensor[(16, 42, 42, 168), float16] */;
  %596 = %544(%542, meta[relay.Constant][200] /* ty=Tensor[(168, 1, 1, 168), float16] */, meta[relay.Constant][201] /* ty=Tensor[(168), float16] */, meta[relay.Constant][202] /* ty=Tensor[(168), float16] */, %543) /* ty=Tensor[(16, 42, 42, 168), float16] */;
  %597 = %574(%572, meta[relay.Constant][216] /* ty=Tensor[(168, 1, 1, 168), float16] */, meta[relay.Constant][217] /* ty=Tensor[(168), float16] */, meta[relay.Constant][218] /* ty=Tensor[(168), float16] */, %573) /* ty=Tensor[(16, 42, 42, 168), float16] */;
  %598 = %576(%519, %532) /* ty=Tensor[(16, 42, 42, 168), float16] */;
  %599 = %580(%532, %579) /* ty=Tensor[(16, 42, 42, 168), float16] */;
  %600 = %595(%594, meta[relay.Constant][232] /* ty=Tensor[(168, 1, 1, 168), float16] */, meta[relay.Constant][233] /* ty=Tensor[(168), float16] */, meta[relay.Constant][234] /* ty=Tensor[(168), float16] */, %519) /* ty=Tensor[(16, 42, 42, 168), float16] */;
  %601 = fn (%p0192: Tensor[(16, 42, 42, 168), float16] /* ty=Tensor[(16, 42, 42, 168), float16] */, %p1152: Tensor[(16, 42, 42, 168), float16] /* ty=Tensor[(16, 42, 42, 168), float16] */, %p276: Tensor[(16, 42, 42, 168), float16] /* ty=Tensor[(16, 42, 42, 168), float16] */, %p375: Tensor[(16, 42, 42, 168), float16] /* ty=Tensor[(16, 42, 42, 168), float16] */, %p421: Tensor[(16, 42, 42, 168), float16] /* ty=Tensor[(16, 42, 42, 168), float16] */, %p510: Tensor[(16, 42, 42, 168), float16] /* ty=Tensor[(16, 42, 42, 168), float16] */, Primitive=1) -> Tensor[(16, 42, 42, 1008), float16] {
…
  } /* ty=fn (Tensor[(16, 11, 11, 672), float16], Tensor[(672, 5, 5, 1), float16]) -> Tensor[(16, 11, 11, 672), float16] */;
  %2162 = %2137(%2136, meta[relay.Constant][927] /* ty=Tensor[(672, 1, 1, 4032), float16] */, meta[relay.Constant][928] /* ty=Tensor[(672), float16] */, meta[relay.Constant][929] /* ty=Tensor[(672), float16] */) /* ty=Tensor[(16, 11, 11, 672), float16] */;
  %2163 = fn (%p0720: Tensor[(16, 11, 11, 672), float16] /* ty=Tensor[(16, 11, 11, 672), float16] */, Primitive=1) -> Tensor[(16, 11, 11, 672), float16] {
    nn.relu(%p0720) /* ty=Tensor[(16, 11, 11, 672), float16] */
  } /* ty=fn (Tensor[(16, 11, 11, 672), float16]) -> Tensor[(16, 11, 11, 672), float16] */;
  %2164 = %2163(%2162) /* ty=Tensor[(16, 11, 11, 672), float16] */;
  %2165 = fn (%p0719: Tensor[(16, 11, 11, 672), float16] /* ty=Tensor[(16, 11, 11, 672), float16] */, %p1562: Tensor[(672, 3, 3, 1), float16] /* ty=Tensor[(672, 3, 3, 1), float16] */, Primitive=1) -> Tensor[(16, 11, 11, 672), float16] {
    nn.conv2d(%p0719, %p1562, padding=[1, 1, 1, 1], groups=672, channels=672, kernel_size=[3, 3], data_layout="NHWC", kernel_layout="OHWI", out_dtype="float16") /* ty=Tensor[(16, 11, 11, 672), float16] */
  } /* ty=fn (Tensor[(16, 11, 11, 672), float16], Tensor[(672, 3, 3, 1), float16]) -> Tensor[(16, 11, 11, 672), float16] */;
  %2166 = %2165(%2164, meta[relay.Constant][941] /* ty=Tensor[(672, 3, 3, 1), float16] */) /* ty=Tensor[(16, 11, 11, 672), float16] */;
  %2167 = fn (%p0718: Tensor[(16, 11, 11, 672), float16] /* ty=Tensor[(16, 11, 11, 672), float16] */, %p1561: Tensor[(672, 1, 1, 672), float16] /* ty=Tensor[(672, 1, 1, 672), float16] */, %p2272: Tensor[(672), float16] /* ty=Tensor[(672), float16] */, %p3271: Tensor[(672), float16] /* ty=Tensor[(672), float16] */, Primitive=1) -> Tensor[(16, 11, 11, 672), float16] {
    %2159 = nn.conv2d(%p0718, %p1561, padding=[0, 0, 0, 0], channels=672, kernel_size=[1, 1], data_layout="NHWC", kernel_layout="OHWI", out_dtype="float16") /* ty=Tensor[(16, 11, 11, 672), float16] */;
    %2160 = multiply(%2159, %p2272) /* ty=Tensor[(16, 11, 11, 672), float16] */;
    %2161 = add(%2160, %p3271) /* ty=Tensor[(16, 11, 11, 672), float16] */;
    nn.relu(%2161) /* ty=Tensor[(16, 11, 11, 672), float16] */
  } /* ty=fn (Tensor[(16, 11, 11, 672), float16], Tensor[(672, 1, 1, 672), float16], Tensor[(672), float16], Tensor[(672), float16]) -> Tensor[(16, 11, 11, 672), float16] */;
  %2168 = %2167(%2166, meta[relay.Constant][942] /* ty=Tensor[(672, 1, 1, 672), float16] */, meta[relay.Constant][943] /* ty=Tensor[(672), float16] */, meta[relay.Constant][944] /* ty=Tensor[(672), float16] */) /* ty=Tensor[(16, 11, 11, 672), float16] */;
  %2169 = fn (%p0717: Tensor[(16, 11, 11, 672), float16] /* ty=Tensor[(16, 11, 11, 672), float16] */, %p1560: Tensor[(672, 3, 3, 1), float16] /* ty=Tensor[(672, 3, 3, 1), float16] */, Primitive=1) -> Tensor[(16, 11, 11, 672), float16] {
    nn.conv2d(%p0717, %p1560, padding=[1, 1, 1, 1], groups=672, channels=672, kernel_size=[3, 3], data_layout="NHWC", kernel_layout="OHWI", out_dtype="float16") /* ty=Tensor[(16, 11, 11, 672), float16] */
  } /* ty=fn (Tensor[(16, 11, 11, 672), float16], Tensor[(672, 3, 3, 1), float16]) -> Tensor[(16, 11, 11, 672), float16] */;
  %2170 = %2169(%2168, meta[relay.Constant][945] /* ty=Tensor[(672, 3, 3, 1), float16] */) /* ty=Tensor[(16, 11, 11, 672), float16] */;
  %2171 = fn (%p0716: Tensor[(16, 11, 11, 672), float16] /* ty=Tensor[(16, 11, 11, 672), float16] */, %p1559: Tensor[(672, 1, 1, 672), float16] /* ty=Tensor[(672, 1, 1, 672), float16] */, %p2271: Tensor[(672), float16] /* ty=Tensor[(672), float16] */, %p3270: Tensor[(672), float16] /* ty=Tensor[(672), float16] */, Primitive=1) -> Tensor[(16, 11, 11, 672), float16] {
    %2157 = nn.conv2d(%p0716, %p1559, padding=[0, 0, 0, 0], channels=672, kernel_size=[1, 1], data_layout="NHWC", kernel_layout="OHWI", out_dtype="float16") /* ty=Tensor[(16, 11, 11, 672), float16] */;
    %2158 = multiply(%2157, %p2271) /* ty=Tensor[(16, 11, 11, 672), float16] */;
    add(%2158, %p3270) /* ty=Tensor[(16, 11, 11, 672), float16] */
  } /* ty=fn (Tensor[(16, 11, 11, 672), float16], Tensor[(672, 1, 1, 672), float16], Tensor[(672), float16], Tensor[(672), float16]) -> Tensor[(16, 11, 11, 672), float16] */;
  %2172 = %2156(%2155, meta[relay.Constant][937] /* ty=Tensor[(672, 5, 5, 1), float16] */) /* ty=Tensor[(16, 11, 11, 672), float16] */;
  %2173 = %2171(%2170, meta[relay.Constant][946] /* ty=Tensor[(672, 1, 1, 672), float16] */, meta[relay.Constant][947] /* ty=Tensor[(672), float16] */, meta[relay.Constant][948] /* ty=Tensor[(672), float16] */) /* ty=Tensor[(16, 11, 11, 672), float16] */;
  %2174 = fn (%p0709: Tensor[(16, 11, 11, 672), float16] /* ty=Tensor[(16, 11, 11, 672), float16] */, %p1554: Tensor[(672, 1, 1, 672), float16] /* ty=Tensor[(672, 1, 1, 672), float16] */, %p2268: Tensor[(672), float16] /* ty=Tensor[(672), float16] */, %p3267: Tensor[(672), float16] /* ty=Tensor[(672), float16] */, %p475: Tensor[(16, 11, 11, 672), float16] /* ty=Tensor[(16, 11, 11, 672), float16] */, Primitive=1) -> Tensor[(16, 11, 11, 672), float16] {
    %2138 = nn.conv2d(%p0709, %p1554, padding=[0, 0, 0, 0], channels=672, kernel_size=[1, 1], data_layout="NHWC", kernel_layout="OHWI", out_dtype="float16") /* ty=Tensor[(16, 11, 11, 672), float16] */;
    %2139 = multiply(%2138, %p2268) /* ty=Tensor[(16, 11, 11, 672), float16] */;
    %2140 = add(%2139, %p3267) /* ty=Tensor[(16, 11, 11, 672), float16] */;
    add(%2140, %p475) /* ty=Tensor[(16, 11, 11, 672), float16] */
  } /* ty=fn (Tensor[(16, 11, 11, 672), float16], Tensor[(672, 1, 1, 672), float16], Tensor[(672), float16], Tensor[(672), float16], Tensor[(16, 11, 11, 672), float16]) -> Tensor[(16, 11, 11, 672), float16] */;
  %2181 = fn (%p0725: Tensor[(16, 11, 11, 672), float16] /* ty=Tensor[(16, 11, 11, 672), float16] */, Primitive=1) -> Tensor[(16, 11, 11, 672), float16] {
    nn.relu(%p0725) /* ty=Tensor[(16, 11, 11, 672), float16] */
  } /* ty=fn (Tensor[(16, 11, 11, 672), float16]) -> Tensor[(16, 11, 11, 672), float16] */;
  %2182 = %2181(%2162) /* ty=Tensor[(16, 11, 11, 672), float16] */;
  %2183 = fn (%p0724: Tensor[(16, 11, 11, 672), float16] /* ty=Tensor[(16, 11, 11, 672), float16] */, %p1566: Tensor[(672, 5, 5, 1), float16] /* ty=Tensor[(672, 5, 5, 1), float16] */, Primitive=1) -> Tensor[(16, 11, 11, 672), float16] {
    nn.conv2d(%p0724, %p1566, padding=[2, 2, 2, 2], groups=672, channels=672, kernel_size=[5, 5], data_layout="NHWC", kernel_layout="OHWI", out_dtype="float16") /* ty=Tensor[(16, 11, 11, 672), float16] */
  } /* ty=fn (Tensor[(16, 11, 11, 672), float16], Tensor[(672, 5, 5, 1), float16]) -> Tensor[(16, 11, 11, 672), float16] */;
  %2184 = %2183(%2182, meta[relay.Constant][949] /* ty=Tensor[(672, 5, 5, 1), float16] */) /* ty=Tensor[(16, 11, 11, 672), float16] */;
  %2185 = fn (%p0723: Tensor[(16, 11, 11, 672), float16] /* ty=Tensor[(16, 11, 11, 672), float16] */, %p1565: Tensor[(672, 1, 1, 672), float16] /* ty=Tensor[(672, 1, 1, 672), float16] */, %p2274: Tensor[(672), float16] /* ty=Tensor[(672), float16] */, %p3273: Tensor[(672), float16] /* ty=Tensor[(672), float16] */, Primitive=1) -> Tensor[(16, 11, 11, 672), float16] {
    %2178 = nn.conv2d(%p0723, %p1565, padding=[0, 0, 0, 0], channels=672, kernel_size=[1, 1], data_layout="NHWC", kernel_layout="OHWI", out_dtype="float16") /* ty=Tensor[(16, 11, 11, 672), float16] */;
    %2179 = multiply(%2178, %p2274) /* ty=Tensor[(16, 11, 11, 672), float16] */;
    %2180 = add(%2179, %p3273) /* ty=Tensor[(16, 11, 11, 672), float16] */;
    nn.relu(%2180) /* ty=Tensor[(16, 11, 11, 672), float16] */
  } /* ty=fn (Tensor[(16, 11, 11, 672), float16], Tensor[(672, 1, 1, 672), float16], Tensor[(672), float16], Tensor[(672), float16]) -> Tensor[(16, 11, 11, 672), float16] */;
  %2186 = %2185(%2184, meta[relay.Constant][950] /* ty=Tensor[(672, 1, 1, 672), float16] */, meta[relay.Constant][951] /* ty=Tensor[(672), float16] */, meta[relay.Constant][952] /* ty=Tensor[(672), float16] */) /* ty=Tensor[(16, 11, 11, 672), float16] */;
  %2187 = fn (%p0722: Tensor[(16, 11, 11, 672), float16] /* ty=Tensor[(16, 11, 11, 672), float16] */, %p1564: Tensor[(672, 5, 5, 1), float16] /* ty=Tensor[(672, 5, 5, 1), float16] */, Primitive=1) -> Tensor[(16, 11, 11, 672), float16] {
    nn.conv2d(%p0722, %p1564, padding=[2, 2, 2, 2], groups=672, channels=672, kernel_size=[5, 5], data_layout="NHWC", kernel_layout="OHWI", out_dtype="float16") /* ty=Tensor[(16, 11, 11, 672), float16] */
  } /* ty=fn (Tensor[(16, 11, 11, 672), float16], Tensor[(672, 5, 5, 1), float16]) -> Tensor[(16, 11, 11, 672), float16] */;
  %2193 = fn (%p0730: Tensor[(16, 11, 11, 672), float16] /* ty=Tensor[(16, 11, 11, 672), float16] */, Primitive=1) -> Tensor[(16, 11, 11, 672), float16] {
    nn.relu(%p0730) /* ty=Tensor[(16, 11, 11, 672), float16] */
  } /* ty=fn (Tensor[(16, 11, 11, 672), float16]) -> Tensor[(16, 11, 11, 672), float16] */;
  %2194 = %2193(%2162) /* ty=Tensor[(16, 11, 11, 672), float16] */;
  %2195 = fn (%p0729: Tensor[(16, 11, 11, 672), float16] /* ty=Tensor[(16, 11, 11, 672), float16] */, %p1570: Tensor[(672, 3, 3, 1), float16] /* ty=Tensor[(672, 3, 3, 1), float16] */, Primitive=1) -> Tensor[(16, 11, 11, 672), float16] {
    nn.conv2d(%p0729, %p1570, padding=[1, 1, 1, 1], groups=672, channels=672, kernel_size=[3, 3], data_layout="NHWC", kernel_layout="OHWI", out_dtype="float16") /* ty=Tensor[(16, 11, 11, 672), float16] */
  } /* ty=fn (Tensor[(16, 11, 11, 672), float16], Tensor[(672, 3, 3, 1), float16]) -> Tensor[(16, 11, 11, 672), float16] */;
  %2196 = %2195(%2194, meta[relay.Constant][957] /* ty=Tensor[(672, 3, 3, 1), float16] */) /* ty=Tensor[(16, 11, 11, 672), float16] */;
  %2197 = fn (%p0728: Tensor[(16, 11, 11, 672), float16] /* ty=Tensor[(16, 11, 11, 672), float16] */, %p1569: Tensor[(672, 1, 1, 672), float16] /* ty=Tensor[(672, 1, 1, 672), float16] */, %p2276: Tensor[(672), float16] /* ty=Tensor[(672), float16] */, %p3275: Tensor[(672), float16] /* ty=Tensor[(672), float16] */, Primitive=1) -> Tensor[(16, 11, 11, 672), float16] {
    %2190 = nn.conv2d(%p0728, %p1569, padding=[0, 0, 0, 0], channels=672, kernel_size=[1, 1], data_layout="NHWC", kernel_layout="OHWI", out_dtype="float16") /* ty=Tensor[(16, 11, 11, 672), float16] */;
    %2191 = multiply(%2190, %p2276) /* ty=Tensor[(16, 11, 11, 672), float16] */;
    %2192 = add(%2191, %p3275) /* ty=Tensor[(16, 11, 11, 672), float16] */;
    nn.relu(%2192) /* ty=Tensor[(16, 11, 11, 672), float16] */
  } /* ty=fn (Tensor[(16, 11, 11, 672), float16], Tensor[(672, 1, 1, 672), float16], Tensor[(672), float16], Tensor[(672), float16]) -> Tensor[(16, 11, 11, 672), float16] */;
  %2198 = %2197(%2196, meta[relay.Constant][958] /* ty=Tensor[(672, 1, 1, 672), float16] */, meta[relay.Constant][959] /* ty=Tensor[(672), float16] */, meta[relay.Constant][960] /* ty=Tensor[(672), float16] */) /* ty=Tensor[(16, 11, 11, 672), float16] */;
  %2199 = fn (%p0727: Tensor[(16, 11, 11, 672), float16] /* ty=Tensor[(16, 11, 11, 672), float16] */, %p1568: Tensor[(672, 3, 3, 1), float16] /* ty=Tensor[(672, 3, 3, 1), float16] */, Primitive=1) -> Tensor[(16, 11, 11, 672), float16] {
    nn.conv2d(%p0727, %p1568, padding=[1, 1, 1, 1], groups=672, channels=672, kernel_size=[3, 3], data_layout="NHWC", kernel_layout="OHWI", out_dtype="float16") /* ty=Tensor[(16, 11, 11, 672), float16] */
  } /* ty=fn (Tensor[(16, 11, 11, 672), float16], Tensor[(672, 3, 3, 1), float16]) -> Tensor[(16, 11, 11, 672), float16] */;
  %2200 = %2199(%2198, meta[relay.Constant][961] /* ty=Tensor[(672, 3, 3, 1), float16] */) /* ty=Tensor[(16, 11, 11, 672), float16] */;
  %2201 = fn (%p0726: Tensor[(16, 11, 11, 672), float16] /* ty=Tensor[(16, 11, 11, 672), float16] */, %p1567: Tensor[(672, 1, 1, 672), float16] /* ty=Tensor[(672, 1, 1, 672), float16] */, %p2275: Tensor[(672), float16] /* ty=Tensor[(672), float16] */, %p3274: Tensor[(672), float16] /* ty=Tensor[(672), float16] */, Primitive=1) -> Tensor[(16, 11, 11, 672), float16] {
    %2188 = nn.conv2d(%p0726, %p1567, padding=[0, 0, 0, 0], channels=672, kernel_size=[1, 1], data_layout="NHWC", kernel_layout="OHWI", out_dtype="float16") /* ty=Tensor[(16, 11, 11, 672), float16] */;
    %2189 = multiply(%2188, %p2275) /* ty=Tensor[(16, 11, 11, 672), float16] */;
    add(%2189, %p3274) /* ty=Tensor[(16, 11, 11, 672), float16] */
  } /* ty=fn (Tensor[(16, 11, 11, 672), float16], Tensor[(672, 1, 1, 672), float16], Tensor[(672), float16], Tensor[(672), float16]) -> Tensor[(16, 11, 11, 672), float16] */;
  %2202 = %2187(%2186, meta[relay.Constant][953] /* ty=Tensor[(672, 5, 5, 1), float16] */) /* ty=Tensor[(16, 11, 11, 672), float16] */;
  %2203 = %2201(%2200, meta[relay.Constant][962] /* ty=Tensor[(672, 1, 1, 672), float16] */, meta[relay.Constant][963] /* ty=Tensor[(672), float16] */, meta[relay.Constant][964] /* ty=Tensor[(672), float16] */) /* ty=Tensor[(16, 11, 11, 672), float16] */;
  %2204 = fn (%p0721: Tensor[(16, 11, 11, 672), float16] /* ty=Tensor[(16, 11, 11, 672), float16] */, %p1563: Tensor[(672, 1, 1, 672), float16] /* ty=Tensor[(672, 1, 1, 672), float16] */, %p2273: Tensor[(672), float16] /* ty=Tensor[(672), float16] */, %p3272: Tensor[(672), float16] /* ty=Tensor[(672), float16] */, %p476: Tensor[(16, 11, 11, 672), float16] /* ty=Tensor[(16, 11, 11, 672), float16] */, Primitive=1) -> Tensor[(16, 11, 11, 672), float16] {
    %2175 = nn.conv2d(%p0721, %p1563, padding=[0, 0, 0, 0], channels=672, kernel_size=[1, 1], data_layout="NHWC", kernel_layout="OHWI", out_dtype="float16") /* ty=Tensor[(16, 11, 11, 672), float16] */;
    %2176 = multiply(%2175, %p2273) /* ty=Tensor[(16, 11, 11, 672), float16] */;
    %2177 = add(%2176, %p3272) /* ty=Tensor[(16, 11, 11, 672), float16] */;
    add(%2177, %p476) /* ty=Tensor[(16, 11, 11, 672), float16] */
  } /* ty=fn (Tensor[(16, 11, 11, 672), float16], Tensor[(672, 1, 1, 672), float16], Tensor[(672), float16], Tensor[(672), float16], Tensor[(16, 11, 11, 672), float16]) -> Tensor[(16, 11, 11, 672), float16] */;
  %2206 = fn (%p0731: Tensor[(16, 11, 11, 672), float16] /* ty=Tensor[(16, 11, 11, 672), float16] */, %p1571: Tensor[(16, 11, 11, 672), float16] /* ty=Tensor[(16, 11, 11, 672), float16] */, Primitive=1) -> Tensor[(16, 11, 11, 672), float16] {
    %2205 = nn.avg_pool2d(%p0731, pool_size=[3, 3], padding=[1, 1, 1, 1], layout="NHWC", out_layout="NHWC") /* ty=Tensor[(16, 11, 11, 672), float16] */;
    add(%2205, %p1571) /* ty=Tensor[(16, 11, 11, 672), float16] */
  } /* ty=fn (Tensor[(16, 11, 11, 672), float16], Tensor[(16, 11, 11, 672), float16]) -> Tensor[(16, 11, 11, 672), float16] */;
  %2208 = fn (%p0733: Tensor[(16, 11, 11, 672), float16] /* ty=Tensor[(16, 11, 11, 672), float16] */, Primitive=1) -> Tensor[(16, 11, 11, 672), float16] {
    nn.avg_pool2d(%p0733, pool_size=[3, 3], padding=[1, 1, 1, 1], layout="NHWC", out_layout="NHWC") /* ty=Tensor[(16, 11, 11, 672), float16] */
  } /* ty=fn (Tensor[(16, 11, 11, 672), float16]) -> Tensor[(16, 11, 11, 672), float16] */;
  %2209 = %2208(%2162) /* ty=Tensor[(16, 11, 11, 672), float16] */;
  %2210 = fn (%p0732: Tensor[(16, 11, 11, 672), float16] /* ty=Tensor[(16, 11, 11, 672), float16] */, %p1572: Tensor[(16, 11, 11, 672), float16] /* ty=Tensor[(16, 11, 11, 672), float16] */, Primitive=1) -> Tensor[(16, 11, 11, 672), float16] {
    %2207 = nn.avg_pool2d(%p0732, pool_size=[3, 3], padding=[1, 1, 1, 1], layout="NHWC", out_layout="NHWC") /* ty=Tensor[(16, 11, 11, 672), float16] */;
    add(%2207, %p1572) /* ty=Tensor[(16, 11, 11, 672), float16] */
  } /* ty=fn (Tensor[(16, 11, 11, 672), float16], Tensor[(16, 11, 11, 672), float16]) -> Tensor[(16, 11, 11, 672), float16] */;
  %2217 = fn (%p0738: Tensor[(16, 11, 11, 672), float16] /* ty=Tensor[(16, 11, 11, 672), float16] */, Primitive=1) -> Tensor[(16, 11, 11, 672), float16] {
    nn.relu(%p0738) /* ty=Tensor[(16, 11, 11, 672), float16] */
  } /* ty=fn (Tensor[(16, 11, 11, 672), float16]) -> Tensor[(16, 11, 11, 672), float16] */;
  %2218 = %2217(%2149) /* ty=Tensor[(16, 11, 11, 672), float16] */;
  %2219 = fn (%p0737: Tensor[(16, 11, 11, 672), float16] /* ty=Tensor[(16, 11, 11, 672), float16] */, %p1576: Tensor[(672, 3, 3, 1), float16] /* ty=Tensor[(672, 3, 3, 1), float16] */, Primitive=1) -> Tensor[(16, 11, 11, 672), float16] {
    nn.conv2d(%p0737, %p1576, padding=[1, 1, 1, 1], groups=672, channels=672, kernel_size=[3, 3], data_layout="NHWC", kernel_layout="OHWI", out_dtype="float16") /* ty=Tensor[(16, 11, 11, 672), float16] */
  } /* ty=fn (Tensor[(16, 11, 11, 672), float16], Tensor[(672, 3, 3, 1), float16]) -> Tensor[(16, 11, 11, 672), float16] */;
  %2220 = %2219(%2218, meta[relay.Constant][965] /* ty=Tensor[(672, 3, 3, 1), float16] */) /* ty=Tensor[(16, 11, 11, 672), float16] */;
  %2221 = fn (%p0736: Tensor[(16, 11, 11, 672), float16] /* ty=Tensor[(16, 11, 11, 672), float16] */, %p1575: Tensor[(672, 1, 1, 672), float16] /* ty=Tensor[(672, 1, 1, 672), float16] */, %p2278: Tensor[(672), float16] /* ty=Tensor[(672), float16] */, %p3277: Tensor[(672), float16] /* ty=Tensor[(672), float16] */, Primitive=1) -> Tensor[(16, 11, 11, 672), float16] {
    %2214 = nn.conv2d(%p0736, %p1575, padding=[0, 0, 0, 0], channels=672, kernel_size=[1, 1], data_layout="NHWC", kernel_layout="OHWI", out_dtype="float16") /* ty=Tensor[(16, 11, 11, 672), float16] */;
    %2215 = multiply(%2214, %p2278) /* ty=Tensor[(16, 11, 11, 672), float16] */;
    %2216 = add(%2215, %p3277) /* ty=Tensor[(16, 11, 11, 672), float16] */;
    nn.relu(%2216) /* ty=Tensor[(16, 11, 11, 672), float16] */
  } /* ty=fn (Tensor[(16, 11, 11, 672), float16], Tensor[(672, 1, 1, 672), float16], Tensor[(672), float16], Tensor[(672), float16]) -> Tensor[(16, 11, 11, 672), float16] */;
  %2222 = %2221(%2220, meta[relay.Constant][966] /* ty=Tensor[(672, 1, 1, 672), float16] */, meta[relay.Constant][967] /* ty=Tensor[(672), float16] */, meta[relay.Constant][968] /* ty=Tensor[(672), float16] */) /* ty=Tensor[(16, 11, 11, 672), float16] */;
  %2223 = fn (%p0735: Tensor[(16, 11, 11, 672), float16] /* ty=Tensor[(16, 11, 11, 672), float16] */, %p1574: Tensor[(672, 3, 3, 1), float16] /* ty=Tensor[(672, 3, 3, 1), float16] */, Primitive=1) -> Tensor[(16, 11, 11, 672), float16] {
    nn.conv2d(%p0735, %p1574, padding=[1, 1, 1, 1], groups=672, channels=672, kernel_size=[3, 3], data_layout="NHWC", kernel_layout="OHWI", out_dtype="float16") /* ty=Tensor[(16, 11, 11, 672), float16] */
  } /* ty=fn (Tensor[(16, 11, 11, 672), float16], Tensor[(672, 3, 3, 1), float16]) -> Tensor[(16, 11, 11, 672), float16] */;
  %2224 = %2223(%2222, meta[relay.Constant][969] /* ty=Tensor[(672, 3, 3, 1), float16] */) /* ty=Tensor[(16, 11, 11, 672), float16] */;
  %2225 = fn (%p0734: Tensor[(16, 11, 11, 672), float16] /* ty=Tensor[(16, 11, 11, 672), float16] */, %p1573: Tensor[(672, 1, 1, 672), float16] /* ty=Tensor[(672, 1, 1, 672), float16] */, %p2277: Tensor[(672), float16] /* ty=Tensor[(672), float16] */, %p3276: Tensor[(672), float16] /* ty=Tensor[(672), float16] */, %p477: Tensor[(16, 11, 11, 672), float16] /* ty=Tensor[(16, 11, 11, 672), float16] */, Primitive=1) -> Tensor[(16, 11, 11, 672), float16] {
    %2211 = nn.conv2d(%p0734, %p1573, padding=[0, 0, 0, 0], channels=672, kernel_size=[1, 1], data_layout="NHWC", kernel_layout="OHWI", out_dtype="float16") /* ty=Tensor[(16, 11, 11, 672), float16] */;
    %2212 = multiply(%2211, %p2277) /* ty=Tensor[(16, 11, 11, 672), float16] */;
    %2213 = add(%2212, %p3276) /* ty=Tensor[(16, 11, 11, 672), float16] */;
    add(%2213, %p477) /* ty=Tensor[(16, 11, 11, 672), float16] */
  } /* ty=fn (Tensor[(16, 11, 11, 672), float16], Tensor[(672, 1, 1, 672), float16], Tensor[(672), float16], Tensor[(672), float16], Tensor[(16, 11, 11, 672), float16]) -> Tensor[(16, 11, 11, 672), float16] */;
  %2226 = %2174(%2172, meta[relay.Constant][938] /* ty=Tensor[(672, 1, 1, 672), float16] */, meta[relay.Constant][939] /* ty=Tensor[(672), float16] */, meta[relay.Constant][940] /* ty=Tensor[(672), float16] */, %2173) /* ty=Tensor[(16, 11, 11, 672), float16] */;
  %2227 = %2204(%2202, meta[relay.Constant][954] /* ty=Tensor[(672, 1, 1, 672), float16] */, meta[relay.Constant][955] /* ty=Tensor[(672), float16] */, meta[relay.Constant][956] /* ty=Tensor[(672), float16] */, %2203) /* ty=Tensor[(16, 11, 11, 672), float16] */;
  %2228 = %2206(%2149, %2162) /* ty=Tensor[(16, 11, 11, 672), float16] */;
  %2229 = %2210(%2162, %2209) /* ty=Tensor[(16, 11, 11, 672), float16] */;
  %2230 = %2225(%2224, meta[relay.Constant][970] /* ty=Tensor[(672, 1, 1, 672), float16] */, meta[relay.Constant][971] /* ty=Tensor[(672), float16] */, meta[relay.Constant][972] /* ty=Tensor[(672), float16] */, %2149) /* ty=Tensor[(16, 11, 11, 672), float16] */;
  %2231 = fn (%p0706: Tensor[(16, 11, 11, 672), float16] /* ty=Tensor[(16, 11, 11, 672), float16] */, %p1552: Tensor[(16, 11, 11, 672), float16] /* ty=Tensor[(16, 11, 11, 672), float16] */, %p2266: Tensor[(16, 11, 11, 672), float16] /* ty=Tensor[(16, 11, 11, 672), float16] */, %p3265: Tensor[(16, 11, 11, 672), float16] /* ty=Tensor[(16, 11, 11, 672), float16] */, %p474: Tensor[(16, 11, 11, 672), float16] /* ty=Tensor[(16, 11, 11, 672), float16] */, %p517: Tensor[(16, 11, 11, 672), float16] /* ty=Tensor[(16, 11, 11, 672), float16] */, Primitive=1) -> Tensor[(16, 11, 11, 4032), float16] {
    %2131 = (%p0706, %p1552, %p2266, %p3265, %p474, %p517) /* ty=(Tensor[(16, 11, 11, 672), float16], Tensor[(16, 11, 11, 672), float16], Tensor[(16, 11, 11, 672), float16], Tensor[(16, 11, 11, 672), float16], Tensor[(16, 11, 11, 672), float16], Tensor[(16, 11, 11, 672), float16]) span=aten::cat_24:0:0 */;
    %2132 = concatenate(%2131, axis=3) /* ty=Tensor[(16, 11, 11, 4032), float16] */;
    nn.relu(%2132) /* ty=Tensor[(16, 11, 11, 4032), float16] */
  } /* ty=fn (Tensor[(16, 11, 11, 672), float16], Tensor[(16, 11, 11, 672), float16], Tensor[(16, 11, 11, 672), float16], Tensor[(16, 11, 11, 672), float16], Tensor[(16, 11, 11, 672), float16], Tensor[(16, 11, 11, 672), float16]) -> Tensor[(16, 11, 11, 4032), float16] */;
  %2232 = %2231(%2162, %2226, %2227, %2228, %2229, %2230) /* ty=Tensor[(16, 11, 11, 4032), float16] */;
  %2233 = fn (%p0705: Tensor[(16, 11, 11, 4032), float16] /* ty=Tensor[(16, 11, 11, 4032), float16] */, %p1551: Tensor[(672, 1, 1, 4032), float16] /* ty=Tensor[(672, 1, 1, 4032), float16] */, %p2265: Tensor[(672), float16] /* ty=Tensor[(672), float16] */, %p3264: Tensor[(672), float16] /* ty=Tensor[(672), float16] */, Primitive=1) -> Tensor[(16, 11, 11, 672), float16] {
    %2129 = nn.conv2d(%p0705, %p1551, padding=[0, 0, 0, 0], channels=672, kernel_size=[1, 1], data_layout="NHWC", kernel_layout="OHWI", out_dtype="float16") /* ty=Tensor[(16, 11, 11, 672), float16] */;
    %2130 = multiply(%2129, %p2265) /* ty=Tensor[(16, 11, 11, 672), float16] */;
    add(%2130, %p3264) /* ty=Tensor[(16, 11, 11, 672), float16] */
  } /* ty=fn (Tensor[(16, 11, 11, 4032), float16], Tensor[(672, 1, 1, 4032), float16], Tensor[(672), float16], Tensor[(672), float16]) -> Tensor[(16, 11, 11, 672), float16] */;
  %2234 = %2233(%2232, meta[relay.Constant][973] /* ty=Tensor[(672, 1, 1, 4032), float16] */, meta[relay.Constant][974] /* ty=Tensor[(672), float16] */, meta[relay.Constant][975] /* ty=Tensor[(672), float16] */) /* ty=Tensor[(16, 11, 11, 672), float16] */;
  %2235 = fn (%p0704: Tensor[(16, 11, 11, 672), float16] /* ty=Tensor[(16, 11, 11, 672), float16] */, Primitive=1) -> Tensor[(16, 11, 11, 672), float16] {
    nn.relu(%p0704) /* ty=Tensor[(16, 11, 11, 672), float16] */
  } /* ty=fn (Tensor[(16, 11, 11, 672), float16]) -> Tensor[(16, 11, 11, 672), float16] */;
  %2236 = %2235(%2234) /* ty=Tensor[(16, 11, 11, 672), float16] */;
  %2237 = fn (%p0703: Tensor[(16, 11, 11, 672), float16] /* ty=Tensor[(16, 11, 11, 672), float16] */, %p1550: Tensor[(672, 5, 5, 1), float16] /* ty=Tensor[(672, 5, 5, 1), float16] */, Primitive=1) -> Tensor[(16, 11, 11, 672), float16] {
    nn.conv2d(%p0703, %p1550, padding=[2, 2, 2, 2], groups=672, channels=672, kernel_size=[5, 5], data_layout="NHWC", kernel_layout="OHWI", out_dtype="float16") /* ty=Tensor[(16, 11, 11, 672), float16] */
  } /* ty=fn (Tensor[(16, 11, 11, 672), float16], Tensor[(672, 5, 5, 1), float16]) -> Tensor[(16, 11, 11, 672), float16] */;
  %2238 = %2237(%2236, meta[relay.Constant][976] /* ty=Tensor[(672, 5, 5, 1), float16] */) /* ty=Tensor[(16, 11, 11, 672), float16] */;
  %2239 = fn (%p0702: Tensor[(16, 11, 11, 672), float16] /* ty=Tensor[(16, 11, 11, 672), float16] */, %p1549: Tensor[(672, 1, 1, 672), float16] /* ty=Tensor[(672, 1, 1, 672), float16] */, %p2264: Tensor[(672), float16] /* ty=Tensor[(672), float16] */, %p3263: Tensor[(672), float16] /* ty=Tensor[(672), float16] */, Primitive=1) -> Tensor[(16, 11, 11, 672), float16] {
    %2126 = nn.conv2d(%p0702, %p1549, padding=[0, 0, 0, 0], channels=672, kernel_size=[1, 1], data_layout="NHWC", kernel_layout="OHWI", out_dtype="float16") /* ty=Tensor[(16, 11, 11, 672), float16] */;
    %2127 = multiply(%2126, %p2264) /* ty=Tensor[(16, 11, 11, 672), float16] */;
    %2128 = add(%2127, %p3263) /* ty=Tensor[(16, 11, 11, 672), float16] */;
    nn.relu(%2128) /* ty=Tensor[(16, 11, 11, 672), float16] */
  } /* ty=fn (Tensor[(16, 11, 11, 672), float16], Tensor[(672, 1, 1, 672), float16], Tensor[(672), float16], Tensor[(672), float16]) -> Tensor[(16, 11, 11, 672), float16] */;
  %2240 = %2239(%2238, meta[relay.Constant][977] /* ty=Tensor[(672, 1, 1, 672), float16] */, meta[relay.Constant][978] /* ty=Tensor[(672), float16] */, meta[relay.Constant][979] /* ty=Tensor[(672), float16] */) /* ty=Tensor[(16, 11, 11, 672), float16] */;
  %2241 = fn (%p0701: Tensor[(16, 11, 11, 672), float16] /* ty=Tensor[(16, 11, 11, 672), float16] */, %p1548: Tensor[(672, 5, 5, 1), float16] /* ty=Tensor[(672, 5, 5, 1), float16] */, Primitive=1) -> Tensor[(16, 11, 11, 672), float16] {
    nn.conv2d(%p0701, %p1548, padding=[2, 2, 2, 2], groups=672, channels=672, kernel_size=[5, 5], data_layout="NHWC", kernel_layout="OHWI", out_dtype="float16") /* ty=Tensor[(16, 11, 11, 672), float16] */
  } /* ty=fn (Tensor[(16, 11, 11, 672), float16], Tensor[(672, 5, 5, 1), float16]) -> Tensor[(16, 11, 11, 672), float16] */;
  %2247 = %2122(%2121, meta[relay.Constant][924] /* ty=Tensor[(672, 1, 1, 4032), float16] */, meta[relay.Constant][925] /* ty=Tensor[(672), float16] */, meta[relay.Constant][926] /* ty=Tensor[(672), float16] */) /* ty=Tensor[(16, 11, 11, 672), float16] */;
  %2248 = fn (%p0743: Tensor[(16, 11, 11, 672), float16] /* ty=Tensor[(16, 11, 11, 672), float16] */, Primitive=1) -> Tensor[(16, 11, 11, 672), float16] {
    nn.relu(%p0743) /* ty=Tensor[(16, 11, 11, 672), float16] */
  } /* ty=fn (Tensor[(16, 11, 11, 672), float16]) -> Tensor[(16, 11, 11, 672), float16] */;
  %2249 = %2248(%2247) /* ty=Tensor[(16, 11, 11, 672), float16] */;
  %2250 = fn (%p0742: Tensor[(16, 11, 11, 672), float16] /* ty=Tensor[(16, 11, 11, 672), float16] */, %p1580: Tensor[(672, 3, 3, 1), float16] /* ty=Tensor[(672, 3, 3, 1), float16] */, Primitive=1) -> Tensor[(16, 11, 11, 672), float16] {
    nn.conv2d(%p0742, %p1580, padding=[1, 1, 1, 1], groups=672, channels=672, kernel_size=[3, 3], data_layout="NHWC", kernel_layout="OHWI", out_dtype="float16") /* ty=Tensor[(16, 11, 11, 672), float16] */
  } /* ty=fn (Tensor[(16, 11, 11, 672), float16], Tensor[(672, 3, 3, 1), float16]) -> Tensor[(16, 11, 11, 672), float16] */;
  %2251 = %2250(%2249, meta[relay.Constant][984] /* ty=Tensor[(672, 3, 3, 1), float16] */) /* ty=Tensor[(16, 11, 11, 672), float16] */;
  %2252 = fn (%p0741: Tensor[(16, 11, 11, 672), float16] /* ty=Tensor[(16, 11, 11, 672), float16] */, %p1579: Tensor[(672, 1, 1, 672), float16] /* ty=Tensor[(672, 1, 1, 672), float16] */, %p2280: Tensor[(672), float16] /* ty=Tensor[(672), float16] */, %p3279: Tensor[(672), float16] /* ty=Tensor[(672), float16] */, Primitive=1) -> Tensor[(16, 11, 11, 672), float16] {
    %2244 = nn.conv2d(%p0741, %p1579, padding=[0, 0, 0, 0], channels=672, kernel_size=[1, 1], data_layout="NHWC", kernel_layout="OHWI", out_dtype="float16") /* ty=Tensor[(16, 11, 11, 672), float16] */;
    %2245 = multiply(%2244, %p2280) /* ty=Tensor[(16, 11, 11, 672), float16] */;
    %2246 = add(%2245, %p3279) /* ty=Tensor[(16, 11, 11, 672), float16] */;
    nn.relu(%2246) /* ty=Tensor[(16, 11, 11, 672), float16] */
  } /* ty=fn (Tensor[(16, 11, 11, 672), float16], Tensor[(672, 1, 1, 672), float16], Tensor[(672), float16], Tensor[(672), float16]) -> Tensor[(16, 11, 11, 672), float16] */;
  %2253 = %2252(%2251, meta[relay.Constant][985] /* ty=Tensor[(672, 1, 1, 672), float16] */, meta[relay.Constant][986] /* ty=Tensor[(672), float16] */, meta[relay.Constant][987] /* ty=Tensor[(672), float16] */) /* ty=Tensor[(16, 11, 11, 672), float16] */;
  %2254 = fn (%p0740: Tensor[(16, 11, 11, 672), float16] /* ty=Tensor[(16, 11, 11, 672), float16] */, %p1578: Tensor[(672, 3, 3, 1), float16] /* ty=Tensor[(672, 3, 3, 1), float16] */, Primitive=1) -> Tensor[(16, 11, 11, 672), float16] {
    nn.conv2d(%p0740, %p1578, padding=[1, 1, 1, 1], groups=672, channels=672, kernel_size=[3, 3], data_layout="NHWC", kernel_layout="OHWI", out_dtype="float16") /* ty=Tensor[(16, 11, 11, 672), float16] */
  } /* ty=fn (Tensor[(16, 11, 11, 672), float16], Tensor[(672, 3, 3, 1), float16]) -> Tensor[(16, 11, 11, 672), float16] */;
  %2255 = %2254(%2253, meta[relay.Constant][988] /* ty=Tensor[(672, 3, 3, 1), float16] */) /* ty=Tensor[(16, 11, 11, 672), float16] */;
  %2256 = fn (%p0739: Tensor[(16, 11, 11, 672), float16] /* ty=Tensor[(16, 11, 11, 672), float16] */, %p1577: Tensor[(672, 1, 1, 672), float16] /* ty=Tensor[(672, 1, 1, 672), float16] */, %p2279: Tensor[(672), float16] /* ty=Tensor[(672), float16] */, %p3278: Tensor[(672), float16] /* ty=Tensor[(672), float16] */, Primitive=1) -> Tensor[(16, 11, 11, 672), float16] {
    %2242 = nn.conv2d(%p0739, %p1577, padding=[0, 0, 0, 0], channels=672, kernel_size=[1, 1], data_layout="NHWC", kernel_layout="OHWI", out_dtype="float16") /* ty=Tensor[(16, 11, 11, 672), float16] */;
    %2243 = multiply(%2242, %p2279) /* ty=Tensor[(16, 11, 11, 672), float16] */;
    add(%2243, %p3278) /* ty=Tensor[(16, 11, 11, 672), float16] */
  } /* ty=fn (Tensor[(16, 11, 11, 672), float16], Tensor[(672, 1, 1, 672), float16], Tensor[(672), float16], Tensor[(672), float16]) -> Tensor[(16, 11, 11, 672), float16] */;
  %2257 = %2241(%2240, meta[relay.Constant][980] /* ty=Tensor[(672, 5, 5, 1), float16] */) /* ty=Tensor[(16, 11, 11, 672), float16] */;
  %2258 = %2256(%2255, meta[relay.Constant][989] /* ty=Tensor[(672, 1, 1, 672), float16] */, meta[relay.Constant][990] /* ty=Tensor[(672), float16] */, meta[relay.Constant][991] /* ty=Tensor[(672), float16] */) /* ty=Tensor[(16, 11, 11, 672), float16] */;
  %2259 = fn (%p0700: Tensor[(16, 11, 11, 672), float16] /* ty=Tensor[(16, 11, 11, 672), float16] */, %p1547: Tensor[(672, 1, 1, 672), float16] /* ty=Tensor[(672, 1, 1, 672), float16] */, %p2263: Tensor[(672), float16] /* ty=Tensor[(672), float16] */, %p3262: Tensor[(672), float16] /* ty=Tensor[(672), float16] */, %p473: Tensor[(16, 11, 11, 672), float16] /* ty=Tensor[(16, 11, 11, 672), float16] */, Primitive=1) -> Tensor[(16, 11, 11, 672), float16] {
    %2123 = nn.conv2d(%p0700, %p1547, padding=[0, 0, 0, 0], channels=672, kernel_size=[1, 1], data_layout="NHWC", kernel_layout="OHWI", out_dtype="float16") /* ty=Tensor[(16, 11, 11, 672), float16] */;
    %2124 = multiply(%2123, %p2263) /* ty=Tensor[(16, 11, 11, 672), float16] */;
    %2125 = add(%2124, %p3262) /* ty=Tensor[(16, 11, 11, 672), float16] */;
    add(%2125, %p473) /* ty=Tensor[(16, 11, 11, 672), float16] */
  } /* ty=fn (Tensor[(16, 11, 11, 672), float16], Tensor[(672, 1, 1, 672), float16], Tensor[(672), float16], Tensor[(672), float16], Tensor[(16, 11, 11, 672), float16]) -> Tensor[(16, 11, 11, 672), float16] */;
  %2266 = fn (%p0748: Tensor[(16, 11, 11, 672), float16] /* ty=Tensor[(16, 11, 11, 672), float16] */, Primitive=1) -> Tensor[(16, 11, 11, 672), float16] {
    nn.relu(%p0748) /* ty=Tensor[(16, 11, 11, 672), float16] */
  } /* ty=fn (Tensor[(16, 11, 11, 672), float16]) -> Tensor[(16, 11, 11, 672), float16] */;
  %2267 = %2266(%2247) /* ty=Tensor[(16, 11, 11, 672), float16] */;
  %2268 = fn (%p0747: Tensor[(16, 11, 11, 672), float16] /* ty=Tensor[(16, 11, 11, 672), float16] */, %p1584: Tensor[(672, 5, 5, 1), float16] /* ty=Tensor[(672, 5, 5, 1), float16] */, Primitive=1) -> Tensor[(16, 11, 11, 672), float16] {
    nn.conv2d(%p0747, %p1584, padding=[2, 2, 2, 2], groups=672, channels=672, kernel_size=[5, 5], data_layout="NHWC", kernel_layout="OHWI", out_dtype="float16") /* ty=Tensor[(16, 11, 11, 672), float16] */
  } /* ty=fn (Tensor[(16, 11, 11, 672), float16], Tensor[(672, 5, 5, 1), float16]) -> Tensor[(16, 11, 11, 672), float16] */;
  %2269 = %2268(%2267, meta[relay.Constant][992] /* ty=Tensor[(672, 5, 5, 1), float16] */) /* ty=Tensor[(16, 11, 11, 672), float16] */;
  %2270 = fn (%p0746: Tensor[(16, 11, 11, 672), float16] /* ty=Tensor[(16, 11, 11, 672), float16] */, %p1583: Tensor[(672, 1, 1, 672), float16] /* ty=Tensor[(672, 1, 1, 672), float16] */, %p2282: Tensor[(672), float16] /* ty=Tensor[(672), float16] */, %p3281: Tensor[(672), float16] /* ty=Tensor[(672), float16] */, Primitive=1) -> Tensor[(16, 11, 11, 672), float16] {
    %2263 = nn.conv2d(%p0746, %p1583, padding=[0, 0, 0, 0], channels=672, kernel_size=[1, 1], data_layout="NHWC", kernel_layout="OHWI", out_dtype="float16") /* ty=Tensor[(16, 11, 11, 672), float16] */;
    %2264 = multiply(%2263, %p2282) /* ty=Tensor[(16, 11, 11, 672), float16] */;
    %2265 = add(%2264, %p3281) /* ty=Tensor[(16, 11, 11, 672), float16] */;
    nn.relu(%2265) /* ty=Tensor[(16, 11, 11, 672), float16] */
  } /* ty=fn (Tensor[(16, 11, 11, 672), float16], Tensor[(672, 1, 1, 672), float16], Tensor[(672), float16], Tensor[(672), float16]) -> Tensor[(16, 11, 11, 672), float16] */;
  %2271 = %2270(%2269, meta[relay.Constant][993] /* ty=Tensor[(672, 1, 1, 672), float16] */, meta[relay.Constant][994] /* ty=Tensor[(672), float16] */, meta[relay.Constant][995] /* ty=Tensor[(672), float16] */) /* ty=Tensor[(16, 11, 11, 672), float16] */;
  %2272 = fn (%p0745: Tensor[(16, 11, 11, 672), float16] /* ty=Tensor[(16, 11, 11, 672), float16] */, %p1582: Tensor[(672, 5, 5, 1), float16] /* ty=Tensor[(672, 5, 5, 1), float16] */, Primitive=1) -> Tensor[(16, 11, 11, 672), float16] {
    nn.conv2d(%p0745, %p1582, padding=[2, 2, 2, 2], groups=672, channels=672, kernel_size=[5, 5], data_layout="NHWC", kernel_layout="OHWI", out_dtype="float16") /* ty=Tensor[(16, 11, 11, 672), float16] */
  } /* ty=fn (Tensor[(16, 11, 11, 672), float16], Tensor[(672, 5, 5, 1), float16]) -> Tensor[(16, 11, 11, 672), float16] */;
  %2278 = fn (%p0753: Tensor[(16, 11, 11, 672), float16] /* ty=Tensor[(16, 11, 11, 672), float16] */, Primitive=1) -> Tensor[(16, 11, 11, 672), float16] {
    nn.relu(%p0753) /* ty=Tensor[(16, 11, 11, 672), float16] */
  } /* ty=fn (Tensor[(16, 11, 11, 672), float16]) -> Tensor[(16, 11, 11, 672), float16] */;
  %2279 = %2278(%2247) /* ty=Tensor[(16, 11, 11, 672), float16] */;
  %2280 = fn (%p0752: Tensor[(16, 11, 11, 672), float16] /* ty=Tensor[(16, 11, 11, 672), float16] */, %p1588: Tensor[(672, 3, 3, 1), float16] /* ty=Tensor[(672, 3, 3, 1), float16] */, Primitive=1) -> Tensor[(16, 11, 11, 672), float16] {
    nn.conv2d(%p0752, %p1588, padding=[1, 1, 1, 1], groups=672, channels=672, kernel_size=[3, 3], data_layout="NHWC", kernel_layout="OHWI", out_dtype="float16") /* ty=Tensor[(16, 11, 11, 672), float16] */
  } /* ty=fn (Tensor[(16, 11, 11, 672), float16], Tensor[(672, 3, 3, 1), float16]) -> Tensor[(16, 11, 11, 672), float16] */;
  %2281 = %2280(%2279, meta[relay.Constant][1000] /* ty=Tensor[(672, 3, 3, 1), float16] */) /* ty=Tensor[(16, 11, 11, 672), float16] */;
  %2282 = fn (%p0751: Tensor[(16, 11, 11, 672), float16] /* ty=Tensor[(16, 11, 11, 672), float16] */, %p1587: Tensor[(672, 1, 1, 672), float16] /* ty=Tensor[(672, 1, 1, 672), float16] */, %p2284: Tensor[(672), float16] /* ty=Tensor[(672), float16] */, %p3283: Tensor[(672), float16] /* ty=Tensor[(672), float16] */, Primitive=1) -> Tensor[(16, 11, 11, 672), float16] {
    %2275 = nn.conv2d(%p0751, %p1587, padding=[0, 0, 0, 0], channels=672, kernel_size=[1, 1], data_layout="NHWC", kernel_layout="OHWI", out_dtype="float16") /* ty=Tensor[(16, 11, 11, 672), float16] */;
    %2276 = multiply(%2275, %p2284) /* ty=Tensor[(16, 11, 11, 672), float16] */;
    %2277 = add(%2276, %p3283) /* ty=Tensor[(16, 11, 11, 672), float16] */;
    nn.relu(%2277) /* ty=Tensor[(16, 11, 11, 672), float16] */
  } /* ty=fn (Tensor[(16, 11, 11, 672), float16], Tensor[(672, 1, 1, 672), float16], Tensor[(672), float16], Tensor[(672), float16]) -> Tensor[(16, 11, 11, 672), float16] */;
  %2283 = %2282(%2281, meta[relay.Constant][1001] /* ty=Tensor[(672, 1, 1, 672), float16] */, meta[relay.Constant][1002] /* ty=Tensor[(672), float16] */, meta[relay.Constant][1003] /* ty=Tensor[(672), float16] */) /* ty=Tensor[(16, 11, 11, 672), float16] */;
  %2284 = fn (%p0750: Tensor[(16, 11, 11, 672), float16] /* ty=Tensor[(16, 11, 11, 672), float16] */, %p1586: Tensor[(672, 3, 3, 1), float16] /* ty=Tensor[(672, 3, 3, 1), float16] */, Primitive=1) -> Tensor[(16, 11, 11, 672), float16] {
    nn.conv2d(%p0750, %p1586, padding=[1, 1, 1, 1], groups=672, channels=672, kernel_size=[3, 3], data_layout="NHWC", kernel_layout="OHWI", out_dtype="float16") /* ty=Tensor[(16, 11, 11, 672), float16] */
  } /* ty=fn (Tensor[(16, 11, 11, 672), float16], Tensor[(672, 3, 3, 1), float16]) -> Tensor[(16, 11, 11, 672), float16] */;
  %2285 = %2284(%2283, meta[relay.Constant][1004] /* ty=Tensor[(672, 3, 3, 1), float16] */) /* ty=Tensor[(16, 11, 11, 672), float16] */;
  %2286 = fn (%p0749: Tensor[(16, 11, 11, 672), float16] /* ty=Tensor[(16, 11, 11, 672), float16] */, %p1585: Tensor[(672, 1, 1, 672), float16] /* ty=Tensor[(672, 1, 1, 672), float16] */, %p2283: Tensor[(672), float16] /* ty=Tensor[(672), float16] */, %p3282: Tensor[(672), float16] /* ty=Tensor[(672), float16] */, Primitive=1) -> Tensor[(16, 11, 11, 672), float16] {
    %2273 = nn.conv2d(%p0749, %p1585, padding=[0, 0, 0, 0], channels=672, kernel_size=[1, 1], data_layout="NHWC", kernel_layout="OHWI", out_dtype="float16") /* ty=Tensor[(16, 11, 11, 672), float16] */;
    %2274 = multiply(%2273, %p2283) /* ty=Tensor[(16, 11, 11, 672), float16] */;
    add(%2274, %p3282) /* ty=Tensor[(16, 11, 11, 672), float16] */
  } /* ty=fn (Tensor[(16, 11, 11, 672), float16], Tensor[(672, 1, 1, 672), float16], Tensor[(672), float16], Tensor[(672), float16]) -> Tensor[(16, 11, 11, 672), float16] */;
  %2287 = %2272(%2271, meta[relay.Constant][996] /* ty=Tensor[(672, 5, 5, 1), float16] */) /* ty=Tensor[(16, 11, 11, 672), float16] */;
  %2288 = %2286(%2285, meta[relay.Constant][1005] /* ty=Tensor[(672, 1, 1, 672), float16] */, meta[relay.Constant][1006] /* ty=Tensor[(672), float16] */, meta[relay.Constant][1007] /* ty=Tensor[(672), float16] */) /* ty=Tensor[(16, 11, 11, 672), float16] */;
  %2289 = fn (%p0744: Tensor[(16, 11, 11, 672), float16] /* ty=Tensor[(16, 11, 11, 672), float16] */, %p1581: Tensor[(672, 1, 1, 672), float16] /* ty=Tensor[(672, 1, 1, 672), float16] */, %p2281: Tensor[(672), float16] /* ty=Tensor[(672), float16] */, %p3280: Tensor[(672), float16] /* ty=Tensor[(672), float16] */, %p478: Tensor[(16, 11, 11, 672), float16] /* ty=Tensor[(16, 11, 11, 672), float16] */, Primitive=1) -> Tensor[(16, 11, 11, 672), float16] {
    %2260 = nn.conv2d(%p0744, %p1581, padding=[0, 0, 0, 0], channels=672, kernel_size=[1, 1], data_layout="NHWC", kernel_layout="OHWI", out_dtype="float16") /* ty=Tensor[(16, 11, 11, 672), float16] */;
    %2261 = multiply(%2260, %p2281) /* ty=Tensor[(16, 11, 11, 672), float16] */;
    %2262 = add(%2261, %p3280) /* ty=Tensor[(16, 11, 11, 672), float16] */;
    add(%2262, %p478) /* ty=Tensor[(16, 11, 11, 672), float16] */
  } /* ty=fn (Tensor[(16, 11, 11, 672), float16], Tensor[(672, 1, 1, 672), float16], Tensor[(672), float16], Tensor[(672), float16], Tensor[(16, 11, 11, 672), float16]) -> Tensor[(16, 11, 11, 672), float16] */;
  %2291 = fn (%p0754: Tensor[(16, 11, 11, 672), float16] /* ty=Tensor[(16, 11, 11, 672), float16] */, %p1589: Tensor[(16, 11, 11, 672), float16] /* ty=Tensor[(16, 11, 11, 672), float16] */, Primitive=1) -> Tensor[(16, 11, 11, 672), float16] {
    %2290 = nn.avg_pool2d(%p0754, pool_size=[3, 3], padding=[1, 1, 1, 1], layout="NHWC", out_layout="NHWC") /* ty=Tensor[(16, 11, 11, 672), float16] */;
    add(%2290, %p1589) /* ty=Tensor[(16, 11, 11, 672), float16] */
  } /* ty=fn (Tensor[(16, 11, 11, 672), float16], Tensor[(16, 11, 11, 672), float16]) -> Tensor[(16, 11, 11, 672), float16] */;
  %2293 = fn (%p0756: Tensor[(16, 11, 11, 672), float16] /* ty=Tensor[(16, 11, 11, 672), float16] */, Primitive=1) -> Tensor[(16, 11, 11, 672), float16] {
    nn.avg_pool2d(%p0756, pool_size=[3, 3], padding=[1, 1, 1, 1], layout="NHWC", out_layout="NHWC") /* ty=Tensor[(16, 11, 11, 672), float16] */
  } /* ty=fn (Tensor[(16, 11, 11, 672), float16]) -> Tensor[(16, 11, 11, 672), float16] */;
  %2294 = %2293(%2247) /* ty=Tensor[(16, 11, 11, 672), float16] */;
  %2295 = fn (%p0755: Tensor[(16, 11, 11, 672), float16] /* ty=Tensor[(16, 11, 11, 672), float16] */, %p1590: Tensor[(16, 11, 11, 672), float16] /* ty=Tensor[(16, 11, 11, 672), float16] */, Primitive=1) -> Tensor[(16, 11, 11, 672), float16] {
    %2292 = nn.avg_pool2d(%p0755, pool_size=[3, 3], padding=[1, 1, 1, 1], layout="NHWC", out_layout="NHWC") /* ty=Tensor[(16, 11, 11, 672), float16] */;
    add(%2292, %p1590) /* ty=Tensor[(16, 11, 11, 672), float16] */
  } /* ty=fn (Tensor[(16, 11, 11, 672), float16], Tensor[(16, 11, 11, 672), float16]) -> Tensor[(16, 11, 11, 672), float16] */;
  %2302 = fn (%p0761: Tensor[(16, 11, 11, 672), float16] /* ty=Tensor[(16, 11, 11, 672), float16] */, Primitive=1) -> Tensor[(16, 11, 11, 672), float16] {
    nn.relu(%p0761) /* ty=Tensor[(16, 11, 11, 672), float16] */
  } /* ty=fn (Tensor[(16, 11, 11, 672), float16]) -> Tensor[(16, 11, 11, 672), float16] */;
  %2303 = %2302(%2234) /* ty=Tensor[(16, 11, 11, 672), float16] */;
  %2304 = fn (%p0760: Tensor[(16, 11, 11, 672), float16] /* ty=Tensor[(16, 11, 11, 672), float16] */, %p1594: Tensor[(672, 3, 3, 1), float16] /* ty=Tensor[(672, 3, 3, 1), float16] */, Primitive=1) -> Tensor[(16, 11, 11, 672), float16] {
    nn.conv2d(%p0760, %p1594, padding=[1, 1, 1, 1], groups=672, channels=672, kernel_size=[3, 3], data_layout="NHWC", kernel_layout="OHWI", out_dtype="float16") /* ty=Tensor[(16, 11, 11, 672), float16] */
  } /* ty=fn (Tensor[(16, 11, 11, 672), float16], Tensor[(672, 3, 3, 1), float16]) -> Tensor[(16, 11, 11, 672), float16] */;
  %2305 = %2304(%2303, meta[relay.Constant][1008] /* ty=Tensor[(672, 3, 3, 1), float16] */) /* ty=Tensor[(16, 11, 11, 672), float16] */;
  %2306 = fn (%p0759: Tensor[(16, 11, 11, 672), float16] /* ty=Tensor[(16, 11, 11, 672), float16] */, %p1593: Tensor[(672, 1, 1, 672), float16] /* ty=Tensor[(672, 1, 1, 672), float16] */, %p2286: Tensor[(672), float16] /* ty=Tensor[(672), float16] */, %p3285: Tensor[(672), float16] /* ty=Tensor[(672), float16] */, Primitive=1) -> Tensor[(16, 11, 11, 672), float16] {
    %2299 = nn.conv2d(%p0759, %p1593, padding=[0, 0, 0, 0], channels=672, kernel_size=[1, 1], data_layout="NHWC", kernel_layout="OHWI", out_dtype="float16") /* ty=Tensor[(16, 11, 11, 672), float16] */;
    %2300 = multiply(%2299, %p2286) /* ty=Tensor[(16, 11, 11, 672), float16] */;
    %2301 = add(%2300, %p3285) /* ty=Tensor[(16, 11, 11, 672), float16] */;
    nn.relu(%2301) /* ty=Tensor[(16, 11, 11, 672), float16] */
  } /* ty=fn (Tensor[(16, 11, 11, 672), float16], Tensor[(672, 1, 1, 672), float16], Tensor[(672), float16], Tensor[(672), float16]) -> Tensor[(16, 11, 11, 672), float16] */;
  %2307 = %2306(%2305, meta[relay.Constant][1009] /* ty=Tensor[(672, 1, 1, 672), float16] */, meta[relay.Constant][1010] /* ty=Tensor[(672), float16] */, meta[relay.Constant][1011] /* ty=Tensor[(672), float16] */) /* ty=Tensor[(16, 11, 11, 672), float16] */;
  %2308 = fn (%p0758: Tensor[(16, 11, 11, 672), float16] /* ty=Tensor[(16, 11, 11, 672), float16] */, %p1592: Tensor[(672, 3, 3, 1), float16] /* ty=Tensor[(672, 3, 3, 1), float16] */, Primitive=1) -> Tensor[(16, 11, 11, 672), float16] {
    nn.conv2d(%p0758, %p1592, padding=[1, 1, 1, 1], groups=672, channels=672, kernel_size=[3, 3], data_layout="NHWC", kernel_layout="OHWI", out_dtype="float16") /* ty=Tensor[(16, 11, 11, 672), float16] */
  } /* ty=fn (Tensor[(16, 11, 11, 672), float16], Tensor[(672, 3, 3, 1), float16]) -> Tensor[(16, 11, 11, 672), float16] */;
  %2309 = %2308(%2307, meta[relay.Constant][1012] /* ty=Tensor[(672, 3, 3, 1), float16] */) /* ty=Tensor[(16, 11, 11, 672), float16] */;
  %2310 = fn (%p0757: Tensor[(16, 11, 11, 672), float16] /* ty=Tensor[(16, 11, 11, 672), float16] */, %p1591: Tensor[(672, 1, 1, 672), float16] /* ty=Tensor[(672, 1, 1, 672), float16] */, %p2285: Tensor[(672), float16] /* ty=Tensor[(672), float16] */, %p3284: Tensor[(672), float16] /* ty=Tensor[(672), float16] */, %p479: Tensor[(16, 11, 11, 672), float16] /* ty=Tensor[(16, 11, 11, 672), float16] */, Primitive=1) -> Tensor[(16, 11, 11, 672), float16] {
    %2296 = nn.conv2d(%p0757, %p1591, padding=[0, 0, 0, 0], channels=672, kernel_size=[1, 1], data_layout="NHWC", kernel_layout="OHWI", out_dtype="float16") /* ty=Tensor[(16, 11, 11, 672), float16] */;
    %2297 = multiply(%2296, %p2285) /* ty=Tensor[(16, 11, 11, 672), float16] */;
    %2298 = add(%2297, %p3284) /* ty=Tensor[(16, 11, 11, 672), float16] */;
    add(%2298, %p479) /* ty=Tensor[(16, 11, 11, 672), float16] */
  } /* ty=fn (Tensor[(16, 11, 11, 672), float16], Tensor[(672, 1, 1, 672), float16], Tensor[(672), float16], Tensor[(672), float16], Tensor[(16, 11, 11, 672), float16]) -> Tensor[(16, 11, 11, 672), float16] */;
  %2311 = %2259(%2257, meta[relay.Constant][981] /* ty=Tensor[(672, 1, 1, 672), float16] */, meta[relay.Constant][982] /* ty=Tensor[(672), float16] */, meta[relay.Constant][983] /* ty=Tensor[(672), float16] */, %2258) /* ty=Tensor[(16, 11, 11, 672), float16] */;
  %2312 = %2289(%2287, meta[relay.Constant][997] /* ty=Tensor[(672, 1, 1, 672), float16] */, meta[relay.Constant][998] /* ty=Tensor[(672), float16] */, meta[relay.Constant][999] /* ty=Tensor[(672), float16] */, %2288) /* ty=Tensor[(16, 11, 11, 672), float16] */;
  %2313 = %2291(%2234, %2247) /* ty=Tensor[(16, 11, 11, 672), float16] */;
  %2314 = %2295(%2247, %2294) /* ty=Tensor[(16, 11, 11, 672), float16] */;
  %2315 = %2310(%2309, meta[relay.Constant][1013] /* ty=Tensor[(672, 1, 1, 672), float16] */, meta[relay.Constant][1014] /* ty=Tensor[(672), float16] */, meta[relay.Constant][1015] /* ty=Tensor[(672), float16] */, %2234) /* ty=Tensor[(16, 11, 11, 672), float16] */;
  %2316 = fn (%p03: Tensor[(16, 11, 11, 672), float16] /* ty=Tensor[(16, 11, 11, 672), float16] */, %p11: Tensor[(16, 11, 11, 672), float16] /* ty=Tensor[(16, 11, 11, 672), float16] */, %p21: Tensor[(16, 11, 11, 672), float16] /* ty=Tensor[(16, 11, 11, 672), float16] */, %p3: Tensor[(16, 11, 11, 672), float16] /* ty=Tensor[(16, 11, 11, 672), float16] */, %p4: Tensor[(16, 11, 11, 672), float16] /* ty=Tensor[(16, 11, 11, 672), float16] */, %p5: Tensor[(16, 11, 11, 672), float16] /* ty=Tensor[(16, 11, 11, 672), float16] */, Primitive=1) -> Tensor[(16, 11, 11, 4032), float32] {
    %4 = (%p03, %p11, %p21, %p3, %p4, %p5) /* ty=(Tensor[(16, 11, 11, 672), float16], Tensor[(16, 11, 11, 672), float16], Tensor[(16, 11, 11, 672), float16], Tensor[(16, 11, 11, 672), float16], Tensor[(16, 11, 11, 672), float16], Tensor[(16, 11, 11, 672), float16]) span=aten::cat_25:0:0 */;
    %5 = concatenate(%4, axis=3) /* ty=Tensor[(16, 11, 11, 4032), float16] */;
    %6 = nn.relu(%5) /* ty=Tensor[(16, 11, 11, 4032), float16] */;
    cast(%6, dtype="float32") /* ty=Tensor[(16, 11, 11, 4032), float32] */
  } /* ty=fn (Tensor[(16, 11, 11, 672), float16], Tensor[(16, 11, 11, 672), float16], Tensor[(16, 11, 11, 672), float16], Tensor[(16, 11, 11, 672), float16], Tensor[(16, 11, 11, 672), float16], Tensor[(16, 11, 11, 672), float16]) -> Tensor[(16, 11, 11, 4032), float32] */;
  %2317 = %2316(%2247, %2311, %2312, %2313, %2314, %2315) /* ty=Tensor[(16, 11, 11, 4032), float32] */;
  %2318 = fn (%p02: Tensor[(16, 11, 11, 4032), float32] /* ty=Tensor[(16, 11, 11, 4032), float32] */, Primitive=1) -> Tensor[(16, 1, 1, 4032), float32] {
    nn.adaptive_avg_pool2d(%p02, output_size=[1, 1], layout="NHWC") /* ty=Tensor[(16, 1, 1, 4032), float32] */
  } /* ty=fn (Tensor[(16, 11, 11, 4032), float32]) -> Tensor[(16, 1, 1, 4032), float32] */;
  %2319 = %2318(%2317) /* ty=Tensor[(16, 1, 1, 4032), float32] */;
  %2320 = fn (%p01: Tensor[(16, 1, 1, 4032), float32] /* ty=Tensor[(16, 1, 1, 4032), float32] */, Primitive=1) -> Tensor[(16, 4032), float16] {
    %1 = layout_transform(%p01, src_layout="NHWC", dst_layout="NCHW") /* ty=Tensor[(16, 4032, 1, 1), float32] */;
    %2 = reshape(%1, newshape=[0, -1, 1, 1]) /* ty=Tensor[(16, 4032, 1, 1), float32] */;
    %3 = squeeze(%2, axis=[2, 3]) /* ty=Tensor[(16, 4032), float32] */;
    cast(%3, dtype="float16") /* ty=Tensor[(16, 4032), float16] */
  } /* ty=fn (Tensor[(16, 1, 1, 4032), float32]) -> Tensor[(16, 4032), float16] */;
  %2321 = %2320(%2319) /* ty=Tensor[(16, 4032), float16] */;
  %2322 = fn (%p0: Tensor[(16, 4032), float16] /* ty=Tensor[(16, 4032), float16] */, %p1: Tensor[(1000, 4032), float16] /* ty=Tensor[(1000, 4032), float16] */, %p2: Tensor[(1, 1000), float16] /* ty=Tensor[(1, 1000), float16] */, Primitive=1) -> Tensor[(16, 1000), float16] {
    %0 = nn.dense(%p0, %p1, units=None, out_dtype="float16") /* ty=Tensor[(16, 1000), float16] */;
    add(%0, %p2) /* ty=Tensor[(16, 1000), float16] */
  } /* ty=fn (Tensor[(16, 4032), float16], Tensor[(1000, 4032), float16], Tensor[(1, 1000), float16]) -> Tensor[(16, 1000), float16] */;
  %2322(%2321, meta[relay.Constant][1016] /* ty=Tensor[(1000, 4032), float16] */, meta[relay.Constant][1017] /* ty=Tensor[(1, 1000), float16] */) /* ty=Tensor[(16, 1000), float16] */
}


