type List[A] {
  Cons(A, List[A]),
  Nil,
}

type Option[A] {
  Some(A),
  None,
}

type Tree[A] {
  Rose(A, List[Tree[A]]),
}

type tensor_float16_t {
  tensor_nil_float16,
  tensor0_float16(float16),
  tensor1_float16(Tensor[(?), float16]),
  tensor2_float16(Tensor[(?, ?), float16]),
  tensor3_float16(Tensor[(?, ?, ?), float16]),
  tensor4_float16(Tensor[(?, ?, ?, ?), float16]),
  tensor5_float16(Tensor[(?, ?, ?, ?, ?), float16]),
  tensor6_float16(Tensor[(?, ?, ?, ?, ?, ?), float16]),
}

type tensor_float32_t {
  tensor_nil_float32,
  tensor0_float32(float32),
  tensor1_float32(Tensor[(?), float32]),
  tensor2_float32(Tensor[(?, ?), float32]),
  tensor3_float32(Tensor[(?, ?, ?), float32]),
  tensor4_float32(Tensor[(?, ?, ?, ?), float32]),
  tensor5_float32(Tensor[(?, ?, ?, ?, ?), float32]),
  tensor6_float32(Tensor[(?, ?, ?, ?, ?, ?), float32]),
}

type tensor_float64_t {
  tensor_nil_float64,
  tensor0_float64(float64),
  tensor1_float64(Tensor[(?), float64]),
  tensor2_float64(Tensor[(?, ?), float64]),
  tensor3_float64(Tensor[(?, ?, ?), float64]),
  tensor4_float64(Tensor[(?, ?, ?, ?), float64]),
  tensor5_float64(Tensor[(?, ?, ?, ?, ?), float64]),
  tensor6_float64(Tensor[(?, ?, ?, ?, ?, ?), float64]),
}

type tensor_int16_t {
  tensor_nil_int16,
  tensor0_int16(int16),
  tensor1_int16(Tensor[(?), int16]),
  tensor2_int16(Tensor[(?, ?), int16]),
  tensor3_int16(Tensor[(?, ?, ?), int16]),
  tensor4_int16(Tensor[(?, ?, ?, ?), int16]),
  tensor5_int16(Tensor[(?, ?, ?, ?, ?), int16]),
  tensor6_int16(Tensor[(?, ?, ?, ?, ?, ?), int16]),
}

type tensor_int32_t {
  tensor_nil_int32,
  tensor0_int32(int32),
  tensor1_int32(Tensor[(?), int32]),
  tensor2_int32(Tensor[(?, ?), int32]),
  tensor3_int32(Tensor[(?, ?, ?), int32]),
  tensor4_int32(Tensor[(?, ?, ?, ?), int32]),
  tensor5_int32(Tensor[(?, ?, ?, ?, ?), int32]),
  tensor6_int32(Tensor[(?, ?, ?, ?, ?, ?), int32]),
}

type tensor_int64_t {
  tensor_nil_int64,
  tensor0_int64(int64),
  tensor1_int64(Tensor[(?), int64]),
  tensor2_int64(Tensor[(?, ?), int64]),
  tensor3_int64(Tensor[(?, ?, ?), int64]),
  tensor4_int64(Tensor[(?, ?, ?, ?), int64]),
  tensor5_int64(Tensor[(?, ?, ?, ?, ?), int64]),
  tensor6_int64(Tensor[(?, ?, ?, ?, ?, ?), int64]),
}

type tensor_int8_t {
  tensor_nil_int8,
  tensor0_int8(int8),
  tensor1_int8(Tensor[(?), int8]),
  tensor2_int8(Tensor[(?, ?), int8]),
  tensor3_int8(Tensor[(?, ?, ?), int8]),
  tensor4_int8(Tensor[(?, ?, ?, ?), int8]),
  tensor5_int8(Tensor[(?, ?, ?, ?, ?), int8]),
  tensor6_int8(Tensor[(?, ?, ?, ?, ?, ?), int8]),
}

type tensor_uint16_t {
  tensor_nil_uint16,
  tensor0_uint16(uint16),
  tensor1_uint16(Tensor[(?), uint16]),
  tensor2_uint16(Tensor[(?, ?), uint16]),
  tensor3_uint16(Tensor[(?, ?, ?), uint16]),
  tensor4_uint16(Tensor[(?, ?, ?, ?), uint16]),
  tensor5_uint16(Tensor[(?, ?, ?, ?, ?), uint16]),
  tensor6_uint16(Tensor[(?, ?, ?, ?, ?, ?), uint16]),
}

type tensor_uint8_t {
  tensor_nil_uint8,
  tensor0_uint8(uint8),
  tensor1_uint8(Tensor[(?), uint8]),
  tensor2_uint8(Tensor[(?, ?), uint8]),
  tensor3_uint8(Tensor[(?, ?, ?), uint8]),
  tensor4_uint8(Tensor[(?, ?, ?, ?), uint8]),
  tensor5_uint8(Tensor[(?, ?, ?, ?, ?), uint8]),
  tensor6_uint8(Tensor[(?, ?, ?, ?, ?, ?), uint8]),
}

def @main(%input0: Tensor[(32, 3, 224, 224), float32] /* ty=Tensor[(32, 3, 224, 224), float32] span=aten::size_0.input0:0:0 */) -> Tensor[(32, 1000), float16] {
  %1216 = fn (%p0460: Tensor[(32, 3, 224, 224), float32] /* ty=Tensor[(32, 3, 224, 224), float32] */, Primitive=1) -> Tensor[(32, 224, 224, 3), float16] {
    %1215 = cast(%p0460, dtype="float16") /* ty=Tensor[(32, 3, 224, 224), float16] */;
    layout_transform(%1215, src_layout="NCHW", dst_layout="NHWC") /* ty=Tensor[(32, 224, 224, 3), float16] */
  } /* ty=fn (Tensor[(32, 3, 224, 224), float32]) -> Tensor[(32, 224, 224, 3), float16] */;
  %1217 = %1216(%input0) /* ty=Tensor[(32, 224, 224, 3), float16] */;
  %1218 = fn (%p0459: Tensor[(32, 224, 224, 3), float16] /* ty=Tensor[(32, 224, 224, 3), float16] */, %p1315: Tensor[(1024, 32, 32, 3), float16] /* ty=Tensor[(1024, 32, 32, 3), float16] */, %p2123: Tensor[(1, 1, 1, 1024), float16] /* ty=Tensor[(1, 1, 1, 1024), float16] */, Primitive=1) -> Tensor[(32, 7, 7, 1024), float16] {
    %1214 = nn.conv2d(%p0459, %p1315, strides=[32, 32], padding=[0, 0, 0, 0], channels=1024, kernel_size=[32, 32], data_layout="NHWC", kernel_layout="OHWI", out_dtype="float16") /* ty=Tensor[(32, 7, 7, 1024), float16] */;
    add(%1214, %p2123) /* ty=Tensor[(32, 7, 7, 1024), float16] */
  } /* ty=fn (Tensor[(32, 224, 224, 3), float16], Tensor[(1024, 32, 32, 3), float16], Tensor[(1, 1, 1, 1024), float16]) -> Tensor[(32, 7, 7, 1024), float16] */;
  %1219 = %1218(%1217, meta[relay.Constant][0] /* ty=Tensor[(1024, 32, 32, 3), float16] */, meta[relay.Constant][1] /* ty=Tensor[(1, 1, 1, 1024), float16] */) /* ty=Tensor[(32, 7, 7, 1024), float16] */;
  %1220 = fn (%p0458: Tensor[(32, 7, 7, 1024), float16] /* ty=Tensor[(32, 7, 7, 1024), float16] */, %p1314: Tensor[(32, 1, 1024), float16] /* ty=Tensor[(32, 1, 1024), float16] */, %p2122: Tensor[(1, 50, 1024), float16] /* ty=Tensor[(1, 50, 1024), float16] */, Primitive=1) -> Tensor[(32, 50, 1024), float16] {
    %1209 = layout_transform(%p0458, src_layout="NHWC", dst_layout="NCHW") /* ty=Tensor[(32, 1024, 7, 7), float16] */;
    %1210 = reshape(%1209, newshape=[32, 1024, 49]) /* ty=Tensor[(32, 1024, 49), float16] */;
    %1211 = transpose(%1210, axes=[0, 2, 1]) /* ty=Tensor[(32, 49, 1024), float16] */;
    %1212 = (%p1314, %1211) /* ty=(Tensor[(32, 1, 1024), float16], Tensor[(32, 49, 1024), float16]) span=aten::cat_0:0:0 */;
    %1213 = concatenate(%1212, axis=1) /* ty=Tensor[(32, 50, 1024), float16] */;
    add(%1213, %p2122) /* ty=Tensor[(32, 50, 1024), float16] */
  } /* ty=fn (Tensor[(32, 7, 7, 1024), float16], Tensor[(32, 1, 1024), float16], Tensor[(1, 50, 1024), float16]) -> Tensor[(32, 50, 1024), float16] */;
  %1221 = %1220(%1219, meta[relay.Constant][2] /* ty=Tensor[(32, 1, 1024), float16] */, meta[relay.Constant][3] /* ty=Tensor[(1, 50, 1024), float16] */) /* ty=Tensor[(32, 50, 1024), float16] */;
  %1222 = fn (%p0457: Tensor[(32, 50, 1024), float16] /* ty=Tensor[(32, 50, 1024), float16] */, Primitive=1) -> Tensor[(32, 50, 1024), float32] {
    cast(%p0457, dtype="float32") /* ty=Tensor[(32, 50, 1024), float32] */
  } /* ty=fn (Tensor[(32, 50, 1024), float16]) -> Tensor[(32, 50, 1024), float32] */;
  %1223 = %1222(%1221) /* ty=Tensor[(32, 50, 1024), float32] */;
  %1224 = fn (%p0461: Tensor[(32, 50, 1024), float32] /* ty=Tensor[(32, 50, 1024), float32] */, Primitive=1) -> Tensor[(32, 50, 1), float32] {
    mean(%p0461, axis=[-1], keepdims=True) /* ty=Tensor[(32, 50, 1), float32] */
  } /* ty=fn (Tensor[(32, 50, 1024), float32]) -> Tensor[(32, 50, 1), float32] */;
  %1225 = %1224(%1223) /* ty=Tensor[(32, 50, 1), float32] */;
  %1226 = fn (%p0462: Tensor[(32, 50, 1024), float32] /* ty=Tensor[(32, 50, 1024), float32] */, %p1316: Tensor[(32, 50, 1), float32] /* ty=Tensor[(32, 50, 1), float32] */, Primitive=1) -> Tensor[(32, 50, 1), float32] {
    variance(%p0462, %p1316, axis=[-1], keepdims=True) /* ty=Tensor[(32, 50, 1), float32] */
  } /* ty=fn (Tensor[(32, 50, 1024), float32], Tensor[(32, 50, 1), float32]) -> Tensor[(32, 50, 1), float32] */;
  %1227 = %1226(%1223, %1225) /* ty=Tensor[(32, 50, 1), float32] */;
  %1228 = fn (%p0456: Tensor[(32, 50, 1024), float32] /* ty=Tensor[(32, 50, 1024), float32] */, %p1313: Tensor[(32, 50, 1), float32] /* ty=Tensor[(32, 50, 1), float32] */, %p2121: Tensor[(32, 50, 1), float32] /* ty=Tensor[(32, 50, 1), float32] */, %p348: Tensor[(1024), float32] /* ty=Tensor[(1024), float32] */, %p448: Tensor[(1024), float32] /* ty=Tensor[(1024), float32] */, Primitive=1) -> Tensor[(50, 32, 1024), float16] {
    %1200 = add(%p2121, 1e-06f /* ty=float32 */) /* ty=Tensor[(32, 50, 1), float32] */;
    %1201 = subtract(%p0456, %p1313) /* ty=Tensor[(32, 50, 1024), float32] */;
    %1202 = rsqrt(%1200) /* ty=Tensor[(32, 50, 1), float32] */;
    %1203 = multiply(%1201, %1202) /* ty=Tensor[(32, 50, 1024), float32] */;
    %1204 = multiply(%1203, %p348) /* ty=Tensor[(32, 50, 1024), float32] */;
    %1205 = add(%1204, %p448) /* ty=Tensor[(32, 50, 1024), float32] */;
    %1206 = transpose(%1205, axes=[1, 0, 2]) /* ty=Tensor[(50, 32, 1024), float32] */;
    %1207 = broadcast_to(%1206, shape=[50, 32, 1024]) /* ty=Tensor[(50, 32, 1024), float32] */;
    %1208 = reshape(%1207, newshape=[-1, 32, 1024]) /* ty=Tensor[(50, 32, 1024), float32] */;
    cast(%1208, dtype="float16") /* ty=Tensor[(50, 32, 1024), float16] */
  } /* ty=fn (Tensor[(32, 50, 1024), float32], Tensor[(32, 50, 1), float32], Tensor[(32, 50, 1), float32], Tensor[(1024), float32], Tensor[(1024), float32]) -> Tensor[(50, 32, 1024), float16] */;
  %1229 = %1228(%1223, %1225, %1227, meta[relay.Constant][4] /* ty=Tensor[(1024), float32] */, meta[relay.Constant][5] /* ty=Tensor[(1024), float32] */) /* ty=Tensor[(50, 32, 1024), float16] */;
  %1230 = fn (%p0455: Tensor[(50, 32, 1024), float16] /* ty=Tensor[(50, 32, 1024), float16] */, %p1312: Tensor[(50, 1024, 3072), float16] /* ty=Tensor[(50, 1024, 3072), float16] */, Primitive=1) -> Tensor[(50, 32, 3072), float16] {
    nn.batch_matmul(%p0455, %p1312, out_dtype="float16") /* ty=Tensor[(50, 32, 3072), float16] */
  } /* ty=fn (Tensor[(50, 32, 1024), float16], Tensor[(50, 1024, 3072), float16]) -> Tensor[(50, 32, 3072), float16] */;
  %1231 = %1230(%1229, meta[relay.Constant][6] /* ty=Tensor[(50, 1024, 3072), float16] */) /* ty=Tensor[(50, 32, 3072), float16] */;
  %1232 = fn (%p0454: Tensor[(50, 32, 3072), float16] /* ty=Tensor[(50, 32, 3072), float16] */, %p1311: Tensor[(3072), float16] /* ty=Tensor[(3072), float16] */, Primitive=1) -> (Tensor[(50, 32, 1024), float16], Tensor[(50, 32, 1024), float16], Tensor[(50, 32, 1024), float16]) {
    %1197 = reshape(%p0454, newshape=[50, 32, 3072]) /* ty=Tensor[(50, 32, 3072), float16] */;
    %1198 = squeeze(%1197, axis=[]) /* ty=Tensor[(50, 32, 3072), float16] */;
    %1199 = add(%1198, %p1311) /* ty=Tensor[(50, 32, 3072), float16] */;
    split(%1199, indices_or_sections=[1024, 2048], axis=-1) /* ty=(Tensor[(50, 32, 1024), float16], Tensor[(50, 32, 1024), float16], Tensor[(50, 32, 1024), float16]) */
  } /* ty=fn (Tensor[(50, 32, 3072), float16], Tensor[(3072), float16]) -> (Tensor[(50, 32, 1024), float16], Tensor[(50, 32, 1024), float16], Tensor[(50, 32, 1024), float16]) */;
  %1233 = %1232(%1231, meta[relay.Constant][7] /* ty=Tensor[(3072), float16] */) /* ty=(Tensor[(50, 32, 1024), float16], Tensor[(50, 32, 1024), float16], Tensor[(50, 32, 1024), float16]) */;
  %1234 = fn (%p0453: (Tensor[(50, 32, 1024), float16], Tensor[(50, 32, 1024), float16], Tensor[(50, 32, 1024), float16]) /* ty=(Tensor[(50, 32, 1024), float16], Tensor[(50, 32, 1024), float16], Tensor[(50, 32, 1024), float16]) */, %p1310: float16 /* ty=float16 */, Primitive=1) -> Tensor[(512, 50, 64), float16] {
    %1192 = %p0453.0 /* ty=Tensor[(50, 32, 1024), float16] */;
    %1193 = reshape(%1192, newshape=[50, 512, 64]) /* ty=Tensor[(50, 512, 64), float16] */;
    %1194 = transpose(%1193, axes=[1, 0, 2]) /* ty=Tensor[(512, 50, 64), float16] */;
    %1195 = divide(%1194, %p1310) /* ty=Tensor[(512, 50, 64), float16] */;
    %1196 = broadcast_to(%1195, shape=[512, 50, 64], dtype="float16") /* ty=Tensor[(512, 50, 64), float16] */;
    reshape(%1196, newshape=[-1, 50, 64]) /* ty=Tensor[(512, 50, 64), float16] */
  } /* ty=fn ((Tensor[(50, 32, 1024), float16], Tensor[(50, 32, 1024), float16], Tensor[(50, 32, 1024), float16]), float16) -> Tensor[(512, 50, 64), float16] */;
  %1239 = fn (%p0463: (Tensor[(50, 32, 1024), float16], Tensor[(50, 32, 1024), float16], Tensor[(50, 32, 1024), float16]) /* ty=(Tensor[(50, 32, 1024), float16], Tensor[(50, 32, 1024), float16], Tensor[(50, 32, 1024), float16]) */, Primitive=1) -> Tensor[(512, 64, 50), float16] {
    %1235 = %p0463.1 /* ty=Tensor[(50, 32, 1024), float16] */;
    %1236 = reshape(%1235, newshape=[50, 512, 64]) /* ty=Tensor[(50, 512, 64), float16] */;
    %1237 = transpose(%1236, axes=[1, 2, 0]) /* ty=Tensor[(512, 64, 50), float16] */;
    %1238 = broadcast_to(%1237, shape=[512, 64, 50], dtype="float16") /* ty=Tensor[(512, 64, 50), float16] */;
    reshape(%1238, newshape=[-1, 64, 50]) /* ty=Tensor[(512, 64, 50), float16] */
  } /* ty=fn ((Tensor[(50, 32, 1024), float16], Tensor[(50, 32, 1024), float16], Tensor[(50, 32, 1024), float16])) -> Tensor[(512, 64, 50), float16] */;
  %1240 = %1234(%1233, 8f16 /* ty=float16 */) /* ty=Tensor[(512, 50, 64), float16] */;
  %1241 = %1239(%1233) /* ty=Tensor[(512, 64, 50), float16] */;
  %1242 = fn (%p0452: Tensor[(512, 50, 64), float16] /* ty=Tensor[(512, 50, 64), float16] */, %p1309: Tensor[(512, 64, 50), float16] /* ty=Tensor[(512, 64, 50), float16] */, Primitive=1) -> Tensor[(512, 50, 50), float16] {
    nn.batch_matmul(%p0452, %p1309, out_dtype="float16") /* ty=Tensor[(512, 50, 50), float16] */
  } /* ty=fn (Tensor[(512, 50, 64), float16], Tensor[(512, 64, 50), float16]) -> Tensor[(512, 50, 50), float16] */;
  %1243 = %1242(%1240, %1241) /* ty=Tensor[(512, 50, 50), float16] */;
  %1244 = fn (%p0451: Tensor[(512, 50, 50), float16] /* ty=Tensor[(512, 50, 50), float16] */, Primitive=1) -> Tensor[(512, 50, 50), float32] {
    %1190 = reshape(%p0451, newshape=[512, 50, 50]) /* ty=Tensor[(512, 50, 50), float16] */;
    %1191 = squeeze(%1190, axis=[]) /* ty=Tensor[(512, 50, 50), float16] */;
    cast(%1191, dtype="float32") /* ty=Tensor[(512, 50, 50), float32] */
  } /* ty=fn (Tensor[(512, 50, 50), float16]) -> Tensor[(512, 50, 50), float32] */;
  %1245 = %1244(%1243) /* ty=Tensor[(512, 50, 50), float32] */;
  %1246 = fn (%p0450: Tensor[(512, 50, 50), float32] /* ty=Tensor[(512, 50, 50), float32] */, Primitive=1) -> Tensor[(512, 50, 50), float32] {
    %1189 = nn.softmax(%p0450) /* ty=Tensor[(512, 50, 50), float32] */;
    broadcast_to(%1189, shape=[512, 50, 50]) /* ty=Tensor[(512, 50, 50), float32] */
  } /* ty=fn (Tensor[(512, 50, 50), float32]) -> Tensor[(512, 50, 50), float32] */;
  %1247 = %1246(%1245) /* ty=Tensor[(512, 50, 50), float32] */;
  %1248 = fn (%p0449: Tensor[(512, 50, 50), float32] /* ty=Tensor[(512, 50, 50), float32] */, Primitive=1) -> Tensor[(512, 50, 50), float16] {
    %1188 = reshape(%p0449, newshape=[-1, 50, 50]) /* ty=Tensor[(512, 50, 50), float32] */;
    cast(%1188, dtype="float16") /* ty=Tensor[(512, 50, 50), float16] */
  } /* ty=fn (Tensor[(512, 50, 50), float32]) -> Tensor[(512, 50, 50), float16] */;
  %1253 = fn (%p0464: (Tensor[(50, 32, 1024), float16], Tensor[(50, 32, 1024), float16], Tensor[(50, 32, 1024), float16]) /* ty=(Tensor[(50, 32, 1024), float16], Tensor[(50, 32, 1024), float16], Tensor[(50, 32, 1024), float16]) */, Primitive=1) -> Tensor[(512, 50, 64), float16] {
    %1249 = %p0464.2 /* ty=Tensor[(50, 32, 1024), float16] */;
    %1250 = reshape(%1249, newshape=[50, 512, 64]) /* ty=Tensor[(50, 512, 64), float16] */;
    %1251 = transpose(%1250, axes=[1, 0, 2]) /* ty=Tensor[(512, 50, 64), float16] */;
    %1252 = broadcast_to(%1251, shape=[512, 50, 64], dtype="float16") /* ty=Tensor[(512, 50, 64), float16] */;
    reshape(%1252, newshape=[-1, 50, 64]) /* ty=Tensor[(512, 50, 64), float16] */
  } /* ty=fn ((Tensor[(50, 32, 1024), float16], Tensor[(50, 32, 1024), float16], Tensor[(50, 32, 1024), float16])) -> Tensor[(512, 50, 64), float16] */;
  %1254 = %1248(%1247) /* ty=Tensor[(512, 50, 50), float16] */;
  %1255 = %1253(%1233) /* ty=Tensor[(512, 50, 64), float16] */;
  %1256 = fn (%p0448: Tensor[(512, 50, 50), float16] /* ty=Tensor[(512, 50, 50), float16] */, %p1308: Tensor[(512, 50, 64), float16] /* ty=Tensor[(512, 50, 64), float16] */, Primitive=1) -> Tensor[(512, 50, 64), float16] {
    nn.batch_matmul(%p0448, %p1308, out_dtype="float16") /* ty=Tensor[(512, 50, 64), float16] */
  } /* ty=fn (Tensor[(512, 50, 50), float16], Tensor[(512, 50, 64), float16]) -> Tensor[(512, 50, 64), float16] */;
  %1257 = %1256(%1254, %1255) /* ty=Tensor[(512, 50, 64), float16] */;
  %1258 = fn (%p0447: Tensor[(512, 50, 64), float16] /* ty=Tensor[(512, 50, 64), float16] */, Primitive=1) -> Tensor[(1600, 1024), float16] {
    %1185 = reshape(%p0447, newshape=[512, 50, 64]) /* ty=Tensor[(512, 50, 64), float16] */;
    %1186 = squeeze(%1185, axis=[]) /* ty=Tensor[(512, 50, 64), float16] */;
    %1187 = transpose(%1186, axes=[1, 0, 2]) /* ty=Tensor[(50, 512, 64), float16] */;
    reshape(%1187, newshape=[1600, 1024]) /* ty=Tensor[(1600, 1024), float16] */
  } /* ty=fn (Tensor[(512, 50, 64), float16]) -> Tensor[(1600, 1024), float16] */;
  %1259 = %1258(%1257) /* ty=Tensor[(1600, 1024), float16] */;
  %1260 = fn (%p0446: Tensor[(1600, 1024), float16] /* ty=Tensor[(1600, 1024), float16] */, %p1307: Tensor[(1024, 1024), float16] /* ty=Tensor[(1024, 1024), float16] */, %p2120: Tensor[(1, 1024), float16] /* ty=Tensor[(1, 1024), float16] */, Primitive=1) -> Tensor[(1600, 1024), float16] {
    %1184 = nn.dense(%p0446, %p1307, units=None, out_dtype="float16") /* ty=Tensor[(1600, 1024), float16] */;
    add(%1184, %p2120) /* ty=Tensor[(1600, 1024), float16] */
  } /* ty=fn (Tensor[(1600, 1024), float16], Tensor[(1024, 1024), float16], Tensor[(1, 1024), float16]) -> Tensor[(1600, 1024), float16] */;
  %1261 = %1260(%1259, meta[relay.Constant][8] /* ty=Tensor[(1024, 1024), float16] */, meta[relay.Constant][9] /* ty=Tensor[(1, 1024), float16] */) /* ty=Tensor[(1600, 1024), float16] */;
  %1262 = fn (%p0445: Tensor[(1600, 1024), float16] /* ty=Tensor[(1600, 1024), float16] */, %p1306: Tensor[(32, 50, 1024), float16] /* ty=Tensor[(32, 50, 1024), float16] */, Primitive=1) -> Tensor[(32, 50, 1024), float16] {
    %1182 = reshape(%p0445, newshape=[50, 32, 1024]) /* ty=Tensor[(50, 32, 1024), float16] */;
    %1183 = transpose(%1182, axes=[1, 0, 2]) /* ty=Tensor[(32, 50, 1024), float16] */;
    add(%1183, %p1306) /* ty=Tensor[(32, 50, 1024), float16] */
  } /* ty=fn (Tensor[(1600, 1024), float16], Tensor[(32, 50, 1024), float16]) -> Tensor[(32, 50, 1024), float16] */;
  %1263 = %1262(%1261, %1221) /* ty=Tensor[(32, 50, 1024), float16] */;
  %1264 = fn (%p0444: Tensor[(32, 50, 1024), float16] /* ty=Tensor[(32, 50, 1024), float16] */, Primitive=1) -> Tensor[(32, 50, 1024), float32] {
    cast(%p0444, dtype="float32") /* ty=Tensor[(32, 50, 1024), float32] */
  } /* ty=fn (Tensor[(32, 50, 1024), float16]) -> Tensor[(32, 50, 1024), float32] */;
  %1265 = %1264(%1263) /* ty=Tensor[(32, 50, 1024), float32] */;
  %1266 = fn (%p0465: Tensor[(32, 50, 1024), float32] /* ty=Tensor[(32, 50, 1024), float32] */, Primitive=1) -> Tensor[(32, 50, 1), float32] {
    mean(%p0465, axis=[-1], keepdims=True) /* ty=Tensor[(32, 50, 1), float32] */
  } /* ty=fn (Tensor[(32, 50, 1024), float32]) -> Tensor[(32, 50, 1), float32] */;
  %1267 = %1266(%1265) /* ty=Tensor[(32, 50, 1), float32] */;
  %1268 = fn (%p0466: Tensor[(32, 50, 1024), float32] /* ty=Tensor[(32, 50, 1024), float32] */, %p1317: Tensor[(32, 50, 1), float32] /* ty=Tensor[(32, 50, 1), float32] */, Primitive=1) -> Tensor[(32, 50, 1), float32] {
    variance(%p0466, %p1317, axis=[-1], keepdims=True) /* ty=Tensor[(32, 50, 1), float32] */
  } /* ty=fn (Tensor[(32, 50, 1024), float32], Tensor[(32, 50, 1), float32]) -> Tensor[(32, 50, 1), float32] */;
  %1269 = %1268(%1265, %1267) /* ty=Tensor[(32, 50, 1), float32] */;
  %1270 = fn (%p0443: Tensor[(32, 50, 1024), float32] /* ty=Tensor[(32, 50, 1024), float32] */, %p1305: Tensor[(32, 50, 1), float32] /* ty=Tensor[(32, 50, 1), float32] */, %p2119: Tensor[(32, 50, 1), float32] /* ty=Tensor[(32, 50, 1), float32] */, %p347: Tensor[(1024), float32] /* ty=Tensor[(1024), float32] */, %p447: Tensor[(1024), float32] /* ty=Tensor[(1024), float32] */, Primitive=1) -> Tensor[(32, 50, 1024), float16] {
    %1174 = add(%p2119, 1e-06f /* ty=float32 */) /* ty=Tensor[(32, 50, 1), float32] */;
    %1175 = subtract(%p0443, %p1305) /* ty=Tensor[(32, 50, 1024), float32] */;
    %1176 = rsqrt(%1174) /* ty=Tensor[(32, 50, 1), float32] */;
    %1177 = multiply(%1175, %1176) /* ty=Tensor[(32, 50, 1024), float32] */;
    %1178 = multiply(%1177, %p347) /* ty=Tensor[(32, 50, 1024), float32] */;
    %1179 = add(%1178, %p447) /* ty=Tensor[(32, 50, 1024), float32] */;
    %1180 = broadcast_to(%1179, shape=[32, 50, 1024]) /* ty=Tensor[(32, 50, 1024), float32] */;
    %1181 = reshape(%1180, newshape=[-1, 50, 1024]) /* ty=Tensor[(32, 50, 1024), float32] */;
    cast(%1181, dtype="float16") /* ty=Tensor[(32, 50, 1024), float16] */
  } /* ty=fn (Tensor[(32, 50, 1024), float32], Tensor[(32, 50, 1), float32], Tensor[(32, 50, 1), float32], Tensor[(1024), float32], Tensor[(1024), float32]) -> Tensor[(32, 50, 1024), float16] */;
  %1271 = %1270(%1265, %1267, %1269, meta[relay.Constant][10] /* ty=Tensor[(1024), float32] */, meta[relay.Constant][11] /* ty=Tensor[(1024), float32] */) /* ty=Tensor[(32, 50, 1024), float16] */;
  %1272 = fn (%p0442: Tensor[(32, 50, 1024), float16] /* ty=Tensor[(32, 50, 1024), float16] */, %p1304: Tensor[(32, 1024, 4096), float16] /* ty=Tensor[(32, 1024, 4096), float16] */, Primitive=1) -> Tensor[(32, 50, 4096), float16] {
    nn.batch_matmul(%p0442, %p1304, out_dtype="float16") /* ty=Tensor[(32, 50, 4096), float16] */
  } /* ty=fn (Tensor[(32, 50, 1024), float16], Tensor[(32, 1024, 4096), float16]) -> Tensor[(32, 50, 4096), float16] */;
  %1273 = %1272(%1271, meta[relay.Constant][12] /* ty=Tensor[(32, 1024, 4096), float16] */) /* ty=Tensor[(32, 50, 4096), float16] */;
  %1274 = fn (%p0441: Tensor[(32, 50, 4096), float16] /* ty=Tensor[(32, 50, 4096), float16] */, %p1303: Tensor[(4096), float16] /* ty=Tensor[(4096), float16] */, %p2118: float16 /* ty=float16 */, Primitive=1) -> Tensor[(32, 50, 4096), float16] {
    %1162 = reshape(%p0441, newshape=[32, 50, 4096]) /* ty=Tensor[(32, 50, 4096), float16] */;
    %1163 = squeeze(%1162, axis=[]) /* ty=Tensor[(32, 50, 4096), float16] */;
    %1164 = add(%1163, %p1303) /* ty=Tensor[(32, 50, 4096), float16] */;
    %1165 = multiply(%1164, %p2118) /* ty=Tensor[(32, 50, 4096), float16] */;
    %1166 = cast(%1165, dtype="float32") /* ty=Tensor[(32, 50, 4096), float32] */;
    %1167 = erf(%1166) /* ty=Tensor[(32, 50, 4096), float32] */;
    %1168 = multiply(%1167, 0.5f /* ty=float32 span=aten::gelu_0:0:0 */) /* ty=Tensor[(32, 50, 4096), float32] */;
    %1169 = cast(%1164, dtype="float32") /* ty=Tensor[(32, 50, 4096), float32] */;
    %1170 = add(0.5f /* ty=float32 span=aten::gelu_0:0:0 */, %1168) /* ty=Tensor[(32, 50, 4096), float32] */;
    %1171 = multiply(%1169, %1170) /* ty=Tensor[(32, 50, 4096), float32] */;
    %1172 = broadcast_to(%1171, shape=[32, 50, 4096]) /* ty=Tensor[(32, 50, 4096), float32] */;
    %1173 = reshape(%1172, newshape=[-1, 50, 4096]) /* ty=Tensor[(32, 50, 4096), float32] */;
    cast(%1173, dtype="float16") /* ty=Tensor[(32, 50, 4096), float16] */
  } /* ty=fn (Tensor[(32, 50, 4096), float16], Tensor[(4096), float16], float16) -> Tensor[(32, 50, 4096), float16] */;
  %1275 = %1274(%1273, meta[relay.Constant][13] /* ty=Tensor[(4096), float16] */, 0.707031f16 /* ty=float16 */) /* ty=Tensor[(32, 50, 4096), float16] */;
  %1276 = fn (%p0440: Tensor[(32, 50, 4096), float16] /* ty=Tensor[(32, 50, 4096), float16] */, %p1302: Tensor[(32, 4096, 1024), float16] /* ty=Tensor[(32, 4096, 1024), float16] */, Primitive=1) -> Tensor[(32, 50, 1024), float16] {
    nn.batch_matmul(%p0440, %p1302, out_dtype="float16") /* ty=Tensor[(32, 50, 1024), float16] */
  } /* ty=fn (Tensor[(32, 50, 4096), float16], Tensor[(32, 4096, 1024), float16]) -> Tensor[(32, 50, 1024), float16] */;
  %1277 = %1276(%1275, meta[relay.Constant][14] /* ty=Tensor[(32, 4096, 1024), float16] */) /* ty=Tensor[(32, 50, 1024), float16] */;
  %1278 = fn (%p0439: Tensor[(32, 50, 1024), float16] /* ty=Tensor[(32, 50, 1024), float16] */, %p1301: Tensor[(1024), float16] /* ty=Tensor[(1024), float16] */, %p2117: Tensor[(32, 50, 1024), float16] /* ty=Tensor[(32, 50, 1024), float16] */, Primitive=1) -> Tensor[(32, 50, 1024), float16] {
    %1159 = reshape(%p0439, newshape=[32, 50, 1024]) /* ty=Tensor[(32, 50, 1024), float16] */;
    %1160 = squeeze(%1159, axis=[]) /* ty=Tensor[(32, 50, 1024), float16] */;
    %1161 = add(%1160, %p1301) /* ty=Tensor[(32, 50, 1024), float16] */;
    add(%p2117, %1161) /* ty=Tensor[(32, 50, 1024), float16] */
  } /* ty=fn (Tensor[(32, 50, 1024), float16], Tensor[(1024), float16], Tensor[(32, 50, 1024), float16]) -> Tensor[(32, 50, 1024), float16] */;
  %1279 = %1278(%1277, meta[relay.Constant][15] /* ty=Tensor[(1024), float16] */, %1263) /* ty=Tensor[(32, 50, 1024), float16] */;
  %1280 = fn (%p0438: Tensor[(32, 50, 1024), float16] /* ty=Tensor[(32, 50, 1024), float16] */, Primitive=1) -> Tensor[(32, 50, 1024), float32] {
    cast(%p0438, dtype="float32") /* ty=Tensor[(32, 50, 1024), float32] */
  } /* ty=fn (Tensor[(32, 50, 1024), float16]) -> Tensor[(32, 50, 1024), float32] */;
  %1281 = %1280(%1279) /* ty=Tensor[(32, 50, 1024), float32] */;
  %1282 = fn (%p0467: Tensor[(32, 50, 1024), float32] /* ty=Tensor[(32, 50, 1024), float32] */, Primitive=1) -> Tensor[(32, 50, 1), float32] {
    mean(%p0467, axis=[-1], keepdims=True) /* ty=Tensor[(32, 50, 1), float32] */
  } /* ty=fn (Tensor[(32, 50, 1024), float32]) -> Tensor[(32, 50, 1), float32] */;
  %1283 = %1282(%1281) /* ty=Tensor[(32, 50, 1), float32] */;
  %1284 = fn (%p0468: Tensor[(32, 50, 1024), float32] /* ty=Tensor[(32, 50, 1024), float32] */, %p1318: Tensor[(32, 50, 1), float32] /* ty=Tensor[(32, 50, 1), float32] */, Primitive=1) -> Tensor[(32, 50, 1), float32] {
    variance(%p0468, %p1318, axis=[-1], keepdims=True) /* ty=Tensor[(32, 50, 1), float32] */
  } /* ty=fn (Tensor[(32, 50, 1024), float32], Tensor[(32, 50, 1), float32]) -> Tensor[(32, 50, 1), float32] */;
  %1285 = %1284(%1281, %1283) /* ty=Tensor[(32, 50, 1), float32] */;
  %1286 = fn (%p0437: Tensor[(32, 50, 1024), float32] /* ty=Tensor[(32, 50, 1024), float32] */, %p1300: Tensor[(32, 50, 1), float32] /* ty=Tensor[(32, 50, 1), float32] */, %p2116: Tensor[(32, 50, 1), float32] /* ty=Tensor[(32, 50, 1), float32] */, %p346: Tensor[(1024), float32] /* ty=Tensor[(1024), float32] */, %p446: Tensor[(1024), float32] /* ty=Tensor[(1024), float32] */, Primitive=1) -> Tensor[(50, 32, 1024), float16] {
    %1150 = add(%p2116, 1e-06f /* ty=float32 */) /* ty=Tensor[(32, 50, 1), float32] */;
    %1151 = subtract(%p0437, %p1300) /* ty=Tensor[(32, 50, 1024), float32] */;
    %1152 = rsqrt(%1150) /* ty=Tensor[(32, 50, 1), float32] */;
    %1153 = multiply(%1151, %1152) /* ty=Tensor[(32, 50, 1024), float32] */;
    %1154 = multiply(%1153, %p346) /* ty=Tensor[(32, 50, 1024), float32] */;
    %1155 = add(%1154, %p446) /* ty=Tensor[(32, 50, 1024), float32] */;
    %1156 = transpose(%1155, axes=[1, 0, 2]) /* ty=Tensor[(50, 32, 1024), float32] */;
    %1157 = broadcast_to(%1156, shape=[50, 32, 1024]) /* ty=Tensor[(50, 32, 1024), float32] */;
    %1158 = reshape(%1157, newshape=[-1, 32, 1024]) /* ty=Tensor[(50, 32, 1024), float32] */;
    cast(%1158, dtype="float16") /* ty=Tensor[(50, 32, 1024), float16] */
  } /* ty=fn (Tensor[(32, 50, 1024), float32], Tensor[(32, 50, 1), float32], Tensor[(32, 50, 1), float32], Tensor[(1024), float32], Tensor[(1024), float32]) -> Tensor[(50, 32, 1024), float16] */;
  %1287 = %1286(%1281, %1283, %1285, meta[relay.Constant][16] /* ty=Tensor[(1024), float32] */, meta[relay.Constant][17] /* ty=Tensor[(1024), float32] */) /* ty=Tensor[(50, 32, 1024), float16] */;
  %1288 = fn (%p0436: Tensor[(50, 32, 1024), float16] /* ty=Tensor[(50, 32, 1024), float16] */, %p1299: Tensor[(50, 1024, 3072), float16] /* ty=Tensor[(50, 1024, 3072), float16] */, Primitive=1) -> Tensor[(50, 32, 3072), float16] {
    nn.batch_matmul(%p0436, %p1299, out_dtype="float16") /* ty=Tensor[(50, 32, 3072), float16] */
  } /* ty=fn (Tensor[(50, 32, 1024), float16], Tensor[(50, 1024, 3072), float16]) -> Tensor[(50, 32, 3072), float16] */;
  %1289 = %1288(%1287, meta[relay.Constant][18] /* ty=Tensor[(50, 1024, 3072), float16] */) /* ty=Tensor[(50, 32, 3072), float16] */;
  %1290 = fn (%p0435: Tensor[(50, 32, 3072), float16] /* ty=Tensor[(50, 32, 3072), float16] */, %p1298: Tensor[(3072), float16] /* ty=Tensor[(3072), float16] */, Primitive=1) -> (Tensor[(50, 32, 1024), float16], Tensor[(50, 32, 1024), float16], Tensor[(50, 32, 1024), float16]) {
    %1147 = reshape(%p0435, newshape=[50, 32, 3072]) /* ty=Tensor[(50, 32, 3072), float16] */;
    %1148 = squeeze(%1147, axis=[]) /* ty=Tensor[(50, 32, 3072), float16] */;
    %1149 = add(%1148, %p1298) /* ty=Tensor[(50, 32, 3072), float16] */;
    split(%1149, indices_or_sections=[1024, 2048], axis=-1) /* ty=(Tensor[(50, 32, 1024), float16], Tensor[(50, 32, 1024), float16], Tensor[(50, 32, 1024), float16]) */
  } /* ty=fn (Tensor[(50, 32, 3072), float16], Tensor[(3072), float16]) -> (Tensor[(50, 32, 1024), float16], Tensor[(50, 32, 1024), float16], Tensor[(50, 32, 1024), float16]) */;
  %1291 = %1290(%1289, meta[relay.Constant][19] /* ty=Tensor[(3072), float16] */) /* ty=(Tensor[(50, 32, 1024), float16], Tensor[(50, 32, 1024), float16], Tensor[(50, 32, 1024), float16]) */;
  %1292 = fn (%p0434: (Tensor[(50, 32, 1024), float16], Tensor[(50, 32, 1024), float16], Tensor[(50, 32, 1024), float16]) /* ty=(Tensor[(50, 32, 1024), float16], Tensor[(50, 32, 1024), float16], Tensor[(50, 32, 1024), float16]) */, %p1297: float16 /* ty=float16 */, Primitive=1) -> Tensor[(512, 50, 64), float16] {
    %1142 = %p0434.0 /* ty=Tensor[(50, 32, 1024), float16] */;
    %1143 = reshape(%1142, newshape=[50, 512, 64]) /* ty=Tensor[(50, 512, 64), float16] */;
    %1144 = transpose(%1143, axes=[1, 0, 2]) /* ty=Tensor[(512, 50, 64), float16] */;
    %1145 = divide(%1144, %p1297) /* ty=Tensor[(512, 50, 64), float16] */;
    %1146 = broadcast_to(%1145, shape=[512, 50, 64], dtype="float16") /* ty=Tensor[(512, 50, 64), float16] */;
    reshape(%1146, newshape=[-1, 50, 64]) /* ty=Tensor[(512, 50, 64), float16] */
  } /* ty=fn ((Tensor[(50, 32, 1024), float16], Tensor[(50, 32, 1024), float16], Tensor[(50, 32, 1024), float16]), float16) -> Tensor[(512, 50, 64), float16] */;
  %1297 = fn (%p0469: (Tensor[(50, 32, 1024), float16], Tensor[(50, 32, 1024), float16], Tensor[(50, 32, 1024), float16]) /* ty=(Tensor[(50, 32, 1024), float16], Tensor[(50, 32, 1024), float16], Tensor[(50, 32, 1024), float16]) */, Primitive=1) -> Tensor[(512, 64, 50), float16] {
    %1293 = %p0469.1 /* ty=Tensor[(50, 32, 1024), float16] */;
    %1294 = reshape(%1293, newshape=[50, 512, 64]) /* ty=Tensor[(50, 512, 64), float16] */;
    %1295 = transpose(%1294, axes=[1, 2, 0]) /* ty=Tensor[(512, 64, 50), float16] */;
    %1296 = broadcast_to(%1295, shape=[512, 64, 50], dtype="float16") /* ty=Tensor[(512, 64, 50), float16] */;
    reshape(%1296, newshape=[-1, 64, 50]) /* ty=Tensor[(512, 64, 50), float16] */
  } /* ty=fn ((Tensor[(50, 32, 1024), float16], Tensor[(50, 32, 1024), float16], Tensor[(50, 32, 1024), float16])) -> Tensor[(512, 64, 50), float16] */;
  %1298 = %1292(%1291, 8f16 /* ty=float16 */) /* ty=Tensor[(512, 50, 64), float16] */;
  %1299 = %1297(%1291) /* ty=Tensor[(512, 64, 50), float16] */;
  %1300 = fn (%p0433: Tensor[(512, 50, 64), float16] /* ty=Tensor[(512, 50, 64), float16] */, %p1296: Tensor[(512, 64, 50), float16] /* ty=Tensor[(512, 64, 50), float16] */, Primitive=1) -> Tensor[(512, 50, 50), float16] {
    nn.batch_matmul(%p0433, %p1296, out_dtype="float16") /* ty=Tensor[(512, 50, 50), float16] */
  } /* ty=fn (Tensor[(512, 50, 64), float16], Tensor[(512, 64, 50), float16]) -> Tensor[(512, 50, 50), float16] */;
  %1301 = %1300(%1298, %1299) /* ty=Tensor[(512, 50, 50), float16] */;
  %1302 = fn (%p0432: Tensor[(512, 50, 50), float16] /* ty=Tensor[(512, 50, 50), float16] */, Primitive=1) -> Tensor[(512, 50, 50), float32] {
    %1140 = reshape(%p0432, newshape=[512, 50, 50]) /* ty=Tensor[(512, 50, 50), float16] */;
    %1141 = squeeze(%1140, axis=[]) /* ty=Tensor[(512, 50, 50), float16] */;
    cast(%1141, dtype="float32") /* ty=Tensor[(512, 50, 50), float32] */
  } /* ty=fn (Tensor[(512, 50, 50), float16]) -> Tensor[(512, 50, 50), float32] */;
  %1303 = %1302(%1301) /* ty=Tensor[(512, 50, 50), float32] */;
  %1304 = fn (%p0431: Tensor[(512, 50, 50), float32] /* ty=Tensor[(512, 50, 50), float32] */, Primitive=1) -> Tensor[(512, 50, 50), float32] {
    %1139 = nn.softmax(%p0431) /* ty=Tensor[(512, 50, 50), float32] */;
    broadcast_to(%1139, shape=[512, 50, 50]) /* ty=Tensor[(512, 50, 50), float32] */
  } /* ty=fn (Tensor[(512, 50, 50), float32]) -> Tensor[(512, 50, 50), float32] */;
  %1305 = %1304(%1303) /* ty=Tensor[(512, 50, 50), float32] */;
  %1306 = fn (%p0430: Tensor[(512, 50, 50), float32] /* ty=Tensor[(512, 50, 50), float32] */, Primitive=1) -> Tensor[(512, 50, 50), float16] {
    %1138 = reshape(%p0430, newshape=[-1, 50, 50]) /* ty=Tensor[(512, 50, 50), float32] */;
    cast(%1138, dtype="float16") /* ty=Tensor[(512, 50, 50), float16] */
  } /* ty=fn (Tensor[(512, 50, 50), float32]) -> Tensor[(512, 50, 50), float16] */;
  %1311 = fn (%p0470: (Tensor[(50, 32, 1024), float16], Tensor[(50, 32, 1024), float16], Tensor[(50, 32, 1024), float16]) /* ty=(Tensor[(50, 32, 1024), float16], Tensor[(50, 32, 1024), float16], Tensor[(50, 32, 1024), float16]) */, Primitive=1) -> Tensor[(512, 50, 64), float16] {
    %1307 = %p0470.2 /* ty=Tensor[(50, 32, 1024), float16] */;
    %1308 = reshape(%1307, newshape=[50, 512, 64]) /* ty=Tensor[(50, 512, 64), float16] */;
    %1309 = transpose(%1308, axes=[1, 0, 2]) /* ty=Tensor[(512, 50, 64), float16] */;
    %1310 = broadcast_to(%1309, shape=[512, 50, 64], dtype="float16") /* ty=Tensor[(512, 50, 64), float16] */;
    reshape(%1310, newshape=[-1, 50, 64]) /* ty=Tensor[(512, 50, 64), float16] */
  } /* ty=fn ((Tensor[(50, 32, 1024), float16], Tensor[(50, 32, 1024), float16], Tensor[(50, 32, 1024), float16])) -> Tensor[(512, 50, 64), float16] */;
  %1312 = %1306(%1305) /* ty=Tensor[(512, 50, 50), float16] */;
  %1313 = %1311(%1291) /* ty=Tensor[(512, 50, 64), float16] */;
  %1314 = fn (%p0429: Tensor[(512, 50, 50), float16] /* ty=Tensor[(512, 50, 50), float16] */, %p1295: Tensor[(512, 50, 64), float16] /* ty=Tensor[(512, 50, 64), float16] */, Primitive=1) -> Tensor[(512, 50, 64), float16] {
    nn.batch_matmul(%p0429, %p1295, out_dtype="float16") /* ty=Tensor[(512, 50, 64), float16] */
  } /* ty=fn (Tensor[(512, 50, 50), float16], Tensor[(512, 50, 64), float16]) -> Tensor[(512, 50, 64), float16] */;
  %1315 = %1314(%1312, %1313) /* ty=Tensor[(512, 50, 64), float16] */;
  %1316 = fn (%p0428: Tensor[(512, 50, 64), float16] /* ty=Tensor[(512, 50, 64), float16] */, Primitive=1) -> Tensor[(1600, 1024), float16] {
    %1135 = reshape(%p0428, newshape=[512, 50, 64]) /* ty=Tensor[(512, 50, 64), float16] */;
    %1136 = squeeze(%1135, axis=[]) /* ty=Tensor[(512, 50, 64), float16] */;
    %1137 = transpose(%1136, axes=[1, 0, 2]) /* ty=Tensor[(50, 512, 64), float16] */;
    reshape(%1137, newshape=[1600, 1024]) /* ty=Tensor[(1600, 1024), float16] */
  } /* ty=fn (Tensor[(512, 50, 64), float16]) -> Tensor[(1600, 1024), float16] */;
  %1317 = %1316(%1315) /* ty=Tensor[(1600, 1024), float16] */;
  %1318 = fn (%p0427: Tensor[(1600, 1024), float16] /* ty=Tensor[(1600, 1024), float16] */, %p1294: Tensor[(1024, 1024), float16] /* ty=Tensor[(1024, 1024), float16] */, %p2115: Tensor[(1, 1024), float16] /* ty=Tensor[(1, 1024), float16] */, Primitive=1) -> Tensor[(1600, 1024), float16] {
    %1134 = nn.dense(%p0427, %p1294, units=None, out_dtype="float16") /* ty=Tensor[(1600, 1024), float16] */;
    add(%1134, %p2115) /* ty=Tensor[(1600, 1024), float16] */
  } /* ty=fn (Tensor[(1600, 1024), float16], Tensor[(1024, 1024), float16], Tensor[(1, 1024), float16]) -> Tensor[(1600, 1024), float16] */;
  %1319 = %1318(%1317, meta[relay.Constant][20] /* ty=Tensor[(1024, 1024), float16] */, meta[relay.Constant][21] /* ty=Tensor[(1, 1024), float16] */) /* ty=Tensor[(1600, 1024), float16] */;
  %1320 = fn (%p0426: Tensor[(1600, 1024), float16] /* ty=Tensor[(1600, 1024), float16] */, %p1293: Tensor[(32, 50, 1024), float16] /* ty=Tensor[(32, 50, 1024), float16] */, Primitive=1) -> Tensor[(32, 50, 1024), float16] {
    %1132 = reshape(%p0426, newshape=[50, 32, 1024]) /* ty=Tensor[(50, 32, 1024), float16] */;
    %1133 = transpose(%1132, axes=[1, 0, 2]) /* ty=Tensor[(32, 50, 1024), float16] */;
    add(%1133, %p1293) /* ty=Tensor[(32, 50, 1024), float16] */
  } /* ty=fn (Tensor[(1600, 1024), float16], Tensor[(32, 50, 1024), float16]) -> Tensor[(32, 50, 1024), float16] */;
  %1321 = %1320(%1319, %1279) /* ty=Tensor[(32, 50, 1024), float16] */;
  %1322 = fn (%p0425: Tensor[(32, 50, 1024), float16] /* ty=Tensor[(32, 50, 1024), float16] */, Primitive=1) -> Tensor[(32, 50, 1024), float32] {
    cast(%p0425, dtype="float32") /* ty=Tensor[(32, 50, 1024), float32] */
  } /* ty=fn (Tensor[(32, 50, 1024), float16]) -> Tensor[(32, 50, 1024), float32] */;
  %1323 = %1322(%1321) /* ty=Tensor[(32, 50, 1024), float32] */;
  %1324 = fn (%p0471: Tensor[(32, 50, 1024), float32] /* ty=Tensor[(32, 50, 1024), float32] */, Primitive=1) -> Tensor[(32, 50, 1), float32] {
    mean(%p0471, axis=[-1], keepdims=True) /* ty=Tensor[(32, 50, 1), float32] */
  } /* ty=fn (Tensor[(32, 50, 1024), float32]) -> Tensor[(32, 50, 1), float32] */;
  %1325 = %1324(%1323) /* ty=Tensor[(32, 50, 1), float32] */;
  %1326 = fn (%p0472: Tensor[(32, 50, 1024), float32] /* ty=Tensor[(32, 50, 1024), float32] */, %p1319: Tensor[(32, 50, 1), float32] /* ty=Tensor[(32, 50, 1), float32] */, Primitive=1) -> Tensor[(32, 50, 1), float32] {
    variance(%p0472, %p1319, axis=[-1], keepdims=True) /* ty=Tensor[(32, 50, 1), float32] */
  } /* ty=fn (Tensor[(32, 50, 1024), float32], Tensor[(32, 50, 1), float32]) -> Tensor[(32, 50, 1), float32] */;
  %1327 = %1326(%1323, %1325) /* ty=Tensor[(32, 50, 1), float32] */;
  %1328 = fn (%p0424: Tensor[(32, 50, 1024), float32] /* ty=Tensor[(32, 50, 1024), float32] */, %p1292: Tensor[(32, 50, 1), float32] /* ty=Tensor[(32, 50, 1), float32] */, %p2114: Tensor[(32, 50, 1), float32] /* ty=Tensor[(32, 50, 1), float32] */, %p345: Tensor[(1024), float32] /* ty=Tensor[(1024), float32] */, %p445: Tensor[(1024), float32] /* ty=Tensor[(1024), float32] */, Primitive=1) -> Tensor[(32, 50, 1024), float16] {
    %1124 = add(%p2114, 1e-06f /* ty=float32 */) /* ty=Tensor[(32, 50, 1), float32] */;
    %1125 = subtract(%p0424, %p1292) /* ty=Tensor[(32, 50, 1024), float32] */;
    %1126 = rsqrt(%1124) /* ty=Tensor[(32, 50, 1), float32] */;
    %1127 = multiply(%1125, %1126) /* ty=Tensor[(32, 50, 1024), float32] */;
    %1128 = multiply(%1127, %p345) /* ty=Tensor[(32, 50, 1024), float32] */;
    %1129 = add(%1128, %p445) /* ty=Tensor[(32, 50, 1024), float32] */;
    %1130 = broadcast_to(%1129, shape=[32, 50, 1024]) /* ty=Tensor[(32, 50, 1024), float32] */;
    %1131 = reshape(%1130, newshape=[-1, 50, 1024]) /* ty=Tensor[(32, 50, 1024), float32] */;
    cast(%1131, dtype="float16") /* ty=Tensor[(32, 50, 1024), float16] */
  } /* ty=fn (Tensor[(32, 50, 1024), float32], Tensor[(32, 50, 1), float32], Tensor[(32, 50, 1), float32], Tensor[(1024), float32], Tensor[(1024), float32]) -> Tensor[(32, 50, 1024), float16] */;
  %1329 = %1328(%1323, %1325, %1327, meta[relay.Constant][22] /* ty=Tensor[(1024), float32] */, meta[relay.Constant][23] /* ty=Tensor[(1024), float32] */) /* ty=Tensor[(32, 50, 1024), float16] */;
  %1330 = fn (%p0423: Tensor[(32, 50, 1024), float16] /* ty=Tensor[(32, 50, 1024), float16] */, %p1291: Tensor[(32, 1024, 4096), float16] /* ty=Tensor[(32, 1024, 4096), float16] */, Primitive=1) -> Tensor[(32, 50, 4096), float16] {
    nn.batch_matmul(%p0423, %p1291, out_dtype="float16") /* ty=Tensor[(32, 50, 4096), float16] */
  } /* ty=fn (Tensor[(32, 50, 1024), float16], Tensor[(32, 1024, 4096), float16]) -> Tensor[(32, 50, 4096), float16] */;
  %1331 = %1330(%1329, meta[relay.Constant][24] /* ty=Tensor[(32, 1024, 4096), float16] */) /* ty=Tensor[(32, 50, 4096), float16] */;
  %1332 = fn (%p0422: Tensor[(32, 50, 4096), float16] /* ty=Tensor[(32, 50, 4096), float16] */, %p1290: Tensor[(4096), float16] /* ty=Tensor[(4096), float16] */, %p2113: float16 /* ty=float16 */, Primitive=1) -> Tensor[(32, 50, 4096), float16] {
    %1112 = reshape(%p0422, newshape=[32, 50, 4096]) /* ty=Tensor[(32, 50, 4096), float16] */;
    %1113 = squeeze(%1112, axis=[]) /* ty=Tensor[(32, 50, 4096), float16] */;
    %1114 = add(%1113, %p1290) /* ty=Tensor[(32, 50, 4096), float16] */;
    %1115 = multiply(%1114, %p2113) /* ty=Tensor[(32, 50, 4096), float16] */;
    %1116 = cast(%1115, dtype="float32") /* ty=Tensor[(32, 50, 4096), float32] */;
    %1117 = erf(%1116) /* ty=Tensor[(32, 50, 4096), float32] */;
    %1118 = multiply(%1117, 0.5f /* ty=float32 span=aten::gelu_1:0:0 */) /* ty=Tensor[(32, 50, 4096), float32] */;
    %1119 = cast(%1114, dtype="float32") /* ty=Tensor[(32, 50, 4096), float32] */;
    %1120 = add(0.5f /* ty=float32 span=aten::gelu_1:0:0 */, %1118) /* ty=Tensor[(32, 50, 4096), float32] */;
    %1121 = multiply(%1119, %1120) /* ty=Tensor[(32, 50, 4096), float32] */;
    %1122 = broadcast_to(%1121, shape=[32, 50, 4096]) /* ty=Tensor[(32, 50, 4096), float32] */;
    %1123 = reshape(%1122, newshape=[-1, 50, 4096]) /* ty=Tensor[(32, 50, 4096), float32] */;
    cast(%1123, dtype="float16") /* ty=Tensor[(32, 50, 4096), float16] */
  } /* ty=fn (Tensor[(32, 50, 4096), float16], Tensor[(4096), float16], float16) -> Tensor[(32, 50, 4096), float16] */;
  %1333 = %1332(%1331, meta[relay.Constant][25] /* ty=Tensor[(4096), float16] */, 0.707031f16 /* ty=float16 */) /* ty=Tensor[(32, 50, 4096), float16] */;
  %1334 = fn (%p0421: Tensor[(32, 50, 4096), float16] /* ty=Tensor[(32, 50, 4096), float16] */, %p1289: Tensor[(32, 4096, 1024), float16] /* ty=Tensor[(32, 4096, 1024), float16] */, Primitive=1) -> Tensor[(32, 50, 1024), float16] {
    nn.batch_matmul(%p0421, %p1289, out_dtype="float16") /* ty=Tensor[(32, 50, 1024), float16] */
  } /* ty=fn (Tensor[(32, 50, 4096), float16], Tensor[(32, 4096, 1024), float16]) -> Tensor[(32, 50, 1024), float16] */;
  %1335 = %1334(%1333, meta[relay.Constant][26] /* ty=Tensor[(32, 4096, 1024), float16] */) /* ty=Tensor[(32, 50, 1024), float16] */;
  %1336 = fn (%p0420: Tensor[(32, 50, 1024), float16] /* ty=Tensor[(32, 50, 1024), float16] */, %p1288: Tensor[(1024), float16] /* ty=Tensor[(1024), float16] */, %p2112: Tensor[(32, 50, 1024), float16] /* ty=Tensor[(32, 50, 1024), float16] */, Primitive=1) -> Tensor[(32, 50, 1024), float16] {
    %1109 = reshape(%p0420, newshape=[32, 50, 1024]) /* ty=Tensor[(32, 50, 1024), float16] */;
    %1110 = squeeze(%1109, axis=[]) /* ty=Tensor[(32, 50, 1024), float16] */;
    %1111 = add(%1110, %p1288) /* ty=Tensor[(32, 50, 1024), float16] */;
    add(%p2112, %1111) /* ty=Tensor[(32, 50, 1024), float16] */
  } /* ty=fn (Tensor[(32, 50, 1024), float16], Tensor[(1024), float16], Tensor[(32, 50, 1024), float16]) -> Tensor[(32, 50, 1024), float16] */;
  %1337 = %1336(%1335, meta[relay.Constant][27] /* ty=Tensor[(1024), float16] */, %1321) /* ty=Tensor[(32, 50, 1024), float16] */;
  %1338 = fn (%p0419: Tensor[(32, 50, 1024), float16] /* ty=Tensor[(32, 50, 1024), float16] */, Primitive=1) -> Tensor[(32, 50, 1024), float32] {
    cast(%p0419, dtype="float32") /* ty=Tensor[(32, 50, 1024), float32] */
  } /* ty=fn (Tensor[(32, 50, 1024), float16]) -> Tensor[(32, 50, 1024), float32] */;
  %1339 = %1338(%1337) /* ty=Tensor[(32, 50, 1024), float32] */;
  %1340 = fn (%p0473: Tensor[(32, 50, 1024), float32] /* ty=Tensor[(32, 50, 1024), float32] */, Primitive=1) -> Tensor[(32, 50, 1), float32] {
    mean(%p0473, axis=[-1], keepdims=True) /* ty=Tensor[(32, 50, 1), float32] */
  } /* ty=fn (Tensor[(32, 50, 1024), float32]) -> Tensor[(32, 50, 1), float32] */;
  %1341 = %1340(%1339) /* ty=Tensor[(32, 50, 1), float32] */;
  %1342 = fn (%p0474: Tensor[(32, 50, 1024), float32] /* ty=Tensor[(32, 50, 1024), float32] */, %p1320: Tensor[(32, 50, 1), float32] /* ty=Tensor[(32, 50, 1), float32] */, Primitive=1) -> Tensor[(32, 50, 1), float32] {
    variance(%p0474, %p1320, axis=[-1], keepdims=True) /* ty=Tensor[(32, 50, 1), float32] */
  } /* ty=fn (Tensor[(32, 50, 1024), float32], Tensor[(32, 50, 1), float32]) -> Tensor[(32, 50, 1), float32] */;
  %1343 = %1342(%1339, %1341) /* ty=Tensor[(32, 50, 1), float32] */;
  %1344 = fn (%p0418: Tensor[(32, 50, 1024), float32] /* ty=Tensor[(32, 50, 1024), float32] */, %p1287: Tensor[(32, 50, 1), float32] /* ty=Tensor[(32, 50, 1), float32] */, %p2111: Tensor[(32, 50, 1), float32] /* ty=Tensor[(32, 50, 1), float32] */, %p344: Tensor[(1024), float32] /* ty=Tensor[(1024), float32] */, %p444: Tensor[(1024), float32] /* ty=Tensor[(1024), float32] */, Primitive=1) -> Tensor[(50, 32, 1024), float16] {
    %1100 = add(%p2111, 1e-06f /* ty=float32 */) /* ty=Tensor[(32, 50, 1), float32] */;
    %1101 = subtract(%p0418, %p1287) /* ty=Tensor[(32, 50, 1024), float32] */;
    %1102 = rsqrt(%1100) /* ty=Tensor[(32, 50, 1), float32] */;
    %1103 = multiply(%1101, %1102) /* ty=Tensor[(32, 50, 1024), float32] */;
    %1104 = multiply(%1103, %p344) /* ty=Tensor[(32, 50, 1024), float32] */;
    %1105 = add(%1104, %p444) /* ty=Tensor[(32, 50, 1024), float32] */;
    %1106 = transpose(%1105, axes=[1, 0, 2]) /* ty=Tensor[(50, 32, 1024), float32] */;
    %1107 = broadcast_to(%1106, shape=[50, 32, 1024]) /* ty=Tensor[(50, 32, 1024), float32] */;
    %1108 = reshape(%1107, newshape=[-1, 32, 1024]) /* ty=Tensor[(50, 32, 1024), float32] */;
    cast(%1108, dtype="float16") /* ty=Tensor[(50, 32, 1024), float16] */
  } /* ty=fn (Tensor[(32, 50, 1024), float32], Tensor[(32, 50, 1), float32], Tensor[(32, 50, 1), float32], Tensor[(1024), float32], Tensor[(1024), float32]) -> Tensor[(50, 32, 1024), float16] */;
  %1345 = %1344(%1339, %1341, %1343, meta[relay.Constant][28] /* ty=Tensor[(1024), float32] */, meta[relay.Constant][29] /* ty=Tensor[(1024), float32] */) /* ty=Tensor[(50, 32, 1024), float16] */;
  %1346 = fn (%p0417: Tensor[(50, 32, 1024), float16] /* ty=Tensor[(50, 32, 1024), float16] */, %p1286: Tensor[(50, 1024, 3072), float16] /* ty=Tensor[(50, 1024, 3072), float16] */, Primitive=1) -> Tensor[(50, 32, 3072), float16] {
    nn.batch_matmul(%p0417, %p1286, out_dtype="float16") /* ty=Tensor[(50, 32, 3072), float16] */
  } /* ty=fn (Tensor[(50, 32, 1024), float16], Tensor[(50, 1024, 3072), float16]) -> Tensor[(50, 32, 3072), float16] */;
  %1347 = %1346(%1345, meta[relay.Constant][30] /* ty=Tensor[(50, 1024, 3072), float16] */) /* ty=Tensor[(50, 32, 3072), float16] */;
  %1348 = fn (%p0416: Tensor[(50, 32, 3072), float16] /* ty=Tensor[(50, 32, 3072), float16] */, %p1285: Tensor[(3072), float16] /* ty=Tensor[(3072), float16] */, Primitive=1) -> (Tensor[(50, 32, 1024), float16], Tensor[(50, 32, 1024), float16], Tensor[(50, 32, 1024), float16]) {
    %1097 = reshape(%p0416, newshape=[50, 32, 3072]) /* ty=Tensor[(50, 32, 3072), float16] */;
    %1098 = squeeze(%1097, axis=[]) /* ty=Tensor[(50, 32, 3072), float16] */;
    %1099 = add(%1098, %p1285) /* ty=Tensor[(50, 32, 3072), float16] */;
    split(%1099, indices_or_sections=[1024, 2048], axis=-1) /* ty=(Tensor[(50, 32, 1024), float16], Tensor[(50, 32, 1024), float16], Tensor[(50, 32, 1024), float16]) */
  } /* ty=fn (Tensor[(50, 32, 3072), float16], Tensor[(3072), float16]) -> (Tensor[(50, 32, 1024), float16], Tensor[(50, 32, 1024), float16], Tensor[(50, 32, 1024), float16]) */;
  %1349 = %1348(%1347, meta[relay.Constant][31] /* ty=Tensor[(3072), float16] */) /* ty=(Tensor[(50, 32, 1024), float16], Tensor[(50, 32, 1024), float16], Tensor[(50, 32, 1024), float16]) */;
  %1350 = fn (%p0415: (Tensor[(50, 32, 1024), float16], Tensor[(50, 32, 1024), float16], Tensor[(50, 32, 1024), float16]) /* ty=(Tensor[(50, 32, 1024), float16], Tensor[(50, 32, 1024), float16], Tensor[(50, 32, 1024), float16]) */, %p1284: float16 /* ty=float16 */, Primitive=1) -> Tensor[(512, 50, 64), float16] {
    %1092 = %p0415.0 /* ty=Tensor[(50, 32, 1024), float16] */;
    %1093 = reshape(%1092, newshape=[50, 512, 64]) /* ty=Tensor[(50, 512, 64), float16] */;
    %1094 = transpose(%1093, axes=[1, 0, 2]) /* ty=Tensor[(512, 50, 64), float16] */;
    %1095 = divide(%1094, %p1284) /* ty=Tensor[(512, 50, 64), float16] */;
    %1096 = broadcast_to(%1095, shape=[512, 50, 64], dtype="float16") /* ty=Tensor[(512, 50, 64), float16] */;
    reshape(%1096, newshape=[-1, 50, 64]) /* ty=Tensor[(512, 50, 64), float16] */
  } /* ty=fn ((Tensor[(50, 32, 1024), float16], Tensor[(50, 32, 1024), float16], Tensor[(50, 32, 1024), float16]), float16) -> Tensor[(512, 50, 64), float16] */;
  %1355 = fn (%p0475: (Tensor[(50, 32, 1024), float16], Tensor[(50, 32, 1024), float16], Tensor[(50, 32, 1024), float16]) /* ty=(Tensor[(50, 32, 1024), float16], Tensor[(50, 32, 1024), float16], Tensor[(50, 32, 1024), float16]) */, Primitive=1) -> Tensor[(512, 64, 50), float16] {
    %1351 = %p0475.1 /* ty=Tensor[(50, 32, 1024), float16] */;
    %1352 = reshape(%1351, newshape=[50, 512, 64]) /* ty=Tensor[(50, 512, 64), float16] */;
    %1353 = transpose(%1352, axes=[1, 2, 0]) /* ty=Tensor[(512, 64, 50), float16] */;
    %1354 = broadcast_to(%1353, shape=[512, 64, 50], dtype="float16") /* ty=Tensor[(512, 64, 50), float16] */;
    reshape(%1354, newshape=[-1, 64, 50]) /* ty=Tensor[(512, 64, 50), float16] */
  } /* ty=fn ((Tensor[(50, 32, 1024), float16], Tensor[(50, 32, 1024), float16], Tensor[(50, 32, 1024), float16])) -> Tensor[(512, 64, 50), float16] */;
  %1356 = %1350(%1349, 8f16 /* ty=float16 */) /* ty=Tensor[(512, 50, 64), float16] */;
  %1357 = %1355(%1349) /* ty=Tensor[(512, 64, 50), float16] */;
  %1358 = fn (%p0414: Tensor[(512, 50, 64), float16] /* ty=Tensor[(512, 50, 64), float16] */, %p1283: Tensor[(512, 64, 50), float16] /* ty=Tensor[(512, 64, 50), float16] */, Primitive=1) -> Tensor[(512, 50, 50), float16] {
    nn.batch_matmul(%p0414, %p1283, out_dtype="float16") /* ty=Tensor[(512, 50, 50), float16] */
  } /* ty=fn (Tensor[(512, 50, 64), float16], Tensor[(512, 64, 50), float16]) -> Tensor[(512, 50, 50), float16] */;
  %1359 = %1358(%1356, %1357) /* ty=Tensor[(512, 50, 50), float16] */;
  %1360 = fn (%p0413: Tensor[(512, 50, 50), float16] /* ty=Tensor[(512, 50, 50), float16] */, Primitive=1) -> Tensor[(512, 50, 50), float32] {
    %1090 = reshape(%p0413, newshape=[512, 50, 50]) /* ty=Tensor[(512, 50, 50), float16] */;
    %1091 = squeeze(%1090, axis=[]) /* ty=Tensor[(512, 50, 50), float16] */;
    cast(%1091, dtype="float32") /* ty=Tensor[(512, 50, 50), float32] */
  } /* ty=fn (Tensor[(512, 50, 50), float16]) -> Tensor[(512, 50, 50), float32] */;
  %1361 = %1360(%1359) /* ty=Tensor[(512, 50, 50), float32] */;
  %1362 = fn (%p0412: Tensor[(512, 50, 50), float32] /* ty=Tensor[(512, 50, 50), float32] */, Primitive=1) -> Tensor[(512, 50, 50), float32] {
    %1089 = nn.softmax(%p0412) /* ty=Tensor[(512, 50, 50), float32] */;
    broadcast_to(%1089, shape=[512, 50, 50]) /* ty=Tensor[(512, 50, 50), float32] */
  } /* ty=fn (Tensor[(512, 50, 50), float32]) -> Tensor[(512, 50, 50), float32] */;
  %1363 = %1362(%1361) /* ty=Tensor[(512, 50, 50), float32] */;
  %1364 = fn (%p0411: Tensor[(512, 50, 50), float32] /* ty=Tensor[(512, 50, 50), float32] */, Primitive=1) -> Tensor[(512, 50, 50), float16] {
    %1088 = reshape(%p0411, newshape=[-1, 50, 50]) /* ty=Tensor[(512, 50, 50), float32] */;
    cast(%1088, dtype="float16") /* ty=Tensor[(512, 50, 50), float16] */
  } /* ty=fn (Tensor[(512, 50, 50), float32]) -> Tensor[(512, 50, 50), float16] */;
  %1369 = fn (%p0476: (Tensor[(50, 32, 1024), float16], Tensor[(50, 32, 1024), float16], Tensor[(50, 32, 1024), float16]) /* ty=(Tensor[(50, 32, 1024), float16], Tensor[(50, 32, 1024), float16], Tensor[(50, 32, 1024), float16]) */, Primitive=1) -> Tensor[(512, 50, 64), float16] {
    %1365 = %p0476.2 /* ty=Tensor[(50, 32, 1024), float16] */;
    %1366 = reshape(%1365, newshape=[50, 512, 64]) /* ty=Tensor[(50, 512, 64), float16] */;
    %1367 = transpose(%1366, axes=[1, 0, 2]) /* ty=Tensor[(512, 50, 64), float16] */;
    %1368 = broadcast_to(%1367, shape=[512, 50, 64], dtype="float16") /* ty=Tensor[(512, 50, 64), float16] */;
    reshape(%1368, newshape=[-1, 50, 64]) /* ty=Tensor[(512, 50, 64), float16] */
  } /* ty=fn ((Tensor[(50, 32, 1024), float16], Tensor[(50, 32, 1024), float16], Tensor[(50, 32, 1024), float16])) -> Tensor[(512, 50, 64), float16] */;
  %1370 = %1364(%1363) /* ty=Tensor[(512, 50, 50), float16] */;
  %1371 = %1369(%1349) /* ty=Tensor[(512, 50, 64), float16] */;
  %1372 = fn (%p0410: Tensor[(512, 50, 50), float16] /* ty=Tensor[(512, 50, 50), float16] */, %p1282: Tensor[(512, 50, 64), float16] /* ty=Tensor[(512, 50, 64), float16] */, Primitive=1) -> Tensor[(512, 50, 64), float16] {
    nn.batch_matmul(%p0410, %p1282, out_dtype="float16") /* ty=Tensor[(512, 50, 64), float16] */
  } /* ty=fn (Tensor[(512, 50, 50), float16], Tensor[(512, 50, 64), float16]) -> Tensor[(512, 50, 64), float16] */;
  %1373 = %1372(%1370, %1371) /* ty=Tensor[(512, 50, 64), float16] */;
  %1374 = fn (%p0409: Tensor[(512, 50, 64), float16] /* ty=Tensor[(512, 50, 64), float16] */, Primitive=1) -> Tensor[(1600, 1024), float16] {
    %1085 = reshape(%p0409, newshape=[512, 50, 64]) /* ty=Tensor[(512, 50, 64), float16] */;
    %1086 = squeeze(%1085, axis=[]) /* ty=Tensor[(512, 50, 64), float16] */;
    %1087 = transpose(%1086, axes=[1, 0, 2]) /* ty=Tensor[(50, 512, 64), float16] */;
    reshape(%1087, newshape=[1600, 1024]) /* ty=Tensor[(1600, 1024), float16] */
  } /* ty=fn (Tensor[(512, 50, 64), float16]) -> Tensor[(1600, 1024), float16] */;
  %1375 = %1374(%1373) /* ty=Tensor[(1600, 1024), float16] */;
  %1376 = fn (%p0408: Tensor[(1600, 1024), float16] /* ty=Tensor[(1600, 1024), float16] */, %p1281: Tensor[(1024, 1024), float16] /* ty=Tensor[(1024, 1024), float16] */, %p2110: Tensor[(1, 1024), float16] /* ty=Tensor[(1, 1024), float16] */, Primitive=1) -> Tensor[(1600, 1024), float16] {
    %1084 = nn.dense(%p0408, %p1281, units=None, out_dtype="float16") /* ty=Tensor[(1600, 1024), float16] */;
    add(%1084, %p2110) /* ty=Tensor[(1600, 1024), float16] */
  } /* ty=fn (Tensor[(1600, 1024), float16], Tensor[(1024, 1024), float16], Tensor[(1, 1024), float16]) -> Tensor[(1600, 1024), float16] */;
  %1377 = %1376(%1375, meta[relay.Constant][32] /* ty=Tensor[(1024, 1024), float16] */, meta[relay.Constant][33] /* ty=Tensor[(1, 1024), float16] */) /* ty=Tensor[(1600, 1024), float16] */;
  %1378 = fn (%p0407: Tensor[(1600, 1024), float16] /* ty=Tensor[(1600, 1024), float16] */, %p1280: Tensor[(32, 50, 1024), float16] /* ty=Tensor[(32, 50, 1024), float16] */, Primitive=1) -> Tensor[(32, 50, 1024), float16] {
    %1082 = reshape(%p0407, newshape=[50, 32, 1024]) /* ty=Tensor[(50, 32, 1024), float16] */;
    %1083 = transpose(%1082, axes=[1, 0, 2]) /* ty=Tensor[(32, 50, 1024), float16] */;
    add(%1083, %p1280) /* ty=Tensor[(32, 50, 1024), float16] */
  } /* ty=fn (Tensor[(1600, 1024), float16], Tensor[(32, 50, 1024), float16]) -> Tensor[(32, 50, 1024), float16] */;
  %1379 = %1378(%1377, %1337) /* ty=Tensor[(32, 50, 1024), float16] */;
  %1380 = fn (%p0406: Tensor[(32, 50, 1024), float16] /* ty=Tensor[(32, 50, 1024), float16] */, Primitive=1) -> Tensor[(32, 50, 1024), float32] {
    cast(%p0406, dtype="float32") /* ty=Tensor[(32, 50, 1024), float32] */
  } /* ty=fn (Tensor[(32, 50, 1024), float16]) -> Tensor[(32, 50, 1024), float32] */;
  %1381 = %1380(%1379) /* ty=Tensor[(32, 50, 1024), float32] */;
  %1382 = fn (%p0477: Tensor[(32, 50, 1024), float32] /* ty=Tensor[(32, 50, 1024), float32] */, Primitive=1) -> Tensor[(32, 50, 1), float32] {
    mean(%p0477, axis=[-1], keepdims=True) /* ty=Tensor[(32, 50, 1), float32] */
  } /* ty=fn (Tensor[(32, 50, 1024), float32]) -> Tensor[(32, 50, 1), float32] */;
  %1383 = %1382(%1381) /* ty=Tensor[(32, 50, 1), float32] */;
  %1384 = fn (%p0478: Tensor[(32, 50, 1024), float32] /* ty=Tensor[(32, 50, 1024), float32] */, %p1321: Tensor[(32, 50, 1), float32] /* ty=Tensor[(32, 50, 1), float32] */, Primitive=1) -> Tensor[(32, 50, 1), float32] {
    variance(%p0478, %p1321, axis=[-1], keepdims=True) /* ty=Tensor[(32, 50, 1), float32] */
  } /* ty=fn (Tensor[(32, 50, 1024), float32], Tensor[(32, 50, 1), float32]) -> Tensor[(32, 50, 1), float32] */;
  %1385 = %1384(%1381, %1383) /* ty=Tensor[(32, 50, 1), float32] */;
  %1386 = fn (%p0405: Tensor[(32, 50, 1024), float32] /* ty=Tensor[(32, 50, 1024), float32] */, %p1279: Tensor[(32, 50, 1), float32] /* ty=Tensor[(32, 50, 1), float32] */, %p2109: Tensor[(32, 50, 1), float32] /* ty=Tensor[(32, 50, 1), float32] */, %p343: Tensor[(1024), float32] /* ty=Tensor[(1024), float32] */, %p443: Tensor[(1024), float32] /* ty=Tensor[(1024), float32] */, Primitive=1) -> Tensor[(32, 50, 1024), float16] {
    %1074 = add(%p2109, 1e-06f /* ty=float32 */) /* ty=Tensor[(32, 50, 1), float32] */;
    %1075 = subtract(%p0405, %p1279) /* ty=Tensor[(32, 50, 1024), float32] */;
    %1076 = rsqrt(%1074) /* ty=Tensor[(32, 50, 1), float32] */;
    %1077 = multiply(%1075, %1076) /* ty=Tensor[(32, 50, 1024), float32] */;
    %1078 = multiply(%1077, %p343) /* ty=Tensor[(32, 50, 1024), float32] */;
    %1079 = add(%1078, %p443) /* ty=Tensor[(32, 50, 1024), float32] */;
    %1080 = broadcast_to(%1079, shape=[32, 50, 1024]) /* ty=Tensor[(32, 50, 1024), float32] */;
    %1081 = reshape(%1080, newshape=[-1, 50, 1024]) /* ty=Tensor[(32, 50, 1024), float32] */;
    cast(%1081, dtype="float16") /* ty=Tensor[(32, 50, 1024), float16] */
  } /* ty=fn (Tensor[(32, 50, 1024), float32], Tensor[(32, 50, 1), float32], Tensor[(32, 50, 1), float32], Tensor[(1024), float32], Tensor[(1024), float32]) -> Tensor[(32, 50, 1024), float16] */;
  %1387 = %1386(%1381, %1383, %1385, meta[relay.Constant][34] /* ty=Tensor[(1024), float32] */, meta[relay.Constant][35] /* ty=Tensor[(1024), float32] */) /* ty=Tensor[(32, 50, 1024), float16] */;
  %1388 = fn (%p0404: Tensor[(32, 50, 1024), float16] /* ty=Tensor[(32, 50, 1024), float16] */, %p1278: Tensor[(32, 1024, 4096), float16] /* ty=Tensor[(32, 1024, 4096), float16] */, Primitive=1) -> Tensor[(32, 50, 4096), float16] {
    nn.batch_matmul(%p0404, %p1278, out_dtype="float16") /* ty=Tensor[(32, 50, 4096), float16] */
  } /* ty=fn (Tensor[(32, 50, 1024), float16], Tensor[(32, 1024, 4096), float16]) -> Tensor[(32, 50, 4096), float16] */;
  %1389 = %1388(%1387, meta[relay.Constant][36] /* ty=Tensor[(32, 1024, 4096), float16] */) /* ty=Tensor[(32, 50, 4096), float16] */;
  %1390 = fn (%p0403: Tensor[(32, 50, 4096), float16] /* ty=Tensor[(32, 50, 4096), float16] */, %p1277: Tensor[(4096), float16] /* ty=Tensor[(4096), float16] */, %p2108: float16 /* ty=float16 */, Primitive=1) -> Tensor[(32, 50, 4096), float16] {
    %1062 = reshape(%p0403, newshape=[32, 50, 4096]) /* ty=Tensor[(32, 50, 4096), float16] */;
    %1063 = squeeze(%1062, axis=[]) /* ty=Tensor[(32, 50, 4096), float16] */;
    %1064 = add(%1063, %p1277) /* ty=Tensor[(32, 50, 4096), float16] */;
    %1065 = multiply(%1064, %p2108) /* ty=Tensor[(32, 50, 4096), float16] */;
    %1066 = cast(%1065, dtype="float32") /* ty=Tensor[(32, 50, 4096), float32] */;
    %1067 = erf(%1066) /* ty=Tensor[(32, 50, 4096), float32] */;
    %1068 = multiply(%1067, 0.5f /* ty=float32 span=aten::gelu_2:0:0 */) /* ty=Tensor[(32, 50, 4096), float32] */;
    %1069 = cast(%1064, dtype="float32") /* ty=Tensor[(32, 50, 4096), float32] */;
    %1070 = add(0.5f /* ty=float32 span=aten::gelu_2:0:0 */, %1068) /* ty=Tensor[(32, 50, 4096), float32] */;
    %1071 = multiply(%1069, %1070) /* ty=Tensor[(32, 50, 4096), float32] */;
    %1072 = broadcast_to(%1071, shape=[32, 50, 4096]) /* ty=Tensor[(32, 50, 4096), float32] */;
    %1073 = reshape(%1072, newshape=[-1, 50, 4096]) /* ty=Tensor[(32, 50, 4096), float32] */;
    cast(%1073, dtype="float16") /* ty=Tensor[(32, 50, 4096), float16] */
  } /* ty=fn (Tensor[(32, 50, 4096), float16], Tensor[(4096), float16], float16) -> Tensor[(32, 50, 4096), float16] */;
  %1391 = %1390(%1389, meta[relay.Constant][37] /* ty=Tensor[(4096), float16] */, 0.707031f16 /* ty=float16 */) /* ty=Tensor[(32, 50, 4096), float16] */;
  %1392 = fn (%p0402: Tensor[(32, 50, 4096), float16] /* ty=Tensor[(32, 50, 4096), float16] */, %p1276: Tensor[(32, 4096, 1024), float16] /* ty=Tensor[(32, 4096, 1024), float16] */, Primitive=1) -> Tensor[(32, 50, 1024), float16] {
    nn.batch_matmul(%p0402, %p1276, out_dtype="float16") /* ty=Tensor[(32, 50, 1024), float16] */
  } /* ty=fn (Tensor[(32, 50, 4096), float16], Tensor[(32, 4096, 1024), float16]) -> Tensor[(32, 50, 1024), float16] */;
  %1393 = %1392(%1391, meta[relay.Constant][38] /* ty=Tensor[(32, 4096, 1024), float16] */) /* ty=Tensor[(32, 50, 1024), float16] */;
  %1394 = fn (%p0401: Tensor[(32, 50, 1024), float16] /* ty=Tensor[(32, 50, 1024), float16] */, %p1275: Tensor[(1024), float16] /* ty=Tensor[(1024), float16] */, %p2107: Tensor[(32, 50, 1024), float16] /* ty=Tensor[(32, 50, 1024), float16] */, Primitive=1) -> Tensor[(32, 50, 1024), float16] {
    %1059 = reshape(%p0401, newshape=[32, 50, 1024]) /* ty=Tensor[(32, 50, 1024), float16] */;
    %1060 = squeeze(%1059, axis=[]) /* ty=Tensor[(32, 50, 1024), float16] */;
    %1061 = add(%1060, %p1275) /* ty=Tensor[(32, 50, 1024), float16] */;
    add(%p2107, %1061) /* ty=Tensor[(32, 50, 1024), float16] */
  } /* ty=fn (Tensor[(32, 50, 1024), float16], Tensor[(1024), float16], Tensor[(32, 50, 1024), float16]) -> Tensor[(32, 50, 1024), float16] */;
  %1395 = %1394(%1393, meta[relay.Constant][39] /* ty=Tensor[(1024), float16] */, %1379) /* ty=Tensor[(32, 50, 1024), float16] */;
  %1396 = fn (%p0400: Tensor[(32, 50, 1024), float16] /* ty=Tensor[(32, 50, 1024), float16] */, Primitive=1) -> Tensor[(32, 50, 1024), float32] {
    cast(%p0400, dtype="float32") /* ty=Tensor[(32, 50, 1024), float32] */
  } /* ty=fn (Tensor[(32, 50, 1024), float16]) -> Tensor[(32, 50, 1024), float32] */;
  %1397 = %1396(%1395) /* ty=Tensor[(32, 50, 1024), float32] */;
  %1398 = fn (%p0479: Tensor[(32, 50, 1024), float32] /* ty=Tensor[(32, 50, 1024), float32] */, Primitive=1) -> Tensor[(32, 50, 1), float32] {
    mean(%p0479, axis=[-1], keepdims=True) /* ty=Tensor[(32, 50, 1), float32] */
  } /* ty=fn (Tensor[(32, 50, 1024), float32]) -> Tensor[(32, 50, 1), float32] */;
  %1399 = %1398(%1397) /* ty=Tensor[(32, 50, 1), float32] */;
  %1400 = fn (%p0480: Tensor[(32, 50, 1024), float32] /* ty=Tensor[(32, 50, 1024), float32] */, %p1322: Tensor[(32, 50, 1), float32] /* ty=Tensor[(32, 50, 1), float32] */, Primitive=1) -> Tensor[(32, 50, 1), float32] {
    variance(%p0480, %p1322, axis=[-1], keepdims=True) /* ty=Tensor[(32, 50, 1), float32] */
  } /* ty=fn (Tensor[(32, 50, 1024), float32], Tensor[(32, 50, 1), float32]) -> Tensor[(32, 50, 1), float32] */;
  %1401 = %1400(%1397, %1399) /* ty=Tensor[(32, 50, 1), float32] */;
  %1402 = fn (%p0399: Tensor[(32, 50, 1024), float32] /* ty=Tensor[(32, 50, 1024), float32] */, %p1274: Tensor[(32, 50, 1), float32] /* ty=Tensor[(32, 50, 1), float32] */, %p2106: Tensor[(32, 50, 1), float32] /* ty=Tensor[(32, 50, 1), float32] */, %p342: Tensor[(1024), float32] /* ty=Tensor[(1024), float32] */, %p442: Tensor[(1024), float32] /* ty=Tensor[(1024), float32] */, Primitive=1) -> Tensor[(50, 32, 1024), float16] {
    %1050 = add(%p2106, 1e-06f /* ty=float32 */) /* ty=Tensor[(32, 50, 1), float32] */;
    %1051 = subtract(%p0399, %p1274) /* ty=Tensor[(32, 50, 1024), float32] */;
    %1052 = rsqrt(%1050) /* ty=Tensor[(32, 50, 1), float32] */;
    %1053 = multiply(%1051, %1052) /* ty=Tensor[(32, 50, 1024), float32] */;
    %1054 = multiply(%1053, %p342) /* ty=Tensor[(32, 50, 1024), float32] */;
    %1055 = add(%1054, %p442) /* ty=Tensor[(32, 50, 1024), float32] */;
    %1056 = transpose(%1055, axes=[1, 0, 2]) /* ty=Tensor[(50, 32, 1024), float32] */;
    %1057 = broadcast_to(%1056, shape=[50, 32, 1024]) /* ty=Tensor[(50, 32, 1024), float32] */;
    %1058 = reshape(%1057, newshape=[-1, 32, 1024]) /* ty=Tensor[(50, 32, 1024), float32] */;
    cast(%1058, dtype="float16") /* ty=Tensor[(50, 32, 1024), float16] */
  } /* ty=fn (Tensor[(32, 50, 1024), float32], Tensor[(32, 50, 1), float32], Tensor[(32, 50, 1), float32], Tensor[(1024), float32], Tensor[(1024), float32]) -> Tensor[(50, 32, 1024), float16] */;
  %1403 = %1402(%1397, %1399, %1401, meta[relay.Constant][40] /* ty=Tensor[(1024), float32] */, meta[relay.Constant][41] /* ty=Tensor[(1024), float32] */) /* ty=Tensor[(50, 32, 1024), float16] */;
  %1404 = fn (%p0398: Tensor[(50, 32, 1024), float16] /* ty=Tensor[(50, 32, 1024), float16] */, %p1273: Tensor[(50, 1024, 3072), float16] /* ty=Tensor[(50, 1024, 3072), float16] */, Primitive=1) -> Tensor[(50, 32, 3072), float16] {
    nn.batch_matmul(%p0398, %p1273, out_dtype="float16") /* ty=Tensor[(50, 32, 3072), float16] */
  } /* ty=fn (Tensor[(50, 32, 1024), float16], Tensor[(50, 1024, 3072), float16]) -> Tensor[(50, 32, 3072), float16] */;
  %1405 = %1404(%1403, meta[relay.Constant][42] /* ty=Tensor[(50, 1024, 3072), float16] */) /* ty=Tensor[(50, 32, 3072), float16] */;
  %1406 = fn (%p0397: Tensor[(50, 32, 3072), float16] /* ty=Tensor[(50, 32, 3072), float16] */, %p1272: Tensor[(3072), float16] /* ty=Tensor[(3072), float16] */, Primitive=1) -> (Tensor[(50, 32, 1024), float16], Tensor[(50, 32, 1024), float16], Tensor[(50, 32, 1024), float16]) {
    %1047 = reshape(%p0397, newshape=[50, 32, 3072]) /* ty=Tensor[(50, 32, 3072), float16] */;
    %1048 = squeeze(%1047, axis=[]) /* ty=Tensor[(50, 32, 3072), float16] */;
    %1049 = add(%1048, %p1272) /* ty=Tensor[(50, 32, 3072), float16] */;
    split(%1049, indices_or_sections=[1024, 2048], axis=-1) /* ty=(Tensor[(50, 32, 1024), float16], Tensor[(50, 32, 1024), float16], Tensor[(50, 32, 1024), float16]) */
  } /* ty=fn (Tensor[(50, 32, 3072), float16], Tensor[(3072), float16]) -> (Tensor[(50, 32, 1024), float16], Tensor[(50, 32, 1024), float16], Tensor[(50, 32, 1024), float16]) */;
  %1407 = %1406(%1405, meta[relay.Constant][43] /* ty=Tensor[(3072), float16] */) /* ty=(Tensor[(50, 32, 1024), float16], Tensor[(50, 32, 1024), float16], Tensor[(50, 32, 1024), float16]) */;
  %1408 = fn (%p0396: (Tensor[(50, 32, 1024), float16], Tensor[(50, 32, 1024), float16], Tensor[(50, 32, 1024), float16]) /* ty=(Tensor[(50, 32, 1024), float16], Tensor[(50, 32, 1024), float16], Tensor[(50, 32, 1024), float16]) */, %p1271: float16 /* ty=float16 */, Primitive=1) -> Tensor[(512, 50, 64), float16] {
    %1042 = %p0396.0 /* ty=Tensor[(50, 32, 1024), float16] */;
    %1043 = reshape(%1042, newshape=[50, 512, 64]) /* ty=Tensor[(50, 512, 64), float16] */;
    %1044 = transpose(%1043, axes=[1, 0, 2]) /* ty=Tensor[(512, 50, 64), float16] */;
    %1045 = divide(%1044, %p1271) /* ty=Tensor[(512, 50, 64), float16] */;
    %1046 = broadcast_to(%1045, shape=[512, 50, 64], dtype="float16") /* ty=Tensor[(512, 50, 64), float16] */;
    reshape(%1046, newshape=[-1, 50, 64]) /* ty=Tensor[(512, 50, 64), float16] */
  } /* ty=fn ((Tensor[(50, 32, 1024), float16], Tensor[(50, 32, 1024), float16], Tensor[(50, 32, 1024), float16]), float16) -> Tensor[(512, 50, 64), float16] */;
  %1413 = fn (%p0481: (Tensor[(50, 32, 1024), float16], Tensor[(50, 32, 1024), float16], Tensor[(50, 32, 1024), float16]) /* ty=(Tensor[(50, 32, 1024), float16], Tensor[(50, 32, 1024), float16], Tensor[(50, 32, 1024), float16]) */, Primitive=1) -> Tensor[(512, 64, 50), float16] {
    %1409 = %p0481.1 /* ty=Tensor[(50, 32, 1024), float16] */;
    %1410 = reshape(%1409, newshape=[50, 512, 64]) /* ty=Tensor[(50, 512, 64), float16] */;
    %1411 = transpose(%1410, axes=[1, 2, 0]) /* ty=Tensor[(512, 64, 50), float16] */;
    %1412 = broadcast_to(%1411, shape=[512, 64, 50], dtype="float16") /* ty=Tensor[(512, 64, 50), float16] */;
    reshape(%1412, newshape=[-1, 64, 50]) /* ty=Tensor[(512, 64, 50), float16] */
  } /* ty=fn ((Tensor[(50, 32, 1024), float16], Tensor[(50, 32, 1024), float16], Tensor[(50, 32, 1024), float16])) -> Tensor[(512, 64, 50), float16] */;
  %1414 = %1408(%1407, 8f16 /* ty=float16 */) /* ty=Tensor[(512, 50, 64), float16] */;
  %1415 = %1413(%1407) /* ty=Tensor[(512, 64, 50), float16] */;
  %1416 = fn (%p0395: Tensor[(512, 50, 64), float16] /* ty=Tensor[(512, 50, 64), float16] */, %p1270: Tensor[(512, 64, 50), float16] /* ty=Tensor[(512, 64, 50), float16] */, Primitive=1) -> Tensor[(512, 50, 50), float16] {
    nn.batch_matmul(%p0395, %p1270, out_dtype="float16") /* ty=Tensor[(512, 50, 50), float16] */
  } /* ty=fn (Tensor[(512, 50, 64), float16], Tensor[(512, 64, 50), float16]) -> Tensor[(512, 50, 50), float16] */;
  %1417 = %1416(%1414, %1415) /* ty=Tensor[(512, 50, 50), float16] */;
  %1418 = fn (%p0394: Tensor[(512, 50, 50), float16] /* ty=Tensor[(512, 50, 50), float16] */, Primitive=1) -> Tensor[(512, 50, 50), float32] {
    %1040 = reshape(%p0394, newshape=[512, 50, 50]) /* ty=Tensor[(512, 50, 50), float16] */;
    %1041 = squeeze(%1040, axis=[]) /* ty=Tensor[(512, 50, 50), float16] */;
    cast(%1041, dtype="float32") /* ty=Tensor[(512, 50, 50), float32] */
  } /* ty=fn (Tensor[(512, 50, 50), float16]) -> Tensor[(512, 50, 50), float32] */;
  %1419 = %1418(%1417) /* ty=Tensor[(512, 50, 50), float32] */;
  %1420 = fn (%p0393: Tensor[(512, 50, 50), float32] /* ty=Tensor[(512, 50, 50), float32] */, Primitive=1) -> Tensor[(512, 50, 50), float32] {
    %1039 = nn.softmax(%p0393) /* ty=Tensor[(512, 50, 50), float32] */;
    broadcast_to(%1039, shape=[512, 50, 50]) /* ty=Tensor[(512, 50, 50), float32] */
  } /* ty=fn (Tensor[(512, 50, 50), float32]) -> Tensor[(512, 50, 50), float32] */;
  %1421 = %1420(%1419) /* ty=Tensor[(512, 50, 50), float32] */;
  %1422 = fn (%p0392: Tensor[(512, 50, 50), float32] /* ty=Tensor[(512, 50, 50), float32] */, Primitive=1) -> Tensor[(512, 50, 50), float16] {
    %1038 = reshape(%p0392, newshape=[-1, 50, 50]) /* ty=Tensor[(512, 50, 50), float32] */;
    cast(%1038, dtype="float16") /* ty=Tensor[(512, 50, 50), float16] */
  } /* ty=fn (Tensor[(512, 50, 50), float32]) -> Tensor[(512, 50, 50), float16] */;
  %1427 = fn (%p0482: (Tensor[(50, 32, 1024), float16], Tensor[(50, 32, 1024), float16], Tensor[(50, 32, 1024), float16]) /* ty=(Tensor[(50, 32, 1024), float16], Tensor[(50, 32, 1024), float16], Tensor[(50, 32, 1024), float16]) */, Primitive=1) -> Tensor[(512, 50, 64), float16] {
    %1423 = %p0482.2 /* ty=Tensor[(50, 32, 1024), float16] */;
    %1424 = reshape(%1423, newshape=[50, 512, 64]) /* ty=Tensor[(50, 512, 64), float16] */;
    %1425 = transpose(%1424, axes=[1, 0, 2]) /* ty=Tensor[(512, 50, 64), float16] */;
    %1426 = broadcast_to(%1425, shape=[512, 50, 64], dtype="float16") /* ty=Tensor[(512, 50, 64), float16] */;
    reshape(%1426, newshape=[-1, 50, 64]) /* ty=Tensor[(512, 50, 64), float16] */
  } /* ty=fn ((Tensor[(50, 32, 1024), float16], Tensor[(50, 32, 1024), float16], Tensor[(50, 32, 1024), float16])) -> Tensor[(512, 50, 64), float16] */;
  %1428 = %1422(%1421) /* ty=Tensor[(512, 50, 50), float16] */;
  %1429 = %1427(%1407) /* ty=Tensor[(512, 50, 64), float16] */;
  %1430 = fn (%p0391: Tensor[(512, 50, 50), float16] /* ty=Tensor[(512, 50, 50), float16] */, %p1269: Tensor[(512, 50, 64), float16] /* ty=Tensor[(512, 50, 64), float16] */, Primitive=1) -> Tensor[(512, 50, 64), float16] {
    nn.batch_matmul(%p0391, %p1269, out_dtype="float16") /* ty=Tensor[(512, 50, 64), float16] */
  } /* ty=fn (Tensor[(512, 50, 50), float16], Tensor[(512, 50, 64), float16]) -> Tensor[(512, 50, 64), float16] */;
  %1431 = %1430(%1428, %1429) /* ty=Tensor[(512, 50, 64), float16] */;
  %1432 = fn (%p0390: Tensor[(512, 50, 64), float16] /* ty=Tensor[(512, 50, 64), float16] */, Primitive=1) -> Tensor[(1600, 1024), float16] {
    %1035 = reshape(%p0390, newshape=[512, 50, 64]) /* ty=Tensor[(512, 50, 64), float16] */;
    %1036 = squeeze(%1035, axis=[]) /* ty=Tensor[(512, 50, 64), float16] */;
    %1037 = transpose(%1036, axes=[1, 0, 2]) /* ty=Tensor[(50, 512, 64), float16] */;
    reshape(%1037, newshape=[1600, 1024]) /* ty=Tensor[(1600, 1024), float16] */
  } /* ty=fn (Tensor[(512, 50, 64), float16]) -> Tensor[(1600, 1024), float16] */;
  %1433 = %1432(%1431) /* ty=Tensor[(1600, 1024), float16] */;
  %1434 = fn (%p0389: Tensor[(1600, 1024), float16] /* ty=Tensor[(1600, 1024), float16] */, %p1268: Tensor[(1024, 1024), float16] /* ty=Tensor[(1024, 1024), float16] */, %p2105: Tensor[(1, 1024), float16] /* ty=Tensor[(1, 1024), float16] */, Primitive=1) -> Tensor[(1600, 1024), float16] {
    %1034 = nn.dense(%p0389, %p1268, units=None, out_dtype="float16") /* ty=Tensor[(1600, 1024), float16] */;
    add(%1034, %p2105) /* ty=Tensor[(1600, 1024), float16] */
  } /* ty=fn (Tensor[(1600, 1024), float16], Tensor[(1024, 1024), float16], Tensor[(1, 1024), float16]) -> Tensor[(1600, 1024), float16] */;
  %1435 = %1434(%1433, meta[relay.Constant][44] /* ty=Tensor[(1024, 1024), float16] */, meta[relay.Constant][45] /* ty=Tensor[(1, 1024), float16] */) /* ty=Tensor[(1600, 1024), float16] */;
  %1436 = fn (%p0388: Tensor[(1600, 1024), float16] /* ty=Tensor[(1600, 1024), float16] */, %p1267: Tensor[(32, 50, 1024), float16] /* ty=Tensor[(32, 50, 1024), float16] */, Primitive=1) -> Tensor[(32, 50, 1024), float16] {
    %1032 = reshape(%p0388, newshape=[50, 32, 1024]) /* ty=Tensor[(50, 32, 1024), float16] */;
    %1033 = transpose(%1032, axes=[1, 0, 2]) /* ty=Tensor[(32, 50, 1024), float16] */;
    add(%1033, %p1267) /* ty=Tensor[(32, 50, 1024), float16] */
  } /* ty=fn (Tensor[(1600, 1024), float16], Tensor[(32, 50, 1024), float16]) -> Tensor[(32, 50, 1024), float16] */;
  %1437 = %1436(%1435, %1395) /* ty=Tensor[(32, 50, 1024), float16] */;
  %1438 = fn (%p0387: Tensor[(32, 50, 1024), float16] /* ty=Tensor[(32, 50, 1024), float16] */, Primitive=1) -> Tensor[(32, 50, 1024), float32] {
    cast(%p0387, dtype="float32") /* ty=Tensor[(32, 50, 1024), float32] */
  } /* ty=fn (Tensor[(32, 50, 1024), float16]) -> Tensor[(32, 50, 1024), float32] */;
  %1439 = %1438(%1437) /* ty=Tensor[(32, 50, 1024), float32] */;
  %1440 = fn (%p0483: Tensor[(32, 50, 1024), float32] /* ty=Tensor[(32, 50, 1024), float32] */, Primitive=1) -> Tensor[(32, 50, 1), float32] {
    mean(%p0483, axis=[-1], keepdims=True) /* ty=Tensor[(32, 50, 1), float32] */
  } /* ty=fn (Tensor[(32, 50, 1024), float32]) -> Tensor[(32, 50, 1), float32] */;
  %1441 = %1440(%1439) /* ty=Tensor[(32, 50, 1), float32] */;
  %1442 = fn (%p0484: Tensor[(32, 50, 1024), float32] /* ty=Tensor[(32, 50, 1024), float32] */, %p1323: Tensor[(32, 50, 1), float32] /* ty=Tensor[(32, 50, 1), float32] */, Primitive=1) -> Tensor[(32, 50, 1), float32] {
    variance(%p0484, %p1323, axis=[-1], keepdims=True) /* ty=Tensor[(32, 50, 1), float32] */
  } /* ty=fn (Tensor[(32, 50, 1024), float32], Tensor[(32, 50, 1), float32]) -> Tensor[(32, 50, 1), float32] */;
  %1443 = %1442(%1439, %1441) /* ty=Tensor[(32, 50, 1), float32] */;
  %1444 = fn (%p0386: Tensor[(32, 50, 1024), float32] /* ty=Tensor[(32, 50, 1024), float32] */, %p1266: Tensor[(32, 50, 1), float32] /* ty=Tensor[(32, 50, 1), float32] */, %p2104: Tensor[(32, 50, 1), float32] /* ty=Tensor[(32, 50, 1), float32] */, %p341: Tensor[(1024), float32] /* ty=Tensor[(1024), float32] */, %p441: Tensor[(1024), float32] /* ty=Tensor[(1024), float32] */, Primitive=1) -> Tensor[(32, 50, 1024), float16] {
    %1024 = add(%p2104, 1e-06f /* ty=float32 */) /* ty=Tensor[(32, 50, 1), float32] */;
    %1025 = subtract(%p0386, %p1266) /* ty=Tensor[(32, 50, 1024), float32] */;
    %1026 = rsqrt(%1024) /* ty=Tensor[(32, 50, 1), float32] */;
    %1027 = multiply(%1025, %1026) /* ty=Tensor[(32, 50, 1024), float32] */;
    %1028 = multiply(%1027, %p341) /* ty=Tensor[(32, 50, 1024), float32] */;
    %1029 = add(%1028, %p441) /* ty=Tensor[(32, 50, 1024), float32] */;
    %1030 = broadcast_to(%1029, shape=[32, 50, 1024]) /* ty=Tensor[(32, 50, 1024), float32] */;
    %1031 = reshape(%1030, newshape=[-1, 50, 1024]) /* ty=Tensor[(32, 50, 1024), float32] */;
    cast(%1031, dtype="float16") /* ty=Tensor[(32, 50, 1024), float16] */
  } /* ty=fn (Tensor[(32, 50, 1024), float32], Tensor[(32, 50, 1), float32], Tensor[(32, 50, 1), float32], Tensor[(1024), float32], Tensor[(1024), float32]) -> Tensor[(32, 50, 1024), float16] */;
  %1445 = %1444(%1439, %1441, %1443, meta[relay.Constant][46] /* ty=Tensor[(1024), float32] */, meta[relay.Constant][47] /* ty=Tensor[(1024), float32] */) /* ty=Tensor[(32, 50, 1024), float16] */;
  %1446 = fn (%p0385: Tensor[(32, 50, 1024), float16] /* ty=Tensor[(32, 50, 1024), float16] */, %p1265: Tensor[(32, 1024, 4096), float16] /* ty=Tensor[(32, 1024, 4096), float16] */, Primitive=1) -> Tensor[(32, 50, 4096), float16] {
    nn.batch_matmul(%p0385, %p1265, out_dtype="float16") /* ty=Tensor[(32, 50, 4096), float16] */
  } /* ty=fn (Tensor[(32, 50, 1024), float16], Tensor[(32, 1024, 4096), float16]) -> Tensor[(32, 50, 4096), float16] */;
  %1447 = %1446(%1445, meta[relay.Constant][48] /* ty=Tensor[(32, 1024, 4096), float16] */) /* ty=Tensor[(32, 50, 4096), float16] */;
  %1448 = fn (%p0384: Tensor[(32, 50, 4096), float16] /* ty=Tensor[(32, 50, 4096), float16] */, %p1264: Tensor[(4096), float16] /* ty=Tensor[(4096), float16] */, %p2103: float16 /* ty=float16 */, Primitive=1) -> Tensor[(32, 50, 4096), float16] {
    %1012 = reshape(%p0384, newshape=[32, 50, 4096]) /* ty=Tensor[(32, 50, 4096), float16] */;
    %1013 = squeeze(%1012, axis=[]) /* ty=Tensor[(32, 50, 4096), float16] */;
    %1014 = add(%1013, %p1264) /* ty=Tensor[(32, 50, 4096), float16] */;
    %1015 = multiply(%1014, %p2103) /* ty=Tensor[(32, 50, 4096), float16] */;
    %1016 = cast(%1015, dtype="float32") /* ty=Tensor[(32, 50, 4096), float32] */;
    %1017 = erf(%1016) /* ty=Tensor[(32, 50, 4096), float32] */;
    %1018 = multiply(%1017, 0.5f /* ty=float32 span=aten::gelu_3:0:0 */) /* ty=Tensor[(32, 50, 4096), float32] */;
    %1019 = cast(%1014, dtype="float32") /* ty=Tensor[(32, 50, 4096), float32] */;
    %1020 = add(0.5f /* ty=float32 span=aten::gelu_3:0:0 */, %1018) /* ty=Tensor[(32, 50, 4096), float32] */;
    %1021 = multiply(%1019, %1020) /* ty=Tensor[(32, 50, 4096), float32] */;
    %1022 = broadcast_to(%1021, shape=[32, 50, 4096]) /* ty=Tensor[(32, 50, 4096), float32] */;
    %1023 = reshape(%1022, newshape=[-1, 50, 4096]) /* ty=Tensor[(32, 50, 4096), float32] */;
    cast(%1023, dtype="float16") /* ty=Tensor[(32, 50, 4096), float16] */
  } /* ty=fn (Tensor[(32, 50, 4096), float16], Tensor[(4096), float16], float16) -> Tensor[(32, 50, 4096), float16] */;
  %1449 = %1448(%1447, meta[relay.Constant][49] /* ty=Tensor[(4096), float16] */, 0.707031f16 /* ty=float16 */) /* ty=Tensor[(32, 50, 4096), float16] */;
  %1450 = fn (%p0383: Tensor[(32, 50, 4096), float16] /* ty=Tensor[(32, 50, 4096), float16] */, %p1263: Tensor[(32, 4096, 1024), float16] /* ty=Tensor[(32, 4096, 1024), float16] */, Primitive=1) -> Tensor[(32, 50, 1024), float16] {
    nn.batch_matmul(%p0383, %p1263, out_dtype="float16") /* ty=Tensor[(32, 50, 1024), float16] */
  } /* ty=fn (Tensor[(32, 50, 4096), float16], Tensor[(32, 4096, 1024), float16]) -> Tensor[(32, 50, 1024), float16] */;
  %1451 = %1450(%1449, meta[relay.Constant][50] /* ty=Tensor[(32, 4096, 1024), float16] */) /* ty=Tensor[(32, 50, 1024), float16] */;
  %1452 = fn (%p0382: Tensor[(32, 50, 1024), float16] /* ty=Tensor[(32, 50, 1024), float16] */, %p1262: Tensor[(1024), float16] /* ty=Tensor[(1024), float16] */, %p2102: Tensor[(32, 50, 1024), float16] /* ty=Tensor[(32, 50, 1024), float16] */, Primitive=1) -> Tensor[(32, 50, 1024), float16] {
    %1009 = reshape(%p0382, newshape=[32, 50, 1024]) /* ty=Tensor[(32, 50, 1024), float16] */;
    %1010 = squeeze(%1009, axis=[]) /* ty=Tensor[(32, 50, 1024), float16] */;
    %1011 = add(%1010, %p1262) /* ty=Tensor[(32, 50, 1024), float16] */;
    add(%p2102, %1011) /* ty=Tensor[(32, 50, 1024), float16] */
  } /* ty=fn (Tensor[(32, 50, 1024), float16], Tensor[(1024), float16], Tensor[(32, 50, 1024), float16]) -> Tensor[(32, 50, 1024), float16] */;
  %1453 = %1452(%1451, meta[relay.Constant][51] /* ty=Tensor[(1024), float16] */, %1437) /* ty=Tensor[(32, 50, 1024), float16] */;
  %1454 = fn (%p0381: Tensor[(32, 50, 1024), float16] /* ty=Tensor[(32, 50, 1024), float16] */, Primitive=1) -> Tensor[(32, 50, 1024), float32] {
    cast(%p0381, dtype="float32") /* ty=Tensor[(32, 50, 1024), float32] */
  } /* ty=fn (Tensor[(32, 50, 1024), float16]) -> Tensor[(32, 50, 1024), float32] */;
  %1455 = %1454(%1453) /* ty=Tensor[(32, 50, 1024), float32] */;
  %1456 = fn (%p0485: Tensor[(32, 50, 1024), float32] /* ty=Tensor[(32, 50, 1024), float32] */, Primitive=1) -> Tensor[(32, 50, 1), float32] {
    mean(%p0485, axis=[-1], keepdims=True) /* ty=Tensor[(32, 50, 1), float32] */
  } /* ty=fn (Tensor[(32, 50, 1024), float32]) -> Tensor[(32, 50, 1), float32] */;
  %1457 = %1456(%1455) /* ty=Tensor[(32, 50, 1), float32] */;
  %1458 = fn (%p0486: Tensor[(32, 50, 1024), float32] /* ty=Tensor[(32, 50, 1024), float32] */, %p1324: Tensor[(32, 50, 1), float32] /* ty=Tensor[(32, 50, 1), float32] */, Primitive=1) -> Tensor[(32, 50, 1), float32] {
    variance(%p0486, %p1324, axis=[-1], keepdims=True) /* ty=Tensor[(32, 50, 1), float32] */
  } /* ty=fn (Tensor[(32, 50, 1024), float32], Tensor[(32, 50, 1), float32]) -> Tensor[(32, 50, 1), float32] */;
  %1459 = %1458(%1455, %1457) /* ty=Tensor[(32, 50, 1), float32] */;
  %1460 = fn (%p0380: Tensor[(32, 50, 1024), float32] /* ty=Tensor[(32, 50, 1024), float32] */, %p1261: Tensor[(32, 50, 1), float32] /* ty=Tensor[(32, 50, 1), float32] */, %p2101: Tensor[(32, 50, 1), float32] /* ty=Tensor[(32, 50, 1), float32] */, %p340: Tensor[(1024), float32] /* ty=Tensor[(1024), float32] */, %p440: Tensor[(1024), float32] /* ty=Tensor[(1024), float32] */, Primitive=1) -> Tensor[(50, 32, 1024), float16] {
    %1000 = add(%p2101, 1e-06f /* ty=float32 */) /* ty=Tensor[(32, 50, 1), float32] */;
    %1001 = subtract(%p0380, %p1261) /* ty=Tensor[(32, 50, 1024), float32] */;
    %1002 = rsqrt(%1000) /* ty=Tensor[(32, 50, 1), float32] */;
    %1003 = multiply(%1001, %1002) /* ty=Tensor[(32, 50, 1024), float32] */;
    %1004 = multiply(%1003, %p340) /* ty=Tensor[(32, 50, 1024), float32] */;
    %1005 = add(%1004, %p440) /* ty=Tensor[(32, 50, 1024), float32] */;
    %1006 = transpose(%1005, axes=[1, 0, 2]) /* ty=Tensor[(50, 32, 1024), float32] */;
    %1007 = broadcast_to(%1006, shape=[50, 32, 1024]) /* ty=Tensor[(50, 32, 1024), float32] */;
    %1008 = reshape(%1007, newshape=[-1, 32, 1024]) /* ty=Tensor[(50, 32, 1024), float32] */;
    cast(%1008, dtype="float16") /* ty=Tensor[(50, 32, 1024), float16] */
  } /* ty=fn (Tensor[(32, 50, 1024), float32], Tensor[(32, 50, 1), float32], Tensor[(32, 50, 1), float32], Tensor[(1024), float32], Tensor[(1024), float32]) -> Tensor[(50, 32, 1024), float16] */;
  %1461 = %1460(%1455, %1457, %1459, meta[relay.Constant][52] /* ty=Tensor[(1024), float32] */, meta[relay.Constant][53] /* ty=Tensor[(1024), float32] */) /* ty=Tensor[(50, 32, 1024), float16] */;
  %1462 = fn (%p0379: Tensor[(50, 32, 1024), float16] /* ty=Tensor[(50, 32, 1024), float16] */, %p1260: Tensor[(50, 1024, 3072), float16] /* ty=Tensor[(50, 1024, 3072), float16] */, Primitive=1) -> Tensor[(50, 32, 3072), float16] {
    nn.batch_matmul(%p0379, %p1260, out_dtype="float16") /* ty=Tensor[(50, 32, 3072), float16] */
  } /* ty=fn (Tensor[(50, 32, 1024), float16], Tensor[(50, 1024, 3072), float16]) -> Tensor[(50, 32, 3072), float16] */;
  %1463 = %1462(%1461, meta[relay.Constant][54] /* ty=Tensor[(50, 1024, 3072), float16] */) /* ty=Tensor[(50, 32, 3072), float16] */;
  %1464 = fn (%p0378: Tensor[(50, 32, 3072), float16] /* ty=Tensor[(50, 32, 3072), float16] */, %p1259: Tensor[(3072), float16] /* ty=Tensor[(3072), float16] */, Primitive=1) -> (Tensor[(50, 32, 1024), float16], Tensor[(50, 32, 1024), float16], Tensor[(50, 32, 1024), float16]) {
    %997 = reshape(%p0378, newshape=[50, 32, 3072]) /* ty=Tensor[(50, 32, 3072), float16] */;
    %998 = squeeze(%997, axis=[]) /* ty=Tensor[(50, 32, 3072), float16] */;
    %999 = add(%998, %p1259) /* ty=Tensor[(50, 32, 3072), float16] */;
    split(%999, indices_or_sections=[1024, 2048], axis=-1) /* ty=(Tensor[(50, 32, 1024), float16], Tensor[(50, 32, 1024), float16], Tensor[(50, 32, 1024), float16]) */
  } /* ty=fn (Tensor[(50, 32, 3072), float16], Tensor[(3072), float16]) -> (Tensor[(50, 32, 1024), float16], Tensor[(50, 32, 1024), float16], Tensor[(50, 32, 1024), float16]) */;
  %1465 = %1464(%1463, meta[relay.Constant][55] /* ty=Tensor[(3072), float16] */) /* ty=(Tensor[(50, 32, 1024), float16], Tensor[(50, 32, 1024), float16], Tensor[(50, 32, 1024), float16]) */;
  %1466 = fn (%p0377: (Tensor[(50, 32, 1024), float16], Tensor[(50, 32, 1024), float16], Tensor[(50, 32, 1024), float16]) /* ty=(Tensor[(50, 32, 1024), float16], Tensor[(50, 32, 1024), float16], Tensor[(50, 32, 1024), float16]) */, %p1258: float16 /* ty=float16 */, Primitive=1) -> Tensor[(512, 50, 64), float16] {
    %992 = %p0377.0 /* ty=Tensor[(50, 32, 1024), float16] */;
    %993 = reshape(%992, newshape=[50, 512, 64]) /* ty=Tensor[(50, 512, 64), float16] */;
    %994 = transpose(%993, axes=[1, 0, 2]) /* ty=Tensor[(512, 50, 64), float16] */;
    %995 = divide(%994, %p1258) /* ty=Tensor[(512, 50, 64), float16] */;
    %996 = broadcast_to(%995, shape=[512, 50, 64], dtype="float16") /* ty=Tensor[(512, 50, 64), float16] */;
    reshape(%996, newshape=[-1, 50, 64]) /* ty=Tensor[(512, 50, 64), float16] */
  } /* ty=fn ((Tensor[(50, 32, 1024), float16], Tensor[(50, 32, 1024), float16], Tensor[(50, 32, 1024), float16]), float16) -> Tensor[(512, 50, 64), float16] */;
  %1471 = fn (%p0487: (Tensor[(50, 32, 1024), float16], Tensor[(50, 32, 1024), float16], Tensor[(50, 32, 1024), float16]) /* ty=(Tensor[(50, 32, 1024), float16], Tensor[(50, 32, 1024), float16], Tensor[(50, 32, 1024), float16]) */, Primitive=1) -> Tensor[(512, 64, 50), float16] {
    %1467 = %p0487.1 /* ty=Tensor[(50, 32, 1024), float16] */;
    %1468 = reshape(%1467, newshape=[50, 512, 64]) /* ty=Tensor[(50, 512, 64), float16] */;
    %1469 = transpose(%1468, axes=[1, 2, 0]) /* ty=Tensor[(512, 64, 50), float16] */;
    %1470 = broadcast_to(%1469, shape=[512, 64, 50], dtype="float16") /* ty=Tensor[(512, 64, 50), float16] */;
    reshape(%1470, newshape=[-1, 64, 50]) /* ty=Tensor[(512, 64, 50), float16] */
  } /* ty=fn ((Tensor[(50, 32, 1024), float16], Tensor[(50, 32, 1024), float16], Tensor[(50, 32, 1024), float16])) -> Tensor[(512, 64, 50), float16] */;
  %1472 = %1466(%1465, 8f16 /* ty=float16 */) /* ty=Tensor[(512, 50, 64), float16] */;
  %1473 = %1471(%1465) /* ty=Tensor[(512, 64, 50), float16] */;
  %1474 = fn (%p0376: Tensor[(512, 50, 64), float16] /* ty=Tensor[(512, 50, 64), float16] */, %p1257: Tensor[(512, 64, 50), float16] /* ty=Tensor[(512, 64, 50), float16] */, Primitive=1) -> Tensor[(512, 50, 50), float16] {
    nn.batch_matmul(%p0376, %p1257, out_dtype="float16") /* ty=Tensor[(512, 50, 50), float16] */
  } /* ty=fn (Tensor[(512, 50, 64), float16], Tensor[(512, 64, 50), float16]) -> Tensor[(512, 50, 50), float16] */;
  %1475 = %1474(%1472, %1473) /* ty=Tensor[(512, 50, 50), float16] */;
  %1476 = fn (%p0375: Tensor[(512, 50, 50), float16] /* ty=Tensor[(512, 50, 50), float16] */, Primitive=1) -> Tensor[(512, 50, 50), float32] {
    %990 = reshape(%p0375, newshape=[512, 50, 50]) /* ty=Tensor[(512, 50, 50), float16] */;
    %991 = squeeze(%990, axis=[]) /* ty=Tensor[(512, 50, 50), float16] */;
    cast(%991, dtype="float32") /* ty=Tensor[(512, 50, 50), float32] */
  } /* ty=fn (Tensor[(512, 50, 50), float16]) -> Tensor[(512, 50, 50), float32] */;
  %1477 = %1476(%1475) /* ty=Tensor[(512, 50, 50), float32] */;
  %1478 = fn (%p0374: Tensor[(512, 50, 50), float32] /* ty=Tensor[(512, 50, 50), float32] */, Primitive=1) -> Tensor[(512, 50, 50), float32] {
    %989 = nn.softmax(%p0374) /* ty=Tensor[(512, 50, 50), float32] */;
    broadcast_to(%989, shape=[512, 50, 50]) /* ty=Tensor[(512, 50, 50), float32] */
  } /* ty=fn (Tensor[(512, 50, 50), float32]) -> Tensor[(512, 50, 50), float32] */;
  %1479 = %1478(%1477) /* ty=Tensor[(512, 50, 50), float32] */;
  %1480 = fn (%p0373: Tensor[(512, 50, 50), float32] /* ty=Tensor[(512, 50, 50), float32] */, Primitive=1) -> Tensor[(512, 50, 50), float16] {
    %988 = reshape(%p0373, newshape=[-1, 50, 50]) /* ty=Tensor[(512, 50, 50), float32] */;
    cast(%988, dtype="float16") /* ty=Tensor[(512, 50, 50), float16] */
  } /* ty=fn (Tensor[(512, 50, 50), float32]) -> Tensor[(512, 50, 50), float16] */;
  %1485 = fn (%p0488: (Tensor[(50, 32, 1024), float16], Tensor[(50, 32, 1024), float16], Tensor[(50, 32, 1024), float16]) /* ty=(Tensor[(50, 32, 1024), float16], Tensor[(50, 32, 1024), float16], Tensor[(50, 32, 1024), float16]) */, Primitive=1) -> Tensor[(512, 50, 64), float16] {
    %1481 = %p0488.2 /* ty=Tensor[(50, 32, 1024), float16] */;
    %1482 = reshape(%1481, newshape=[50, 512, 64]) /* ty=Tensor[(50, 512, 64), float16] */;
    %1483 = transpose(%1482, axes=[1, 0, 2]) /* ty=Tensor[(512, 50, 64), float16] */;
    %1484 = broadcast_to(%1483, shape=[512, 50, 64], dtype="float16") /* ty=Tensor[(512, 50, 64), float16] */;
    reshape(%1484, newshape=[-1, 50, 64]) /* ty=Tensor[(512, 50, 64), float16] */
  } /* ty=fn ((Tensor[(50, 32, 1024), float16], Tensor[(50, 32, 1024), float16], Tensor[(50, 32, 1024), float16])) -> Tensor[(512, 50, 64), float16] */;
  %1486 = %1480(%1479) /* ty=Tensor[(512, 50, 50), float16] */;
  %1487 = %1485(%1465) /* ty=Tensor[(512, 50, 64), float16] */;
  %1488 = fn (%p0372: Tensor[(512, 50, 50), float16] /* ty=Tensor[(512, 50, 50), float16] */, %p1256: Tensor[(512, 50, 64), float16] /* ty=Tensor[(512, 50, 64), float16] */, Primitive=1) -> Tensor[(512, 50, 64), float16] {
    nn.batch_matmul(%p0372, %p1256, out_dtype="float16") /* ty=Tensor[(512, 50, 64), float16] */
  } /* ty=fn (Tensor[(512, 50, 50), float16], Tensor[(512, 50, 64), float16]) -> Tensor[(512, 50, 64), float16] */;
  %1489 = %1488(%1486, %1487) /* ty=Tensor[(512, 50, 64), float16] */;
  %1490 = fn (%p0371: Tensor[(512, 50, 64), float16] /* ty=Tensor[(512, 50, 64), float16] */, Primitive=1) -> Tensor[(1600, 1024), float16] {
    %985 = reshape(%p0371, newshape=[512, 50, 64]) /* ty=Tensor[(512, 50, 64), float16] */;
    %986 = squeeze(%985, axis=[]) /* ty=Tensor[(512, 50, 64), float16] */;
    %987 = transpose(%986, axes=[1, 0, 2]) /* ty=Tensor[(50, 512, 64), float16] */;
    reshape(%987, newshape=[1600, 1024]) /* ty=Tensor[(1600, 1024), float16] */
  } /* ty=fn (Tensor[(512, 50, 64), float16]) -> Tensor[(1600, 1024), float16] */;
  %1491 = %1490(%1489) /* ty=Tensor[(1600, 1024), float16] */;
  %1492 = fn (%p0370: Tensor[(1600, 1024), float16] /* ty=Tensor[(1600, 1024), float16] */, %p1255: Tensor[(1024, 1024), float16] /* ty=Tensor[(1024, 1024), float16] */, %p2100: Tensor[(1, 1024), float16] /* ty=Tensor[(1, 1024), float16] */, Primitive=1) -> Tensor[(1600, 1024), float16] {
    %984 = nn.dense(%p0370, %p1255, units=None, out_dtype="float16") /* ty=Tensor[(1600, 1024), float16] */;
    add(%984, %p2100) /* ty=Tensor[(1600, 1024), float16] */
  } /* ty=fn (Tensor[(1600, 1024), float16], Tensor[(1024, 1024), float16], Tensor[(1, 1024), float16]) -> Tensor[(1600, 1024), float16] */;
  %1493 = %1492(%1491, meta[relay.Constant][56] /* ty=Tensor[(1024, 1024), float16] */, meta[relay.Constant][57] /* ty=Tensor[(1, 1024), float16] */) /* ty=Tensor[(1600, 1024), float16] */;
  %1494 = fn (%p0369: Tensor[(1600, 1024), float16] /* ty=Tensor[(1600, 1024), float16] */, %p1254: Tensor[(32, 50, 1024), float16] /* ty=Tensor[(32, 50, 1024), float16] */, Primitive=1) -> Tensor[(32, 50, 1024), float16] {
    %982 = reshape(%p0369, newshape=[50, 32, 1024]) /* ty=Tensor[(50, 32, 1024), float16] */;
    %983 = transpose(%982, axes=[1, 0, 2]) /* ty=Tensor[(32, 50, 1024), float16] */;
    add(%983, %p1254) /* ty=Tensor[(32, 50, 1024), float16] */
  } /* ty=fn (Tensor[(1600, 1024), float16], Tensor[(32, 50, 1024), float16]) -> Tensor[(32, 50, 1024), float16] */;
  %1495 = %1494(%1493, %1453) /* ty=Tensor[(32, 50, 1024), float16] */;
  %1496 = fn (%p0368: Tensor[(32, 50, 1024), float16] /* ty=Tensor[(32, 50, 1024), float16] */, Primitive=1) -> Tensor[(32, 50, 1024), float32] {
    cast(%p0368, dtype="float32") /* ty=Tensor[(32, 50, 1024), float32] */
  } /* ty=fn (Tensor[(32, 50, 1024), float16]) -> Tensor[(32, 50, 1024), float32] */;
  %1497 = %1496(%1495) /* ty=Tensor[(32, 50, 1024), float32] */;
  %1498 = fn (%p0489: Tensor[(32, 50, 1024), float32] /* ty=Tensor[(32, 50, 1024), float32] */, Primitive=1) -> Tensor[(32, 50, 1), float32] {
    mean(%p0489, axis=[-1], keepdims=True) /* ty=Tensor[(32, 50, 1), float32] */
  } /* ty=fn (Tensor[(32, 50, 1024), float32]) -> Tensor[(32, 50, 1), float32] */;
  %1499 = %1498(%1497) /* ty=Tensor[(32, 50, 1), float32] */;
  %1500 = fn (%p0490: Tensor[(32, 50, 1024), float32] /* ty=Tensor[(32, 50, 1024), float32] */, %p1325: Tensor[(32, 50, 1), float32] /* ty=Tensor[(32, 50, 1), float32] */, Primitive=1) -> Tensor[(32, 50, 1), float32] {
    variance(%p0490, %p1325, axis=[-1], keepdims=True) /* ty=Tensor[(32, 50, 1), float32] */
  } /* ty=fn (Tensor[(32, 50, 1024), float32], Tensor[(32, 50, 1), float32]) -> Tensor[(32, 50, 1), float32] */;
  %1501 = %1500(%1497, %1499) /* ty=Tensor[(32, 50, 1), float32] */;
  %1502 = fn (%p0367: Tensor[(32, 50, 1024), float32] /* ty=Tensor[(32, 50, 1024), float32] */, %p1253: Tensor[(32, 50, 1), float32] /* ty=Tensor[(32, 50, 1), float32] */, %p299: Tensor[(32, 50, 1), float32] /* ty=Tensor[(32, 50, 1), float32] */, %p339: Tensor[(1024), float32] /* ty=Tensor[(1024), float32] */, %p439: Tensor[(1024), float32] /* ty=Tensor[(1024), float32] */, Primitive=1) -> Tensor[(32, 50, 1024), float16] {
    %974 = add(%p299, 1e-06f /* ty=float32 */) /* ty=Tensor[(32, 50, 1), float32] */;
    %975 = subtract(%p0367, %p1253) /* ty=Tensor[(32, 50, 1024), float32] */;
    %976 = rsqrt(%974) /* ty=Tensor[(32, 50, 1), float32] */;
    %977 = multiply(%975, %976) /* ty=Tensor[(32, 50, 1024), float32] */;
    %978 = multiply(%977, %p339) /* ty=Tensor[(32, 50, 1024), float32] */;
    %979 = add(%978, %p439) /* ty=Tensor[(32, 50, 1024), float32] */;
    %980 = broadcast_to(%979, shape=[32, 50, 1024]) /* ty=Tensor[(32, 50, 1024), float32] */;
    %981 = reshape(%980, newshape=[-1, 50, 1024]) /* ty=Tensor[(32, 50, 1024), float32] */;
    cast(%981, dtype="float16") /* ty=Tensor[(32, 50, 1024), float16] */
  } /* ty=fn (Tensor[(32, 50, 1024), float32], Tensor[(32, 50, 1), float32], Tensor[(32, 50, 1), float32], Tensor[(1024), float32], Tensor[(1024), float32]) -> Tensor[(32, 50, 1024), float16] */;
  %1503 = %1502(%1497, %1499, %1501, meta[relay.Constant][58] /* ty=Tensor[(1024), float32] */, meta[relay.Constant][59] /* ty=Tensor[(1024), float32] */) /* ty=Tensor[(32, 50, 1024), float16] */;
  %1504 = fn (%p0366: Tensor[(32, 50, 1024), float16] /* ty=Tensor[(32, 50, 1024), float16] */, %p1252: Tensor[(32, 1024, 4096), float16] /* ty=Tensor[(32, 1024, 4096), float16] */, Primitive=1) -> Tensor[(32, 50, 4096), float16] {
    nn.batch_matmul(%p0366, %p1252, out_dtype="float16") /* ty=Tensor[(32, 50, 4096), float16] */
  } /* ty=fn (Tensor[(32, 50, 1024), float16], Tensor[(32, 1024, 4096), float16]) -> Tensor[(32, 50, 4096), float16] */;
  %1505 = %1504(%1503, meta[relay.Constant][60] /* ty=Tensor[(32, 1024, 4096), float16] */) /* ty=Tensor[(32, 50, 4096), float16] */;
  %1506 = fn (%p0365: Tensor[(32, 50, 4096), float16] /* ty=Tensor[(32, 50, 4096), float16] */, %p1251: Tensor[(4096), float16] /* ty=Tensor[(4096), float16] */, %p298: float16 /* ty=float16 */, Primitive=1) -> Tensor[(32, 50, 4096), float16] {
    %962 = reshape(%p0365, newshape=[32, 50, 4096]) /* ty=Tensor[(32, 50, 4096), float16] */;
    %963 = squeeze(%962, axis=[]) /* ty=Tensor[(32, 50, 4096), float16] */;
    %964 = add(%963, %p1251) /* ty=Tensor[(32, 50, 4096), float16] */;
    %965 = multiply(%964, %p298) /* ty=Tensor[(32, 50, 4096), float16] */;
    %966 = cast(%965, dtype="float32") /* ty=Tensor[(32, 50, 4096), float32] */;
    %967 = erf(%966) /* ty=Tensor[(32, 50, 4096), float32] */;
    %968 = multiply(%967, 0.5f /* ty=float32 span=aten::gelu_4:0:0 */) /* ty=Tensor[(32, 50, 4096), float32] */;
    %969 = cast(%964, dtype="float32") /* ty=Tensor[(32, 50, 4096), float32] */;
    %970 = add(0.5f /* ty=float32 span=aten::gelu_4:0:0 */, %968) /* ty=Tensor[(32, 50, 4096), float32] */;
    %971 = multiply(%969, %970) /* ty=Tensor[(32, 50, 4096), float32] */;
    %972 = broadcast_to(%971, shape=[32, 50, 4096]) /* ty=Tensor[(32, 50, 4096), float32] */;
    %973 = reshape(%972, newshape=[-1, 50, 4096]) /* ty=Tensor[(32, 50, 4096), float32] */;
    cast(%973, dtype="float16") /* ty=Tensor[(32, 50, 4096), float16] */
  } /* ty=fn (Tensor[(32, 50, 4096), float16], Tensor[(4096), float16], float16) -> Tensor[(32, 50, 4096), float16] */;
  %1507 = %1506(%1505, meta[relay.Constant][61] /* ty=Tensor[(4096), float16] */, 0.707031f16 /* ty=float16 */) /* ty=Tensor[(32, 50, 4096), float16] */;
  %1508 = fn (%p0364: Tensor[(32, 50, 4096), float16] /* ty=Tensor[(32, 50, 4096), float16] */, %p1250: Tensor[(32, 4096, 1024), float16] /* ty=Tensor[(32, 4096, 1024), float16] */, Primitive=1) -> Tensor[(32, 50, 1024), float16] {
    nn.batch_matmul(%p0364, %p1250, out_dtype="float16") /* ty=Tensor[(32, 50, 1024), float16] */
  } /* ty=fn (Tensor[(32, 50, 4096), float16], Tensor[(32, 4096, 1024), float16]) -> Tensor[(32, 50, 1024), float16] */;
  %1509 = %1508(%1507, meta[relay.Constant][62] /* ty=Tensor[(32, 4096, 1024), float16] */) /* ty=Tensor[(32, 50, 1024), float16] */;
  %1510 = fn (%p0363: Tensor[(32, 50, 1024), float16] /* ty=Tensor[(32, 50, 1024), float16] */, %p1249: Tensor[(1024), float16] /* ty=Tensor[(1024), float16] */, %p297: Tensor[(32, 50, 1024), float16] /* ty=Tensor[(32, 50, 1024), float16] */, Primitive=1) -> Tensor[(32, 50, 1024), float16] {
    %959 = reshape(%p0363, newshape=[32, 50, 1024]) /* ty=Tensor[(32, 50, 1024), float16] */;
    %960 = squeeze(%959, axis=[]) /* ty=Tensor[(32, 50, 1024), float16] */;
    %961 = add(%960, %p1249) /* ty=Tensor[(32, 50, 1024), float16] */;
    add(%p297, %961) /* ty=Tensor[(32, 50, 1024), float16] */
  } /* ty=fn (Tensor[(32, 50, 1024), float16], Tensor[(1024), float16], Tensor[(32, 50, 1024), float16]) -> Tensor[(32, 50, 1024), float16] */;
  %1511 = %1510(%1509, meta[relay.Constant][63] /* ty=Tensor[(1024), float16] */, %1495) /* ty=Tensor[(32, 50, 1024), float16] */;
  %1512 = fn (%p0362: Tensor[(32, 50, 1024), float16] /* ty=Tensor[(32, 50, 1024), float16] */, Primitive=1) -> Tensor[(32, 50, 1024), float32] {
    cast(%p0362, dtype="float32") /* ty=Tensor[(32, 50, 1024), float32] */
  } /* ty=fn (Tensor[(32, 50, 1024), float16]) -> Tensor[(32, 50, 1024), float32] */;
  %1513 = %1512(%1511) /* ty=Tensor[(32, 50, 1024), float32] */;
  %1514 = fn (%p0491: Tensor[(32, 50, 1024), float32] /* ty=Tensor[(32, 50, 1024), float32] */, Primitive=1) -> Tensor[(32, 50, 1), float32] {
    mean(%p0491, axis=[-1], keepdims=True) /* ty=Tensor[(32, 50, 1), float32] */
  } /* ty=fn (Tensor[(32, 50, 1024), float32]) -> Tensor[(32, 50, 1), float32] */;
  %1515 = %1514(%1513) /* ty=Tensor[(32, 50, 1), float32] */;
  %1516 = fn (%p0492: Tensor[(32, 50, 1024), float32] /* ty=Tensor[(32, 50, 1024), float32] */, %p1326: Tensor[(32, 50, 1), float32] /* ty=Tensor[(32, 50, 1), float32] */, Primitive=1) -> Tensor[(32, 50, 1), float32] {
    variance(%p0492, %p1326, axis=[-1], keepdims=True) /* ty=Tensor[(32, 50, 1), float32] */
  } /* ty=fn (Tensor[(32, 50, 1024), float32], Tensor[(32, 50, 1), float32]) -> Tensor[(32, 50, 1), float32] */;
  %1517 = %1516(%1513, %1515) /* ty=Tensor[(32, 50, 1), float32] */;
  %1518 = fn (%p0361: Tensor[(32, 50, 1024), float32] /* ty=Tensor[(32, 50, 1024), float32] */, %p1248: Tensor[(32, 50, 1), float32] /* ty=Tensor[(32, 50, 1), float32] */, %p296: Tensor[(32, 50, 1), float32] /* ty=Tensor[(32, 50, 1), float32] */, %p338: Tensor[(1024), float32] /* ty=Tensor[(1024), float32] */, %p438: Tensor[(1024), float32] /* ty=Tensor[(1024), float32] */, Primitive=1) -> Tensor[(50, 32, 1024), float16] {
    %950 = add(%p296, 1e-06f /* ty=float32 */) /* ty=Tensor[(32, 50, 1), float32] */;
    %951 = subtract(%p0361, %p1248) /* ty=Tensor[(32, 50, 1024), float32] */;
    %952 = rsqrt(%950) /* ty=Tensor[(32, 50, 1), float32] */;
    %953 = multiply(%951, %952) /* ty=Tensor[(32, 50, 1024), float32] */;
    %954 = multiply(%953, %p338) /* ty=Tensor[(32, 50, 1024), float32] */;
    %955 = add(%954, %p438) /* ty=Tensor[(32, 50, 1024), float32] */;
    %956 = transpose(%955, axes=[1, 0, 2]) /* ty=Tensor[(50, 32, 1024), float32] */;
    %957 = broadcast_to(%956, shape=[50, 32, 1024]) /* ty=Tensor[(50, 32, 1024), float32] */;
    %958 = reshape(%957, newshape=[-1, 32, 1024]) /* ty=Tensor[(50, 32, 1024), float32] */;
    cast(%958, dtype="float16") /* ty=Tensor[(50, 32, 1024), float16] */
  } /* ty=fn (Tensor[(32, 50, 1024), float32], Tensor[(32, 50, 1), float32], Tensor[(32, 50, 1), float32], Tensor[(1024), float32], Tensor[(1024), float32]) -> Tensor[(50, 32, 1024), float16] */;
  %1519 = %1518(%1513, %1515, %1517, meta[relay.Constant][64] /* ty=Tensor[(1024), float32] */, meta[relay.Constant][65] /* ty=Tensor[(1024), float32] */) /* ty=Tensor[(50, 32, 1024), float16] */;
  %1520 = fn (%p0360: Tensor[(50, 32, 1024), float16] /* ty=Tensor[(50, 32, 1024), float16] */, %p1247: Tensor[(50, 1024, 3072), float16] /* ty=Tensor[(50, 1024, 3072), float16] */, Primitive=1) -> Tensor[(50, 32, 3072), float16] {
    nn.batch_matmul(%p0360, %p1247, out_dtype="float16") /* ty=Tensor[(50, 32, 3072), float16] */
  } /* ty=fn (Tensor[(50, 32, 1024), float16], Tensor[(50, 1024, 3072), float16]) -> Tensor[(50, 32, 3072), float16] */;
  %1521 = %1520(%1519, meta[relay.Constant][66] /* ty=Tensor[(50, 1024, 3072), float16] */) /* ty=Tensor[(50, 32, 3072), float16] */;
  %1522 = fn (%p0359: Tensor[(50, 32, 3072), float16] /* ty=Tensor[(50, 32, 3072), float16] */, %p1246: Tensor[(3072), float16] /* ty=Tensor[(3072), float16] */, Primitive=1) -> (Tensor[(50, 32, 1024), float16], Tensor[(50, 32, 1024), float16], Tensor[(50, 32, 1024), float16]) {
    %947 = reshape(%p0359, newshape=[50, 32, 3072]) /* ty=Tensor[(50, 32, 3072), float16] */;
    %948 = squeeze(%947, axis=[]) /* ty=Tensor[(50, 32, 3072), float16] */;
    %949 = add(%948, %p1246) /* ty=Tensor[(50, 32, 3072), float16] */;
    split(%949, indices_or_sections=[1024, 2048], axis=-1) /* ty=(Tensor[(50, 32, 1024), float16], Tensor[(50, 32, 1024), float16], Tensor[(50, 32, 1024), float16]) */
  } /* ty=fn (Tensor[(50, 32, 3072), float16], Tensor[(3072), float16]) -> (Tensor[(50, 32, 1024), float16], Tensor[(50, 32, 1024), float16], Tensor[(50, 32, 1024), float16]) */;
  %1523 = %1522(%1521, meta[relay.Constant][67] /* ty=Tensor[(3072), float16] */) /* ty=(Tensor[(50, 32, 1024), float16], Tensor[(50, 32, 1024), float16], Tensor[(50, 32, 1024), float16]) */;
  %1524 = fn (%p0358: (Tensor[(50, 32, 1024), float16], Tensor[(50, 32, 1024), float16], Tensor[(50, 32, 1024), float16]) /* ty=(Tensor[(50, 32, 1024), float16], Tensor[(50, 32, 1024), float16], Tensor[(50, 32, 1024), float16]) */, %p1245: float16 /* ty=float16 */, Primitive=1) -> Tensor[(512, 50, 64), float16] {
    %942 = %p0358.0 /* ty=Tensor[(50, 32, 1024), float16] */;
    %943 = reshape(%942, newshape=[50, 512, 64]) /* ty=Tensor[(50, 512, 64), float16] */;
    %944 = transpose(%943, axes=[1, 0, 2]) /* ty=Tensor[(512, 50, 64), float16] */;
    %945 = divide(%944, %p1245) /* ty=Tensor[(512, 50, 64), float16] */;
    %946 = broadcast_to(%945, shape=[512, 50, 64], dtype="float16") /* ty=Tensor[(512, 50, 64), float16] */;
    reshape(%946, newshape=[-1, 50, 64]) /* ty=Tensor[(512, 50, 64), float16] */
  } /* ty=fn ((Tensor[(50, 32, 1024), float16], Tensor[(50, 32, 1024), float16], Tensor[(50, 32, 1024), float16]), float16) -> Tensor[(512, 50, 64), float16] */;
  %1529 = fn (%p0493: (Tensor[(50, 32, 1024), float16], Tensor[(50, 32, 1024), float16], Tensor[(50, 32, 1024), float16]) /* ty=(Tensor[(50, 32, 1024), float16], Tensor[(50, 32, 1024), float16], Tensor[(50, 32, 1024), float16]) */, Primitive=1) -> Tensor[(512, 64, 50), float16] {
    %1525 = %p0493.1 /* ty=Tensor[(50, 32, 1024), float16] */;
    %1526 = reshape(%1525, newshape=[50, 512, 64]) /* ty=Tensor[(50, 512, 64), float16] */;
    %1527 = transpose(%1526, axes=[1, 2, 0]) /* ty=Tensor[(512, 64, 50), float16] */;
    %1528 = broadcast_to(%1527, shape=[512, 64, 50], dtype="float16") /* ty=Tensor[(512, 64, 50), float16] */;
    reshape(%1528, newshape=[-1, 64, 50]) /* ty=Tensor[(512, 64, 50), float16] */
  } /* ty=fn ((Tensor[(50, 32, 1024), float16], Tensor[(50, 32, 1024), float16], Tensor[(50, 32, 1024), float16])) -> Tensor[(512, 64, 50), float16] */;
  %1530 = %1524(%1523, 8f16 /* ty=float16 */) /* ty=Tensor[(512, 50, 64), float16] */;
  %1531 = %1529(%1523) /* ty=Tensor[(512, 64, 50), float16] */;
  %1532 = fn (%p0357: Tensor[(512, 50, 64), float16] /* ty=Tensor[(512, 50, 64), float16] */, %p1244: Tensor[(512, 64, 50), float16] /* ty=Tensor[(512, 64, 50), float16] */, Primitive=1) -> Tensor[(512, 50, 50), float16] {
    nn.batch_matmul(%p0357, %p1244, out_dtype="float16") /* ty=Tensor[(512, 50, 50), float16] */
  } /* ty=fn (Tensor[(512, 50, 64), float16], Tensor[(512, 64, 50), float16]) -> Tensor[(512, 50, 50), float16] */;
  %1533 = %1532(%1530, %1531) /* ty=Tensor[(512, 50, 50), float16] */;
  %1534 = fn (%p0356: Tensor[(512, 50, 50), float16] /* ty=Tensor[(512, 50, 50), float16] */, Primitive=1) -> Tensor[(512, 50, 50), float32] {
    %940 = reshape(%p0356, newshape=[512, 50, 50]) /* ty=Tensor[(512, 50, 50), float16] */;
    %941 = squeeze(%940, axis=[]) /* ty=Tensor[(512, 50, 50), float16] */;
    cast(%941, dtype="float32") /* ty=Tensor[(512, 50, 50), float32] */
  } /* ty=fn (Tensor[(512, 50, 50), float16]) -> Tensor[(512, 50, 50), float32] */;
  %1535 = %1534(%1533) /* ty=Tensor[(512, 50, 50), float32] */;
  %1536 = fn (%p0355: Tensor[(512, 50, 50), float32] /* ty=Tensor[(512, 50, 50), float32] */, Primitive=1) -> Tensor[(512, 50, 50), float32] {
    %939 = nn.softmax(%p0355) /* ty=Tensor[(512, 50, 50), float32] */;
    broadcast_to(%939, shape=[512, 50, 50]) /* ty=Tensor[(512, 50, 50), float32] */
  } /* ty=fn (Tensor[(512, 50, 50), float32]) -> Tensor[(512, 50, 50), float32] */;
  %1537 = %1536(%1535) /* ty=Tensor[(512, 50, 50), float32] */;
  %1538 = fn (%p0354: Tensor[(512, 50, 50), float32] /* ty=Tensor[(512, 50, 50), float32] */, Primitive=1) -> Tensor[(512, 50, 50), float16] {
    %938 = reshape(%p0354, newshape=[-1, 50, 50]) /* ty=Tensor[(512, 50, 50), float32] */;
    cast(%938, dtype="float16") /* ty=Tensor[(512, 50, 50), float16] */
  } /* ty=fn (Tensor[(512, 50, 50), float32]) -> Tensor[(512, 50, 50), float16] */;
  %1543 = fn (%p0494: (Tensor[(50, 32, 1024), float16], Tensor[(50, 32, 1024), float16], Tensor[(50, 32, 1024), float16]) /* ty=(Tensor[(50, 32, 1024), float16], Tensor[(50, 32, 1024), float16], Tensor[(50, 32, 1024), float16]) */, Primitive=1) -> Tensor[(512, 50, 64), float16] {
    %1539 = %p0494.2 /* ty=Tensor[(50, 32, 1024), float16] */;
    %1540 = reshape(%1539, newshape=[50, 512, 64]) /* ty=Tensor[(50, 512, 64), float16] */;
    %1541 = transpose(%1540, axes=[1, 0, 2]) /* ty=Tensor[(512, 50, 64), float16] */;
    %1542 = broadcast_to(%1541, shape=[512, 50, 64], dtype="float16") /* ty=Tensor[(512, 50, 64), float16] */;
    reshape(%1542, newshape=[-1, 50, 64]) /* ty=Tensor[(512, 50, 64), float16] */
  } /* ty=fn ((Tensor[(50, 32, 1024), float16], Tensor[(50, 32, 1024), float16], Tensor[(50, 32, 1024), float16])) -> Tensor[(512, 50, 64), float16] */;
  %1544 = %1538(%1537) /* ty=Tensor[(512, 50, 50), float16] */;
  %1545 = %1543(%1523) /* ty=Tensor[(512, 50, 64), float16] */;
  %1546 = fn (%p0353: Tensor[(512, 50, 50), float16] /* ty=Tensor[(512, 50, 50), float16] */, %p1243: Tensor[(512, 50, 64), float16] /* ty=Tensor[(512, 50, 64), float16] */, Primitive=1) -> Tensor[(512, 50, 64), float16] {
    nn.batch_matmul(%p0353, %p1243, out_dtype="float16") /* ty=Tensor[(512, 50, 64), float16] */
  } /* ty=fn (Tensor[(512, 50, 50), float16], Tensor[(512, 50, 64), float16]) -> Tensor[(512, 50, 64), float16] */;
  %1547 = %1546(%1544, %1545) /* ty=Tensor[(512, 50, 64), float16] */;
  %1548 = fn (%p0352: Tensor[(512, 50, 64), float16] /* ty=Tensor[(512, 50, 64), float16] */, Primitive=1) -> Tensor[(1600, 1024), float16] {
    %935 = reshape(%p0352, newshape=[512, 50, 64]) /* ty=Tensor[(512, 50, 64), float16] */;
    %936 = squeeze(%935, axis=[]) /* ty=Tensor[(512, 50, 64), float16] */;
    %937 = transpose(%936, axes=[1, 0, 2]) /* ty=Tensor[(50, 512, 64), float16] */;
    reshape(%937, newshape=[1600, 1024]) /* ty=Tensor[(1600, 1024), float16] */
  } /* ty=fn (Tensor[(512, 50, 64), float16]) -> Tensor[(1600, 1024), float16] */;
  %1549 = %1548(%1547) /* ty=Tensor[(1600, 1024), float16] */;
  %1550 = fn (%p0351: Tensor[(1600, 1024), float16] /* ty=Tensor[(1600, 1024), float16] */, %p1242: Tensor[(1024, 1024), float16] /* ty=Tensor[(1024, 1024), float16] */, %p295: Tensor[(1, 1024), float16] /* ty=Tensor[(1, 1024), float16] */, Primitive=1) -> Tensor[(1600, 1024), float16] {
    %934 = nn.dense(%p0351, %p1242, units=None, out_dtype="float16") /* ty=Tensor[(1600, 1024), float16] */;
    add(%934, %p295) /* ty=Tensor[(1600, 1024), float16] */
  } /* ty=fn (Tensor[(1600, 1024), float16], Tensor[(1024, 1024), float16], Tensor[(1, 1024), float16]) -> Tensor[(1600, 1024), float16] */;
  %1551 = %1550(%1549, meta[relay.Constant][68] /* ty=Tensor[(1024, 1024), float16] */, meta[relay.Constant][69] /* ty=Tensor[(1, 1024), float16] */) /* ty=Tensor[(1600, 1024), float16] */;
  %1552 = fn (%p0350: Tensor[(1600, 1024), float16] /* ty=Tensor[(1600, 1024), float16] */, %p1241: Tensor[(32, 50, 1024), float16] /* ty=Tensor[(32, 50, 1024), float16] */, Primitive=1) -> Tensor[(32, 50, 1024), float16] {
    %932 = reshape(%p0350, newshape=[50, 32, 1024]) /* ty=Tensor[(50, 32, 1024), float16] */;
    %933 = transpose(%932, axes=[1, 0, 2]) /* ty=Tensor[(32, 50, 1024), float16] */;
    add(%933, %p1241) /* ty=Tensor[(32, 50, 1024), float16] */
  } /* ty=fn (Tensor[(1600, 1024), float16], Tensor[(32, 50, 1024), float16]) -> Tensor[(32, 50, 1024), float16] */;
  %1553 = %1552(%1551, %1511) /* ty=Tensor[(32, 50, 1024), float16] */;
  %1554 = fn (%p0349: Tensor[(32, 50, 1024), float16] /* ty=Tensor[(32, 50, 1024), float16] */, Primitive=1) -> Tensor[(32, 50, 1024), float32] {
    cast(%p0349, dtype="float32") /* ty=Tensor[(32, 50, 1024), float32] */
  } /* ty=fn (Tensor[(32, 50, 1024), float16]) -> Tensor[(32, 50, 1024), float32] */;
  %1555 = %1554(%1553) /* ty=Tensor[(32, 50, 1024), float32] */;
  %1556 = fn (%p0495: Tensor[(32, 50, 1024), float32] /* ty=Tensor[(32, 50, 1024), float32] */, Primitive=1) -> Tensor[(32, 50, 1), float32] {
    mean(%p0495, axis=[-1], keepdims=True) /* ty=Tensor[(32, 50, 1), float32] */
  } /* ty=fn (Tensor[(32, 50, 1024), float32]) -> Tensor[(32, 50, 1), float32] */;
  %1557 = %1556(%1555) /* ty=Tensor[(32, 50, 1), float32] */;
  %1558 = fn (%p0496: Tensor[(32, 50, 1024), float32] /* ty=Tensor[(32, 50, 1024), float32] */, %p1327: Tensor[(32, 50, 1), float32] /* ty=Tensor[(32, 50, 1), float32] */, Primitive=1) -> Tensor[(32, 50, 1), float32] {
    variance(%p0496, %p1327, axis=[-1], keepdims=True) /* ty=Tensor[(32, 50, 1), float32] */
  } /* ty=fn (Tensor[(32, 50, 1024), float32], Tensor[(32, 50, 1), float32]) -> Tensor[(32, 50, 1), float32] */;
  %1559 = %1558(%1555, %1557) /* ty=Tensor[(32, 50, 1), float32] */;
  %1560 = fn (%p0348: Tensor[(32, 50, 1024), float32] /* ty=Tensor[(32, 50, 1024), float32] */, %p1240: Tensor[(32, 50, 1), float32] /* ty=Tensor[(32, 50, 1), float32] */, %p294: Tensor[(32, 50, 1), float32] /* ty=Tensor[(32, 50, 1), float32] */, %p337: Tensor[(1024), float32] /* ty=Tensor[(1024), float32] */, %p437: Tensor[(1024), float32] /* ty=Tensor[(1024), float32] */, Primitive=1) -> Tensor[(32, 50, 1024), float16] {
    %924 = add(%p294, 1e-06f /* ty=float32 */) /* ty=Tensor[(32, 50, 1), float32] */;
    %925 = subtract(%p0348, %p1240) /* ty=Tensor[(32, 50, 1024), float32] */;
    %926 = rsqrt(%924) /* ty=Tensor[(32, 50, 1), float32] */;
    %927 = multiply(%925, %926) /* ty=Tensor[(32, 50, 1024), float32] */;
    %928 = multiply(%927, %p337) /* ty=Tensor[(32, 50, 1024), float32] */;
    %929 = add(%928, %p437) /* ty=Tensor[(32, 50, 1024), float32] */;
    %930 = broadcast_to(%929, shape=[32, 50, 1024]) /* ty=Tensor[(32, 50, 1024), float32] */;
    %931 = reshape(%930, newshape=[-1, 50, 1024]) /* ty=Tensor[(32, 50, 1024), float32] */;
    cast(%931, dtype="float16") /* ty=Tensor[(32, 50, 1024), float16] */
  } /* ty=fn (Tensor[(32, 50, 1024), float32], Tensor[(32, 50, 1), float32], Tensor[(32, 50, 1), float32], Tensor[(1024), float32], Tensor[(1024), float32]) -> Tensor[(32, 50, 1024), float16] */;
  %1561 = %1560(%1555, %1557, %1559, meta[relay.Constant][70] /* ty=Tensor[(1024), float32] */, meta[relay.Constant][71] /* ty=Tensor[(1024), float32] */) /* ty=Tensor[(32, 50, 1024), float16] */;
  %1562 = fn (%p0347: Tensor[(32, 50, 1024), float16] /* ty=Tensor[(32, 50, 1024), float16] */, %p1239: Tensor[(32, 1024, 4096), float16] /* ty=Tensor[(32, 1024, 4096), float16] */, Primitive=1) -> Tensor[(32, 50, 4096), float16] {
    nn.batch_matmul(%p0347, %p1239, out_dtype="float16") /* ty=Tensor[(32, 50, 4096), float16] */
  } /* ty=fn (Tensor[(32, 50, 1024), float16], Tensor[(32, 1024, 4096), float16]) -> Tensor[(32, 50, 4096), float16] */;
  %1563 = %1562(%1561, meta[relay.Constant][72] /* ty=Tensor[(32, 1024, 4096), float16] */) /* ty=Tensor[(32, 50, 4096), float16] */;
  %1564 = fn (%p0346: Tensor[(32, 50, 4096), float16] /* ty=Tensor[(32, 50, 4096), float16] */, %p1238: Tensor[(4096), float16] /* ty=Tensor[(4096), float16] */, %p293: float16 /* ty=float16 */, Primitive=1) -> Tensor[(32, 50, 4096), float16] {
    %912 = reshape(%p0346, newshape=[32, 50, 4096]) /* ty=Tensor[(32, 50, 4096), float16] */;
    %913 = squeeze(%912, axis=[]) /* ty=Tensor[(32, 50, 4096), float16] */;
    %914 = add(%913, %p1238) /* ty=Tensor[(32, 50, 4096), float16] */;
    %915 = multiply(%914, %p293) /* ty=Tensor[(32, 50, 4096), float16] */;
    %916 = cast(%915, dtype="float32") /* ty=Tensor[(32, 50, 4096), float32] */;
    %917 = erf(%916) /* ty=Tensor[(32, 50, 4096), float32] */;
    %918 = multiply(%917, 0.5f /* ty=float32 span=aten::gelu_5:0:0 */) /* ty=Tensor[(32, 50, 4096), float32] */;
    %919 = cast(%914, dtype="float32") /* ty=Tensor[(32, 50, 4096), float32] */;
    %920 = add(0.5f /* ty=float32 span=aten::gelu_5:0:0 */, %918) /* ty=Tensor[(32, 50, 4096), float32] */;
    %921 = multiply(%919, %920) /* ty=Tensor[(32, 50, 4096), float32] */;
    %922 = broadcast_to(%921, shape=[32, 50, 4096]) /* ty=Tensor[(32, 50, 4096), float32] */;
    %923 = reshape(%922, newshape=[-1, 50, 4096]) /* ty=Tensor[(32, 50, 4096), float32] */;
    cast(%923, dtype="float16") /* ty=Tensor[(32, 50, 4096), float16] */
  } /* ty=fn (Tensor[(32, 50, 4096), float16], Tensor[(4096), float16], float16) -> Tensor[(32, 50, 4096), float16] */;
  %1565 = %1564(%1563, meta[relay.Constant][73] /* ty=Tensor[(4096), float16] */, 0.707031f16 /* ty=float16 */) /* ty=Tensor[(32, 50, 4096), float16] */;
  %1566 = fn (%p0345: Tensor[(32, 50, 4096), float16] /* ty=Tensor[(32, 50, 4096), float16] */, %p1237: Tensor[(32, 4096, 1024), float16] /* ty=Tensor[(32, 4096, 1024), float16] */, Primitive=1) -> Tensor[(32, 50, 1024), float16] {
    nn.batch_matmul(%p0345, %p1237, out_dtype="float16") /* ty=Tensor[(32, 50, 1024), float16] */
  } /* ty=fn (Tensor[(32, 50, 4096), float16], Tensor[(32, 4096, 1024), float16]) -> Tensor[(32, 50, 1024), float16] */;
  %1567 = %1566(%1565, meta[relay.Constant][74] /* ty=Tensor[(32, 4096, 1024), float16] */) /* ty=Tensor[(32, 50, 1024), float16] */;
  %1568 = fn (%p0344: Tensor[(32, 50, 1024), float16] /* ty=Tensor[(32, 50, 1024), float16] */, %p1236: Tensor[(1024), float16] /* ty=Tensor[(1024), float16] */, %p292: Tensor[(32, 50, 1024), float16] /* ty=Tensor[(32, 50, 1024), float16] */, Primitive=1) -> Tensor[(32, 50, 1024), float16] {
    %909 = reshape(%p0344, newshape=[32, 50, 1024]) /* ty=Tensor[(32, 50, 1024), float16] */;
    %910 = squeeze(%909, axis=[]) /* ty=Tensor[(32, 50, 1024), float16] */;
    %911 = add(%910, %p1236) /* ty=Tensor[(32, 50, 1024), float16] */;
    add(%p292, %911) /* ty=Tensor[(32, 50, 1024), float16] */
  } /* ty=fn (Tensor[(32, 50, 1024), float16], Tensor[(1024), float16], Tensor[(32, 50, 1024), float16]) -> Tensor[(32, 50, 1024), float16] */;
  %1569 = %1568(%1567, meta[relay.Constant][75] /* ty=Tensor[(1024), float16] */, %1553) /* ty=Tensor[(32, 50, 1024), float16] */;
  %1570 = fn (%p0343: Tensor[(32, 50, 1024), float16] /* ty=Tensor[(32, 50, 1024), float16] */, Primitive=1) -> Tensor[(32, 50, 1024), float32] {
    cast(%p0343, dtype="float32") /* ty=Tensor[(32, 50, 1024), float32] */
  } /* ty=fn (Tensor[(32, 50, 1024), float16]) -> Tensor[(32, 50, 1024), float32] */;
  %1571 = %1570(%1569) /* ty=Tensor[(32, 50, 1024), float32] */;
  %1572 = fn (%p0497: Tensor[(32, 50, 1024), float32] /* ty=Tensor[(32, 50, 1024), float32] */, Primitive=1) -> Tensor[(32, 50, 1), float32] {
    mean(%p0497, axis=[-1], keepdims=True) /* ty=Tensor[(32, 50, 1), float32] */
  } /* ty=fn (Tensor[(32, 50, 1024), float32]) -> Tensor[(32, 50, 1), float32] */;
  %1573 = %1572(%1571) /* ty=Tensor[(32, 50, 1), float32] */;
  %1574 = fn (%p0498: Tensor[(32, 50, 1024), float32] /* ty=Tensor[(32, 50, 1024), float32] */, %p1328: Tensor[(32, 50, 1), float32] /* ty=Tensor[(32, 50, 1), float32] */, Primitive=1) -> Tensor[(32, 50, 1), float32] {
    variance(%p0498, %p1328, axis=[-1], keepdims=True) /* ty=Tensor[(32, 50, 1), float32] */
  } /* ty=fn (Tensor[(32, 50, 1024), float32], Tensor[(32, 50, 1), float32]) -> Tensor[(32, 50, 1), float32] */;
  %1575 = %1574(%1571, %1573) /* ty=Tensor[(32, 50, 1), float32] */;
  %1576 = fn (%p0342: Tensor[(32, 50, 1024), float32] /* ty=Tensor[(32, 50, 1024), float32] */, %p1235: Tensor[(32, 50, 1), float32] /* ty=Tensor[(32, 50, 1), float32] */, %p291: Tensor[(32, 50, 1), float32] /* ty=Tensor[(32, 50, 1), float32] */, %p336: Tensor[(1024), float32] /* ty=Tensor[(1024), float32] */, %p436: Tensor[(1024), float32] /* ty=Tensor[(1024), float32] */, Primitive=1) -> Tensor[(50, 32, 1024), float16] {
    %900 = add(%p291, 1e-06f /* ty=float32 */) /* ty=Tensor[(32, 50, 1), float32] */;
    %901 = subtract(%p0342, %p1235) /* ty=Tensor[(32, 50, 1024), float32] */;
    %902 = rsqrt(%900) /* ty=Tensor[(32, 50, 1), float32] */;
    %903 = multiply(%901, %902) /* ty=Tensor[(32, 50, 1024), float32] */;
    %904 = multiply(%903, %p336) /* ty=Tensor[(32, 50, 1024), float32] */;
    %905 = add(%904, %p436) /* ty=Tensor[(32, 50, 1024), float32] */;
    %906 = transpose(%905, axes=[1, 0, 2]) /* ty=Tensor[(50, 32, 1024), float32] */;
    %907 = broadcast_to(%906, shape=[50, 32, 1024]) /* ty=Tensor[(50, 32, 1024), float32] */;
    %908 = reshape(%907, newshape=[-1, 32, 1024]) /* ty=Tensor[(50, 32, 1024), float32] */;
    cast(%908, dtype="float16") /* ty=Tensor[(50, 32, 1024), float16] */
  } /* ty=fn (Tensor[(32, 50, 1024), float32], Tensor[(32, 50, 1), float32], Tensor[(32, 50, 1), float32], Tensor[(1024), float32], Tensor[(1024), float32]) -> Tensor[(50, 32, 1024), float16] */;
  %1577 = %1576(%1571, %1573, %1575, meta[relay.Constant][76] /* ty=Tensor[(1024), float32] */, meta[relay.Constant][77] /* ty=Tensor[(1024), float32] */) /* ty=Tensor[(50, 32, 1024), float16] */;
  %1578 = fn (%p0341: Tensor[(50, 32, 1024), float16] /* ty=Tensor[(50, 32, 1024), float16] */, %p1234: Tensor[(50, 1024, 3072), float16] /* ty=Tensor[(50, 1024, 3072), float16] */, Primitive=1) -> Tensor[(50, 32, 3072), float16] {
    nn.batch_matmul(%p0341, %p1234, out_dtype="float16") /* ty=Tensor[(50, 32, 3072), float16] */
  } /* ty=fn (Tensor[(50, 32, 1024), float16], Tensor[(50, 1024, 3072), float16]) -> Tensor[(50, 32, 3072), float16] */;
  %1579 = %1578(%1577, meta[relay.Constant][78] /* ty=Tensor[(50, 1024, 3072), float16] */) /* ty=Tensor[(50, 32, 3072), float16] */;
  %1580 = fn (%p0340: Tensor[(50, 32, 3072), float16] /* ty=Tensor[(50, 32, 3072), float16] */, %p1233: Tensor[(3072), float16] /* ty=Tensor[(3072), float16] */, Primitive=1) -> (Tensor[(50, 32, 1024), float16], Tensor[(50, 32, 1024), float16], Tensor[(50, 32, 1024), float16]) {
    %897 = reshape(%p0340, newshape=[50, 32, 3072]) /* ty=Tensor[(50, 32, 3072), float16] */;
    %898 = squeeze(%897, axis=[]) /* ty=Tensor[(50, 32, 3072), float16] */;
    %899 = add(%898, %p1233) /* ty=Tensor[(50, 32, 3072), float16] */;
    split(%899, indices_or_sections=[1024, 2048], axis=-1) /* ty=(Tensor[(50, 32, 1024), float16], Tensor[(50, 32, 1024), float16], Tensor[(50, 32, 1024), float16]) */
  } /* ty=fn (Tensor[(50, 32, 3072), float16], Tensor[(3072), float16]) -> (Tensor[(50, 32, 1024), float16], Tensor[(50, 32, 1024), float16], Tensor[(50, 32, 1024), float16]) */;
  %1581 = %1580(%1579, meta[relay.Constant][79] /* ty=Tensor[(3072), float16] */) /* ty=(Tensor[(50, 32, 1024), float16], Tensor[(50, 32, 1024), float16], Tensor[(50, 32, 1024), float16]) */;
  %1582 = fn (%p0339: (Tensor[(50, 32, 1024), float16], Tensor[(50, 32, 1024), float16], Tensor[(50, 32, 1024), float16]) /* ty=(Tensor[(50, 32, 1024), float16], Tensor[(50, 32, 1024), float16], Tensor[(50, 32, 1024), float16]) */, %p1232: float16 /* ty=float16 */, Primitive=1) -> Tensor[(512, 50, 64), float16] {
    %892 = %p0339.0 /* ty=Tensor[(50, 32, 1024), float16] */;
    %893 = reshape(%892, newshape=[50, 512, 64]) /* ty=Tensor[(50, 512, 64), float16] */;
    %894 = transpose(%893, axes=[1, 0, 2]) /* ty=Tensor[(512, 50, 64), float16] */;
    %895 = divide(%894, %p1232) /* ty=Tensor[(512, 50, 64), float16] */;
    %896 = broadcast_to(%895, shape=[512, 50, 64], dtype="float16") /* ty=Tensor[(512, 50, 64), float16] */;
    reshape(%896, newshape=[-1, 50, 64]) /* ty=Tensor[(512, 50, 64), float16] */
  } /* ty=fn ((Tensor[(50, 32, 1024), float16], Tensor[(50, 32, 1024), float16], Tensor[(50, 32, 1024), float16]), float16) -> Tensor[(512, 50, 64), float16] */;
  %1587 = fn (%p0499: (Tensor[(50, 32, 1024), float16], Tensor[(50, 32, 1024), float16], Tensor[(50, 32, 1024), float16]) /* ty=(Tensor[(50, 32, 1024), float16], Tensor[(50, 32, 1024), float16], Tensor[(50, 32, 1024), float16]) */, Primitive=1) -> Tensor[(512, 64, 50), float16] {
    %1583 = %p0499.1 /* ty=Tensor[(50, 32, 1024), float16] */;
    %1584 = reshape(%1583, newshape=[50, 512, 64]) /* ty=Tensor[(50, 512, 64), float16] */;
    %1585 = transpose(%1584, axes=[1, 2, 0]) /* ty=Tensor[(512, 64, 50), float16] */;
    %1586 = broadcast_to(%1585, shape=[512, 64, 50], dtype="float16") /* ty=Tensor[(512, 64, 50), float16] */;
    reshape(%1586, newshape=[-1, 64, 50]) /* ty=Tensor[(512, 64, 50), float16] */
  } /* ty=fn ((Tensor[(50, 32, 1024), float16], Tensor[(50, 32, 1024), float16], Tensor[(50, 32, 1024), float16])) -> Tensor[(512, 64, 50), float16] */;
  %1588 = %1582(%1581, 8f16 /* ty=float16 */) /* ty=Tensor[(512, 50, 64), float16] */;
  %1589 = %1587(%1581) /* ty=Tensor[(512, 64, 50), float16] */;
  %1590 = fn (%p0338: Tensor[(512, 50, 64), float16] /* ty=Tensor[(512, 50, 64), float16] */, %p1231: Tensor[(512, 64, 50), float16] /* ty=Tensor[(512, 64, 50), float16] */, Primitive=1) -> Tensor[(512, 50, 50), float16] {
    nn.batch_matmul(%p0338, %p1231, out_dtype="float16") /* ty=Tensor[(512, 50, 50), float16] */
  } /* ty=fn (Tensor[(512, 50, 64), float16], Tensor[(512, 64, 50), float16]) -> Tensor[(512, 50, 50), float16] */;
  %1591 = %1590(%1588, %1589) /* ty=Tensor[(512, 50, 50), float16] */;
  %1592 = fn (%p0337: Tensor[(512, 50, 50), float16] /* ty=Tensor[(512, 50, 50), float16] */, Primitive=1) -> Tensor[(512, 50, 50), float32] {
    %890 = reshape(%p0337, newshape=[512, 50, 50]) /* ty=Tensor[(512, 50, 50), float16] */;
    %891 = squeeze(%890, axis=[]) /* ty=Tensor[(512, 50, 50), float16] */;
    cast(%891, dtype="float32") /* ty=Tensor[(512, 50, 50), float32] */
  } /* ty=fn (Tensor[(512, 50, 50), float16]) -> Tensor[(512, 50, 50), float32] */;
  %1593 = %1592(%1591) /* ty=Tensor[(512, 50, 50), float32] */;
  %1594 = fn (%p0336: Tensor[(512, 50, 50), float32] /* ty=Tensor[(512, 50, 50), float32] */, Primitive=1) -> Tensor[(512, 50, 50), float32] {
    %889 = nn.softmax(%p0336) /* ty=Tensor[(512, 50, 50), float32] */;
    broadcast_to(%889, shape=[512, 50, 50]) /* ty=Tensor[(512, 50, 50), float32] */
  } /* ty=fn (Tensor[(512, 50, 50), float32]) -> Tensor[(512, 50, 50), float32] */;
  %1595 = %1594(%1593) /* ty=Tensor[(512, 50, 50), float32] */;
  %1596 = fn (%p0335: Tensor[(512, 50, 50), float32] /* ty=Tensor[(512, 50, 50), float32] */, Primitive=1) -> Tensor[(512, 50, 50), float16] {
    %888 = reshape(%p0335, newshape=[-1, 50, 50]) /* ty=Tensor[(512, 50, 50), float32] */;
    cast(%888, dtype="float16") /* ty=Tensor[(512, 50, 50), float16] */
  } /* ty=fn (Tensor[(512, 50, 50), float32]) -> Tensor[(512, 50, 50), float16] */;
  %1601 = fn (%p0500: (Tensor[(50, 32, 1024), float16], Tensor[(50, 32, 1024), float16], Tensor[(50, 32, 1024), float16]) /* ty=(Tensor[(50, 32, 1024), float16], Tensor[(50, 32, 1024), float16], Tensor[(50, 32, 1024), float16]) */, Primitive=1) -> Tensor[(512, 50, 64), float16] {
    %1597 = %p0500.2 /* ty=Tensor[(50, 32, 1024), float16] */;
    %1598 = reshape(%1597, newshape=[50, 512, 64]) /* ty=Tensor[(50, 512, 64), float16] */;
    %1599 = transpose(%1598, axes=[1, 0, 2]) /* ty=Tensor[(512, 50, 64), float16] */;
    %1600 = broadcast_to(%1599, shape=[512, 50, 64], dtype="float16") /* ty=Tensor[(512, 50, 64), float16] */;
    reshape(%1600, newshape=[-1, 50, 64]) /* ty=Tensor[(512, 50, 64), float16] */
  } /* ty=fn ((Tensor[(50, 32, 1024), float16], Tensor[(50, 32, 1024), float16], Tensor[(50, 32, 1024), float16])) -> Tensor[(512, 50, 64), float16] */;
  %1602 = %1596(%1595) /* ty=Tensor[(512, 50, 50), float16] */;
  %1603 = %1601(%1581) /* ty=Tensor[(512, 50, 64), float16] */;
  %1604 = fn (%p0334: Tensor[(512, 50, 50), float16] /* ty=Tensor[(512, 50, 50), float16] */, %p1230: Tensor[(512, 50, 64), float16] /* ty=Tensor[(512, 50, 64), float16] */, Primitive=1) -> Tensor[(512, 50, 64), float16] {
    nn.batch_matmul(%p0334, %p1230, out_dtype="float16") /* ty=Tensor[(512, 50, 64), float16] */
  } /* ty=fn (Tensor[(512, 50, 50), float16], Tensor[(512, 50, 64), float16]) -> Tensor[(512, 50, 64), float16] */;
  %1605 = %1604(%1602, %1603) /* ty=Tensor[(512, 50, 64), float16] */;
  %1606 = fn (%p0333: Tensor[(512, 50, 64), float16] /* ty=Tensor[(512, 50, 64), float16] */, Primitive=1) -> Tensor[(1600, 1024), float16] {
    %885 = reshape(%p0333, newshape=[512, 50, 64]) /* ty=Tensor[(512, 50, 64), float16] */;
    %886 = squeeze(%885, axis=[]) /* ty=Tensor[(512, 50, 64), float16] */;
    %887 = transpose(%886, axes=[1, 0, 2]) /* ty=Tensor[(50, 512, 64), float16] */;
    reshape(%887, newshape=[1600, 1024]) /* ty=Tensor[(1600, 1024), float16] */
  } /* ty=fn (Tensor[(512, 50, 64), float16]) -> Tensor[(1600, 1024), float16] */;
  %1607 = %1606(%1605) /* ty=Tensor[(1600, 1024), float16] */;
  %1608 = fn (%p0332: Tensor[(1600, 1024), float16] /* ty=Tensor[(1600, 1024), float16] */, %p1229: Tensor[(1024, 1024), float16] /* ty=Tensor[(1024, 1024), float16] */, %p290: Tensor[(1, 1024), float16] /* ty=Tensor[(1, 1024), float16] */, Primitive=1) -> Tensor[(1600, 1024), float16] {
    %884 = nn.dense(%p0332, %p1229, units=None, out_dtype="float16") /* ty=Tensor[(1600, 1024), float16] */;
    add(%884, %p290) /* ty=Tensor[(1600, 1024), float16] */
  } /* ty=fn (Tensor[(1600, 1024), float16], Tensor[(1024, 1024), float16], Tensor[(1, 1024), float16]) -> Tensor[(1600, 1024), float16] */;
  %1609 = %1608(%1607, meta[relay.Constant][80] /* ty=Tensor[(1024, 1024), float16] */, meta[relay.Constant][81] /* ty=Tensor[(1, 1024), float16] */) /* ty=Tensor[(1600, 1024), float16] */;
  %1610 = fn (%p0331: Tensor[(1600, 1024), float16] /* ty=Tensor[(1600, 1024), float16] */, %p1228: Tensor[(32, 50, 1024), float16] /* ty=Tensor[(32, 50, 1024), float16] */, Primitive=1) -> Tensor[(32, 50, 1024), float16] {
    %882 = reshape(%p0331, newshape=[50, 32, 1024]) /* ty=Tensor[(50, 32, 1024), float16] */;
    %883 = transpose(%882, axes=[1, 0, 2]) /* ty=Tensor[(32, 50, 1024), float16] */;
    add(%883, %p1228) /* ty=Tensor[(32, 50, 1024), float16] */
  } /* ty=fn (Tensor[(1600, 1024), float16], Tensor[(32, 50, 1024), float16]) -> Tensor[(32, 50, 1024), float16] */;
  %1611 = %1610(%1609, %1569) /* ty=Tensor[(32, 50, 1024), float16] */;
  %1612 = fn (%p0330: Tensor[(32, 50, 1024), float16] /* ty=Tensor[(32, 50, 1024), float16] */, Primitive=1) -> Tensor[(32, 50, 1024), float32] {
    cast(%p0330, dtype="float32") /* ty=Tensor[(32, 50, 1024), float32] */
  } /* ty=fn (Tensor[(32, 50, 1024), float16]) -> Tensor[(32, 50, 1024), float32] */;
  %1613 = %1612(%1611) /* ty=Tensor[(32, 50, 1024), float32] */;
  %1614 = fn (%p0501: Tensor[(32, 50, 1024), float32] /* ty=Tensor[(32, 50, 1024), float32] */, Primitive=1) -> Tensor[(32, 50, 1), float32] {
    mean(%p0501, axis=[-1], keepdims=True) /* ty=Tensor[(32, 50, 1), float32] */
  } /* ty=fn (Tensor[(32, 50, 1024), float32]) -> Tensor[(32, 50, 1), float32] */;
  %1615 = %1614(%1613) /* ty=Tensor[(32, 50, 1), float32] */;
  %1616 = fn (%p0502: Tensor[(32, 50, 1024), float32] /* ty=Tensor[(32, 50, 1024), float32] */, %p1329: Tensor[(32, 50, 1), float32] /* ty=Tensor[(32, 50, 1), float32] */, Primitive=1) -> Tensor[(32, 50, 1), float32] {
    variance(%p0502, %p1329, axis=[-1], keepdims=True) /* ty=Tensor[(32, 50, 1), float32] */
  } /* ty=fn (Tensor[(32, 50, 1024), float32], Tensor[(32, 50, 1), float32]) -> Tensor[(32, 50, 1), float32] */;
  %1617 = %1616(%1613, %1615) /* ty=Tensor[(32, 50, 1), float32] */;
  %1618 = fn (%p0329: Tensor[(32, 50, 1024), float32] /* ty=Tensor[(32, 50, 1024), float32] */, %p1227: Tensor[(32, 50, 1), float32] /* ty=Tensor[(32, 50, 1), float32] */, %p289: Tensor[(32, 50, 1), float32] /* ty=Tensor[(32, 50, 1), float32] */, %p335: Tensor[(1024), float32] /* ty=Tensor[(1024), float32] */, %p435: Tensor[(1024), float32] /* ty=Tensor[(1024), float32] */, Primitive=1) -> Tensor[(32, 50, 1024), float16] {
    %874 = add(%p289, 1e-06f /* ty=float32 */) /* ty=Tensor[(32, 50, 1), float32] */;
    %875 = subtract(%p0329, %p1227) /* ty=Tensor[(32, 50, 1024), float32] */;
    %876 = rsqrt(%874) /* ty=Tensor[(32, 50, 1), float32] */;
    %877 = multiply(%875, %876) /* ty=Tensor[(32, 50, 1024), float32] */;
    %878 = multiply(%877, %p335) /* ty=Tensor[(32, 50, 1024), float32] */;
    %879 = add(%878, %p435) /* ty=Tensor[(32, 50, 1024), float32] */;
    %880 = broadcast_to(%879, shape=[32, 50, 1024]) /* ty=Tensor[(32, 50, 1024), float32] */;
    %881 = reshape(%880, newshape=[-1, 50, 1024]) /* ty=Tensor[(32, 50, 1024), float32] */;
    cast(%881, dtype="float16") /* ty=Tensor[(32, 50, 1024), float16] */
  } /* ty=fn (Tensor[(32, 50, 1024), float32], Tensor[(32, 50, 1), float32], Tensor[(32, 50, 1), float32], Tensor[(1024), float32], Tensor[(1024), float32]) -> Tensor[(32, 50, 1024), float16] */;
  %1619 = %1618(%1613, %1615, %1617, meta[relay.Constant][82] /* ty=Tensor[(1024), float32] */, meta[relay.Constant][83] /* ty=Tensor[(1024), float32] */) /* ty=Tensor[(32, 50, 1024), float16] */;
  %1620 = fn (%p0328: Tensor[(32, 50, 1024), float16] /* ty=Tensor[(32, 50, 1024), float16] */, %p1226: Tensor[(32, 1024, 4096), float16] /* ty=Tensor[(32, 1024, 4096), float16] */, Primitive=1) -> Tensor[(32, 50, 4096), float16] {
    nn.batch_matmul(%p0328, %p1226, out_dtype="float16") /* ty=Tensor[(32, 50, 4096), float16] */
  } /* ty=fn (Tensor[(32, 50, 1024), float16], Tensor[(32, 1024, 4096), float16]) -> Tensor[(32, 50, 4096), float16] */;
  %1621 = %1620(%1619, meta[relay.Constant][84] /* ty=Tensor[(32, 1024, 4096), float16] */) /* ty=Tensor[(32, 50, 4096), float16] */;
  %1622 = fn (%p0327: Tensor[(32, 50, 4096), float16] /* ty=Tensor[(32, 50, 4096), float16] */, %p1225: Tensor[(4096), float16] /* ty=Tensor[(4096), float16] */, %p288: float16 /* ty=float16 */, Primitive=1) -> Tensor[(32, 50, 4096), float16] {
    %862 = reshape(%p0327, newshape=[32, 50, 4096]) /* ty=Tensor[(32, 50, 4096), float16] */;
    %863 = squeeze(%862, axis=[]) /* ty=Tensor[(32, 50, 4096), float16] */;
    %864 = add(%863, %p1225) /* ty=Tensor[(32, 50, 4096), float16] */;
    %865 = multiply(%864, %p288) /* ty=Tensor[(32, 50, 4096), float16] */;
    %866 = cast(%865, dtype="float32") /* ty=Tensor[(32, 50, 4096), float32] */;
    %867 = erf(%866) /* ty=Tensor[(32, 50, 4096), float32] */;
    %868 = multiply(%867, 0.5f /* ty=float32 span=aten::gelu_6:0:0 */) /* ty=Tensor[(32, 50, 4096), float32] */;
    %869 = cast(%864, dtype="float32") /* ty=Tensor[(32, 50, 4096), float32] */;
    %870 = add(0.5f /* ty=float32 span=aten::gelu_6:0:0 */, %868) /* ty=Tensor[(32, 50, 4096), float32] */;
    %871 = multiply(%869, %870) /* ty=Tensor[(32, 50, 4096), float32] */;
    %872 = broadcast_to(%871, shape=[32, 50, 4096]) /* ty=Tensor[(32, 50, 4096), float32] */;
    %873 = reshape(%872, newshape=[-1, 50, 4096]) /* ty=Tensor[(32, 50, 4096), float32] */;
    cast(%873, dtype="float16") /* ty=Tensor[(32, 50, 4096), float16] */
  } /* ty=fn (Tensor[(32, 50, 4096), float16], Tensor[(4096), float16], float16) -> Tensor[(32, 50, 4096), float16] */;
  %1623 = %1622(%1621, meta[relay.Constant][85] /* ty=Tensor[(4096), float16] */, 0.707031f16 /* ty=float16 */) /* ty=Tensor[(32, 50, 4096), float16] */;
  %1624 = fn (%p0326: Tensor[(32, 50, 4096), float16] /* ty=Tensor[(32, 50, 4096), float16] */, %p1224: Tensor[(32, 4096, 1024), float16] /* ty=Tensor[(32, 4096, 1024), float16] */, Primitive=1) -> Tensor[(32, 50, 1024), float16] {
    nn.batch_matmul(%p0326, %p1224, out_dtype="float16") /* ty=Tensor[(32, 50, 1024), float16] */
  } /* ty=fn (Tensor[(32, 50, 4096), float16], Tensor[(32, 4096, 1024), float16]) -> Tensor[(32, 50, 1024), float16] */;
  %1625 = %1624(%1623, meta[relay.Constant][86] /* ty=Tensor[(32, 4096, 1024), float16] */) /* ty=Tensor[(32, 50, 1024), float16] */;
  %1626 = fn (%p0325: Tensor[(32, 50, 1024), float16] /* ty=Tensor[(32, 50, 1024), float16] */, %p1223: Tensor[(1024), float16] /* ty=Tensor[(1024), float16] */, %p287: Tensor[(32, 50, 1024), float16] /* ty=Tensor[(32, 50, 1024), float16] */, Primitive=1) -> Tensor[(32, 50, 1024), float16] {
    %859 = reshape(%p0325, newshape=[32, 50, 1024]) /* ty=Tensor[(32, 50, 1024), float16] */;
    %860 = squeeze(%859, axis=[]) /* ty=Tensor[(32, 50, 1024), float16] */;
    %861 = add(%860, %p1223) /* ty=Tensor[(32, 50, 1024), float16] */;
    add(%p287, %861) /* ty=Tensor[(32, 50, 1024), float16] */
  } /* ty=fn (Tensor[(32, 50, 1024), float16], Tensor[(1024), float16], Tensor[(32, 50, 1024), float16]) -> Tensor[(32, 50, 1024), float16] */;
  %1627 = %1626(%1625, meta[relay.Constant][87] /* ty=Tensor[(1024), float16] */, %1611) /* ty=Tensor[(32, 50, 1024), float16] */;
  %1628 = fn (%p0324: Tensor[(32, 50, 1024), float16] /* ty=Tensor[(32, 50, 1024), float16] */, Primitive=1) -> Tensor[(32, 50, 1024), float32] {
    cast(%p0324, dtype="float32") /* ty=Tensor[(32, 50, 1024), float32] */
  } /* ty=fn (Tensor[(32, 50, 1024), float16]) -> Tensor[(32, 50, 1024), float32] */;
  %1629 = %1628(%1627) /* ty=Tensor[(32, 50, 1024), float32] */;
  %1630 = fn (%p0503: Tensor[(32, 50, 1024), float32] /* ty=Tensor[(32, 50, 1024), float32] */, Primitive=1) -> Tensor[(32, 50, 1), float32] {
    mean(%p0503, axis=[-1], keepdims=True) /* ty=Tensor[(32, 50, 1), float32] */
  } /* ty=fn (Tensor[(32, 50, 1024), float32]) -> Tensor[(32, 50, 1), float32] */;
  %1631 = %1630(%1629) /* ty=Tensor[(32, 50, 1), float32] */;
  %1632 = fn (%p0504: Tensor[(32, 50, 1024), float32] /* ty=Tensor[(32, 50, 1024), float32] */, %p1330: Tensor[(32, 50, 1), float32] /* ty=Tensor[(32, 50, 1), float32] */, Primitive=1) -> Tensor[(32, 50, 1), float32] {
    variance(%p0504, %p1330, axis=[-1], keepdims=True) /* ty=Tensor[(32, 50, 1), float32] */
  } /* ty=fn (Tensor[(32, 50, 1024), float32], Tensor[(32, 50, 1), float32]) -> Tensor[(32, 50, 1), float32] */;
  %1633 = %1632(%1629, %1631) /* ty=Tensor[(32, 50, 1), float32] */;
  %1634 = fn (%p0323: Tensor[(32, 50, 1024), float32] /* ty=Tensor[(32, 50, 1024), float32] */, %p1222: Tensor[(32, 50, 1), float32] /* ty=Tensor[(32, 50, 1), float32] */, %p286: Tensor[(32, 50, 1), float32] /* ty=Tensor[(32, 50, 1), float32] */, %p334: Tensor[(1024), float32] /* ty=Tensor[(1024), float32] */, %p434: Tensor[(1024), float32] /* ty=Tensor[(1024), float32] */, Primitive=1) -> Tensor[(50, 32, 1024), float16] {
    %850 = add(%p286, 1e-06f /* ty=float32 */) /* ty=Tensor[(32, 50, 1), float32] */;
    %851 = subtract(%p0323, %p1222) /* ty=Tensor[(32, 50, 1024), float32] */;
    %852 = rsqrt(%850) /* ty=Tensor[(32, 50, 1), float32] */;
    %853 = multiply(%851, %852) /* ty=Tensor[(32, 50, 1024), float32] */;
    %854 = multiply(%853, %p334) /* ty=Tensor[(32, 50, 1024), float32] */;
    %855 = add(%854, %p434) /* ty=Tensor[(32, 50, 1024), float32] */;
    %856 = transpose(%855, axes=[1, 0, 2]) /* ty=Tensor[(50, 32, 1024), float32] */;
    %857 = broadcast_to(%856, shape=[50, 32, 1024]) /* ty=Tensor[(50, 32, 1024), float32] */;
    %858 = reshape(%857, newshape=[-1, 32, 1024]) /* ty=Tensor[(50, 32, 1024), float32] */;
    cast(%858, dtype="float16") /* ty=Tensor[(50, 32, 1024), float16] */
  } /* ty=fn (Tensor[(32, 50, 1024), float32], Tensor[(32, 50, 1), float32], Tensor[(32, 50, 1), float32], Tensor[(1024), float32], Tensor[(1024), float32]) -> Tensor[(50, 32, 1024), float16] */;
  %1635 = %1634(%1629, %1631, %1633, meta[relay.Constant][88] /* ty=Tensor[(1024), float32] */, meta[relay.Constant][89] /* ty=Tensor[(1024), float32] */) /* ty=Tensor[(50, 32, 1024), float16] */;
  %1636 = fn (%p0322: Tensor[(50, 32, 1024), float16] /* ty=Tensor[(50, 32, 1024), float16] */, %p1221: Tensor[(50, 1024, 3072), float16] /* ty=Tensor[(50, 1024, 3072), float16] */, Primitive=1) -> Tensor[(50, 32, 3072), float16] {
    nn.batch_matmul(%p0322, %p1221, out_dtype="float16") /* ty=Tensor[(50, 32, 3072), float16] */
  } /* ty=fn (Tensor[(50, 32, 1024), float16], Tensor[(50, 1024, 3072), float16]) -> Tensor[(50, 32, 3072), float16] */;
  %1637 = %1636(%1635, meta[relay.Constant][90] /* ty=Tensor[(50, 1024, 3072), float16] */) /* ty=Tensor[(50, 32, 3072), float16] */;
  %1638 = fn (%p0321: Tensor[(50, 32, 3072), float16] /* ty=Tensor[(50, 32, 3072), float16] */, %p1220: Tensor[(3072), float16] /* ty=Tensor[(3072), float16] */, Primitive=1) -> (Tensor[(50, 32, 1024), float16], Tensor[(50, 32, 1024), float16], Tensor[(50, 32, 1024), float16]) {
    %847 = reshape(%p0321, newshape=[50, 32, 3072]) /* ty=Tensor[(50, 32, 3072), float16] */;
    %848 = squeeze(%847, axis=[]) /* ty=Tensor[(50, 32, 3072), float16] */;
    %849 = add(%848, %p1220) /* ty=Tensor[(50, 32, 3072), float16] */;
    split(%849, indices_or_sections=[1024, 2048], axis=-1) /* ty=(Tensor[(50, 32, 1024), float16], Tensor[(50, 32, 1024), float16], Tensor[(50, 32, 1024), float16]) */
  } /* ty=fn (Tensor[(50, 32, 3072), float16], Tensor[(3072), float16]) -> (Tensor[(50, 32, 1024), float16], Tensor[(50, 32, 1024), float16], Tensor[(50, 32, 1024), float16]) */;
  %1639 = %1638(%1637, meta[relay.Constant][91] /* ty=Tensor[(3072), float16] */) /* ty=(Tensor[(50, 32, 1024), float16], Tensor[(50, 32, 1024), float16], Tensor[(50, 32, 1024), float16]) */;
  %1640 = fn (%p0320: (Tensor[(50, 32, 1024), float16], Tensor[(50, 32, 1024), float16], Tensor[(50, 32, 1024), float16]) /* ty=(Tensor[(50, 32, 1024), float16], Tensor[(50, 32, 1024), float16], Tensor[(50, 32, 1024), float16]) */, %p1219: float16 /* ty=float16 */, Primitive=1) -> Tensor[(512, 50, 64), float16] {
    %842 = %p0320.0 /* ty=Tensor[(50, 32, 1024), float16] */;
    %843 = reshape(%842, newshape=[50, 512, 64]) /* ty=Tensor[(50, 512, 64), float16] */;
    %844 = transpose(%843, axes=[1, 0, 2]) /* ty=Tensor[(512, 50, 64), float16] */;
    %845 = divide(%844, %p1219) /* ty=Tensor[(512, 50, 64), float16] */;
    %846 = broadcast_to(%845, shape=[512, 50, 64], dtype="float16") /* ty=Tensor[(512, 50, 64), float16] */;
    reshape(%846, newshape=[-1, 50, 64]) /* ty=Tensor[(512, 50, 64), float16] */
  } /* ty=fn ((Tensor[(50, 32, 1024), float16], Tensor[(50, 32, 1024), float16], Tensor[(50, 32, 1024), float16]), float16) -> Tensor[(512, 50, 64), float16] */;
  %1645 = fn (%p0505: (Tensor[(50, 32, 1024), float16], Tensor[(50, 32, 1024), float16], Tensor[(50, 32, 1024), float16]) /* ty=(Tensor[(50, 32, 1024), float16], Tensor[(50, 32, 1024), float16], Tensor[(50, 32, 1024), float16]) */, Primitive=1) -> Tensor[(512, 64, 50), float16] {
    %1641 = %p0505.1 /* ty=Tensor[(50, 32, 1024), float16] */;
    %1642 = reshape(%1641, newshape=[50, 512, 64]) /* ty=Tensor[(50, 512, 64), float16] */;
    %1643 = transpose(%1642, axes=[1, 2, 0]) /* ty=Tensor[(512, 64, 50), float16] */;
    %1644 = broadcast_to(%1643, shape=[512, 64, 50], dtype="float16") /* ty=Tensor[(512, 64, 50), float16] */;
    reshape(%1644, newshape=[-1, 64, 50]) /* ty=Tensor[(512, 64, 50), float16] */
  } /* ty=fn ((Tensor[(50, 32, 1024), float16], Tensor[(50, 32, 1024), float16], Tensor[(50, 32, 1024), float16])) -> Tensor[(512, 64, 50), float16] */;
  %1646 = %1640(%1639, 8f16 /* ty=float16 */) /* ty=Tensor[(512, 50, 64), float16] */;
  %1647 = %1645(%1639) /* ty=Tensor[(512, 64, 50), float16] */;
  %1648 = fn (%p0319: Tensor[(512, 50, 64), float16] /* ty=Tensor[(512, 50, 64), float16] */, %p1218: Tensor[(512, 64, 50), float16] /* ty=Tensor[(512, 64, 50), float16] */, Primitive=1) -> Tensor[(512, 50, 50), float16] {
    nn.batch_matmul(%p0319, %p1218, out_dtype="float16") /* ty=Tensor[(512, 50, 50), float16] */
  } /* ty=fn (Tensor[(512, 50, 64), float16], Tensor[(512, 64, 50), float16]) -> Tensor[(512, 50, 50), float16] */;
  %1649 = %1648(%1646, %1647) /* ty=Tensor[(512, 50, 50), float16] */;
  %1650 = fn (%p0318: Tensor[(512, 50, 50), float16] /* ty=Tensor[(512, 50, 50), float16] */, Primitive=1) -> Tensor[(512, 50, 50), float32] {
    %840 = reshape(%p0318, newshape=[512, 50, 50]) /* ty=Tensor[(512, 50, 50), float16] */;
    %841 = squeeze(%840, axis=[]) /* ty=Tensor[(512, 50, 50), float16] */;
    cast(%841, dtype="float32") /* ty=Tensor[(512, 50, 50), float32] */
  } /* ty=fn (Tensor[(512, 50, 50), float16]) -> Tensor[(512, 50, 50), float32] */;
  %1651 = %1650(%1649) /* ty=Tensor[(512, 50, 50), float32] */;
  %1652 = fn (%p0317: Tensor[(512, 50, 50), float32] /* ty=Tensor[(512, 50, 50), float32] */, Primitive=1) -> Tensor[(512, 50, 50), float32] {
    %839 = nn.softmax(%p0317) /* ty=Tensor[(512, 50, 50), float32] */;
    broadcast_to(%839, shape=[512, 50, 50]) /* ty=Tensor[(512, 50, 50), float32] */
  } /* ty=fn (Tensor[(512, 50, 50), float32]) -> Tensor[(512, 50, 50), float32] */;
  %1653 = %1652(%1651) /* ty=Tensor[(512, 50, 50), float32] */;
  %1654 = fn (%p0316: Tensor[(512, 50, 50), float32] /* ty=Tensor[(512, 50, 50), float32] */, Primitive=1) -> Tensor[(512, 50, 50), float16] {
    %838 = reshape(%p0316, newshape=[-1, 50, 50]) /* ty=Tensor[(512, 50, 50), float32] */;
    cast(%838, dtype="float16") /* ty=Tensor[(512, 50, 50), float16] */
  } /* ty=fn (Tensor[(512, 50, 50), float32]) -> Tensor[(512, 50, 50), float16] */;
  %1659 = fn (%p0506: (Tensor[(50, 32, 1024), float16], Tensor[(50, 32, 1024), float16], Tensor[(50, 32, 1024), float16]) /* ty=(Tensor[(50, 32, 1024), float16], Tensor[(50, 32, 1024), float16], Tensor[(50, 32, 1024), float16]) */, Primitive=1) -> Tensor[(512, 50, 64), float16] {
    %1655 = %p0506.2 /* ty=Tensor[(50, 32, 1024), float16] */;
    %1656 = reshape(%1655, newshape=[50, 512, 64]) /* ty=Tensor[(50, 512, 64), float16] */;
    %1657 = transpose(%1656, axes=[1, 0, 2]) /* ty=Tensor[(512, 50, 64), float16] */;
    %1658 = broadcast_to(%1657, shape=[512, 50, 64], dtype="float16") /* ty=Tensor[(512, 50, 64), float16] */;
    reshape(%1658, newshape=[-1, 50, 64]) /* ty=Tensor[(512, 50, 64), float16] */
  } /* ty=fn ((Tensor[(50, 32, 1024), float16], Tensor[(50, 32, 1024), float16], Tensor[(50, 32, 1024), float16])) -> Tensor[(512, 50, 64), float16] */;
  %1660 = %1654(%1653) /* ty=Tensor[(512, 50, 50), float16] */;
  %1661 = %1659(%1639) /* ty=Tensor[(512, 50, 64), float16] */;
  %1662 = fn (%p0315: Tensor[(512, 50, 50), float16] /* ty=Tensor[(512, 50, 50), float16] */, %p1217: Tensor[(512, 50, 64), float16] /* ty=Tensor[(512, 50, 64), float16] */, Primitive=1) -> Tensor[(512, 50, 64), float16] {
    nn.batch_matmul(%p0315, %p1217, out_dtype="float16") /* ty=Tensor[(512, 50, 64), float16] */
  } /* ty=fn (Tensor[(512, 50, 50), float16], Tensor[(512, 50, 64), float16]) -> Tensor[(512, 50, 64), float16] */;
  %1663 = %1662(%1660, %1661) /* ty=Tensor[(512, 50, 64), float16] */;
  %1664 = fn (%p0314: Tensor[(512, 50, 64), float16] /* ty=Tensor[(512, 50, 64), float16] */, Primitive=1) -> Tensor[(1600, 1024), float16] {
    %835 = reshape(%p0314, newshape=[512, 50, 64]) /* ty=Tensor[(512, 50, 64), float16] */;
    %836 = squeeze(%835, axis=[]) /* ty=Tensor[(512, 50, 64), float16] */;
    %837 = transpose(%836, axes=[1, 0, 2]) /* ty=Tensor[(50, 512, 64), float16] */;
    reshape(%837, newshape=[1600, 1024]) /* ty=Tensor[(1600, 1024), float16] */
  } /* ty=fn (Tensor[(512, 50, 64), float16]) -> Tensor[(1600, 1024), float16] */;
  %1665 = %1664(%1663) /* ty=Tensor[(1600, 1024), float16] */;
  %1666 = fn (%p0313: Tensor[(1600, 1024), float16] /* ty=Tensor[(1600, 1024), float16] */, %p1216: Tensor[(1024, 1024), float16] /* ty=Tensor[(1024, 1024), float16] */, %p285: Tensor[(1, 1024), float16] /* ty=Tensor[(1, 1024), float16] */, Primitive=1) -> Tensor[(1600, 1024), float16] {
    %834 = nn.dense(%p0313, %p1216, units=None, out_dtype="float16") /* ty=Tensor[(1600, 1024), float16] */;
    add(%834, %p285) /* ty=Tensor[(1600, 1024), float16] */
  } /* ty=fn (Tensor[(1600, 1024), float16], Tensor[(1024, 1024), float16], Tensor[(1, 1024), float16]) -> Tensor[(1600, 1024), float16] */;
  %1667 = %1666(%1665, meta[relay.Constant][92] /* ty=Tensor[(1024, 1024), float16] */, meta[relay.Constant][93] /* ty=Tensor[(1, 1024), float16] */) /* ty=Tensor[(1600, 1024), float16] */;
  %1668 = fn (%p0312: Tensor[(1600, 1024), float16] /* ty=Tensor[(1600, 1024), float16] */, %p1215: Tensor[(32, 50, 1024), float16] /* ty=Tensor[(32, 50, 1024), float16] */, Primitive=1) -> Tensor[(32, 50, 1024), float16] {
    %832 = reshape(%p0312, newshape=[50, 32, 1024]) /* ty=Tensor[(50, 32, 1024), float16] */;
    %833 = transpose(%832, axes=[1, 0, 2]) /* ty=Tensor[(32, 50, 1024), float16] */;
    add(%833, %p1215) /* ty=Tensor[(32, 50, 1024), float16] */
  } /* ty=fn (Tensor[(1600, 1024), float16], Tensor[(32, 50, 1024), float16]) -> Tensor[(32, 50, 1024), float16] */;
  %1669 = %1668(%1667, %1627) /* ty=Tensor[(32, 50, 1024), float16] */;
  %1670 = fn (%p0311: Tensor[(32, 50, 1024), float16] /* ty=Tensor[(32, 50, 1024), float16] */, Primitive=1) -> Tensor[(32, 50, 1024), float32] {
    cast(%p0311, dtype="float32") /* ty=Tensor[(32, 50, 1024), float32] */
  } /* ty=fn (Tensor[(32, 50, 1024), float16]) -> Tensor[(32, 50, 1024), float32] */;
  %1671 = %1670(%1669) /* ty=Tensor[(32, 50, 1024), float32] */;
  %1672 = fn (%p0507: Tensor[(32, 50, 1024), float32] /* ty=Tensor[(32, 50, 1024), float32] */, Primitive=1) -> Tensor[(32, 50, 1), float32] {
    mean(%p0507, axis=[-1], keepdims=True) /* ty=Tensor[(32, 50, 1), float32] */
  } /* ty=fn (Tensor[(32, 50, 1024), float32]) -> Tensor[(32, 50, 1), float32] */;
  %1673 = %1672(%1671) /* ty=Tensor[(32, 50, 1), float32] */;
  %1674 = fn (%p0508: Tensor[(32, 50, 1024), float32] /* ty=Tensor[(32, 50, 1024), float32] */, %p1331: Tensor[(32, 50, 1), float32] /* ty=Tensor[(32, 50, 1), float32] */, Primitive=1) -> Tensor[(32, 50, 1), float32] {
    variance(%p0508, %p1331, axis=[-1], keepdims=True) /* ty=Tensor[(32, 50, 1), float32] */
  } /* ty=fn (Tensor[(32, 50, 1024), float32], Tensor[(32, 50, 1), float32]) -> Tensor[(32, 50, 1), float32] */;
  %1675 = %1674(%1671, %1673) /* ty=Tensor[(32, 50, 1), float32] */;
  %1676 = fn (%p0310: Tensor[(32, 50, 1024), float32] /* ty=Tensor[(32, 50, 1024), float32] */, %p1214: Tensor[(32, 50, 1), float32] /* ty=Tensor[(32, 50, 1), float32] */, %p284: Tensor[(32, 50, 1), float32] /* ty=Tensor[(32, 50, 1), float32] */, %p333: Tensor[(1024), float32] /* ty=Tensor[(1024), float32] */, %p433: Tensor[(1024), float32] /* ty=Tensor[(1024), float32] */, Primitive=1) -> Tensor[(32, 50, 1024), float16] {
    %824 = add(%p284, 1e-06f /* ty=float32 */) /* ty=Tensor[(32, 50, 1), float32] */;
    %825 = subtract(%p0310, %p1214) /* ty=Tensor[(32, 50, 1024), float32] */;
    %826 = rsqrt(%824) /* ty=Tensor[(32, 50, 1), float32] */;
    %827 = multiply(%825, %826) /* ty=Tensor[(32, 50, 1024), float32] */;
    %828 = multiply(%827, %p333) /* ty=Tensor[(32, 50, 1024), float32] */;
    %829 = add(%828, %p433) /* ty=Tensor[(32, 50, 1024), float32] */;
    %830 = broadcast_to(%829, shape=[32, 50, 1024]) /* ty=Tensor[(32, 50, 1024), float32] */;
    %831 = reshape(%830, newshape=[-1, 50, 1024]) /* ty=Tensor[(32, 50, 1024), float32] */;
    cast(%831, dtype="float16") /* ty=Tensor[(32, 50, 1024), float16] */
  } /* ty=fn (Tensor[(32, 50, 1024), float32], Tensor[(32, 50, 1), float32], Tensor[(32, 50, 1), float32], Tensor[(1024), float32], Tensor[(1024), float32]) -> Tensor[(32, 50, 1024), float16] */;
  %1677 = %1676(%1671, %1673, %1675, meta[relay.Constant][94] /* ty=Tensor[(1024), float32] */, meta[relay.Constant][95] /* ty=Tensor[(1024), float32] */) /* ty=Tensor[(32, 50, 1024), float16] */;
  %1678 = fn (%p0309: Tensor[(32, 50, 1024), float16] /* ty=Tensor[(32, 50, 1024), float16] */, %p1213: Tensor[(32, 1024, 4096), float16] /* ty=Tensor[(32, 1024, 4096), float16] */, Primitive=1) -> Tensor[(32, 50, 4096), float16] {
    nn.batch_matmul(%p0309, %p1213, out_dtype="float16") /* ty=Tensor[(32, 50, 4096), float16] */
…
    %139 = nn.softmax(%p051) /* ty=Tensor[(512, 50, 50), float32] */;
    broadcast_to(%139, shape=[512, 50, 50]) /* ty=Tensor[(512, 50, 50), float32] */
  } /* ty=fn (Tensor[(512, 50, 50), float32]) -> Tensor[(512, 50, 50), float32] */;
  %2465 = %2464(%2463) /* ty=Tensor[(512, 50, 50), float32] */;
  %2466 = fn (%p050: Tensor[(512, 50, 50), float32] /* ty=Tensor[(512, 50, 50), float32] */, Primitive=1) -> Tensor[(512, 50, 50), float16] {
    %138 = reshape(%p050, newshape=[-1, 50, 50]) /* ty=Tensor[(512, 50, 50), float32] */;
    cast(%138, dtype="float16") /* ty=Tensor[(512, 50, 50), float16] */
  } /* ty=fn (Tensor[(512, 50, 50), float32]) -> Tensor[(512, 50, 50), float16] */;
  %2471 = fn (%p0590: (Tensor[(50, 32, 1024), float16], Tensor[(50, 32, 1024), float16], Tensor[(50, 32, 1024), float16]) /* ty=(Tensor[(50, 32, 1024), float16], Tensor[(50, 32, 1024), float16], Tensor[(50, 32, 1024), float16]) */, Primitive=1) -> Tensor[(512, 50, 64), float16] {
    %2467 = %p0590.2 /* ty=Tensor[(50, 32, 1024), float16] */;
    %2468 = reshape(%2467, newshape=[50, 512, 64]) /* ty=Tensor[(50, 512, 64), float16] */;
    %2469 = transpose(%2468, axes=[1, 0, 2]) /* ty=Tensor[(512, 50, 64), float16] */;
    %2470 = broadcast_to(%2469, shape=[512, 50, 64], dtype="float16") /* ty=Tensor[(512, 50, 64), float16] */;
    reshape(%2470, newshape=[-1, 50, 64]) /* ty=Tensor[(512, 50, 64), float16] */
  } /* ty=fn ((Tensor[(50, 32, 1024), float16], Tensor[(50, 32, 1024), float16], Tensor[(50, 32, 1024), float16])) -> Tensor[(512, 50, 64), float16] */;
  %2472 = %2466(%2465) /* ty=Tensor[(512, 50, 50), float16] */;
  %2473 = %2471(%2451) /* ty=Tensor[(512, 50, 64), float16] */;
  %2474 = fn (%p049: Tensor[(512, 50, 50), float16] /* ty=Tensor[(512, 50, 50), float16] */, %p135: Tensor[(512, 50, 64), float16] /* ty=Tensor[(512, 50, 64), float16] */, Primitive=1) -> Tensor[(512, 50, 64), float16] {
    nn.batch_matmul(%p049, %p135, out_dtype="float16") /* ty=Tensor[(512, 50, 64), float16] */
  } /* ty=fn (Tensor[(512, 50, 50), float16], Tensor[(512, 50, 64), float16]) -> Tensor[(512, 50, 64), float16] */;
  %2475 = %2474(%2472, %2473) /* ty=Tensor[(512, 50, 64), float16] */;
  %2476 = fn (%p048: Tensor[(512, 50, 64), float16] /* ty=Tensor[(512, 50, 64), float16] */, Primitive=1) -> Tensor[(1600, 1024), float16] {
    %135 = reshape(%p048, newshape=[512, 50, 64]) /* ty=Tensor[(512, 50, 64), float16] */;
    %136 = squeeze(%135, axis=[]) /* ty=Tensor[(512, 50, 64), float16] */;
    %137 = transpose(%136, axes=[1, 0, 2]) /* ty=Tensor[(50, 512, 64), float16] */;
    reshape(%137, newshape=[1600, 1024]) /* ty=Tensor[(1600, 1024), float16] */
  } /* ty=fn (Tensor[(512, 50, 64), float16]) -> Tensor[(1600, 1024), float16] */;
  %2477 = %2476(%2475) /* ty=Tensor[(1600, 1024), float16] */;
  %2478 = fn (%p047: Tensor[(1600, 1024), float16] /* ty=Tensor[(1600, 1024), float16] */, %p134: Tensor[(1024, 1024), float16] /* ty=Tensor[(1024, 1024), float16] */, %p215: Tensor[(1, 1024), float16] /* ty=Tensor[(1, 1024), float16] */, Primitive=1) -> Tensor[(1600, 1024), float16] {
    %134 = nn.dense(%p047, %p134, units=None, out_dtype="float16") /* ty=Tensor[(1600, 1024), float16] */;
    add(%134, %p215) /* ty=Tensor[(1600, 1024), float16] */
  } /* ty=fn (Tensor[(1600, 1024), float16], Tensor[(1024, 1024), float16], Tensor[(1, 1024), float16]) -> Tensor[(1600, 1024), float16] */;
  %2479 = %2478(%2477, meta[relay.Constant][260] /* ty=Tensor[(1024, 1024), float16] */, meta[relay.Constant][261] /* ty=Tensor[(1, 1024), float16] */) /* ty=Tensor[(1600, 1024), float16] */;
  %2480 = fn (%p046: Tensor[(1600, 1024), float16] /* ty=Tensor[(1600, 1024), float16] */, %p133: Tensor[(32, 50, 1024), float16] /* ty=Tensor[(32, 50, 1024), float16] */, Primitive=1) -> Tensor[(32, 50, 1024), float16] {
    %132 = reshape(%p046, newshape=[50, 32, 1024]) /* ty=Tensor[(50, 32, 1024), float16] */;
    %133 = transpose(%132, axes=[1, 0, 2]) /* ty=Tensor[(32, 50, 1024), float16] */;
    add(%133, %p133) /* ty=Tensor[(32, 50, 1024), float16] */
  } /* ty=fn (Tensor[(1600, 1024), float16], Tensor[(32, 50, 1024), float16]) -> Tensor[(32, 50, 1024), float16] */;
  %2481 = %2480(%2479, %2439) /* ty=Tensor[(32, 50, 1024), float16] */;
  %2482 = fn (%p045: Tensor[(32, 50, 1024), float16] /* ty=Tensor[(32, 50, 1024), float16] */, Primitive=1) -> Tensor[(32, 50, 1024), float32] {
    cast(%p045, dtype="float32") /* ty=Tensor[(32, 50, 1024), float32] */
  } /* ty=fn (Tensor[(32, 50, 1024), float16]) -> Tensor[(32, 50, 1024), float32] */;
  %2483 = %2482(%2481) /* ty=Tensor[(32, 50, 1024), float32] */;
  %2484 = fn (%p0591: Tensor[(32, 50, 1024), float32] /* ty=Tensor[(32, 50, 1024), float32] */, Primitive=1) -> Tensor[(32, 50, 1), float32] {
    mean(%p0591, axis=[-1], keepdims=True) /* ty=Tensor[(32, 50, 1), float32] */
  } /* ty=fn (Tensor[(32, 50, 1024), float32]) -> Tensor[(32, 50, 1), float32] */;
  %2485 = %2484(%2483) /* ty=Tensor[(32, 50, 1), float32] */;
  %2486 = fn (%p0592: Tensor[(32, 50, 1024), float32] /* ty=Tensor[(32, 50, 1024), float32] */, %p1359: Tensor[(32, 50, 1), float32] /* ty=Tensor[(32, 50, 1), float32] */, Primitive=1) -> Tensor[(32, 50, 1), float32] {
    variance(%p0592, %p1359, axis=[-1], keepdims=True) /* ty=Tensor[(32, 50, 1), float32] */
  } /* ty=fn (Tensor[(32, 50, 1024), float32], Tensor[(32, 50, 1), float32]) -> Tensor[(32, 50, 1), float32] */;
  %2487 = %2486(%2483, %2485) /* ty=Tensor[(32, 50, 1), float32] */;
  %2488 = fn (%p044: Tensor[(32, 50, 1024), float32] /* ty=Tensor[(32, 50, 1024), float32] */, %p132: Tensor[(32, 50, 1), float32] /* ty=Tensor[(32, 50, 1), float32] */, %p214: Tensor[(32, 50, 1), float32] /* ty=Tensor[(32, 50, 1), float32] */, %p35: Tensor[(1024), float32] /* ty=Tensor[(1024), float32] */, %p45: Tensor[(1024), float32] /* ty=Tensor[(1024), float32] */, Primitive=1) -> Tensor[(32, 50, 1024), float16] {
    %124 = add(%p214, 1e-06f /* ty=float32 */) /* ty=Tensor[(32, 50, 1), float32] */;
    %125 = subtract(%p044, %p132) /* ty=Tensor[(32, 50, 1024), float32] */;
    %126 = rsqrt(%124) /* ty=Tensor[(32, 50, 1), float32] */;
    %127 = multiply(%125, %126) /* ty=Tensor[(32, 50, 1024), float32] */;
    %128 = multiply(%127, %p35) /* ty=Tensor[(32, 50, 1024), float32] */;
    %129 = add(%128, %p45) /* ty=Tensor[(32, 50, 1024), float32] */;
    %130 = broadcast_to(%129, shape=[32, 50, 1024]) /* ty=Tensor[(32, 50, 1024), float32] */;
    %131 = reshape(%130, newshape=[-1, 50, 1024]) /* ty=Tensor[(32, 50, 1024), float32] */;
    cast(%131, dtype="float16") /* ty=Tensor[(32, 50, 1024), float16] */
  } /* ty=fn (Tensor[(32, 50, 1024), float32], Tensor[(32, 50, 1), float32], Tensor[(32, 50, 1), float32], Tensor[(1024), float32], Tensor[(1024), float32]) -> Tensor[(32, 50, 1024), float16] */;
  %2489 = %2488(%2483, %2485, %2487, meta[relay.Constant][262] /* ty=Tensor[(1024), float32] */, meta[relay.Constant][263] /* ty=Tensor[(1024), float32] */) /* ty=Tensor[(32, 50, 1024), float16] */;
  %2490 = fn (%p043: Tensor[(32, 50, 1024), float16] /* ty=Tensor[(32, 50, 1024), float16] */, %p131: Tensor[(32, 1024, 4096), float16] /* ty=Tensor[(32, 1024, 4096), float16] */, Primitive=1) -> Tensor[(32, 50, 4096), float16] {
    nn.batch_matmul(%p043, %p131, out_dtype="float16") /* ty=Tensor[(32, 50, 4096), float16] */
  } /* ty=fn (Tensor[(32, 50, 1024), float16], Tensor[(32, 1024, 4096), float16]) -> Tensor[(32, 50, 4096), float16] */;
  %2491 = %2490(%2489, meta[relay.Constant][264] /* ty=Tensor[(32, 1024, 4096), float16] */) /* ty=Tensor[(32, 50, 4096), float16] */;
  %2492 = fn (%p042: Tensor[(32, 50, 4096), float16] /* ty=Tensor[(32, 50, 4096), float16] */, %p130: Tensor[(4096), float16] /* ty=Tensor[(4096), float16] */, %p213: float16 /* ty=float16 */, Primitive=1) -> Tensor[(32, 50, 4096), float16] {
    %112 = reshape(%p042, newshape=[32, 50, 4096]) /* ty=Tensor[(32, 50, 4096), float16] */;
    %113 = squeeze(%112, axis=[]) /* ty=Tensor[(32, 50, 4096), float16] */;
    %114 = add(%113, %p130) /* ty=Tensor[(32, 50, 4096), float16] */;
    %115 = multiply(%114, %p213) /* ty=Tensor[(32, 50, 4096), float16] */;
    %116 = cast(%115, dtype="float32") /* ty=Tensor[(32, 50, 4096), float32] */;
    %117 = erf(%116) /* ty=Tensor[(32, 50, 4096), float32] */;
    %118 = multiply(%117, 0.5f /* ty=float32 span=aten::gelu_21:0:0 */) /* ty=Tensor[(32, 50, 4096), float32] */;
    %119 = cast(%114, dtype="float32") /* ty=Tensor[(32, 50, 4096), float32] */;
    %120 = add(0.5f /* ty=float32 span=aten::gelu_21:0:0 */, %118) /* ty=Tensor[(32, 50, 4096), float32] */;
    %121 = multiply(%119, %120) /* ty=Tensor[(32, 50, 4096), float32] */;
    %122 = broadcast_to(%121, shape=[32, 50, 4096]) /* ty=Tensor[(32, 50, 4096), float32] */;
    %123 = reshape(%122, newshape=[-1, 50, 4096]) /* ty=Tensor[(32, 50, 4096), float32] */;
    cast(%123, dtype="float16") /* ty=Tensor[(32, 50, 4096), float16] */
  } /* ty=fn (Tensor[(32, 50, 4096), float16], Tensor[(4096), float16], float16) -> Tensor[(32, 50, 4096), float16] */;
  %2493 = %2492(%2491, meta[relay.Constant][265] /* ty=Tensor[(4096), float16] */, 0.707031f16 /* ty=float16 */) /* ty=Tensor[(32, 50, 4096), float16] */;
  %2494 = fn (%p041: Tensor[(32, 50, 4096), float16] /* ty=Tensor[(32, 50, 4096), float16] */, %p129: Tensor[(32, 4096, 1024), float16] /* ty=Tensor[(32, 4096, 1024), float16] */, Primitive=1) -> Tensor[(32, 50, 1024), float16] {
    nn.batch_matmul(%p041, %p129, out_dtype="float16") /* ty=Tensor[(32, 50, 1024), float16] */
  } /* ty=fn (Tensor[(32, 50, 4096), float16], Tensor[(32, 4096, 1024), float16]) -> Tensor[(32, 50, 1024), float16] */;
  %2495 = %2494(%2493, meta[relay.Constant][266] /* ty=Tensor[(32, 4096, 1024), float16] */) /* ty=Tensor[(32, 50, 1024), float16] */;
  %2496 = fn (%p040: Tensor[(32, 50, 1024), float16] /* ty=Tensor[(32, 50, 1024), float16] */, %p128: Tensor[(1024), float16] /* ty=Tensor[(1024), float16] */, %p212: Tensor[(32, 50, 1024), float16] /* ty=Tensor[(32, 50, 1024), float16] */, Primitive=1) -> Tensor[(32, 50, 1024), float16] {
    %109 = reshape(%p040, newshape=[32, 50, 1024]) /* ty=Tensor[(32, 50, 1024), float16] */;
    %110 = squeeze(%109, axis=[]) /* ty=Tensor[(32, 50, 1024), float16] */;
    %111 = add(%110, %p128) /* ty=Tensor[(32, 50, 1024), float16] */;
    add(%p212, %111) /* ty=Tensor[(32, 50, 1024), float16] */
  } /* ty=fn (Tensor[(32, 50, 1024), float16], Tensor[(1024), float16], Tensor[(32, 50, 1024), float16]) -> Tensor[(32, 50, 1024), float16] */;
  %2497 = %2496(%2495, meta[relay.Constant][267] /* ty=Tensor[(1024), float16] */, %2481) /* ty=Tensor[(32, 50, 1024), float16] */;
  %2498 = fn (%p039: Tensor[(32, 50, 1024), float16] /* ty=Tensor[(32, 50, 1024), float16] */, Primitive=1) -> Tensor[(32, 50, 1024), float32] {
    cast(%p039, dtype="float32") /* ty=Tensor[(32, 50, 1024), float32] */
  } /* ty=fn (Tensor[(32, 50, 1024), float16]) -> Tensor[(32, 50, 1024), float32] */;
  %2499 = %2498(%2497) /* ty=Tensor[(32, 50, 1024), float32] */;
  %2500 = fn (%p0593: Tensor[(32, 50, 1024), float32] /* ty=Tensor[(32, 50, 1024), float32] */, Primitive=1) -> Tensor[(32, 50, 1), float32] {
    mean(%p0593, axis=[-1], keepdims=True) /* ty=Tensor[(32, 50, 1), float32] */
  } /* ty=fn (Tensor[(32, 50, 1024), float32]) -> Tensor[(32, 50, 1), float32] */;
  %2501 = %2500(%2499) /* ty=Tensor[(32, 50, 1), float32] */;
  %2502 = fn (%p0594: Tensor[(32, 50, 1024), float32] /* ty=Tensor[(32, 50, 1024), float32] */, %p1360: Tensor[(32, 50, 1), float32] /* ty=Tensor[(32, 50, 1), float32] */, Primitive=1) -> Tensor[(32, 50, 1), float32] {
    variance(%p0594, %p1360, axis=[-1], keepdims=True) /* ty=Tensor[(32, 50, 1), float32] */
  } /* ty=fn (Tensor[(32, 50, 1024), float32], Tensor[(32, 50, 1), float32]) -> Tensor[(32, 50, 1), float32] */;
  %2503 = %2502(%2499, %2501) /* ty=Tensor[(32, 50, 1), float32] */;
  %2504 = fn (%p038: Tensor[(32, 50, 1024), float32] /* ty=Tensor[(32, 50, 1024), float32] */, %p127: Tensor[(32, 50, 1), float32] /* ty=Tensor[(32, 50, 1), float32] */, %p211: Tensor[(32, 50, 1), float32] /* ty=Tensor[(32, 50, 1), float32] */, %p34: Tensor[(1024), float32] /* ty=Tensor[(1024), float32] */, %p44: Tensor[(1024), float32] /* ty=Tensor[(1024), float32] */, Primitive=1) -> Tensor[(50, 32, 1024), float16] {
    %100 = add(%p211, 1e-06f /* ty=float32 */) /* ty=Tensor[(32, 50, 1), float32] */;
    %101 = subtract(%p038, %p127) /* ty=Tensor[(32, 50, 1024), float32] */;
    %102 = rsqrt(%100) /* ty=Tensor[(32, 50, 1), float32] */;
    %103 = multiply(%101, %102) /* ty=Tensor[(32, 50, 1024), float32] */;
    %104 = multiply(%103, %p34) /* ty=Tensor[(32, 50, 1024), float32] */;
    %105 = add(%104, %p44) /* ty=Tensor[(32, 50, 1024), float32] */;
    %106 = transpose(%105, axes=[1, 0, 2]) /* ty=Tensor[(50, 32, 1024), float32] */;
    %107 = broadcast_to(%106, shape=[50, 32, 1024]) /* ty=Tensor[(50, 32, 1024), float32] */;
    %108 = reshape(%107, newshape=[-1, 32, 1024]) /* ty=Tensor[(50, 32, 1024), float32] */;
    cast(%108, dtype="float16") /* ty=Tensor[(50, 32, 1024), float16] */
  } /* ty=fn (Tensor[(32, 50, 1024), float32], Tensor[(32, 50, 1), float32], Tensor[(32, 50, 1), float32], Tensor[(1024), float32], Tensor[(1024), float32]) -> Tensor[(50, 32, 1024), float16] */;
  %2505 = %2504(%2499, %2501, %2503, meta[relay.Constant][268] /* ty=Tensor[(1024), float32] */, meta[relay.Constant][269] /* ty=Tensor[(1024), float32] */) /* ty=Tensor[(50, 32, 1024), float16] */;
  %2506 = fn (%p037: Tensor[(50, 32, 1024), float16] /* ty=Tensor[(50, 32, 1024), float16] */, %p126: Tensor[(50, 1024, 3072), float16] /* ty=Tensor[(50, 1024, 3072), float16] */, Primitive=1) -> Tensor[(50, 32, 3072), float16] {
    nn.batch_matmul(%p037, %p126, out_dtype="float16") /* ty=Tensor[(50, 32, 3072), float16] */
  } /* ty=fn (Tensor[(50, 32, 1024), float16], Tensor[(50, 1024, 3072), float16]) -> Tensor[(50, 32, 3072), float16] */;
  %2507 = %2506(%2505, meta[relay.Constant][270] /* ty=Tensor[(50, 1024, 3072), float16] */) /* ty=Tensor[(50, 32, 3072), float16] */;
  %2508 = fn (%p036: Tensor[(50, 32, 3072), float16] /* ty=Tensor[(50, 32, 3072), float16] */, %p125: Tensor[(3072), float16] /* ty=Tensor[(3072), float16] */, Primitive=1) -> (Tensor[(50, 32, 1024), float16], Tensor[(50, 32, 1024), float16], Tensor[(50, 32, 1024), float16]) {
    %97 = reshape(%p036, newshape=[50, 32, 3072]) /* ty=Tensor[(50, 32, 3072), float16] */;
    %98 = squeeze(%97, axis=[]) /* ty=Tensor[(50, 32, 3072), float16] */;
    %99 = add(%98, %p125) /* ty=Tensor[(50, 32, 3072), float16] */;
    split(%99, indices_or_sections=[1024, 2048], axis=-1) /* ty=(Tensor[(50, 32, 1024), float16], Tensor[(50, 32, 1024), float16], Tensor[(50, 32, 1024), float16]) */
  } /* ty=fn (Tensor[(50, 32, 3072), float16], Tensor[(3072), float16]) -> (Tensor[(50, 32, 1024), float16], Tensor[(50, 32, 1024), float16], Tensor[(50, 32, 1024), float16]) */;
  %2509 = %2508(%2507, meta[relay.Constant][271] /* ty=Tensor[(3072), float16] */) /* ty=(Tensor[(50, 32, 1024), float16], Tensor[(50, 32, 1024), float16], Tensor[(50, 32, 1024), float16]) */;
  %2510 = fn (%p035: (Tensor[(50, 32, 1024), float16], Tensor[(50, 32, 1024), float16], Tensor[(50, 32, 1024), float16]) /* ty=(Tensor[(50, 32, 1024), float16], Tensor[(50, 32, 1024), float16], Tensor[(50, 32, 1024), float16]) */, %p124: float16 /* ty=float16 */, Primitive=1) -> Tensor[(512, 50, 64), float16] {
    %92 = %p035.0 /* ty=Tensor[(50, 32, 1024), float16] */;
    %93 = reshape(%92, newshape=[50, 512, 64]) /* ty=Tensor[(50, 512, 64), float16] */;
    %94 = transpose(%93, axes=[1, 0, 2]) /* ty=Tensor[(512, 50, 64), float16] */;
    %95 = divide(%94, %p124) /* ty=Tensor[(512, 50, 64), float16] */;
    %96 = broadcast_to(%95, shape=[512, 50, 64], dtype="float16") /* ty=Tensor[(512, 50, 64), float16] */;
    reshape(%96, newshape=[-1, 50, 64]) /* ty=Tensor[(512, 50, 64), float16] */
  } /* ty=fn ((Tensor[(50, 32, 1024), float16], Tensor[(50, 32, 1024), float16], Tensor[(50, 32, 1024), float16]), float16) -> Tensor[(512, 50, 64), float16] */;
  %2515 = fn (%p0595: (Tensor[(50, 32, 1024), float16], Tensor[(50, 32, 1024), float16], Tensor[(50, 32, 1024), float16]) /* ty=(Tensor[(50, 32, 1024), float16], Tensor[(50, 32, 1024), float16], Tensor[(50, 32, 1024), float16]) */, Primitive=1) -> Tensor[(512, 64, 50), float16] {
    %2511 = %p0595.1 /* ty=Tensor[(50, 32, 1024), float16] */;
    %2512 = reshape(%2511, newshape=[50, 512, 64]) /* ty=Tensor[(50, 512, 64), float16] */;
    %2513 = transpose(%2512, axes=[1, 2, 0]) /* ty=Tensor[(512, 64, 50), float16] */;
    %2514 = broadcast_to(%2513, shape=[512, 64, 50], dtype="float16") /* ty=Tensor[(512, 64, 50), float16] */;
    reshape(%2514, newshape=[-1, 64, 50]) /* ty=Tensor[(512, 64, 50), float16] */
  } /* ty=fn ((Tensor[(50, 32, 1024), float16], Tensor[(50, 32, 1024), float16], Tensor[(50, 32, 1024), float16])) -> Tensor[(512, 64, 50), float16] */;
  %2516 = %2510(%2509, 8f16 /* ty=float16 */) /* ty=Tensor[(512, 50, 64), float16] */;
  %2517 = %2515(%2509) /* ty=Tensor[(512, 64, 50), float16] */;
  %2518 = fn (%p034: Tensor[(512, 50, 64), float16] /* ty=Tensor[(512, 50, 64), float16] */, %p123: Tensor[(512, 64, 50), float16] /* ty=Tensor[(512, 64, 50), float16] */, Primitive=1) -> Tensor[(512, 50, 50), float16] {
    nn.batch_matmul(%p034, %p123, out_dtype="float16") /* ty=Tensor[(512, 50, 50), float16] */
  } /* ty=fn (Tensor[(512, 50, 64), float16], Tensor[(512, 64, 50), float16]) -> Tensor[(512, 50, 50), float16] */;
  %2519 = %2518(%2516, %2517) /* ty=Tensor[(512, 50, 50), float16] */;
  %2520 = fn (%p033: Tensor[(512, 50, 50), float16] /* ty=Tensor[(512, 50, 50), float16] */, Primitive=1) -> Tensor[(512, 50, 50), float32] {
    %90 = reshape(%p033, newshape=[512, 50, 50]) /* ty=Tensor[(512, 50, 50), float16] */;
    %91 = squeeze(%90, axis=[]) /* ty=Tensor[(512, 50, 50), float16] */;
    cast(%91, dtype="float32") /* ty=Tensor[(512, 50, 50), float32] */
  } /* ty=fn (Tensor[(512, 50, 50), float16]) -> Tensor[(512, 50, 50), float32] */;
  %2521 = %2520(%2519) /* ty=Tensor[(512, 50, 50), float32] */;
  %2522 = fn (%p032: Tensor[(512, 50, 50), float32] /* ty=Tensor[(512, 50, 50), float32] */, Primitive=1) -> Tensor[(512, 50, 50), float32] {
    %89 = nn.softmax(%p032) /* ty=Tensor[(512, 50, 50), float32] */;
    broadcast_to(%89, shape=[512, 50, 50]) /* ty=Tensor[(512, 50, 50), float32] */
  } /* ty=fn (Tensor[(512, 50, 50), float32]) -> Tensor[(512, 50, 50), float32] */;
  %2523 = %2522(%2521) /* ty=Tensor[(512, 50, 50), float32] */;
  %2524 = fn (%p031: Tensor[(512, 50, 50), float32] /* ty=Tensor[(512, 50, 50), float32] */, Primitive=1) -> Tensor[(512, 50, 50), float16] {
    %88 = reshape(%p031, newshape=[-1, 50, 50]) /* ty=Tensor[(512, 50, 50), float32] */;
    cast(%88, dtype="float16") /* ty=Tensor[(512, 50, 50), float16] */
  } /* ty=fn (Tensor[(512, 50, 50), float32]) -> Tensor[(512, 50, 50), float16] */;
  %2529 = fn (%p0596: (Tensor[(50, 32, 1024), float16], Tensor[(50, 32, 1024), float16], Tensor[(50, 32, 1024), float16]) /* ty=(Tensor[(50, 32, 1024), float16], Tensor[(50, 32, 1024), float16], Tensor[(50, 32, 1024), float16]) */, Primitive=1) -> Tensor[(512, 50, 64), float16] {
    %2525 = %p0596.2 /* ty=Tensor[(50, 32, 1024), float16] */;
    %2526 = reshape(%2525, newshape=[50, 512, 64]) /* ty=Tensor[(50, 512, 64), float16] */;
    %2527 = transpose(%2526, axes=[1, 0, 2]) /* ty=Tensor[(512, 50, 64), float16] */;
    %2528 = broadcast_to(%2527, shape=[512, 50, 64], dtype="float16") /* ty=Tensor[(512, 50, 64), float16] */;
    reshape(%2528, newshape=[-1, 50, 64]) /* ty=Tensor[(512, 50, 64), float16] */
  } /* ty=fn ((Tensor[(50, 32, 1024), float16], Tensor[(50, 32, 1024), float16], Tensor[(50, 32, 1024), float16])) -> Tensor[(512, 50, 64), float16] */;
  %2530 = %2524(%2523) /* ty=Tensor[(512, 50, 50), float16] */;
  %2531 = %2529(%2509) /* ty=Tensor[(512, 50, 64), float16] */;
  %2532 = fn (%p030: Tensor[(512, 50, 50), float16] /* ty=Tensor[(512, 50, 50), float16] */, %p122: Tensor[(512, 50, 64), float16] /* ty=Tensor[(512, 50, 64), float16] */, Primitive=1) -> Tensor[(512, 50, 64), float16] {
    nn.batch_matmul(%p030, %p122, out_dtype="float16") /* ty=Tensor[(512, 50, 64), float16] */
  } /* ty=fn (Tensor[(512, 50, 50), float16], Tensor[(512, 50, 64), float16]) -> Tensor[(512, 50, 64), float16] */;
  %2533 = %2532(%2530, %2531) /* ty=Tensor[(512, 50, 64), float16] */;
  %2534 = fn (%p029: Tensor[(512, 50, 64), float16] /* ty=Tensor[(512, 50, 64), float16] */, Primitive=1) -> Tensor[(1600, 1024), float16] {
    %85 = reshape(%p029, newshape=[512, 50, 64]) /* ty=Tensor[(512, 50, 64), float16] */;
    %86 = squeeze(%85, axis=[]) /* ty=Tensor[(512, 50, 64), float16] */;
    %87 = transpose(%86, axes=[1, 0, 2]) /* ty=Tensor[(50, 512, 64), float16] */;
    reshape(%87, newshape=[1600, 1024]) /* ty=Tensor[(1600, 1024), float16] */
  } /* ty=fn (Tensor[(512, 50, 64), float16]) -> Tensor[(1600, 1024), float16] */;
  %2535 = %2534(%2533) /* ty=Tensor[(1600, 1024), float16] */;
  %2536 = fn (%p028: Tensor[(1600, 1024), float16] /* ty=Tensor[(1600, 1024), float16] */, %p121: Tensor[(1024, 1024), float16] /* ty=Tensor[(1024, 1024), float16] */, %p210: Tensor[(1, 1024), float16] /* ty=Tensor[(1, 1024), float16] */, Primitive=1) -> Tensor[(1600, 1024), float16] {
    %84 = nn.dense(%p028, %p121, units=None, out_dtype="float16") /* ty=Tensor[(1600, 1024), float16] */;
    add(%84, %p210) /* ty=Tensor[(1600, 1024), float16] */
  } /* ty=fn (Tensor[(1600, 1024), float16], Tensor[(1024, 1024), float16], Tensor[(1, 1024), float16]) -> Tensor[(1600, 1024), float16] */;
  %2537 = %2536(%2535, meta[relay.Constant][272] /* ty=Tensor[(1024, 1024), float16] */, meta[relay.Constant][273] /* ty=Tensor[(1, 1024), float16] */) /* ty=Tensor[(1600, 1024), float16] */;
  %2538 = fn (%p027: Tensor[(1600, 1024), float16] /* ty=Tensor[(1600, 1024), float16] */, %p120: Tensor[(32, 50, 1024), float16] /* ty=Tensor[(32, 50, 1024), float16] */, Primitive=1) -> Tensor[(32, 50, 1024), float16] {
    %82 = reshape(%p027, newshape=[50, 32, 1024]) /* ty=Tensor[(50, 32, 1024), float16] */;
    %83 = transpose(%82, axes=[1, 0, 2]) /* ty=Tensor[(32, 50, 1024), float16] */;
    add(%83, %p120) /* ty=Tensor[(32, 50, 1024), float16] */
  } /* ty=fn (Tensor[(1600, 1024), float16], Tensor[(32, 50, 1024), float16]) -> Tensor[(32, 50, 1024), float16] */;
  %2539 = %2538(%2537, %2497) /* ty=Tensor[(32, 50, 1024), float16] */;
  %2540 = fn (%p026: Tensor[(32, 50, 1024), float16] /* ty=Tensor[(32, 50, 1024), float16] */, Primitive=1) -> Tensor[(32, 50, 1024), float32] {
    cast(%p026, dtype="float32") /* ty=Tensor[(32, 50, 1024), float32] */
  } /* ty=fn (Tensor[(32, 50, 1024), float16]) -> Tensor[(32, 50, 1024), float32] */;
  %2541 = %2540(%2539) /* ty=Tensor[(32, 50, 1024), float32] */;
  %2542 = fn (%p0597: Tensor[(32, 50, 1024), float32] /* ty=Tensor[(32, 50, 1024), float32] */, Primitive=1) -> Tensor[(32, 50, 1), float32] {
    mean(%p0597, axis=[-1], keepdims=True) /* ty=Tensor[(32, 50, 1), float32] */
  } /* ty=fn (Tensor[(32, 50, 1024), float32]) -> Tensor[(32, 50, 1), float32] */;
  %2543 = %2542(%2541) /* ty=Tensor[(32, 50, 1), float32] */;
  %2544 = fn (%p0598: Tensor[(32, 50, 1024), float32] /* ty=Tensor[(32, 50, 1024), float32] */, %p1361: Tensor[(32, 50, 1), float32] /* ty=Tensor[(32, 50, 1), float32] */, Primitive=1) -> Tensor[(32, 50, 1), float32] {
    variance(%p0598, %p1361, axis=[-1], keepdims=True) /* ty=Tensor[(32, 50, 1), float32] */
  } /* ty=fn (Tensor[(32, 50, 1024), float32], Tensor[(32, 50, 1), float32]) -> Tensor[(32, 50, 1), float32] */;
  %2545 = %2544(%2541, %2543) /* ty=Tensor[(32, 50, 1), float32] */;
  %2546 = fn (%p025: Tensor[(32, 50, 1024), float32] /* ty=Tensor[(32, 50, 1024), float32] */, %p119: Tensor[(32, 50, 1), float32] /* ty=Tensor[(32, 50, 1), float32] */, %p29: Tensor[(32, 50, 1), float32] /* ty=Tensor[(32, 50, 1), float32] */, %p33: Tensor[(1024), float32] /* ty=Tensor[(1024), float32] */, %p43: Tensor[(1024), float32] /* ty=Tensor[(1024), float32] */, Primitive=1) -> Tensor[(32, 50, 1024), float16] {
    %74 = add(%p29, 1e-06f /* ty=float32 */) /* ty=Tensor[(32, 50, 1), float32] */;
    %75 = subtract(%p025, %p119) /* ty=Tensor[(32, 50, 1024), float32] */;
    %76 = rsqrt(%74) /* ty=Tensor[(32, 50, 1), float32] */;
    %77 = multiply(%75, %76) /* ty=Tensor[(32, 50, 1024), float32] */;
    %78 = multiply(%77, %p33) /* ty=Tensor[(32, 50, 1024), float32] */;
    %79 = add(%78, %p43) /* ty=Tensor[(32, 50, 1024), float32] */;
    %80 = broadcast_to(%79, shape=[32, 50, 1024]) /* ty=Tensor[(32, 50, 1024), float32] */;
    %81 = reshape(%80, newshape=[-1, 50, 1024]) /* ty=Tensor[(32, 50, 1024), float32] */;
    cast(%81, dtype="float16") /* ty=Tensor[(32, 50, 1024), float16] */
  } /* ty=fn (Tensor[(32, 50, 1024), float32], Tensor[(32, 50, 1), float32], Tensor[(32, 50, 1), float32], Tensor[(1024), float32], Tensor[(1024), float32]) -> Tensor[(32, 50, 1024), float16] */;
  %2547 = %2546(%2541, %2543, %2545, meta[relay.Constant][274] /* ty=Tensor[(1024), float32] */, meta[relay.Constant][275] /* ty=Tensor[(1024), float32] */) /* ty=Tensor[(32, 50, 1024), float16] */;
  %2548 = fn (%p024: Tensor[(32, 50, 1024), float16] /* ty=Tensor[(32, 50, 1024), float16] */, %p118: Tensor[(32, 1024, 4096), float16] /* ty=Tensor[(32, 1024, 4096), float16] */, Primitive=1) -> Tensor[(32, 50, 4096), float16] {
    nn.batch_matmul(%p024, %p118, out_dtype="float16") /* ty=Tensor[(32, 50, 4096), float16] */
  } /* ty=fn (Tensor[(32, 50, 1024), float16], Tensor[(32, 1024, 4096), float16]) -> Tensor[(32, 50, 4096), float16] */;
  %2549 = %2548(%2547, meta[relay.Constant][276] /* ty=Tensor[(32, 1024, 4096), float16] */) /* ty=Tensor[(32, 50, 4096), float16] */;
  %2550 = fn (%p023: Tensor[(32, 50, 4096), float16] /* ty=Tensor[(32, 50, 4096), float16] */, %p117: Tensor[(4096), float16] /* ty=Tensor[(4096), float16] */, %p28: float16 /* ty=float16 */, Primitive=1) -> Tensor[(32, 50, 4096), float16] {
    %62 = reshape(%p023, newshape=[32, 50, 4096]) /* ty=Tensor[(32, 50, 4096), float16] */;
    %63 = squeeze(%62, axis=[]) /* ty=Tensor[(32, 50, 4096), float16] */;
    %64 = add(%63, %p117) /* ty=Tensor[(32, 50, 4096), float16] */;
    %65 = multiply(%64, %p28) /* ty=Tensor[(32, 50, 4096), float16] */;
    %66 = cast(%65, dtype="float32") /* ty=Tensor[(32, 50, 4096), float32] */;
    %67 = erf(%66) /* ty=Tensor[(32, 50, 4096), float32] */;
    %68 = multiply(%67, 0.5f /* ty=float32 span=aten::gelu_22:0:0 */) /* ty=Tensor[(32, 50, 4096), float32] */;
    %69 = cast(%64, dtype="float32") /* ty=Tensor[(32, 50, 4096), float32] */;
    %70 = add(0.5f /* ty=float32 span=aten::gelu_22:0:0 */, %68) /* ty=Tensor[(32, 50, 4096), float32] */;
    %71 = multiply(%69, %70) /* ty=Tensor[(32, 50, 4096), float32] */;
    %72 = broadcast_to(%71, shape=[32, 50, 4096]) /* ty=Tensor[(32, 50, 4096), float32] */;
    %73 = reshape(%72, newshape=[-1, 50, 4096]) /* ty=Tensor[(32, 50, 4096), float32] */;
    cast(%73, dtype="float16") /* ty=Tensor[(32, 50, 4096), float16] */
  } /* ty=fn (Tensor[(32, 50, 4096), float16], Tensor[(4096), float16], float16) -> Tensor[(32, 50, 4096), float16] */;
  %2551 = %2550(%2549, meta[relay.Constant][277] /* ty=Tensor[(4096), float16] */, 0.707031f16 /* ty=float16 */) /* ty=Tensor[(32, 50, 4096), float16] */;
  %2552 = fn (%p022: Tensor[(32, 50, 4096), float16] /* ty=Tensor[(32, 50, 4096), float16] */, %p116: Tensor[(32, 4096, 1024), float16] /* ty=Tensor[(32, 4096, 1024), float16] */, Primitive=1) -> Tensor[(32, 50, 1024), float16] {
    nn.batch_matmul(%p022, %p116, out_dtype="float16") /* ty=Tensor[(32, 50, 1024), float16] */
  } /* ty=fn (Tensor[(32, 50, 4096), float16], Tensor[(32, 4096, 1024), float16]) -> Tensor[(32, 50, 1024), float16] */;
  %2553 = %2552(%2551, meta[relay.Constant][278] /* ty=Tensor[(32, 4096, 1024), float16] */) /* ty=Tensor[(32, 50, 1024), float16] */;
  %2554 = fn (%p021: Tensor[(32, 50, 1024), float16] /* ty=Tensor[(32, 50, 1024), float16] */, %p115: Tensor[(1024), float16] /* ty=Tensor[(1024), float16] */, %p27: Tensor[(32, 50, 1024), float16] /* ty=Tensor[(32, 50, 1024), float16] */, Primitive=1) -> Tensor[(32, 50, 1024), float16] {
    %59 = reshape(%p021, newshape=[32, 50, 1024]) /* ty=Tensor[(32, 50, 1024), float16] */;
    %60 = squeeze(%59, axis=[]) /* ty=Tensor[(32, 50, 1024), float16] */;
    %61 = add(%60, %p115) /* ty=Tensor[(32, 50, 1024), float16] */;
    add(%p27, %61) /* ty=Tensor[(32, 50, 1024), float16] */
  } /* ty=fn (Tensor[(32, 50, 1024), float16], Tensor[(1024), float16], Tensor[(32, 50, 1024), float16]) -> Tensor[(32, 50, 1024), float16] */;
  %2555 = %2554(%2553, meta[relay.Constant][279] /* ty=Tensor[(1024), float16] */, %2539) /* ty=Tensor[(32, 50, 1024), float16] */;
  %2556 = fn (%p020: Tensor[(32, 50, 1024), float16] /* ty=Tensor[(32, 50, 1024), float16] */, Primitive=1) -> Tensor[(32, 50, 1024), float32] {
    cast(%p020, dtype="float32") /* ty=Tensor[(32, 50, 1024), float32] */
  } /* ty=fn (Tensor[(32, 50, 1024), float16]) -> Tensor[(32, 50, 1024), float32] */;
  %2557 = %2556(%2555) /* ty=Tensor[(32, 50, 1024), float32] */;
  %2558 = fn (%p0599: Tensor[(32, 50, 1024), float32] /* ty=Tensor[(32, 50, 1024), float32] */, Primitive=1) -> Tensor[(32, 50, 1), float32] {
    mean(%p0599, axis=[-1], keepdims=True) /* ty=Tensor[(32, 50, 1), float32] */
  } /* ty=fn (Tensor[(32, 50, 1024), float32]) -> Tensor[(32, 50, 1), float32] */;
  %2559 = %2558(%2557) /* ty=Tensor[(32, 50, 1), float32] */;
  %2560 = fn (%p0600: Tensor[(32, 50, 1024), float32] /* ty=Tensor[(32, 50, 1024), float32] */, %p1362: Tensor[(32, 50, 1), float32] /* ty=Tensor[(32, 50, 1), float32] */, Primitive=1) -> Tensor[(32, 50, 1), float32] {
    variance(%p0600, %p1362, axis=[-1], keepdims=True) /* ty=Tensor[(32, 50, 1), float32] */
  } /* ty=fn (Tensor[(32, 50, 1024), float32], Tensor[(32, 50, 1), float32]) -> Tensor[(32, 50, 1), float32] */;
  %2561 = %2560(%2557, %2559) /* ty=Tensor[(32, 50, 1), float32] */;
  %2562 = fn (%p019: Tensor[(32, 50, 1024), float32] /* ty=Tensor[(32, 50, 1024), float32] */, %p114: Tensor[(32, 50, 1), float32] /* ty=Tensor[(32, 50, 1), float32] */, %p26: Tensor[(32, 50, 1), float32] /* ty=Tensor[(32, 50, 1), float32] */, %p32: Tensor[(1024), float32] /* ty=Tensor[(1024), float32] */, %p42: Tensor[(1024), float32] /* ty=Tensor[(1024), float32] */, Primitive=1) -> Tensor[(50, 32, 1024), float16] {
    %50 = add(%p26, 1e-06f /* ty=float32 */) /* ty=Tensor[(32, 50, 1), float32] */;
    %51 = subtract(%p019, %p114) /* ty=Tensor[(32, 50, 1024), float32] */;
    %52 = rsqrt(%50) /* ty=Tensor[(32, 50, 1), float32] */;
    %53 = multiply(%51, %52) /* ty=Tensor[(32, 50, 1024), float32] */;
    %54 = multiply(%53, %p32) /* ty=Tensor[(32, 50, 1024), float32] */;
    %55 = add(%54, %p42) /* ty=Tensor[(32, 50, 1024), float32] */;
    %56 = transpose(%55, axes=[1, 0, 2]) /* ty=Tensor[(50, 32, 1024), float32] */;
    %57 = broadcast_to(%56, shape=[50, 32, 1024]) /* ty=Tensor[(50, 32, 1024), float32] */;
    %58 = reshape(%57, newshape=[-1, 32, 1024]) /* ty=Tensor[(50, 32, 1024), float32] */;
    cast(%58, dtype="float16") /* ty=Tensor[(50, 32, 1024), float16] */
  } /* ty=fn (Tensor[(32, 50, 1024), float32], Tensor[(32, 50, 1), float32], Tensor[(32, 50, 1), float32], Tensor[(1024), float32], Tensor[(1024), float32]) -> Tensor[(50, 32, 1024), float16] */;
  %2563 = %2562(%2557, %2559, %2561, meta[relay.Constant][280] /* ty=Tensor[(1024), float32] */, meta[relay.Constant][281] /* ty=Tensor[(1024), float32] */) /* ty=Tensor[(50, 32, 1024), float16] */;
  %2564 = fn (%p018: Tensor[(50, 32, 1024), float16] /* ty=Tensor[(50, 32, 1024), float16] */, %p113: Tensor[(50, 1024, 3072), float16] /* ty=Tensor[(50, 1024, 3072), float16] */, Primitive=1) -> Tensor[(50, 32, 3072), float16] {
    nn.batch_matmul(%p018, %p113, out_dtype="float16") /* ty=Tensor[(50, 32, 3072), float16] */
  } /* ty=fn (Tensor[(50, 32, 1024), float16], Tensor[(50, 1024, 3072), float16]) -> Tensor[(50, 32, 3072), float16] */;
  %2565 = %2564(%2563, meta[relay.Constant][282] /* ty=Tensor[(50, 1024, 3072), float16] */) /* ty=Tensor[(50, 32, 3072), float16] */;
  %2566 = fn (%p017: Tensor[(50, 32, 3072), float16] /* ty=Tensor[(50, 32, 3072), float16] */, %p112: Tensor[(3072), float16] /* ty=Tensor[(3072), float16] */, Primitive=1) -> (Tensor[(50, 32, 1024), float16], Tensor[(50, 32, 1024), float16], Tensor[(50, 32, 1024), float16]) {
    %47 = reshape(%p017, newshape=[50, 32, 3072]) /* ty=Tensor[(50, 32, 3072), float16] */;
    %48 = squeeze(%47, axis=[]) /* ty=Tensor[(50, 32, 3072), float16] */;
    %49 = add(%48, %p112) /* ty=Tensor[(50, 32, 3072), float16] */;
    split(%49, indices_or_sections=[1024, 2048], axis=-1) /* ty=(Tensor[(50, 32, 1024), float16], Tensor[(50, 32, 1024), float16], Tensor[(50, 32, 1024), float16]) */
  } /* ty=fn (Tensor[(50, 32, 3072), float16], Tensor[(3072), float16]) -> (Tensor[(50, 32, 1024), float16], Tensor[(50, 32, 1024), float16], Tensor[(50, 32, 1024), float16]) */;
  %2567 = %2566(%2565, meta[relay.Constant][283] /* ty=Tensor[(3072), float16] */) /* ty=(Tensor[(50, 32, 1024), float16], Tensor[(50, 32, 1024), float16], Tensor[(50, 32, 1024), float16]) */;
  %2568 = fn (%p016: (Tensor[(50, 32, 1024), float16], Tensor[(50, 32, 1024), float16], Tensor[(50, 32, 1024), float16]) /* ty=(Tensor[(50, 32, 1024), float16], Tensor[(50, 32, 1024), float16], Tensor[(50, 32, 1024), float16]) */, %p111: float16 /* ty=float16 */, Primitive=1) -> Tensor[(512, 50, 64), float16] {
    %42 = %p016.0 /* ty=Tensor[(50, 32, 1024), float16] */;
    %43 = reshape(%42, newshape=[50, 512, 64]) /* ty=Tensor[(50, 512, 64), float16] */;
    %44 = transpose(%43, axes=[1, 0, 2]) /* ty=Tensor[(512, 50, 64), float16] */;
    %45 = divide(%44, %p111) /* ty=Tensor[(512, 50, 64), float16] */;
    %46 = broadcast_to(%45, shape=[512, 50, 64], dtype="float16") /* ty=Tensor[(512, 50, 64), float16] */;
    reshape(%46, newshape=[-1, 50, 64]) /* ty=Tensor[(512, 50, 64), float16] */
  } /* ty=fn ((Tensor[(50, 32, 1024), float16], Tensor[(50, 32, 1024), float16], Tensor[(50, 32, 1024), float16]), float16) -> Tensor[(512, 50, 64), float16] */;
  %2573 = fn (%p0601: (Tensor[(50, 32, 1024), float16], Tensor[(50, 32, 1024), float16], Tensor[(50, 32, 1024), float16]) /* ty=(Tensor[(50, 32, 1024), float16], Tensor[(50, 32, 1024), float16], Tensor[(50, 32, 1024), float16]) */, Primitive=1) -> Tensor[(512, 64, 50), float16] {
    %2569 = %p0601.1 /* ty=Tensor[(50, 32, 1024), float16] */;
    %2570 = reshape(%2569, newshape=[50, 512, 64]) /* ty=Tensor[(50, 512, 64), float16] */;
    %2571 = transpose(%2570, axes=[1, 2, 0]) /* ty=Tensor[(512, 64, 50), float16] */;
    %2572 = broadcast_to(%2571, shape=[512, 64, 50], dtype="float16") /* ty=Tensor[(512, 64, 50), float16] */;
    reshape(%2572, newshape=[-1, 64, 50]) /* ty=Tensor[(512, 64, 50), float16] */
  } /* ty=fn ((Tensor[(50, 32, 1024), float16], Tensor[(50, 32, 1024), float16], Tensor[(50, 32, 1024), float16])) -> Tensor[(512, 64, 50), float16] */;
  %2574 = %2568(%2567, 8f16 /* ty=float16 */) /* ty=Tensor[(512, 50, 64), float16] */;
  %2575 = %2573(%2567) /* ty=Tensor[(512, 64, 50), float16] */;
  %2576 = fn (%p015: Tensor[(512, 50, 64), float16] /* ty=Tensor[(512, 50, 64), float16] */, %p110: Tensor[(512, 64, 50), float16] /* ty=Tensor[(512, 64, 50), float16] */, Primitive=1) -> Tensor[(512, 50, 50), float16] {
    nn.batch_matmul(%p015, %p110, out_dtype="float16") /* ty=Tensor[(512, 50, 50), float16] */
  } /* ty=fn (Tensor[(512, 50, 64), float16], Tensor[(512, 64, 50), float16]) -> Tensor[(512, 50, 50), float16] */;
  %2577 = %2576(%2574, %2575) /* ty=Tensor[(512, 50, 50), float16] */;
  %2578 = fn (%p014: Tensor[(512, 50, 50), float16] /* ty=Tensor[(512, 50, 50), float16] */, Primitive=1) -> Tensor[(512, 50, 50), float32] {
    %40 = reshape(%p014, newshape=[512, 50, 50]) /* ty=Tensor[(512, 50, 50), float16] */;
    %41 = squeeze(%40, axis=[]) /* ty=Tensor[(512, 50, 50), float16] */;
    cast(%41, dtype="float32") /* ty=Tensor[(512, 50, 50), float32] */
  } /* ty=fn (Tensor[(512, 50, 50), float16]) -> Tensor[(512, 50, 50), float32] */;
  %2579 = %2578(%2577) /* ty=Tensor[(512, 50, 50), float32] */;
  %2580 = fn (%p013: Tensor[(512, 50, 50), float32] /* ty=Tensor[(512, 50, 50), float32] */, Primitive=1) -> Tensor[(512, 50, 50), float32] {
    %39 = nn.softmax(%p013) /* ty=Tensor[(512, 50, 50), float32] */;
    broadcast_to(%39, shape=[512, 50, 50]) /* ty=Tensor[(512, 50, 50), float32] */
  } /* ty=fn (Tensor[(512, 50, 50), float32]) -> Tensor[(512, 50, 50), float32] */;
  %2581 = %2580(%2579) /* ty=Tensor[(512, 50, 50), float32] */;
  %2582 = fn (%p012: Tensor[(512, 50, 50), float32] /* ty=Tensor[(512, 50, 50), float32] */, Primitive=1) -> Tensor[(512, 50, 50), float16] {
    %38 = reshape(%p012, newshape=[-1, 50, 50]) /* ty=Tensor[(512, 50, 50), float32] */;
    cast(%38, dtype="float16") /* ty=Tensor[(512, 50, 50), float16] */
  } /* ty=fn (Tensor[(512, 50, 50), float32]) -> Tensor[(512, 50, 50), float16] */;
  %2587 = fn (%p0602: (Tensor[(50, 32, 1024), float16], Tensor[(50, 32, 1024), float16], Tensor[(50, 32, 1024), float16]) /* ty=(Tensor[(50, 32, 1024), float16], Tensor[(50, 32, 1024), float16], Tensor[(50, 32, 1024), float16]) */, Primitive=1) -> Tensor[(512, 50, 64), float16] {
    %2583 = %p0602.2 /* ty=Tensor[(50, 32, 1024), float16] */;
    %2584 = reshape(%2583, newshape=[50, 512, 64]) /* ty=Tensor[(50, 512, 64), float16] */;
    %2585 = transpose(%2584, axes=[1, 0, 2]) /* ty=Tensor[(512, 50, 64), float16] */;
    %2586 = broadcast_to(%2585, shape=[512, 50, 64], dtype="float16") /* ty=Tensor[(512, 50, 64), float16] */;
    reshape(%2586, newshape=[-1, 50, 64]) /* ty=Tensor[(512, 50, 64), float16] */
  } /* ty=fn ((Tensor[(50, 32, 1024), float16], Tensor[(50, 32, 1024), float16], Tensor[(50, 32, 1024), float16])) -> Tensor[(512, 50, 64), float16] */;
  %2588 = %2582(%2581) /* ty=Tensor[(512, 50, 50), float16] */;
  %2589 = %2587(%2567) /* ty=Tensor[(512, 50, 64), float16] */;
  %2590 = fn (%p011: Tensor[(512, 50, 50), float16] /* ty=Tensor[(512, 50, 50), float16] */, %p19: Tensor[(512, 50, 64), float16] /* ty=Tensor[(512, 50, 64), float16] */, Primitive=1) -> Tensor[(512, 50, 64), float16] {
    nn.batch_matmul(%p011, %p19, out_dtype="float16") /* ty=Tensor[(512, 50, 64), float16] */
  } /* ty=fn (Tensor[(512, 50, 50), float16], Tensor[(512, 50, 64), float16]) -> Tensor[(512, 50, 64), float16] */;
  %2591 = %2590(%2588, %2589) /* ty=Tensor[(512, 50, 64), float16] */;
  %2592 = fn (%p010: Tensor[(512, 50, 64), float16] /* ty=Tensor[(512, 50, 64), float16] */, Primitive=1) -> Tensor[(1600, 1024), float16] {
    %35 = reshape(%p010, newshape=[512, 50, 64]) /* ty=Tensor[(512, 50, 64), float16] */;
    %36 = squeeze(%35, axis=[]) /* ty=Tensor[(512, 50, 64), float16] */;
    %37 = transpose(%36, axes=[1, 0, 2]) /* ty=Tensor[(50, 512, 64), float16] */;
    reshape(%37, newshape=[1600, 1024]) /* ty=Tensor[(1600, 1024), float16] */
  } /* ty=fn (Tensor[(512, 50, 64), float16]) -> Tensor[(1600, 1024), float16] */;
  %2593 = %2592(%2591) /* ty=Tensor[(1600, 1024), float16] */;
  %2594 = fn (%p09: Tensor[(1600, 1024), float16] /* ty=Tensor[(1600, 1024), float16] */, %p18: Tensor[(1024, 1024), float16] /* ty=Tensor[(1024, 1024), float16] */, %p25: Tensor[(1, 1024), float16] /* ty=Tensor[(1, 1024), float16] */, Primitive=1) -> Tensor[(1600, 1024), float16] {
    %34 = nn.dense(%p09, %p18, units=None, out_dtype="float16") /* ty=Tensor[(1600, 1024), float16] */;
    add(%34, %p25) /* ty=Tensor[(1600, 1024), float16] */
  } /* ty=fn (Tensor[(1600, 1024), float16], Tensor[(1024, 1024), float16], Tensor[(1, 1024), float16]) -> Tensor[(1600, 1024), float16] */;
  %2595 = %2594(%2593, meta[relay.Constant][284] /* ty=Tensor[(1024, 1024), float16] */, meta[relay.Constant][285] /* ty=Tensor[(1, 1024), float16] */) /* ty=Tensor[(1600, 1024), float16] */;
  %2596 = fn (%p08: Tensor[(1600, 1024), float16] /* ty=Tensor[(1600, 1024), float16] */, %p17: Tensor[(32, 50, 1024), float16] /* ty=Tensor[(32, 50, 1024), float16] */, Primitive=1) -> Tensor[(32, 50, 1024), float16] {
    %32 = reshape(%p08, newshape=[50, 32, 1024]) /* ty=Tensor[(50, 32, 1024), float16] */;
    %33 = transpose(%32, axes=[1, 0, 2]) /* ty=Tensor[(32, 50, 1024), float16] */;
    add(%33, %p17) /* ty=Tensor[(32, 50, 1024), float16] */
  } /* ty=fn (Tensor[(1600, 1024), float16], Tensor[(32, 50, 1024), float16]) -> Tensor[(32, 50, 1024), float16] */;
  %2597 = %2596(%2595, %2555) /* ty=Tensor[(32, 50, 1024), float16] */;
  %2598 = fn (%p07: Tensor[(32, 50, 1024), float16] /* ty=Tensor[(32, 50, 1024), float16] */, Primitive=1) -> Tensor[(32, 50, 1024), float32] {
    cast(%p07, dtype="float32") /* ty=Tensor[(32, 50, 1024), float32] */
  } /* ty=fn (Tensor[(32, 50, 1024), float16]) -> Tensor[(32, 50, 1024), float32] */;
  %2599 = %2598(%2597) /* ty=Tensor[(32, 50, 1024), float32] */;
  %2600 = fn (%p0603: Tensor[(32, 50, 1024), float32] /* ty=Tensor[(32, 50, 1024), float32] */, Primitive=1) -> Tensor[(32, 50, 1), float32] {
    mean(%p0603, axis=[-1], keepdims=True) /* ty=Tensor[(32, 50, 1), float32] */
  } /* ty=fn (Tensor[(32, 50, 1024), float32]) -> Tensor[(32, 50, 1), float32] */;
  %2601 = %2600(%2599) /* ty=Tensor[(32, 50, 1), float32] */;
  %2602 = fn (%p0604: Tensor[(32, 50, 1024), float32] /* ty=Tensor[(32, 50, 1024), float32] */, %p1363: Tensor[(32, 50, 1), float32] /* ty=Tensor[(32, 50, 1), float32] */, Primitive=1) -> Tensor[(32, 50, 1), float32] {
    variance(%p0604, %p1363, axis=[-1], keepdims=True) /* ty=Tensor[(32, 50, 1), float32] */
  } /* ty=fn (Tensor[(32, 50, 1024), float32], Tensor[(32, 50, 1), float32]) -> Tensor[(32, 50, 1), float32] */;
  %2603 = %2602(%2599, %2601) /* ty=Tensor[(32, 50, 1), float32] */;
  %2604 = fn (%p06: Tensor[(32, 50, 1024), float32] /* ty=Tensor[(32, 50, 1024), float32] */, %p16: Tensor[(32, 50, 1), float32] /* ty=Tensor[(32, 50, 1), float32] */, %p24: Tensor[(32, 50, 1), float32] /* ty=Tensor[(32, 50, 1), float32] */, %p31: Tensor[(1024), float32] /* ty=Tensor[(1024), float32] */, %p41: Tensor[(1024), float32] /* ty=Tensor[(1024), float32] */, Primitive=1) -> Tensor[(32, 50, 1024), float16] {
    %24 = add(%p24, 1e-06f /* ty=float32 */) /* ty=Tensor[(32, 50, 1), float32] */;
    %25 = subtract(%p06, %p16) /* ty=Tensor[(32, 50, 1024), float32] */;
    %26 = rsqrt(%24) /* ty=Tensor[(32, 50, 1), float32] */;
    %27 = multiply(%25, %26) /* ty=Tensor[(32, 50, 1024), float32] */;
    %28 = multiply(%27, %p31) /* ty=Tensor[(32, 50, 1024), float32] */;
    %29 = add(%28, %p41) /* ty=Tensor[(32, 50, 1024), float32] */;
    %30 = broadcast_to(%29, shape=[32, 50, 1024]) /* ty=Tensor[(32, 50, 1024), float32] */;
    %31 = reshape(%30, newshape=[-1, 50, 1024]) /* ty=Tensor[(32, 50, 1024), float32] */;
    cast(%31, dtype="float16") /* ty=Tensor[(32, 50, 1024), float16] */
  } /* ty=fn (Tensor[(32, 50, 1024), float32], Tensor[(32, 50, 1), float32], Tensor[(32, 50, 1), float32], Tensor[(1024), float32], Tensor[(1024), float32]) -> Tensor[(32, 50, 1024), float16] */;
  %2605 = %2604(%2599, %2601, %2603, meta[relay.Constant][286] /* ty=Tensor[(1024), float32] */, meta[relay.Constant][287] /* ty=Tensor[(1024), float32] */) /* ty=Tensor[(32, 50, 1024), float16] */;
  %2606 = fn (%p05: Tensor[(32, 50, 1024), float16] /* ty=Tensor[(32, 50, 1024), float16] */, %p15: Tensor[(32, 1024, 4096), float16] /* ty=Tensor[(32, 1024, 4096), float16] */, Primitive=1) -> Tensor[(32, 50, 4096), float16] {
    nn.batch_matmul(%p05, %p15, out_dtype="float16") /* ty=Tensor[(32, 50, 4096), float16] */
  } /* ty=fn (Tensor[(32, 50, 1024), float16], Tensor[(32, 1024, 4096), float16]) -> Tensor[(32, 50, 4096), float16] */;
  %2607 = %2606(%2605, meta[relay.Constant][288] /* ty=Tensor[(32, 1024, 4096), float16] */) /* ty=Tensor[(32, 50, 4096), float16] */;
  %2608 = fn (%p04: Tensor[(32, 50, 4096), float16] /* ty=Tensor[(32, 50, 4096), float16] */, %p14: Tensor[(4096), float16] /* ty=Tensor[(4096), float16] */, %p23: float16 /* ty=float16 */, Primitive=1) -> Tensor[(32, 50, 4096), float16] {
    %12 = reshape(%p04, newshape=[32, 50, 4096]) /* ty=Tensor[(32, 50, 4096), float16] */;
    %13 = squeeze(%12, axis=[]) /* ty=Tensor[(32, 50, 4096), float16] */;
    %14 = add(%13, %p14) /* ty=Tensor[(32, 50, 4096), float16] */;
    %15 = multiply(%14, %p23) /* ty=Tensor[(32, 50, 4096), float16] */;
    %16 = cast(%15, dtype="float32") /* ty=Tensor[(32, 50, 4096), float32] */;
    %17 = erf(%16) /* ty=Tensor[(32, 50, 4096), float32] */;
    %18 = multiply(%17, 0.5f /* ty=float32 span=aten::gelu_23:0:0 */) /* ty=Tensor[(32, 50, 4096), float32] */;
    %19 = cast(%14, dtype="float32") /* ty=Tensor[(32, 50, 4096), float32] */;
    %20 = add(0.5f /* ty=float32 span=aten::gelu_23:0:0 */, %18) /* ty=Tensor[(32, 50, 4096), float32] */;
    %21 = multiply(%19, %20) /* ty=Tensor[(32, 50, 4096), float32] */;
    %22 = broadcast_to(%21, shape=[32, 50, 4096]) /* ty=Tensor[(32, 50, 4096), float32] */;
    %23 = reshape(%22, newshape=[-1, 50, 4096]) /* ty=Tensor[(32, 50, 4096), float32] */;
    cast(%23, dtype="float16") /* ty=Tensor[(32, 50, 4096), float16] */
  } /* ty=fn (Tensor[(32, 50, 4096), float16], Tensor[(4096), float16], float16) -> Tensor[(32, 50, 4096), float16] */;
  %2609 = %2608(%2607, meta[relay.Constant][289] /* ty=Tensor[(4096), float16] */, 0.707031f16 /* ty=float16 */) /* ty=Tensor[(32, 50, 4096), float16] */;
  %2610 = fn (%p03: Tensor[(32, 50, 4096), float16] /* ty=Tensor[(32, 50, 4096), float16] */, %p13: Tensor[(32, 4096, 1024), float16] /* ty=Tensor[(32, 4096, 1024), float16] */, Primitive=1) -> Tensor[(32, 50, 1024), float16] {
    nn.batch_matmul(%p03, %p13, out_dtype="float16") /* ty=Tensor[(32, 50, 1024), float16] */
  } /* ty=fn (Tensor[(32, 50, 4096), float16], Tensor[(32, 4096, 1024), float16]) -> Tensor[(32, 50, 1024), float16] */;
  %2611 = %2610(%2609, meta[relay.Constant][290] /* ty=Tensor[(32, 4096, 1024), float16] */) /* ty=Tensor[(32, 50, 1024), float16] */;
  %2612 = fn (%p02: Tensor[(32, 50, 1024), float16] /* ty=Tensor[(32, 50, 1024), float16] */, %p12: Tensor[(1024), float16] /* ty=Tensor[(1024), float16] */, %p22: Tensor[(32, 50, 1024), float16] /* ty=Tensor[(32, 50, 1024), float16] */, Primitive=1) -> Tensor[(32, 50, 1024), float32] {
    %8 = reshape(%p02, newshape=[32, 50, 1024]) /* ty=Tensor[(32, 50, 1024), float16] */;
    %9 = squeeze(%8, axis=[]) /* ty=Tensor[(32, 50, 1024), float16] */;
    %10 = add(%9, %p12) /* ty=Tensor[(32, 50, 1024), float16] */;
    %11 = add(%p22, %10) /* ty=Tensor[(32, 50, 1024), float16] */;
    cast(%11, dtype="float32") /* ty=Tensor[(32, 50, 1024), float32] */
  } /* ty=fn (Tensor[(32, 50, 1024), float16], Tensor[(1024), float16], Tensor[(32, 50, 1024), float16]) -> Tensor[(32, 50, 1024), float32] */;
  %2613 = %2612(%2611, meta[relay.Constant][291] /* ty=Tensor[(1024), float16] */, %2597) /* ty=Tensor[(32, 50, 1024), float32] */;
  %2614 = fn (%p0605: Tensor[(32, 50, 1024), float32] /* ty=Tensor[(32, 50, 1024), float32] */, Primitive=1) -> Tensor[(32, 50, 1), float32] {
    mean(%p0605, axis=[-1], keepdims=True) /* ty=Tensor[(32, 50, 1), float32] */
  } /* ty=fn (Tensor[(32, 50, 1024), float32]) -> Tensor[(32, 50, 1), float32] */;
  %2615 = %2614(%2613) /* ty=Tensor[(32, 50, 1), float32] */;
  %2616 = fn (%p0606: Tensor[(32, 50, 1024), float32] /* ty=Tensor[(32, 50, 1024), float32] */, %p1364: Tensor[(32, 50, 1), float32] /* ty=Tensor[(32, 50, 1), float32] */, Primitive=1) -> Tensor[(32, 50, 1), float32] {
    variance(%p0606, %p1364, axis=[-1], keepdims=True) /* ty=Tensor[(32, 50, 1), float32] */
  } /* ty=fn (Tensor[(32, 50, 1024), float32], Tensor[(32, 50, 1), float32]) -> Tensor[(32, 50, 1), float32] */;
  %2617 = %2616(%2613, %2615) /* ty=Tensor[(32, 50, 1), float32] */;
  %2618 = fn (%p01: Tensor[(32, 50, 1024), float32] /* ty=Tensor[(32, 50, 1024), float32] */, %p11: Tensor[(32, 50, 1), float32] /* ty=Tensor[(32, 50, 1), float32] */, %p21: Tensor[(32, 50, 1), float32] /* ty=Tensor[(32, 50, 1), float32] */, %p3: Tensor[(1024), float32] /* ty=Tensor[(1024), float32] */, %p4: Tensor[(1024), float32] /* ty=Tensor[(1024), float32] */, Primitive=1) -> Tensor[(32, 1024), float16] {
    %1 = add(%p21, 1e-06f /* ty=float32 */) /* ty=Tensor[(32, 50, 1), float32] */;
    %2 = subtract(%p01, %p11) /* ty=Tensor[(32, 50, 1024), float32] */;
    %3 = rsqrt(%1) /* ty=Tensor[(32, 50, 1), float32] */;
    %4 = multiply(%2, %3) /* ty=Tensor[(32, 50, 1024), float32] */;
    %5 = multiply(%4, %p3) /* ty=Tensor[(32, 50, 1024), float32] */;
    %6 = add(%5, %p4) /* ty=Tensor[(32, 50, 1024), float32] */;
    %7 = take(%6, 0 /* ty=int32 span=aten::select_0:0:0 */, axis=1, mode="wrap") /* ty=Tensor[(32, 1024), float32] */;
    cast(%7, dtype="float16") /* ty=Tensor[(32, 1024), float16] */
  } /* ty=fn (Tensor[(32, 50, 1024), float32], Tensor[(32, 50, 1), float32], Tensor[(32, 50, 1), float32], Tensor[(1024), float32], Tensor[(1024), float32]) -> Tensor[(32, 1024), float16] */;
  %2619 = %2618(%2613, %2615, %2617, meta[relay.Constant][292] /* ty=Tensor[(1024), float32] */, meta[relay.Constant][293] /* ty=Tensor[(1024), float32] */) /* ty=Tensor[(32, 1024), float16] */;
  %2620 = fn (%p0: Tensor[(32, 1024), float16] /* ty=Tensor[(32, 1024), float16] */, %p1: Tensor[(1000, 1024), float16] /* ty=Tensor[(1000, 1024), float16] */, %p2: Tensor[(1, 1000), float16] /* ty=Tensor[(1, 1000), float16] */, Primitive=1) -> Tensor[(32, 1000), float16] {
    %0 = nn.dense(%p0, %p1, units=None, out_dtype="float16") /* ty=Tensor[(32, 1000), float16] */;
    add(%0, %p2) /* ty=Tensor[(32, 1000), float16] */
  } /* ty=fn (Tensor[(32, 1024), float16], Tensor[(1000, 1024), float16], Tensor[(1, 1000), float16]) -> Tensor[(32, 1000), float16] */;
  %2620(%2619, meta[relay.Constant][294] /* ty=Tensor[(1000, 1024), float16] */, meta[relay.Constant][295] /* ty=Tensor[(1, 1000), float16] */) /* ty=Tensor[(32, 1000), float16] */
}


